models/mvsec/indoor_flying3/indoor_flying3_multipixel_even_model.pth (torch, 872322 bytes, 30 tensors)

conv3d.0.weight f4 [4, 1, 3, 3, 3]
000000 81 91 6c be 23 82 7f be 08 69 b1 be 71 00 4b be
       -0.2310238 -0.24951987 -0.34650445 -0.19824387
000010 b7 bc 59 be af fa 90 be a9 cd 75 be ff 29 90 be
       -0.21263395 -0.28316256 -0.24004234 -0.2815704
000020 1d 3f 89 be 3a 47 56 3c 93 90 00 bc 2e f1 c5 3d
       -0.26805964 0.013078505 -0.007846969 0.09665142
000030 13 fb 5e bc d5 91 bc 3a 0b a0 a1 3d 6b e3 72 3d
       -0.013609665 0.0014386723 0.07891854 0.059298914
000040 c3 f2 99 3d 12 7a 0a 3d 99 1e a1 3e 78 24 7f 3e
       0.07517006 0.03380782 0.31468657 0.24916255
000050 be 73 bb 3e 32 97 93 3e 9f 8d 5c 3e 5f 82 81 3e
       0.36611742 0.2882629 0.21538399 0.25294778
000060 69 b3 bb 3e 06 61 77 3e 68 34 73 3e 93 0a 19 3e
       0.36660317 0.24158105 0.2375046 0.1494544
000070 5c 45 7c 3d 13 b1 76 be eb d5 c5 bd 86 c5 d6 3c
       0.061589584 -0.24090986 -0.09659942 0.026217233
000080 06 78 a3 3d 85 3e 16 be 14 6c 01 bd 7f fa 9d 3c
       0.07981877 -0.14672287 -0.031597212 0.019284485
000090 f8 a4 a7 3e c4 18 17 3d 7f 32 e0 be 4e 7a 4c 3d
       0.3274305 0.036888853 -0.43788525 0.049921326
0000a0 a5 ef 29 3d 67 1e bb bd 13 9c 27 3d b7 4f 31 bd
       0.04148831 -0.09136658 0.04092033 -0.043288913
0000b0 12 0f 87 bd 99 18 f6 3e db 24 65 be 49 60 99 be
       -0.06594671 0.48065642 -0.2237734 -0.29956272
0000c0 e9 3d 47 3e 96 b5 e7 bd a9 cc 83 bd 2b a2 95 3c
       0.1945721 -0.11313932 -0.0643552 0.018265804
0000d0 ca 85 ae 3d d9 96 15 3d 7f 9e b6 3d f0 1c 14 bd
       0.08521612 0.036520813 0.089169495 -0.03616041
0000e0 e9 b2 c0 3d f9 cc 2f bd be 1d 7f bd 29 c2 46 be
       0.094091244 -0.042920087 -0.062284224 -0.19410004
0000f0 08 99 ae bb e2 d3 ac 38 c4 23 18 bd 6e 1d 8e 3d
       -0.0053283013 8.2410654e-05 -0.037143484 0.06939207
000100 7a 99 51 3e 95 0e 71 3e d1 69 8a bd 7b ad c6 bc
       0.20468703 0.23540719 -0.06758464 -0.024252644
000110 68 54 c7 3b f5 b6 c4 3b 43 58 45 bd 88 2b 30 be
       0.00608306 0.0060032555 -0.048179876 -0.17204106
000120 e8 43 d9 3d 93 21 51 3e 0c 77 52 3e 90 e7 1d bd
       0.10608655 0.20422964 0.20553225 -0.038550913
000130 bb 05 e7 bc 77 0b fd 3c 5a fc 0f be 9b 65 5a be
       -0.028200975 0.030889256 -0.14061108 -0.21327822
000140 7b 92 06 be a7 f4 4d 3d 5e 75 07 bd 12 ef 8d bd
       -0.13141815 0.050282147 -0.033070914 -0.06930365
000150 8a 2d 97 3d f5 ba db 3a 1f 5b a0 bc 21 13 4b be
       0.07381733 0.0016764092 -0.0195747 -0.19831516
000160 0f 90 a8 bd 8d dd a8 3e c1 97 0a 3d 8c 41 67 bd
       -0.08230602 0.3298153 0.03383613 -0.056458995
000170 1b 00 5d bd 4b d2 39 3d a3 a0 8d bd ba 54 17 bd
       -0.05395518 0.045366567 -0.06915405 -0.036946036
000180 4c c9 3f be b4 e3 23 bd 2b cf df 3e a7 66 de bd
       -0.18729132 -0.040012076 0.43712744 -0.10859423
000190 73 d3 17 3e f5 03 07 3e 74 d1 98 3d 17 44 de bd
       0.14826755 0.13185103 0.07461825 -0.10852831
0001a0 91 a2 80 3d 9c 53 d4 be 60 3e 5e be fc 91 91 3e
       0.06281007 -0.4147004 -0.21703482 0.2843169

conv3d.0.bias f4 [4]
000000 13 f4 d3 bb d4 2a 26 bd 13 91 c2 bd dc 81 a3 bd
       -0.006468305 -0.040568188 -0.09500327 -0.07983753

gru.weight_ih_l0 f4 [300, 100]
000000 84 ae ac 3d e0 de 28 3e 2a c0 c5 3d be 49 ec bc
       0.08431724 0.1649127 0.09655793 -0.028843757
000010 b6 06 b8 bc c2 ef f2 bd a7 ee 01 3e e3 4a 59 3d
       -0.022464138 -0.118621364 0.12688695 0.053049933
000020 3a e8 0b bd 49 26 81 3d d0 a8 82 bd 15 42 1d 3e
       -0.034157015 0.063061304 -0.06379855 0.1535724
000030 90 53 12 3d 70 2c bb bd bf 08 bb 3d 8e 8f 8b bc
       0.035724223 -0.09139335 0.091325276 -0.017036226
000040 34 d0 6a 3e 1d 56 44 3e ea 10 36 3e 2a 58 98 3e
       0.22930986 0.19173475 0.1777989 0.29754764
000050 ed 87 87 be 47 6a 3a 3d d5 60 19 3e 5b 24 2e 3e
       -0.2647089 0.04551151 0.14978345 0.17006056
000060 8d af 50 3e 27 05 25 3d 2a 3d 87 3e 0d ff 07 3e
       0.20379467 0.040288117 0.26413852 0.13280888
000070 40 05 96 3c de a5 cb 3c 00 df e6 bd 8b b8 1d 3e
       0.01831305 0.024859365 -0.112730026 0.15402429
000080 07 f2 c5 3d bb 85 b1 bd 92 ef 7c 3e 9d dd 0f be
       0.09665304 -0.08668085 0.24700764 -0.14049383
000090 22 45 7c 3e b3 0c 25 3e 43 5b 7d bc 47 c8 91 3e
       0.24635747 0.16118126 -0.015463653 0.28473112
0000a0 2c 12 0e be fc 0e 94 3e eb e1 87 bc 1e b1 31 be
       -0.1387412 0.28917682 -0.016587218 -0.17352721
0000b0 b8 a1 5d 3e a2 ac e4 be 0b a9 ee bc 88 d2 21 bd
       0.21643722 -0.44662958 -0.02913334 -0.03950742
0000c0 27 42 ac bd a0 4d 04 3e aa 90 2e 3e 95 a5 36 3e
       -0.08411055 0.12920237 0.17047372 0.17836602
0000d0 83 ef 3a 3e 70 2f b6 3c 8f 21 c3 3e 51 0e 0c 3f
       0.18255429 0.022239417 0.3811154 0.54709345
0000e0 0e e9 c1 3e d3 fd 80 3e 4e 86 59 3e 54 0e 83 3e
       0.3787312 0.25193653 0.2124264 0.2559687
0000f0 dc 26 30 bc f4 34 c7 3c fb 50 dc 3d 1c d2 70 bc
       -0.010751452 0.024317242 0.10757633 -0.0146985315
000100 66 90 1a 3c 15 0a bd bd 7f f2 5c bd 35 98 c7 bc
       0.009433841 -0.092304386 -0.0539422 -0.02436457
000110 d4 66 15 be 89 4a ee bd 27 8b d2 3e f8 01 54 3e
       -0.14590007 -0.1163531 0.4112179 0.20703876
000120 9a 0d 5f 3e 54 43 46 3e 41 8c bf 3e 33 5b b4 3e
       0.21782532 0.19361621 0.37411693 0.3522583
000130 e6 39 bb bc 0e 8d 42 3e 82 6e 82 be b5 3b 21 be
       -0.022854757 0.1899912 -0.25474936 -0.15745433
000140 4d 7d 9b 3e 73 c8 9b bd d8 5f 1a 3e 6e b7 f5 be
       0.30369034 -0.07606592 0.15075624 -0.47991508
000150 52 9b 30 be 44 32 32 3e e2 39 04 3e 9f 43 42 bc
       -0.1724675 0.17401987 0.12912706 -0.011856942
000160 df 7f 99 be 8b 9f 2a 3d 2d 08 83 bc d9 86 e5 3d
       -0.2998037 0.04165606 -0.01599511 0.11207361
000170 30 61 df bd 74 85 24 be 44 48 cf 3b 08 d3 08 be
       -0.10907209 -0.16066533 0.0063257534 -0.13361752
000180 b5 ae 0a 3e 70 aa 73 bd 8a 3d 2e be 0d c5 64 be
       0.13543208 -0.059488714 -0.17015663 -0.22340794
000190 30 d7 d7 bd 7e 21 6c be e7 b8 b5 be b1 1b bb be
       -0.10539091 -0.23059651 -0.35492632 -0.36544564
0001a0 1c 43 80 be 11 50 97 be f7 ca d4 be 83 d3 c4 be
       -0.250512 -0.29553273 -0.415611 -0.3844262
0001b0 aa 7b fa be 3c a7 5f be 1f 93 85 be 9e 80 91 be
       -0.48922473 -0.21841139 -0.26088807 -0.2841844
0001c0 3f 71 6b be 88 5b df be 53 94 00 be b8 07 7b be
       -0.22992419 -0.4362452 -0.12556581 -0.24514663
0001d0 3d 93 a6 be 89 d7 a6 be cf 2e fb be 89 14 0c be
       -0.3253421 -0.32586315 -0.4905915 -0.13679709
0001e0 4e df f6 bd 3b 25 38 be f4 d6 06 be 5e ad a8 be
       -0.12054311 -0.17982952 -0.13167936 -0.3294477
0001f0 c2 b1 24 bd 73 12 1c be 40 0c af be 52 b9 a7 be
       -0.040208586 -0.15241413 -0.34189034 -0.32758576
000200 79 2d a3 be 64 19 86 be fd 9d 32 be 0a 4d c8 be
       -0.3187063 -0.26191247 -0.1744308 -0.39121276
000210 9a e0 ab be 39 a7 6f be 99 86 b7 be 18 73 b2 be
       -0.33569795 -0.23403634 -0.35844877 -0.34853435
000220 6f 9f de be dd 62 e4 be ec ea ac bd df be 9b be
       -0.43481013 -0.44606677 -0.08443245 -0.3041906
000230 cd 32 17 be 05 1b 45 bf b3 41 c4 be a9 50 05 bd
       -0.14765473 -0.76994354 -0.38331375 -0.032547627
000240 66 ae 97 be 7c 33 00 bc b9 aa b2 be 32 c0 a1 be
       -0.29625243 -0.007824775 -0.34895876 -0.31591946
000250 ea c8 67 3d 85 ea 79 be 55 78 04 3e 0c 97 ab 3d
       0.05658809 -0.24405868 0.12936528 0.08378419
000260 98 57 10 3e 1c 69 6e 3d 9a 99 15 3c 18 ff 58 be
       0.14095914 0.05820571 0.00913086 -0.2119106
000270 53 f7 cb bd c9 fe 31 bd 3a 40 69 bd 4a 02 1f bd
       -0.09959283 -0.043455873 -0.056946017 -0.038820542
000280 77 23 0e bf 64 7c 05 bf 80 1e f6 bd 44 0e 6e be
       -0.55522865 -0.5214293 -0.12017536 -0.2324763
000290 e1 33 00 be de e5 49 be 99 7b c2 bd 30 8d 13 be
       -0.1251979 -0.19716594 -0.09496231 -0.14409328
0002a0 f9 c3 15 be 8b 36 f5 bb 44 4f c4 bd 2e fd 04 be
       -0.14625539 -0.0074833087 -0.09585431 -0.12987205
0002b0 94 93 04 bd 17 69 16 be 8c 17 47 be 19 6e c6 be
       -0.032367304 -0.14688526 -0.19442576 -0.38755873
0002c0 63 3e 70 be 87 e6 91 be b6 5a d8 be ae a5 79 bd
       -0.23461299 -0.2849619 -0.42256707 -0.06094902
0002d0 c1 26 8e be 78 64 54 be 60 e1 8e be 02 bb a3 be
       -0.27763942 -0.20741451 -0.27906322 -0.31978613
0002e0 c9 cd 71 3d e0 43 a1 bd c4 47 01 be c7 c7 ed be
       0.059034143 -0.07874274 -0.12625033 -0.4644148
0002f0 cf fb a1 be 7e 29 58 bd 7d b7 17 be a1 42 87 be
       -0.31637427 -0.052773945 -0.14816089 -0.2641802
000300 c9 d5 05 be dd 75 6c be dc 8c 80 be 8e de 5d be
       -0.13069834 -0.23091836 -0.25107467 -0.21666929
000310 67 dd 93 be f2 49 46 be 48 3d 91 be b9 0e 84 be
       -0.28879854 -0.19364145 -0.28367066 -0.25792482
000320 5f 13 4d 3e 0c 66 f3 3d 57 d9 05 be 9e 46 c7 be
       0.2002692 0.11884698 -0.1307119 -0.38921064
000330 85 15 a1 be a0 2f 13 bc fb c5 13 3e 13 61 64 bd
       -0.3146173 -0.008983523 0.14430992 -0.05575664
000340 26 4e 9d be 22 48 9a be 59 71 bb bd ae c5 a8 3c
       -0.30723685 -0.30133158 -0.09152479 0.020602074
000350 fc 14 d6 bd eb a4 67 be fe f3 c1 be cf c9 24 be
       -0.10453221 -0.22621505 -0.37881464 -0.16092609
000360 e3 5b 10 3c 84 d8 ba bd 40 40 6c be a3 89 ce be
       0.00881097 -0.09123328 -0.23071384 -0.40339383
000370 77 f1 5d 3d 1f f7 3b 3d cc 62 12 3d 97 15 32 be
       0.054185357 0.04588997 0.03573875 -0.17391048
000380 80 08 98 be 3b e3 b5 be ed 3b 76 3e 71 e2 32 3e
       -0.29693985 -0.35524926 0.24046297 0.17469193
000390 ec a6 39 be 58 dc f7 be 63 30 e7 be 6f 79 86 bd
       -0.18130082 -0.48410296 -0.45154104 -0.0656613
0003a0 9b 1b 4b bc 89 34 49 3c 05 74 a3 be 78 52 95 bd
       -0.012396718 0.012280592 -0.31924453 -0.0729112
0003b0 e8 e4 03 3e 53 44 43 be ba 39 a3 bd 48 e1 a3 bd
       0.1288029 -0.19069032 -0.07969995 -0.08001953
0003c0 27 45 c7 3d 97 5d 53 3e 02 80 c7 bd 85 89 fb bd
       0.09729987 0.2064117 -0.097412124 -0.12282089
0003d0 5a 87 21 bd 48 a8 a8 be 6e 33 47 bd 50 68 ba be
       -0.039435722 -0.32940888 -0.04863303 -0.3640771
0003e0 7c 2d 04 3e 36 3d bc bd e8 99 39 3d 33 fc ec bc
       0.12907976 -0.091913626 0.045312792 -0.028928852
0003f0 cc ff dd 3c e6 a4 2a 3d b5 69 ca 3e ee 12 d7 3e
       0.027099513 0.041661166 0.39533773 0.4200663

gru.weight_hh_l0 f4 [300, 100]
000000 9a 44 d3 bd 78 e8 b1 3d d8 78 27 bc 69 a3 94 bc
       -0.10315819 0.08686918 -0.0102216825 -0.018144326
000010 df bc 38 3e a2 5e 0f 3e f3 4b 92 bc a5 11 29 be
       0.18040799 0.14000943 -0.017858481 -0.16510637
000020 f4 16 68 3e ba bc 6f 3e 35 47 71 be 5e fa 89 be
       0.22665006 0.23411837 -0.2356232 -0.26948828
000030 83 99 b2 3e 2a 38 06 be ac 3e 60 3e e1 3c f9 3e
       0.34882745 -0.13107362 0.21898907 0.4867926
000040 fa 8d 7c 3d ac e4 d3 bc 81 7f f0 bd e4 ce 5e be
       0.061658837 -0.025865875 -0.117430694 -0.2175861
000050 62 f9 0b be b1 42 d5 3e cb fa f0 3d 12 4e c7 bd
       -0.1366935 0.41652444 0.11766585 -0.097316876
000060 41 d7 6e bd c0 4a 4d be 97 ea 7c bd 88 16 86 be
       -0.05831075 -0.20048046 -0.06174716 -0.26189065
000070 6e 32 9f bd 63 96 b9 3d 45 c3 0a be 79 b5 d4 bc
       -0.077732906 0.09061887 -0.13551052 -0.02596544
000080 17 0d c2 3e 1e b2 30 3d 36 f3 ee bb 9e 67 81 3e
       0.37900612 0.043138616 -0.0072921766 0.25274366
000090 2b dd 40 be 34 aa 2b bc b3 9b c4 3e 8a 3e 29 3f
       -0.18834369 -0.010477591 0.3840004 0.6611105
0000a0 7e 4d b3 3d f4 96 0f 3f b9 e0 3a be ec 52 4a 3e
       0.08755015 0.5608971 -0.18249787 0.19758195
0000b0 4b f1 ab 3e b8 26 54 bd a0 ec c7 bc 67 97 f7 bd
       0.3358253 -0.051794738 -0.024404824 -0.120894246
0000c0 98 ea 3e 3d 81 73 00 3e d2 a9 85 be 6e 27 63 3d
       0.046610445 0.12544061 -0.26106125 0.055457525
0000d0 c6 01 8b 3b 20 1e 8f 3d d9 a4 af bd 2c 9b a1 bd
       0.004242155 0.06988168 -0.08576364 -0.07890925
0000e0 7a 4f 01 be 6b 5a 0a bd 93 c8 1f 3d de ff 96 3e
       -0.12627974 -0.033777636 0.03900964 0.29492086
0000f0 6c fb 62 be 49 86 58 be cc e5 19 3e 67 80 da 3d
       -0.22166222 -0.21144976 0.15029067 0.10669022
000100 ca 66 24 3e fa f7 12 be 93 7a 52 bd eb e7 ca 3c
       0.16054836 -0.14352408 -0.051386427 0.02476879
000110 7b a0 be be e3 81 80 be ea 65 3e be ba ad db be
       -0.37231812 -0.25099096 -0.18593565 -0.4290598
000120 71 5b ff bd 9a 7c 95 3e b5 b6 32 be 46 9d 92 bd
       -0.12468613 0.29196626 -0.1745251 -0.07158904
000130 de 1d 7e be 0d 12 cf 3e 3b 6d 37 bc a9 45 15 bd
       -0.24816081 0.4044346 -0.011195476 -0.036443386
000140 c8 04 4f 3e d4 33 9c bc c0 60 07 3e 68 3a e3 3d
       0.20216668 -0.019067682 0.13220501 0.110951245
000150 b4 6f 44 3d 51 d4 31 be 95 a9 03 bf f7 fb 3f be
       0.04795809 -0.17366149 -0.51430637 -0.1874846
000160 73 87 d9 3e 06 c3 8f 3e c6 7a 6b 3e 0c cf 9d be
       0.42486152 0.2807848 0.22996053 -0.30822027
000170 d4 24 29 bd a8 2c d0 bc dc 9d 3e 3e fb ec 75 be
       -0.041294888 -0.025411919 0.18614906 -0.24016182
000180 af 1b 34 be e5 0e c9 3c 5e f7 a0 3d 7e 80 9f be
       -0.17588685 0.024543235 0.078596815 -0.3115272
000190 aa a0 16 bb 60 7a b5 3e 6e cb dc 3d 24 8c 20 3e
       -0.0022983947 0.35444927 0.10780989 0.1567846
0001a0 c8 24 a1 be bd 11 b5 bd 0b 3a 5c 3c fa ca 94 3d
       -0.31473374 -0.08841274 0.013441573 0.07265277
0001b0 ba 7c 3e be d5 e9 bb bd d3 49 94 bd 0d a5 12 3e
       -0.18602267 -0.09175459 -0.07240643 0.14320774
0001c0 d1 66 dc 3d 4e d1 96 be 76 94 2a be bd 3d 67 bd
       0.10761798 -0.29456562 -0.16658196 -0.056455363
0001d0 f2 9b 09 bd 30 f4 2b bd f3 d9 87 3d 9e 4c 20 be
       -0.033595987 -0.041980922 0.066333674 -0.15654227
0001e0 99 66 e9 3c 93 01 d8 3d c3 21 e6 bd a7 fc db 3e
       0.028491305 0.10547175 -0.11236908 0.42966196
0001f0 28 8b 05 bb 8c 50 90 bd a5 b9 36 bb 0e 1c b6 3e
       -0.0020377133 -0.07046613 -0.002788165 0.3556828
000200 a0 85 d3 3c e2 f7 cc be eb ab e1 3d d5 8f bc 3e
       0.025820553 -0.4003287 0.11019119 0.36828485
000210 0f f7 9c 3e 75 42 73 3d 5b b6 d3 3d ef 74 f6 bd
       0.3065724 0.05938955 0.10337516 -0.12034022
000220 7b c1 a6 bd fa 7e ab 3e 4a 68 01 bb 41 e3 2d 3e
       -0.08142372 0.33495313 -0.0019746 0.16981222
000230 a1 06 61 bd 86 cb 65 be 53 34 9c bd 5c 5e 74 be
       -0.054937962 -0.2244092 -0.076271676 -0.2386412
000240 45 2a 2d bb ce 5b 94 3d 62 c3 b9 be 25 e5 8a 3d
       -0.00264229 0.07244073 -0.36281878 0.06781987
000250 ec fd 49 3d c7 ec ee be 85 8a d5 bd 76 9c 9e be
       0.049314424 -0.46665022 -0.10426811 -0.30978745
000260 23 fd 7d 3d 92 1f a1 3e 50 f1 19 be 9a 65 93 bd
       0.062008988 0.314694 -0.1503346 -0.07197113
000270 3a 62 0b be c3 76 8d be 1e 1c a2 3e 14 9e d0 bd
       -0.13611689 -0.2762967 0.31662077 -0.10186401
000280 e9 52 f6 bc 81 cc 79 3e 8b fd 04 3e 2d 44 90 bd
       -0.030068832 0.24394418 0.12987344 -0.070442535
000290 de 08 86 bd d0 82 e3 bc 31 bb 2e bd 87 8d 95 3d
       -0.0654466 -0.027772337 -0.04265899 0.07302385
0002a0 f9 c8 64 3c e0 a0 5f 3d 27 83 4b bd 43 3a 53 3e
       0.013963931 0.05459678 -0.049685623 0.20627694
0002b0 ac a2 e3 3c bb cd ae bc 3f a4 0d be ca 33 57 bd
       0.027787529 -0.021338334 -0.13832186 -0.052539624
0002c0 f5 8d 8f 3d b5 8e ca 3c e0 66 46 bc 1d fe c5 3c
       0.07009498 0.024726251 -0.012109488 0.024169022
0002d0 97 f0 c9 bd 4e 73 67 be 09 0b d5 3e 67 56 ac 3c
       -0.09860342 -0.22602579 0.41609982 0.021037294
0002e0 d8 a3 bb bd 41 69 44 3d ad c7 8a be ac fc 77 bc
       -0.0916211 0.04795194 -0.27105466 -0.015135925
0002f0 90 ba d3 bd a8 de c3 bd af 90 a9 3d 41 ab d1 bc
       -0.10338318 -0.09563953 0.08279549 -0.025594356
000300 97 08 5d bd 97 66 b1 be 8c 13 fa 3d 7c 4f 6f be
       -0.05396327 -0.34648582 0.122107595 -0.23370165
000310 69 12 c5 3d 03 28 16 be 43 08 e7 3b 0f 9a f4 bc
       0.09622652 -0.14663701 0.0070505454 -0.029858617
000320 9a 96 6f 3e 16 42 8e be db 91 55 3d 37 fe 86 3e
       0.23397294 -0.27784795 0.05214105 0.26365826
000330 46 f7 0c 3f df 8a 05 be 83 7c ad bd 99 84 a0 3c
       0.5506481 -0.13041256 -0.08471014 0.019594477
000340 cd b4 4a be 04 56 ce bd c3 ed 88 be a2 d8 01 3e
       -0.19795533 -0.10075 -0.26743898 0.12680295
000350 51 f5 cf 3e 34 86 e3 3e dd 62 b3 bd 1b ec ec bd
       0.4061685 0.44438326 -0.08759091 -0.11568471
000360 c2 f1 1b 3f 76 b2 6c 3e 9b c0 6f be be 4c 80 3d
       0.6091577 0.23114952 -0.23413317 0.062646374
000370 33 ed d7 be 23 61 12 be 41 1f e4 3e 55 dc cb bd
       -0.42173156 -0.14294867 0.44555095 -0.099541344
000380 a0 47 a5 3e 95 e8 81 be 08 38 16 bd cb 1d 1c bf
       0.32281208 -0.25372759 -0.03667453 -0.6098296
000390 37 45 27 be f4 7a c4 be 4e 4e c5 3e 7f 89 1a be
       -0.16334997 -0.38375056 0.38536304 -0.15091513
0003a0 27 24 b6 3e c3 52 9d bc 9a 4f 04 be d2 de 81 be
       0.35574457 -0.019204503 -0.1292099 -0.2536531
0003b0 30 fe cc 3e 22 2d 91 be 6c 00 06 bd cc 71 22 3e
       0.4003768 -0.28354746 -0.032715246 0.15863723
0003c0 c4 4e 84 3d df c1 6f be bd c6 69 3e 71 be a3 3a
       0.06460336 -0.234138 0.22829719 0.0012492669
0003d0 41 0a e5 be f9 c3 e3 bd a2 5a a3 be 0f c3 98 3e
       -0.44734386 -0.11121363 -0.31905085 0.29836318
0003e0 35 a0 fe bc af 48 88 bd 14 a9 19 3e 92 1a 93 3d
       -0.031082252 -0.06654488 0.15005904 0.07182802
0003f0 b6 39 f4 bc 93 ef 91 3e b8 e3 52 3c 92 63 70 be
       -0.029812675 0.28503093 0.012871675 -0.23475483

gru.bias_ih_l0 f4 [300]
000000 58 2a 32 bc 73 1a 29 3e 42 dd 40 be 4b 76 a8 3d
       -0.010874353 0.16513996 -0.18834403 0.082256876
000010 84 32 17 be 90 39 12 be 78 b2 4c be fa 8f 3c bd
       -0.14765364 -0.14279771 -0.19989955 -0.046035744
000020 08 04 4d be 49 fa db be a2 db 3d be a3 62 9c be
       -0.20021069 -0.4296439 -0.18540815 -0.30544004
000030 94 eb b0 be d8 bd 46 3e a5 a4 80 be c9 d8 66 bd
       -0.34554732 0.19408357 -0.25125614 -0.056359086
000040 5c 76 01 3d 7c 07 0e 3d dc 46 73 be e4 aa e1 be
       0.031607017 0.034675106 -0.237575 -0.44075692
000050 13 b5 3e be f4 33 bc bd 96 bd 3d be b4 b8 28 bd
       -0.18623762 -0.09189597 -0.18529353 -0.04119177
000060 ed 24 19 bd af 42 4e be 85 2d 10 bd b0 7a ab be
       -0.03738873 -0.20142625 -0.03519966 -0.3349204
000070 da 38 5e bd 9a 8b 09 bd 8f b1 97 be 06 9f 1d be
       -0.054253437 -0.0335804 -0.29627654 -0.15392694
000080 b1 d2 40 be f2 07 20 3d 37 0c a7 be 27 fb 57 be
       -0.18830372 0.039070077 -0.32626507 -0.21091901
000090 a3 d8 c9 bc 3b f8 cb bd 95 b9 10 bd d9 77 3d be
       -0.024639433 -0.099594556 -0.035333235 -0.1850275
0000a0 8b 67 15 bd 69 04 36 be 3b 88 37 be bc 5c 8d be
       -0.0364757 -0.1777512 -0.17923062 -0.27609813
0000b0 17 6d 8c bd f2 21 4a 3e c1 86 8a be 58 f7 46 be
       -0.06856745 0.19739512 -0.27055934 -0.19430292
0000c0 84 1f 5e be 90 08 62 be d2 ef ae bd 50 a3 88 be
       -0.2169171 -0.22073579 -0.08541836 -0.26687098
0000d0 83 3a d8 3c c3 bb c7 be d9 b1 3b bd a8 a3 f2 bd
       0.026395088 -0.39010438 -0.045823906 -0.11847621
0000e0 91 31 b4 3d f2 62 02 be 1c a5 25 be 8a 2b fd bd
       0.087985165 -0.12733057 -0.16176265 -0.1236182
0000f0 b1 8b 83 bd af 47 7b be 21 0e 60 bd 6c 39 54 be
       -0.064231284 -0.24539064 -0.054700974 -0.2072503
000100 f4 2e 05 be 85 08 46 be ec 80 6d 3b a9 37 d1 bd
       -0.13006192 -0.19339187 0.0036240174 -0.102156945
000110 9f e6 9c 3e 05 a1 9a be 85 d0 18 be 6d de 2c be
       0.306447 -0.30200973 -0.14923294 -0.16881724
000120 6a c1 40 bd 06 e6 b2 bd 69 11 2b be b1 91 15 be
       -0.047059454 -0.0873528 -0.1670586 -0.14606358
000130 d2 fd f0 bc 33 f6 69 be ac 62 59 be 23 11 9f be
       -0.029417906 -0.22847824 -0.21229047 -0.31067762
000140 65 fa 0c be 19 a5 52 be 68 2f 81 bd 7e f1 3d be
       -0.13767393 -0.20570792 -0.0630787 -0.18549153
000150 77 1f 64 be 00 05 bd bd 05 a4 18 bd 4d 49 b9 bd
       -0.22277628 -0.09229469 -0.037265796 -0.09047184
000160 b6 1b 8b be 0a 0e 29 be 5e 2c 7b 3d 74 b7 80 be
       -0.2716958 -0.16509262 0.06132161 -0.25139964
000170 f5 63 8b be bb dd 2b be f9 04 c4 bd 46 38 60 be
       -0.272247 -0.16783802 -0.09571261 -0.21896467
000180 21 c4 7f be 95 9f 79 be b9 94 81 be 0a 34 11 be
       -0.24977161 -0.24377282 -0.2530878 -0.14180008
000190 ee da c0 3e d8 df 50 be a2 ad 7a 3e 9e 46 2d 3e
       0.3766703 -0.2039789 0.24480298 0.1692147
0001a0 6a 76 ce 3d b5 d0 98 3e 37 8f a1 3e a5 ee 58 3e
       0.100811794 0.2984673 0.31554577 0.21184786
0001b0 96 e6 63 3e e5 f2 89 3c 86 0f 93 3e c5 16 30 3e
       0.2225593 0.016839454 0.2872278 0.17196186
0001c0 05 e5 b5 bd e7 1a 7c 3d 6c 17 78 3e 34 1e 7b 3e
       -0.08881573 0.061549094 0.24227685 0.2452324
0001d0 6f f0 e6 3e c5 32 a3 3e 5f d0 3d 3e 21 2e b5 3e
       0.4510531 0.31874672 0.18536519 0.35386756
0001e0 a4 46 d9 3c 54 a2 d2 3e cd cb b4 3d e5 c6 62 3d
       0.026522942 0.41139472 0.088279344 0.05536546
0001f0 4f 7e d0 3d 34 be 87 3e 42 a6 a5 3d ea 8e ee 3e
       0.101803415 0.265123 0.08088352 0.4659341
000200 ad 76 99 3e ad ce a9 3e 95 6b 79 3e 6f 65 01 3f
       0.29973355 0.33165494 0.24357446 0.505454
000210 fe 7c be 3e 1d ae 80 3e b6 e0 22 3e 26 46 5a 3d
       0.37204736 0.25132838 0.15906033 0.053289555
000220 65 3e 8b 3e 32 92 29 3d 81 56 b1 3e 3f 4f f4 3d
       0.2719604 0.04139919 0.3463631 0.119291775
000230 c6 bf 02 3e aa 01 33 3e 5a 08 90 3e 14 28 1a 3e
       0.12768468 0.17481104 0.28131372 0.15054351
000240 96 f3 79 3e eb 1d 4b 3e 8a bc b1 3e 77 f7 1d 3e
       0.24409327 0.19835632 0.34714156 0.15426432
000250 3d 45 a5 bd 6d b2 88 3e ff 92 9e 3e dd ca af 3e
       -0.08069847 0.26698628 0.30971524 0.3433446
000260 7d eb a0 3e b9 7b 3c 3e 1b 50 d3 3e 71 b2 f2 bb
       0.31429663 0.18406571 0.41272053 -0.007406526
000270 36 be 99 3e 3b 87 10 bd 47 1e 3f 3e a6 77 bb 3d
       0.30027932 -0.035285216 0.18663894 0.091536805
000280 89 dc 86 3e bd 2e 9e 3e fc c5 1f 3e 34 e6 1f 3e
       0.2634013 0.30895033 0.15602869 0.1561516
000290 fc 78 40 3d db 96 b4 3e 5a 7d a0 3e 96 dd 61 3e
       0.04699038 0.35271344 0.31345636 0.22057185
0002a0 39 ac ce 3d 5d e9 7e 3e 75 3c 2c be b1 55 4e 3e
       0.100914426 0.24893709 -0.16819938 0.20149876
0002b0 5c 1d 56 3e 73 5f 29 3e cb e7 af 3e 79 69 cf 3d
       0.20909637 0.16540317 0.34356532 0.10127539
0002c0 7c c7 d1 3d 5a 2e af 3d e5 84 92 3e 51 1e a2 3e
       0.10243127 0.08553763 0.28617015 0.31663755
0002d0 ad 5a 98 3e c4 c1 d5 3d a9 a5 88 3e 89 4c b7 3e
       0.2975668 0.104373485 0.2668889 0.3580058
0002e0 0b 7e a0 3e a4 28 b1 3e a6 cf 80 3e 30 64 d0 3d
       0.31346163 0.3460132 0.25158423 0.10175359
0002f0 87 ae 64 3e 35 10 60 3d 6b ae 28 3e 72 9b a8 3d
       0.22332202 0.054702956 0.16472785 0.08232774
000300 72 11 08 3f 56 2c 9f 3e c8 5a 7d 3d 6a 0d c6 3e
       0.5315162 0.31088513 0.061854154 0.3868211
000310 27 61 49 3e 59 f8 1e 3e 44 83 1a 3e f2 a0 e2 3e
       0.19665967 0.15524425 0.15089136 0.44263417
000320 99 6f fb bd 24 c9 a0 be 2d 9b fe 3c aa bd 51 3e
       -0.12277145 -0.31403458 0.031079853 0.20482507
000330 d6 bb 5e 3e b7 ab 3d 3d 6e 53 61 bd 42 0c f5 bd
       0.21751341 0.04630634 -0.055011205 -0.119652286
000340 22 8b 83 be d8 ed a7 bd 98 e1 24 bd d9 09 3d 3e
       -0.25692087 -0.08199662 -0.040254205 0.18460788
000350 8f 3b 6c bc a3 59 a7 3e 5b 49 61 bd 3b 07 0c 3d
       -0.014418497 0.32685575 -0.055001598 0.034186583
000360 35 cf 14 3d fa e0 ec bd 12 f6 f5 bd 01 9d 2c 3e
       0.03633042 -0.115663484 -0.12009825 0.16856767
000370 dc a6 18 3c d9 a2 35 3d fa 74 5f bd 8a 91 49 be
       0.009317126 0.044344757 -0.054554917 -0.19684425
000380 98 ae 81 3e 25 5d 67 bd 65 aa 5a bd 16 0c 6c be
       0.25328517 -0.056485314 -0.053385157 -0.23051485
000390 7c b7 46 bd 04 b1 99 3e f2 79 80 bd a6 b2 5d be
       -0.048514828 0.30017865 -0.06273259 -0.2165018
0003a0 b2 2c b6 bc c6 b1 d7 bd c0 e3 87 bd 9f 02 23 be
       -0.02223811 -0.105319545 -0.06635237 -0.15918969
0003b0 6b ca e3 3d 93 70 ee bd d5 5a a9 3d a0 97 98 bd
       0.111225925 -0.116425656 0.08269278 -0.07450795
0003c0 ed 22 9c 3c dc 61 57 3e 39 47 5e bc 72 15 99 3b
       0.019059623 0.21033424 -0.0135667855 0.004671746
0003d0 24 67 2c be 30 8a ac be 92 7f 1d 3e 15 27 1d 3c
       -0.1683622 -0.3369918 0.15380695 0.009591837
0003e0 34 a7 2e 3e a4 d2 36 3e 41 05 e4 3d 97 6a 25 3e
       0.1705597 0.1785379 0.111338146 0.16153942
0003f0 fc 1f 82 3d e9 c3 10 3e fc 3f 97 be ed 61 62 be
       0.06353757 0.14137234 -0.29541004 -0.22107668

gru.bias_hh_l0 f4 [300]
000000 8c 96 00 bd 31 82 d4 3d ac 4c 42 be 38 a8 c1 3c
       -0.031393573 0.103763945 -0.1897456 0.023639783
000010 9c a0 e2 bd 8d de b7 bd 6c ba 19 be 1d 4d 07 be
       -0.1106579 -0.08977995 -0.1501252 -0.1321301
000020 e0 3e 6d be 97 ad be be 69 f1 69 be 2d 7c 87 be
       -0.23168516 -0.37241814 -0.22845997 -0.26461926
000030 c8 2f b0 be 07 51 23 3e dd 3d 40 be a3 85 d6 bd
       -0.34411454 0.15948878 -0.18773599 -0.10474708
000040 20 c5 3e 3d 9e 50 86 ba fd 94 50 be 59 7d d6 be
       0.04657471 -0.0010247414 -0.20369335 -0.41892508
000050 96 11 06 be 25 00 f5 bd 60 d6 13 be bb 83 ef bc
       -0.13092646 -0.11962918 -0.14437246 -0.029237619
000060 a8 ca d2 bb fe d0 42 be fe 63 f7 bc eb e1 92 be
       -0.00643285 -0.19025037 -0.030199047 -0.28687987
000070 a6 c7 25 bd d0 0d c7 bc e0 dc 99 be e9 da c4 bd
       -0.040473603 -0.024298579 -0.30051327 -0.09612066
000080 56 24 40 be e7 27 b4 bc 3b 8c 9b be 48 10 13 be
       -0.18763861 -0.021991683 -0.30380425 -0.1436168
000090 f8 9f b6 bd 93 d4 1b be 3b 3e 63 3b d5 17 84 be
       -0.0891723 -0.1521781 0.0034674543 -0.25799432
0000a0 ae 32 c5 bc f8 a5 0b be 39 fd 63 be 7e 05 8f be
       -0.024072018 -0.13637531 -0.22264566 -0.27933878
0000b0 04 7c 8a bd 31 1f 30 3e 83 9f 81 be 46 ef 26 be
       -0.06761935 0.17199399 -0.2531701 -0.16302213
0000c0 a4 84 42 be 55 dd 86 be 80 45 0e be 96 fa 94 be
       -0.18995911 -0.26340738 -0.138937 -0.29097432
0000d0 06 cf 8b 3d 4f 10 a4 be a4 d1 cc bd 49 cf 3e be
       0.06826596 -0.32043692 -0.10000923 -0.1863376
0000e0 37 2e 0f 3e ba bd be bd b2 a8 3e be 0d 0c 00 be
       0.13982473 -0.09313531 -0.1861904 -0.12504597
0000f0 22 03 0c bd c7 9e 86 be 7e 6b e8 3c 8e 09 57 be
       -0.034182675 -0.26293012 0.028371569 -0.20999739
000100 8c 7e d7 bd e1 9d 3d be a0 91 22 bc 75 05 bf bd
       -0.10522184 -0.18517257 -0.009922415 -0.09327213
000110 3b 67 b1 3e 0b 85 72 be b4 0b 45 be c5 85 ec bd
       0.3464907 -0.23683564 -0.19242746 -0.11548952
000120 01 58 97 bd 6f b9 d1 bd a8 be fe bd d2 5b 5a be
       -0.07389832 -0.10240447 -0.124387085 -0.21324089
000130 c2 4a be bd cc cb 7a be 5c 13 67 be ed fa ab be
       -0.09291603 -0.24491805 -0.22565979 -0.3358988
000140 d9 02 0c be 3d 2a 48 be c9 f8 d0 bd 64 37 56 be
       -0.13672961 -0.19547363 -0.10203702 -0.20919567
000150 4d 88 7f be 8c e2 02 be 73 9c a5 bd 9e 64 87 bd
       -0.24954338 -0.12781733 -0.08086481 -0.06610988
000160 00 ea 76 be d2 b0 bf bd c8 71 5d 3d 0b 04 86 be
       -0.24112701 -0.09359898 0.05406359 -0.2617496
000170 87 4f 8d be cb 97 52 be 1c cb ae bd 3b 6a 7c be
       -0.27599737 -0.20565717 -0.08534834 -0.24649899
000180 5c 13 5d be 11 e3 62 be 89 64 81 be 37 33 c4 bd
       -0.21589416 -0.22156931 -0.25272015 -0.09580081
000190 5c ea ab 3e 96 15 5f be bd d7 70 3e 0b c9 3d 3e
       0.3357724 -0.21785578 0.23519798 0.18533723
0001a0 16 6b b1 3d 6a 94 a0 3e f3 42 cb 3e b5 10 39 3e
       0.08663003 0.3136323 0.39699516 0.1807278
0001b0 ad 43 88 3e 37 f6 80 bd e8 95 99 3e 03 bb 0c 3e
       0.26614133 -0.06296962 0.29997182 0.13743214
0001c0 5e 72 01 be 2e 8d a1 3d 94 58 aa 3e 42 7f 8b 3e
       -0.12641284 0.07888256 0.33270705 0.27245528
0001d0 ae d7 d6 3e 17 7b 88 3e 8b 38 75 3e bb bb ae 3e
       0.41961426 0.2665641 0.2394735 0.34127602
0001e0 64 0e 83 bc d5 c1 df 3e 91 5f d2 3d 12 28 7a 3d
       -0.015998073 0.4370257 0.10272134 0.06107337
0001f0 e6 29 11 3e 1f 5c 98 3e 44 b1 bc 3d 7e 36 f5 3e
       0.14176139 0.29757783 0.09213498 0.47893137
000200 4f 43 98 3e a3 87 ac 3e 65 e4 a1 3e 49 20 f4 3e
       0.29738852 0.33697233 0.31619564 0.47680882
000210 77 b1 ab 3e cc 07 9b 3e d5 d7 78 3e 57 03 f5 3d
       0.33533832 0.30279386 0.24301083 0.11963528
000220 d8 bc ba 3e ab 18 ca 3d d2 60 a1 3e 27 cc ef 3d
       0.364722 0.09867986 0.3151918 0.11708861
000230 0f cc 08 3e 2b 32 4a 3e c3 74 93 3e e1 5e 23 3e
       0.13359092 0.197457 0.2880002 0.15954162
000240 71 34 79 3e 9c 23 2e 3e 62 ec 9a 3e 90 bb 15 3e
       0.24336411 0.17005771 0.3025847 0.1462233
000250 f9 16 13 be a1 7f 8d 3e 35 76 95 3e b5 e7 a8 3e
       -0.14364232 0.27636436 0.29191747 0.32989278
000260 e5 85 93 3e de 93 30 3e ff cb e0 3e 1d 8d b7 3c
       0.2881309 0.17243907 0.43905637 0.022406155
000270 47 8a 98 3e 61 d9 9b 3c 7c 80 48 3e 11 92 fd 3d
       0.29792997 0.019024553 0.19580263 0.123813756
000280 f0 99 a8 3e 1b 0f 9e 3e 7e 7f f8 3d 08 8d e3 3d
       0.32929945 0.308709 0.12133692 0.11110884
000290 0b b4 ad 3c 67 5b 9d 3e 49 a4 a4 3e db c8 5a 3e
       0.021204015 0.30733797 0.3215659 0.21365683
0002a0 db 7a b8 3d 3e 99 63 3e da 4f 25 be 18 3f 54 3e
       0.09007808 0.22226426 -0.16143742 0.20727193
0002b0 61 a9 36 3e 2e 42 2a 3e be 97 87 3e e8 8a c3 3d
       0.1783805 0.16626808 0.26482958 0.09547979
0002c0 ba f1 0e 3e f6 9a d1 3d e1 b0 8c 3e e8 2e 97 3e
       0.13959399 0.102346346 0.27478698 0.29527974
0002d0 0b e0 60 3e 54 70 96 3d fc 71 9e 3e 14 85 97 3e
       0.21960466 0.07345644 0.30946338 0.29593718
0002e0 d9 95 6c 3e c3 7c ac 3e 7e a4 87 3e 03 f5 b7 3d
       0.23104037 0.33688936 0.26492685 0.08982279
0002f0 30 67 35 3e ef b4 68 3d 8d 92 23 3e d7 a6 de 3d
       0.17715144 0.056813177 0.15973873 0.10871666
000300 c5 42 03 3f b5 f4 a3 3e 17 18 8d 3d e9 e5 d1 3e
       0.5127376 0.32022634 0.068893604 0.4099572
000310 a4 fb 67 3e a4 59 4a 3e ae a5 0f 3e 46 4c e2 3e
       0.22654587 0.19760758 0.14028046 0.44198817
000320 1a 5e 50 be 24 46 03 bf 0b 50 ab 3d fa 57 1f 3e
       -0.20348397 -0.512789 0.08364876 0.15560904
000330 e3 e9 2d 3e 33 aa 23 3e 06 7e 3e bd 8e 13 21 be
       0.16983752 0.15982895 -0.046506904 -0.15730116
000340 82 1f d2 be f8 2e f2 3d cf 5d 86 bd fd e1 2f 3e
       -0.41039664 0.11825365 -0.06560861 0.17176051
000350 b7 80 22 be 54 78 a9 3e 50 48 69 3d 6d 41 bd bc
       -0.15869413 0.33099616 0.05695373 -0.023102487
000360 63 e1 f6 3c 94 e1 ee bd fc c4 74 be a0 09 75 bd
       0.03013677 -0.11664119 -0.23903269 -0.059823632
000370 69 4f fb 3d 4a 9c 13 3d d9 e1 35 bd 28 75 4d be
       0.12271006 0.03603772 -0.04440484 -0.20064223
000380 1a e1 2f 3e 50 60 1f 3a 08 86 7a be 9c 39 6c 3c
       0.17175713 0.00060797203 -0.24465191 0.014418032
000390 91 da c4 3d ef 68 3d 3e b1 f7 e5 3b 7b ec 3a be
       0.09612001 0.1849706 0.0070180525 -0.18254273
0003a0 ae 05 78 bc 0d ce 0c be 5f ee 9a bd 05 a1 9c 3b
       -0.015138073 -0.13750477 -0.07564997 0.004779937
0003b0 5b 60 4a 3d 04 d7 8d bb 1f 37 39 3d 67 3c bf bc
       0.049408298 -0.0043286104 0.045218583 -0.023344232
0003c0 da fc ba 3d 2c b4 89 3e 0d 5d 26 be 0a 32 0e 3e
       0.09130259 0.26895273 -0.16246434 0.13886276
0003d0 02 2c 94 bd 01 99 93 be 8e 23 50 3e b6 fc b2 bd
       -0.07234956 -0.2882767 0.20326063 -0.08739607
0003e0 50 ec bc bc 96 cb 44 3d a9 4c 60 3e 92 f2 8c 3e
       -0.023061901 0.048045717 0.21904244 0.27528816
0003f0 1a 4e 2c 3e 7f a6 d2 bc c8 32 92 be 73 30 31 be
       0.16826668 -0.025714157 -0.28554368 -0.17303638

dense_output.0.weight f4 [100, 100]
000000 2b 46 02 3e f7 c6 69 3d c2 c0 8f bc ce 38 32 3d
       0.1272208 0.057074513 -0.017547969 0.043511204
000010 1e e7 e3 bd e3 f5 85 bd 7d a9 be bd 69 2e da bc
       -0.111280665 -0.0654104 -0.09309671 -0.026633458
000020 98 58 81 3d 63 c5 51 3d 21 80 28 bd 64 ca 4b 3d
       0.06315726 0.051213633 -0.04113782 0.04975356
000030 16 f6 0d 3e 63 3f 03 3d 27 77 62 bc a5 bc 5e bb
       0.13863406 0.032042872 -0.013822353 -0.0033986953
000040 d2 ec f8 bd a2 29 0e bd 25 19 16 3b f8 27 a8 3c
       -0.12154545 -0.034707673 0.002290317 0.020526871
000050 35 f9 e1 bc e5 0d 9f bd ab eb b7 3d 0f 17 36 bc
       -0.027584651 -0.07766322 0.08980497 -0.011113896
000060 10 20 12 3e f4 10 87 bd 9c 26 48 bd 05 fb 02 be
       0.14270043 -0.065950304 -0.048864946 -0.12791069
000070 fd 14 17 bd 9d 1d a6 bd e1 90 6d bd d9 21 a3 3c
       -0.03688525 -0.08111117 -0.057999495 0.0199136
000080 86 ae 23 3d b0 45 e2 3d 8e 29 e5 bd 83 49 aa 3d
       0.03996136 0.11048448 -0.111895666 0.083148025
000090 cc cf ef 3c e4 7c 1c be f0 a1 08 be da 96 12 3d
       0.02927389 -0.15282017 -0.13343024 0.035788395
0000a0 45 92 a7 bb 90 8b 1d be 29 33 4b 3e ed 04 40 3e
       -0.0051138722 -0.1538527 0.19843735 0.18751879
0000b0 27 50 5c bd 43 47 20 3e 7a dc d5 3d ad a2 f0 bd
       -0.053787377 0.15652184 0.10442443 -0.11749778
0000c0 dd 8f 8a bc 93 62 14 3c f0 bc c4 bd 26 62 12 bd
       -0.016914302 0.009056705 -0.096063495 -0.035738133
0000d0 d7 2b b7 bd 77 cd 9a 3c 9a 9a fb 3c 1c 66 c0 3d
       -0.08943909 0.018896801 0.030713368 0.09394476
0000e0 5d 3e 62 bd b0 8f cf bd 39 ad 13 3d 92 b5 b1 bd
       -0.055235256 -0.10134828 0.03605387 -0.0867721
0000f0 c0 48 78 3e ae a3 09 3d ac ad 28 3e b4 8b 01 3d
       0.24246502 0.033603363 0.164725 0.031627372
000100 8a b3 86 bc c3 ce 3c bc 7f ac 17 be 85 e9 36 3c
       -0.016443033 -0.011523905 -0.14811896 0.011164074
000110 b7 47 77 bb 0f 8d 2b be 92 55 b2 3c 4e 2c 71 bc
       -0.0037731954 -0.16753028 0.021769319 -0.014720036
000120 1a c7 5b bc 8a 73 a2 bc bb fc b0 3d 10 14 f6 bd
       -0.013414169 -0.019830484 0.086419545 -0.12015545
000130 2f 55 07 bd 7b c9 a0 bd 6a de 3f 3e 0c 9a 76 be
       -0.03304022 -0.07850929 0.18737188 -0.24082202
000140 b3 27 da bd 50 dd 46 bc 31 ad 29 be 54 1a 62 bd
       -0.10652103 -0.012137726 -0.16569974 -0.05520089
000150 8f 0d d8 3c 1e 5a 44 be af 4f 71 bd 0d 4a d1 3b
       0.026373653 -0.19175002 -0.058913883 0.0063870014
000160 a0 2e f6 3d 9f 62 cf bd 0a c2 a7 bd 66 4b c6 3d
       0.12020612 -0.10126232 -0.08191307 0.0968235
000170 fc 73 0f 3d 47 dd 1f 3d 79 a6 67 3c 32 f4 41 be
       0.03502272 0.039029386 0.014138811 -0.1894081
000180 3b a2 f5 bd 17 b0 ad 3d 2f b6 92 3d b0 f1 7f bc
       -0.11993834 0.08480852 0.07163655 -0.015621588
000190 ad d2 9c bc 39 68 3f 3d cd 3a 22 bd f4 c4 17 3b
       -0.019143427 0.046730254 -0.039606858 0.0023158165
0001a0 ab fe 65 bb a2 a9 c2 bd 4e 94 86 bc fc b0 e1 bc
       -0.003509442 -0.09505011 -0.016428139 -0.027550213
0001b0 2e 42 5d 3c a2 a6 0b bd 9b aa 47 bd 0e 6a 59 3d
       0.013504548 -0.03409446 -0.048746686 0.053079657
0001c0 1a 18 50 3d c4 f4 fe 3c 76 7d 60 bc c7 58 de bc
       0.050804235 0.031122573 -0.013701787 -0.027141942
0001d0 75 94 bb bc 00 2a d6 3c 39 d4 16 3d ef 0c e0 bc
       -0.022897938 0.026143074 0.036823485 -0.027349917
0001e0 03 d4 80 bc ac 27 52 3d 7b da 65 bc 2b 65 23 bd
       -0.015726095 0.051307365 -0.014029141 -0.039891403
0001f0 64 f3 10 3b ae 6a 04 bc 15 c3 6a bc 7c 28 b6 bc
       0.0022117728 -0.008082075 -0.014328738 -0.022236101
000200 d5 c6 bb bc c9 fc ac 3c d3 ce ae bd 95 bd fe 3c
       -0.022921959 0.021116631 -0.08535542 0.03109626
000210 df 0a ac 3c 79 c2 17 3d 51 0c 7d bd 82 72 9f bb
       0.021001277 0.037050698 -0.061779324 -0.0048659453
000220 61 b8 b0 3c f3 76 66 bc a5 35 65 3c 28 a9 fb 3c
       0.021572294 -0.014066446 0.013989841 0.030720308
000230 cd d1 61 3b d5 04 0b 3b f6 28 ba 3c 2d 17 8a bc
       0.0034457326 0.0021212597 0.02272461 -0.016856754
000240 57 52 06 bd 21 6c 5d 3d f9 58 72 3d 99 ad 01 bd
       -0.03279337 0.054058198 0.059166882 -0.031659696
000250 6c 71 ec bc 5e f1 c9 bc 76 e8 c8 3a 34 b0 8c bd
       -0.028862678 -0.024651226 0.0015328068 -0.068695456
000260 75 35 c0 bc f9 d2 37 3d 07 44 6c bc 69 d0 5f bd
       -0.02346299 0.044878934 -0.014420516 -0.054642115
000270 b4 61 4f bd bb ed 31 3c f5 c3 44 3d 94 81 8a bd
       -0.050630286 0.010859902 0.04803844 -0.06762996
000280 41 81 00 3d 51 4d 91 3c d1 6e d1 3c 23 61 22 bd
       0.031373266 0.017737063 0.025565537 -0.039643418
000290 f5 38 04 3c 8e 04 5f bd 18 b6 88 bd 99 05 2c 3d
       0.00807022 -0.054447703 -0.066753566 0.041997526
0002a0 19 21 10 3d 45 99 46 bc 8b 07 9c bc 0b ec ba 3b
       0.035187814 -0.012121503 -0.019046566 0.005704408
0002b0 4c 50 16 3d 01 15 3c 3c 3d cf 4c bd d7 40 ad bc
       0.03669767 0.011479617 -0.050002325 -0.021149082
0002c0 5c f7 61 3d ed 51 9c bb 3e 1f 20 bc 32 56 20 bd
       0.05516754 -0.0047705085 -0.009773074 -0.039144702
0002d0 1a cd ba 3c 88 65 c7 bd 8c d2 a5 bc a8 b9 59 bd
       0.022802878 -0.097361624 -0.020241998 -0.05315557
0002e0 0f d5 64 bc b3 6e 49 3c 55 96 a5 bd d5 31 99 3d
       -0.013966813 0.012294459 -0.08085314 0.07480208
0002f0 1b 4e dc bb f3 aa 9b bd 8d 8c b3 ba ff 53 86 bd
       -0.006723178 -0.07600965 -0.0013698504 -0.0655899
000300 46 f8 83 bd 46 a3 ea 3c 60 ba 4a 3c 18 c0 8d bd
       -0.06443839 0.028642308 0.012373537 -0.069214046
000310 4f 56 00 ba c7 1a b8 3c f7 23 86 3c d8 d7 ac 3c
       -0.00048956735 0.022473706 0.016374571 0.021099016
000320 c1 a7 40 3c 62 1b ae 3d dd 24 1a 3c f4 11 1f bd
       0.011758746 0.085013166 0.009408203 -0.03883548
000330 5c 0d a6 bc 20 fa 46 be f9 6d a5 bd b0 e2 3b bd
       -0.020270042 -0.19431353 -0.08077616 -0.045870483
000340 2e e7 42 bd 57 bd 5d bd c8 11 b3 3b d4 c4 35 3d
       -0.04758375 -0.054135647 0.005464766 0.044377163
000350 38 b3 4b bd 09 c2 dd 3b 45 a0 e7 bd 3f 51 97 3c
       -0.049731463 0.0067675156 -0.11309866 0.018471358
000360 0b b9 4c bd fd f5 31 3d 0f 02 45 3d a8 18 1e 3d
       -0.04998116 0.043447483 0.048097666 0.038597733
000370 71 24 24 bc bb 57 88 bb 54 73 ac bc 88 4e a6 3d
       -0.010018454 -0.004160849 -0.021051086 0.081204474
000380 9f 98 9c 3c ba 13 da bb 4e 9b 66 3d aa 4a 04 3e
       0.019115744 -0.0066551836 0.056300454 0.12919107
000390 fa df 48 3c 0b f9 d2 bd 42 04 65 be 05 37 70 3d
       0.012260431 -0.103014074 -0.22364905 0.05864622
0003a0 ef db 28 bd 46 c5 e0 3d cb 80 82 bd 1b ad 8c 3c
       -0.04122537 0.10975127 -0.063722216 0.017172387
0003b0 3d 5b 33 3e d8 3e 3c bd e4 d4 a7 bd 45 4e 49 3d
       0.17515273 -0.04595837 -0.081949025 0.04914691
0003c0 75 32 b6 3d 7f d3 b2 bd a0 ea ff 3c 65 4e ef 3a
       0.08896343 -0.08731746 0.031239808 0.0018257616
0003d0 9f a1 81 bd c3 96 3b 3e f7 f7 80 3d b0 68 3b be
       -0.06329655 0.1831923 0.062972955 -0.18301654
0003e0 2e b6 df 3d 7c 60 81 bd e9 44 64 bc 2b e5 a4 bd
       0.1092342 -0.06317231 -0.013932445 -0.08051523
0003f0 2a f3 41 be 4a c7 cf 3d 14 4f 51 bc 90 67 dc 3d
       -0.18940416 0.10145433 -0.012775201 0.107619405

dense_output.0.bias f4 [100]
000000 28 68 6b be 65 c5 f6 bd 6c 81 42 be ff 3b 09 be
       -0.22988951 -0.12049369 -0.18994683 -0.13401793
000010 62 12 2c be 07 e3 1b be b6 31 c8 bd 21 b6 51 be
       -0.16803887 -0.15223323 -0.097751066 -0.20479633
000020 5e b8 a1 bd 7a 9c 37 3e 52 fd 31 be 8c 7f 24 be
       -0.078964934 0.17930785 -0.1738179 -0.1606428
000030 66 3a c6 bd fe 70 37 3e fd a8 28 be 37 d2 7c be
       -0.09679107 0.17914197 -0.16470714 -0.24689566
000040 a6 b2 40 be e3 7f 4d be df 7e 38 be d3 ea ea bd
       -0.18818149 -0.20068316 -0.18017147 -0.114705704
000050 58 c5 84 be 7a 7d 8c be 59 d4 1f be e7 a1 13 be
       -0.2593181 -0.2743948 -0.15608348 -0.1441723
000060 0c 1e 32 3e 80 29 54 be d7 7a e7 bd 74 64 2e be
       0.17394274 -0.20718956 -0.11302727 -0.17030507
000070 8e 24 47 be 49 3e 18 be f3 40 35 be a2 96 b0 bd
       -0.19447538 -0.1486751 -0.17700557 -0.08622481
000080 b9 df 35 be c9 ec d9 bd c1 75 48 be 75 7c bb 3d
       -0.17761125 -0.10640866 -0.1957617 0.09154598
000090 fa 0d 51 be fc 8e 8a be 7c 9c 87 38 bb ae 3f be
       -0.20415488 -0.27062213 6.466449e-05 -0.18718998
0000a0 ca b8 5b be 35 b5 b9 bd d4 20 1e be 2f 3f bf bd
       -0.2145721 -0.090677656 -0.1544221 -0.09338223
0000b0 97 83 13 be 16 ee ad bd a7 3d 00 be 61 e6 33 be
       -0.14405666 -0.08492677 -0.12523519 -0.17568351
0000c0 f8 7a f3 bd db b7 19 be f3 f6 09 be ce 10 ae bd
       -0.11888689 -0.15011542 -0.1347311 -0.08499299
0000d0 4e 81 83 bd 8f ec 50 be 3c 61 35 be 15 d7 45 be
       -0.06421147 -0.2040274 -0.17712873 -0.19320329
0000e0 0d 60 04 be 19 6b 42 be 3d 33 88 be cf 8f 4c be
       -0.12927265 -0.18986167 -0.26601592 -0.19976734
0000f0 b9 c4 1a be bf db 29 be 0d 24 0d be 8c 3c 85 be
       -0.15114106 -0.16587733 -0.13783284 -0.26022756
000100 8c 3d c2 bd f3 fa e4 bd 5d 6c 97 bd 89 ee 0a be
       -0.094843954 -0.11180677 -0.073937155 -0.13567556
000110 bf 84 91 bd e3 7f 12 be 5e b1 58 3e 52 15 42 be
       -0.071053974 -0.14306597 0.2116141 -0.18953446
000120 fb 2f 13 be be 23 84 be f3 ea 0b be f2 b7 dc bd
       -0.14373772 -0.2580852 -0.13663845 -0.10777272
000130 1d f0 73 be b4 24 ab be 94 6e 3c be 11 34 7a be
       -0.23822065 -0.3342644 -0.18401557 -0.24433924
000140 a1 37 ae bd 2f 3f 6a be e7 e5 fd bd df 3b 21 be
       -0.08506704 -0.22875665 -0.12397366 -0.15745495
000150 8b 26 54 be bf 9f 9f be 39 63 23 be c2 df 2b be
       -0.20717828 -0.31176564 -0.15955819 -0.16784576
000160 eb bb 27 be 80 fd 3a be 75 2d 52 be 78 3b ba bd
       -0.16380279 -0.18260765 -0.20525153 -0.09093374
000170 df 5c 50 be a0 ba 9c bd f0 60 4a be e5 39 d4 bd
       -0.20347928 -0.076527834 -0.19763541 -0.10362605
000180 76 06 6c bd b6 2b ad bd 64 17 dc bd dc 67 0c b9
       -0.05762335 -0.08455603 -0.10746649 -0.00013390131

dense_output.3.weight f4 [9, 100]
000000 1d 3e 8b bb d4 b9 1f bc 75 e9 c5 3c 9c d3 a4 3b
       -0.004249348 -0.009748895 0.024159173 0.0050301086
000010 48 3a 1e 3c 50 6b 30 bc ed d7 71 3d ca 50 1c bd
       0.00965745 -0.010767773 0.059043813 -0.038162984
000020 61 79 88 bc 3b ee 32 3d 04 57 94 bc 6c 60 ad 3b
       -0.01665944 0.043684226 -0.018107899 0.0052910354
000030 5e c3 80 3b 8f 91 7a 3d dd 3c 92 39 ee 41 19 bd
       0.0039295396 0.06117397 0.00027892637 -0.03741639
000040 74 1c d3 3b dd 6d e8 3c 75 29 3c 3b 29 6a b7 3c
       0.006442601 0.0283727 0.0028711234 0.022389488
000050 ec c0 08 bc 3c 77 f0 bc 88 de 2b bd b5 6f dd 3b
       -0.008346777 -0.02935373 -0.04196027 0.0067577013
000060 d4 0b 14 3d 9a a0 db 3c 2c 6a 0a bd 55 fc e2 3c
       0.036144093 0.02680998 -0.03379266 0.027708212
000070 20 d1 14 bc 52 9f 9b bc 63 82 ae 3b 06 b4 ae 3c
       -0.009083062 -0.018996868 0.005325602 0.021326076
000080 85 75 cd 3c 66 e8 c1 3d 8f bd d5 3b 63 10 ac bc
       0.025080452 0.094681546 0.0065228413 -0.021003908
000090 f4 6a b1 bb 5e d7 3f 3e f5 ae 3a 3d 60 1d f2 3b
       -0.005414361 0.187345 0.04557701 0.0073887557
0000a0 ee 53 04 3c 64 dd 42 bb 9e 06 7d 3d cb 3e 34 bc
       0.008076651 -0.002973401 0.06177389 -0.011001299
0000b0 d8 a1 24 bc 1a c3 57 bc cd 79 75 3b ea 19 a1 3b
       -0.010048352 -0.013169074 0.0037456632 0.0049164193
0000c0 70 f0 13 bd de 6a a2 3c ff f9 34 bd 78 18 11 bb
       -0.03611797 0.019826349 -0.044183727 -0.0022139829
0000d0 27 e4 db ba 5d 7b 5f bc fc 2d 52 3d fb e2 ec 3c
       -0.0016776369 -0.013640252 0.051313385 0.028916826
0000e0 a9 3b 0d 3c 68 64 f5 3c d8 e7 2f bc e6 5f a7 3b
       0.008620181 0.029955104 -0.010736428 0.0051078675
0000f0 53 de f3 3c e5 d2 66 bb 53 b5 8b 3c cf ac 8c 3d
       0.029769098 -0.0035220918 0.017054236 0.06868898
000100 0b 00 f3 bb ae 37 a5 bc 13 1a b0 3a 92 90 6f 3d
       -0.0074157766 -0.020168152 0.0013435505 0.058487482
000110 02 ab 6d bb f6 b1 69 3c ce 17 01 3d c5 ab ba bb
       -0.0036265259 0.014263621 0.031516843 -0.005696746
000120 17 4a 01 3b cc 58 f4 bd d3 85 75 bc bf d3 9c bc
       0.0019728 -0.11930999 -0.014985519 -0.019143937
000130 ae 9f e7 bc c1 83 11 3a b7 b5 cc bb 7d be 21 3d
       -0.028274383 0.0005550944 -0.006247248 0.039488304
000140 71 4a 04 3c 57 7e 6c bd 2f ef 93 3c c3 f9 b1 bc
       0.008074389 -0.057737675 0.018058388 -0.021725541
000150 f1 c5 58 bc b3 a2 dd 3c d5 50 b9 bb bd d4 13 bd
       -0.013230787 0.02705512 -0.005655388 -0.036091555
000160 02 c5 82 bc 52 1b ac bc b4 e3 95 3d ea d4 9f bc
       -0.015963081 -0.021009121 0.073188215 -0.019510705
000170 29 8a f7 bc 55 c3 70 bc ec 36 38 3c dc 0f 35 3c
       -0.030217247 -0.014695008 0.011243563 0.011051144
000180 3a 94 93 bc 1e d6 b8 b9 4c 58 ee bc 83 43 b3 bd
       -0.018015016 -0.00035254745 -0.029094838 -0.08753111
000190 ec 53 3d 3c c3 e1 9a bc e8 00 e0 bc 11 eb d1 ba
       0.011555653 -0.01890648 -0.027344182 -0.001601549
0001a0 21 55 70 3a 38 e0 5c 39 9f 49 76 3d 75 bb 17 bd
       0.00091679586 0.00021064363 0.060128804 -0.037044007
0001b0 29 6a 2f bb a9 49 40 3d d7 5f 8a bc a1 b3 bf bb
       -0.0026766157 0.046945248 -0.016891403 -0.005850271
0001c0 5b 90 2b 3c bc bd 64 3d 6c 7a ce 3b 20 87 00 bd
       0.010471429 0.055845007 0.006301215 -0.031378865
0001d0 39 26 b0 bc f8 8c df 3c 5b cc 5f bc 7f 2b 0d 3c
       -0.021502601 0.027288899 -0.013659562 0.008616327
0001e0 7e 6e e5 bb 12 4f 34 bd f1 4e 2f bc 71 27 47 3c
       -0.007001697 -0.04402072 -0.010699973 0.0121554
0001f0 ef b6 0f 3d f8 24 4f bc 86 52 f3 bb 6a 77 c3 3a
       0.03508657 -0.012643091 -0.007425609 0.0014912907
000200 80 b4 9f bb 5d 03 94 3c af d0 cc 3b 9f 5f 82 3c
       -0.004873812 0.01806801 0.006250463 0.015914736
000210 31 ac b8 bc 5a 2b c8 3d f4 ec ce bc da 07 c0 bc
       -0.022543045 0.09773894 -0.025259472 -0.023441244
000220 34 a1 50 ba 00 35 7d 3d d3 68 3e 3d 93 78 21 bd
       -0.00079585915 0.061818123 0.046486687 -0.03942163
000230 89 7e cd 3c 6b 62 22 3b 9f b2 7c 3d d1 ed d6 39
       0.02508475 0.00247779 0.061693784 0.00040994448
000240 dd 0d 94 bc df 62 db 3b 26 2b f4 ba 15 2c 12 3c
       -0.018073017 0.006695136 -0.0018628582 0.008921643
000250 33 9a 29 bd 2c 1e a1 3c df 53 5b bc 6c 37 0e 3c
       -0.04140682 0.019667707 -0.013386696 0.008680206
000260 5d fe 30 3c bf fb 36 3b cb e8 96 3a b6 68 74 bc
       0.010802832 0.0027921048 0.001151347 -0.014917543
000270 4c 0e 29 bd ae ed ea 3c 6b 0f 2a bd c6 2a a6 3c
       -0.0412734 0.028677788 -0.04151861 0.020284068
000280 86 54 03 3b c3 fb 49 bb bd 4d b1 3c f8 1d 30 3d
       0.0020039394 -0.0030820228 0.021643514 0.04299733
000290 85 d1 c1 3b 11 0a 0a 3c c9 7c b0 bc 13 49 b1 bb
       0.0059148693 0.008425252 -0.021543877 -0.0054103225
0002a0 3b b0 04 bc a2 ec ff 3c 80 21 0d 3d f2 66 cd bb
       -0.008098657 0.031240765 0.034455776 -0.0062683756
0002b0 5e 08 46 3c 03 44 08 be 0b 7c ad bc ce af 59 3c
       0.012086956 -0.13307194 -0.021177312 0.013286544
0002c0 ca 2a c8 bc 35 be bf bb 68 f3 aa bc d9 4b 33 3d
       -0.024434466 -0.005851532 -0.020868018 0.043773506
0002d0 ef 28 a0 3b d5 4e 5e bd 45 f5 51 bc 29 0f 0a bc
       0.004887692 -0.0542744 -0.0128148245 -0.008426466
0002e0 a1 54 cf bc f4 48 5c 3c 17 45 23 3a cb fa e6 bc
       -0.025308909 0.013445128 0.0006228252 -0.02819576
0002f0 2d 17 9d bc dc e3 03 bd cb 3e cd 3b 3d d6 9d bc
       -0.01917609 -0.032199726 0.006263589 -0.019267196
000300 ea 8d 4d bc 35 9e ab 3c df 87 a1 bb 78 3f 9f 3a
       -0.012546042 0.020949462 -0.004929527 0.0012149652
000310 34 6c 19 bd 9f 7d 59 3a 59 57 91 3c 36 43 b3 bd
       -0.037456706 0.0008296612 0.017741846 -0.08753054
000320 01 55 b3 3b 89 ac e3 bc ae ae a5 bc 00 21 48 bc
       0.0054727797 -0.027792232 -0.020224895 -0.012214899
000330 58 4a 42 3c ed e2 ad 3c 0b 74 71 3d ea cd 07 bd
       0.011858545 0.02122637 0.058948558 -0.03315536
000340 58 97 c7 bc 3a fb 51 3d 57 dd 3e bd 9e ec 32 bc
       -0.024364159 0.05126498 -0.046597805 -0.010920672
000350 d6 f0 85 3b 10 9e 51 3d ad cc 92 3c fb 93 30 bd
       0.004087548 0.05117613 0.017919863 -0.043109875
000360 3d 18 95 bc a5 ce fd 3c be ff a2 bb 2d cc 63 ba
       -0.018200034 0.030982325 -0.0049743345 -0.00086897874
000370 7e 77 0d 3d b9 08 d6 bc 36 11 90 bb fd 13 3a 3c
       0.034537785 -0.026127206 -0.004396583 0.011357305
000380 7a 4e 0b 3d 66 a2 93 3c 18 00 f9 bc 80 48 8e 3c
       0.034010388 0.018021774 -0.030395553 0.017368555
000390 75 b7 77 3c 73 e8 cf 3b c3 e1 92 bc 89 11 d4 ba
       0.015119423 0.006344849 -0.017929917 -0.0016179542
0003a0 ad 5d 1e bc 47 3d c2 3d 97 b6 25 bd fb 49 cb bc
       -0.009665889 0.09484344 -0.040457334 -0.02481555
0003b0 6c 79 03 3d 7e 5b 12 3a a6 e1 3d 3d 9e 79 5d bd
       0.03209822 0.00055830914 0.046357773 -0.05407106
0003c0 e8 56 ac 3b eb d5 d4 3b 6d f7 86 3d 08 bd 93 ba
       0.0052593835 0.0064952276 0.065901615 -0.0011271546
0003d0 ca 1d a7 bc 92 8d f1 bc 32 7a 96 bc c0 26 b8 bb
       -0.020399947 -0.029486451 -0.018368814 -0.0056198537
0003e0 d7 6e fd bc f0 90 7c bc 49 9c 4e bc 0d 25 e5 39
       -0.030936642 -0.015415415 -0.0126105035 0.0004370589
0003f0 17 50 fe 3b 9e 6e b7 bc 9c 7f ec 3c e2 19 bd bc
       0.0077610123 -0.022391614 0.028869443 -0.023083631

dense_output.3.bias f4 [9]
000000 5c c5 57 3e 62 2e 57 3e 89 e0 57 3e 43 dc 52 3e
       0.2107138 0.21013787 0.21081747 0.20591836
000010 c5 08 53 3e 20 ef 52 3e e6 e2 4e 3e 2a 41 4e 3e
       0.20608814 0.20599031 0.20203742 0.20142046
000020 1f 62 4e 3e
       0.20154618
