models/mvsec/indoor_flying3/indoor_flying3_stereo_even_model.pth (torch, 862658 bytes, 27 tensors)

conv3d.0.weight f4 [4, 1, 3, 3, 3]
00000000: 8e2b 4abe 0d69 0bbe 661a 83be cc53 c4bd
00000010: d8b6 dfbd 319b 85be 892f 3dbe 263d 5bbe
00000020: 1821 93be e85a 7a3c 5c17 a63d 96a5 0f3e
00000030: f043 3f3d c745 c93c 2d4e a83c 3cf5 903d
00000040: 5998 6bbd 6bb6 8a3d 8ebb 1f3e b9ec 453d
00000050: 3ce2 893e 617e 983d 9dca 633d 992f b43e
00000060: dee8 a43e ca12 a53e 7565 b33e f40e 0c3e
00000070: 5aad 6e3c 857d 4d3e dffc e63d 042a e23b
00000080: ab34 453d fe1b 223e 28b1 8fbd 3aba 8d3d
00000090: 3f28 543e 1309 0ebd c039 1e3e 3cca 0c3e
000000a0: 7293 66bc e428 273e 3d56 b93c 8862 17bd
000000b0: c1b1 6c3d 51a1 5dba 7a64 babd 695d 0abe
000000c0: 2fb2 9bbd 5282 83bd b82f fcbd db31 91bd
000000d0: 5360 b1bd 9e32 0fbe 2d3d 6f3e 09a2 113d
000000e0: dc68 4fbe bdbb 8f3c 177b 6abc b8ec 87bd
000000f0: 8d0d 3dbe cab5 7cbd 8eb4 4b3e 1d11 263e
00000100: 82f6 24be 9122 9dbe 66be a03e 75ac 883b
00000110: aaf9 a3be 06d4 12be 0f55 cd3d afe4 413e
00000120: a52c 803e 9cf8 eabd 54f3 0abe 4857 a43e
00000130: 5a71 03be 8cc7 01be 4b4b 75bd f2c5 83bd
00000140: 3a5b 913c d40d 223d 1329 e7bd bd63 7abd
00000150: ff63 01bd 2a08 953d 8ff8 8d3d 9d30 073b
00000160: 52a5 fcbd de23 9fbd fa5a ccba 8d16 e4bd
00000170: b67a bc3d 6f63 d2bd 27a1 c9bd 3c05 14bd
00000180: 4521 76bd fd0b 9b3d 6931 dcbd 819a 97bd
00000190: 9beb 41bd df21 5ebd b369 f4bc 77e1 f5bd
000001a0: df38 18bd 64b9 7cbd 15d9 aebd d066 a93d
-0.19743177 -0.13614292 -0.25606078 -0.095862955 -0.109235466 -0.26094964 -0.18475164 -0.21410045
-0.28736186 0.015280463 0.08109924 0.1402801 0.04669565 0.024569405 0.02054509 0.07078025
-0.057518337 0.06773075 0.1559889 0.04832146 0.26930416 0.0744598 0.05561315 0.35192564
0.32208914 0.32240897 0.35038343 0.13677579 0.014567697 0.20067413 0.112787 0.0069019813
0.04814593 0.1583099 -0.07016212 0.069202855 0.20718478 -0.034676623 0.15451717 0.13749021
-0.01407324 0.16324192 0.02262413 -0.0369592 0.057786707 -0.0008454519 -0.09101196 -0.13512196
-0.07602345 -0.06421341 -0.12313789 -0.07089587 -0.086609505 -0.13984153 0.2336318 0.03555492
-0.20254844 0.017545575 -0.0143115735 -0.066369474 -0.184622 -0.061696805 0.19893095 0.16217466
-0.1610966 -0.30690435 0.31395262 0.004170949 -0.32026416 -0.14338693 0.10025989 0.18934892
0.2503406 -0.114732 -0.13569385 0.3209784 -0.12836209 -0.12673777 -0.059886258 -0.064342394
0.017743696 0.03956397 -0.11287131 -0.061130274 -0.031589504 0.07276948 0.069321744 0.002062834
-0.1233622 -0.07770513 -0.0015591078 -0.11137114 0.09203093 -0.10272872 -0.098451905 -0.036137804
-0.060090322 0.07570646 -0.10751612 -0.07402516 -0.04734383 -0.05423152 -0.029835558 -0.12005895
-0.03716361 -0.06170024 -0.08537499 0.08271563

conv3d.0.bias f4 [4]
00000000: 0036 92bd 5c10 97ba 02e3 043d dba3 d6bd
-0.07139206 -0.0011525261 0.032443054 -0.10480472

gru.weight_ih_l0 f4 [300, 100]
00000000: 91fe 40be b4f4 0ebd 4953 c33d e387 433e
00000010: 995e e33e f714 84be 663c dcbd 85a9 fbbb
00000020: 395e 5bbd f27d 883e bb93 e3bd 338e 37be
00000030: 1c16 34bb 1e9f 553c b4fa 973e e6d3 28be
00000040: 1480 1fbe 5985 f93c b5ab 743d 5cc2 fc3e
00000050: c2ef 8dbe 1074 79be 849e debd 5f58 6a3e
00000060: 7f1e 353f c5f3 91be abb9 49be 4dcc b23c
00000070: af40 ac3d d106 b23e 029b 35be e8af 70be
00000080: e7dd 8d3d 4b79 7b3d 1961 7c3e c607 6abe
00000090: 06df 6dbe 10ad 473d 9137 f73c 2f69 1c3e
000000a0: cbed 93be 1ddd 21be 25b1 123d 74b1 853d
000000b0: c8e4 513d 9182 75be d49f 47bd 4fb7 183e
000000c0: 7a31 383e eb36 0a3e f453 1abe 877f d5bd
000000d0: cae0 c0bd 037b aabe c226 b3be ac43 23bd
000000e0: 47fc 70bd a7ac ccbd 4004 dabd 3827 febd
000000f0: 6323 b5be 3be1 01be bfb3 e3bd 5922 9ebe
00000100: 5ad4 cdbd 0e81 7abe 9bf6 38bd bb3d 1cbd
00000110: 8f88 33be 074e 78be ec3f 2abf 36eb bebe
00000120: f32d 053e f126 23be cfe1 f6be dfd1 383d
00000130: 5369 59bd b4a3 c53c 40f0 00bc 4663 503c
00000140: 7821 c43c 8adb 193b 8466 0f3c 9532 3f3a
00000150: 886b 70bd a31e 2d3d 618c 41bd f4aa 193c
00000160: f2bf d43c db0d 30bc 6fd3 e9bc a165 2abd
00000170: ccc1 9fbc 50cc 9c3b 0152 38bd a0bc 7b3c
00000180: f760 583d 30a0 66bd 02d2 583c c87f b9bb
00000190: c835 e6bd a798 2f3d fdc3 1e3e d395 8b3e
000001a0: cfd8 f53e 2b33 c8bd a08d d63b 4f2e a23d
000001b0: e2ad 233e 0a99 433e 2567 a33d 9253 153e
000001c0: f110 a83e 2f71 8b3e 155f 9c3e 1663 70bd
000001d0: 1abb 1f3d d9af 8e3e c712 0e3e 97a8 8e3e
000001e0: f071 66be 0957 57be 6b24 343e 8a5d 263e
000001f0: 28a1 bd3e 0805 d23d 9872 8abd 3804 a33c
00000200: 108f 8f3e 806f ac3e 8196 a13d c1e9 15bd
00000210: f973 783c 67eb 303e ba09 9f3e 239d 2cbc
00000220: 9a05 38bb 7d07 6ebd 5bd4 f93d 1e19 5a3e
00000230: be00 3f3e 4674 353e 148d 043e 3e1e ad3d
00000240: 0942 d43d 1174 443e 1e36 5f3e 2acc 193e
00000250: 199e 893d 033f 213e 7a58 b6bd 2829 f3be
00000260: f7e7 cdbe e3fb dc3d 6d51 ce3d 008d 18be
00000270: ab7e cdbe 46c3 dcbe c860 0bbe 5f17 ccbd
00000280: c9e3 c13d ba05 85be e6cd 51be baf0 f3bd
00000290: 8ecf b2bd 9b9e cc3c f7a3 8cbe 3a80 a3be
000002a0: 18f9 24be 7666 103e a0c8 8cbe d331 cabe
000002b0: e08a cfbe 9ce5 5ebe d307 343e ef8e 1b3c
000002c0: 7599 093d a878 88bb e9c2 9c3c 7860 24bd
000002d0: 8311 f6bc 31e8 9b3b 3d9c 87ba 06fd 58bd
000002e0: b6e8 5b3b 9380 283d 0884 d339 63e1 2abd
000002f0: 484f aebc 79d4 ec3c 078b bebc 76d5 15bd
00000300: 5434 4f3d 50b0 bf3b b181 febc dd23 0d3d
00000310: 8582 10bd 2c73 0dbd dba0 3f3d 3e4a 1d3d
00000320: a3f3 093e fea7 a93d b551 843d 9023 823e
00000330: 7fbe 343d 0238 5e3e a160 693e e8bd ad3d
00000340: 3771 8f3e 8f23 2a3e 8f63 9d3e b703 753e
00000350: 270d 193e 91c7 c63d f663 08bd c4e9 e03d
00000360: 3610 b23d 1ec1 b63d 87a3 173e 325e d8bd
00000370: 4463 a5bd 463a 15bd 1dcc aabd ec05 0abd
00000380: 3381 60be 71a7 3ebd 86b7 33be e7d7 35be
00000390: f456 95bd 0733 13be d3ef 0c3e 0788 f93b
000003a0: 2f4a 3ebd 0441 823d 40bf fd3c 97ac 483e
000003b0: 9007 0b3e 3270 0c3e 5626 2e3e 1ee8 7e3d
000003c0: e46f 2b3e 99b6 933d 8151 253d 065a 7e3b
000003d0: c8e0 8c3d 1309 2f3e bfed 013e fa79 1e3e
000003e0: 40da a8bc d8b4 e73d b22b 573e 4fbc 1d3e
000003f0: 60cc bd3e 5e85 a53d 7500 57be d3c6 2a3e
-0.1884711 -0.034901336 0.0953737 0.19094805 0.4440811 -0.25797245 -0.107537076 -0.0076801204
-0.053556655 0.2665859 -0.11112162 -0.17925338 -0.0027478999 0.013038425 0.2968346 -0.16487083
-0.15576202 0.030459093 0.059734065 0.49367034 -0.27721983 -0.2436068 -0.10870078 0.22885273
0.7074966 -0.28506294 -0.19699733 0.021825934 0.08410775 0.34770826 -0.17734912 -0.23504603
0.0692709 0.06139497 0.24646415 -0.22854528 -0.23229608 0.04874903 0.030177863 0.152745
-0.2889236 -0.15807004 0.03581347 0.06527987 0.051243573 -0.23975588 -0.04873641 0.14913677
0.17987624 0.13497512 -0.15071088 -0.104247145 -0.09417875 -0.33296975 -0.34990507 -0.03985946
-0.05883434 -0.09993868 -0.10645342 -0.12409824 -0.3537856 -0.12683575 -0.11118268 -0.3088558
-0.100502685 -0.24463293 -0.045157056 -0.03814481 -0.17532562 -0.24248515 -0.6650379 -0.37288827
0.1300581 -0.15932824 -0.48219153 0.045122024 -0.05307896 0.024125911 -0.00786978 0.012718981
0.02394174 0.0023476803 0.008752469 0.0007293609 -0.0586963 0.042265546 -0.047253016 0.009379137
0.025970433 -0.010745491 -0.028543202 -0.041600827 -0.01950159 0.004785098 -0.04500008 0.015364796
0.052826848 -0.05630511 0.0132336635 -0.0056609847 -0.11240727 0.04287019 0.15504451 0.27262744
0.48016974 -0.097753845 0.0065476447 0.07918989 0.159843 0.19101349 0.07978658 0.14582661
0.32825425 0.2723479 0.30541292 -0.058688246 0.038996793 0.27868536 0.1387435 0.27863
-0.22504401 -0.21029295 0.17592017 0.1624662 0.37037015 0.10254866 -0.06760138 0.019899473
0.28038836 0.33678818 0.078900345 -0.03659988 0.015164369 0.17277299 0.31062108 -0.010535511
-0.002807951 -0.05811261 0.12198707 0.21298644 0.18652627 0.17720136 0.12944442 0.08453034
0.10364158 0.19184901 0.21797988 0.15019289 0.06719608 0.15746693 -0.08903594 -0.47492337
-0.40216038 0.10790231 0.100741245 -0.14897537 -0.40135702 -0.43117732 -0.13611138 -0.09965395
0.09467275 -0.25980932 -0.204887 -0.11911149 -0.08730994 0.024977973 -0.27468845 -0.31933767
-0.16110647 0.14101586 -0.27496815 -0.39491138 -0.4053564 -0.21767277 0.1758111 0.009494527
0.033593614 -0.004164774 0.01913591 -0.040131062 -0.030037647 0.004757904 -0.0010346245 -0.052975677
0.0033555455 0.041138243 0.00040343427 -0.04171885 -0.021278039 0.028909909 -0.023259653 -0.036580525
0.050587013 0.0058498755 -0.031067701 0.03445803 -0.035280723 -0.034533665 0.046784263 0.03840088
0.13471846 0.08283995 0.06460897 0.25417757 0.044126984 0.21701053 0.22790767 0.08483487
0.28016064 0.16615127 0.3074002 0.23927198 0.14946423 0.09706033 -0.033298455 0.10982087
0.08694498 0.08923553 0.14808474 -0.10564841 -0.08075574 -0.036432527 -0.08339713 -0.033697054
-0.21924286 -0.046546403 -0.17550477 -0.17758141 -0.072919756 -0.14374934 0.1376336 0.0076150927
-0.046457466 0.06360057 0.030974984 0.19597088 0.13577104 0.13714674 0.17006811 0.062233083
0.16741902 0.07212562 0.04036093 0.0038810982 0.06878811 0.17093305 0.12688349 0.15476218
-0.020611882 0.1131379 0.21012762 0.15403865 0.37069988 0.080820784 -0.20996268 0.16677408

gru.weight_hh_l0 f4 [300, 100]
00000000: 28d8 37bc 88a7 0fbe 8980 27bd c681 01bf
00000010: ae94 283e 1f3c 4abd 323f 5ebe 8d08 573e
00000020: 56a2 c0be 5c57 853d faa0 56bd 2042 dabd
00000030: eedb ee3c b7da cb3c 6078 e33d 91a5 54be
00000040: e0c1 c6bd 0643 28be d7d1 a03d 7a49 b33c
00000050: 75cd 483e d2c1 e8bd 701c 21be 1916 30be
00000060: d599 a43d 8e35 4c3e b617 04be 117e 1d3e
00000070: 2d88 3ebe 8a71 033e b2fa 50be 6977 91bc
00000080: 34a8 64bd bfd6 eb3d 19e0 82bc 00b1 f2be
00000090: 3681 813e af65 d53b 078f 68be 340f 5b3e
000000a0: d2f8 febd 5506 2a3e 3cac 89be e77c a0bd
000000b0: ca5c 8f3c bc42 3d3e 3426 333f 2680 94be
000000c0: 44d3 c2bd 250e eabc ec19 c9be bfd1 8bbd
000000d0: 3e46 193e 4725 bfbc 5d63 673e 338d 283e
000000e0: a8fa 3ebd 4684 e5bc b086 df3d d7b4 463e
000000f0: 1601 e93d 9be6 6e3e b411 abbd c3bd 1e3d
00000100: 6cf6 323d 51fd 653d 6a27 65be 3288 8f3e
00000110: 8926 7d3d af09 d03e 7b53 a83e 35c7 823e
00000120: 243b 52bb 91d3 fbbd 0676 1f3f 3844 d3bc
00000130: 6cc2 b83d f7e9 49be 6494 e0bd 727b 013e
00000140: b057 883b 8318 c13e 34f2 843d 0b91 dbbb
00000150: 52c8 bc3d be9e 1c3e ceb2 8e3d 98bb d13e
00000160: aa1e e0bd 719b a43e 13fc 493e af92 2ebe
00000170: e0ec f43d 617d 1b3d 87df 7abd 9325 9dbe
00000180: cdd0 813d cfb8 203e 5874 aebe 1c69 873e
00000190: b663 343e 3a18 6dbc 7a6d cb3e 9e5d dbbd
000001a0: ee2f 2bbe 7f6a bb3c 3d63 e1bd f193 4b3e
000001b0: 3c3a 3ebd 349f eb3d b8f0 c23d f0de f4bd
000001c0: d5e6 b3be 43c4 4abe d2aa 29be f002 1f3e
000001d0: 06bc 083e 5766 e03d edcd 84bd cd93 08bd
000001e0: a58d f43d b978 483e f6ae 3fbd 6a33 2cbe
000001f0: ffeb 6a3d 651d 403e daf2 a7ba ba68 5b3e
00000200: 399c b4be e54e aabd 3f0a 73be cc97 643e
00000210: dd23 c63b 6938 1e3e 72df 9e3e e7dc 86bd
00000220: 642a 8d3e 4dfe 63be 1e12 4d3d f236 a3be
00000230: 63fd fd3b 1587 07be 8047 32bd 48be 4a3d
00000240: 4e58 24be 1982 7f3d d3be a33d 7bfc 1b3e
00000250: 7e9c 0a3e a7ca ba3e e29f b9be 4bea 8bbe
00000260: 0abc 833e 1307 22be fcb7 c0be bbdf 5ebc
00000270: 6c95 0b3e 2606 0bbe f9a6 e13c 1d10 6bbc
00000280: 001c 49be dd07 fe3a 49a8 9b3e 1cea 1c3e
00000290: ad87 e93d ed4c 80bc af7c a8be b80f 26bd
000002a0: cb00 1d3e ad86 ed3d ae66 7dbe e23a 943d
000002b0: 7208 8ebd af51 a33d 9bb9 9abd d6fb 243d
000002c0: 02b6 003e fcc7 b53d efe4 3b3e 39e7 2bbe
000002d0: a5ca 2d3e a1a2 13be 9cee a93e 6118 94be
000002e0: 58a0 343e 9a42 2bbe f42f 38bc 6621 213e
000002f0: b907 eb3a 709e 7ebe a77f 29bd 3373 b33d
00000300: dabe 19be af78 36be 7461 87bd 30ee dfbd
00000310: c5ff 5b3e 198e 64bd 8073 adbd 9e96 44be
00000320: 0e92 623d 3491 253e 2773 f33e c2e6 1bbd
00000330: a644 943d e7ef a53d 5dc9 dfbc 3915 9bbd
00000340: b212 b0be a2e0 443e 5e71 ecbc 98d0 47be
00000350: 8f30 2dbb af71 d4bd 02b6 1dbe 453b 953e
00000360: f907 ecbc 0029 24be 1728 05be a211 1cbf
00000370: f855 31be 7118 223d e6dd 483d 668f bdbe
00000380: adbd f0be c2a4 04bf 979c eb3d 1079 b8be
00000390: 7ab3 0f3e ad63 873c 3f7a 723e e46e 1c3d
000003a0: ff4d b4be f396 37be e15f 28bd 77e3 b9bd
000003b0: b6cc a9be 26fe a73e fcf5 06be 82ea 6fbe
000003c0: 0f6b 9fbd 4e9e 223e 9588 e2be 9eda 93bc
000003d0: 829e 24bf 8af1 8abe a26a cebd 10d7 bcbe
000003e0: d144 c8be d3bf 163d e6a8 12be f70e a63e
000003f0: e9fd bebe 4667 883e 7bcc a8bc 09b6 5f3d
-0.011220969 -0.14028752 -0.040894065 -0.50588644 0.16462967 -0.049373742 -0.21703795 0.20999356
-0.37623852 0.06510803 -0.052399613 -0.106571436 0.029157605 0.024884565 0.11106944 -0.20766284
-0.097049475 -0.16431817 0.07852524 0.021885622 0.19609626 -0.11365093 -0.15733504 -0.1719593
0.08037154 0.19942304 -0.1289967 0.15380122 -0.18606634 0.1283628 -0.20408133 -0.017757135
-0.055824474 0.11515569 -0.015975999 -0.47400665 0.25293893 0.006512366 -0.2271081 0.21392518
-0.124498025 0.16603978 -0.26889217 -0.07836323 0.0175003 0.18482488 0.6998017 -0.2900402
-0.09512952 -0.028571198 -0.3927759 -0.06827115 0.14968202 -0.023333205 0.22596498 0.16460113
-0.046625763 -0.028017174 0.109143615 0.19404922 0.1137716 0.23330157 -0.08352986 0.03875519
0.043692037 0.056149784 -0.22378317 0.28033596 0.061804328 0.40632388 0.3287619 0.25542608
-0.0032078708 -0.122962125 0.62289464 -0.025789365 0.09021458 -0.19718157 -0.10965803 0.12644747
0.004160844 0.37714013 0.06491509 -0.00670064 0.092178956 0.1529493 0.06967698 0.40963435
-0.10943349 0.32149842 0.19725065 -0.17048143 0.11959243 0.037961368 -0.06124833 -0.3069273
0.06338654 0.15695499 -0.34073138 0.2644738 0.17616162 -0.014471108 0.3973196 -0.107112154
-0.16717502 0.02287793 -0.11005256 0.19880654 -0.046442255 0.11504975 0.0951857 -0.119565845
-0.35137048 -0.1980143 -0.16569069 0.15528464 0.13352975 0.1095702 -0.0648459 -0.03334408
0.11941079 0.19577302 -0.046797715 -0.16816488 0.05735397 0.18761213 -0.0012813464 0.21426669
-0.35275438 -0.08315829 -0.23734377 0.22323531 0.0060467557 0.15451206 0.3102985 -0.065851025
0.27571404 -0.22264977 0.050066106 -0.31877857 0.0077511533 -0.13235123 -0.04352522 0.049497873
-0.1604931 0.06237993 0.07995381 0.15233032 0.1353626 0.36482736 -0.36254793 -0.2732719
0.257294 -0.15823011 -0.3764037 -0.013603146 0.13631219 -0.13576564 0.02754544 -0.014347103
-0.19639587 0.0019381006 0.3040183 0.1532368 0.11402831 -0.015661681 -0.32907626 -0.040542334
0.15332334 0.11597953 -0.247462 0.072377935 -0.069352046 0.07974564 -0.07554933 0.040279232
0.1256943 0.088760346 0.1834905 -0.16787423 0.16971834 -0.14417507 0.33189857 -0.2892485
0.17639291 -0.16724625 -0.011241902 0.15735397 0.0017931379 -0.24865127 -0.041381504 0.08762207
-0.1501421 -0.17819475 -0.066103846 -0.109341025 0.21484287 -0.055799577 -0.084692955 -0.19198081
0.05531507 0.16168672 0.47548792 -0.038061865 0.07239656 0.08102398 -0.027317697 -0.07572407
-0.34389263 0.19226316 -0.028862651 -0.19513166 -0.0026426648 -0.10373246 -0.15401462 0.29146782
-0.028812395 -0.16031265 -0.13003574 -0.60964406 -0.1731795 0.03957409 0.049039744 -0.37023467
-0.4701971 -0.518139 0.115044765 -0.36029863 0.14033309 0.016527021 0.23679446 0.03819169
-0.35215756 -0.17928676 -0.041107062 -0.090765886 -0.33163995 0.32811087 -0.13179773 -0.23429301
-0.07784092 0.15880701 -0.4424483 -0.01804858 -0.64304364 -0.27137405 -0.10078932 -0.3688283
-0.39115003 0.03680403 -0.14322242 0.32433292 -0.37303093 0.2664129 -0.020605316 0.05461696

gru.bias_ih_l0 f4 [300]
00000000: 2a15 fb3a f36b b8bd ff14 963d a59a 61be
00000010: 4848 2ebe e430 2b3e bda6 4cbd 0b30 dc3c
00000020: 65b9 93bd bb1e 583d 071f 98be 0dc5 18bd
00000030: b891 59be 6b25 903d 3769 b6be b86d 88bb
00000040: 325e 11be da61 36bd 13bc f73d 5701 bcbd
00000050: e491 38bd 45cf d63d 650c 33be 08cc 5fbe
00000060: 9dc7 3abb aec2 63be f9e7 42bd 67a4 3c3c
00000070: 1eab 113d 4537 933b 6561 37be d826 f7bd
00000080: 3fda 1dbe d99b a7bd b3c3 3d3b 549e 94be
00000090: c840 2ebe 25c7 00be 2fb6 573e c9f1 5cbe
000000a0: ef66 533d c100 56bd 7f90 3fbe 4078 423d
000000b0: f8c6 efbd 7734 82be 3b2d 2bbe 5f28 06be
000000c0: 5ad0 06be 192c 86be b5ca 923d d21d 52be
000000d0: 5247 8ebd 1adb a63d 4e40 55bd b0fa af3b
000000e0: b769 ca3d 792c 82be 822f 963c b422 84bd
000000f0: 4f74 fcbd 3618 65bd 9674 29be 2561 943d
00000100: 25c8 883d d4e2 3b3d 545a 2bbe 7309 973b
00000110: 41e5 62be 27a1 88be 1915 343e 0592 13be
00000120: 2585 b73c 7152 85be d108 9dbe 6304 9abc
00000130: c8b7 8d3c 835e 29be 0c71 8abe 5b0b 6dbd
00000140: d848 9abd 061c 8fbe a7a6 d9bd ae3d 193d
00000150: f345 15be 52de 01bd 8091 e03b 4856 d2bc
00000160: f13b f2ba 8dd6 10be 71fc 9d3d 7783 3dbe
00000170: 5d66 cfbd a13f 5dbd f4e8 c4bd d2b1 0fbe
00000180: 2378 04bb 5a30 76bd 2d22 f43d 684e 26be
00000190: 37cf 333e eb39 0e3f f50e b1bd 547e 60bd
000001a0: 27e2 7b3d 8d22 de3e 7a6e c3bd 4fbd 7d3e
000001b0: 73b9 543e 1810 403e 77db a53e 92e4 2f3e
000001c0: 000c 863e 6e26 7cbd 2021 e2bd c673 863e
000001d0: e071 05be 8067 0b3e 500f 613e b1f1 d33d
000001e0: 8e68 c4be 79bc 9dbd a5bf 583e 0811 983e
000001f0: 8f4f 583e fce4 113e 9a90 fd3c 2620 513e
00000200: 0349 2d3f e974 58be 0996 823e 5ebb 8ebd
00000210: 37f0 883e 4b39 ec3d a0c0 063e 5e94 a93c
00000220: 45f8 083e ba75 a73e 9c94 e4bd 0ba3 993e
00000230: 4410 213e ede9 60bd 4eb1 aa3e 1bb8 f2bc
00000240: f00a b63e 5360 a73e 046a 3f3c 19dd 16bd
00000250: 0bca 4fbe 7cbf bc3e f7bf 1b3e a31e b13e
00000260: 6546 833e 07ea bd3c 6f43 663e 4b28 6d3e
00000270: 25f5 003d ef80 1e3e a98b 623d 6fa7 d53e
00000280: 58bb 02bd 31ff 863e 7d62 b23e cfec 813e
00000290: e1c8 0b3e b0d0 51be 8eab 833d aea9 4bbd
000002a0: a1e4 613e bd9f 833e 86b4 d8bc dbcb b83e
000002b0: 2fdc e6bd b38d e53d d831 ac3e 6cfb 5a3e
000002c0: efbf 1d3e afa2 953e c777 b83e cf68 1f3d
000002d0: 2df9 9a3e 9926 983d 0c85 513e ac3b 8a3e
000002e0: e79a 0abe c53b a33e 9a7c a83e d36e 783e
000002f0: c72f 953e 669c 603d 8fda e43d 951f 9bbd
00000300: 36de 563e 01c8 a73d 7522 933e 8f79 19be
00000310: c931 833e 8f13 623e 362b a63e f475 b5bb
00000320: 31f9 55be 31d4 66bc 9caf 5fbe 8e6c 40bd
00000330: d14b 1dbe e731 653e 98be 743e d011 b33d
00000340: 479f fb3d 1c49 9dbe 4c12 cebd e9cd 12be
00000350: a59b 123e 3ee1 503e da1e fb3d 24b0 123c
00000360: 1b63 253d 65a3 8abd 1bae 993e 550a cbbc
00000370: fa91 07be bbc1 40be 1848 ebbc 15de e8bd
00000380: 76fd fd3d 7324 c83d ce6e 223a 5e94 eabd
00000390: 15ee 0fbe 71a3 8d3e a115 84bd c3d1 803e
000003a0: d3b4 f3bc 5a57 4dbe b66d f9bc 2535 583e
000003b0: fa39 07be ad0c 87bd e304 2ebe d905 d73c
000003c0: 0cad e0bd 7ba9 cfbc f40c 2c3d f91d d7be
000003d0: 63c3 cabd ad35 f1bd 7521 75be 5e0d 65bc
000003e0: 2c36 6e3d ab57 2c3d e160 ac3e f371 7bbc
000003f0: 2462 603a b8ad adbe 7445 debc 0262 56be
0.0019156088 -0.09004965 0.073282234 -0.22031648 -0.1701976 0.16717869 -0.0499637 0.026878377
-0.072130956 0.05276368 -0.29711172 -0.037297297 -0.21246994 0.07038387 -0.35627148 -0.00416347
-0.14196089 -0.044526912 0.12096419 -0.09179943 -0.045061007 0.10488752 -0.17485197 -0.21855175
-0.0028500326 -0.22242233 -0.047584508 0.011513806 0.03556358 0.0044926726 -0.17908247 -0.12067956
-0.15415286 -0.081840225 0.0028955757 -0.29027045 -0.170169 -0.12575968 0.21065591 -0.21576609
0.051611837 -0.052246813 -0.18707465 0.04747796 -0.11707872 -0.25430652 -0.16716473 -0.13101338
-0.13165417 -0.2620552 0.071675695 -0.20519188 -0.06947197 0.08147259 -0.05206328 0.0053704605
0.09883445 -0.25424555 0.0183332 -0.064519316 -0.123268716 -0.055931292 -0.1654838 0.07245091
0.066787995 0.045870617 -0.16733676 0.0046092807 -0.22157766 -0.2668545 0.17586173 -0.14411171
0.022402355 -0.2603946 -0.3067079 -0.01880092 0.017299548 -0.1653996 -0.27039373 -0.057872158
-0.07533425 -0.27951068 -0.106274895 0.037412338 -0.14577465 -0.03170616 0.0068532825 -0.025675908
-0.0018480999 -0.14144345 0.07714165 -0.18507181 -0.10126946 -0.05401576 -0.09614745 -0.14032677
-0.0020213209 -0.060104705 0.11920581 -0.16240847 0.17559515 0.55557126 -0.08645431 -0.054807976
0.061494973 0.43385735 -0.09542556 0.24779247 0.20773868 0.1875614 0.32394 0.17177036
0.2618103 -0.061560087 -0.11041474 0.26260203 -0.13031721 0.13613701 0.21978498 0.10348833
-0.3836102 -0.07701964 0.21166857 0.29700494 0.21124099 0.14247507 0.03095274 0.2042242
0.6768953 -0.21138348 0.25505093 -0.06969331 0.2674577 0.11534365 0.13159418 0.02070063
0.13375957 0.32707006 -0.111611575 0.30007204 0.15728861 -0.05491059 0.33338398 -0.029628804
0.3555522 0.32690677 0.011682991 -0.03683195 -0.20291917 0.3686484 0.15209948 0.34593686
0.25639644 0.023182882 0.22486661 0.23159902 0.031483788 0.15478872 0.05530897 0.41729304
-0.031916946 0.2636657 0.34840766 0.25375983 0.13650848 -0.20489764 0.06429206 -0.049722366
0.22059871 0.25707808 -0.026453268 0.3609303 -0.112724654 0.112086676 0.33631778 0.21384972
0.15405248 0.2922568 0.36028883 0.038918313 0.3026823 0.07429237 0.2046091 0.2699865
-0.13535653 0.31881538 0.32907563 0.24261026 0.29138014 0.054836653 0.11174499 -0.07574383
0.20983204 0.081924446 0.28737226 -0.14987777 0.2562392 0.22077774 0.32454842 -0.0055377427
-0.2089584 -0.014088676 -0.21844333 -0.046978526 -0.15360953 0.22382317 0.23900831 0.08743632
0.12286239 -0.3071984 -0.100620836 -0.14336361 0.14317186 0.20398423 0.12261744 0.008953128
0.040377717 -0.06769446 0.30015644 -0.0247852 -0.1323928 -0.18823902 -0.0287209 -0.11370484
0.124018595 0.09772577 0.0006196321 -0.1145408 -0.14055665 0.27663758 -0.06449438 0.25160035
-0.02974931 -0.20052853 -0.030447822 0.21114023 -0.1320571 -0.065942146 -0.16994052 0.026247906
-0.10970506 -0.02534937 0.04200454 -0.42015055 -0.09900548 -0.11777816 -0.23938544 -0.013980238
0.05815713 0.042075794 0.33667663 -0.015346992 0.0008559546 -0.339216 -0.027132727 -0.20935825

gru.bias_hh_l0 f4 [300]
00000000: 80c8 6bbc 3494 2bbe 41a4 4e3d bbb8 87be
00000010: 3b68 6dbe 65ea 103e 6a52 4cbc e672 afbb
00000020: c59c 29be b8cf 273e 718e 7dbe 35e7 3cbc
00000030: 5d87 ffbd 6b43 813c 1567 85be c197 c9bd
00000040: 602f 5bbe 7f68 213c 1041 e33d cd10 09be
00000050: 9931 b0bb 7a35 1b3d bdd4 a8bd 2760 79be
00000060: 577d dcbc 559f 87be 40a7 a1bd 0d64 89bd
00000070: c41c 903c 399c 89bd 118b 89be 4b16 8abd
00000080: 999b 4dbe f7b0 1dbe 0b15 ab3c 1a64 b1be
00000090: 05ce 1abe e0cb dfbd 2edf 603e 93c4 48be
000000a0: d859 e3bc 7e00 8bbb 32a6 10be 3dda 113d
000000b0: 378a b8bd 5bac 44be 317e 35be 4f3b 22be
000000c0: a3fa b9bd f20c 24be 826e 413d 13a6 42be
000000d0: 910b debc 4184 b13d 7896 7dbd 711c 79bc
000000e0: 2671 2c3d 3438 9bbe 79e5 9a3d 29b2 8bbd
000000f0: b506 02be 4333 c1bd 8516 87be ce97 ddbc
00000100: ed39 063d 3b79 ce3d a7a7 f0bd a380 953d
00000110: c2f9 8abe 0031 9bbe 07a6 3c3e 66e7 79be
00000120: d3a9 193d 395e 52be 0452 90be 7f3d cbbb
00000130: 7407 073b 15f8 11be fc35 80be f9dd 7abd
00000140: ad03 2a3c 46a3 90be 9c67 60be e161 afbc
00000150: fbb6 eebd 752d 98bd de70 de3c 9dc7 513d
00000160: 92d3 98bd f632 42be 0680 c63d 9529 b3bd
00000170: ee90 38be ef2b 9cbd 8bc7 cfbd ac1f ddbd
00000180: 4d24 2e3c f4f4 67bd d6c8 0e3e 3036 18be
00000190: 6f3d 6f3e dfc1 0d3f dae9 e7bc 0369 a7bd
000001a0: 69b5 573b 7d31 bd3e 7151 97bd fbff 923e
000001b0: 8cb1 1b3e 815a 6e3e 2c10 983e 632a 833e
000001c0: d038 993e 2f45 04bd 23d6 febd beb4 833e
000001d0: 85c3 fbbc ee6a 943d b1a0 3d3e d374 f03d
000001e0: 8083 b3be 4cbc 9dbd 5087 613e 5c78 503e
000001f0: 525f 1c3e a48f 003e 1c2e fb3c 415d 233e
00000200: f315 373f 5138 6cbe c6cb 7e3e 2f68 b6bd
00000210: c4b9 633e b30b 173d dc6a 413e 5092 5abc
00000220: ebb8 1e3e 63e4 9b3e aefd a2bd f2f9 773e
00000230: 3ad9 0d3e 3ec1 2abd b9db 9c3e 9c4d 97bd
00000240: b22b 903e 87e1 943e 9ad9 683d a856 10bd
00000250: 9c2e eebd ab67 a93e 3942 123e 21e1 873e
00000260: ef08 a53e 3d5d ae3a 002d 2a3e 5a64 553e
00000270: 407a aebc e9f6 623e 8edf 853d 3286 d23e
00000280: 0949 b13b ea73 ae3e 7c45 b33e 4f32 223e
00000290: 281d 1c3e a602 63be b595 173e f95b 41bd
000002a0: 868e 9e3e 85f9 8d3e 4307 a2bc d795 d33e
000002b0: 377e 3ebe 8a88 4a3e 49a9 8e3e 464d 443e
000002c0: 23d5 b23d 4f5a 883e f50f 923e 24f0 b53d
000002d0: f0f1 833e 4844 8f3d 770b 4b3e 6b32 8e3e
000002e0: 11cf d8bd 4dc3 823e 6a4f c83e 5c1a 8e3e
000002f0: 1e8d 6c3e fa4c 073d 0dde 403d 987f a1bd
00000300: ddec 403e fc7c b93d fc45 923e 6c58 28be
00000310: bc74 863e 7924 073e 5934 d13e c08d a03d
00000320: c37c a3bd e63e 2e3d a0d7 93be 4b43 bc3c
00000330: 786a efbd 9f54 5f3e 06a8 963e 3c3f 633e
00000340: 84ac 3f3d d347 c6be 09ef 3ebe 0655 c4bd
00000350: 5ded 9b3d 41bb 913e cb6b f73d cfc7 843d
00000360: a752 b2bd 5e3a e7bd 7c91 9a3e b301 c0bc
00000370: 7038 5e3d a3d6 7bbe 1cd3 563c ecbb 69be
00000380: e301 5c3e 7b31 763c 24b0 973d 5be1 00be
00000390: 766f dcbd e5e4 743e 6cdc 2abd 0832 823e
000003a0: e30b 0bbe cf2a 82be 539f 54bd 13ab 283e
000003b0: 3950 5cbe 0f19 c2bc 057b b2be 2367 813d
000003c0: 539d dd3d c114 0ebd 272f 633d c458 2fbe
000003d0: b653 c1bd 9da7 4cbd ea10 2ebe a91f 7dbd
000003e0: 235f 703d e7f1 1a3b 4d89 353e 667f 353d
000003f0: c3cc 81bd 88ce 7bbe c86f e2bc 8722 e9bd
-0.014391065 -0.16755754 0.050449613 -0.26508126 -0.23184292 0.14151914 -0.012470821 -0.005354273
-0.16563709 0.16387832 -0.24761368 -0.011529733 -0.1247699 0.015779218 -0.26055208 -0.09843398
-0.21404791 0.009851574 0.11096394 -0.13385315 -0.0053770063 0.037892796 -0.082437016 -0.24353085
-0.026915235 -0.26488748 -0.078932285 -0.06708536 0.017591842 -0.0671925 -0.26863912 -0.06742533
-0.20078887 -0.15399538 0.020884058 -0.34646684 -0.15117653 -0.10927558 0.21960136 -0.19606237
-0.027752802 -0.004242002 -0.14125898 0.03560852 -0.090107374 -0.19206373 -0.1772392 -0.15842937
-0.09081008 -0.16020563 0.04722453 -0.19008665 -0.027105125 0.086678036 -0.061911076 -0.015204535
0.042100094 -0.30316317 0.075633 -0.06821091 -0.12697871 -0.094336055 -0.2638437 -0.027049925
0.032770086 0.100817166 -0.11750727 0.07299926 -0.27143675 -0.30310822 0.1842271 -0.24404678
0.037515473 -0.20543756 -0.28187573 -0.0062023993 0.0020603808 -0.14254792 -0.25041187 -0.061246846
0.010376853 -0.28249568 -0.21914524 -0.021408977 -0.116559945 -0.07430545 0.027153429 0.051215757
-0.07462229 -0.18964753 0.09692387 -0.087481655 -0.18024036 -0.07625567 -0.10145482 -0.107970566
0.010628772 -0.05663009 0.139438 -0.14864421 0.23363279 0.5537395 -0.028309751 -0.08174326
0.0032914525 0.3695182 -0.073885806 0.28710923 0.15204448 0.23276712 0.29699838 0.25618276
0.29926157 -0.03229254 -0.12443187 0.25723833 -0.03073288 0.07246958 0.1851833 0.117410325
-0.35061264 -0.077019304 0.22024274 0.20358413 0.15270737 0.12554795 0.030661635 0.15953542
0.71517867 -0.23068358 0.24882421 -0.0890659 0.22238833 0.03687639 0.1888842 -0.013340548
0.15500228 0.30447683 -0.07958542 0.2421644 0.13852397 -0.041688196 0.30636385 -0.0738785
0.28158337 0.29078314 0.056848146 -0.03523889 -0.11629984 0.33086905 0.14283074 0.26538947
0.32233378 0.0013302934 0.16618729 0.20839062 -0.021298528 0.22164501 0.0653678 0.41118008
0.005410318 0.3407281 0.3501395 0.15839504 0.15245497 -0.22168979 0.14803202 -0.047206853
0.30968112 0.2772943 -0.019778853 0.41325256 -0.18602835 0.19778648 0.2786353 0.19170102
0.08732059 0.266314 0.285278 0.08883694 0.2577052 0.069954455 0.19828592 0.2777284
-0.1058637 0.25539628 0.39123088 0.27754486 0.23100707 0.033032395 0.047086764 -0.07885665
0.18840356 0.09057042 0.2856902 -0.1643998 0.26260936 0.13197507 0.4086025 0.07839537
-0.07982781 0.042540453 -0.28875446 0.022981307 -0.11690229 0.21809624 0.29425067 0.22192091
0.046795383 -0.38726673 -0.18645872 -0.095865294 0.07613633 0.28463176 0.12081107 0.06483423
-0.08707171 -0.112904295 0.3018912 -0.02343831 0.05425304 -0.24593596 0.013111856 -0.22825593
0.21485095 0.0150264455 0.07406643 -0.12585966 -0.10763447 0.23915441 -0.041714117 0.25428796
-0.13578753 -0.25423285 -0.051909756 0.1647151 -0.21514978 -0.02369359 -0.3485948 0.063185
0.10821023 -0.03468776 0.05546489 -0.17123705 -0.09439795 -0.049964536 -0.1699864 -0.06179777
0.05868448 0.002364272 0.17728157 0.04431095 -0.06337883 -0.24590504 -0.027641192 -0.11383539

dense_output.0.weight f4 [100, 100]
00000000: 7b5e 933d 8de7 a53d 6451 ec3d a1f4 89bd
00000010: a86f 99bd a5d4 00be fc44 943d 187a 0c3d
00000020: cb92 90bd d701 f73d 8ac8 a8bd 52d3 973d
00000030: aef1 153d b657 0fbe e5c4 abbd 85c3 483b
00000040: 27f4 0abd 5169 953d 804b 1cbd bd9e 053d
00000050: 1c2f 373c 4694 07bd 9d17 483d 8b29 073e
00000060: 1088 c2bd da09 38be ccc6 213d e58e acbd
00000070: c29c 883d baf1 2fbe f953 253e 5189 bcbc
00000080: df47 a5bd 7daa 89bc f6ec 84bd 17b3 423b
00000090: 63b2 83bd a18c abbd 4f0f ae3d 991c 573a
000000a0: 313f 003e c52d 163d f474 423a 09e9 be3d
000000b0: c184 77be 16fe b23d 0eb4 b83d addf 00be
000000c0: 4493 4dbc 6f55 e8bc 3b88 ce3d 16ec b9bd
000000d0: 2cd4 3d3d a27f a93d cca3 d23d c603 29bd
000000e0: 9c70 e9bd 2aba 613d b3b4 b03d f2a7 73bd
000000f0: 4596 b13a 9728 ce3d aea5 073d 62b9 013e
00000100: 490c efbb e768 c4bb e28d 1a3e 93ba c53c
00000110: 145e 143d 9315 95bb bceb 83bd bf33 20bd
00000120: 602c c9bd 1c25 79bd dfce ad3d cd74 dbbb
00000130: 5eb5 16bd 909e 2abc d9a9 c0bd 6823 a3bd
00000140: 6181 15bd 5967 3bbd da6f 603e c0d8 4c3d
00000150: 984f 783d 819a ecbc 0913 e7bd 21a9 fbbc
00000160: 328b c8bd 0025 11bb c7c0 74bd 6e94 d23d
00000170: 8afd 1bbd b21d 7dbe 5ae3 2cbd f995 ffbc
00000180: cb33 6ebd f6b4 843d 295b 9a3b 6f1b 463d
00000190: 5070 08bd ec5b 4d3e f6fd c9bc 8c18 323d
000001a0: 3232 dabd cf11 b7bd c5c4 503d 6224 2e3c
000001b0: 8e6f 093c c622 ba3d 23f9 42be 6f2a d8bc
000001c0: 3010 443d 0281 9dbc 6b59 22be 872f 9b3d
000001d0: 921f 9f3c e0c3 703c 8f16 22bd 81fb cd3d
000001e0: 7ed2 dabc 56af b0bd f255 b83d e39d ed3a
000001f0: 406a d23d d9c4 d6bd a83d 56be 467d 92bc
00000200: e784 c73d 7a22 25be dea0 563e ffd5 34be
00000210: a74d 49bd a992 1c3d 52a8 a0bd feed 3abe
00000220: 5edf 8abd b6c1 eb3c 83ae 1cbe 9459 c3bc
00000230: c700 cf3d 71f2 60be 2fab b73d 80f1 15bd
00000240: d8f9 fbbb d944 6b3e e801 3a3e 42d7 1bbc
00000250: 5382 843d 88e0 8338 c6d3 90bc afc3 2e3e
00000260: e865 843d 1aae 423d f386 933d 50d9 cc3d
00000270: 974e eabd fc0b 863d 0528 283d a37a fabc
00000280: 168f 913c 5d17 9f3d 6391 a93d cdf1 623e
00000290: afb0 ce3b 0231 acbd c0d2 fd3d b735 053d
000002a0: f2f3 3c3d 8316 b2bd 3970 78bc 5ef7 883d
000002b0: 487c 06be adda b4bd 5668 8b3d 5821 a23c
000002c0: baf0 f63d def0 553a c624 08be ea5d 0a3e
000002d0: 5f5b d13d 17d4 103d 9047 bd3d 8c75 0b3e
000002e0: 611e aebd 3bac 21bc bf56 82be 0f08 d7bd
000002f0: 8db7 efbd f76e d4bd 369d 823d e296 2bbc
00000300: 85bc e9bd a3a3 98be 81da a5b9 d12c 9cbc
00000310: 6571 1abe c526 183e 1f58 363e c074 013e
00000320: 85a2 d4bc ff6b 063c f0c2 243d b5b2 21bd
00000330: 624f 3dbd a4e5 ddbd ae5a 60bd ea1b f63a
00000340: c5ea 8d3c b187 a83d 6ad8 45bb d189 2abc
00000350: 3845 a93d 99ef 2fbc 9470 b63c 2830 88bd
00000360: 6ef6 9b3d c956 55bc c8fc 93bd 6b50 89bd
00000370: d57b 943c 586a c7bd e3f7 da3d 5798 2c3d
00000380: e00b 683d 03f9 66bd 3177 e9bb 3142 493d
00000390: 98bf c53d 22a2 7cbd fd7a 0d3e 4176 efbc
000003a0: 9545 103d c0b7 5bbd 6592 94ba 9526 fcbc
000003b0: 5738 703d 8ce4 62bd f892 e4bc 5f17 81bd
000003c0: 3ec9 30bc 5daa 653d 53c7 bc3d 610a 6b3d
000003d0: f845 ff3c 78b6 023c c49a bb3c f44d 9e3d
000003e0: 2cea b6bd 6020 7abc 115d eb3c ec17 9f3d
000003f0: 8aec 823c 2b42 81bb 96d7 333d 62ed e3bb
0.07195755 0.081008054 0.115389615 -0.067361124 -0.07492 -0.12581117 0.0723972 0.034296125
-0.070592485 0.12060898 -0.08241375 0.07413353 0.036607437 -0.13998303 -0.08387164 0.0030634117
-0.033924248 0.07295478 -0.03815794 0.032622088 0.011180665 -0.03310039 0.048850644 0.13199441
-0.09498608 -0.17972508 0.039496228 -0.084256925 0.06670524 -0.17182055 0.16145314 -0.023014696
-0.08070349 -0.016804928 -0.06490509 0.0029708797 -0.06430509 -0.08376432 0.08499014 0.00082058605
0.12524106 0.036664743 0.000741794 0.09321792 -0.24171735 0.08739869 0.09018718 -0.12585326
-0.012547318 -0.02836105 0.10084578 -0.09078233 0.04634492 0.08276297 0.10285148 -0.041263364
-0.11398432 0.05510918 0.08628216 -0.059486337 0.0013548812 0.10066336 0.03311699 0.12668374
-0.0072951657 -0.0059939506 0.15093186 0.024136817 0.036222532 -0.004549691 -0.06441447 -0.03911185
-0.09822917 -0.060826406 0.08486723 -0.0066972733 -0.03679406 -0.010413781 -0.09407396 -0.079657376
-0.03650034 -0.045752857 0.21917668 0.050011396 0.06062278 -0.028882267 -0.112829275 -0.030720295
-0.097921744 -0.0022147298 -0.05975416 0.10282217 -0.03808359 -0.24718359 -0.042209007 -0.031199442
-0.058154862 0.06479828 0.004710574 0.048366006 -0.033310235 0.20054597 -0.02465723 0.04348044
-0.10654105 -0.089389436 0.050968904 0.0106287915 0.008388413 0.09088664 -0.1904035 -0.026387421
0.047867 -0.019226555 -0.15854423 0.075774245 0.019424234 0.014695138 -0.039572295 0.10057736
-0.026711699 -0.08627193 0.09000768 0.0018128719 0.10274172 -0.104867645 -0.20921957 -0.017882
0.09742146 -0.16126433 0.20959803 -0.17659758 -0.04914632 0.038225804 -0.078446046 -0.1825485
-0.06780885 0.028778892 -0.15300946 -0.023846425 0.1010757 -0.21967484 0.089681976 -0.036607265
-0.007689696 0.22975482 0.1816479 -0.009511771 0.0647017 6.288389e-05 -0.017679106 0.17066835
0.064647496 0.047529317 0.07203474 0.100023866 -0.11440771 0.065452546 0.04105379 -0.030576056
0.017768424 0.07768128 0.082796834 0.22162552 0.0063076834 -0.08407785 0.12393713 0.03252193
0.046131082 -0.086957 -0.015163475 0.066878065 -0.13133347 -0.088307716 0.0680701 0.01979129
0.12057634 0.0008161197 -0.13295278 0.13512388 0.10222506 0.035358515 0.09242165 0.1361906
-0.08501888 -0.009867723 -0.25456807 -0.10499584 -0.117049314 -0.10372727 0.06377642 -0.010472985
-0.1141291 -0.29812345 -0.0003163405 -0.019064339 -0.15082319 0.1485854 0.17807053 0.12642193
-0.025956402 0.008204459 0.04022497 -0.03947707 -0.046218283 -0.10834816 -0.05477398 0.001877663
0.01732386 0.08229006 -0.0030188807 -0.010408835 0.082651556 -0.010738277 0.022270478 -0.0664981
0.07615362 -0.0130211795 -0.072259486 -0.06704792 0.018125454 -0.0973708 0.10691812 0.04213747
0.05665195 -0.05638982 -0.0071248044 0.04913539 0.09655684 -0.06167806 0.13816448 -0.029231193
0.03522261 -0.053642035 -0.0011335133 -0.030780116 0.05864748 -0.05539374 -0.027902111 -0.06303286
-0.010790167 0.056070674 0.092177056 0.057382945 0.031161293 0.007978074 0.022900946 0.07729712
-0.089313835 -0.015266508 0.028730901 0.077682346 0.015981931 -0.0039446554 0.04390677 -0.0069557885

dense_output.0.bias f4 [100]
00000000: a02b 61be f469 7ebe fc60 01be 7472 443e
00000010: 1a2b 34be 91a5 12be 7465 18be 2e2e 11be
00000020: 5dd6 8ebd c006 76bd 4e12 0dbe 4283 0ebd
00000030: 2b33 fbbd e3d6 f4bd 9d76 9bbc aed2 7fbe
00000040: 9047 5bbe ebd6 7cbe 5a28 f1bd 9884 3dbe
00000050: bf41 07be e7f2 adbd dfc8 4ebe 5fd8 3bbe
00000060: 1375 47be 2d04 d4bd ff09 05be cf50 e7bd
00000070: 1595 05be 3bd8 11be ca04 32be 14d4 74be
00000080: 965a bcbd 1c57 5bbe 9634 92be 1d9c 75be
00000090: b676 2abe b6d2 2dbe c9e8 11be 47dc 22be
000000a0: 5adc cabd 5cd0 15be 92cd 4ebe f8b9 4abe
000000b0: 7c07 1dbd be8c 5abe 68cb c33d 66c5 8f3e
000000c0: 1522 14be 4baf 40be 4e1b 3ebe edbf 1bbe
000000d0: 2ca3 18be ed4a 82be d4b9 bdbb 7c55 33be
000000e0: 3995 59be 08c0 0cbe 01ab 0bbe 37e2 44be
000000f0: d818 5ebe 7ab6 293d 273d 6ebe 4f6e 8a3e
00000100: 8d19 21be 2825 5abe 6047 d5bd 4261 64be
00000110: f560 71be 6d03 13be 76f0 17be 6391 01be
00000120: c5d9 dcbd f635 2bbe b07c 5ebe f30e d8bd
00000130: ce0b 57be 7143 b9bd 53b7 97be e578 1dbe
00000140: 449e 81be 6cdd 7b3e 9cf6 23be 9550 ffbd
00000150: 9cdb 3dbe 8874 1dbe 32ac 3dbe ca04 ecbd
00000160: f73a 13be 24f7 26be 5b80 2abe 329a 4abd
00000170: b731 67be 09c7 80bd 369e ffbd dc59 47be
00000180: 48f9 36be 06e8 27be 14a1 28be 73c9 96bd
-0.21989298 -0.24845105 -0.12634653 0.19184285 -0.17594567 -0.14320971 -0.14882451 -0.14177772
-0.0697448 -0.06006503 -0.13776514 -0.034793146 -0.12265619 -0.11955049 -0.018977458 -0.24982712
-0.21414018 -0.2469136 -0.117752746 -0.18507612 -0.13208674 -0.084935956 -0.20193814 -0.18344258
-0.19478254 -0.10352359 -0.12992094 -0.1129471 -0.13045152 -0.14242642 -0.1738464 -0.23909026
-0.091969654 -0.21419948 -0.28555745 -0.23985334 -0.16646847 -0.16974911 -0.14248957 -0.15904342
-0.0990531 -0.14630264 -0.20195606 -0.19797504 -0.038337216 -0.21342751 0.09560281 0.2808029
-0.14466126 -0.18816869 -0.18565103 -0.15209933 -0.14905995 -0.2544779 -0.0057899747 -0.17513078
-0.2124833 -0.13745129 -0.13639452 -0.19226919 -0.21689165 0.04143379 -0.23265515 0.27037284
-0.15732403 -0.21303236 -0.10414004 -0.22302726 -0.23572142 -0.14356776 -0.14837822 -0.12653117
-0.10783724 -0.16719803 -0.21727252 -0.10549726 -0.21000597 -0.090460666 -0.29632053 -0.15378149
-0.2531606 0.24596184 -0.16012043 -0.12466542 -0.18540806 -0.15376484 -0.18522719 -0.11524351
-0.14377962 -0.16305214 -0.16650526 -0.04946346 -0.22577558 -0.06287963 -0.12481348 -0.19467872
-0.17868531 -0.16397104 -0.16467696 -0.07362642

dense_output.3.weight f4 [1, 100]
00000000: 0e2e 7b3c 3b4c e03c 93ef fbbb b3af 043d
00000010: 6e9a 633b 7c04 973b ffd3 fbba 3894 733c
00000020: 108f 363c 410b 593c b404 d73c 4cc5 963d
00000030: 7938 b43c 5f4e 08bb b142 9cbd acff e5bb
00000040: b9ed eabb 570f 13bc e446 373c 135f 053c
00000050: f07c e4bb 0608 303c b1c3 7e3b df00 a43b
00000060: b6c5 ac3a e8a1 b8bc 109e 3ebc 5b45 ec3b
00000070: f673 223a 06dd a8bc 21ad 533c c554 9ebc
00000080: 0d26 00ba 1563 dabc 56f2 7c3d d282 9fbd
00000090: ea3f b0bc 10ef cfbb f7fc 2c3c 714b ebbb
000000a0: a745 363b 84c7 be3b 816b daba 897c 2bbc
000000b0: 457f ee3c 9e9a 16bd 3a71 213d 84d0 443d
000000c0: c80f 84bc 6710 02bb cc2b 02bc f73a dc38
000000d0: c744 b23b ee35 653c a160 3a3d 318d 183c
000000e0: e9a2 acbb 450d a43b 19d2 1bbc a8ad b4bc
000000f0: 4265 febb ee18 6c3d f3c9 543a 2f32 3d3d
00000100: 9316 513b 3d04 b73d 7d44 d93c 76bc 83bd
00000110: 9ae3 e1bc b8ef 89bc 5bbe 993b bb4e 4bbb
00000120: 8088 7c3d d6a2 903c 8f7a c9b9 4b0b 393a
00000130: 216b 923b d015 1abb a221 91bd 0244 ccbc
00000140: 5c7c 6cbb b5ac 443d 2c30 b63b 1ebb 3f3d
00000150: cc90 dc3b 61d9 a73b 5685 963b 2c60 f3bc
00000160: 429e e7bb dc97 77ba 69bd 923b 7562 c1ba
00000170: 91e9 bc3c 8183 d23a de6a 90bc bf23 3abc
00000180: 0c5b 5abc 3240 853b 6e15 d63b 350a 033d
0.0153308045 0.0273801 -0.0076884716 0.032394122 0.0034729498 0.004608689 -0.001921296 0.014866881
0.011142507 0.013247312 0.02624736 0.0736185 0.021999585 -0.0020798666 -0.07629908 -0.007019004
-0.007169452 -0.008975825 0.011186335 0.008140343 -0.0069729015 0.0107441 0.0038873965 0.0050049867
0.0013181481 -0.02253814 -0.011634365 0.0072104163 0.0006197089 -0.020613205 0.012919695 -0.01932753
-0.00048884825 -0.026658574 0.061754547 -0.07788624 -0.021514852 -0.006345637 0.010558358 -0.007180624
0.0027812512 0.005822124 -0.0016664119 -0.010466703 0.029113421 -0.03676855 0.039414622 0.04805042
-0.016120806 -0.0019846202 -0.007945012 0.000105014005 0.005440328 0.013989909 0.04550231 0.009311006
-0.005268444 0.0050064647 -0.00951054 -0.022055462 -0.0077635357 0.057640962 0.0008117251 0.046190437
0.0031904324 0.08936355 0.026521916 -0.064324304 -0.02757435 -0.01683794 0.0046918816 -0.0031022269
0.061653614 0.017655771 -0.0003842902 0.0007058873 0.004468337 -0.0023511536 -0.07086493 -0.024934772
-0.0036084866 0.04801627 0.0055599418 0.04680931 0.0067311283 0.005122349 0.0045935316 -0.029708944
-0.0070684263 -0.0009444931 0.004478146 -0.0014754074 0.023060592 0.001606092 -0.017629083 -0.011361062
-0.013327371 0.0040664906 0.0065333163 0.031992156

exp_avg f4 [4, 1, 3, 3, 3]
00000000: 82fb 39bb f9fe 31bb 7e1d 4bbb 269e 3bbb
00000010: 2f23 2bbb 375c 35bb 39af e438 2aa8 29ba
00000020: 5b25 b4ba e9aa 21bb 406c 30bb 239d 66bb
00000030: d6d9 38bb 2f2e 38bb 9475 56bb 9d3c 18b9
00000040: a47c 4eba 661c d0ba 85e0 18bb fc21 3ebb
00000050: bdc4 81bb e947 3abb 7cd9 49bb dcf3 73bb
00000060: ba7c e4b9 7366 82ba 5632 deba 9f69 453b
00000070: 3df1 193b 0bc4 a73a 53c5 e43a 8598 023b
00000080: 8f0b 103b f2f0 083b 14c9 2d3b 0c60 3f3b
00000090: b5be 3c3b 24ed 093b 5816 3f3a 2368 f63a
000000a0: 2604 f43a c22f d33a 85c4 133b ec4e 2d3b
000000b0: b068 253b 0526 503b 16a4 093b eb76 113a
000000c0: 32cf 1c3b 484a fe3a 0410 a23a 64fa 2d3b
000000d0: 4e2a 323b 6435 0a3b a573 1eba 905f ca38
000000e0: 1676 26ba 8852 3e39 a459 3bb9 08b0 45ba
000000f0: 35f9 213b d81d c23a 81d8 17b9 f3ed 9bba
00000100: 6cfe fbb9 9d9b 8cba 3b37 15ba d1fa 45ba
00000110: 8710 9bba 117b f53a e0d5 1d3a cdcd 4bba
00000120: d7c3 99ba 2672 d7b9 ee10 93ba b8a7 13ba
00000130: 0ad3 2bba e8c0 9aba c0e7 ed3a bff9 d239
00000140: e44c 50ba 0000 0000 0400 0000 0400 0000
00000150: 0000 0000 0400 0000 0400 0000 0400 0000
00000160: 0400 0000 0400 0000 0000 0000 0400 0000
00000170: 0400 0000 0000 0000 0400 0000 0400 0000
00000180: 0400 0000 0400 0000 0400 0000 0000 0000
00000190: 0400 0080 0400 0000 0400 0080 0400 0000
000001a0: 0400 0000 0400 0000 0400 0000 0400 0000
-0.002837867 -0.0027160032 -0.003099292 -0.00286282 -0.00261135 -0.0027673373 0.00010904525 -0.0006471897
-0.0013744043 -0.002466852 -0.002691999 -0.0035188876 -0.0028206012 -0.00281037 -0.003272389 -0.0001451843
-0.0007876849 -0.0015877604 -0.0023327183 -0.0029011955 -0.0039602206 -0.002842421 -0.0030799797 -0.003722421
-0.00043580477 -0.0009948745 -0.0016952257 0.003012277 0.0023489736 0.0012799514 0.0017453827 0.0019927335
0.0021979546 0.0020895568 0.0026517557 0.0029201536 0.0028800194 0.0021045888 0.0007289401 0.0018799346
0.0018616959 0.0016112255 0.0022547555 0.0026444746 0.00252394 0.0031760943 0.0021002344 0.0005549031
0.002392721 0.00194008 0.0012364392 0.002654695 0.002718586 0.0021088952 -0.0006044454 9.6499105e-05
-0.00063499936 0.00018150557 -0.00017867103 -0.00075411843 0.002471519 0.001480992 -0.00014481136 -0.0011896476
-0.0004806401 -0.0010727529 -0.0005692129 -0.0007552328 -0.0011830487 0.0018728693 0.00060209446 -0.0007774502
-0.0011731338 -0.00041093043 -0.0011220255 -0.0005632597 -0.00065545796 -0.0011806758 0.0018150732 0.00040240397
-0.0007946028 0.0 6e-45 6e-45 0.0 6e-45 6e-45 6e-45
6e-45 6e-45 0.0 6e-45 6e-45 0.0 6e-45 6e-45
6e-45 6e-45 6e-45 0.0 -6e-45 6e-45 -6e-45 6e-45
6e-45 6e-45 6e-45 6e-45

exp_avg_sq f4 [4, 1, 3, 3, 3]
00000000: 0fb9 e338 b948 fb38 93b1 0239 05fd f238
00000010: 4561 0439 b83c 0839 301e 0539 56d9 0b39
00000020: 7121 0e39 7b28 db38 6698 ef38 35ee fb38
00000030: 00da e438 309c f738 3b78 0139 70e7 fe38
00000040: 3576 0339 f946 0739 f7b5 db38 99a8 ea38
00000050: 8e6c f638 2f1e e238 2841 f038 b069 fc38
00000060: 9609 fe38 8453 0039 1d42 0439 f51c a038
00000070: c340 9338 0955 9138 e1a4 9b38 b4d4 9238
00000080: fe31 9b38 50ca 9b38 39a4 8e38 2484 a138
00000090: 0eaa a838 cb83 9738 1c0b 8f38 babd a038
000000a0: 94c8 9338 a863 9638 5837 a338 04e6 8f38
000000b0: 1c32 9c38 2c89 ad38 f45c 9b38 b7f4 8f38
000000c0: e7cc a438 be0c 9538 1a7a 9438 0659 aa38
000000d0: 75b9 9138 91e5 9838 a204 4239 dcfb 0139
000000e0: e834 a638 e5ad 4739 f935 0e39 410b c238
000000f0: b750 3039 0d93 1539 e4bf 0739 b0ce 4439
00000100: 04b6 f838 7c38 a338 83ad 4b39 e664 0939
00000110: 4627 be38 8ff3 3239 8785 1639 506f 0839
00000120: 2ff7 4139 56e8 ed38 dd6c a338 ba87 4a39
00000130: bb58 0339 f0b0 bc38 9963 3339 ecc4 1439
00000140: ff67 0639 0000 0000 9f3d b907 4712 270c
00000150: 0000 0000 5c97 770c 1da6 b40d 4feb 0000
00000160: e5d5 cf0a d412 5a0b 0000 0000 aeb0 3901
00000170: 97fb f00b 0000 0000 9139 930b cb22 580d
00000180: 3cf7 0000 438c 3e0c bd66 1e0d 0000 0000
00000190: 64bd bd02 2b02 4e0b f401 0000 f96b c508
000001a0: f287 c80c d6ea 0000 3eb9 990c a64e c90d
0.00010858673 0.00011982158 0.00012463918 0.00011586588 0.00012624737 0.0001299259 0.00012695114 0.00013337037
0.00013554633 0.00010450274 0.000114247945 0.00012012982 0.00010912493 0.0001180697 0.00012347188 0.000121547724
0.00012537169 0.00012901043 0.00010476627 0.00011189393 0.00011750414 0.00010782142 0.00011456228 0.00012035982
0.00012113449 0.00012238143 0.0001261313 7.634788e-05 7.021569e-05 6.929978e-05 7.421687e-05 7.0014416e-05
7.400288e-05 7.4286596e-05 6.8016765e-05 7.701691e-05 8.0425394e-05 7.2247894e-05 6.820841e-05 7.664734e-05
7.046867e-05 7.17112e-05 7.782754e-05 6.861615e-05 7.447993e-05 8.274833e-05 7.40829e-05 6.864353e-05
7.8582954e-05 7.107247e-05 7.079933e-05 8.1228136e-05 6.948683e-05 7.290685e-05 0.00018503008 0.00012396224
7.9253514e-05 0.000190429 0.00013562282 9.252737e-05 0.00016814737 0.00014264528 0.00012946088 0.00018769014
0.000118594646 7.782967e-05 0.00019424227 0.00013102926 9.067221e-05 0.00017066135 0.00014354858 0.00013011438
0.00018497997 0.000113443166 7.792723e-05 0.00019314783 0.00012526188 8.997496e-05 0.00017107873 0.00014187739
0.00012817977 0.0 2.7871924e-34 1.2870712e-31 0.0 1.9073736e-31 1.1133347e-30 8.4413e-41
2.0013833e-32 4.1999437e-32 0.0 3.4105895e-38 9.282319e-32 0.0 5.6708957e-32 6.660202e-31
8.8691e-41 1.4679276e-31 4.8811176e-31 0.0 2.787976e-37 3.9675788e-32 7e-43 1.18818905e-33
3.0896698e-31 8.4243e-41 2.368487e-31 1.2406515e-30

exp_avg f4 [4]
00000000: 3c29 14bc e7cd 023c e5e2 383b 0400 0000
-0.009043034 0.007983661 0.0028211412 6e-45

exp_avg_sq f4 [4]
00000000: bd85 193a a000 663a d2b3 ab3a e6a3 c20d
0.00058564154 0.0008773897 0.0013099855 1.199563e-30
