models/mvsec/indoor_flying3/indoor_flying3_stereo_odd_model.pth (torch, 862658 bytes, 27 tensors)

conv3d.0.weight f4 [4, 1, 3, 3, 3]
00000000: c4f3 81be 66fc a2be 4235 c2be 1cc3 44be
00000010: f4b1 62be c078 74be ad78 4bbe d888 94be
00000020: 6c0a 95be 52b8 ee3c 5525 a93c d22d 66bc
00000030: 3dc7 3d3c 5288 b53b fa9b 57bd e924 693d
00000040: 02e3 a23c 3840 76bc 6f89 bd3e 3e4e 9c3e
00000050: 41f1 003f 07ac 5a3e 61eb 363e c014 8f3e
00000060: 39c3 c03e a654 903e 0536 9b3e 619b 35bd
00000070: 72c6 babc 88d3 e7bd b789 bbbc c33f ce3d
00000080: 0868 b13c 2755 82be 08cd 0ebe 1e08 5a3e
00000090: 07ed a0bd 7f5d 26bd 7151 0cbe 1778 5dbd
000000a0: 80e0 a53d 8115 f53d 3252 8fbe 4fd5 eabd
000000b0: b0d7 bf3e 1d50 b33d e80c 0cbd b153 213c
000000c0: 7584 753c 4430 30bc 81bf 95bc 2f23 45be
000000d0: 03c9 abbc 254b f63e 2550 2b3d 6718 a03c
000000e0: e315 7abd f01f a6bc 835c e2bd bea1 aebd
000000f0: 0208 f3bd 2778 68bc 5fd3 9d3d c889 663e
00000100: 34c9 5b3e 5443 de3c 9db7 503b bad9 c1bd
00000110: 4124 92bd 787b 1bbe 8b18 b5bd 5cb8 783c
00000120: 509a 813e 2826 a13e fbe2 de3d 29cf 193d
00000130: 3861 bdbd a21e a4bc 2380 50be b17b 5cbd
00000140: 6bef 41bd 00f9 013e e410 ec3b 3376 08be
00000150: a0bd 1c3e b490 da3d cdac 41be 1cfc b6bd
00000160: bbf0 53bd 5904 903d 67c9 793e 14bd 1cbe
00000170: 71e3 11be 5f43 a33e 2258 30be fb86 1abe
00000180: 0064 0a3e 013b b2bd 1f49 95bc 7e49 1c3e
00000190: 8fb0 4bbe f21b 833c aecc 773e 9013 9bbe
000001a0: 5836 acbd 4602 e73d 00d4 a1bd e77b 213d
-0.2538129 -0.3183319 -0.37931257 -0.19215053 -0.22138196 -0.23874187 -0.19870253 -0.29010653
-0.29109514 0.029140625 0.020647684 -0.01404901 0.011583147 0.0055399323 -0.052638985 0.056919966
0.019883636 -0.015029959 0.37018916 0.30528444 0.50368124 0.21354686 0.17863227 0.27945518
0.37648943 0.28189582 0.3031465 -0.044337634 -0.022799704 -0.11319643 -0.022892816 0.10070755
0.021656051 -0.2545559 -0.139454 0.21292159 -0.078577094 -0.04061651 -0.13702942 -0.054069605
0.080994606 0.11966992 -0.27992398 -0.11466467 0.37469244 0.08755515 -0.034191996 0.009846614
0.0149851935 -0.010753695 -0.018279793 -0.19251703 -0.020969873 0.48104206 0.04182448 0.019542886
-0.06105603 -0.0202789 -0.110528015 -0.085269436 -0.11866762 -0.014188803 0.077063315 0.22513497
0.21463472 0.027131714 0.0031847723 -0.09465356 -0.07135821 -0.15183818 -0.08842572 0.015180673
0.25313044 0.31474423 0.10883137 0.03755108 -0.09247059 -0.020034138 -0.2036138 -0.0538289
-0.047347467 0.12692642 0.007204162 -0.1332634 0.15306711 0.10672131 -0.18913575 -0.08934805
-0.05174325 0.07032079 0.24393235 -0.15306503 -0.14246918 0.31887338 -0.1722112 -0.15090553
0.1351471 -0.0870266 -0.018223343 0.1526241 -0.1989157 0.016004536 0.24199173 -0.30288363
-0.08408803 0.112797305 -0.07901764 0.039424803

conv3d.0.bias f4 [4]
00000000: d394 f0ba 844a 0abe a863 0dbe d165 b4bc
-0.00183549 -0.13504988 -0.13807547 -0.022021206

gru.weight_ih_l0 f4 [300, 100]
00000000: e879 cbbe b3d1 a6be 89ca 84be 0ad6 92be
00000010: fc8f a33c 5ace bbbd 06e4 92be b886 22be
00000020: 670b 7ebe c8b1 943d 8f47 50bc 5b64 91be
00000030: 747a 8dbd 7187 33be 82cd d73d 5c75 3c3e
00000040: d5dd debd dbd5 433e 327e e6bd b162 e0bc
00000050: 08ab d63d 4833 243d 45f4 563e 5e05 87be
00000060: 82ec b5be dcfe 093f 4f90 973e a02f 723e
00000070: 301e 84be 04b1 643e 6596 4b3e 042b bc3d
00000080: 55b0 2a3d e0e9 c53e 1151 f03e dd34 e2bd
00000090: e82f a5bd f056 c63b 2a4d 51be ccce 473e
000000a0: 01b8 a33e e0b1 13bb f500 f03c 01eb 6e3c
000000b0: 0e37 d23d b81d 813e fe6f e6bd da71 82be
000000c0: 728c 1fbc b50d ba3e fa49 bfbe 362e 59bf
000000d0: cdb4 77bf e824 fabe d58c b7be d3a5 afbe
000000e0: cfe5 65be 2125 03bf 36d8 36bf fe0d b7be
000000f0: 8750 4abe eae3 2a3e fc41 543e d449 84bd
00000100: 058d 3abe 32d4 82be 5ec8 3ebe 4d47 23be
00000110: 4ec2 18bd 280a 52be dc5b 9f3d 041e b2be
00000120: 1864 11be d4c7 2cbd ba8c ddbe 2269 ddbc
00000130: d3ab 86be a724 373d e479 81be af0f 023e
00000140: 3be6 b23d c67b bcbd c7f8 803e c566 303d
00000150: ff15 d43d 109b 043e b1d1 e23c db13 493e
00000160: 2ba1 a53d bb51 423d c547 6f3e 827a 983d
00000170: 39c1 2cbd 3270 553e 945c 7b3e aea7 b7bd
00000180: c817 1fbe 4891 a63b 931b 0a3e 5525 7a3e
00000190: 21c3 80bf cacb 74be 02c9 b6bd 271b b23d
000001a0: 37cc 903e 7b0b 5ebf 51f6 7cbe 3c60 7cbd
000001b0: 7eb7 4c3e 3881 963e 3dcb 62bf b971 bdbe
000001c0: b9ed 80be 0dae 40bd 40d4 b13d 0234 4dbf
000001d0: 0805 b6be 4bb5 33be 2246 77bb 0481 923d
000001e0: b109 6fbf 548f 17bf 0f12 b3be a6c0 01be
000001f0: f4bd 9dbd 44cf 083f ea08 4e3e 32d8 6a3d
00000200: d787 1a3e d087 de3e b081 f93e a965 813e
00000210: 3744 023e 1195 963d 5cb8 7c3e 7cfa 053e
00000220: 065f 733e 3f56 9e3e 9873 c03d 9432 7c3d
00000230: 123f 38be 5b2c 23be 9319 babb 9196 43be
00000240: f30f 99bd e2db 8ebe 39a8 b4be 4212 20bd
00000250: 4df1 00bc afb6 3a3d 7838 49be 6f5c 3ebd
00000260: fbea 883d d069 b93d 0f79 ea3e 6937 c83d
00000270: 87d0 ac3c 8d6a d63b 25b4 b43e 63c3 f13e
00000280: 724a d43d c613 5bbd 59d3 09bd 5f69 293d
00000290: 08b3 c13d 5348 463e e82b fa3c 20d8 8d3d
000002a0: 74c8 2a3d 73f6 5f3d 1276 c13e 6c9c 033d
000002b0: 04a7 933d bfd9 143e 3257 bf3e fa4b 82bf
000002c0: b071 33bf 4a99 023e 1b78 943b af03 29bd
000002d0: f777 65bf 5dea 6ebe a192 c63d e9df b43d
000002e0: a715 c4bd 0fc1 2cbf 77d5 d4be cc0b fbbe
000002f0: 94fe 08bd 6cf9 efbd 97b7 13bf 6c62 3ebf
00000300: 4078 3abf edd4 dbbe c8d5 3dbe 93d8 04bf
00000310: db7d 6dbf cf51 3abf 538f 1abf cbf0 b6be
00000320: b819 883e 9401 083e 57b6 f83d d050 6e3d
00000330: 00c1 56bd 3b9b b93d fa06 e83d a318 d63d
00000340: fa89 423d eea2 86bd 8dfe e9bd c13f 773d
00000350: 0c7e 963c fbfd 6bbd 5cc3 04be 7a46 c1bd
00000360: c648 3dbc 2576 82bd 8094 a9bd cb3b 05be
00000370: 30da ecbd c880 41bd 62e4 0dbe 8621 38be
00000380: 7b1f 03be 471f 213e 872f 583e 066f 42be
00000390: 786f ef3c bbb9 bc3d 13b2 db3d 7344 163e
000003a0: 3a66 adbd fb58 e6bc 62d3 5dbb e7d7 87be
000003b0: 10c0 e2bd c807 0ebe 7533 0e3d b91f 1c3c
000003c0: 9811 c2bd 9127 e23d 1c7d 493e fe41 6a3e
000003d0: d650 563e 10c6 8b3d 8020 1d3d a409 463e
000003e0: 1047 5b3e bf89 a73e 9999 293d f65f 803d
000003f0: 2238 a03e d1e7 893e 83c4 833e 5e40 f33d
-0.39741445 -0.32581863 -0.25935772 -0.28678924 0.019966118 -0.09170218 -0.28689593 -0.15871704
-0.24809037 0.072604716 -0.012712373 -0.28396878 -0.06908122 -0.17532136 0.105372444 0.18404144
-0.10882155 0.19124548 -0.112545386 -0.02739081 0.1048184 0.040087968 0.20991619 -0.26371282
-0.35532004 0.5390451 0.29602286 0.2365098 -0.2580428 0.22333151 0.1988159 0.09187892
0.04167207 0.38654995 0.4693685 -0.11045239 -0.08065778 0.006052844 -0.20439592 0.1951248
0.3197632 -0.0022536442 0.029297331 0.0145823965 0.10264407 0.25217986 -0.112518296 -0.25477487
-0.009738075 0.36338583 -0.37361127 -0.8483614 -0.96760255 -0.48856282 -0.35849634 -0.343062
-0.22450946 -0.5122853 -0.7142366 -0.35752863 -0.19757281 0.16688505 0.20728296 -0.06459394
-0.18217857 -0.25552517 -0.18631122 -0.15945168 -0.03729468 -0.20511687 0.07781193 -0.34788525
-0.14198339 -0.04218276 -0.43271428 -0.02702767 -0.26302966 0.04471269 -0.25288308 0.12701295
0.08735319 -0.092032954 0.25189802 0.04306676 0.10355758 0.12949777 0.02768788 0.1963648
0.08087381 0.047441225 0.23367222 0.074452415 -0.04217646 0.2084358 0.24547035 -0.08967529
-0.15536416 0.005083237 0.13487081 0.24428304 -1.0059549 -0.23905864 -0.08925058 0.08696585
0.28280804 -0.8673627 -0.24703337 -0.061615214 0.19991872 0.2939546 -0.88591367 -0.37000826
-0.25181368 -0.047040988 0.086830616 -0.8015748 -0.35550714 -0.17549627 -0.0037731011 0.07153514
-0.9337416 -0.59203076 -0.34974715 -0.12671146 -0.07702246 0.5344126 0.20120588 0.057335086
0.15090881 0.43462992 0.48731756 0.25272873 0.12721334 0.07352651 0.24679703 0.13083833
0.23766717 0.30925176 0.09397048 0.061571673 -0.1799281 -0.15934889 -0.005679318 -0.19100405
-0.07473745 -0.27902132 -0.35284594 -0.039079912 -0.007870031 0.045584377 -0.19650447 -0.04647487
0.06685444 0.09053385 0.45795485 0.09776194 0.021095527 0.0065434636 0.3529369 0.4721938
0.10365762 -0.053485654 -0.033648822 0.041360255 0.094579756 0.19363527 0.030538514 0.06925988
0.041695073 0.05467839 0.37785393 0.032131597 0.0720959 0.14536189 0.37371212 -1.0179436
-0.7009535 0.12753788 0.0045309193 -0.04126328 -0.89636177 -0.2333159 0.09695936 0.0883177
-0.09574442 -0.67482084 -0.4156911 -0.49032438 -0.03344591 -0.11717495 -0.5770201 -0.7436893
-0.72839737 -0.42935887 -0.18538582 -0.51892966 -0.92770165 -0.7278108 -0.60374945 -0.35730585
0.26582122 0.13281852 0.121441536 0.058182538 -0.052430153 0.09062811 0.11329456 0.10453918
0.047494866 -0.06574045 -0.11425505 0.060363535 0.01837065 -0.05761526 -0.12965149 -0.094372705
-0.011552995 -0.063701905 -0.08280277 -0.1301109 -0.115650535 -0.047241956 -0.13856652 -0.17981538
-0.12804978 0.15734588 0.2111188 -0.18987665 0.029227957 0.09215113 0.10727324 0.14674549
-0.08466764 -0.028118601 -0.0033847918 -0.26531908 -0.11071789 -0.13870156 0.034717042 0.009529048
-0.09476012 0.11042703 0.19676632 0.22876737 0.20929274 0.06824887 0.038361073 0.19339615
0.21413827 0.3272228 0.041406248 0.06268303 0.31292826 0.26934674 0.25735864 0.118775114

gru.weight_hh_l0 f4 [300, 100]
00000000: 2ba4 7a3f 603c 7a3e 06c1 033e 6e60 183e
00000010: d2e8 c13d 51f1 3e3e eb77 cc3e 1390 da3d
00000020: b2fa 4d3e 4ba6 11be 0254 03be a849 703d
00000030: 3409 78bd 6855 d53e 016a ecbe 1ceb ef3e
00000040: ed64 383e a2c2 01be 52a6 1dbe 65e7 f2bd
00000050: f622 df3d 72fb 85be 0107 9f3e 634b 67be
00000060: a6cf 6d3e ebfa d2bd 3b12 c03b 7f39 a5be
00000070: 63b9 45be 7acf 313e c41a 8cbe edf1 5fbd
00000080: e635 bfbe ed0e 89be 8df3 533e 9fe1 413f
00000090: 9ffc 843e 53f8 89be ac96 8fbd 15c7 bdbe
000000a0: 71aa f4bd 140b dfbd 2fee 9ebe 1de3 593e
000000b0: 3eea 4e3e ab04 483e 0230 9c3e 2ef7 eabd
000000c0: 8b71 433d ae48 0bbd 0e0c ca3d c89a 0dbf
000000d0: 4cd3 043d dffb 373f d8a4 163e 1cc1 04be
000000e0: e79f a1be 0039 8c3e c223 013e c130 19be
000000f0: 5eab 3ebe 9a4a 8abc bb5e 4e3d e23e 453e
00000100: 5f02 bd3d ed92 853d 0970 143c fac7 afbe
00000110: d3ce 65be 16dd 02be 0c4f 463e 9104 9a3d
00000120: 050b 963e c7a4 003c a853 963e e4f4 523d
00000130: b1c0 59be 8add 673d d4f2 b03e 61b1 cf3e
00000140: ef02 9d3d fb00 1bbe 823e 063e 07e6 72be
00000150: 32e3 e73d 2795 20bf 7a3c 76be cd8a ffbd
00000160: d550 65bd 06c8 d9bd ecdc d0bd 0674 433e
00000170: d840 cdbe a43b 68be a8dd 78bd 51bb cb3c
00000180: 58ed aabe c2ba fbbd 14ef 9c3d 4fd8 c9bc
00000190: b5dc d0bd e3cc e6be 84d5 163e 71bf 93be
000001a0: acb2 0c3f 535c 5abe b4f8 e73c 81fb 8b3e
000001b0: 3618 8fbd 13d6 46bf 942d 693e b2cf 74be
000001c0: d8a9 34be c1ab a43e 8179 46be 5a6a 003d
000001d0: 7912 cc3e dc62 403d e9dc 133c e274 7abe
000001e0: f1e9 2fbe 298d 4d3e 0c08 c03e b387 a23d
000001f0: bd91 6c3e dbe9 36be e762 d2bd 9aad 98be
00000200: 54a5 39be fc94 483e 8404 dd3d 54d8 843e
00000210: 963a 21bf 275a 2abe 0f22 fd3e c270 82bd
00000220: faec a9bd 5b1e 1dbf f76a d2bd 4882 8e3e
00000230: 5a46 5b3e ab2f 953d 085e 04bf a0d7 233f
00000240: bba5 043d 54f2 9b3e a812 bf3e 2891 c9bc
00000250: ecc5 a03e 679c 09be 592b c23d 809f febe
00000260: 5779 96bc 750c 59bc 21be cabe 35c8 c6be
00000270: d970 84be 50fd 42be de73 e33d 8d99 97be
00000280: c156 b13d 7b95 433c 004b 81be 7753 0b3e
00000290: c3c6 8bbd 52bc a03e 1a8b 26bd 97df 42bf
000002a0: 252e 043e 833f 4fbe fa9c cf3c 298d 093c
000002b0: e6fd 143e 2195 92bc 4489 4d3e a46c c0ba
000002c0: ed53 043e 88f8 b539 0f2b 84be 798f f83d
000002d0: 16d0 3a3e e445 f53d 67ef ed3e 77d8 87be
000002e0: 695b a8be fd88 c53d fc79 d4be f4e7 d3be
000002f0: 0646 fe3d 8a3a 783e 6242 36bd 7755 7c3e
00000300: 1951 01be 3ca0 36bd 16ec 713d 8ba3 e5bd
00000310: f803 73bd e7ff d5be 5c34 883e fb0b b4bd
00000320: 3aa4 bc3e 21cd 963b 3d8f cb3a fbd2 193d
00000330: a49f 5dbe 17af 4b3e 6cc3 91be 8003 ad3e
00000340: 7aca ae3e 376d 073e 7b89 b2be 25b8 d13e
00000350: 0a6e b03d ccc3 8d3c bfb6 e3be c36c b13e
00000360: 6359 f4be 2fe7 b7be cca6 74be 7dd3 07be
00000370: e1b6 f33d 9063 8dbe b774 563e 471c e1bd
00000380: 360d f1bd 5e00 a43c 83b3 17be a5b8 603d
00000390: bce1 983e ef45 8c3e 6cc5 03bf f69d 423e
000003a0: 10ed 43be b894 79be a137 983e ec36 903e
000003b0: 9000 97bc 25ce 183e 1a67 9a3d 607d 3fbe
000003c0: 8df9 d0bd 1e0b d43d e97c 6f3d 59ff 3a3b
000003d0: fe7c 983e 3840 b8bd b041 f6bc 3beb 253e
000003e0: 6903 05bf 5c79 02bf 9217 a63d 0443 92be
000003f0: 68c4 9abe efac 513e 5143 bd3d 06de 4fbd
0.9790675 0.24437094 0.12866601 0.14880535 0.09468235 0.18646742 0.3993524 0.10672011
0.20115164 -0.14223592 -0.12825015 0.058663994 -0.06055565 0.41666722 -0.46174625 0.46859062
0.1800725 -0.12671903 -0.15395477 -0.11860541 0.1089534 -0.261684 0.3106003 -0.22587352
0.23223743 -0.10301765 0.0058615482 -0.3227043 -0.19309 0.17364302 -0.2736417 -0.054674078
-0.3734581 -0.267692 0.20698376 0.75734895 0.25973985 -0.2694727 -0.0701116 -0.3706595
-0.119465716 -0.10890785 -0.31041095 0.21278043 0.20206544 0.1953303 0.30505377 -0.11472927
0.047715705 -0.03400486 0.098655805 -0.553143 0.03242807 0.718687 0.1471132 -0.1296429
-0.31567308 0.27387238 0.12611297 -0.14960004 -0.18620059 -0.016881276 0.05038331 0.19262269
0.09228968 0.065221645 0.009059914 -0.34332258 -0.22442178 -0.1277965 0.19366091 0.07520402
0.29305282 0.007851786 0.293607 0.051503077 -0.21264912 0.05660776 0.34560263 0.40565017
0.07666575 -0.15137093 0.13109782 -0.23720561 0.11322631 -0.6272759 -0.24046507 -0.12477646
-0.05598529 -0.106338546 -0.101983875 0.19087228 -0.40088534 -0.22679001 -0.060758263 0.024869593
-0.33384204 -0.122914806 0.07662788 -0.024639277 -0.101983465 -0.4507819 0.14729887 -0.28856996
0.5496013 -0.21324281 0.028316833 0.2734032 -0.0698704 -0.776704 0.22771293 -0.23907354
-0.17642915 0.32162288 -0.19382288 0.031351425 0.39857844 0.04696928 0.009024837 -0.2445865
-0.17179085 0.2007338 0.3750614 0.07936039 0.2310247 -0.17862646 -0.102727704 -0.29819947
-0.18129474 0.19588083 0.10791877 0.25946295 -0.6298002 -0.16635953 0.49440047 -0.06369163
-0.08297153 -0.61374444 -0.10274308 0.27833772 0.21413556 0.072844826 -0.5170598 0.6400089
0.032384615 0.3045832 0.3731892 -0.024605349 0.31401002 -0.13438569 0.09480924 -0.49731064
-0.018368406 -0.013247599 -0.39598182 -0.3882462 -0.25867346 -0.19041944 0.11106084 -0.29609337
0.08659125 0.011937494 -0.25252533 0.13606058 -0.0682502 0.31393677 -0.04066 -0.7612242
0.12908228 -0.20239072 0.025343407 0.008395472 0.1454998 -0.017893376 0.20071894 -0.0014680815
0.1292264 0.0003470818 -0.258141 0.1213674 0.18243441 0.11976221 0.46471712 -0.26532337
-0.3288224 0.09645269 -0.41499317 -0.41387904 0.124157 0.24241081 -0.0444969 0.24641977
-0.12628593 -0.044586405 0.05906304 -0.11212834 -0.059329957 -0.417968 0.26602447 -0.087913476
0.36844045 0.00460209 0.0015530359 0.037554722 -0.2164293 0.1989101 -0.28469408 0.33791733
0.34138852 0.13225256 -0.34870514 0.40960804 0.08614738 0.017305277 -0.44475362 0.3465329
-0.47724447 -0.35918567 -0.23891753 -0.1326427 0.11900116 -0.27615023 0.2094296 -0.109917216
-0.11770098 0.020019706 -0.14814572 0.05486359 0.29859722 0.27397105 -0.51473117 0.1900557
-0.19133401 -0.24373138 0.2972994 0.28166902 -0.018432885 0.14922388 0.07539196 -0.1870017
-0.10203848 0.10353683 0.058468733 0.0028533547 0.2978286 -0.08996624 -0.03006062 0.16203015
-0.5195833 -0.5096643 0.081099644 -0.28566754 -0.3022797 0.20476125 0.09241355 -0.050748847

gru.bias_ih_l0 f4 [300]
00000000: a0e6 1bbe e7fd aebe 4f1b 753c e93e cfbd
00000010: 2a49 483d 6a69 41bd 1e75 22be 17ea b9bd
00000020: 794f 75be d9d2 22be c19e 4dbe 5e10 83be
00000030: 9a96 7cbe 5269 8bbe 50b4 26be 9860 94be
00000040: 0b72 8dbe 10db 21bc de3b ffbc 0c2a cd3d
00000050: a0b2 ce3e eed9 79be 3212 b5bd ee6a 78be
00000060: 8a43 d2bd 4230 0ebe 6dce e4bd f87f 8ebe
00000070: 2635 ffbd 7857 34bd d66c b1be a696 f9bb
00000080: df28 acbe 7a0a 0fbe 5edc ee3d 5024 f6bd
00000090: 1959 5ebe 747e 25be f512 39be f7d4 debc
000000a0: 5f8c 06be 4e5e 9a3d 004f a4be 110f fabd
000000b0: 7620 c3bc 1d09 85be 9687 61be 0459 85bd
000000c0: ffdf 7fbe def9 28bd faa4 89be a5c9 293d
000000d0: 9d6d 53bd 296f adbe 8a8b 213d b839 1fbe
000000e0: 9be1 333d 4d2b 3dbd 5616 aebd 040c a5bd
000000f0: edd8 3ebd acca 90bd dc53 b73b 3e88 03bd
00000100: 2091 86be e69c e239 969b bdbe 6f25 e2bd
00000110: 9686 49be 215a 35be 0df9 08bd d2d9 63be
00000120: 0374 483d ad99 bc3d e2fb 67be 926c a2be
00000130: dbbd e53d e710 dfbd 2ffe 57be c489 22be
00000140: 9b2d c43d b136 1cbe 62e7 4cbe dde8 24be
00000150: ab97 97be 53c8 0e3c 824a 9abd 7869 63be
00000160: be06 96be 08d6 6fbe c106 d33d 6b4f 8dbe
00000170: a5da 72be cdf2 b23b e6e5 84bd 3732 6ebe
00000180: 156d 25be b707 3cbe 7480 47be 6d46 14be
00000190: d8e3 d8bd 5573 813e de88 9e3e c154 8b3e
000001a0: ea00 fb3c eee2 fb3e 47cc ac3e bd93 a53d
000001b0: 549a bd3e 0f6a 5c3e 7e7a 183e f2c7 b93e
000001c0: 6c19 443d 856b a73e a7f9 3abe 82de 233d
000001d0: ab45 a83e d5a2 973e ea70 b03e ffcd 9e3e
000001e0: 4861 5ebd 9217 c73e ad43 8f3e 0634 af3e
000001f0: eb03 683e 85bd 823e 7705 173f fb1b 863e
00000200: 0361 e43e d67f 643e 0904 893e 3f7c 2b3e
00000210: 7de7 913e e683 803e 54fd 6c3e 7844 b03e
00000220: 7b49 663e 8257 043f 33fb 8b3e 60f2 74be
00000230: 8589 fd3e 55f8 a7be c22e 993e e031 2a3e
00000240: 8ea1 103e e05f c53e d997 a03e 6e32 f93e
00000250: 8789 d33e 1b24 433e 7f67 673e 6f4d 38bd
00000260: d5da b53d b1cd aa3e d3f3 c63d 916f 953e
00000270: d6c2 a2be e438 093f 3a25 9c3e 24a1 0c3f
00000280: fde9 6c3e 96af c33e 1d1c 85bc aff4 a53e
00000290: 84ff 263e a633 823e 267d e73e af11 4f3e
000002a0: f523 9c3e e6b5 993e 2afe 383e 847e 3d3e
000002b0: 2031 5d3e 586f 643e 6eb0 4e3e 4c8c b03e
000002c0: 98ab cb3e 75ae a33e 5f7a 053f 7db7 bf3d
000002d0: 871c 923e b336 94be 6b33 773e ee28 083e
000002e0: 4370 0c3f 613b 133e af01 a03e e0c5 ae3e
000002f0: f58b 8e3e 4a6f e7bd 4f0d cb3e bc0d c53e
00000300: 30cd c23e 851f 083e 9486 af3e 5003 a33e
00000310: 5477 483e 06bf 9cbd 0cd9 633e 5049 e23d
00000320: 0544 31be a69f dc3c 4131 ffbd e53e 9c3d
00000330: 43d2 c6be 49b8 813c c9b3 64bd fd45 2b3d
00000340: 8832 edbd 6bbb 6cbe e86d febd 542e 3f3e
00000350: 45f5 0fbe b0c0 48be d218 15be a8c2 37be
00000360: 4b2f a93d e841 dd3d 3496 24bd d08c 3f3e
00000370: e826 b73e 0fb7 54be 25c4 ed3d 0157 4c3e
00000380: d654 30be b3d5 0f3e b5cd c3bd 9a27 39bd
00000390: 045e d0bc 7e00 81be 6f1f 053d 5045 6dbe
000003a0: e447 373d 7159 613e c858 25be 945f d5bb
000003b0: 02c3 4c3d 4625 c0bb 7620 91bc fd54 ae3e
000003c0: d042 0d3e abf7 d93d 6840 473d fc32 643d
000003d0: 7f63 79be 513a 6fbd ed34 b7bd a767 423e
000003e0: 842f eebd ae83 8a3e 277e 9ebe 9247 8a3e
000003f0: 47b8 073e f354 deb9 3e5e 7d3e aa41 28bd
-0.15224695 -0.34178087 0.014960124 -0.10119421 0.0488979 -0.04721967 -0.15864989 -0.09077852
-0.23956098 -0.15900744 -0.20080091 -0.25598425 -0.24666825 -0.2722879 -0.16279721 -0.28979945
-0.2762607 -0.009878889 -0.031156477 0.100177854 0.40370655 -0.2439954 -0.08841361 -0.2425954
-0.10266788 -0.13885596 -0.11172185 -0.27832007 -0.12461309 -0.04402873 -0.34653348 -0.0076168356
-0.33624932 -0.1396884 0.116631255 -0.12018645 -0.21713676 -0.1616152 -0.18073638 -0.027201159
-0.13139485 0.075375184 -0.32091522 -0.12209905 -0.02381919 -0.25983515 -0.22024378 -0.06511119
-0.24987791 -0.041253917 -0.2688368 0.04145207 -0.051618207 -0.3387387 0.039439715 -0.15549362
0.043916326 -0.046183873 -0.08500354 -0.080589324 -0.046593595 -0.070699066 0.0055947136 -0.032112353
-0.26282597 0.00043222978 -0.37032765 -0.11042296 -0.19680247 -0.17710163 -0.03344064 -0.2225106
0.048938762 0.09208999 -0.2265468 -0.31723458 0.11217853 -0.10891896 -0.21093057 -0.15872866
0.09579011 -0.15255238 -0.2001014 -0.16104455 -0.296079 0.008714753 -0.075337425 -0.22208202
-0.2930202 -0.2342149 0.103040226 -0.27599654 -0.23716219 0.005461073 -0.06489162 -0.23261343
-0.16154893 -0.18362318 -0.19482595 -0.1447999 -0.10590333 0.25283304 0.30963796 0.272131
0.030640084 0.4919657 0.337496 0.080848195 0.37031806 0.21524833 0.14890477 0.3628536
0.047875807 0.32699218 -0.18259297 0.04000712 0.32865652 0.29616418 0.34461147 0.31016538
-0.054291993 0.3888517 0.2798132 0.34219378 0.22657745 0.25535217 0.58992714 0.26193222
0.44605264 0.2231439 0.2676089 0.16746615 0.28496924 0.2510063 0.23143512 0.34427238
0.22488968 0.51696026 0.27340087 -0.23920584 0.49518982 -0.3280665 0.29918486 0.16620588
0.14124128 0.3854971 0.3136585 0.48671287 0.41315863 0.19056742 0.22598074 -0.04499572
0.088796295 0.33360055 0.097144745 0.2918668 -0.31789273 0.53602433 0.30497152 0.5493338
0.23136134 0.382199 -0.016248757 0.3241324 0.16308409 0.2543003 0.45212668 0.2022159
0.30496183 0.3002159 0.18065706 0.18505293 0.21600771 0.223081 0.2018449 0.34482038
0.39779353 0.31969038 0.5213985 0.093611695 0.2853739 -0.28947982 0.24140708 0.13296863
0.548588 0.1437812 0.31251284 0.34135342 0.27841154 -0.113005236 0.3965859 0.3848704
0.3804717 0.13293274 0.34282362 0.31838465 0.1957677 -0.07653622 0.22250766 0.110491395
-0.17311104 0.026931595 -0.12460566 0.07629184 -0.38832292 0.015834944 -0.05583552 0.041814793
-0.11581904 -0.2311837 -0.12423307 0.18670017 -0.14058407 -0.19604754 -0.1456025 -0.17945349
0.082609735 0.10803586 -0.040182307 0.1870606 0.3577187 -0.20772956 0.11609677 0.19955064
-0.17219862 0.14046364 -0.0956072 -0.045203783 -0.025435455 -0.25195688 0.03250068 -0.23170972
0.044746295 0.22006775 -0.16147149 -0.006511638 0.04999066 -0.0058638183 -0.017715674 0.34049216
0.13795018 0.10642942 0.048645407 0.055712685 -0.24354361 -0.058405224 -0.08945642 0.18984853
-0.11630157 0.2705359 -0.30955622 0.2700773 0.1325389 -0.00042406432 0.24742982 -0.041078247

gru.bias_hh_l0 f4 [300]
00000000: 488c 54be 0a35 c3be 2b66 083c af9c d8bd
00000010: b1da 533d aacf 27bd 9729 16be b5b6 98bd
00000020: b4dc 5abe a09c 1dbe 3e6d 55be 1ea5 85be
00000030: 4895 60be 5e74 92be 2c00 22be fbdc 86be
00000040: 2ad1 6bbe 4a7a 45bd e4a7 2dbd bf43 f03d
00000050: d981 c53e 0cc8 78be e096 d6bd b902 86be
00000060: 172d febd 48e1 a6bd 2403 d1bd 3045 7abe
00000070: 4f0a 04be 6c08 4abd 0f7d c2be bfda f0bc
00000080: b325 b9be 5d2d 23be b748 a63d a37f fdbd
00000090: dedb 66be 92f2 f6bd 8d30 0abe 6b6c 93bb
000000a0: 3240 90bd a4f9 ce3d c2a6 8bbe e8ca edbd
000000b0: bd7f 4dbd 36b1 82be 8f54 76be 38d9 adbd
000000c0: 0423 69be 68cd 96bd d0a9 8abe 8358 4a3d
000000d0: 8afd 5bbd 2796 9fbe d622 ae3d 793a fabd
000000e0: b8cb a93d 2d34 efbc 6f44 b2bd 6f2e 34bd
000000f0: f95a 47bd d40b bbbd 6e4b 813b fe19 40bc
00000100: cba6 9cbe 940f 69bc a332 c8be de7b febd
00000110: 4e1e 56be a354 42be 8969 42bd 8b08 40be
00000120: d359 103d 75ce 3d3d 53de 46be ce2b bcbe
00000130: eed1 193e b7c9 a1bd e9b0 4cbe 9d42 1dbe
00000140: 8375 5d3d 4662 36be 46b0 38be 71c1 1dbe
00000150: 2039 a5be d755 c93b fbef b5bd d0f9 75be
00000160: c733 7fbe a762 8cbe 12e2 dd3d 47e8 98be
00000170: 66b2 54be 1015 313d 69a8 2bbd 5d44 3ebe
00000180: ed34 2fbe e758 12be 5939 36be 5722 16be
00000190: 94d4 f4bd f5a3 783e 3440 863e 9907 833e
000001a0: 2ec5 5b3d 58d3 f33e 3599 a03e d3f3 b03c
000001b0: b583 c43e c385 6e3e 745e 303e 3b2e b13e
000001c0: 7ffe af3d 6325 c63e 87ba 31be 7cdf 743d
000001d0: 29d4 c13e 098d 973e cabf a53e 675b a53e
000001e0: 4805 cbbc 80f1 b03e c792 913e a259 a23e
000001f0: d053 463e aa4a 753e 6655 133f ec76 6c3e
00000200: f048 ee3e 6ebc 753e 8bb2 7a3e 5c9f 493e
00000210: 4bf9 883e 523c 883e ab58 663e 39bd ac3e
00000220: 879a 463e 061f 113f 6473 873e 2980 4fbe
00000230: 34d2 ef3e 5bc7 b0be 9709 983e 56be 163e
00000240: cd73 f73d c7f5 ae3e 5df4 8d3e 42bb fe3e
00000250: 5ce9 be3e b411 3a3e ec9a 553e 32b5 c9bc
00000260: 8bdd c13d c7e2 9a3e 05a8 6e3d 08f8 943e
00000270: 1745 aebe ee59 043f 3472 973e 22c8 113f
00000280: 5b40 7f3e a95a b13e dcbc a13c e787 9b3e
00000290: 0eff db3d 0ca7 563e c863 eb3e 1417 263e
000002a0: bf42 8a3e 87f3 a73e c884 1b3e 1588 2c3e
000002b0: d763 3f3e a37b 7d3e a42a 7b3e 9c7a be3e
000002c0: 3db0 bb3e 7b48 933e 6dad 073f 27ae b53d
000002d0: 4f17 8a3e 8e42 8bbe 1ea6 6a3e b67b 0f3e
000002e0: e75a fe3e ea83 1e3e e77e 923e 126c a43e
000002f0: 3a4a 853e f056 73bd 7498 c43e 592a b63e
00000300: d0e7 c63e 485d 1a3e ecf8 b23e 11c9 8d3e
00000310: 966a 3b3e 93e1 acbd af74 853e 4528 cc3d
00000320: 7ac9 9e3d 0560 19be cea7 91be 5cc6 983e
00000330: 97f7 58be b559 403e 8568 a43d a62f cf3d
00000340: 4bb2 c0bc be56 acbd 9108 82be 23c4 0a3e
00000350: 670d 07bd d84b 86be f819 97bd 8943 9dbd
00000360: f20d db3d f2e3 243e 0d63 23bc 9232 8b3e
00000370: 228e c13e 27b7 13be 8733 053d 3109 f83e
00000380: 6d80 1ebe 64dd 803e 1a7c 36be 7b5c eb3c
00000390: f8cc a63d bbbe 82be dd5a afbd 20d0 eabe
000003a0: 8647 023d 854a 4c3e 71d0 b5bd 79f0 03be
000003b0: cb1c 3ebe 36c7 8d3d fbc0 483c 973b f83d
000003c0: b030 4b3e aa5a 9d3e 33d6 9c3d 9424 acbb
000003d0: 5452 87be bcc5 e0bd b2cd f5bd 0aa6 fc3d
000003e0: 9e48 3abe 5629 e83d 180c 9fbe a7cd b93e
000003f0: bc32 0f3e 5ee9 bebd 6260 863e e3ac 07be
-0.20756638 -0.38126403 0.00832514 -0.1057676 0.051722232 -0.04096953 -0.14664303 -0.074567236
-0.21373254 -0.15391779 -0.20842454 -0.26102537 -0.21931946 -0.28604406 -0.15820378 -0.2634047
-0.23029009 -0.048212327 -0.04239644 0.117316715 0.38575628 -0.24295062 -0.10477996 -0.26173952
-0.12410944 -0.08148438 -0.10205677 -0.24440455 -0.12894557 -0.049324438 -0.37986037 -0.029401181
-0.36161575 -0.15935273 0.08119338 -0.123778604 -0.2254481 -0.12057985 -0.13495083 -0.0044990084
-0.07043494 0.10106209 -0.27275664 -0.11610967 -0.05017065 -0.25525826 -0.24055694 -0.08488697
-0.22767264 -0.07363397 -0.27082682 0.049400818 -0.05370859 -0.31169245 0.08502738 -0.12218184
0.082908094 -0.029199684 -0.08704459 -0.043989595 -0.048670743 -0.091331154 0.0039457595 -0.011724947
-0.30596003 -0.0142249055 -0.39101133 -0.124259695 -0.20909998 -0.18977599 -0.047463927 -0.18753259
0.035241913 0.04633947 -0.19420747 -0.3675217 0.15021488 -0.07899802 -0.19989361 -0.15357442
0.054067146 -0.17810926 -0.18035993 -0.15405823 -0.32270145 0.006144266 -0.08883663 -0.24021077
-0.24922095 -0.27419016 0.10834135 -0.29864714 -0.20771179 0.043232977 -0.041908655 -0.18580766
-0.17110033 -0.14291726 -0.17795314 -0.14661537 -0.119546086 0.24281295 0.26220858 0.25591734
0.053654842 0.4762218 0.31366888 0.02160064 0.38381734 0.23293214 0.17223531 0.34605584
0.08593463 0.387004 -0.17356311 0.059783444 0.37857178 0.2959979 0.32372886 0.32296297
-0.024782792 0.3455925 0.28432295 0.3170901 0.1936791 0.23954263 0.5755218 0.2309224
0.46540022 0.23997661 0.24482171 0.19689697 0.26752695 0.2660852 0.22494762 0.33738115
0.19394885 0.56687963 0.26455224 -0.20263733 0.4684006 -0.34527096 0.29694816 0.14721045
0.12082634 0.34171888 0.27725497 0.4975224 0.37287414 0.18170816 0.2085988 -0.024622533
0.09466084 0.30251142 0.058265705 0.29095483 -0.34037086 0.5169972 0.29579318 0.56946003
0.24926893 0.3463948 0.019743375 0.30377123 0.10742007 0.20962161 0.45974565 0.16219741
0.27004048 0.32802984 0.15187371 0.16848786 0.1869043 0.24754195 0.24527985 0.3720292
0.36657897 0.28766236 0.52999 0.088711075 0.26970908 -0.27199215 0.22914931 0.14012036
0.49678728 0.15480009 0.28612444 0.321137 0.26033193 -0.059409082 0.38397563 0.35579184
0.38848734 0.15074646 0.34955537 0.27692464 0.18302378 -0.08441462 0.26065585 0.09968618
0.07753272 -0.14978035 -0.28448337 0.29838836 -0.21188198 0.1878422 0.08027748 0.1011651
-0.023522517 -0.08414982 -0.2539716 0.13551383 -0.032971766 -0.2622974 -0.07378 -0.07678897
0.10696019 0.16102579 -0.009972346 0.2718702 0.3780375 -0.14425336 0.032519843 0.48444512
-0.15478678 0.25168908 -0.17820778 0.028730622 0.081445634 -0.2553614 -0.08562253 -0.45861912
0.03180649 0.19950302 -0.08877648 -0.12884702 -0.18565671 0.06922762 0.012253041 0.12120741
0.19842792 0.30733234 0.07658043 -0.005253384 -0.2643 -0.10975215 -0.12002124 0.12336357
-0.18191764 0.11336009 -0.31063914 0.36289713 0.13984197 -0.09321855 0.2624541 -0.13249545

dense_output.0.weight f4 [100, 100]
00000000: bcca 60bc a3dc 23bb 5e5c 1f3d d142 8cbd
00000010: 8ccd 4e3d 04d4 27bd 1083 b8bc 1923 e73c
00000020: 1750 d6bc f350 cebc 084b 2c3d da3f 13bd
00000030: 2371 92bb c990 4c3c 2479 cd3c a640 963c
00000040: 5da2 6a3d 216b 9abd 1ab2 f43b a6fd 9fbd
00000050: 4518 0e3d f65a 83bc 8c17 fd3c 0873 8ebd
00000060: 743a 913d 7c43 fcbb 9b95 2fbb 9d5c 833d
00000070: d346 983d 4c92 17bc 9f2b dd3c 0f76 f9bc
00000080: 21fc 593c 8823 9cbc 51fb 0cbd 06dd 123c
00000090: ace3 f43d 7582 0bbd 16a3 95bd bdec cabd
000000a0: ef22 003d 706d c4bc 2514 f5bc 9af7 073c
000000b0: 39e7 a43c 402c f83c f315 cfbc 9bdd afbd
000000c0: 5306 b13d 6765 353c 4f03 af3c 4b77 f5bc
000000d0: 6d64 c73c 969a a53d 3a56 ddbb c5a6 a53c
000000e0: fadb d63c ab0d d93c ca90 fb3d 01ea d5bc
000000f0: 5aa8 8cbc 5acd 9bbd 7478 d63a f81f ca3b
00000100: f1ca 69bd f6fd ad3d b603 42bb e937 e93b
00000110: e309 8f3c f9c0 6dbb 70a5 3fbd 8cd4 dabc
00000120: a954 62bd 3a05 903b ceea 9dbc d60c 21bd
00000130: 4eda 043d 01b7 e33d b2f9 6f3d 46e7 7b3d
00000140: f96f 323d 6a77 38bc ba80 3dbd e207 8ebd
00000150: 02fa 53bd 8d99 f4bc be02 2b3b 8f4c 95bb
00000160: e2be dabb d539 41bd f1e2 943b d3db 66bc
00000170: f333 663d 3b60 3e3d e171 80bb 2fde 533b
00000180: 82e9 27bd 523a 5a3d 0a6f a33a d2b3 193d
00000190: e8f7 f6bd cd20 b13d 9312 c53d a65c 04bd
000001a0: c191 543d 7d66 28be c324 3b3c af4e febc
000001b0: 0164 b4bd 1d53 b9bd 9c9a 273d e6da 25bd
000001c0: 5d8c 113c 5e1f 083c 9758 183d 17af 4ebd
000001d0: 4dd4 9c3d bb57 36be f89f 47bc 37a2 dfbd
000001e0: f2b1 59bd 5c2c 103d 58b0 7d3d 0f80 f7bb
000001f0: de3f bc3d 214d 04bd 6003 1a3c 69a7 863d
00000200: fb29 613d 413d 253d 6196 863d ea7f 39bd
00000210: e9bf f53d 221e 2b3d de55 4ebc 113d 173d
00000220: 1211 f23d 3de4 87bd bc99 1bbd fcbf d4bc
00000230: b0f8 753d 9b88 993c 66e0 9fbc 3ccf 043c
00000240: d689 213d eb0a 073c dbf3 87bd 72e7 c7bd
00000250: ffe5 683d f302 64bd 8c88 0d3d 72e9 d5bc
00000260: 84bf 0e3c a3c3 313c eeb9 d63c ae23 973d
00000270: f192 3f3d 5bdf f6bc 34e7 253d 1807 ba3c
00000280: 58a1 80bd 9a52 88bd 220d 353d 5369 82bd
00000290: 1da2 c33a 6b13 093e 355b 9ebb 92b7 ecbc
000002a0: 570e a9bd f5ae 17bd 9b8e a4bd 541f d3bc
000002b0: 4c38 c6bd b289 e0bc 198d 723d 27ce b53c
000002c0: f3bb 09bd bdde bf3d c92a 7a3d 5726 0a3e
000002d0: cac6 333d 907f 473c 5cbe 283d 5b5b a1bd
000002e0: 92b3 cabd 7899 07bc 4d28 cbbd 9eeb 6abc
000002f0: 383c a43d 2e0e 9b3d 860a 64bd 728a d53c
00000300: 57d4 5f3d cacd f2bc 3e81 7bbc fe37 fa3c
00000310: 8f1d e6bc 62e1 b53d 90f2 5ebc 30e2 a1bc
00000320: 2b01 92bd 4b82 1dbb 5767 413e 818f 06be
00000330: 4b31 70bb cb5a 2ebe 0540 c6bc 2880 5dba
00000340: 7e04 60bd 31a1 26bd e17d 0e3e 8213 df3c
00000350: 64dc 893d 3742 3bbd fb2d 313d b45c 863c
00000360: 582d db3d 736d 76bd 83f6 26bc 911a f1bd
00000370: 1b3c e03c 4bd4 2a3d f98a 173d cef5 81bc
00000380: 2b21 303d bfae dabd 01d5 26bd 22fc 58bd
00000390: b6df 673d 1976 113e c259 f33c 51e5 1e3d
000003a0: 91be e63c ae16 a13b c074 0a3d ff73 9ebc
000003b0: cd0c 3abc 9d1e 6ebd 7a53 9f3d cc5d 59bc
000003c0: 2f9a 343c ee1f 27bd 8315 d8bc c7c1 fdbc
000003d0: bda9 1f3e 4eb7 2b3d f608 8abc 10f2 bdbd
000003e0: 7112 d53d cca5 17bc 46b0 f33d fa51 4bbd
000003f0: 863d e1bc a93a a0bd a3ce 053d 8089 453d
-0.013720211 -0.0025003336 0.038906448 -0.06848682 0.050488994 -0.04097368 -0.022523433 0.028214978
-0.026161237 -0.025185084 0.042063743 -0.035949565 -0.0044690534 0.012485691 0.025082178 0.018341374
0.057283748 -0.075399645 0.0074675204 -0.078120515 0.034691114 -0.016034584 0.030895017 -0.06955534
0.07091227 -0.0076984745 -0.0026792053 0.06414149 0.07435384 -0.0092511885 0.02699834 -0.030451803
0.013304741 -0.019059911 -0.03441936 0.008963829 0.119574875 -0.03405996 -0.07306497 -0.099084355
0.031283315 -0.023977965 -0.029916832 0.008298779 0.020129787 0.030294538 -0.02527902 -0.0858719
0.086437844 0.0110715395 0.021363882 -0.02996411 0.024339879 0.080861256 -0.006754664 0.020221123
0.02622794 0.026495775 0.12283476 -0.026112558 -0.01717012 -0.07607527 0.0016362802 0.0061683618
-0.057078306 0.08495705 -0.0029604263 0.0071172607 0.017460769 -0.003627835 -0.046788633 -0.026712678
-0.05525652 0.0043951543 -0.019277003 -0.039318882 0.032434754 0.111188896 0.058587737 0.061499856
0.043563817 -0.011258939 -0.04626534 -0.06935097 -0.051752098 -0.029858375 0.0026094164 -0.0045562456
-0.006675587 -0.047174294 0.004543655 -0.014090496 0.056201886 0.04647849 -0.0039198254 0.0032328477
-0.040994175 0.053278275 0.0012469005 0.037525006 -0.12059003 0.086488344 0.096226834 -0.03231492
0.051896814 -0.16445346 0.011422339 -0.031043379 -0.08808137 -0.09049056 0.04091893 -0.04049196
0.008883563 0.00830826 0.03719386 -0.050459947 0.07657681 -0.17806904 -0.012184136 -0.10919612
-0.053148217 0.035198554 0.061935753 -0.0075531076 0.09191869 -0.03230012 0.009400219 0.065749
0.054971676 0.04034162 0.06571651 -0.045288004 0.119994946 0.041776784 -0.0125937145 0.03692347
0.11819662 -0.0663533 -0.03798841 -0.025970452 0.06005162 0.018741896 -0.019516181 0.008106049
0.03943809 0.008242349 -0.066383086 -0.097609416 0.056859966 -0.055666875 0.03455405 -0.026112292
0.008712653 0.010849866 0.026211705 0.07379852 0.046770994 -0.030135801 0.040503696 0.02270846
-0.06280774 -0.0665638 0.044201978 -0.06367745 0.0014925633 0.13386314 -0.00483265 -0.028896127
-0.08254688 -0.037032086 -0.08035012 -0.025771774 -0.096787065 -0.027409408 0.059216592 0.022193028
-0.033626508 0.09368656 0.06107596 0.13491188 0.043890752 0.012176409 0.041197166 -0.07878753
-0.098975316 -0.008276336 -0.09919796 -0.014338402 0.08019298 0.07571064 -0.0556741 0.026066992
0.054645862 -0.029639143 -0.015350638 0.030544277 -0.028090267 0.08880879 -0.013607636 -0.019761175
-0.07129129 -0.002403396 0.18887077 -0.1314068 -0.0036650475 -0.17026822 -0.024200449 -0.0008449578
-0.054691784 -0.040681068 0.13915206 0.027230982 0.06731489 -0.045717444 0.04325674 0.016401626
0.10702008 -0.060162973 -0.010190609 -0.11772645 0.02737241 0.041706365 0.03699777 -0.01586428
0.04300038 -0.106778614 -0.04073048 -0.052974828 0.05660983 0.14205207 0.029705886 0.038792912
0.028167041 0.0049160337 0.033802748 -0.01934242 -0.011355591 -0.058134664 0.07779594 -0.013266992
0.011023088 -0.040801935 -0.026377445 -0.03097619 0.15592094 0.04192286 -0.016849976 -0.092746854
0.10403908 -0.009255838 0.11898856 -0.049638726 -0.027495157 -0.078236885 0.032667767 0.048226833

dense_output.0.bias f4 [100]
00000000: 1051 10be 08f9 d4bd 9df2 61be 19e6 28be
00000010: 50e2 4bbe 6a8c febd 0203 98bd 3f3a 92bd
00000020: 9576 37be 7bc4 1dbe 3c94 7fbe 5b71 89bd
00000030: 6748 0abe 1a18 f8bd 42e4 42be 80ee c2bd
00000040: 1174 7dbe f7dc 49be 9eba 3abe 8d65 97be
00000050: 73d4 4dbe f6c3 4abe 8f95 53be df23 fcbd
00000060: dc17 80be 82f2 28be 95b8 1abe abbd 1dbe
00000070: 2e11 69be 9a8b e5bd 4c50 a4be aef9 76be
00000080: ad1d 13be c77c bebd d26a 07be 420b babe
00000090: dd7c 20be 2a0c cebd 501e 38be 7053 01be
000000a0: fedd 903e a736 0bbe 7d4d 6bbe 24bd ffbd
000000b0: 885e 38be d0d3 1ebe bb00 f4bb 27ac 52be
000000c0: 2531 8c3d 7922 9cbe 112f d0bd 31b8 9cbd
000000d0: 8182 11be db94 2fbe b36c 1abe 68b0 35be
000000e0: 441a 35be 7b32 a0bd b063 33be 9836 fabd
000000f0: 93a5 a6be f918 29be 80be 1a3d 4da3 dcbe
00000100: fe53 50be ee6e 1cba 9557 aebe 2971 b1bd
00000110: d51e f2bd 2452 2dbe d528 65be 3e5c cbbd
00000120: e048 18be f563 07be 3183 9bbe 3eec 13be
00000130: a1f6 37be fe0f 9c3e fff8 15be c372 72be
00000140: 1077 4fbe 3859 2fbe c70b 7abe c859 30be
00000150: e215 10be 9583 75be 8fd6 a1be 94ba 2dbe
00000160: cc23 b4bd 52e9 13be 68af 4bbe 5d98 7bbe
00000170: 996b 79be 2fd2 efbd 6321 35be 6f66 2ebe
00000180: 2c62 06be 9d13 4cbe 7651 ecbd 32d0 6abe
-0.14093423 -0.103990614 -0.22065206 -0.16494025 -0.1991055 -0.124291256 -0.07422449 -0.07140016
-0.17916329 -0.15406983 -0.2495889 -0.06711074 -0.13504182 -0.12113972 -0.19032386 -0.095181465
-0.24751307 -0.19713198 -0.18235251 -0.29569665 -0.20100574 -0.19801316 -0.20662521 -0.12311529
-0.25018203 -0.1649876 -0.15109475 -0.15404384 -0.2276046 -0.112082675 -0.32092512 -0.24118683
-0.14366789 -0.09301143 -0.13224342 -0.36336714 -0.15672632 -0.10060914 -0.17980313 -0.12629485
0.28294367 -0.13595067 -0.22978778 -0.124872476 -0.18004811 -0.15510488 -0.007446376 -0.20573483
0.06845311 -0.3049505 -0.10165227 -0.07652319 -0.1420994 -0.17146628 -0.15080528 -0.17743075
-0.17685801 -0.078221284 -0.17518497 -0.12217444 -0.32548198 -0.16513433 0.03777933 -0.4309334
-0.2034454 -0.00059674575 -0.34051195 -0.08664162 -0.11822287 -0.16925865 -0.22378857 -0.09929703
-0.1487155 -0.13221724 -0.3037353 -0.14445588 -0.17965175 0.3048095 -0.14645766 -0.2367659
-0.20260262 -0.17123878 -0.24418555 -0.17221749 -0.14070848 -0.23975976 -0.31609008 -0.16965705
-0.0879589 -0.14444473 -0.19891131 -0.2456984 -0.24357451 -0.11710011 -0.17688517 -0.17031263
-0.13123387 -0.19929357 -0.11538975 -0.22930983

dense_output.3.weight f4 [1, 100]
00000000: 7610 0c3c c44a 3abd f4e2 283c 3bfb f43c
00000010: 3ed7 763c 8497 e23a 2e20 fb3b e31b 8e3b
00000020: 5894 d2bc 3023 4c3c 3873 e03d 0ec2 853d
00000030: 3f16 9c3d 20fb 44bc 37d1 20bc 62a1 78bc
00000040: 831e 8fb9 2824 aebb e2ec 59bc 11fa e63b
00000050: cef1 9c3a 61e0 133c a3a3 523c c9ef 3ebb
00000060: 4b4a db3c 0fe3 b73b 5601 cdbb bece c4bc
00000070: 35cb 333c 75bb 1e3c ccae 44bd 7c68 e0bd
00000080: e29f 8ebb d439 d13b b3a0 7abc d94d e0bd
00000090: 2376 be3c 33ff 393c 15b1 85bc c9bf 053b
000000a0: 0721 5c3d 5013 b53c b757 adbc 9c6d 2c3c
000000b0: 353a e83c f8a9 b7ba 2a99 8dbd 6718 d9bc
000000c0: dec0 8c3d ade7 9bbb 3c64 503b 3e6f 003c
000000d0: db9a 21bb 150b 9abb 0c96 6aba 0322 e4bb
000000e0: c517 093c 1882 acba 02b9 27bc 53b9 16bc
000000f0: 5bee 1cbd 4885 203c 6c16 913d f403 aabb
00000100: 08a6 a9bc 4be5 583d 58a8 bfbc 1137 01bb
00000110: 403d 4b3b 94aa 4fbc 0b5f 8c3c 03b2 0dbb
00000120: 7596 8cbc 83ad 803c 132d 753d 2d71 5fbc
00000130: 9f65 cbbc 812e b03d 43a4 bcbb 0dfb cd3d
00000140: 2d16 783c 3491 353c 7442 a5bd ab2d ba3b
00000150: 0aed 8bbc e503 7c3c c9cb 3ebd 4ca5 a1bc
00000160: 597f 8fbc e69d 893c 4172 793c 2e79 fd3c
00000170: 1013 43bc 7951 d2bb 5e54 543d c0d9 d8bc
00000180: 7a54 0b3c 565f 64ba 8ca5 823b 702e 7cbd
0.0085488465 -0.04548146 0.010308016 0.029904952 0.015065966 0.0017287587 0.007663748 0.0043368204
-0.025705501 0.012459561 0.10959476 0.065311536 0.076214306 -0.0120227635 -0.009815506 -0.015175195
-0.00027297818 -0.0053143688 -0.013301106 0.007048853 0.0011973919 0.009025664 0.012856397 -0.0029134622
0.026768824 0.0056117843 -0.006256263 -0.024024364 0.010973741 0.009688248 -0.04801826 -0.10957429
-0.0043525556 0.0063850675 -0.015297103 -0.10952348 0.023249691 0.011352348 -0.01631979 0.0020408502
0.053742435 0.022103935 -0.02115999 0.01052418 0.028348068 -0.0014012447 -0.06913979 -0.026500894
0.06872724 -0.0047578425 0.0031798026 0.007839022 -0.0024658951 -0.004701028 -0.00089487503 -0.0069620623
0.0083674835 -0.001316133 -0.01023698 -0.009199458 -0.03831325 0.009797402 0.07084355 -0.0051884595
-0.020709053 0.052953046 -0.023395702 -0.001971666 0.003101185 -0.012674946 0.017135164 -0.0021620996
-0.017161587 0.015707737 0.05985744 -0.013637823 -0.02482873 0.0860262 -0.005756886 0.1005765
0.015142006 0.011081982 -0.080693156 0.0056817136 -0.017080802 0.015381788 -0.046581063 -0.01973214
-0.017516779 0.016798925 0.015224994 0.030941572 -0.0119064 -0.0064184037 0.05183827 -0.026471019
0.0085040275 -0.0008711716 0.00398702 -0.061567724

exp_avg f4 [4, 1, 3, 3, 3]
00000000: 3f54 44bb e7c4 15bb f920 74ba 3f4b 553a
00000010: 5417 823a 6657 3c3b 66b0 e93a 7276 b63a
00000020: 10ed 5d3b 81f6 56bb 711b 25bb 3f50 61ba
00000030: 36ca d839 eb54 443a 1a65 413b a3cd a53a
00000040: eecd 8d3a 7f7b 493b 03d0 3abb bd22 ffba
00000050: f08a 54b9 4f17 1b3a f638 9f3a ed18 593b
00000060: 5fdd a33a 9d28 bd3a 7227 573b 8ee2 20bb
00000070: 2301 2cbb 21f3 21bb eb60 36bb 2943 3dbb
00000080: ae50 4bbb eb08 e5ba 2e2b 17bb 1856 58bb
00000090: e486 f8ba ceba 04bb 97de dcba 9453 09bb
000000a0: 422d 10bb c6ed 14bb d7ff 85ba c786 dbba
000000b0: ef80 32bb 14a6 f3ba bbd5 00bb 71d2 c8ba
000000c0: 4257 01bb 8ea8 0dbb 8938 11bb dcac 6cba
000000d0: 0a66 d9ba d273 39bb aa61 0abb 3fc5 51bb
000000e0: 4f1d 51bb 791e f2ba 4def 11bb 80fb 2abb
000000f0: f8c2 bbba f0a3 feba e574 39bb a30e d13a
00000100: d6bf bcb8 517b 2cba b344 c83a 76bd 063a
00000110: dcd7 31ba e93c a53a 9945 a339 3570 b9ba
00000120: b63d c43a b61b 98b9 d13a 4eba c500 bc3a
00000130: 481d 9139 36d0 5fba d595 823a 045c 8937
00000140: 3bd7 e2ba e09e 3ebb ee20 2bbb e3c6 fbba
00000150: 0f1a 92bb 0d2d 61bb 713d 3cbb c5f9 82bb
00000160: bfa8 88bb 633c 81bb f832 00b9 b697 13ba
00000170: f5d6 0cba 8901 03bb 049e e1ba 9ae0 d0ba
00000180: ea2c f7ba 31d6 2fbb a6e4 2fbb 6759 d6b9
00000190: c4c0 24ba 290a 00ba 6371 13bb 39d2 f5ba
000001a0: 2c66 cbba c25b ffba fc30 27bb 634a 16bb
-0.002995744 -0.0022852959 -0.00093127746 0.0008136518 0.0009925165 0.0028738617 0.001782906 0.0013920798
0.0033863224 -0.0032800736 -0.0025193358 -0.00085950264 0.0004134939 0.00074894604 0.0029509724 0.0012649785
0.0010818818 0.0030743775 -0.0028505332 -0.0019465309 -0.00020269654 0.0005916254 0.0012147713 0.003312643
0.0012501887 0.0014431659 0.0032829908 -0.00245491 -0.0026245795 -0.0024711567 -0.0027828764 -0.0028879142
-0.003102343 -0.0017473971 -0.0023066509 -0.00330103 -0.0018961099 -0.0020252946 -0.0016851005 -0.0020954357
-0.0021999632 -0.0022724732 -0.0010223341 -0.0016748541 -0.0027237495 -0.0018588924 -0.0019658643 -0.0015321505
-0.0019735848 -0.002161536 -0.0022158942 -0.00090284436 -0.0016586196 -0.0028297794 -0.0021115341 -0.0032008437
-0.0031908338 -0.0018472216 -0.0022267879 -0.0026089847 -0.0014325073 -0.0019427519 -0.0028298434 0.0015949797
-9.000271e-05 -0.0006579655 0.0015279263 0.0005139926 -0.000678418 0.0012606654 0.00031141637 -0.001414782
0.0014972005 -0.00029012345 -0.00078670407 0.0014343491 0.0002767837 -0.0008537801 0.0009962866 1.637452e-05
-0.0017306575 -0.0029086396 -0.0026112157 -0.0019209053 -0.004458673 -0.0034359128 -0.0028723145 -0.00399706
-0.0041705067 -0.0039439662 -0.00012226019 -0.00056302117 -0.0005372607 -0.0019989929 -0.001721323 -0.0015936077
-0.001885799 -0.002683055 -0.0026839166 -0.0004088387 -0.0006284828 -0.00048843265 -0.0022498004 -0.0018754668
-0.001551812 -0.0019482302 -0.0025511375 -0.0022932522

exp_avg_sq f4 [4, 1, 3, 3, 3]
00000000: ff45 2e39 ef5e 3b39 4762 5039 771c 2439
00000010: bb22 2f39 7c9b 4639 757f 2539 6447 3139
00000020: 5008 4939 a7ca 2a39 62bd 3539 5c85 4a39
00000030: 58ca 2139 8d56 2c39 077c 4339 ff57 2239
00000040: fdf2 2d39 8f01 4539 5018 2739 e29d 3139
00000050: 26fe 4539 6589 2039 637a 2c39 5800 4239
00000060: 7074 2039 94b9 2c39 a8ef 4139 3980 1838
00000070: d80e 3938 f7b6 5d38 875a 2438 5d8e 6638
00000080: c84b 9d38 53bf 1c38 5c72 6b38 6cef c638
00000090: 696c 0638 600d 2538 9cb4 4a38 3fc4 1438
000000a0: 8072 5438 fbef 9038 dfc2 0c38 18f3 5e38
000000b0: 9029 bc38 1868 0838 2b71 2738 b530 4e38
000000c0: 27c9 1738 1c0c 5a38 3dd1 9138 35ff 1138
000000d0: 932e 6d38 d1d0 be38 7a8d 9338 5006 9538
000000e0: cfb3 7e38 df2b 3638 0efb 2938 750e 2638
000000f0: d0ee ca37 5570 ca37 42d1 f137 4bc9 9f38
00000100: 483b 9e38 fe31 8738 ee04 4638 ea71 3938
00000110: 4eda 3738 b153 e037 2ca1 e737 e38b 0738
00000120: 860c a138 f55e 9d38 c67d 8638 3915 4538
00000130: f0fa 3a38 a9ac 3938 e214 dc37 2889 eb37
00000140: 1fba 0838 156b c038 c740 6f38 799f 2638
00000150: dd00 ce38 d743 7c38 071b 2c38 1443 c038
00000160: c1ad 8c38 b9a8 6138 9211 c038 bc65 5f38
00000170: 59fb 2538 02b6 cf38 59ad 6a38 f672 2938
00000180: 2b8d c338 ce35 8838 f1c8 6038 ab88 b938
00000190: 23bf 5338 33fa 2738 5b03 c938 e1ce 5c38
000001a0: 801d 2a38 23c4 bf38 43e1 8238 a06d 6038
0.00016620009 0.00017869075 0.00019873037 0.00015650863 0.00016702239 0.00018940674 0.00015783108 0.0001690663
0.0001917195 0.00016287957 0.00017332056 0.00019313901 0.00015429535 0.00016435441 0.00018642853 0.00015482305
0.00016589086 0.00018787965 0.00015935418 0.00016938851 0.00018882062 0.00015309973 0.00016448791 0.0001850141
0.00015302165 0.00016472331 0.00018495193 3.635904e-05 4.412126e-05 5.2860905e-05 3.9184957e-05 5.496886e-05
7.500459e-05 3.7371483e-05 5.613487e-05 9.4859715e-05 3.2049054e-05 3.9351522e-05 4.832876e-05 3.5468718e-05
5.0651375e-05 6.911155e-05 3.356009e-05 5.3155323e-05 8.97228e-05 3.252187e-05 3.99213e-05 4.915959e-05
3.6188543e-05 5.1986528e-05 6.9531125e-05 3.4808374e-05 5.654858e-05 9.098801e-05 7.035858e-05 7.1060495e-05
6.072578e-05 4.343304e-05 4.0526553e-05 3.959095e-05 2.4191482e-05 2.4132585e-05 2.8826882e-05 7.6192046e-05
7.545069e-05 6.4466134e-05 4.721147e-05 4.4213528e-05 4.3833912e-05 2.6741853e-05 2.7612397e-05 3.2316788e-05
7.679411e-05 7.5040305e-05 6.413045e-05 4.6988225e-05 4.457956e-05 4.426824e-05 2.6235768e-05 2.8078051e-05
3.2598266e-05 9.175219e-05 5.704237e-05 3.9726005e-05 9.823006e-05 6.0144663e-05 4.1033167e-05 9.167768e-05
6.7080844e-05 5.3801316e-05 9.158546e-05 5.326209e-05 3.957315e-05 9.904431e-05 5.595139e-05 4.0399806e-05
9.324619e-05 6.495007e-05 5.3592903e-05 8.846944e-05 5.048433e-05 4.004892e-05 9.585052e-05 5.264476e-05
4.0558632e-05 9.144123e-05 6.240841e-05 5.3507858e-05

exp_avg f4 [4]
00000000: f494 0b3c 04ca 41bb 627a b73b 7fbf 0a3c
0.0085194 -0.0029569874 0.005599306 0.008468508

exp_avg_sq f4 [4]
00000000: d34f 113b da91 b239 9c45 ad39 2fe4 1f3a
0.0022172823 0.00034059474 0.00033048994 0.00060993707
