models/mvsec/indoor_flying3/indoor_flying3_multipixel_odd_model.pth (torch, 872322 bytes, 30 tensors)

conv3d.0.weight f4 [4, 1, 3, 3, 3]
-0.115961246 0.026662143 0.10978913 0.112235285 -0.06796602 -0.15644957 0.0017977516 0.091157794
-0.042068098 -0.1527661 -0.014394211 0.17060126 0.06728484 -0.039002415 -0.17145249 0.30048385
0.15696166 -0.32636023 -0.22161072 0.01342944 0.1738118 0.037620373 -0.011106284 -0.124552846
0.35062668 0.14205347 -0.44572067 0.1447606 0.08842939 0.07540473 0.13632196 0.12079576
-0.09830682 -0.14137527 0.030220537 -0.08352514 -0.027977472 0.024252228 0.11329857 0.1307082
0.049653627 0.026319781 -0.3030076 -0.22228572 -0.06476421 -0.11754463 -0.09361353 0.21521254
0.15580046 0.0020230096 0.17126118 -0.30001524 -0.3388441 0.02632827 -0.24537042 -0.33878058
-0.40917012 -0.19152352 -0.23796102 -0.33165613 -0.21874815 -0.25986218 -0.3787972 -0.015021722
0.025652355 0.04367928 0.013120793 0.005563869 -0.0023507024 0.039745152 0.038802486 0.0022562384
0.35123765 0.3235504 0.42244187 0.25314057 0.23774505 0.33787146 0.3105161 0.2641982
0.46032917 0.21591872 -0.04705032 -0.2204132 -0.17992307 0.0060564675 0.059765507 -0.08379411
0.0382241 0.015559412 0.46502477 -0.24639434 -0.14341035 0.056873836 -0.07279133 -0.009678079
0.03442379 -0.049291182 -0.019394916 0.36806276 -0.46398485 0.11692426 0.15888263 -0.2874074
0.11584024 0.13122122 -0.10286233 0.051018234
00000000: 177d edbd 916a da3c 20d9 e03d 9ddb e53d
00000010: c531 8bbd 5134 20be 89a2 eb3a f0b0 ba3d
00000020: 994f 2cbd b76e 1cbe b2d5 6bbc 19b2 2e3e
00000030: a2cc 893d ffc0 1fbd 3e91 2fbe 05d9 993e
00000040: 8fba 203e b018 a7be eced 62be 2707 5c3c
00000050: b8fb 313e d217 1a3d 22f7 35bc 9015 ffbd
00000060: 5785 b33e 7776 113e 8035 e4be 1f3c 143e
00000070: 781a b53d cc6d 9a3d fc97 0b3e c463 f73d
00000080: 1655 c9bd aec4 10be 0f91 f73c 3b0f abbd
00000090: 0331 e5bc 9cac c63c 1509 e83d 5fd8 053e
000000a0: 9a61 4b3d 959c d73c d023 9bbe de9e 63be
000000b0: 19a3 84bd 3dbb f0bd 73b8 bfbd ad60 5c3e
000000c0: 288a 1f3e 7894 043b 175f 2f3e 999b 99be
000000d0: f97c adbe 62ae d73c 6242 7bbe a674 adbe
000000e0: bf7e d1be be1e 44be 0eac 73be d5ce a9be
000000f0: 84ff 5fbe a80c 85be b5f1 c1be ab1d 76bc
00000100: e324 d23c 0be9 323d 98f8 563c 1e51 b63b
00000110: 3e0e 1abb d0cb 223d 5bef 1e3d 66dd 133b
00000120: 6cd5 b33e 66a8 a53e 4d4a d83e a49b 813e
00000130: 7073 733e 7dfd ac3e f7fb 9e3e fd44 873e
00000140: 44b0 eb3e cc19 5d3e d6b7 40bd ffb3 61be
00000150: c13d 38be 5575 c63b adcc 743d 3f9c abbd
00000160: e090 1c3d e7ec 7e3c ba17 ee3e cc4e 7cbe
00000170: 2ada 12be 8af4 683d 9f13 95bd ce90 1ebc
00000180: f6ff 0c3d 8de5 49bd 16e2 9ebc b972 bc3e
00000190: 6c8f edbe fd75 ef3d 21b2 223e 1027 93be
000001a0: a63d ed3d db5e 063e 7ca9 d2bd 7ff8 503d

conv3d.0.bias f4 [4]
-0.04125654 0.05285501 -0.0056499527 -0.06947724
00000000: 9efc 28bd 7f7e 583d 3d23 b9bb 154a 8ebd

gru.weight_ih_l0 f4 [300, 100]
0.14115986 -0.09176727 -0.16827174 -0.22577234 0.08429395 -0.34711447 -0.5240878 -0.49075466
-0.06862547 0.013187414 -0.3185202 0.14979923 0.2311438 0.08153486 -0.08629568 -0.22475494
0.07288808 0.44045687 0.40236074 0.16760398 0.09307239 -0.07213226 0.20002647 0.5422897
0.10144448 0.10079295 -0.1141849 -0.14865832 -0.22864376 -0.036910675 -0.17982978 -0.64491254
-0.3329293 -0.2495709 -0.15382862 -0.20116244 -0.56883615 -0.09438194 0.124988884 0.05701017
0.39338723 -0.03309331 0.32658103 0.24538785 0.185106 0.6754904 0.1659355 0.5481714
0.5467176 0.2666808 -0.24264933 -0.25748453 -0.13264285 -0.14257222 0.07683776 -0.27643976
-0.3158015 -0.0525218 -0.16628046 0.28446048 -0.11891195 -0.25719327 0.018402493 -0.062371798
0.42064434 0.031710424 -0.20855156 -0.027268494 -0.11030556 0.26751915 0.18119659 -0.01421253
-0.028985951 0.083894044 0.34986934 0.515867 0.5346139 0.24389233 -0.1878299 -0.09534561
0.37500063 0.13311456 -0.032812532 -0.4758807 -0.1763736 0.05179629 -0.17456083 -0.46754476
-0.63364774 -0.3335569 -0.27319446 -0.26952544 -0.35576782 -0.38395122 -0.26087102 -0.1208658
0.1135418 0.43102285 0.012606337 -0.1311954 0.35258153 0.13635576 0.14131863 -0.24973466
0.17131516 -0.13001956 0.14876562 0.06363421 -0.35846096 0.5541044 -0.05152546 0.036457345
-0.19751932 -0.06876588 0.5636756 0.22435255 0.028576402 -0.25190702 -0.0677995 0.08831541
-0.10901344 0.19116472 0.07553212 0.1529135 0.53001106 -0.28860575 -0.44224474 -0.28725803
-0.034143317 -0.080501124 -0.11127721 -0.038717892 0.14590469 0.35858104 -0.09953383 0.0010304836
-0.1198781 0.115957275 0.014519503 0.07613555 0.17860006 -0.02063888 0.35741562 0.5754836
0.3873081 0.3636303 0.23751001 0.45716023 0.4214916 0.4292663 -0.30739456 -0.24487565
-0.06557952 0.13462669 -0.16977447 -0.08521398 -0.010346798 0.26073146 0.4656059 0.25176525
0.0085591655 0.02229071 0.15327762 0.26105323 0.16982271 0.03643388 0.039123293 0.002648603
0.02045332 -0.17345239 0.00072002364 -0.0323656 -0.29834682 -0.39919776 -0.49488938 -0.122032754
-0.19253105 -0.11809304 -0.31136787 -0.08851654 -0.13283339 -0.26690435 -0.21162057 -0.15585367
-0.15879448 -0.13319914 -0.26154828 -0.27056542 -0.22514667 -0.2623946 -0.41205674 0.12252606
-0.04610545 -0.356365 -0.038399402 -0.6625168 0.16727923 -0.36144966 -0.25587785 -0.113435805
-0.030139366 0.024216752 0.25052848 0.15503368 0.122692265 0.16675842 0.033042517 0.13241898
0.35927758 0.300563 0.14949706 -0.05392063 0.16283867 -0.078898564 -0.04207571 -0.10993573
-0.048727088 -0.04641971 -0.28426456 -0.107835345 -0.0994578 -0.3481287 -0.3069421 -0.3560922
0.21216817 0.027827544 -0.0984917 -0.050676454 0.058131386 0.15510187 0.3054319 0.033558212
-0.09507998 -0.001976372 0.09440679 0.55235213 0.44127205 0.6095207 0.4054954 0.31146315
0.2573209 0.23717937 0.14043827 0.16215295 0.13515419 0.32158396 0.026069116 -0.20756917
-0.059540298 0.0004098196 0.1465661 0.19851603 0.15229166 -0.059822515 -0.20377524 0.26240963
00000000: 368c 103e 7af0 bbbd 6d4f 2cbe dd30 67be
00000010: 4ea2 ac3d fdb8 b1be 9e2a 06bf 3244 fbbe
00000020: 838b 8cbd 0610 583c 1415 a3be f864 193e
00000030: f6b0 6c3e c0fb a63d cabb b0bd 2926 66be
00000040: 5846 953d 9083 e13e 3a02 ce3e 61a0 2b3e
00000050: bd9c be3d 14ba 93bd bdd3 4c3e 7fd3 0a3f
00000060: 20c2 cf3d 896c ce3d c6d9 e9bd e339 18be
00000070: 9721 6abe a62f 17bd 4c25 38be fd18 25bf
00000080: b675 aabe 848f 7fbe 4085 1dbe 87fd 4dbe
00000090: 3f9f 11bf 524b c1bd 2cfa ff3d 7f83 693d
000000a0: 0d6a c93e da8c 07bd a135 a73e f446 7b3e
000000b0: 6d8c 3d3e f0ec 2c3f ffea 293e f654 0c3f
000000c0: aff5 0b3f 638a 883e 1179 78be 03d5 83be
000000d0: 87d3 07be 74fe 11be 1e5d 9d3d 8389 8dbe
000000e0: bcb0 a1be 1921 57bd 6d45 2abe cea4 913e
000000f0: 1c88 f3bd d6ae 83be d3c0 963c 9279 7fbd
00000100: b25e d73e cae2 013d 8a8e 55be 2d62 dfbc
00000110: e2e7 e1bd 45f8 883e 998b 393e acdb 68bc
00000120: f273 edbc a4d0 ab3d 1322 b33e dc0f 043f
00000130: 75dc 083f e9be 793e 7b56 40be 8f44 c3bd
00000140: 1500 c03e 2f4f 083e 6f66 06bd a3a6 f3be
00000150: 489b 34be 5928 543d 13c0 32be 0762 efbe
00000160: bd36 22bf f8c7 aabe 25e0 8bbe 3dff 89be
00000170: 3327 b6be 4195 c4be e390 85be 7d88 f7bd
00000180: 9a88 e83d 07af dc3e cf8a 4e3c 1658 06be
00000190: 9185 b43e d8a0 0b3e d5b5 103e 71ba 7fbe
000001a0: 3e6d 2f3e d923 05be 0456 183e a752 823d
000001b0: 3288 b7be c9d9 0d3f 5c0c 53bd 4c54 153d
000001c0: 8142 4abe 20d5 8cbd 0b4d 103f adbc 653e
000001d0: 0f19 ea3c f5f9 80be 77da 8abd b6de b43d
000001e0: 7042 dfbd afc0 433e 96b0 9a3d 5b95 1c3e
000001f0: ceae 073f 22c4 93be e76d e2be 7c13 93be
00000200: ddd9 0bbd c6dd a4bd 4ee5 e3bd a796 1ebd
00000210: 0a68 153e ef97 b73e 65d8 cbbd 4b11 873a
00000220: a682 f5bd 027b ed3d 36e3 6d3c f5ec 9b3d
00000230: efe2 363e de12 a9bc 2eff b63e e552 133f
00000240: 3f4d c63e c02d ba3e d335 733e e810 ea3e
00000250: bfcd d73e cbc8 db3e d262 9dbe afc0 7abe
00000260: 8e4e 86bd 94db 093e 5cd9 2dbe ab84 aebd
00000270: 9e85 29bc 987e 853e e663 ee3e 60e7 803e
00000280: be3b 0c3c 029b b63c cff4 1c3e c5a8 853e
00000290: 01e6 2d3e b13b 153d bf3f 203d 2f94 2d3b
000002a0: b98d a73c 819d 31be f8bf 3c3a cb91 04bd
000002b0: eac0 98be a663 ccbe 2462 fdbe 4fec f9bd
000002c0: dc26 45be c4da f1bd 9c6b 9fbe 2948 b5bd
000002d0: 7a05 08be b0a7 88be 10b3 58be 1b98 1fbe
000002e0: 059b 22be 5b65 08be a8e9 85be 8d87 8abe
000002f0: d98c 66be 9658 86be 1af9 d2be f1ee fa3d
00000300: 11d9 3cbd 7975 b6be b148 1dbd b39a 29bf
00000310: 3f4b 2b3e ee0f b9be 6c02 83be 0851 e8bd
00000320: d5e6 f6bc 3662 c63c 4545 803e 26c1 1e3e
00000330: 1546 fb3d b8c2 2a3e 9757 073d d798 073e
00000340: 3bf3 b73e 65e3 993e c215 193e e1db 5cbd
00000350: 2ebf 263e 9295 a1bd 9457 2cbd fc25 e1bd
00000360: 0e96 47bd 9822 3ebd 208b 91be c7d8 dcbd
00000370: 88b0 cbbd ed3d b2be 8427 9dbe b851 b6be
00000380: 9d42 593e 97f6 e33c 04b6 c9bd 1d92 4fbd
00000390: 2d1b 6e3d 06d3 1e3e 9261 9c3e 5674 093d
000003a0: 4bb9 c2bd 0586 01bb 5958 c13d f366 0d3f
000003b0: 69ee e13e 8c09 1c3f 189d cf3e 1978 9f3e
000003c0: 91bf 833e 26df 723e 0dcf 0f3e 6c0b 263e
000003d0: dc65 0a3e a7a6 a43e e68e d53c 038d 54be
000003e0: 87e0 73bd 0edd d639 6c15 163e c947 4b3e
000003f0: 58f2 1b3e 7408 75bd 75aa 50be 8e5a 863e

gru.weight_hh_l0 f4 [300, 100]
0.2917812 -0.22831239 0.12063164 -0.10404295 0.1695718 -0.26714694 0.0377757 0.10720588
-0.03330623 -0.11442619 -0.20728335 0.013487514 0.07505683 -0.011766659 -0.045469146 0.09769744
0.027589815 -0.4131753 -0.09255427 0.03583551 0.079915114 0.3260791 0.061003655 0.013556906
-0.052406013 -0.2199912 -0.073959276 0.21551557 -0.03867885 0.12636846 -0.22573775 -0.11937797
-0.100812845 -0.15095809 0.21288565 -0.004409383 -0.28477722 0.07260737 -0.23638518 -0.07072951
0.0037968834 0.22508208 0.2564003 0.3254757 0.10260695 0.084126376 0.05624541 0.19237347
0.059634674 -0.09049378 0.043576207 0.04714892 0.027086167 0.01919485 -0.058171455 -0.03911182
0.22088304 -0.20008278 0.3517487 0.10600064 -0.25723588 -0.022571009 0.24379238 0.5197739
0.09964488 -0.14361745 -0.094354145 -0.03947589 0.028620437 0.046308503 -0.20419121 0.15252244
-0.08548525 -0.1342162 -0.055203974 0.010554173 0.3624348 -0.05689291 0.003128141 -0.13186477
0.09688523 0.28406966 0.16543365 -0.075241216 -0.01731485 0.020645788 0.59017974 0.29550433
-0.11664172 0.2411809 0.059541628 -0.0399354 0.15136641 -0.045211013 -0.10848365 -0.0574205
-0.09114883 -0.09777607 -0.009274307 -0.15167609 -0.21625985 -0.40707123 0.16457127 0.13226391
0.50181204 0.26702186 0.12980445 -0.1342105 0.14354274 0.2951726 0.3905366 0.3548872
0.025553368 0.04022233 -0.19314669 0.08858441 -0.71443933 0.342858 0.0771435 -0.15480258
-0.013430226 0.46201795 -0.1992882 -0.43672973 -0.043188784 -0.21661322 -0.24055594 0.13549717
0.28585452 -0.47189385 0.08402334 -0.022169562 -0.25599656 -0.11836958 -0.03733623 0.34834084
-0.48513114 -0.06989878 -0.07886056 0.09261827 -0.030434072 -0.2961324 0.2727608 0.4464154
-0.11927586 0.102677 0.16272515 -0.39594415 0.11041244 0.22948524 0.3002129 -0.36556315
-0.36088362 -0.07331897 -0.028472893 0.027090617 -0.65913355 -0.1682688 0.16220538 0.19452716
-0.0074560875 0.02521093 0.0021210073 0.32575768 0.39281118 0.37914407 0.30894557 0.2863871
0.30993018 -0.15997125 -0.18540399 -0.12190839 -0.13577619 -0.5052093 -0.03947709 -0.15906815
0.2201935 0.340798 0.24149148 -0.035367586 -0.80979115 0.18473002 0.52438664 -0.3026621
0.6443305 0.18290168 0.5839051 -0.17342629 -0.074843384 -0.4172747 0.030631188 -0.05740294
0.3006419 0.017316123 0.32121146 0.21542498 -0.14726241 -0.07276103 0.17984308 0.024854185
-0.22159946 0.38160402 -0.11659475 0.051655464 -0.24198325 0.050131675 -0.14239083 -0.20655158
-0.10021236 -0.31949866 0.21010776 0.017122561 -0.34321243 0.057101727 0.21203002 -0.3718601
0.35422748 -0.054654945 0.17707379 -0.096230194 0.0052275616 0.6986317 0.17214067 0.11799366
-0.22649173 0.08543495 0.022214323 -0.42820656 0.22006711 -0.46561652 -0.06377112 0.20137976
-0.18900074 -1.0633405 -0.115326606 0.36324105 -0.15125589 -0.043039892 -0.016974526 0.079335384
0.15865633 0.08084105 -0.26866138 0.3330245 0.3823269 -0.09841388 0.27865005 0.109135814
0.3974804 -0.16872413 0.20735504 -0.14768177 0.053144272 -0.12659448 0.22051226 -0.08184306
00000000: 5864 953e b9ca 69be b90d f73d 7814 d5bd
00000010: 3ba4 2d3e 7cc7 88be b1ba 1a3d c28e db3d
00000020: 1d6c 08bd 4758 eabd 1642 54be bcfa 5c3c
00000030: 65b7 993d f2c8 40bc db3d 3abd 9815 c83d
00000040: 0904 e23c b78b d3be 188d bdbd 41c8 123d
00000050: 89aa a33d d7f3 a63e f8de 793d c91d 5e3c
00000060: b0a7 56bd 6045 61be f677 97bd 1db0 5c3e
00000070: b76d 1ebd bc66 013e cc27 67be 707c f4bd
00000080: f776 cebd c294 1abe b2fe 593e 967c 90bb
00000090: 52ce 91be 2cb3 943d f50e 72be a2da 90bd
000000a0: 22d5 783b eb7b 663e e646 833e c0a4 a63e
000000b0: 9823 d23d 734a ac3d 9661 663d 8dfd 443e
000000c0: 7d43 743d ce54 b9bd f77c 323d 3a1f 413d
000000d0: cfe3 dd3c 853e 9d3c 3145 6ebd b733 20bd
000000e0: 2a2f 623e 80e2 4cbe 6818 b43e dd16 d93d
000000f0: 6cb4 83be d6e6 b8bc b6a4 793e e70f 053f
00000100: 9d12 cc3d 7410 13be bf3c c1bd 79b1 21bd
00000110: 6875 ea3c fcad 3d3d 8017 51be d82e 1c3e
00000120: e412 afbd f96f 09be 901d 62bd 69eb 2c3c
00000130: 0e91 b93e 8a08 69bd 7f01 4d3b 8f07 07be
00000140: c36b c63d 9471 913e 7067 293e 1118 9abd
00000150: dfd7 8dbc 5b21 a93c 0516 173f 584c 973e
00000160: dbe1 eebd 20f8 763e ece1 733d 4d93 23bd
00000170: ccff 1a3e 2f2f 39bd ad2c debd c231 6bbd
00000180: 3dac babd d23e c8bd 43f3 17bc fa50 1bbe
00000190: 3973 5dbe a46b d0be 5f85 283e 3170 073e
000001a0: c176 003f 17b7 883e 75eb 043e 7a6e 09be
000001b0: defc 123e dd20 973e 6af4 c73e c6b3 b53e
000001c0: 4c55 d13c 2bc0 243d 3fc8 45be be6b b53d
000001d0: 7fe5 36bf 158b af3e 69fd 9d3d 9184 1ebe
000001e0: 730a 5cbc 9e8d ec3e 3512 4cbe 0a9b dfbe
000001f0: b9e6 30bd dbcf 5dbe 4c54 76be c5bf 0a3e
00000200: 865b 923e 129c f1be 6e14 ac3d f19c b5bc
00000210: fb11 83be c06b f2bd e0ed 18bd bb59 b23e
00000220: 1c63 f8be 1727 8fbd a581 a1bd a6ae bd3d
00000230: e050 f9bc aa9e 97be 4ea7 8b3e 8f90 e43e
00000240: e746 f4bd 5248 d23d 6ca1 263e 31b9 cabe
00000250: eb1f e23d 2efe 6a3e 81b5 993e 182b bbbe
00000260: bdc5 b8be 4228 96bd fc3f e9bc 24ed dd3c
00000270: fabc 28bf a84e 2cbe 2b19 263e 2132 473e
00000280: 3252 f4bb 2787 ce3c 9900 0b3b b6c9 a63e
00000290: 8c1e c93e 2c1f c23e 1d2e 9e3e 54a1 923e
000002a0: 2baf 9e3e 81cf 23be 8bda 3dbe 1bab f9bd
000002b0: ea08 0bbe 6655 01bf bbb2 21bd c3e2 22be
000002c0: 687a 613e 137d ae3e 8b49 773e 9add 10bd
000002d0: 794e 4fbf de29 3d3e 343e 063f 87f6 9abe
000002e0: d8f2 243f 944a 3b3e ce7a 153f a996 31be
000002f0: 7d47 99bd 08a5 d5be 42ee fa3c 581f 6bbd
00000300: bced 993e 8bda 8d3c d475 a43e 5e98 5c3e
00000310: f5cb 16be bc03 95bd c928 383e 019b cb3c
00000320: f8ea 62be 9a61 c33e 3ac9 eebd ae94 533d
00000330: 75ca 77be df56 4d3d e7ce 11be 4282 53be
00000340: 233c cdbd 5495 a3be 7d26 573e 9d44 8c3c
00000350: 8ab9 afbe 80e3 693d 661e 593e 7264 bebe
00000360: 4e5d b53e dddd 5fbd d552 353e 5614 c5bd
00000370: f74b ab3b 87d9 323f a545 303e a9a6 f13d
00000380: 73ed 67be 85f8 ae3d d0fa b53c e43d dbbe
00000390: 4659 613e 4a65 eebe 6f9a 82bd 7f36 4e3e
000003a0: 6989 41be 8b1b 88bf 5b30 ecbd bbfa b93e
000003b0: d3e2 1abe 994a 30bd 290e 8bbc 977a a23d
000003c0: ce76 223e fe8f a53d fc8d 89be 3082 aa3e
000003d0: 5ac0 c33e 378d c9bd 38ab 8e3e 9982 df3d
000003e0: 8d82 cb3e 05c6 2cbe e154 543e e439 17be
000003f0: cfad 593d fca1 01be f7cd 613e 569d a7bd

gru.bias_ih_l0 f4 [300]
-0.06211124 -0.24118845 -0.122969516 0.013021784 -0.11131785 -0.2336243 0.07967009 -0.16137886
-0.29816547 -0.26322055 -0.12795758 -0.14620775 -0.21717352 -0.11268562 -0.2484523 -0.15271157
-0.23919015 -0.16935681 -0.2015476 -7.4122494e-05 -0.035107683 -0.15674233 -0.10863095 -0.15521769
-0.2469485 -0.21259291 0.11142949 -0.16582793 0.011285495 0.16011165 -0.08509103 -0.1970013
-0.11766733 -0.21723501 -0.25219092 -0.14690515 -0.1911887 -0.032231156 -0.015564079 0.0825508
-0.10269274 -0.19293208 -0.24463987 -0.0010099187 -0.16952252 -0.06293271 -0.3101419 -0.17695144
-0.1665332 -0.2078757 -0.20546433 -0.27554974 -0.21722619 -0.11062402 -0.26658997 -0.03002164
0.07531932 -0.4304438 0.004535711 -0.09379351 -0.06779284 0.035390142 0.08357087 -0.19514598
-0.3375837 -0.09102906 -0.02286109 -0.18176569 -0.19686235 0.29462284 -0.28694344 -0.15419021
-0.10492666 -0.037348263 -0.2281585 -0.020338679 -0.10819561 -0.08624038 0.22110663 0.057002224
-0.13240449 0.006211539 0.02345906 -0.023671398 -0.18675734 0.12397061 -0.07510037 0.20830533
-0.1991096 -0.09387689 -0.24440753 -0.23841277 -0.13592783 -0.20579568 -0.1743187 -0.15913308
-0.15231192 -0.1106951 0.14752032 -0.117348135 0.31440154 0.19114564 0.16881888 0.19134754
-0.057634916 0.36260834 0.19387133 0.29212427 0.17741081 0.29920387 0.12769811 -0.14189991
0.093072794 0.037861116 0.4006967 0.31959522 0.23197556 0.2512501 -0.028659243 0.15736976
-0.10252632 0.29748568 0.18879049 0.42409566 0.051911697 0.050014902 0.21920663 -0.04549664
-0.25731063 0.2617921 0.4036274 0.27936336 0.32443205 0.29384685 0.13197589 0.45262504
0.437893 0.14198817 0.12410642 0.30512297 -0.14208311 -0.2134953 0.34415492 0.13225673
0.376784 0.34771085 0.22778203 0.36642373 -0.08586099 0.25362042 0.30004388 0.2023298
0.12390067 0.25487655 0.33125317 0.2106076 0.47550362 0.3172213 0.02810698 0.16775389
0.38170892 0.5005217 0.27283457 0.28114963 0.22908604 -0.024619192 0.26864758 0.28216702
0.26271272 -0.099518545 0.2748965 0.24666026 0.36231762 0.32864633 0.10378999 0.14740402
0.28181523 0.3552017 -0.08312332 0.21406619 0.26569942 0.35914588 0.3650703 0.00018849682
0.19819361 0.5119715 0.20322058 -0.26654893 0.34560025 -0.010099929 -0.104102515 0.10897
0.29036117 0.25503358 0.22585207 0.022948993 0.21183534 0.13600227 0.112263046 0.19231637
0.047952414 -0.040214147 0.046370577 -0.12731068 0.008101728 -0.06606566 -0.46267682 0.11777566
-0.10099448 -0.27712828 -0.03723184 0.033022046 0.12379357 -0.35494775 -0.122080915 0.04196949
-0.05592952 -0.012729276 0.16248734 0.13003461 -0.30525675 0.10074161 0.05394809 -0.12567075
-0.021144433 0.16977414 0.173821 -0.08630217 0.092889905 0.38579014 0.0047154804 -0.078553274
0.06372435 0.38722456 0.061368156 -0.3776904 -0.094818786 0.10518605 0.16098961 0.16278663
-0.11447744 0.23878463 0.061356366 -0.49297693 -0.054867536 0.09978605 0.023234488 -0.028864421
-0.003857434 0.0026231788 0.13463995 0.10046778 -0.12477143 0.028366085 -0.1405166 -0.10084729
00000000: 5b68 7ebd 1bfa 76be 71d7 fbbd 5259 553c
00000010: 9dfa e3bd 353b 6fbe 122a a33d 8040 25be
00000020: 25a9 98be d8c4 86be 5007 03be 7cb7 15be
00000030: bc62 5ebe b8c7 e6bd 486a 7ebe 6c60 1cbe
00000040: 43ee 74be df6b 2dbe 7e62 4ebe 3672 9bb8
00000050: 13cd 0fbd 1081 20be e779 debd 63f1 1ebe
00000060: 11e0 7cbe f5b1 59be 2535 e43d ccce 29be
00000070: cce6 383c 4ff4 233e 3544 aebd b5ba 49be
00000080: 92fb f0bd db72 5ebe 2b1f 81be 4e6e 16be
00000090: f8c6 43be d104 04bd 7b00 7fbc 6510 a93d
000000a0: 9250 d2bd fd8f 45be e082 7abe 405f 84ba
000000b0: 5097 2dbe dde2 80bd ebca 9ebe c232 35be
000000c0: ae87 2abe 5edd 54be 3e65 52be db14 8dbe
000000d0: 8b70 5ebe d98e e2bd 7b7e 88be f1ef f5bc
000000e0: 0441 9a3d 2163 dcbe 4da0 943b d016 c0bd
000000f0: f9d6 8abd 41f5 103d 3427 ab3d 59d4 47be
00000100: c5d7 acbe 726d babd 2e47 bbbc c920 3abe
00000110: 4996 49be ced8 963e 40ea 92be 0ae4 1dbe
00000120: cae3 d6bd 7efa 18bd 62a2 69be 4d9d a6bc
00000130: a995 ddbd cc9e b0bd c769 623e 2a7b 693d
00000140: 0b95 07be 2a8a cb3b 372d c03c 85ea c1bc
00000150: 513d 3fbe 4ee4 fd3d 39ce 99bd fe4d 553e
00000160: 63e3 4bbe 8742 c0bd f845 7abe 7a22 74be
00000170: aa30 0bbe 1abc 52be 9a80 32be c8f3 22be
00000180: a8f7 1bbe 1db4 e2bd 910f 173e 3854 f0bd
00000190: 3df9 a03e afbb 433e dbde 2c3e 9cf0 433e
000001a0: 9712 6cbd cda7 b93e 3586 463e 5091 953e
000001b0: 2eab 353e 4031 993e 4bc3 023e 364e 11be
000001c0: f39c be3d 4214 1b3d 1e28 cd3e fca1 a33e
000001d0: 008b 6d3e daa3 803e cac6 eabc 8a25 213e
000001e0: 52f9 d1bd 0b50 983e 4b52 413e 1123 d93e
000001f0: 5ca1 543d 6ddc 4c3d b477 603e af5a 3abd
00000200: 38be 83be 9d09 863e 40a8 ce3e b708 8f3e
00000210: f51b a63e 1873 963e b024 073e 78be e73e
00000220: 8333 e03e 5965 113e 822b fe3d 1439 9c3e
00000230: 3c7e 11be 839e 5abe 1335 b03e 4f6e 073e
00000240: d5e9 c03e 2807 b23e b13f 693e e49b bb3e
00000250: e3d7 afbd 89da 813e 5a9f 993e 8b2f 4f3e
00000260: a2bf fd3d 2e7f 823e 049a a93e 85a9 573e
00000270: 3675 f33e d56a a23e 9c40 e63c adc7 2b3e
00000280: 5a6f c33e 3122 003f f9b0 8b3e d8f2 8f3e
00000290: 8895 6a3e 30ae c9bc 2d8c 893e 3278 903e
000002a0: 4882 863e 61d0 cbbd 3cbf 8c3e 8294 7c3e
000002b0: b281 b93e 5544 a83e d98f d43d 14f1 163e
000002c0: 164a 903e ffdc b53e 8f3c aabd 2b34 5b3e
000002d0: c109 883e f8e1 b73e 7fea ba3e 3ba7 4539
000002e0: 44f3 4a3e 9010 033f 0e19 503e 1a79 88be
000002f0: 84f2 b03e 2c7a 25bc b333 d5bd aa2b df3d
00000300: 38aa 943e c393 823e c445 673e 87ff bb3c
00000310: 5deb 583e 2e44 0b3e 2bea e53d 95ee 443e
00000320: c069 443d 97b7 24bd 13ef 3d3d bb5d 02be
00000330: 1cbd 043c 6f4d 87bd fae3 ecbe 5d34 f13d
00000340: 32d6 cebd c2e3 8dbe 6a80 18bd 2042 073d
00000350: 7c87 fd3d b6bb b5be 8f05 fabd 33e8 2b3d
00000360: 5a16 65bd 748e 50bc 1563 263e cb27 053e
00000370: 9d4a 9cbe 9e51 ce3d acf8 5c3d d5af 00be
00000380: 1737 adbc 46d9 2d3e 22fe 313e 31bf b0bd
00000390: 103d be3d 4986 c53e 5184 9a3b 8ae0 a0bd
000003a0: e981 823d 4c42 c63e 2d5d 7b3d a360 c1be
000003b0: 5a30 c2bd c96b d73d 76da 243e 8ab1 263e
000003c0: 2673 eabd f583 743e d050 7b3d 7967 fcbe
000003d0: c8bc 60bd a15c cc3d 4156 be3c 1475 ecbc
000003e0: 01cd 7cbb a3e9 2b3b 0edf 093e 0dc2 cd3d
000003f0: 2a88 ffbd fe5f e83c 95e3 0fbe 0689 cebd

gru.bias_hh_l0 f4 [300]
-0.06289733 -0.22145168 -0.14546943 0.048141345 -0.14058088 -0.22569755 0.06989145 -0.14141235
-0.2972504 -0.2740652 -0.16321844 -0.14336379 -0.2217002 -0.113106176 -0.21465953 -0.14033082
-0.25497088 -0.21246235 -0.20993155 0.00891153 -0.045446612 -0.17029127 -0.12692766 -0.12594765
-0.24884985 -0.20419113 0.11376047 -0.19239627 -0.012059172 0.16883808 -0.10258455 -0.19456403
-0.13215424 -0.23247357 -0.27580646 -0.15745726 -0.21554054 -0.073403835 -0.011671615 0.04914694
-0.073395535 -0.19299182 -0.25459862 0.010742683 -0.14276335 -0.058694504 -0.30541438 -0.17412053
-0.18681529 -0.17425452 -0.19732308 -0.26742607 -0.21621421 -0.0980014 -0.25732347 -0.021425134
0.03912031 -0.43642172 0.008217366 -0.13609037 -0.04166819 0.06457165 0.071762644 -0.2018134
-0.3429767 -0.098820694 -0.02486268 -0.19242537 -0.19796841 0.29678547 -0.27531755 -0.14976129
-0.118489996 -0.04517613 -0.22676179 -0.042514686 -0.08609283 -0.088103436 0.25456116 0.08164807
-0.086665556 0.025809748 0.03401186 -0.023273325 -0.22021082 0.12932748 -0.08289708 0.19435021
-0.20790373 -0.09668682 -0.2489991 -0.22821504 -0.12559095 -0.20681417 -0.15144023 -0.1687649
-0.150721 -0.110941894 0.17442767 -0.08257118 0.33012268 0.22115529 0.17788883 0.15493745
-0.043059547 0.3653291 0.23278765 0.29878578 0.15232475 0.27931905 0.14260386 -0.13570449
0.10861615 0.03973444 0.44609043 0.34842855 0.22586091 0.26355258 -0.0684929 0.15299319
-0.11026848 0.28336033 0.1804157 0.4315626 0.07238412 0.08798322 0.19328329 -0.07015991
-0.25673768 0.2909661 0.36534983 0.28388667 0.31025398 0.29907924 0.11703618 0.4919487
0.42462134 0.13631052 0.108032696 0.343444 -0.13655993 -0.23533298 0.3345699 0.092996135
0.41084772 0.34768885 0.23038282 0.32906133 -0.069454856 0.2268259 0.2960901 0.17811148
0.11516336 0.24528992 0.36361843 0.18555452 0.47022063 0.321414 0.018189797 0.14329153
0.36537656 0.50059897 0.2774443 0.26016587 0.23317169 -0.00754728 0.2994494 0.27819312
0.26790544 -0.086369 0.28725454 0.25007695 0.34664655 0.28578836 0.11570597 0.17590861
0.28479266 0.38975683 -0.09748316 0.2449282 0.26714596 0.38778487 0.34673214 0.025753876
0.21741605 0.4968517 0.23056135 -0.23733032 0.35159633 -0.0217575 -0.11376999 0.125703
0.25493342 0.2559276 0.24360928 0.019722698 0.2174603 0.11193381 0.11978117 0.18608381
0.17500877 -0.07382671 -0.099868335 -0.38247785 0.19769049 -0.12241375 -0.18006797 0.01384529
-0.0054395045 0.00369766 -0.02535887 -0.012697287 -0.15744397 -0.31355232 -0.110448 0.08763672
-0.085624844 -0.15118064 0.18795988 0.38656935 -0.35751802 0.24689402 0.28818297 -0.20311302
-0.0022023055 0.20635203 0.3448787 -0.090767734 0.041640587 0.42886898 0.02267192 -0.04126734
0.027994769 -0.010571862 -0.027105812 -0.2519756 -0.031534985 0.34930047 0.32146326 0.16368136
-0.03459023 0.18712772 0.09766439 -0.23764479 -0.06467 0.09100023 0.12884964 -0.16677487
-0.010080315 -0.07073918 0.048999846 -0.10709198 -0.16139914 -0.086550385 -0.037832703 -0.25894147
00000000: 51d0 80bd 3bc4 62be f0f5 14be dc2f 453d
00000010: 6ff4 0fbe 421d 67be 4023 8f3d 66ce 10be
00000020: 3431 98be 4652 8cbe bc22 27be f5cd 12be
00000030: 6105 63be 36a4 e7bd b5cf 5bbe e2b2 0fbe
00000040: 8b8b 82be bb8f 59be 4cf8 56be aa01 123c
00000050: 3a26 3abd d660 2ebe 53f9 01be 6cf8 00be
00000060: 7fd2 7ebe 7b17 51be 40fb e83d 8703 45be
00000070: d593 45bc e4e3 2c3e d917 d2bd cb3b 47be
00000080: 7153 07be 8d0d 6ebe 8136 8dbe 7a3c 21be
00000090: a9b6 5cbe c054 96bd 4d3a 3fbc 4d4e 493d
000000a0: 6650 96bd a69f 45be c05a 82be 1402 303c
000000b0: 8e30 12be a669 70bd 465f 9cbe a74c 32be
000000c0: 824c 3fbe c76f 32be 100f 4abe 12ec 88be
000000d0: 4267 5dbe f5b4 c8bd e7bf 83be c383 afbc
000000e0: 9e3c 203d ab72 dfbe 22a2 063c 465b 0bbe
000000f0: 44ac 2abd 243e 843d 4bf8 923d 2ca8 4ebe
00000100: a49a afbe 8162 cabd d2ac cbbc 280b 45be
00000110: 3bb8 4abe 44f4 973e 6cf6 8cbe 065b 19be
00000120: e2aa f2bd 9b0a 39bd 3e34 68be e123 2ebd
00000130: 7051 b0bd 936f b4bd d755 823e 1a37 a73d
00000140: b67d b1bd f76e d33c 0550 0b3d b3a7 bebc
00000150: f27e 61be 6c6e 043e f2c5 a9bd be03 473e
00000160: b7e4 54be bd03 c6bd 9ff9 7ebe 34b1 69be
00000170: ea9a 00be 18c7 53be 2613 1bbe b5d0 2cbe
00000180: 9b56 1abe 8135 e3bd 2b9d 323e 141b a9bd
00000190: d705 a93e 8876 623e 7d28 363e eca7 1e3e
000001a0: 355f 30bd 6a0c bb3e e35f 6e3e 73fa 983e
000001b0: 05fb 1b3e e802 8f3e bf06 123e 1ef6 0abe
000001c0: 2572 de3d 95c0 223d f765 e43e 3a65 b23e
000001d0: 1548 673e 5df0 863e 0146 8cbd 3faa 1c3e
000001e0: 71d4 e1bd 9b14 913e e5be 383e c6f5 dc3e
000001f0: 203e 943d 8c30 b43d 0eec 453e 00b0 8fbd
00000200: 1f73 83be 82f9 943e 220f bb3e 9859 913e
00000210: 9cd9 9e3e ea20 993e aab0 ef3d b3e0 fb3e
00000220: f867 d93e fc94 0b3e 3f40 dd3d e4d7 af3e
00000230: 5ed6 0bbe 21fb 70be bf4c ab3e c274 be3d
00000240: a25a d23e 4604 b23e 79e9 6b3e ba7a a83e
00000250: 593e 8ebd 0c45 683e 1f99 973e db62 363e
00000260: c5da eb3d 482d 7b3e 322c ba3e 0102 3e3e
00000270: c2c0 f03e 6090 a43e c502 953c 04bb 123e
00000280: a312 bb3e 4127 003f 2e0d 8e3e 7634 853e
00000290: 8fc4 6e3e 2c4f f7bb 6f51 993e 546f 8e3e
000002a0: e72a 893e 3be2 b0bd 0713 933e 160a 803e
000002b0: a87b b13e da52 923e 40f7 ec3d 6321 343e
000002c0: 58d0 913e 358e c73e 40a5 c7bd 75ce 7a3e
000002d0: 5bc7 883e bd8b c63e e086 b13e cbf9 d23c
000002e0: 50a2 5e3e 5963 fe3e 4618 6c3e b806 73be
000002f0: 6f04 b43e c93c b2bc 3e00 e9bd 4ab8 003e
00000300: a286 823e f108 833e b674 793e 7f91 a13c
00000310: eaad 5e3e 8e3d e53d d44f f53d c18c 3e3e
00000320: 8035 333e 7532 97bd c587 ccbd 23d4 c3be
00000330: 606f 4a3e 0fb4 fabd bd63 38be 5bd7 623c
00000340: df3d b2bb 7154 723b 68bd cfbc 4808 50bc
00000350: fe38 21be ee89 a0be 9032 e2bd e17a b33d
00000360: 145c afbd 19cf 1abe 8e78 403e 6bec c53e
00000370: 9a0c b7be c9d1 7c3e b88c 933e dcfc 4fbe
00000380: 8e54 10bb f24d 533e f193 b03e 6fe4 b9bd
00000390: 528f 2a3d b794 db3e 76ba b93c f107 29bd
000003a0: 4955 e53c 9a35 2dbc 020d debc f202 81be
000003b0: d42a 01bd 83d7 b23e d596 a43e 169c 273e
000003c0: 7cae 0dbd 699e 3f3e 4504 c83d 2859 73be
000003d0: b471 84bd 545e ba3d 29f1 033e 08c7 2abe
000003e0: e827 25bc b4df 90bd 10b4 483d 0a53 dbbd
000003f0: d145 25be 5441 b1bd 77f6 1abd fa93 84be

dense_output.0.weight f4 [100, 100]
0.030999444 0.05702614 -0.06847378 0.09265692 -0.10410601 0.054102957 -0.00027445308 -0.074681014
0.14431739 -0.01611555 0.061766338 0.0759447 0.039025854 -0.024426023 0.074494705 0.054430194
0.04568321 0.025398526 0.037054736 -0.12436976 0.05041439 -0.026378974 -0.047871042 -0.026603676
0.029447634 -0.05841399 0.002779027 0.02667946 0.029092602 0.014398967 0.1664165 -0.060004707
-0.14214885 -0.0010673623 -0.008653128 -0.025866557 -0.046194673 -0.13186865 0.07543629 0.036195405
0.058752116 -0.06043445 -0.1322019 -0.0013125776 -0.067156635 -0.065011136 0.022978125 0.017380754
-0.035784513 0.10798901 -0.0028873787 0.06600235 0.062594645 0.011523121 0.07482805 0.022923442
0.06676817 -0.004724867 0.0052665425 -0.020849263 0.03801774 0.10360041 -0.014135801 -0.007760559
0.06950557 0.01769827 0.01086663 -0.049659528 -0.023713797 -0.06662751 -0.14409466 0.0028421825
-0.080838375 0.027376514 0.10991912 -0.047320537 -0.006664908 0.00975405 0.0730115 0.061986662
0.020695275 0.028274966 -0.060491875 -0.07747204 0.0495563 0.13797161 0.011031355 0.05429425
0.084088095 -0.06655641 0.013550142 0.010404307 -0.05342829 0.07042503 0.16338605 0.046517294
0.032853052 0.031769767 -0.001912746 0.14123476 0.01020188 0.006499382 -0.04175141 0.09022427
0.0048092264 0.052440237 0.04310934 -0.02415958 -0.0068850573 0.056049615 0.062693484 -0.030341705
0.040773444 -0.02601726 0.017194517 0.015213269 0.017059235 -0.014368164 0.019164234 -0.073878676
0.01733037 -0.054075472 -0.06544949 0.018623505 0.01677147 -0.02208871 0.02915154 0.008077922
0.003993713 -0.009904572 0.010204764 0.010982395 -0.01417922 -0.024599453 -0.0373851 0.00081943686
-0.025545675 -0.07616833 0.06587769 0.036330197 0.04020888 -0.029032886 -0.033380654 0.021492336
-0.014942299 -0.024400804 -0.028199958 0.009707234 -0.05629743 -0.027221268 0.018344665 0.0022508744
0.023296116 0.029557426 -0.0018520465 0.06215913 0.062287442 -0.031003973 0.010113111 -0.03399266
-0.044384327 0.07383069 0.03628966 0.0010713717 0.02484658 -0.0134196505 0.013698938 0.012865688
0.0032189444 -0.028753605 0.0030476544 -0.0007150107 -0.048381202 0.04999984 0.06473064 -0.0051881266
0.02260015 0.0029766145 0.04291694 0.057690755 0.055904087 0.016398285 -0.014925028 -0.011976635
0.03008971 0.04620096 0.0151949385 0.026710762 0.07123076 -0.0012349557 0.04150523 -0.0019155294
0.010163502 -0.026473083 0.03616329 0.012497182 0.007332027 0.0003080019 0.02665479 0.04844032
-0.008433091 -0.018725375 -0.028403929 0.06298227 -0.011609282 0.07530507 0.006383824 0.026054557
0.023874924 0.02073455 0.027515104 -0.028360873 0.0016738866 -0.0040693106 -0.0078007625 0.010029689
-0.000661222 -0.03377652 -0.015896672 -0.046803545 0.03604156 -0.030074818 -0.04104208 -0.021210706
-0.03561648 -0.004419029 0.009592063 0.031422634 -0.0142464265 0.018393967 0.0011232523 0.0070612393
-0.0513702 0.009063871 -0.03084733 -0.009440775 0.02461169 -0.041981265 0.00849158 0.088433236
-0.0109086605 -0.013473408 -0.03450088 0.025686665 0.012658953 -0.014372332 -0.014155859 -0.056048803
-0.018388184 0.015984314 -0.0028636197 0.027276821 -0.013194154 0.009478653 -0.0017790161 0.050389413
00000000: 8cf2 fd3c 3e94 693d fb3b 8cbd e9c2 bd3d
00000010: 8835 d5bd 109b 5d3d 78e4 8fb9 5cf2 98bd
00000020: f0c7 133e c204 84bc b3fe 7c3d e588 9b3d
00000030: 93d9 1f3d 1519 c8bc ae90 983d 32f2 5e3d
00000040: 511e 3b3d 9210 d03c b5c6 173d 93b5 febd
00000050: 527f 4e3d b818 d8bc 6d14 44bd f4ef d9bc
00000060: 2a3c f13c 8243 6fbd 5620 363b e28e da3c
00000070: 9c53 ee3c a5e9 6b3c 1669 2a3e 7fc7 75bd
00000080: 788f 11be bce6 8bba d9c5 0dbc 1ae6 d3bc
00000090: a036 3dbd 9308 07be 577e 9a3d a241 143d
000000a0: 0fa6 703d 1d8a 77bd ef5f 07be cc0a acba
000000b0: 6b89 89bd 8f24 85bd 9f3c bc3c 1562 8e3c
000000c0: c892 12bd 5829 dd3d 2d3a 3dbb 3d2c 873d
000000d0: 9f31 803d 79cb 3c3c 733f 993d f1c9 bb3c
000000e0: c0bd 883d 0fd3 9abb f692 ac3b 13cc aabc
000000f0: 7db8 1b3d 742c d43d d999 67bc 4a4c febb
00000100: f058 8e3d f6fb 903c f309 323c ca67 4bbd
00000110: 7043 c2bc 0174 88bd 8d8d 13be e943 3a3b
00000120: 978e a5bd b644 e03c 471d e13d 2ed3 41bd
00000130: 4d65 dabb 73cf 1f3c 0e87 953d bae5 7d3d
00000140: 2389 a93c e7a0 e73c 54c6 77bd a9a9 9ebd
00000150: 8cfb 4a3d 6e48 0d3e dbbc 343c a663 5e3d
00000160: 6136 ac3d ba4e 88bd 6a01 5e3c d476 2a3c
00000170: 9fd7 5abd 003b 903d ac4e 273e eb88 3e3d
00000180: ec90 063d 0421 023d 1bb5 faba d89f 103e
00000190: c925 273c c5f8 d43b 8703 2bbd 81c7 b83d
000001a0: b796 9d3b 93cb 563d 6b93 303d 50ea c5bc
000001b0: 0c9c e1bb 4894 653d 7165 803d 2b8f f8bc
000001c0: 0e02 273d 2622 d5bc 84db 8c3c 1341 793c
000001d0: cfbf 8b3c 7368 6bbc 50fe 9c3c b44d 97bd
000001e0: 6cf8 8d3c 3e7e 5dbd 620a 86bd 5290 983c
000001f0: 5264 893c 62f3 b4bc 36cf ee3c 4359 043c
00000200: b1dd 823b c946 22bc e231 273c 81ef 333c
00000210: f64f 68bc cb84 c9bc 1e21 19bd 7acf 563a
00000220: 2a45 d1bc 24fe 9bbd e2ea 863d f9ce 143d
00000230: 11b2 243d 60d6 edbc 27ba 08bd b210 b03c
00000240: 8bd0 74bc 32e4 c7bc 9903 e7bc 170b 1f3c
00000250: 2298 66bd 23ff debc 8d47 963c 6883 133b
00000260: 7fd7 be3c 6a22 f23c 5ec0 f2ba 929a 7e3d
00000270: 1e21 7f3d 0bfc fdbc 76b1 253c e33b 0bbd
00000280: 57cc 35bd 8b34 973d 77a4 143d 456d 8c3a
00000290: 0e8b cb3c 18de 5bbc 8371 603c 9bca 523c
000002a0: edf4 523b ae8c ebbc 28bb 473b 8e6f 3bba
000002b0: 5e2b 46bd a2cc 4c3d 7f91 843d 2901 aabb
000002c0: f323 b93c 4e13 433b acc9 2f3d 244d 6c3d
000002d0: affb 643d b255 863c 1b88 74bc a639 44bc
000002e0: b27e f63c 383d 3d3d 31f4 783c 87d0 da3c
000002f0: 6fe1 913d 3dde a1ba 6301 2a3d 8012 fbba
00000300: d184 263c 14de d8bc f51f 143d fbc0 4c3c
00000310: 8041 f03b 517b a139 255b da3c 5b69 463d
00000320: f32a 0abc f565 99bc 5baf e8bc d9fc 803d
00000330: dc34 3ebc 8b39 9a3d 662f d13b 5e70 d53c
00000340: 5895 c33c 81db a93c 5b67 e13c 1055 e8bc
00000350: 5066 db3a da57 85bb 8a9d ffbb 9153 243c
00000360: db55 2dba 4059 0abd bd39 82bc 13b5 3fbd
00000370: 51a0 133d 775f f6bc bd1b 28bd 13c2 adbc
00000380: 96e2 11bd 81cd 90bb 0728 1d3c 05b5 003d
00000390: d869 69bc f2ae 963c 183a 933a f861 e73b
000003a0: 8f69 52bd a180 143c 8ab3 fcbc 7bad 1abc
000003b0: 749e c93c 8cf4 2bbd 4520 0b3c 7c1c b53d
000003c0: 3dba 32bc 92bf 5cbc cb50 0dbd d76c d23c
000003d0: 7f67 4f3c ee79 6bbc faed 67bc 6e93 65bd
000003e0: d1a2 96bc 89f1 823c 91ab 3bbb a473 df3c
000003f0: 4b2c 58bc 5a4c 1b3c e02d e9ba 2165 4e3d

dense_output.0.bias f4 [100]
-0.15670815 -0.069938004 -0.09358002 -0.034571975 -0.14261891 -0.18896902 -0.08748866 -0.13351907
-0.11603769 -0.04908604 -0.28415528 -0.38283607 -0.13129531 -0.2748817 -0.08868729 -0.22250898
-0.08243352 -0.11120882 -0.16710807 -0.08497106 -0.10849148 -0.11931991 -0.1681132 -0.23788513
-0.15437864 -0.13426393 -0.103034906 -0.16952021 -0.18428415 -0.09464933 -0.22245504 -0.12819836
-0.106945165 -0.15919729 -0.0776091 -0.111888476 -0.07187424 -0.036775418 -0.04449079 -0.12255093
-0.106145576 -0.2421861 -0.061855733 -0.13210739 -0.19071257 0.33579573 -0.13312171 -0.17357
-0.08096011 -0.11525469 -0.09297516 -0.13655373 -0.05365022 -0.1489259 -0.13296996 -0.19061929
-0.09959504 -0.13481754 -0.25990346 -0.08492275 -0.1781977 -0.102301225 -0.13117605 -0.1008198
-0.08082776 -0.13781643 -0.07916653 -0.18224196 -0.19155507 -0.0791488 -0.05150227 -0.13467291
-0.14406937 -0.13893072 0.19463733 -0.04769718 -0.06844357 -0.07891795 -0.2234668 -0.116951786
-0.12163478 -0.07037 -0.14654109 -0.1926341 -0.14584634 -0.2157488 -0.33787024 -0.22162107
-0.060670223 -0.12367377 -0.109408274 -0.1955505 -0.12529537 -0.08310836 -0.2909263 -0.04435872
-0.15854013 -0.12635836 -0.10923133 -0.16612689
00000000: 1a78 20be a83b 8fbd e2a6 bfbd 589b 0dbd
00000010: b10a 12be 1881 41be 412d b3bd 39b9 08be
00000020: 2ba5 edbd 720e 49bd cd7c 91be 1703 c4be
00000030: 4772 06be 4bbd 8cbe afa1 b5bd 65d9 63be
00000040: e8d2 a8bd 73c1 e3bd 611e 2bbe 4f05 aebd
00000050: c830 debd ff5d f4bd de25 2cbe 2998 73be
00000060: 6f15 1ebe 7c7c 09be f703 d3bd b596 2dbe
00000070: fcb4 3cbe 82d7 c1bd 41cb 63be 6e46 03be
00000080: 1106 dbbd 9d04 23be 85f1 9ebd c925 e5bd
00000090: cd32 93bd d2a1 16bd fa3b 36bd fbfb fabd
000000a0: da62 d9bd a2ff 77be 705c 7dbd 2947 07be
000000b0: 284a 43be 6bed ab3e 0f51 08be 56bc 31be
000000c0: 6ace a5bd a70a ecbd c369 bebd bed4 0bbe
000000d0: 55c0 5bbd 0880 18be 4729 08be b431 43be
000000e0: 7cf8 cbbd 9c0d 0abe 1112 85be fbeb adbd
000000f0: 7579 36be 4e83 d1bd 0453 06be 9c7a cebd
00000100: 0689 a5bd c01f 0dbe 1022 a2bd a39d 3abe
00000110: 0327 44be c418 a2bd 0bf4 52bd b2e7 09be
00000120: ec86 13be db43 0ebe 024f 473e 1e5e 43bd
00000130: 242c 8cbd bc9f a1bd 7bd4 64be 6b84 efbd
00000140: a81b f9bd 261e 90bd de0e 16be e041 45be
00000150: be58 15be 41ed 5cbe 54fd acbe a2f0 62be
00000160: 5781 78bd ac48 fdbd 7211 e0bd 643e 48be
00000170: 6e4d 00be b734 aabd 4bf4 94be 7db1 35bd
00000180: 5858 22be 1664 01be adb4 dfbd 2b1d 2abe

dense_output.3.weight f4 [9, 100]
0.056878604 0.000776479 -0.015592825 0.014987214 -0.033962026 0.01748007 0.0024669985 0.018855073
0.0061013107 0.02257771 -0.012588892 -0.19556463 0.025921278 0.11359764 -0.022091288 0.047489326
0.025050135 0.01480434 0.0036801395 0.005548976 0.014989616 0.005026911 -0.006487426 -0.14611322
0.035776112 0.048950776 -0.0074016075 0.027696341 0.04484414 0.042223647 0.0047057164 0.013093198
0.07884519 -0.008963821 -0.0011618525 0.018817356 0.0013736399 -0.057036 0.069921605 -0.039477628
0.0014299584 0.194326 0.019206434 -0.021934677 -0.021217093 0.102529556 0.0031184333 0.003419288
-0.0015678975 -0.012939314 0.006650222 0.012865356 -0.0010664307 0.020537123 -0.010126119 0.018259209
0.0071845795 0.0064209946 -0.040637553 -0.0072496636 -0.03853417 0.012321075 -0.0059594293 -0.02519036
-0.0030276012 -0.00223549 0.020809732 0.10252374 -0.025974227 -0.009592433 -0.0027311442 0.003200116
0.006142153 -0.023697132 0.044918697 0.0010286896 -0.018375037 -0.0066396263 -0.034760408 0.066552825
-0.037626162 0.0011810715 0.038573794 -0.044541217 -0.0015462259 0.0043643923 0.11904893 0.1006115
-0.004582717 0.0027685182 0.029569412 0.014856352 -0.010780373 0.011739825 -0.10085651 0.0050203237
-0.024992267 0.026920801 -0.00086693995 0.024920134 -0.035291865 0.0077287015 -0.017570905 -0.007597332
0.0041776644 -0.0014115601 -0.008144219 0.004327308 0.022426255 0.023176363 -0.002789878 -0.18678916
-0.01888324 0.11632772 -0.008886888 0.15548347 -0.0013003139 -0.004918389 -0.015848154 -0.0072858124
-0.010573446 0.0049813394 0.009469323 -0.13839746 0.00469744 0.041540984 0.03981753 0.022467788
0.057647515 0.03873045 0.005034146 0.0024226233 0.07917127 -0.015440647 0.004168136 0.017671537
-0.029122228 -0.056732528 0.06938147 0.027599202 -0.0057721385 0.09340415 0.022326227 0.03989615
-0.034859084 0.10236978 0.0024671424 0.020476194 -0.0009605528 -0.018395307 -0.04925171 0.027526205
-0.00038973553 0.07894644 -0.0011516575 0.006904968 0.0060538934 -0.0066295257 -0.054681104 -0.028337054
-0.032853544 -0.039989695 0.012157192 -0.008893946 -0.007963752 0.02815857 0.011403541 0.093597285
-0.023053683 -0.0080706235 -0.011613785 0.052389525 0.011961242 -0.008667241 0.045829773 -0.002101846
-0.0057288595 -0.02041732 -0.023710309 0.060654152 -0.029095562 0.005070549 0.01373454 0.009541851
-0.014861511 -0.015165019 0.13633974 0.10405196 -0.010508474 0.024476564 0.016981099 0.023140997
0.0036456268 -0.005474367 -0.0938141 0.0018328923 0.015433582 0.00541526 -0.0031263758 0.007898702
-0.022310661 0.010199681 -0.0045574848 0.002278384 0.0005639774 0.0061327354 -0.0026726706 -0.0037185056
0.0033131796 0.021310898 -0.021009011 -0.16719039 0.0018433998 0.111999504 0.0071975286 0.1901762
-0.023144096 0.015768727 -0.02967307 0.0015070091 0.007942197 -0.0046497933 -0.020458201 -0.12417132
0.0076243025 0.024896061 0.038747687 0.014792821 0.023270395 0.049362443 0.02897838 -0.008844039
0.08251808 0.033070583 0.012166204 0.012008068 0.003545877 -0.05658193 0.075834975 0.016305292
-0.004944859 0.0048915637 0.009808989 -0.0028353028 -0.03176679 0.10233091 0.005769762 -0.0019712034
-0.014325502 -0.013420688 0.002218206 0.004081615 0.011318515 0.022743007 -0.016880961 0.03190841
00000000: 8af9 683d a08c 4b3a 0c79 7fbc ee8c 753c
00000010: c41b 0bbd 5d32 8f3c 5ead 213b f475 9a3c
00000020: 81ed c73b e4f4 b83c a441 4ebc 1842 48be
00000030: dc58 d43c e1a5 e83d caf8 b4bc 2b84 423d
00000040: f135 cd3c e78d 723c 7f2e 713b 2fd4 b53b
00000050: 0297 753c c9b8 a43b 7994 d4bb b49e 15be
00000060: f989 123d 9c80 483d 2f89 f2bb 70e3 e23c
00000070: 7dae 373d b4f2 2c3d 6932 9a3b da84 563c
00000080: 9679 a13d fedc 12bc 4d49 98ba db26 9a3c
00000090: b50b b43a 959e 69bd 0f33 8f3d 4bb3 21bd
000000a0: 716d bb3a 65fd 463e d056 9d3c 5ab0 b3bc
000000b0: 78cf adbc 04fb d13d a15e 4c3b 2216 603b
000000c0: e981 cdba 6bff 53bc 1bea d93b 37c9 523c
000000d0: 7ac7 8bba 783d a83c 05e8 25bc 5694 953c
000000e0: 9f6c eb3b 3567 d23b 9073 26bd 968e edbb
000000f0: 01d6 1dbd 56de 493c 5147 c3bb 045c cebc
00000100: b86a 46bb 4c81 12bb 2c79 aa3c f7f7 d13d
00000110: e7c7 d4bc 9529 1dbc fffc 32bb 0ab9 513b
00000120: 1d44 c93b 7d20 c2bc abfc 373d 18d5 863a
00000130: 3f87 96bc 3991 d9bb ee60 0ebd d94c 883d
00000140: e41d 1abd 2fce 9a3a 8eff 1d3d da70 36bd
00000150: bbaa caba 2d03 8f3b edcf f33d 670d ce3d
00000160: 9e2a 96bb 0770 353b 8d3b f23c 0e68 733c
00000170: 29a0 30bc 6558 403c dc8d cebd 8781 a43b
00000180: 95bc ccbc 0389 dc3c 5b43 63ba 4f25 cc3c
00000190: 348e 10bd 0c41 fd3b dcf0 8fbc 0af3 f8bb
000001a0: cae4 883b 1904 b9ba 556f 05bc 17cc 8d3b
000001b0: 44b7 b73c 5bdc bd3c 63d6 36bb a845 3fbe
000001c0: 06b1 9abc 3a3d ee3d 4f9a 11bc 0f37 1f3e
000001d0: 4b6f aaba 702a a1bb fdd3 81bc d3bd eebb
000001e0: 3f3c 2dbc 813a a33b 3825 1b3c 10b8 0dbe
000001f0: fcec 993b e126 2a3d b517 233d 5e0e b83c
00000200: cd1f 6c3d d2a3 1e3d 7af5 a43b e0c4 1e3b
00000210: 8c24 a23d c4fa 7cbc dc94 883b e6c3 903c
00000220: bd91 eebc 5e60 68bd df17 8e3d b917 e23c
00000230: 3524 bdbb ad4a bf3d 7ee5 b63c 256a 233d
00000240: 66c8 0ebd 3fa7 d13d c8af 213b b1bd a73c
00000250: 9bcd 7bba c1b1 96bc 29bc 49bd a37e e13c
00000260: 6b55 ccb9 acae a13d 37f3 96ba 1243 e23b
00000270: bd5f c63b 7e3c d9bb 4bf9 5fbd 1c23 e8bc
00000280: 7091 06bd 3ccc 23bd f62e 473c eab7 11bc
00000290: 667a 02bc cdac e63c ebd5 3a3c efaf bf3d
000002a0: 14db bcbc a63a 04bc bf47 3ebc 6696 563d
000002b0: 16f9 433c 0b01 0ebc 00b8 3b3d 20bf 09bb
000002c0: 28b9 bbbb 3942 a7bc 1f3c c2bc 7d70 783d
000002d0: d159 eebc d926 a63b d606 613c 6c55 1c3c
000002e0: b27d 73bc b376 78bc a59c 0b3e 3219 d53d
000002f0: bc2b 2cbc 1383 c83c f21b 8b3c 3092 bd3c
00000300: 78eb 6e3b 5262 b3bb 9b21 c0bd a93d f03a
00000310: 22dd 7c3c 7e72 b13b e2e3 4cbb 8f69 013c
00000320: d9c4 b6bc 901c 273c f456 95bb f150 153b
00000330: e2d7 133a 1df5 c83b f927 2fbb 2cb2 73bb
00000340: ee21 593b 3194 ae3c 171b acbc f533 2bbe
00000350: 3c9e f13a ff5f e53d 3fd9 eb3b 8dbd 423e
00000360: b098 bdbc 6b2d 813c f014 f3bc d686 c53a
00000370: fd1f 023c 4b5d 98bb f597 a7bc 884d febd
00000380: 49d5 f93b d3f2 cb3c e5b5 1e3d 975d 723c
00000390: 8ea1 be3c 4630 4a3d 1164 ed3c 97e6 10bc
000003a0: 3dff a83d 0575 073d c254 473c 7dbd 443c
000003b0: f261 683b 74c2 67bd 5e4f 9b3d ad92 853c
000003c0: 7c08 a2bb 6949 a03b e2b5 203c 7dd0 39bb
000003d0: e51d 02bd de92 d13d 4610 bd3b 4e2f 01bb
000003e0: 83b5 6abc 72e2 5bbc 525f 113b 11bf 853b
000003f0: 4b71 393c 8b4f ba3c f149 8abc 65b2 023d

dense_output.3.bias f4 [9]
0.09880491 0.099420495 0.099582136 0.09621871 0.09630719 0.09657295 0.09273093 0.09398694
0.09356778
00000000: 3b5a ca3d f99c cb3d b8f1 cb3d 510e c53d
00000010: b43c c53d 0ac8 c53d b7e9 bd3d 3a7c c03d
00000020: 77a0 bf3d

exp_avg f4 [4, 1, 3, 3, 3]
-0.0002521756 -0.00027284192 -0.0002012923 -0.00045074796 -0.00027355846 -0.00056083297 -0.00024122532 -0.00045886752
-0.00067663647 -0.0004021583 -0.00035498512 -0.00029746993 -0.0005444735 -0.00038676808 -0.00077557104 -0.0006545071
-0.00068720314 -0.0006935039 -0.00038878416 -0.00028138148 -0.00026144093 -0.0006103759 -0.00043837712 -0.0007022945
-0.0008414641 -0.00058265944 -0.0005253716 -0.00068942294 -0.0013897992 -0.0016350632 0.0005991176 -0.0007555041
-0.0017050547 9.951111e-05 -0.0004849411 -0.0015716631 -0.00084722263 -0.001425948 -0.0015802131 0.0003224013
-0.0009909924 -0.0017550398 4.3058528e-05 -0.0006604633 -0.0017793863 -0.00096154015 -0.0014645571 -0.0013386199
4.8515252e-05 -0.0011868436 -0.0015840364 -6.841785e-05 -0.00082947966 -0.0017087529 0.001672751 0.002711146
0.0024367033 -0.0006132212 0.0007243099 0.0013745028 -0.0028819588 -0.0021938952 -0.00089841796 0.001726582
0.0029020498 0.0022356852 -0.00059497275 0.0007805653 0.0009117347 -0.0028005387 -0.001961838 -0.0012672837
0.0018856144 0.0029212986 0.0021856797 -0.00039152455 0.00080298464 0.000498802 -0.002593821 -0.0017796782
-0.0014505486 0.00090958824 0.0005212014 0.0009826759 0.00035925096 0.00010468317 2.2648106e-05 0.0006521619
0.00044591492 -3.7344496e-05 0.0006261968 0.00044441983 0.0008393378 0.00013038423 -0.00014863872 -0.00031664644
0.0006010309 0.00017560253 -0.00040174826 0.00059737155 0.00058233034 0.0008455251 0.00024303565 -0.0002691873
-0.0002609495 0.0008594143 -0.00014316106 -0.000321991
00000000: 7036 84b9 390c 8fb9 fe11 53b9 5e52 ecb9
00000010: 656c 8fb9 dd04 13ba 6ef1 7cb9 2894 f0b9
00000020: 4e60 31ba c6d8 d2b9 4c1d bab9 bdf5 9bb9
00000030: 00bb 0eba 22c7 cab9 b14f 4bba 3a93 2bba
00000040: 6c25 34ba 42cc 35ba bad5 cbb9 6286 93b9
00000050: 0212 89b9 a201 20ba fbd5 e5b9 301a 38ba
00000060: b395 5cba 9dbd 18ba 17b9 09ba 64ba 34ba
00000070: ec29 b6ba 9e4f d6ba 1a0e 1d3a 060d 46ba
00000080: 247c dfba 9fb0 d038 b13f feb9 4300 ceba
00000090: 2618 5eba e0e6 baba 271f cfba f807 a939
000000a0: 30e4 81ba 5d09 e6ba be99 3438 f122 2dba
000000b0: 4c3a e9ba de0f 7cba 62f6 bfba a174 afba
000000c0: db7c 4b38 dd8f 9bba 719f cfba 8e7b 8fb8
000000d0: 7071 59ba 3cf8 dfba 3640 db3a 7bad 313b
000000e0: 19b1 1f3b 94c0 20ba 9ddf 3d3a a928 b43a
000000f0: 3fdf 3cbb 74c7 0fbb cf83 6bba 7a4e e23a
00000100: 5130 3e3b 9384 123b f2f7 1bba da9e 4c3a
00000110: 7b01 6f3a 3e89 37bb 2e92 00bb fc1a a6ba
00000120: b826 f73a 4273 3f3b 9f3d 0f3b 8945 cdb9
00000130: 637f 523a 09c2 023a 18fd 29bb 1744 e9ba
00000140: 5620 beba 6f71 6e3a 3ca1 083a 22cd 803a
00000150: d959 bc39 5989 db38 70fc bd37 d8f5 2a3a
00000160: b0c9 e939 59a2 1cb8 5b27 243a 0501 e939
00000170: 0207 5c3a c0b7 0839 e7db 1bb9 9103 a6b9
00000180: 808e 1d3a f221 3839 bda1 d2b9 ed98 1c3a
00000190: 87a7 183a 3ba6 5d3a 63d7 7e39 b521 8db9
000001a0: 0dd0 88b9 514a 613a 811d 16b9 e7d0 a8b9

exp_avg_sq f4 [4, 1, 3, 3, 3]
4.2748256e-05 4.3849206e-05 4.360191e-05 5.4258573e-05 4.3764026e-05 3.0136716e-05 6.951929e-05 5.4048607e-05
3.2552758e-05 4.256341e-05 4.430448e-05 4.4259003e-05 5.415938e-05 4.32524e-05 2.9797664e-05 7.018307e-05
5.2593245e-05 3.1277e-05 4.246656e-05 4.426853e-05 4.4085213e-05 5.3155163e-05 4.2139807e-05 2.9732442e-05
6.878138e-05 4.9875158e-05 3.0404419e-05 4.9847324e-05 5.1277493e-05 6.0746028e-05 3.5509936e-05 3.5424404e-05
4.320412e-05 1.4159151e-05 1.4536599e-05 2.4121864e-05 5.0210707e-05 5.218971e-05 6.261359e-05 3.600161e-05
3.6100137e-05 4.5093548e-05 1.3471245e-05 1.4591264e-05 2.555747e-05 5.0313905e-05 5.290993e-05 6.371396e-05
3.629249e-05 3.6774603e-05 4.6768168e-05 1.3295694e-05 1.502864e-05 2.710447e-05 0.00013972723 0.00014121088
0.00015240937 0.00012904979 0.0001312162 0.00014306065 0.00012787181 0.0001337553 0.00014419093 0.0001357469
0.00013441883 0.00014772144 0.00012541191 0.00012451447 0.00013847624 0.00012693052 0.00013026371 0.00014187142
0.0001322129 0.0001295134 0.00014413036 0.00012326146 0.00012066595 0.00013533393 0.00012593965 0.00012748413
0.00013956171 0.00010576092 6.195946e-05 5.076972e-05 8.765531e-05 5.953122e-05 5.6769655e-05 8.144311e-05
6.706491e-05 6.371642e-05 0.00010758303 6.003966e-05 5.285684e-05 8.9171845e-05 5.8753678e-05 5.8918293e-05
8.3624305e-05 6.752049e-05 6.583278e-05 0.000104954954 5.81676e-05 5.4103348e-05 8.812026e-05 5.7549674e-05
5.9855443e-05 8.367339e-05 6.691002e-05 6.661294e-05
00000000: 974c 3338 baea 3738 32e1 3638 b393 6338
00000010: 448f 3738 1bce fc37 e2ca 9138 40b2 6238
00000020: 4289 0838 1d86 3238 93d3 3938 bea2 3938
00000030: 3129 6338 e969 3538 fff5 f937 402f 9338
00000040: 9197 5c38 6c2f 0338 1f1e 3238 f9ac 3938
00000050: 23e8 3838 ecf2 5e38 46bf 3038 ef69 f937
00000060: b93e 9038 0b31 5138 fe0c ff37 2813 5138
00000070: ca12 5738 8dc9 7e38 81f0 1438 aa94 1438
00000080: 1236 3538 178d 6d37 38e2 7337 4f59 ca37
00000090: 5699 5238 46e6 5a38 6a4f 8338 6f00 1738
000000a0: 3a6a 1738 d422 3d38 8f02 6237 00cd 7437
000000b0: 4064 d637 2508 5338 9beb 5d38 2c9e 8538
000000c0: c438 1838 6e3e 1a38 f028 4438 9210 5f37
000000d0: 8423 7c37 685e e337 be83 1239 0212 1439
000000e0: 14d0 1f39 8a51 0739 1597 0939 8d02 1639
000000f0: 5415 0639 aa40 0c39 f531 1739 4857 0e39
00000100: c8f2 0c39 ace5 1a39 0181 0339 1990 0239
00000110: ef33 1139 a718 0539 6697 0839 52c3 1439
00000120: a1a2 0a39 fdcd 0739 b321 1739 bf3f 0139
00000130: 0a0e fd38 6de8 0d39 ab0e 0439 43ad 0539
00000140: 5057 1239 f6cb dd38 3bf0 8138 92f1 5438
00000150: 96d3 b738 29b1 7938 f41b 6e38 70cc aa38
00000160: 33a5 8c38 7e9f 8538 339e e138 18d3 7b38
00000170: 9ab2 5d38 c501 bb38 486e 7638 091f 7738
00000180: 755f af38 c999 8d38 b40f 8a38 431b dc38
00000190: fcf8 7338 07ed 6238 34cd b838 7e61 7138
000001a0: 4b0d 7b38 cf79 af38 0b52 8c38 8db2 8b38

exp_avg f4 [4]
-0.0013053081 -0.004532432 -0.007756927 4.53434e-05
00000000: df16 abba cc84 94bb d22d febb 1b2f 3e38

exp_avg_sq f4 [4]
0.00037967257 0.0013052888 0.0011121585 0.00049202144
00000000: ca0e c739 3916 ab3a d9c5 913a 00fb 003a
