models/dsec/dsec_half2/dsec_half2_multipixel_even_model.pth (torch, 874086 bytes, 30 tensors)

conv3d.0.weight f4 [4, 1, 3, 3, 3]
00000000: ea26 0abd 9244 9dbd 7a26 0abe e71c bebd
00000010: e9fc 9ebe 69da 29bd 353c 4ebd 0fe1 cdbd
00000020: 71e0 25be b4bb 173e eac6 873e 2dff 4d3e
00000030: 941b 5bbd ea7b 08be 24a4 dc3d 276a d93e
00000040: 5281 8fbc 1628 26be 9cf8 2f3e 09f3 843c
00000050: 0bb6 7e3c e2df a73e 7231 a9be 052d 8b3e
00000060: 28ad bd3e c15e 46bf 17d1 093e 1e22 fb3d
00000070: 0b8b c0bd 46b7 5fbe 8b8a 6bbe 1813 503e
00000080: acdd 89be a1aa c2bd fc65 1bbd 9e5a ddbb
00000090: 936d 123f c4f4 8ebe e88c 903e 3a60 883d
000000a0: c6ef 9abe 8eb4 b53e 7c15 643e 7109 943e
000000b0: 7246 123e 387b 56be 66cc e4bd f0bf 0e3e
000000c0: 2406 e4be fdfd e6bd 968f 10be 41e1 d63d
000000d0: c122 163d 861a f6bc 8146 3cbc 099a 10be
000000e0: 0a6e d73d f044 b63d 4811 9fbe 7165 473e
000000f0: a2a4 6c3e d73e 25be 891a 573e 45e3 193e
00000100: f7f2 8b3e d700 893e 7008 51be 54fe 663e
00000110: 9cb2 773e 8e2e 29bc 5262 703d e0ce 2e3e
00000120: 9491 b4be 0798 e1bc 2c46 78bd fad5 e5be
00000130: d257 87bd 23a6 5fbd 9c85 dabe 930b 8c3d
00000140: 6087 4dbb 2e09 2bbe 0f8b 80be 72c9 98be
00000150: be1c 39be d122 08be a981 72be f689 27be
00000160: 9c3e 71be acf5 a6bd d0f1 9e3d d0e4 303e
00000170: dac5 9e3b 5058 783c 3c06 a5bd 8acd 51bc
00000180: ac23 723d d4d1 353e daad 2fbd f21b a53e
00000190: 7cd0 ad3e 2cdb b83e 8d3f bc3d 26b0 8f3e
000001a0: 3855 903d dba4 b23e 3cbd 553e 1302 fc3e
-0.033728518 -0.076790944 -0.1349124 -0.092828564 -0.3105233 -0.041468058 -0.050350387 -0.10052692
-0.16198899 0.14817697 0.26518947 0.20116873 -0.053493097 -0.1332852 0.10773495 0.424638
-0.01751772 -0.16226229 0.1718468 0.01622917 0.015546332 0.32787997 -0.33045536 0.27182785
0.3704617 -0.77488333 0.13458668 0.12262367 -0.0940152 -0.21847257 -0.23002069 0.20319784
-0.26926935 -0.09505201 -0.037939057 -0.006755187 0.57198447 -0.27921116 0.28232503 0.06658979
-0.30261058 0.35489315 0.2227382 0.28913453 0.14284685 -0.20945442 -0.111717984 0.13940406
-0.44535935 -0.11278913 -0.14117274 0.104921825 0.036654238 -0.030041944 -0.011491419 -0.1412126
0.10519035 0.088998675 -0.31067872 0.1947229 0.23109677 -0.16137253 0.21006216 0.15028103
0.27333805 0.26758453 -0.20413375 0.22557956 0.24189228 -0.010326041 0.058687516 0.17071104
-0.35267317 -0.027538313 -0.060613796 -0.44889814 -0.06608547 -0.0546018 -0.4268006 0.06838145
-0.0031361207 -0.1670272 -0.25106093 -0.2984119 -0.1807737 -0.13294531 -0.23682274 -0.16361222
-0.2355904 -0.08152327 0.07760966 0.17274785 0.004845363 0.015157774 -0.0805783 -0.012805352
0.05911605 0.17755824 -0.042890407 0.32247883 0.33948123 0.36104715 0.09191809 0.28064078
0.07047504 0.348914 0.20872968 0.49220333

conv3d.0.bias f4 [4]
00000000: 4c21 4ebc 817d 37bc 4b72 873b d91b e93b
-0.012581181 -0.011199356 0.004133498 0.0071139154

gru.weight_ih_l0 f4 [300, 100]
00000000: f96f 093f dc14 993d af8f 4abe 2372 bfbd
00000010: 3e1c d63d e79f e83e c824 423e 9012 75bd
00000020: 187f 27be dbc5 de3d 6397 e73e 8249 143e
00000030: 646a c2bd 9a73 04be fb8e 033e 374a ad3e
00000040: 8a1f 333e f0c0 cbbd 36dc 6ebe 78a0 ac3d
00000050: 5534 da3e 076d 903e 562e d1bb 783c 5c3c
00000060: a3d9 a33d 082a f03d 3058 213e 0546 2f3d
00000070: fc6b 2d3e c6e9 f63c 3eb1 d93d aca2 0d3e
00000080: 59a5 183e 41ef 683e 0cff 3d3e 5167 583e
00000090: e04d 083e ca98 e13d 6c04 623e 1d04 573e
000000a0: 17d9 c33e a259 203e ec05 8abd 437f f53c
000000b0: 70e3 e8bd 50e7 8d3e b09d 973e f275 8a3e
000000c0: c80a b53d ad37 553d 2c76 93be af7f 91bc
000000d0: 3f1b 68be f2ed 52be 3286 a1be 004b 8ebe
000000e0: 42d3 f2bd 3a10 b2be 27cd b7be 9378 efbe
000000f0: 3dad 3abe f327 d7bd 2950 2abe 4109 27be
00000100: 46e2 c9be ca48 99be 2d41 2c3d c330 51bd
00000110: 6a9f f8bc 5c67 a1be 38a4 f4be 47a8 7fbd
00000120: 3b6a 6cbd 7dee e3bc b970 09be dd59 193e
00000130: d08a 8abe 18c8 98be fba7 b8be 4b3d 01bf
00000140: 32f0 c23d 8ac2 c5bd 7e33 1bbe 4605 4ebe
00000150: 0272 fdbe 045a 3cbd e099 f2bd 6c70 73be
00000160: 777f 7ebe a0d5 fbbe 6051 143e 2c17 32be
00000170: de1b 90be 26e0 56be 2beb 06bf 13fe 2b3d
00000180: bbda b8bd 00fa afbe a763 cebe a107 e8be
00000190: b536 92be 6a76 37be 80cd 08be 3ab5 adbd
000001a0: d76d e5bd 3cb3 9dbe 0c1b e1bd 0e0c b2bd
000001b0: 1c86 013e 2591 d1bd e266 db3c f952 e73d
000001c0: 72a7 1c3d b411 673e 7d20 c23c 49b3 5cbc
000001d0: a9c3 21ba e740 87bc 9e4e fe3d 0c4a 263d
000001e0: 487e aabc 3ccf 88bc 6125 a3bd ac3b 013d
000001f0: bc37 24be e5ee 593e e471 533e 5100 913e
00000200: 5acb 493e 6809 a43e df5a 9b3c 060a b63d
00000210: d399 d43d 4f96 983e 8acb 873e afb1 8e3e
00000220: 018f 793e dd29 ca3d 4bdf 263e fd00 ca3e
00000230: 4d6f 9f3e f8e4 893e fa7b 8b3e feda 5f3e
00000240: c811 9f3e 64c8 403e 90e8 133e 765b 223e
00000250: 7059 573e bccd e93e 9018 013e fd9f 4c3e
00000260: 5a1f 513e 0c9c d23d 0af6 1c3e 703e ecb9
00000270: 585d 3f3e 52ba 663e 8601 613d 6301 303e
00000280: 2970 073e e50f 493e 1a2a 343e ab9d a73e
00000290: 021c 8e3e 5bd5 d63c f24e 533e cac4 f63d
000002a0: fed8 853e 08fe d03e f556 f03b d29a 423e
000002b0: 8c64 1e3e 4d8d 303e dc11 033f 11e5 703d
000002c0: d259 f83d 2b73 053d b166 003e ef71 9f3d
000002d0: 1e63 de3d b092 133e b584 dd3c 9cf8 b63d
000002e0: 740c cb3c 8599 0d3e 67fc 9e3d 7d07 7e3d
000002f0: 94f4 6e3d c757 033b 974a 8a39 2c92 233b
00000300: dff6 b63c e77f 62bd 23c7 dd3c d9c8 be3d
00000310: 8b94 1cbc 37df 4c3d 5abd 7f3d 8250 a83d
00000320: 4e11 62bc f0d4 5f3c 893d 3c3e b231 6d3e
00000330: 9d4c 0e3e ffe4 e13d b185 d73c d8ec 663e
00000340: f812 3b3e c62b 2f3e d4fa 7c3e 573e 053e
00000350: a9b5 873d 107a 573e 1741 563e 3a23 74bc
00000360: ad0f 933d 50bc 593d 025b 653d f3e3 8cbc
00000370: c275 9c3d 3c30 fbbd 5481 d03d 8953 ee3d
00000380: fd33 a239 977a d63e 54fe ed3e 2752 da3e
00000390: 0765 013f 5dd3 163f c585 343e 42d8 ba3e
000003a0: 0b33 1b3e 40d0 a63e 4bc4 e43e a458 0c3f
000003b0: 1c88 093f 6f26 053f 4819 093f ae75 e63e
000003c0: 8436 003f 2c18 113f 200f 063f 7d92 2a3f
000003d0: 8b11 ec3e b64f 163f 4206 f73e 8b12 0c3f
000003e0: fa04 173f 39dd 513f ec62 903e 9a92 0a3e
000003f0: d691 b23e 2c7d ad3e 7699 e73e 8145 a83e
0.5368648 0.07474682 -0.19781373 -0.09347942 0.104546055 0.45434496 0.18959343 -0.059832156
-0.16357076 0.10877582 0.45232686 0.14481166 -0.09492949 -0.12934723 0.12847511 0.33845684
0.174925 -0.09948909 -0.23326191 0.084290445 0.4261805 0.2820818 -0.0063836975 0.013442151
0.08000495 0.11726767 0.15756297 0.042791385 0.16935724 0.030140769 0.106295094 0.13831586
0.14906825 0.22747518 0.18554324 0.21133162 0.13310957 0.1101547 0.22072 0.20997663
0.38251564 0.15659192 -0.06739411 0.02996791 -0.11371505 0.2771554 0.29612494 0.2704311
0.08839947 0.05205505 -0.28801095 -0.01776108 -0.22666644 -0.20598581 -0.31547695 -0.27791595
-0.118567005 -0.34778005 -0.35898706 -0.46771678 -0.18230148 -0.105056666 -0.16632141 -0.16312124
-0.39430445 -0.29938346 0.042054344 -0.051071893 -0.030349452 -0.3152417 -0.4778154 -0.06241634
-0.057718497 -0.027823681 -0.13421907 0.14975686 -0.2705903 -0.2984016 -0.3606566 -0.5048415
0.0951847 -0.09656246 -0.15156361 -0.20119199 -0.49501044 -0.045984283 -0.118457556 -0.23773354
-0.24853311 -0.4918642 0.14484167 -0.17391652 -0.2814626 -0.20983943 -0.5270259 0.04199035
-0.090260945 -0.34370422 -0.40310404 -0.4531832 -0.28557363 -0.17916265 -0.13359642 -0.08481832
-0.11202591 -0.30800807 -0.10991487 -0.086937055 0.12648815 -0.10232762 0.026782457 0.11295123
0.038245626 0.22565347 0.023697132 -0.013470479 -0.0006170818 -0.01651044 0.12417339 0.04059796
-0.020812169 -0.01670038 -0.07966114 0.03155105 -0.16036886 0.21282537 0.20648915 0.28320554
0.19706479 0.32038426 0.01896423 0.088886306 0.10380902 0.29802176 0.26522475 0.27869937
0.24370958 0.09871266 0.16296117 0.3945388 0.31139603 0.26932502 0.27243024 0.21860883
0.31068254 0.18826443 0.14444184 0.15855202 0.21030211 0.45664775 0.12607026 0.19982906
0.20422116 0.1028367 0.15328231 -0.00045059947 0.18687952 0.22532013 0.054933093 0.17188029
0.1322638 0.1963497 0.17594185 0.3273748 0.27755743 0.026224783 0.20635584 0.12049253
0.26142114 0.4081881 0.007334585 0.19004372 0.15468043 0.17241402 0.51199126 0.058812205
0.12126507 0.032580536 0.12539174 0.07785403 0.10858749 0.14411426 0.027040819 0.08934137
0.024786212 0.13828094 0.07762986 0.06201886 0.058338717 0.0020041333 0.00026376985 0.0024958951
0.022334514 -0.05529776 0.027072495 0.093156524 -0.0095569 0.05001756 0.06243644 0.08218481
-0.013798071 0.013661608 0.18382849 0.23163489 0.13896413 0.11030006 0.026308866 0.22551286
0.18268955 0.17106542 0.24705058 0.13012062 0.06626446 0.21042657 0.20923267 -0.014900977
0.07180724 0.053158104 0.055994995 -0.017198538 0.07639648 -0.12265059 0.101809174 0.11637027
0.00030937782 0.41890404 0.464831 0.42640802 0.5054478 0.58916265 0.17629154 0.36493117
0.1515619 0.32580757 0.4468101 0.54822755 0.5372331 0.5201177 0.535542 0.45011657
0.50083184 0.5667751 0.5236683 0.66629773 0.46107134 0.5871538 0.48246962 0.54715794
0.5899197 0.81978184 0.2820047 0.13532487 0.3487689 0.3388456 0.4523427 0.32865527

gru.weight_hh_l0 f4 [300, 100]
00000000: d20f bebe 282d a5bd 4fd1 90bd 8398 6f3e
00000010: c2b4 313d 7cfc 8fbc c480 573d 27df a7bd
00000020: b4dd 35be 2e33 87bd 3d12 99bd aff5 2fbc
00000030: 7f13 643e 8ddc d93d de69 02be a7e3 2e3e
00000040: c011 88bc ab7c 4c3e f7e4 383e f7dc 033e
00000050: 5d66 683c 6751 593c 3527 88bc b0af 293d
00000060: 683a 8c3e 0221 18bf f6c5 323c 5bd6 14bc
00000070: 3cd9 fc3d 8541 30bd d046 36be 62d8 1ebe
00000080: 55b1 df3d ce60 0dbe 1c74 abbd d605 803d
00000090: 6a54 bbbd bcd5 3b3d 6e29 003e aaf1 623e
000000a0: 1946 323e d220 f53d 44e7 603c 01c4 203e
000000b0: 1385 cb3c 7c68 1cbd c07c 65bd a6d0 89bc
000000c0: 584b f9bd d223 13be c845 31be beff 22be
000000d0: 7df3 d8bd a083 b03d 502e 8bbd 9c65 a3bd
000000e0: a7ec ffbc 456a c7bc a6ce 513e a2f8 55be
000000f0: e8d2 be3d 8b7f 1ebd 5aa0 f9bc bebc 073d
00000100: 6754 a03d 735e 173d f64c 0dbe 23e8 90bc
00000110: 00e9 b1bc 4a92 46bd 1554 0dbe b28e 83be
00000120: b065 8d3e e84c a4be a86b 86be a2dd a3bd
00000130: fa19 e3bd b579 80bd ad75 f63d d70f 03be
00000140: be67 f83b a662 bf3b 939a 063d f69a 3f3e
00000150: 31e9 913e 9de8 acbd 03e6 5b3e 71b1 043d
00000160: 7a1f e5bd b6e1 19be f8bf aebe 70d2 00be
00000170: 0326 54bd b050 00bc daad 5dbd c3cf 283d
00000180: 9377 963e 7752 94bd 50ab b83e e297 06be
00000190: 6bc6 5fbd 7a55 81bd 1e35 4f3d 00eb 5cbd
000001a0: 1668 543c 487b 123e 0d4d adbd 13fc 3c3e
000001b0: 9839 2ebd 707f 2c3e 5e27 813d 2376 0bbd
000001c0: 1c79 17bd eaa3 423d 605c 58bd 235e 2c3c
000001d0: 9514 d8ba a107 78be 0c23 0cbd 938c 44bd
000001e0: fddb 80bd 747c 54be 2bf3 fd3c 4a1e 47bd
000001f0: e7b1 e7bd 7722 dbbd 4ae4 af3d e61b cf3d
00000200: dd7f a5be 616a 953d 9435 acbd ad77 473e
00000210: c224 11be 9793 863e 2430 db3d 878d 0abe
00000220: 6b1d 36bd e4c4 21be a489 e23d be42 c8bc
00000230: fa25 323e f118 3f3e 3033 833e e255 bc3d
00000240: fba2 743e 0c62 15be df45 4ebd a50e 393d
00000250: 2236 0bbd c22f ae3e 1d04 873c 33e2 3e3b
00000260: 2081 683d eb9f b8bd fc05 233e deb1 033e
00000270: 38c3 6a3e 9cb8 3e3d 0b44 933c 6812 d43d
00000280: e2a1 bdbd 7ff6 823e ab8e 823d f54f 8c3d
00000290: 34be ccbe ef16 0dbe 4656 ae3d 295b 55be
000002a0: 9771 23be 65a9 c7bc 39ed 9ebe a8b8 0c3e
000002b0: 386d da3e 2c16 4a3e 92b5 f63d d96e 98bd
000002c0: eb64 093d 0346 edbc 02e8 d73d 76db a63d
000002d0: 5840 fcbd d49a 9dbb a027 b2be cc97 a1bd
000002e0: aa98 833e 362a 8cbd 060f 80be b485 11be
000002f0: 693d a63d dc64 1e3e 3876 073d 9db6 09bd
00000300: 51b8 73bd 3fe4 34bd a963 1abe cc94 84bd
00000310: 9bcf bd3e 15c0 f3bc 759f 1fbe a54d 1e3e
00000320: d1d5 573d 016b 0a3e d386 533d 5a9f 07be
00000330: c94a 1b3e 1060 463e 0b93 f53d 42e9 6d3e
00000340: ff25 833e 12d2 ec3d bdba 8f3d 7de4 8e3d
00000350: 1e91 b33d f92c afbc 5b3a cc3d fe93 073e
00000360: 4488 70bb 8601 bb3d 87fa 893e 9acb 993b
00000370: 9cbd c63d 4cbf 06bf ac12 9cbd aab8 103e
00000380: f291 ce3d 9684 933e ece4 753d 2ed0 48bc
00000390: 979a 96be a50a c43d d175 13bd f0ef 903e
000003a0: a43e 5dbd b168 273d 7b32 353e 5f80 f3bd
000003b0: 60ce c43c 27a8 b9b9 0f6e 35bc da19 d83d
000003c0: 9584 253e f3a6 29bb c604 7e3c 29e2 c7bb
000003d0: c389 283e 8a4b 483d f368 b0be cfa7 863e
000003e0: 03f6 4fbe f1de c93e b50e 8a3d 3cf9 1e3d
000003f0: 8220 ce3d f5d6 2dbe 5074 883e 646e b63d
-0.37121445 -0.080652535 -0.070711724 0.23398022 0.043385275 -0.017576449 0.052613035 -0.0819686
-0.17760354 -0.066015586 -0.07474182 -0.010739728 0.22273062 0.1063777 -0.12735698 0.1707903
-0.016610026 0.19969432 0.18056093 0.1287726 0.014184562 0.013264037 -0.016620258 0.041427314
0.2738831 -0.59425366 0.010911455 -0.009084309 0.12346122 -0.043031234 -0.1780045 -0.15512231
0.10922495 -0.1380646 -0.083717555 0.06251113 -0.0914696 0.04585813 0.12515804 0.221625
0.17409553 0.119691506 0.013727013 0.1569977 0.024843728 -0.03818558 -0.056027174 -0.016823124
-0.12172574 -0.14369133 -0.17311776 -0.1591787 -0.10593317 0.086188555 -0.06795943 -0.07978365
-0.031240774 -0.024342665 0.20488986 -0.20895627 0.09317571 -0.038695853 -0.03047197 0.033138983
0.078285985 0.03695531 -0.1379889 -0.017688816 -0.021717548 -0.048479356 -0.13801606 -0.25694805
0.27616644 -0.32089925 -0.2625401 -0.080012575 -0.11088939 -0.06273214 0.120341636 -0.12799011
0.0075807264 0.005840617 0.032862257 0.18711457 0.28498223 -0.08442805 0.21474461 0.032395784
-0.11187644 -0.15027508 -0.34130836 -0.12580276 -0.051794063 -0.007831737 -0.054120876 0.041213762
0.29388103 -0.072422914 0.360682 -0.13143876 -0.054632585 -0.063151315 0.050587766 -0.05393505
0.012964269 0.1430484 -0.08461962 0.18455534 -0.042535394 0.16845489 0.06306337 -0.03404821
-0.036980733 0.047519602 -0.05282247 0.010520491 -0.0016485626 -0.2422166 -0.03421311 -0.047985625
-0.062919594 -0.207506 0.03099974 -0.04861287 -0.11313229 -0.10699933 0.085884646 0.10112743
-0.32324114 0.07295681 -0.08408657 0.19479246 -0.14174178 0.26284477 0.107025415 -0.13530551
-0.04446165 -0.15797764 0.11061409 -0.024445888 0.173973 0.18661858 0.2562499 0.09196068
0.23890297 -0.14588183 -0.050359603 0.04517998 -0.033987172 0.3402081 0.016481454 0.0029126524
0.05676377 -0.09014877 0.15920252 0.1286082 0.22926033 0.046562776 0.017976781 0.10355073
-0.09259392 0.25578687 0.06374868 0.06851188 -0.39988863 -0.1377828 0.08512549 -0.20835556
-0.159613 -0.024372766 -0.31040362 0.13742316 0.42661452 0.1973502 0.120463505 -0.074430175
0.03354351 -0.028964048 0.10542299 0.081473276 -0.1231696 -0.0048097167 -0.34795856 -0.07890281
0.2570241 -0.068439886 -0.25011462 -0.1421116 0.08117182 0.15468162 0.033071727 -0.03362142
-0.05950195 -0.044162985 -0.1507708 -0.06473693 0.37072453 -0.029754678 -0.15588172 0.15459307
0.052694146 0.13517381 0.05164225 -0.13244382 0.15165247 0.19372582 0.11990937 0.23233512
0.25614926 0.11563505 0.070180394 0.069771744 0.08767913 -0.02138375 0.09972068 0.13240048
-0.0036702314 0.0913115 0.2694895 0.0046934607 0.09704134 -0.52635646 -0.07620749 0.14132944
0.100864306 0.28812093 0.06003277 -0.012256665 -0.29414818 0.09572343 -0.03600103 0.28308058
-0.054014817 0.040871326 0.17695038 -0.11889719 0.024024189 -0.00035411233 -0.011073603 0.10551806
0.16163857 -0.0025886863 0.015504068 -0.0060999584 0.16458802 0.048900165 -0.3445507 0.26299903
-0.2030869 0.39427903 0.067410864 0.038811907 0.10064794 -0.16976531 0.2665124 0.08907774

gru.bias_ih_l0 f4 [300]
00000000: 90bb 1fbe e594 303e e322 15bd 1639 6a3d
00000010: 69c6 513d 10fe 363e bc38 8abd c29a 2d3c
00000020: 1755 fbbd 8cca 073e 8730 a6bd ccb1 abbc
00000030: d324 3a3c 8760 bfbd 996b 3cbd 45f6 d13c
00000040: efbe 973d 2c90 ac3d 8e77 363d e900 cd3c
00000050: 2d21 1bbe 7ebb 3c3d 9a19 17bd 41e6 50bd
00000060: 6d20 84bd d0b8 5fbe 5e24 40be 6285 123e
00000070: 951a a0bd dca4 c9bd b02c b7bd ea25 2bbd
00000080: e5dc 49bb 803c 9c3c 2c00 193c b703 10be
00000090: 749f 55be df2d 2cbc 0739 53be a2d7 8abd
000000a0: a9ba d63d 5a90 1dbe 19fe 2abe 9234 96bd
000000b0: 1146 b3bd c305 a1bb 55ae e7bd 2f50 c9bd
000000c0: 7c58 03be e43e 08bd e9cb d03d 14e0 793b
000000d0: 7b35 e4bb 61cc 8d3d 3648 aa3d 4047 3f3e
000000e0: 439c 61be 6118 40be 97af 06be 84d7 0ebd
000000f0: fae1 97bd fe6d 683d 5003 17be 7a7d 2abe
00000100: 0bf8 d2bd d9de 01bc d0f0 1dbe a46e a7bd
00000110: 2fa1 cebd 0ebf 613d 2e04 f4bd d370 e4bd
00000120: 3d61 273e 12ac 6fbe 136a f6bd bb55 fbbd
00000130: bb91 9abd 44d7 55bd 8e90 03bd cd80 1bbe
00000140: 009d 38be a57a 4fbe 4a3d 56bd 36f1 95bc
00000150: 7d01 a5bc abf2 aabd 246f 07be f846 c6bd
00000160: 144c b8ba bf26 bdbd b138 85be 4068 1ebd
00000170: 7506 4cbe 503c d9bd 4190 07be 152b 38be
00000180: 5646 b9bd 00e4 0cbe 7897 1bbe c94b 25be
00000190: b64f debd 5116 543e 440a 6d3e 3ab5 873d
000001a0: ede8 a3be 59ca cf3e a880 493e bd1d 81bd
000001b0: 9c10 2abe e4c7 bfbd 3c91 e3bc cc4b 773e
000001c0: e48c e63d 4449 b0b9 5d1f 20bd 44df 61be
000001d0: d578 e9bc 8c31 18bd 24b3 6ebe f7bb 973d
000001e0: 0b1c 1bbd a377 a6bc dd0e fc3d abed 1bbe
000001f0: 1f8e 563e 0f29 3ebd 6da7 3e3e 37a0 68be
00000200: a44b 26bc 8e10 673e e824 d23d 3efd 1ebd
00000210: 8bcb 6b3e ba7e 0d3d 8de4 02be b29b aa3d
00000220: 298d a83d cde7 173e 3666 81bd 6b76 823e
00000230: dfc6 5abd 7922 953e c197 04be a9b5 893e
00000240: 691f ccbc 2c45 403e e4e4 54bc 7f2b edbc
00000250: 01b1 02be 63aa 453d b5e0 09bd 7a7c 38be
00000260: b197 f13d 090f 06bb 4663 7ebd aa4c 82bd
00000270: 1350 63bd 256e 6ebd f7d9 8b3b d38b 423d
00000280: caab a9bd e602 813e 6ef8 4f3d 6dfe 703d
00000290: 9910 783d 5c67 10be eea2 8a3e d53c bfbe
000002a0: 9d2f 723d dab9 f8bb dc56 723e cdcf 45be
000002b0: 74dd 773e c023 5dbe 2851 653e 822c ae3d
000002c0: 1410 5e3e 2697 bd3d 69b9 063d e315 f4bc
000002d0: 788b c33e 9c14 dabd f89f 363e f765 9f3d
000002e0: e590 7a3e 269d e23d 49e7 19bd 1ded 2abe
000002f0: bda0 ae3e 00a2 80b9 c5c4 9b3d 6cec 2b3d
00000300: bae7 1f3e 8222 7abc 8ad0 59bd a082 8a3e
00000310: a124 3cbe 4961 b03d e309 d3bc f13b eebd
00000320: fe44 5f3c dbfa e13d af62 543d c705 5ebd
00000330: c435 82bd 97f9 b2bc e14d eabd 7a0c e63c
00000340: 7945 26be 91e4 d43d c6e5 a7bb d942 273e
00000350: 953b d43c 5c5e 343d c661 54bd 257a 2fbe
00000360: 0000 1f3d e362 ecbc 8fac b9bd 08f9 5abc
00000370: 6f37 63bc 1b62 dc3d 5993 243e 5d73 063c
00000380: 97a4 e73d 1152 5dbd f32e 6cbd 9d02 43bc
00000390: 9961 8a3b 73db 503c ee1c 92bb dad4 97bd
000003a0: ccd5 103e 8708 2f3c 42f8 edbc cc70 a23d
000003b0: 2785 68bd 7a0a 24be bbaa d13d 7409 75bd
000003c0: 3ad7 253e 0118 9ebc c7db dfbc 5794 61bd
000003d0: 6f9e 163e 84d4 edbc 56d8 713b da08 1fbe
000003e0: 721b 983d 30d4 05be 99aa 343d 520e acbd
000003f0: 1d3a c63c 5af0 033e 37d5 213d ef16 25be
-0.15598893 0.17244299 -0.036410224 0.057183348 0.05121461 0.17870355 -0.067491025 0.010595979
-0.12272089 0.13260859 -0.081147246 -0.020958804 0.011361319 -0.09344583 -0.04600105 0.025630126
0.074094646 0.08425936 0.04454761 0.025024848 -0.15149374 0.046077244 -0.03688965 -0.051000837
-0.06451497 -0.21847844 -0.18763873 0.14308694 -0.0781757 -0.098458976 -0.0894407 -0.041784205
-0.003080183 0.019071817 0.00933842 -0.14063917 -0.20861608 -0.010508983 -0.20627223 -0.0677941
0.10484821 -0.15387097 -0.16698493 -0.07334246 -0.087535985 -0.004914017 -0.11312548 -0.09829747
-0.12826723 -0.033263102 0.10195143 0.0038127946 -0.006964383 0.06923748 0.083145544 0.18679523
-0.22032265 -0.187593 -0.1315292 -0.0348735 -0.074161485 0.05674552 -0.14747357 -0.16649428
-0.10301217 -0.007926666 -0.15423894 -0.081754 -0.10089337 0.055113845 -0.1191486 -0.11154332
0.16345687 -0.23405483 -0.12031951 -0.12272211 -0.07547327 -0.052207246 -0.03212028 -0.15185852
-0.18028641 -0.20261629 -0.052304544 -0.018303495 -0.020142311 -0.083470665 -0.1322599 -0.09681505
-0.0014060759 -0.09235906 -0.26019815 -0.03867364 -0.19924338 -0.10607207 -0.13238622 -0.17985184
-0.09046619 -0.1375885 -0.151945 -0.16142191 -0.108550474 0.20711638 0.23148447 0.06626363
-0.32013646 0.40584067 0.19677985 -0.063045 -0.16607898 -0.09364298 -0.027779214 0.24150008
0.112573415 -0.00033623923 -0.03909241 -0.22057825 -0.0285 -0.037156627 -0.23310524 0.07408898
-0.03786854 -0.02032072 0.123075224 -0.15227382 0.20952652 -0.046425875 0.18618555 -0.22717367
-0.01014987 0.22564909 0.102609456 -0.03881573 0.23026864 0.034544684 -0.12782498 0.08330478
0.08230049 0.14834519 -0.06318323 0.2548097 -0.053412315 0.29127863 -0.12948515 0.26896408
-0.024917321 0.18776387 -0.012994025 -0.028951405 -0.12762834 0.048258197 -0.033661563 -0.18016234
0.11796511 -0.002045574 -0.062106393 -0.06362279 -0.055496287 -0.05821051 0.004267927 0.047496628
-0.08284719 0.25197524 0.05077403 0.05883639 0.060562704 -0.14101928 0.2707743 -0.373511
0.05912744 -0.0075905146 0.23665947 -0.19317551 0.24205571 -0.21595669 0.2239424 0.08504583
0.21685821 0.09257345 0.032891665 -0.029795593 0.38192344 -0.10648462 0.1783446 0.0778312
0.24469335 0.1106513 -0.037574086 -0.16692014 0.3410701 -0.00024534762 0.0760589 0.041973516
0.1561574 -0.015267016 -0.053177394 0.27052784 -0.18373348 0.08612306 -0.02576155 -0.11632527
0.013627289 0.11034175 0.051851925 -0.05420473 -0.06357911 -0.02184753 -0.114406355 0.028082121
-0.16237439 0.10395158 -0.0051238267 0.16334094 0.025907317 0.0440353 -0.051851057 -0.17136438
0.03881836 -0.028855747 -0.09066116 -0.013365038 -0.013868197 0.107609 0.16071834 0.008206216
0.1131069 -0.054033343 -0.05766196 -0.0119024785 0.0042230603 0.012747633 -0.004459015 -0.07413645
0.14144057 0.010683185 -0.029049043 0.079316705 -0.05676761 -0.16019621 0.102376424 -0.05982347
0.16195384 -0.019298555 -0.027326478 -0.05507311 0.14708875 -0.029032 0.0036902628 -0.1553072
0.0742711 -0.13069224 0.044108007 -0.08401169 0.024197632 0.12884656 0.03950998 -0.1612203

gru.bias_hh_l0 f4 [300]
00000000: 8a9a 29be f573 c13d 1421 69bb 0ed4 253e
00000010: d8de f13c 0b0c 443d 13b0 12bd fd13 10bd
00000020: 2d6c 4cbd d9af 213e c26e 06be 94d0 b4bd
00000030: 6347 6fbd 0670 853c de21 73bd 6817 90bd
00000040: 3359 ee3d be4f 2bbd b6b5 b13d 93df 013d
00000050: f6ac 10be 3f4b ae3d 646d d73d 5b3a 00be
00000060: 7ad7 ecbd 2f58 a6be 58d1 28be f917 f83c
00000070: 09c6 c0bd c984 a9bd 0c37 8fbd ac3b b23c
00000080: 74d4 a43c a436 25bd 8843 153d c46a 3fbd
00000090: cbf8 05be bada a43c 86f2 42be 613f 01bc
000000a0: f5a9 1e3d df61 0cbe db12 83bd f288 45bd
000000b0: 5d91 c0bd a457 26bd c111 07be 1e1e b5bd
000000c0: cf4d 18bc f69f 7ebd c942 dd3d 92e0 a8bd
000000d0: abed 113e db35 1b3d a188 3c3d cb72 293e
000000e0: 7123 72be 1e5e 8cbe 81bf 26be f83c 9d3d
000000f0: 5f78 dfbd e823 9b3c 0a0a 21be 2b47 0bbe
00000100: f17d c6bd ca96 08be 0d6d 08be a2c3 0a3d
00000110: 10b0 523d 4045 003e 3faf 09be e230 fdbd
00000120: fba0 4a3d 1fc9 67be 5899 02be af27 7bbd
00000130: 5b02 87bd f3dc 74bd 38e4 1abc c0f3 21bd
00000140: 0fb9 85bd f009 95bd 2adf a93c bea2 48bd
00000150: 13c2 0f3c 42a0 6f3d 1fc8 26be 1c34 02be
00000160: ac22 0f3d 6b74 e5bd c14c f2bd caeb 8cba
00000170: 3c7a a5bd ee26 013d fbf0 c1bd a7df 61be
00000180: 97fa 95bd 2175 31bd 0388 11be fc05 4bbe
00000190: e22f ccbd 24bf 023e 5e47 393e 84e5 20bd
000001a0: 8d2e 4ebe 3cb4 c33e 4c81 053e 6e2e 12bd
000001b0: 9f7b e6bd 6bda d7bd 4d41 babc 7e92 653e
000001c0: d3d2 1c3e f118 173b 78d5 e8ba b677 18be
000001d0: d351 e2bd 6489 96bd de66 63be e548 fc3d
000001e0: 0638 06bd f378 b7bd db2c 023d 01be 43be
000001f0: 0a82 633e 01e1 12bd b816 883d 9b7d 72be
00000200: 6356 403d f7ae 633e 57ff ff3d 9abd b23d
00000210: 4f5c 3f3e 8d3a 553d f881 92bd 5c93 ac3d
00000220: 65ed a0bc e318 963d de7a 18bc 3627 593e
00000230: e53d febd 7e36 503e 7cfa c6bd 8571 863e
00000240: f39d 8c3d 9d49 913e f9dc dfbd bc66 bfbd
00000250: 9d6b 40be d792 693d e48a 32bc 447e 5ebd
00000260: 58e2 9d3d 3272 633c b4d8 36bd 3ced 8dbc
00000270: bea7 733c 074d 053d 0bd6 483c c9a3 ac3d
00000280: 13a2 05be fb91 763e f847 30bd a10f b43d
00000290: dba3 a43d 460a b5bd c348 213e 0967 b5be
000002a0: fe22 b0bd fe97 683d 5aeb 4f3e 4f50 52be
000002b0: 53d7 833e 5536 3fbe 3747 4b3e 50bb 0e3e
000002c0: 87a0 da3d dfb8 f83d b59d c73c 00d1 cdbc
000002d0: 8513 a23e c498 1fbe d532 013e a159 a93d
000002e0: 0f3a 393e 1a85 9c3d 5df7 18bd acca 2abe
000002f0: 9807 6c3e 95be 1c3d dac6 043e bbeb 963c
00000300: f056 b03d db49 0abd 35dd c8bd cd49 0a3e
00000310: 2e25 c7bc 9297 823d 1d93 d33b 6298 c6bc
00000320: f269 19be 5a0d d53d 11cf b03d a067 6c3e
00000330: c5a2 d1bc a635 fdbd f511 cdbd 0471 8dbb
00000340: 1308 52be 5c04 103e 36a7 70bd 7fe1 943d
00000350: 8604 cd3b 4da3 973c 0570 24bd 3736 84bc
00000360: eb10 9e3d 0b0a 9ebd e3c1 3bbd b563 cabd
00000370: a8ee 303b 0183 d0bc 9ced 2a3e 7077 2abe
00000380: 4147 133d bd46 e13d 3555 e13c 7f27 09bd
00000390: e910 333d a3e3 75bd 5bb0 53bd 7381 623c
000003a0: 77e9 db3c 4f1f 21be dba4 803d edf1 243d
000003b0: 7160 18bc 3acb c3bd cd73 1dbd 66a9 84bd
000003c0: 3714 cb3d 5464 a93c 55e3 2cbd d707 f5bd
000003d0: fb44 093e 6627 b2bc 80f2 a8bc f311 b6bd
000003e0: 7832 763d 4e6d 38bb fa93 abbc 82d6 a5bd
000003f0: 57ff 0a3e 8657 9abc d34b dc3d 89ad 92bd
-0.16562858 0.09445945 -0.0035572695 0.16194174 0.029525205 0.047863048 -0.03581245 -0.035175312
-0.049907852 0.15789737 -0.13128188 -0.088288456 -0.05841769 0.016288769 -0.05935847 -0.070357144
0.11638107 -0.041824095 0.08677237 0.031707358 -0.1412848 0.08510446 0.105189115 -0.12522261
-0.115645364 -0.32489154 -0.16486108 0.030284869 -0.09412772 -0.0827728 -0.06992921 0.02175697
0.020120837 -0.040335312 0.036441356 -0.04673268 -0.13083188 0.020123828 -0.19037828 -0.007888646
0.038736302 -0.1370921 -0.06400081 -0.048226304 -0.09402726 -0.040610924 -0.13190366 -0.08843635
-0.009295895 -0.06216427 0.10803754 -0.082459584 0.1425082 0.037893157 0.046028737 0.16547696
-0.23646332 -0.27415556 -0.1628399 0.076776445 -0.10911631 0.01893802 -0.15726486 -0.13601367
-0.0969199 -0.13338771 -0.1332285 0.033877976 0.051437438 0.12526417 -0.13445757 -0.12362839
0.04946993 -0.22635315 -0.12753808 -0.061317142 -0.06592246 -0.059781026 -0.009453826 -0.0395391
-0.06529438 -0.07277286 0.020736296 -0.048983328 0.008774298 0.058502443 -0.16287278 -0.1271519
0.034945175 -0.112038456 -0.11831046 -0.0010751423 -0.08079955 0.031531267 -0.094697915 -0.22057973
-0.07323187 -0.043324593 -0.1421204 -0.19826502 -0.099700704 0.12768227 0.1809363 -0.039281383
-0.20134945 0.38223445 0.13037604 -0.03568881 -0.112540476 -0.10539707 -0.022736216 0.22419164
0.15314798 0.0023055638 -0.0017763814 -0.14889416 -0.11050763 -0.07350424 -0.2220721 0.12318591
-0.032768272 -0.08958616 0.03178106 -0.1911545 0.22217575 -0.03585911 0.06644958 -0.23680727
0.046957385 0.22234713 0.12499874 0.0872757 0.18687557 0.05205779 -0.07153696 0.08426544
-0.019644449 0.073289655 -0.009306638 0.21206364 -0.12414149 0.20333287 -0.09715745 0.26258484
0.06866064 0.28376475 -0.10930819 -0.09345767 -0.18791051 0.057024803 -0.010897372 -0.054319635
0.07709187 0.013882207 -0.044640258 -0.017325036 0.014871536 0.032544162 0.012258063 0.08429677
-0.13050108 0.24079125 -0.043037385 0.087920435 0.080390655 -0.0883985 0.15750413 -0.35430172
-0.08600424 0.056785576 0.20304623 -0.20538448 0.25750217 -0.1867307 0.19851385 0.13938642
0.106751494 0.12144636 0.024367193 -0.025124073 0.31655517 -0.15585619 0.12617047 0.082690485
0.18088554 0.076425746 -0.03734528 -0.16678876 0.23049772 0.03826769 0.12966481 0.018422952
0.08610332 -0.03376184 -0.09807817 0.13504715 -0.02430972 0.06376566 0.0064567463 -0.024242584
-0.14981821 0.10402937 0.08633245 0.23086405 -0.02559031 -0.12363748 -0.10013191 -0.004316451
-0.20510893 0.14064163 -0.058753215 0.072695725 0.0062566428 0.018510485 -0.040145893 -0.016139133
0.077180706 -0.07716759 -0.0458392 -0.09882299 0.002699772 -0.025453093 0.16692203 -0.16647124
0.035956625 0.109998204 0.02750645 -0.033484932 0.0437173 -0.060031544 -0.051681858 0.013824808
0.026844723 -0.157346 0.06281444 0.04026978 -0.009300337 -0.09560247 -0.038440514 -0.06477623
0.09915965 0.020677723 -0.04220899 -0.11964386 0.1340522 -0.021747302 -0.020623446 -0.08890142
0.060106725 -0.0028141323 -0.020944584 -0.08097555 0.13573967 -0.018840563 0.1075665 -0.071620055

dense_output.0.weight f4 [100, 100]
00000000: 4d71 8dbc a87d 93bc 721c 93bd 9bf8 343c
00000010: f8fd 81bd 4605 8abd ad11 0ebc 8c54 9bbc
00000020: b651 1abd 448b 48bd 749c b33b ddd5 8c3d
00000030: 4d1a 4a3c 22f1 e1bc d4ab bb3b f35b 9e3c
00000040: 5cda b03c 7ce3 883d 2db0 f2bc 1d7b 5abd
00000050: 54cb 04bc f860 00bd 1a6d 1d3d 96cb 2f3c
00000060: db0c 2a3d a89c 5f3d 1ac1 823c d030 a53d
00000070: a5f3 253d e533 1c3a a27b 96bd 8998 99bd
00000080: d6fe e63d 29d6 46bd 5f45 52bc dc52 503d
00000090: a0a4 30bd ef0e 6abd 8c0c a13d a477 403d
000000a0: 8409 18ba ff2a 5dbd 793a 433d 8d03 38bc
000000b0: 68ec f73b 9494 00be dfc0 793d 7128 d9bc
000000c0: fe8c 5abc 3ded f3bb bca9 13bc 90a5 663d
000000d0: ddbe 02bd c399 bc3d 4e0a 85bc a602 413d
000000e0: b539 383d df6f d13d 079f e4bd 9877 bb37
000000f0: b35f 933d 5e56 2fbd 5a4a 2cbd 7e53 863c
00000100: cb25 3dbd 057d 613d 9e9e b43c 0630 62bd
00000110: ecb7 c7bc 38cc b6bd f344 ecbc 7c3f 3e3c
00000120: 85eb 5bbc 2199 babb 4573 77bd 9053 883d
00000130: 5792 a9bc 956a 4a3d e4ea 59bd 2489 b4bd
00000140: 4aa0 ff3d d047 aebd 2e9a 01bd e4ad 37bb
00000150: 2477 f8bc c0a1 60bd a46b 673c ec64 693d
00000160: 3a4f f23c 3a59 c8bd 2569 d13a ba54 4f3d
00000170: 6814 1e3d b813 b0bb 7fd5 ec3b 62da 1b3d
00000180: 0f6e 6dbd 3a33 c5ba 0199 b23d 5c48 28bd
00000190: 53d9 8a3d 0d89 8cbd 93a9 3ebd 5f43 543d
000001a0: 2b17 a0bd 942f 0dbe 04b6 93bc badc c1bd
000001b0: 2a02 3e3d 90ed 76bd 5807 0fbd 3bd5 84bd
000001c0: b650 963d 11f8 b73c 1667 4b3d f984 983d
000001d0: 2a00 583c e9d6 883c b840 41bc 905a 043e
000001e0: bb27 10bd e82e 653c 6a6e 5bbc 946e 53bc
000001f0: ac0f 183d 5f9b 2b3d 525a 0d3e 88e1 13bc
00000200: c621 ab3d 3142 b4bb dc5d 1e3d c9bd 17bc
00000210: 61d6 563d 770e a8bd d4c8 c63d 4c03 9b3b
00000220: 6380 3c3d 3777 3d3d e3f7 543d 74a4 8abb
00000230: 7f2b c4bd 1fe5 4abc a192 a53d eb9f 6c3d
00000240: e480 373c b73e 83bd b82b 1fbd f34e 45bd
00000250: 6355 78bd c287 9abd b3b5 753b 0395 d1bc
00000260: 5ee3 e43c a214 cabc 6714 98bc c5bc 23bd
00000270: b9b1 5fbd 070b a4bd 6703 ad3d 2c12 113c
00000280: af9f 89bd 9bdd 32bd 471c 41bd 29d1 84bd
00000290: 31a9 89bb 1ed9 2b3b cd00 5c3d c754 833c
000002a0: cf7b 23bd 32c7 02be d125 373d 5617 ddbd
000002b0: ea8d bf3c 24b7 563d bd4e d7bc 6053 3cbb
000002c0: 2938 40bd be7b 253c 8b42 183d a251 a43c
000002d0: 8e6e 27bd f756 e2bd 8d89 6e3c 8c06 4dbd
000002e0: 8663 98bc 5820 97bb 80c7 03bd cc1d 8ebd
000002f0: 57e7 e0bd 6d75 263b a0bd ae3d cff8 b3bd
00000300: 7560 0c3e 5b69 17be a44c 30bd 17f1 13bd
00000310: 4854 dc3d 0aed 873d 4162 67bc ee3a 2c3c
00000320: 8227 cfbd 909f 7fbd 46e8 99bd bfe8 293d
00000330: 172f 94bc 7877 0cbe 28d9 043c 0239 5cbd
00000340: b38d 823b bdd1 393d b6a7 05bd 1855 ff3d
00000350: eedd 98bd 0e29 b43c 6f6e 44bd f2cf 153d
00000360: d107 233c 61af 053c 7183 e53c ccee ab3d
00000370: 41e1 f23d 7895 0a3d d57f c0bc 9aba bb3d
00000380: 0815 3ebd d436 033c 4554 523d 86a0 5b3c
00000390: 17db ea3d d769 7abd a54b e13c af9c 8d3a
000003a0: d9e9 0a3e 4440 63bd 3416 9f3c e431 1b3d
000003b0: f274 e0bd c531 4139 e048 f73b 3767 f03b
000003c0: 7152 31bc d5d8 a7bd 2b56 ca3d dcbb 8bbc
000003d0: 85c6 cabd 6fee a8bd a93c 6bbd 42a6 b3bd
000003e0: 6a68 f1bc 4b79 a1bd 09e4 a23d c8e9 e23d
000003f0: c32d c3bc a53d 7bbd ddbd 8abd 3ab3 043d
-0.01726594 -0.018004254 -0.0718316 0.0110456 -0.06347269 -0.06739287 -0.008671206 -0.018961214
-0.037675582 -0.04896094 0.005481297 0.06876729 0.012335372 -0.027580801 0.0057272706 0.019330954
0.021588497 0.06684014 -0.029625023 -0.053340066 -0.008105118 -0.031342477 0.038434125 0.010729691
0.041516166 0.05459276 0.015961219 0.08065951 0.04051556 0.00059586606 -0.073478 -0.07499797
0.11279075 -0.048544083 -0.012833922 0.05086027 -0.04312575 -0.057143148 0.07863721 0.0469891
-0.0005799758 -0.053996082 0.047663186 -0.011231315 0.0075660236 -0.12556678 0.06097495 -0.026508542
-0.013339279 -0.0074440525 -0.009012636 0.056310236 -0.031920303 0.09209015 -0.016240265 0.047121666
0.04497691 0.10226416 -0.111631446 2.2347827e-05 0.071959876 -0.042806976 -0.042063095 0.016397234
-0.04617862 0.05505087 0.02204829 -0.05522158 -0.024379693 -0.089256704 -0.028841471 0.011611816
-0.013422851 -0.005694524 -0.060412664 0.06656563 -0.020699663 0.04941805 -0.053202525 -0.0881522
0.124817446 -0.08509791 -0.031641178 -0.002802723 -0.030330248 -0.054841757 0.014124785 0.056981012
0.029578794 -0.097826436 0.001597677 0.05061791 0.03859368 -0.0053734444 0.007227599 0.038050063
-0.05796629 -0.0015045174 0.087205894 -0.041084632 0.067797326 -0.06862078 -0.046548437 0.051822063
-0.07816919 -0.13787681 -0.018031128 -0.094659284 0.046388783 -0.06028515 -0.034919113 -0.06485983
0.07339613 0.022457154 0.049658857 0.074472375 0.013183633 0.01670404 -0.011795215 0.12925172
-0.03519414 0.013988234 -0.013393024 -0.012904782 0.03712432 0.04189622 0.13803986 -0.009025939
0.08356051 -0.0055010547 0.03866373 -0.009261557 0.05245054 -0.08205884 0.09706274 0.0047306176
0.046020877 0.04625627 0.051994216 -0.00423103 -0.09578609 -0.012383728 0.08084608 0.057769697
0.0112001635 -0.06408446 -0.038860053 -0.048170995 -0.060628306 -0.07545425 0.0037492334 -0.02558375
0.027940448 -0.024668042 -0.018564416 -0.039974947 -0.05461285 -0.08009916 0.084479146 0.00885443
-0.0671991 -0.04366837 -0.047146108 -0.06485207 -0.0042010774 0.0026221941 0.0537117 0.016031636
-0.039912995 -0.127713 0.0447138 -0.107954666 0.0233831 0.05242075 -0.026282663 -0.0028736219
-0.04692856 0.010100303 0.037172835 0.020058457 -0.040876918 -0.110517435 0.014559162 -0.05005507
-0.018602144 -0.00461201 -0.03217268 -0.06939277 -0.109816246 0.002539958 0.08532262 -0.08787691
0.1370867 -0.14786284 -0.04304184 -0.036118593 0.10758263 0.066370085 -0.014122547 0.010512097
-0.101149574 -0.06240803 -0.07515006 0.04148173 -0.01808886 -0.13717449 0.008108415 -0.053765304
0.003984177 0.045366038 -0.032630645 0.12467402 -0.07464205 0.021992233 -0.04795688 0.036575265
0.009950594 0.008159489 0.028016778 0.08395156 0.1185937 0.03383395 -0.023498455 0.09166451
-0.046406776 0.0080086775 0.051349897 0.013404971 0.11467569 -0.061136093 0.02750189 0.0010804142
0.13565768 -0.05548121 0.019419767 0.037889376 -0.109598055 0.00018424455 0.007546529 0.007336523
-0.010822878 -0.08195654 0.098797165 -0.017057352 -0.09901146 -0.082486026 -0.057430897 -0.087719455
-0.029468734 -0.07884463 0.079536505 0.110797465 -0.023825532 -0.061338086 -0.06774495 0.032397486

dense_output.0.bias f4 [100]
00000000: 07a2 cabc 422a 1abe 0e81 bdbd a7d9 86bd
00000010: 0330 12be f0c0 ecbd 8156 b13d a0fc f5bd
00000020: 9152 08be efd7 00be 9443 6cbd 31d4 603e
00000030: f062 2ebd c11e 083d 934e cf3d 5c70 e83c
00000040: 5b27 083c 4f7d 60bb 77a2 28be 3cc3 2ebd
00000050: 0c6e 1bbd 5fb1 a6bd 8eb9 ffbc e167 3dbe
00000060: fd15 8bbd 2ce6 03be a6e6 28be bc6e e5bc
00000070: 6709 06be e517 08be 1914 a7bd f70f debd
00000080: d13e 15bd 9045 ecbd 1745 c1bc 9857 62bd
00000090: e081 ccbd 817d 5e3c ad9e 08be 3621 a43d
000000a0: 97bb 16be 0cfa 003d 8b2b 08bd 6015 46bd
000000b0: 2271 11be e587 36bd 2131 c93d 0e73 01be
000000c0: 5677 55bd 7dd8 92bd 36e1 46be 4436 53bc
000000d0: 16c6 ebbd 032d 3fbd 997a afbd a4e7 2ebe
000000e0: ff8d 1dbd ca21 10be c561 38bd dd3a 8cbd
000000f0: 0e5f 84bd 7791 47bd c4cc 4fbe 6e6c 4abc
00000100: b48a babb 2a27 a0bd e935 51bd 4157 c2bc
00000110: cf8c ae3b 8314 38be e905 78bd d4a8 7abd
00000120: 06c1 05bc 9fce c23d 3464 79bd caa7 e8bd
00000130: a1ea f4bd 14bb 29be d0bd c4bc 1ead babd
00000140: f357 f0bd 816a 6ebd d895 84bd dd43 3abd
00000150: 92c1 88bd 73e1 53bc 63cf 223d dacb e5bd
00000160: a731 6fbd 5ee8 b0bd 5599 10be 8cf8 68bd
00000170: 0a17 2abd 922e 00be 37f1 e7bd 7b1f 433e
00000180: c8b4 46bd 9155 2bbe 2a28 95bd c562 1bbd
-0.024735464 -0.15055183 -0.09253131 -0.06584483 -0.14276128 -0.115602374 0.086590774 -0.12011075
-0.13312747 -0.12582372 -0.057681635 0.21955945 -0.042574823 0.033232454 0.10122409 0.02837389
0.008310164 -0.0034254377 -0.16468225 -0.04266666 -0.037946746 -0.081392996 -0.031216409 -0.18496658
-0.06791303 -0.12880772 -0.16494235 -0.028006904 -0.13089524 -0.13290365 -0.0815813 -0.10842889
-0.03643686 -0.115367055 -0.023592515 -0.055259317 -0.09985709 0.013579727 -0.1334178 0.08014147
-0.14719997 0.031488463 -0.03324465 -0.04836023 -0.14203313 -0.044563193 0.09823824 -0.12641546
-0.05211576 -0.07170198 -0.19421849 -0.012891356 -0.11512391 -0.046673786 -0.085683055 -0.17080551
-0.038465496 -0.1407539 -0.045015115 -0.06847165 -0.06463443 -0.04872271 -0.20292956 -0.012354953
-0.005692804 -0.0781997 -0.051076803 -0.023723247 0.0053268443 -0.17976575 -0.06055251 -0.061196163
-0.008163696 0.09512066 -0.060886577 -0.11360128 -0.119588144 -0.16575271 -0.02401629 -0.09115051
-0.11735525 -0.05820704 -0.06473893 -0.045474876 -0.066775456 -0.012932169 0.03974856 -0.11220522
-0.05839696 -0.086380705 -0.14120992 -0.056877658 -0.041525878 -0.12517765 -0.11325305 0.19054978
-0.04851225 -0.1673186 -0.07283051 -0.03793599

dense_output.3.weight f4 [9, 100]
00000000: 0742 11bc dac7 16ba 2562 ef3c 892e a5bc
00000010: 640d 85bd 370f 0d3d 9e9a e53c 87d3 283b
00000020: 96e1 203d dd44 f23b 627a e73c 810a 8f3d
00000030: b5eb 90bd e025 133d 95be 4f3d 39af ee3c
00000040: f770 693c 76d0 a1bb 7f8e 0cbd c559 563d
00000050: ffe9 d5bc eedf 2f3c 9bf0 92bb 3670 95ba
00000060: 2ced 1dbd e230 0e3d f49f 903c 8dd3 833d
00000070: 6f2e 26bd 990f 8dbc 74b1 2fbd f9de c6ba
00000080: 76de e23b cd99 8cbc 2782 b53a 1e61 bf3d
00000090: 7cfe d0bc 4e3d 703c f971 4d3d c9b5 253d
000000a0: b658 f53c 5797 6ebc 7a7b 0cbb aac9 93bd
000000b0: 841b 8cbd 3358 94bc 01eb c73b 6e14 033c
000000c0: e625 06bd d2e3 6ebd 9fc3 2f3d 77a4 513c
000000d0: fd13 d1bd 1c6b b83b 5603 9dbd c746 18bd
000000e0: abf0 c73c 2370 82bd c66a 83bd 182f 933d
000000f0: f6df a23c c812 043d 4fe8 a63c ba49 9f3c
00000100: 3798 113d e1bd 613d a49a 973c 47b9 9ebb
00000110: 52bf 863c 8939 95bd bcdf f039 a807 07bc
00000120: da65 813c a482 b23c 3dcc c73b e836 42be
00000130: 24e4 e03c bcfd 18bd db34 e73b 9da5 51bc
00000140: 93b3 553c 6985 0f3c 2175 a8bc da2a 693b
00000150: 6d82 733d 3dda 253d c547 1b3d 8834 53bd
00000160: 4c71 263d edeb bebc 2b34 e5bc 5780 81bd
00000170: ef84 bf3d 144c 0e3c adda 3bbd 2443 973d
00000180: 561e 2cbd 2eb6 e1bb fffd d03c 64be 84bc
00000190: 2197 383c b582 203a de97 c8bc fc21 fc3b
000001a0: 3e06 69bc c2b8 113c a030 c63c 5a28 75bd
000001b0: b306 f5bc 18c5 d33b 3b31 f13c a1fb 393d
000001c0: 32df 33bd 25c0 0d3d 33f8 3c3d 3205 e53c
000001d0: c7db 3b3c c261 5fbb a89d 60bd 2c87 e639
000001e0: 3fc8 41bd f346 26bc b2ac 43bc 1a73 883c
000001f0: 8eb1 02bd a6b7 56bd 1665 3cbd a4a8 043d
00000200: 469d 8f3d 5554 0abc f2e5 52bd 6698 a1bd
00000210: 948d b23b 2229 a03c 4ed4 7ebc 6e74 c63d
00000220: 9ead 453d 76e3 293c b071 39bd 4365 303d
00000230: 24f1 2b3d 3582 f43c f9c2 3fbd 1426 babb
00000240: 2a25 87bd 002e b6bc 4665 a53c 9bf5 073c
00000250: 648b d3bc 4766 d0bc 43be 7abc 0380 933c
00000260: f759 cfbd 2043 16bc 5aaa 7d3d 6dbc 8abc
00000270: f5fe 1dbd 188c a7bc 8a66 d5bc 74b6 863d
00000280: 878c 9dbc 1f09 323c 36a4 4b3c c473 883c
00000290: 1a27 103d 464c 703d b802 873b f170 7abc
000002a0: 317e 35bb bdb3 8abd 8875 83bb 91d3 5bbd
000002b0: c681 393c 7a4d f83c 088b 9ebd 6b40 46be
000002c0: 8cb3 303d 4b94 4fbd 33cf 303c 2cda 55bd
000002d0: d063 cfbd 6a57 d0bd 01bc 05bb 22cc 633b
000002e0: c478 5bbd cd5a ff3c fdd4 1b3d aa55 75bd
000002f0: 1a0a 29bc caf4 6fba 254a 203d 3096 92bc
00000300: dafd be3d e622 383e 6f76 55bd ce48 b23d
00000310: ea23 01bd eb91 45bc bd42 973d a07f 883c
00000320: 5f6e 4f3c b0d0 cbbb 6945 ba3b 3697 fb3c
00000330: 1775 20bd 46d4 313d bc57 bc3c 44e2 c9bb
00000340: 1d7d 483c 9840 b73a 1e4b d93c 72fd 0d3d
00000350: db48 ab3c 8454 0a3d c28d 343d b2d3 f53c
00000360: 9d42 3b3c baa5 48bc f01c c0bc dc10 6f3a
00000370: 7106 ed3b ff19 e1bb 13e6 52bc 1244 14bc
00000380: bec3 123e e206 553d 61e6 a13d 5c2d 52bc
00000390: 0030 93bd 1ab2 cfbb cb9b 3ebd c5f5 4abd
000003a0: fae0 2a3c e017 5c3b 9f73 573b 64cb b93d
000003b0: 7627 ef3b 2930 2c3c 2a29 4f3d d898 323d
000003c0: 229b 7f3b 08e0 923d aaef 0abc 892b 223d
000003d0: 134c 8dbd 61d4 25bd 748b de3c 23ac 8e3d
000003e0: 44dc adbc 45e3 2abd 10dc 103c 3071 a03b
000003f0: 9235 ddbd fda2 da3c c33c 70bc 200f 5d3c
-0.00886584 -0.0005751826 0.029221604 -0.020163791 -0.06496695 0.034438338 0.028027829 0.0025760846
0.039277636 0.007393463 0.028256599 0.06984425 -0.070762075 0.035924792 0.050718863 0.029136287
0.014248124 -0.0049381806 -0.034315582 0.052331705 -0.026112555 0.010734541 -0.004484249 -0.0011401239
-0.038556263 0.034714587 0.017654397 0.064368345 -0.040571626 -0.017219352 -0.042893842 -0.0015172652
0.006923492 -0.017163182 0.0013847993 0.093446955 -0.025511973 0.014663054 0.05015752 0.040456567
0.029949527 -0.014562449 -0.0021435902 -0.07216199 -0.06841186 -0.018108463 0.0061010127 0.008000476
-0.032750987 -0.058322735 0.04291117 0.012795559 -0.102088906 0.005628003 -0.07666652 -0.037176874
0.024406752 -0.06369045 -0.0641685 0.07186717 0.019882184 0.032244474 0.020374445 0.019444335
0.035545554 0.055112723 0.018506356 -0.004843864 0.01644865 -0.072863646 0.00045943062 -0.0082415715
0.015795637 0.02179081 0.006097345 -0.18966258 0.027452536 -0.037351355 0.0070558614 -0.012795833
0.013043302 0.008759835 -0.020563664 0.003557852 0.059450556 0.04049133 0.03791024 -0.05156377
0.040635392 -0.023305858 -0.027978977 -0.06323307 0.09351527 0.008685131 -0.045862842 0.07385853
-0.042021118 -0.0068881726 0.02551174 -0.016204067 0.011266501 0.00061229925 -0.024486478 0.007694481
-0.01422268 0.008894147 0.024193108 -0.059852935 -0.029910421 0.0064627044 0.02944242 0.045405988
-0.043914028 0.03460707 0.04613514 0.027956579 0.011465973 -0.0034085368 -0.054837853 0.0004396973
-0.04731011 -0.010148752 -0.011943029 0.016656447 -0.03190761 -0.052421235 -0.04599484 0.03238739
0.070124194 -0.008442958 -0.051488824 -0.07890396 0.0054490063 0.019550864 -0.015553547 0.09690176
0.048261277 0.010369172 -0.045274436 0.04306532 0.041978016 0.029847244 -0.0468168 -0.005680809
-0.06598885 -0.022238731 0.020189893 0.008298303 -0.025823303 -0.025439395 -0.015304151 0.018005377
-0.10124581 -0.009171277 0.061930038 -0.016935552 -0.038573224 -0.020452544 -0.026049871 0.06577769
-0.019232048 0.010866432 0.012429288 0.016656764 0.03519354 0.05866649 0.004120197 -0.015285716
-0.0027693624 -0.067725636 -0.0040118136 -0.053668562 0.011322444 0.030310381 -0.07741362 -0.19360511
0.04313998 -0.050678533 0.010791588 -0.052210018 -0.101264596 -0.10172923 -0.0020406249 0.0034759124
-0.053581968 0.031171227 0.03804492 -0.05989615 -0.01031735 -0.0009153603 0.03913321 -0.01789388
0.09325762 0.17982063 -0.0521149 0.08705293 -0.03152839 -0.012058715 0.07385776 0.016662419
0.012660592 -0.006219946 0.005684544 0.030711751 -0.039174166 0.04341533 0.022991054 -0.006161006
0.012236861 0.0013981042 0.026525076 0.034665532 0.020908764 0.033772007 0.044080503 0.03000817
0.011429456 -0.012246544 -0.023451298 0.00091196387 0.007233434 -0.006869554 -0.012872237 -0.009049432
0.14332482 0.052008517 0.079052694 -0.012828197 -0.0718689 -0.00633837 -0.046535295 -0.04955079
0.010429615 0.0033583567 0.0032875312 0.09071997 0.0072984053 0.010509529 0.050576366 0.043602794
0.0039002378 0.07171637 -0.008479992 0.0395923 -0.06899276 -0.040485743 0.027166106 0.06966426
-0.021223195 -0.041720647 0.0088415295 0.0048963055 -0.10801233 0.026689047 -0.014662924 0.013492376

dense_output.3.bias f4 [9]
00000000: a245 013e e831 073e 5688 093e 46e2 ff3d
00000010: cfef 043e 3892 fd3d 1aed 073e 3e87 003e
00000020: a67b 043e
0.12624219 0.13202631 0.13430914 0.1249433 0.12982105 0.12381405 0.13274041 0.12551591
0.12937793

exp_avg f4 [4, 1, 3, 3, 3]
00000000: 2700 2dbb 854e 0abb d5bf 12bb 3e5b 26bb
00000010: 91a0 c4ba a86e b2ba a064 f6ba 44a6 62ba
00000020: 9a47 08ba 2539 4cbb 12fc 29bb ace2 d3ba
00000030: 4265 37bb 58a2 e9ba 6d8b d9b9 0553 14bb
00000040: 69ae 97ba a7e3 b6b9 d6b3 6fbb 3053 20bb
00000050: d8ed e0ba fad3 52bb ac78 acba ce23 7439
00000060: dca1 21bb 24dc 93ba a003 7438 4009 ea39
00000070: f240 91b9 1f5d 24ba 5b28 7e39 10ea a93a
00000080: 0231 573a d531 993a 0317 0f3b d742 b23a
00000090: 81d5 61ba 2b4a 89ba ffa2 07ba e442 bc38
000000a0: 59d1 233a 1b50 373a 1048 923a aa1a a73a
000000b0: dcac 803a 20a0 28ba 167f 62b9 02dc c939
000000c0: 4a54 0d3a 982a d439 f765 e73a 692a bc3a
000000d0: e25d 273a 02bb 073b f1e4 a53a 1e20 d63a
000000e0: 0f2f 813b 4da3 0c3b 1ada da3a 1a5b 613b
000000f0: 4aad f43a 695d 083b 3998 473b e600 b83a
00000100: b1d3 053b 1649 603b 5fdc cf3a a6c1 273b
00000110: 8e2e 723b edeb ee3a 56ab 0a3b 14be 5a3b
00000120: d55a 2f3b 5943 463b ca80 6e3b f53a 313b
00000130: 27ea 633b 299d 7d3b 92b0 293b 6d36 3f3b
00000140: da66 773b 3607 eb3a daba c4b8 0ce7 e1ba
00000150: e4fc ae3a 91e6 cfb9 5f3e d5ba 3f84 883a
00000160: d57a 0eb9 0f54 a6ba 60ee a23a 0524 5dba
00000170: dfea 0cba 4b68 843a b614 3fba 43ac e1b9
00000180: 5f0f 333a 12af 37ba 47b3 b8b9 6f8b 503a
00000190: 33dd e7b9 9df0 19b9 7a2a 3d3a 4d1f 0eba
000001a0: e983 88b9 e4df 2a39 797b 5fba 098b e9b9
-0.0026397796 -0.002110393 -0.0022392173 -0.0025383974 -0.0015001466 -0.00136133 -0.0018798299 -0.00086459913
-0.0005198658 -0.003116199 -0.00259376 -0.0016165576 -0.0027983938 -0.0017824871 -0.00041493346 -0.0022632491
-0.0011572364 -0.0003488336 -0.0036575696 -0.0024463646 -0.0017160727 -0.0032169805 -0.0013158522 0.00023282992
-0.0024663126 -0.0011280817 5.817751e-05 0.0004463885 -0.00027704943 -0.00062699796 0.00024238361 0.0012963433
0.0008208902 0.0011687825 0.0021833784 0.0013600242 -0.00086148834 -0.0010474374 -0.00051741296 8.976998e-05
0.0006249152 0.00069928326 0.0011160392 0.0012749035 0.0009817141 -0.0006432552 -0.00021600383 0.00038501626
0.0005391283 0.00040467526 0.0017654289 0.0014355901 0.0006384534 0.002071083 0.0012656731 0.0016336476
0.0039423774 0.002145964 0.0016697079 0.0034386576 0.0018667367 0.002080763 0.0030455722 0.0014038354
0.0020420367 0.003422325 0.0015858522 0.0025597601 0.0036954018 0.001822827 0.0021159253 0.0033377456
0.002675702 0.0030252545 0.0036392682 0.0027043198 0.0034777017 0.003869841 0.0025892598 0.0029176727
0.0037750513 0.0017931226 -9.380812e-05 -0.0017234995 0.0013350514 -0.00039653902 -0.0016269198 0.0010415389
-0.00013587934 -0.0012689846 0.001243066 -0.0008435848 -0.00053755747 0.0010101883 -0.0007289158 -0.0004304369
0.00068305986 -0.00070069835 -0.00035228787 0.00079553475 -0.0004422456 -0.00014680852 0.00072161073 -0.00054215343
-0.00026038222 0.00016295869 -0.0008525174 -0.00044544812

exp_avg_sq f4 [4, 1, 3, 3, 3]
00000000: 732a 0f39 b9bc e738 62cf c038 9ce3 ea38
00000010: d8aa a538 9957 8038 4143 d038 8a08 8538
00000020: a36b 2f38 e5c5 1639 3f3d dc38 5fcc b838
00000030: a976 fb38 85b7 9438 661a 7538 19dc dd38
00000040: a428 5638 1556 2338 d6af 1139 7947 c638
00000050: 7a69 c238 cbd7 ef38 0e9a 7e38 2de2 9038
00000060: 55ce cb38 50e8 2438 de3b 5238 d72c 4c39
00000070: bf7f eb38 ffb3 db38 79b6 5339 f0fb 0939
00000080: 210d 0739 774f 8c39 9be3 6d39 4386 6039
00000090: 586a 3239 8898 bc38 2d57 0c39 66b5 4239
000000a0: 0e2a f538 90e4 2739 37d7 8e39 8804 7139
000000b0: 7e52 7a39 d4d4 fa38 a36f d138 f752 2d39
000000c0: ab39 0f39 3d32 0239 14bd 4439 3eac 7939
000000d0: 5c79 6a39 e576 8239 f7bc b438 5c6a f038
000000e0: b057 4739 7e35 9538 0c06 c638 3746 4039
000000f0: 2124 b138 6264 d838 a8f3 4339 a961 ac38
00000100: bb51 1f39 72d5 8039 0e1e 8238 d440 0d39
00000110: f01c 8439 9d48 9e38 6678 1539 eb53 8839
00000120: 0680 cf38 fc1c 5f39 bd13 9239 3199 a338
00000130: abfa 5639 a03e 9939 f4af be38 f192 6239
00000140: c9b7 9f39 baaa 7f38 28c9 4838 07b3 5438
00000150: d358 8938 c95c 5238 5363 5238 1b4b 9538
00000160: 90e9 6c38 f26d 6438 8813 8c38 8635 5338
00000170: e0c4 6a38 f89d 9638 1400 5b38 9692 6b38
00000180: 9163 a638 1f3e 7138 5dab 7938 7ab7 8538
00000190: e24f 5438 445d 6338 1526 8e38 e221 5a38
000001a0: 636c 6838 9d55 9b38 8183 6638 3f89 7238
0.00013653356 0.00011050091 9.1939015e-05 0.00011200385 7.899635e-05 6.119832e-05 9.93074e-05 6.343525e-05
4.1823496e-05 0.00014378836 0.000105018255 8.811871e-05 0.00011990715 7.091373e-05 5.8437137e-05 0.000105790976
5.1059425e-05 3.89424e-05 0.00013893782 9.4546886e-05 9.2702874e-05 0.00011436603 6.0701794e-05 6.9085836e-05
9.718227e-05 3.9317005e-05 5.0123657e-05 0.0001947166 0.00011229468 0.00010476261 0.00020190504 0.00013159192
0.00012879494 0.00026762087 0.00022686871 0.00021412321 0.00017015019 8.99295e-05 0.00013383916 0.00018568858
0.00011690344 0.00016011507 0.00027244698 0.00022985239 0.00023872589 0.00011960571 9.9866906e-05 0.00016529472
0.00013659026 0.00012416481 0.00018762454 0.00023810656 0.00022361189 0.00024884116 8.618266e-05 0.00011463903
0.00019010785 7.114837e-05 9.442502e-05 0.00018336704 8.446747e-05 0.000103183804 0.00018687418 8.21979e-05
0.00015193869 0.00024573092 6.204481e-05 0.00013470958 0.00025198562 7.5475524e-05 0.00014254599 0.00026002465
9.8943754e-05 0.00021277735 0.00027861996 7.80098e-05 0.00020502011 0.00029229093 9.09268e-05 0.0002160778
0.00030463774 6.095574e-05 4.7871057e-05 5.071147e-05 6.549214e-05 5.0154315e-05 5.0160404e-05 7.118863e-05
5.6484307e-05 5.446183e-05 6.679358e-05 5.0356168e-05 5.59733e-05 7.181981e-05 5.221374e-05 5.6164885e-05
7.9340425e-05 5.7516732e-05 5.952582e-05 6.3761094e-05 5.0619135e-05 5.4207878e-05 6.778181e-05 5.2006806e-05
5.5414053e-05 7.406923e-05 5.4958746e-05 5.7825117e-05

exp_avg f4 [4]
00000000: e1be 24bc f6aa a23b aaf0 273d 5823 1abc
-0.010055275 0.004964228 0.041001 -0.009407841

exp_avg_sq f4 [4]
00000000: 47a8 573b 395e 853b 06af 0c3c cba8 b83b
0.0032906698 0.00407007 0.008586651 0.005635356
