models/dsec/dsec_half2/dsec_half2_monocular_odd_model.pth (torch, 864340 bytes, 27 tensors)

conv3d.0.weight f4 [4, 1, 3, 3, 3]
00000000: 5072 a2bd 2766 31be 09c2 43be 523f ea3b
00000010: 0b76 f2bd 6adb 9f3d 4c6e 6a3e 8784 fcbd
00000020: 937f 143c d802 a9be c7a2 ff3d 7f2b 0a3e
00000030: 7c64 0bbf 4780 87be ddbb 673e 9ff0 4a3e
00000040: 15bd 943d 42de 323e f651 653d b356 323e
00000050: ce9a 38bd dfc6 d7be 20cd 803d db4f 273e
00000060: 0e0f 2ebd e0be 93bc 3e9e 8cbd a64d 303e
00000070: 5707 4c3e 0a41 733d 0556 82bd 57b2 28be
00000080: 7086 b43c b463 a7bc b796 82be a617 12be
00000090: 9ba6 f43c 13ed 21bd 78cb 023c d285 c3bd
000000a0: 34a7 1bbd 1739 9ebc 1c11 823e 081e c7bd
000000b0: 6b51 d5be 8306 aabe e4ef 98bd 6062 5b3e
000000c0: aad2 96bd 6b00 2c3e f6d7 933c 51a9 073e
000000d0: 7bdf ad3e b7a1 2dbe 4290 a6bc f34e 69bc
000000e0: 0534 f4bd 6811 9ebd 6ffa 2cbe e403 65bd
000000f0: 6d38 3bbd 4da5 ce3c 057e a3bb fcc9 003d
00000100: ccc4 b23d 8d32 fe3d 8f72 3a3e 12a8 9bbd
00000110: 685f 1c3e 28e6 7e3d 831b 0f3d d87b f13b
00000120: e932 303d bed3 6dbd 53e3 803d 077c 693e
00000130: 460d 82bd d1eb 6b3e 7977 173e d255 98bd
00000140: 052d 023d bbb0 1e3e 8bea 103e c3ff 8dbd
00000150: 110d 54be 0038 0f3e 29db bcbd 0381 5abe
00000160: fd23 003e 6c0f 853d ce3f e9bc c0de 53be
00000170: 918d 64bd d420 673e 0d57 44bd e5cb 123d
00000180: 39cf eebd 21b5 22bc 096a 3abd 4513 d0bd
00000190: 3fc6 96be 918f 743e a964 c13e 8bf9 0dbe
000001a0: bf36 043e 24c3 513d f14e 9abd de2b 83bd
-0.0793196 -0.17324124 -0.19116987 0.0071486617 -0.11838921 0.07805522 0.22893637 -0.12329965
0.009063619 -0.33009982 0.12482219 0.13493155 -0.544502 -0.26465055 0.22630258 0.19818352
0.07262627 0.17467597 0.055986367 0.17415886 -0.04506951 -0.42143914 0.062891245 0.16339056
-0.042494826 -0.018035352 -0.0686612 0.1721712 0.19924675 0.059388198 -0.06364063 -0.16474281
0.022036761 -0.020433284 -0.2550561 -0.14266834 0.0298646 -0.039532732 0.007983081 -0.095470086
-0.038001254 -0.019314332 0.25403678 -0.09722525 -0.4166368 -0.33208093 -0.074676305 0.21424246
-0.073644 0.16797034 0.018047314 0.13248183 0.33959565 -0.1695622 -0.02033246 -0.014240014
-0.119239844 -0.07718164 -0.16892408 -0.055911914 -0.04570811 0.025225306 -0.004989388 0.031442627
0.08728942 0.124119855 0.18207763 -0.07600416 0.1527077 0.062231213 0.034938347 0.0073694997
0.0430173 -0.05806326 0.06293359 0.22801219 -0.06350188 0.23039176 0.14791669 -0.07438244
0.031781215 0.15497105 0.14151971 -0.06933548 -0.2070811 0.13986206 -0.09221489 -0.21338277
0.12513728 0.06497082 -0.028472807 -0.20690441 -0.05579907 0.22571117 -0.04793458 0.03583898
-0.11660618 -0.00993088 -0.04551128 -0.10159925 -0.29448125 0.23882891 0.3777211 -0.13864724
0.12911509 0.05121149 -0.07534588 -0.064048514

conv3d.0.bias f4 [4]
00000000: 7705 8e3d 5f87 b43c 80c0 8bbb be51 d6bb
0.06934636 0.022037206 -0.004264891 -0.006540506

gru.weight_ih_l0 f4 [300, 100]
00000000: 604e 94bc a6bd 82be a626 963d d8f2 1d3e
00000010: 0036 2d3c e742 a4bd 75ca 8dbe fbda f5bd
00000020: 36ee 093d d690 2abe 5e92 6fbe 6cfd a5be
00000030: 5812 5fbe fb6e 85be be66 09be aa2d 86be
00000040: 0c78 6ebe 9dff 44be f71b b5be dae4 03be
00000050: ce90 88be 2e5b 92be b0f2 8abd d716 113d
00000060: 20cd 2f3e 6ffd 8ebe 139a 76be 0585 6bbe
00000070: 5c18 eabd 593b ad3d 2f95 603d 9016 1ebd
00000080: 2981 d1bd 452d a83d 4da9 f83e a315 eb3c
00000090: 5298 b13d cab5 bdbb 587a 8c3e 12d0 c23e
000000a0: eec7 763e 73ee ee3d 7336 143e ebbe 8d3d
000000b0: 991e 613e df36 e2bc d50f 2c3e 17e9 923e
000000c0: b887 733e 3124 733e 8de1 293e ab34 1d3d
000000d0: 6446 003e f805 063d 315e 01be 4665 c7bb
000000e0: 3b08 8d3d f281 653d 461c a13b d27d 2dbe
000000f0: ebc3 76bc 307d ab3d c985 743c 710c 9abc
00000100: e80f 0cbe ee22 f0bc 4e17 96bc 7034 aebd
00000110: 53bc 74bd 5354 6abe 0685 a4bd 3494 983d
00000120: dfc0 a5bd a346 aebd b254 95be c39a 16bd
00000130: 83a1 113d a178 2abc 268d ee3c a214 6db9
00000140: 095e 5ebe b5a3 38bc ae15 d0bd c5b1 e2ba
00000150: 36e1 ccbd a167 88be 210f 87be 26eb 1ebd
00000160: 1619 b0bc d7f5 33be 72c3 b7be 7c4d 4bbe
00000170: 00ce 6fbd 123c 283c 198a f2bc 4777 84be
00000180: a215 a1be 2065 51be 41ed 54bd 1e9d 853d
00000190: 130a 9f3d a08f b33c 9ac6 d2be eb47 a4be
000001a0: 1d6e 9cbb ff5f 633e 8320 c4bd de46 a2bd
000001b0: 048f 2abe 9e18 093d b0b4 e83c 227d c33d
000001c0: 833f dcbd f400 bbbe b59d 52bd c0ee c1bd
000001d0: 325a ecbd 257e 0abe b6c2 0ebf 918a a4bd
000001e0: cbfd 1bbd 795e 9fbc 29b3 85be def4 dcbe
000001f0: f132 c8bd cb20 443e 64a3 d53d aee6 9a3d
00000200: 443b d6bd 6c41 8cbd 5f80 01bd 7577 5dbe
00000210: 56c0 34be 61a3 57be ed07 53be 13cc 813d
00000220: 43cc 4bbe ff98 8abe 2a3c 91be f272 47be
00000230: 6669 f1bd 9a79 81be 5b20 8ebe b3c1 6dbe
00000240: b1fb b2bd 2036 3d3d 1325 253d 9a52 01be
00000250: cc36 37be be80 ffbc b9bc 26bd 0a37 4f3e
00000260: eb9a 6d3e 929c c53e f605 c03e f5de ab3d
00000270: eeb7 573d 7114 193e 2bbf 403e 1794 a73e
00000280: 983e 483e bfc6 ac3d 41f5 a23b dfd7 263e
00000290: 9ad5 533e 2638 553e 3c2e 133e 5e66 8fbc
000002a0: f73f f13d 26d7 143e 8979 a03e 829b a03d
000002b0: b66a 94bd 2a04 84bb 5592 0a3e b428 c03e
000002c0: 51b1 363e c8e8 473e 192e d53e 2188 cd3e
000002d0: f4c9 033e dfeb fd3b 087d a03d 2eb2 1a3e
000002e0: 96e6 283e 0a69 3f3e 71ed a4bc 2400 6f3e
000002f0: 929f 8d3d a396 3a3e 665e 963e 8921 033e
00000300: 8424 6a3e 2bc5 983d 3397 b13d 6245 af3e
00000310: 4f76 0e3e 9c37 473e 10c0 b83d a96b be3d
00000320: 4f2e c3bd 1a9a ff3d 3e6b 7b3e 77e3 8a3e
00000330: a257 a03e 0a5b d2bd fc40 09bb 55d1 703e
00000340: 1fb3 003f f011 fa3d dc5f df3c e825 4bbe
00000350: 0bc4 7cbb 283b 263e 1bda 37bb 5eb5 3cbd
00000360: 6132 4dbd 70b9 e63d 7392 7e3e 0c7b 02be
00000370: 3083 943d 21cf 5cbd 7a70 d23d edcf 823e
00000380: d575 48be 5282 2dbe 948e a3be 05a6 79be
00000390: 75f6 a3be a046 8bbe b8db 68bd 239a bf3d
000003a0: 2cb4 06be 1243 cbbe 9bcd a73d f479 2ebc
000003b0: 3c47 8d3e aa63 833e a1ed d03d 42ec a13d
000003c0: 0738 15be 1998 a93d 6653 21bd 4e3b 3abd
000003d0: de73 383a 473a ccbd 0ddb 823d 9536 c23d
000003e0: 2457 a23d cf5b a43d 209f b2bd d949 7fbc
000003f0: 7f51 c1bd ac4f f5bd ebe3 23bc 502a 2dbd
-0.018103778 -0.25535315 0.0733159 0.15424669 0.010571957 -0.08020573 -0.27693525 -0.12004658
0.03367444 -0.16656813 -0.23395678 -0.32419908 -0.21784341 -0.26061234 -0.134181 -0.26206714
-0.23287982 -0.19238134 -0.35372898 -0.12880269 -0.26672977 -0.2858519 -0.0678457 0.035422172
0.17168093 -0.2792773 -0.24082212 -0.22999962 -0.114304274 0.08458585 0.054829773 -0.038595736
-0.102297135 0.082117595 0.48566666 0.02869684 0.08671631 -0.005789493 0.2743709 0.3804937
0.24099705 0.11666574 0.14473896 0.0692118 0.21984328 -0.027614055 0.16802914 0.28693458
0.23782241 0.23744275 0.16589947 0.038380306 0.12526852 0.032720536 -0.12633587 -0.006085071
0.068863355 0.05603213 0.0049167005 -0.16942528 -0.015061359 0.08373487 0.014924475 -0.01880476
-0.13677943 -0.02931353 -0.01832166 -0.085060954 -0.059749912 -0.2288373 -0.08033185 0.074501425
-0.08093428 -0.08509567 -0.2916618 -0.036768686 0.03555442 -0.010404737 0.02912004 -0.00022609768
-0.21715559 -0.0112695 -0.10160385 -0.0017295411 -0.10003893 -0.26641563 -0.2637873 -0.038798474
-0.021496337 -0.17574249 -0.358913 -0.19853777 -0.058546066 0.010268228 -0.029606866 -0.2587225
-0.31461817 -0.20448732 -0.051984075 0.06524108 0.077655934 0.021919072 -0.41167146 -0.3208612
-0.0047738687 0.22204588 -0.095765136 -0.07923673 -0.16656119 0.033470742 0.028406471 0.095453516
-0.107543014 -0.36524165 -0.051419932 -0.09469366 -0.11540641 -0.13524683 -0.55765855 -0.08034242
-0.038083833 -0.019454228 -0.2611325 -0.4315557 -0.09775341 0.19153135 0.10431555 0.0756353
-0.10460523 -0.06848416 -0.031616565 -0.216276 -0.17651495 -0.21058418 -0.20608492 0.06337752
-0.19902138 -0.27069852 -0.28366214 -0.19477442 -0.11787681 -0.25288087 -0.2775906 -0.23218422
-0.087394126 0.046194196 0.04031856 -0.12629166 -0.17891997 -0.031189319 -0.040707324 0.2023584
0.23203628 0.38596016 0.37504548 0.08392135 0.052665643 0.14949204 0.18822925 0.3273017
0.19555128 0.08436345 0.004973084 0.16293286 0.20686951 0.208222 0.14373106 -0.017504867
0.117797785 0.14535198 0.31342724 0.07842161 -0.07246916 -0.0040288167 0.13532384 0.37531054
0.17841078 0.19522393 0.41636732 0.4014292 0.12870008 0.0077490653 0.07836348 0.15107033
0.16494212 0.18692413 -0.020132752 0.23339897 0.06915201 0.18221526 0.29368895 0.12805761
0.22865492 0.07459482 0.08671417 0.34232622 0.13912319 0.19454807 0.09021008 0.09297878
-0.09530317 0.124805644 0.24552628 0.27126667 0.3131686 -0.102712706 -0.0020943275 0.23517354
0.5027332 0.122104526 0.027267389 -0.19838679 -0.0038569 0.16233504 -0.0028053585 -0.046071403
-0.050096873 0.11265838 0.24860553 -0.12742251 0.072515845 -0.05390847 0.102753595 0.2554926
-0.195762 -0.16944245 -0.31944716 -0.24379738 -0.3202397 -0.2720232 -0.056850165 0.09355571
-0.13154668 -0.39699608 0.08193513 -0.010649193 0.2759341 0.25661975 0.10201574 0.07906391
-0.14572154 0.082809635 -0.039386176 -0.045466714 0.00070363085 -0.09972053 0.06389437 0.09483067
0.07926777 0.080253236 -0.08721757 -0.0155815715 -0.09439372 -0.11978087 -0.01000307 -0.04227668

gru.weight_hh_l0 f4 [300, 100]
00000000: b133 70bc d2f8 443e 2b71 0c3e 2db3 d6bd
00000010: 8e95 a7bb e6b9 9ebd edb4 bebd aa04 463e
00000020: 09a8 763d f247 19be cc00 3ebe 7fb2 f6bd
00000030: 818e 4ebe c7fc 7abe 2c6e 7e3d ebe9 323e
00000040: a044 1abd 3a8a a33c 5295 2b3e 582b 91be
00000050: 5190 ed3c 8bc3 22be 5b0f d9bd 3fee de3c
00000060: c7b1 b9bd 77ad 243d f1b8 0fbe eb22 d23d
00000070: fead b3bd c9b1 83bd eeb4 01be a593 313e
00000080: e727 213d e60b 54be a690 e63c f981 12be
00000090: 8fce f03c a0d4 eebd f313 a53d d83b 61be
000000a0: e7b5 b2bb 32d7 913d f35f 07be 611f b4bd
000000b0: cdd3 503e 7cfe 1c3e 7e72 313d d8ce 493e
000000c0: 2a70 c63d 9910 e0bd c099 c7bc ce9c 08be
000000d0: 6218 c7bb 9062 2a3e cf72 59bd 0653 603c
000000e0: 3d76 ddbd ba7a 4c3e 2993 4fbe cfb4 983d
000000f0: 7b28 b9bd 1798 4bbd 303f 5fbe 173c 463e
00000100: 0fd1 063c 33de bcbd aea8 e93c 0ff4 853d
00000110: 4630 b0bc 7997 7dbe 390e 5fbe ba2c 7f3d
00000120: 5933 af3d 9f35 043e bac0 0c3d a59f 74bd
00000130: 7cb2 aa3c 87c2 a0bd e7f1 753d f9c2 4abc
00000140: 22de 193e 1a05 76bd b50f 523e 6faa 053e
00000150: 124d 5f3d 68fe 8ebd 8c3c 4ebe 2356 abbd
00000160: 6769 843e 0b8c 5bbe 918c 1a3e d07c c0bd
00000170: 0c17 19be 5836 04bd b9c3 313d 8b15 003d
00000180: 7e81 383d d22b 323d b4d9 03be c243 513d
00000190: 7251 d83d 501b b0be 0e45 98be 6ef4 7c3d
000001a0: 7e01 a63c 9210 8dbe 97b0 00be 86b0 c2bd
000001b0: d413 0dbd d7e8 1a3e c1a4 97be 9ad3 693e
000001c0: 5b0e 20be 0abd 733e 72a3 ffbc 14ed 283d
000001d0: 7575 f5bd 9d27 01bf f9ff 9ebd c3ec 2ebe
000001e0: 4b8c 243e 813a 2d3d bf21 9f3c 06db 403e
000001f0: 3360 2dbe cc53 bbbd fdf1 04be a7cd bbbb
00000200: d78f 6c38 6deb 463e 0608 733e 8cd7 8bbd
00000210: 2384 08be 398e 653e 6642 ab3d 39f0 1bbe
00000220: 7bda 8dbd 0761 833e 7ea9 a03d 57d9 fa3d
00000230: b64a 713e 1018 493b cedd 91bd 1399 11be
00000240: bad2 593e cea9 fabd 33f7 a5bd e1c6 d6bd
00000250: 5a9f 913d 89f4 b03c d968 48bc ca25 e83d
00000260: eaa1 79be 3576 0abd de2d 52be b657 763e
00000270: 43fb 573e cd0f 19be 8f9a 2bbe a0c4 dd3d
00000280: 67ff 4f3e f32d 61be ed78 52be fc14 1e3e
00000290: 3e55 bb3c 8fc3 813e 925c 16be 81a5 763e
000002a0: 984f febd 0764 1c3e 6db1 6cbd 1bf0 97be
000002b0: b993 70bd 2d16 343d 3c53 a13e fc79 a7bb
000002c0: 2362 11bf b6e8 513d 0474 b43d a7ec cdbc
000002d0: 430b 34be 17a1 853e 2d7a c73d 3d9b 343e
000002e0: 133b 51be 26ba da3b ff01 aa3d 06cb dfbd
000002f0: 9a63 8bbd d988 fbbc 4d0c b2be c58e 363e
00000300: f451 033e 1909 863d 2219 7f3e 0f32 f1bc
00000310: 4182 26be af95 6f3e fa4c 103e bd00 0c3e
00000320: 3b42 c03d 3247 debd 5a1f c53e f9cc 903d
00000330: 0bc9 a13e ae80 2abe da3a da3d ff5a 5d3e
00000340: dc35 463e ab8c b1bd 28af aebc 57c1 acbe
00000350: 7697 05be c1c4 febd 77e2 04bd 49eb c53d
00000360: 26f9 363e 1fbb 263e fed3 9a3e 2702 1e3d
00000370: 8a05 eabd e417 4bbd 0d0b f3bb 7859 cfbd
00000380: f53b d23c bc00 3f3d bef1 82be a751 b63e
00000390: 38d8 ddbe eab2 e0bd ac34 92be 8d27 df3d
000003a0: 9969 bdbd 9c76 b43c 30ff abbe 84e3 83bd
000003b0: ffe7 4d3e f530 2abe 2246 0e3d 117c 5bbe
000003c0: 83ca 23be 6d42 93be 5b44 ba3c fa22 a4bd
000003d0: 7dd1 f9bd d4a9 03bd dbe8 21bc 664f 06be
000003e0: 5bf8 bb3c 8cd4 d9bd 3dcb 5fbe e602 cdbd
000003f0: 4d3b 39bd d8a8 a1bd f7eb a33d 2dc5 14be
-0.014660762 0.19235542 0.13715045 -0.10483394 -0.005114264 -0.07750301 -0.093118526 0.19337717
0.060218845 -0.14968851 -0.18554991 -0.12045764 -0.20171548 -0.2451049 0.062116787 0.17472045
-0.037663102 0.019963372 0.1675618 -0.2835338 0.02899948 -0.15894906 -0.10598632 0.027213214
-0.090671115 0.04020449 -0.14035393 0.10260566 -0.08773421 -0.06430394 -0.12666675 0.17341478
0.039344694 -0.20707664 0.028145146 -0.14307393 0.02939537 -0.11661649 0.08060446 -0.21995485
-0.0054538134 0.071211234 -0.13220195 -0.087950476 0.20393296 0.15331453 0.04332208 0.19707811
0.09689362 -0.10940666 -0.024365306 -0.13341066 -0.0060759047 0.16639161 -0.053088006 0.013691669
-0.10813568 0.19968691 -0.20270981 0.074563615 -0.09040924 -0.04970559 -0.21801448 0.1935886
0.008228554 -0.09222069 0.028522816 0.06540691 -0.021507394 -0.24764813 -0.2178277 0.062298514
0.08554716 0.1291108 0.034363486 -0.05972256 0.020837061 -0.07849603 0.06004515 -0.012375587
0.15026143 -0.06006346 0.20513804 0.13053297 0.05451686 -0.06982118 -0.20140284 -0.08366039
0.25861666 -0.21440141 0.15092684 -0.09398806 -0.14950198 -0.03227839 0.043399546 0.031270545
0.04504537 0.04349882 -0.12876016 0.05109001 0.105624095 -0.34395838 -0.29740185 0.061756544
0.020264383 -0.27551705 -0.12567364 -0.095063254 -0.034442738 0.15127884 -0.29617885 0.22834626
-0.15630476 0.23802581 -0.031205866 0.04124172 -0.11985294 -0.5045107 -0.07763667 -0.17082505
0.16069143 0.04229212 0.019425271 0.18833551 -0.16931228 -0.09146842 -0.12982936 -0.005731303
5.6400746e-05 0.19425745 0.2373353 -0.06828222 -0.13331656 0.22417535 0.08362274 -0.15228356
-0.069264375 0.25659963 0.07844828 0.122484855 0.23563656 0.0030684508 -0.07122384 -0.1421855
0.21271792 -0.12239419 -0.0810379 -0.10487152 0.07110472 0.021600978 -0.012232029 0.11335333
-0.24378172 -0.033804137 -0.2052531 0.24056897 0.21091942 -0.14947434 -0.16758178 0.10828519
0.20312272 -0.21990184 -0.20553942 0.15437692 0.022867795 0.25344512 -0.1468375 0.24086572
-0.12417525 0.15272532 -0.057786394 -0.29675373 -0.05873463 0.04396646 0.31508815 -0.005110977
-0.5679037 0.05124732 0.08811191 -0.025137259 -0.17582421 0.26099464 0.097401 0.17637344
-0.20432691 0.0066750227 0.08301162 -0.109273955 -0.06806107 -0.030704902 -0.3477501 0.178279
0.12824231 0.06544704 0.24911931 -0.029442815 -0.16260625 0.23396944 0.14091864 0.13672157
0.093876325 -0.10853423 0.38500482 0.070703454 0.31598696 -0.1665065 0.10655756 0.21616744
0.19356483 -0.086694084 -0.021323755 -0.33741257 -0.13046059 -0.124398716 -0.032442536 0.09664018
0.1786848 0.16282319 0.30239862 0.03857627 -0.11426838 -0.04958333 -0.007417089 -0.10124487
0.025663355 0.04663156 -0.2557506 0.3560917 -0.43329024 -0.10971625 -0.2855581 0.108962156
-0.09248657 0.022029214 -0.3359313 -0.064398795 0.2010803 -0.16620238 0.034734853 -0.21434046
-0.15995221 -0.28761616 0.022737673 -0.08014484 -0.1219816 -0.032144383 -0.009882177 -0.13116226
0.022945574 -0.10636243 -0.21854873 -0.100103185 -0.04522257 -0.078935325 0.08003991 -0.14528342

gru.bias_ih_l0 f4 [300]
00000000: 48a2 eabd a1fc 06be caff 5b3d 3931 3fbe
00000010: d937 c33d b03a 5fbe a2a3 24be 00d0 3cbd
00000020: a0d1 f0bd 1839 31be 8578 073d 8f03 f3bd
00000030: 9327 65be e1a4 34bd fb60 f53c 47eb cb3b
00000040: 66c5 a0bd 28c5 cd3c 24da 26be 5308 69bb
00000050: 5395 45be d8d2 29bd e62c 00be 29d0 cc3b
00000060: a9f6 923d 3570 843c a406 f2bd 0f95 6a3c
00000070: f97a c5bd 3dee 13be 1df8 2abe bd1e e0bd
00000080: 889d f6bd 76cf 96bc 2a4f 91bd c4f6 4ebd
00000090: eebb fabd d020 b5bd 2a28 cb3a 000e fc3b
000000a0: 80f2 823c 19a0 963c 62e4 0cbe b6bc cfbc
000000b0: 3941 c0bc 81a7 1dbd 4799 01be 0275 21be
000000c0: e29d ab3d c84e dcbd 4d5c 05be 6b23 643d
000000d0: 165a 0fbe daa1 44be 2107 4fbd 9b58 833d
000000e0: cf0a 18be 4438 ffbd 930b 5abe f29d 03be
000000f0: 489c 06be a431 223e 5cea d0bc daf2 81bc
00000100: 1147 d3bd 43da 233d 9be4 05be 69e4 09be
00000110: 9783 9abd 2cba 2bbe dc97 3cbe ff54 b9bd
00000120: f9da 36bd 422f 87bd 8c3a 903e 76a6 96bd
00000130: 2496 9cbd d585 39bd 4180 c03b 1eb7 68be
00000140: fcca f2bd 9f43 14be 7159 dabd 12fe 33bd
00000150: 5983 b9bc 0857 16be 2940 1a3d 87c8 ddbd
00000160: e78c f9ba b77d 1cbe 3cca 0abe 2b2e b63d
00000170: 14fb a7bd 5bf0 fdbd a095 12be 5c59 07be
00000180: 35b3 efbd ed35 99bd 02de 60bd da89 6a3d
00000190: 9de8 493e 6e25 cb3c c738 16be 992d 98be
000001a0: 0aa4 a43d 7bbf 9f3d 6638 14be def9 1d3e
000001b0: 413e 6a3d 8cba 583e 5b82 f5bd 1959 8dbd
000001c0: c2b3 253e 88e1 c3bc 0645 8b3e a60e dd3d
000001d0: 2f9d be3d ae6f e1bd 7c4e 40bc eb16 9a3e
000001e0: c021 b4bc 9713 d83c 223a 153d 82c3 5d3e
000001f0: 8d39 69ba 2f48 003e d4e5 debd 8c3a acbc
00000200: 8c48 afbc 3811 9ebb ef57 b93d 8a73 a2ba
00000210: 7f91 ae3c 45bd 6f3e 66eb 9e3d 36a2 fc3d
00000220: 4481 b43d f021 36bc e9f2 693e c4de 093d
00000230: 88b6 c6bd 2a64 6a3e 8d18 aabd 5249 3c3e
00000240: d301 cd3c f40d 973d e757 49be 4a57 863e
00000250: b5ba c3bd 9ee4 223e afa5 03be 25c4 c53d
00000260: 519e 823e 4422 143e 1f5a 10bd a1c5 663e
00000270: 1061 82bb 88a0 383e 8a9e 823d 4435 0ebe
00000280: af00 febd d897 973d fc7f 73bc 0c47 a23e
00000290: 9574 803d fedc aa3d 8bc4 afbd 61fd 70bd
000002a0: 2829 5a3e 3074 d73a 73f8 9d3d d066 913d
000002b0: 8e8e b33b 1528 dd3d 33de a53e c383 53be
000002c0: ba2a a0ba 8550 8cbe 3eb9 a83c 4914 893c
000002d0: 9d5e 883e a29c ae3d 1ea5 7a3e 8509 283e
000002e0: 8ace 603c e56d 113d 6616 d93d 36a3 c83d
000002f0: 54ea 053e b1b2 a23d af8a 393e e39b 68bd
00000300: def9 52bd 2033 30be fd0d 763e 4a4f 983e
00000310: 5d67 80bd cf5a fcbd a4d9 d7be 4bb2 52be
00000320: 37be 9abd 0841 b13d 2a25 113e eaf6 26bd
00000330: fb53 d23c d434 e03d bf49 dc3d 51fa 353c
00000340: 933d cabd 8d17 2fbc 2e38 a93c fabd 41be
00000350: e342 6d3d 17a8 e1bd fc2a 9bbd 5413 8c3c
00000360: 44a4 6f3c 8f5c dd3d 73ad 473c 68d4 dc3d
00000370: 653e 17bd f81a 1a3d 5663 d43d 97a6 b03d
00000380: 235a 0e3e 51ea 193d e714 7e3d b0a3 5d3e
00000390: 0fcd bb3a b3d4 82bd eb09 e9bd 42c2 c4bb
000003a0: 6e5b 833c 6aac 1c3b 5d1e 77bd 2d18 e63b
000003b0: 9734 933d b543 14be c3d4 903d 74de 213d
000003c0: addc bfbd 6603 50bd 027e ab3d 71eb 1a3e
000003d0: 8add 49be 9561 df3d 477f 553c c46e 073e
000003e0: 3ea3 303d 35dd a8bc 9461 84ba 0f4a a2bd
000003f0: e153 033e 9fd8 25bc 0f5d 003e f7a2 d33d
-0.11456734 -0.13182308 0.053710736 -0.1867112 0.095321365 -0.21799731 -0.16078046 -0.0460968
-0.11758733 -0.17306936 0.03307392 -0.11865913 -0.22378378 -0.044102553 0.02995347 0.0062231156
-0.07850151 0.025118425 -0.16294152 -0.003555794 -0.19295244 -0.041460842 -0.12517127 0.0062504006
0.07175953 0.016166786 -0.11817673 0.014317765 -0.09642596 -0.1444635 -0.1669621 -0.10943363
-0.120417655 -0.018409472 -0.070951775 -0.050528303 -0.12242876 -0.08844149 0.0015499641 0.0076920986
0.015984774 0.018386887 -0.13758996 -0.02535854 -0.0234686 -0.038489822 -0.12656127 -0.15767291
0.08379723 -0.10757214 -0.13023491 0.05569784 -0.13999209 -0.19202366 -0.050543908 0.064133845
-0.14847873 -0.12461904 -0.21293478 -0.1285322 -0.13145554 0.15839249 -0.025502376 -0.015862871
-0.10316289 0.040003072 -0.13075487 -0.13466038 -0.0754463 -0.16770238 -0.18417305 -0.09049415
-0.044642422 -0.066008106 0.28169668 -0.07355969 -0.076458246 -0.045293648 0.005874664 -0.22726104
-0.118551224 -0.1447892 -0.10661591 -0.043943472 -0.02264564 -0.14681637 0.037658844 -0.10829263
-0.0019039185 -0.15282331 -0.13553709 0.088955246 -0.08202186 -0.1239936 -0.1431489 -0.13217682
-0.11704103 -0.07480989 -0.054899223 0.05726037 0.19717641 0.024798121 -0.14670096 -0.29722288
0.080391005 0.07800194 -0.1447464 0.15427348 0.057188276 0.21164912 -0.11987754 -0.0690176
0.16181853 -0.023911253 0.27201098 0.107938096 0.09307324 -0.11007629 -0.011737462 0.3009561
-0.02198875 0.026376529 0.036432393 0.21656612 -0.00088968204 0.12527536 -0.1088368 -0.021024011
-0.021396898 -0.00482383 0.09049975 -0.0012394052 0.021309612 0.23412044 0.077597424 0.12335627
0.08813718 -0.01111649 0.22846569 0.03365971 -0.09702784 0.22889772 -0.08305464 0.18387344
0.025025284 0.07375708 -0.19662438 0.2623847 -0.09557096 0.15907523 -0.12856172 0.09656552
0.2551141 0.14466196 -0.035242196 0.22536327 -0.003978856 0.18029988 0.06377895 -0.13887507
-0.12402474 0.07402009 -0.014862057 0.3169483 0.06272236 0.08342932 -0.085824095 -0.05883539
0.21304762 0.0016437825 0.077134036 0.07099688 0.0054796403 0.10798661 0.32396087 -0.20655732
-0.0012219765 -0.27405182 0.020596143 0.016733306 0.26634684 0.08525969 0.2447705 0.16409881
0.013721118 0.035505194 0.10599975 0.09796755 0.1307767 0.07944239 0.1811931 -0.05678929
-0.051507823 -0.17207003 0.24028774 0.29747993 -0.06269715 -0.12322008 -0.42158234 -0.20575826
-0.07555812 0.08654982 0.14174333 -0.04076282 0.02567481 0.10947576 0.107562535 0.011107043
-0.098750256 -0.010686767 0.020656671 -0.18920127 0.057925116 -0.11018389 -0.07576558 0.01709906
0.014626566 0.1080867 0.01218735 0.10782701 -0.03692474 0.037623376 0.10370509 0.086255245
0.13901572 0.037576977 0.062031653 0.21644473 0.001432808 -0.063882254 -0.11378845 -0.0060046026
0.016034808 0.0023906478 -0.06033169 0.007021925 0.07187765 -0.14478953 0.07071831 0.03951879
-0.093682624 -0.05078449 0.083736435 0.15128876 -0.19713417 0.10907284 0.013030834 0.13225847
0.04312443 -0.020613292 -0.0010099881 -0.07924282 0.12824966 -0.010122447 0.12535499 0.103338175

gru.bias_hh_l0 f4 [300]
00000000: 0cd3 85bd ce4d 68be 95eb b5bc 856a 1dbe
00000010: cd03 a53d d41d c8bd 72b2 15be b0d8 f2bd
00000020: 0418 93bd 3339 24be 6acf 89bd f172 76be
00000030: cd88 a4bd ae8a 45bd b2ec 42bb 2f42 7bbc
00000040: f92e 3ebe 7dc3 733c b067 00be 0a6f 42bd
00000050: dd42 f6bd 0515 46be 738e 97bd b289 a63d
00000060: f5f4 0d3e d2b9 66bd 49a3 bb3c 823c afbc
00000070: 4d50 9ebd 6569 cebd cd18 2fbe 70c5 e5bc
00000080: ac12 52bd 683e a4bd b1d0 07be c3bb 34be
00000090: 2603 31be 88b3 39be d474 783d 9a8c 623d
000000a0: a3d3 07bd 1563 943c e856 50be fa79 afbd
000000b0: f1df 75bd 2277 24be 4784 eebc 3635 83be
000000c0: a5ef 79bc d0e8 53bd 8e5f 4ebe 0d07 5d3c
000000d0: 7376 43bd 37b1 14be bcef 37bd 7064 c43c
000000e0: a6f4 0fbe 923a 8dbd 6dfd 93bd 9aef 03be
000000f0: 4fde 09be 7ea4 4b3e 2718 183d c73e 283d
00000100: 7f0b 4abd 81b8 3b3d 919d 0abe 4eca e4bd
00000110: 3302 0d3c c598 04be 04b4 23be 60cf 22be
00000120: 194d 73bd 942e 953c 1676 8d3e 8cc2 b3bd
00000130: d401 b0bd 6e92 febd a035 4a3d ca77 0cbe
00000140: a32f 80be ed4b a93c c9f9 f5bd 8584 e0bd
00000150: 1132 b9bd 511a 54be 1a23 be3c 2490 ab3c
00000160: 59e6 be3c f03b cdbd d977 4dbe cdb1 6e3d
00000170: 4ff9 00be 3022 4dbe 9fae 90bd 3128 cfba
00000180: da91 d7bd 9883 7cbc 2d57 39bd 93ab 8b3c
00000190: d6fb 713e 1277 113d 20ff 0cbe 0b5d 71be
000001a0: 1f5e 623e 6fc4 003e 79e5 e9bb e943 473e
000001b0: 4ff4 ec3d 3f27 3f3e e614 14be 01e1 403b
000001c0: 9225 ee3d 8b30 dd3d c741 3f3e 9ad3 043e
000001d0: 0021 d63d f379 edbd cd2d 9d3d 3ca5 623e
000001e0: 5e4c 02be 769d 82bd e106 563d ad3a b03e
000001f0: d9a5 f73d 4aec 783d 0d82 fabd e911 e1bc
00000200: c148 08be ac5a bc3d 9990 bdba 799e af3d
00000210: 3852 34bd 8a75 ea3d 2cd9 073d 8f21 703e
00000220: 99c3 01bd ab83 f9bd 36e1 b03e 1da5 e93d
00000230: 0fa6 07bd f50a b73d fd4b c43c 891d 8c3e
00000240: a240 b0bd 9997 1d3e 3b72 26bd 5016 9d3e
00000250: 7c66 98bd ebda 013e 1c51 e5bd 7a51 223d
00000260: f3a3 923e 1a11 833e c043 77bd d09c 853e
00000270: 7aa2 56bd 318d 3d3e d962 cf3c 8bee 473c
00000280: 5ef1 26be 333b 243e 08bb 89bb 01bf 8f3e
00000290: 0ef8 c33d 76d0 d33d f2a9 d6bd 25d3 afbd
000002a0: acc2 4e3e 5f80 b7b9 b9be 003e ad5a 793d
000002b0: 37e9 953c 425d d43d 640c 3e3e e0f5 6ebd
000002c0: 11a8 72bd 9379 26be fc23 ae3c b3c1 8f3d
000002d0: f4ec 033e 34a6 d43c de44 653e 5908 873e
000002e0: 8c27 1c3c 84bd 533d 5624 b43c b166 413e
000002f0: 97f8 123e 069b 43bd 322b 383e aa74 7c3d
00000300: 29f5 423d 7338 9cbe eccb 3b3e bbbb 6c3e
00000310: 89a0 42bd 6290 d4bc 1df9 e7be 5409 29be
00000320: 5387 e9bd b323 a03c 4445 e33d 8bd1 01bd
00000330: 545c 613d 872e 2a3e 1c7b a13d 4aa0 873d
00000340: 98dd 23bd 5bfa 453c aed8 163e d63a 20bd
00000350: 4b4e 0e3e 5eac eabd 8bc3 fb3c 8f2e 613b
00000360: 0dff 0e3d c940 053d 0e81 c2bb 78e1 283e
00000370: 00ed 30ba 89b7 c03d 05cc 133e baad cb3c
00000380: 8e35 383e 4ef6 6b3d 3bf7 85bc 9bf2 223e
00000390: 0c83 adbd 9c56 c4bd bb44 2cbd 9f20 b43c
000003a0: d1e9 933d 43bf 0e3c 59e6 963d b696 b63d
000003b0: a940 f13d 58d5 84be f2b8 973d f71d 94bc
000003c0: 698d 02be 1fe8 39bd 027e 033e d7af 403d
000003d0: 63e3 4dbe e17d b23d 8844 483e 547c fe3c
000003e0: 8336 713d 162c d93c f702 c4bd 81fe 85bd
000003f0: 75ef 9f3d 0bc4 823d 8524 223e 6552 bcbc
-0.065343946 -0.2268593 -0.02220706 -0.15372665 0.080573656 -0.09771314 -0.14618853 -0.11857736
-0.07182315 -0.16037445 -0.06729014 -0.24067284 -0.08033905 -0.04822796 -0.0029743132 -0.015335604
-0.18572606 0.014878151 -0.12539554 -0.047469176 -0.12024472 -0.19343956 -0.07400217 0.08131732
0.13862975 -0.056329556 0.022905009 -0.021391157 -0.0773016 -0.10078696 -0.17099304 -0.028048247
-0.05128734 -0.080197155 -0.13263203 -0.1764975 -0.17286357 -0.18134892 0.06065829 0.05530987
-0.033160817 0.018113652 -0.20345652 -0.08568187 -0.06002802 -0.1606107 -0.02911581 -0.25626534
-0.01525489 -0.0517357 -0.20153639 0.013490451 -0.047720384 -0.14520727 -0.044906363 0.023973674
-0.1405817 -0.06895937 -0.072260715 -0.1288437 -0.1346371 0.19886968 0.03713241 0.041075494
-0.04932737 0.045830254 -0.1353667 -0.11171399 0.008606481 -0.12948902 -0.1598664 -0.1589942
-0.059399698 0.018210687 0.27629155 -0.08777341 -0.08594099 -0.12430273 0.049367547 -0.13717571
-0.25036344 0.020666087 -0.12010533 -0.10962776 -0.090427525 -0.20713164 0.023210097 0.020942755
0.023303198 -0.10021198 -0.2006525 0.058275033 -0.12595104 -0.20032573 -0.07064556 -0.0015804825
-0.10525866 -0.015412234 -0.045249153 0.017049586 0.23631224 0.035513945 -0.13769197 -0.2357065
0.22106217 0.12574933 -0.007137951 0.194595 0.11570036 0.18667315 -0.14461097 0.0029430988
0.1162826 0.108002745 0.18677436 0.12971345 0.10455513 -0.115955256 0.076747514 0.22133344
-0.12724444 -0.063776895 0.052252654 0.34419766 0.1209218 0.060772218 -0.122318365 -0.02747436
-0.13309003 0.09196982 -0.0014462649 0.08575148 -0.044023722 0.114482 0.033166096 0.23450302
-0.031680677 -0.12183317 0.34546822 0.11408446 -0.03311735 0.08937637 0.023962015 0.27366284
-0.08606078 0.15389861 -0.040636282 0.30681086 -0.07441422 0.12681167 -0.11197111 0.039628483
0.28640708 0.25598985 -0.060367346 0.260962 -0.052401043 0.18510891 0.025315689 0.012202869
-0.16303012 0.16038208 -0.004203204 0.28075412 0.09568797 0.10342495 -0.10481633 -0.085851945
0.20191449 -0.00035000124 0.12572755 0.06087749 0.018299682 0.1036935 0.18559414 -0.058339953
-0.059242312 -0.16257314 0.021257393 0.07019367 0.12883359 0.025958158 0.22389552 0.26373556
0.009530913 0.051694408 0.021989983 0.1888683 0.14352642 -0.047755264 0.17985228 0.061634697
0.047597084 -0.30511817 0.18339509 0.23118488 -0.04751638 -0.025947753 -0.45307246 -0.16507465
-0.11402764 0.019548273 0.11097196 -0.031693976 0.05501969 0.16619311 0.078848094 0.066223696
-0.04000625 0.012083615 0.14731094 -0.03911861 0.13897054 -0.11458658 0.03073289 0.0034360026
0.034911204 0.032532487 -0.0059357947 0.1649226 -0.0006749183 0.094100066 0.14433296 0.024863113
0.1798918 0.05760794 -0.01635324 0.15912859 -0.08472261 -0.09586832 -0.042057734 0.021988211
0.07222331 0.008712593 0.07368154 0.089154646 0.11779911 -0.25944018 0.074083224 -0.018080695
-0.12749256 -0.045387384 0.12841037 0.047042694 -0.20106272 0.08715416 0.19557393 0.031065144
0.058889877 0.02651028 -0.09570878 -0.065426834 0.07809345 0.063850485 0.15834244 -0.022988508

dense_output.0.weight f4 [100, 100]
00000000: 92a0 e7bd 2fef ecbd 8f67 3cbd bc92 87bd
00000010: 2ca4 033d d54f d23b 3d2e 90bc 6991 8b3d
00000020: 2468 00be a722 afbd 351c 8dbc 376f 8e3d
00000030: 0dc3 c33d e51a 533c 15d9 fdbb 0141 2f3c
00000040: 00ca c5bd 35e8 653d 56a3 063d 2769 9b3d
00000050: 5147 25bc 8d07 0cbd bd92 2f3d e744 dabb
00000060: d29c f23d d216 d23d f98c 18bc ebf0 023d
00000070: f5a9 90bc 0820 eabc 8ceb 60bd f7e4 65bd
00000080: 8747 743d b5fa b53c 0f49 69bd cabc 4ebd
00000090: 9168 31bd 2db1 f33d 31fa a63c 4af0 223e
000000a0: 1e1f dc3d d67d 493d 9e37 3cbd 9bcb 753d
000000b0: 5c3f 03bd 9f0e 1a3d 428a bf3c e4e9 2c3d
000000c0: 589f 953d c55a cb3d dacd 333d 313f 303d
000000d0: 5285 af3c 07ea 8cbd 1080 d63d 6dd4 333b
000000e0: aed3 933d f803 e7bd 281e f3ba f205 56bd
000000f0: f705 853c 9310 743d a4c6 3a3d c9eb 17bd
00000100: 0e8c 1dbc 0619 77bd 29d7 8fbc acb5 d0bd
00000110: eb21 a43c 9b5d eb3d acac 74bc 9b59 dc3d
00000120: 1465 db3d 9930 dfbb 9db9 1bbd 6cf4 49ba
00000130: cbad d13c 7f4a 2fbd 9fa9 1ebd 77bd 55bd
00000140: 1f17 0b3d a3d5 fa3d e023 37bb cc7b ccbd
00000150: d99a 0c3c 4dcd 543d a2ad e63d 9f07 0bbd
00000160: 4d16 0abe 565d 353d 56a9 0e3c 8348 9c3d
00000170: 9e03 3bbd 83d3 c1bc 1376 38bd 43a1 0abc
00000180: fa69 763d f170 d03c 84bd a33d a342 473d
00000190: e679 fe3c f301 90be 11c9 f2bd b1b4 1d3e
000001a0: 9046 aa3c a4cd 053d 71ae 663d 49e2 a9bd
000001b0: 543a b43c 3317 bf3d 6761 03be 47d9 053e
000001c0: 2deb 803c d483 54bc df4e eabb bd66 7fbe
000001d0: cb57 8b3b 4f51 69bb 1eea 983c e917 c9bd
000001e0: a6c7 acbd a14d a7bd 6248 2abd f166 263e
000001f0: 3f86 973c c790 1d3d 4221 483e 6251 4c3d
00000200: 689e af3d 8767 aa3c f429 d3bc 9109 79bd
00000210: 7671 c93d a899 a7bc 9f61 f73d 8e61 a03d
00000220: 0a62 75bd da5f 2c3e 6ebe fd3d 7e4f 0b3e
00000230: 0175 d1bb 2edb 3abd 96e4 f03b a159 4dbd
00000240: 2261 6f3d 1794 01be 4d7a 68bc 20d0 a73d
00000250: 0364 02bd 4795 8fbd 7563 053e d61c e83c
00000260: 2b59 94bd c97f b9bd 936c a23c 1c9d a33b
00000270: dd3e b23c 4374 edbd 50bb 013b 851d 4a3b
00000280: 8b77 03bd b514 ddbd 83a2 babc d6dd 8dbb
00000290: f238 03bd 2000 2dbd ba72 f8bd f594 28be
000002a0: 5b05 d9bc 1cfd 78bd ebb9 9e3c 3add a03d
000002b0: 7776 eabc 084c d9bd b265 783c 860a ecbb
000002c0: db96 40bd 967d 3f3e 48bd ecbd d2fd 70bd
000002d0: 43e8 503e 1223 a6bb af3a f0bd d9b3 8ebc
000002e0: 2170 2ebe 10b8 c03d 6e2d 04bc 2f4d 6d3d
000002f0: 9555 6f3c 74d2 40bd 1d2e 0ebd 6226 0d3e
00000300: afad a5bc ab9f bf3c 8ba9 08be 9c02 bb3d
00000310: 2ae2 1f3d a8bc 8b3e edcf 8b3d bde8 5bba
00000320: 801b e0bc 17e1 d4bd 7d09 97bc 2092 0d3d
00000330: 5e21 2fbd 6269 6ebc a999 80bd b657 0dbd
00000340: ce24 85bd 18a4 06bd b5a4 d43d 48c7 c5bd
00000350: 7020 58bd 4eb3 d1bc 9251 babd 3fd3 18bd
00000360: f5c8 e33c 5267 c13d 802a f0bc e641 af3d
00000370: 63eb f7bd ad68 153b c99e 993d 349d 47bc
00000380: 7f08 1bbd 9134 983c f4d8 d7bd 8a4b adbc
00000390: 98de cd3d 4f5f d53d 6f06 7ebc 4b65 9bbd
000003a0: 0703 cc3c 1161 a43c 33ce 34bd 5699 b9bc
000003b0: 4e1c c93c f00c 28bc b27c 223e e003 31bd
000003c0: 1c29 cc3d 5239 d5bc f73b fe3a 6246 f23c
000003d0: b5ce e6bd 1de7 59bd 65fc c6bd 0607 04be
000003e0: f304 093d 8703 f6bc 94f0 61be a938 3f3d
000003f0: 7c39 93bd 25a7 f73b fb0b 44bd a101 d9bc
-0.11309923 -0.11569058 -0.0459972 -0.06619784 0.03213899 0.006418208 -0.017600173 0.06814844
-0.12539726 -0.08551531 -0.017225364 0.06954806 0.09558687 0.01288483 -0.0077468255 0.0106966505
-0.09657669 0.056129653 0.032870613 0.075884156 -0.010087804 -0.03418689 0.04286455 -0.006661046
0.11846317 0.10258259 -0.009310954 0.03196804 -0.017659167 -0.028579727 -0.054912135 -0.05612656
0.059638526 0.022214273 -0.05695444 -0.050473012 -0.043312613 0.11899028 0.020382972 0.15911976
0.10748123 0.049192272 -0.04595148 0.060008626 -0.032042846 0.0376116 0.023381356 0.042215243
0.07305783 0.09929422 0.043897487 0.043029014 0.021425877 -0.06880575 0.10473645 0.0027439848
0.07218109 -0.11280054 -0.0018548416 -0.052251764 0.016238196 0.05958612 0.045599595 -0.037090097
-0.009615911 -0.0603266 -0.017558651 -0.10190901 0.020035705 0.11492463 -0.014933746 0.107592784
0.107126385 -0.006811213 -0.03801881 -0.0007703963 0.025595566 -0.042795654 -0.038735982 -0.05218264
0.033957597 0.12247779 -0.0027944967 -0.0998455 0.00858184 0.051953603 0.112635866 -0.033942815
-0.1348507 0.044278465 0.008707365 0.07631018 -0.045657746 -0.023660427 -0.04503448 -0.008461299
0.06015966 0.02544448 0.079951316 0.048647534 0.031063985 -0.28126487 -0.118547566 0.1540096
0.0207856 0.032666817 0.056318704 -0.082951136 0.02200047 0.09330597 -0.12830125 0.13071166
0.01573714 -0.012970883 -0.0071505154 -0.24941535 0.004252409 -0.0035601442 0.018666323 -0.098190136
-0.084365174 -0.081691034 -0.041572936 0.16250207 0.01849663 0.03846815 0.19543937 0.0498823
0.085751355 0.020801319 -0.02577684 -0.06080014 0.09836094 -0.020459011 0.120791666 0.07831107
-0.05990795 0.1683344 0.12389837 0.13604543 -0.006392122 -0.045619182 0.0073514683 -0.050134305
0.058442242 -0.12654148 -0.014189315 0.081939936 -0.03183366 -0.07010894 0.13026221 0.028334063
-0.0724357 -0.09057576 0.019827163 0.004993094 0.021758491 -0.11594441 0.0019795485 0.003084035
-0.032096427 -0.10794965 -0.02278257 -0.0043294234 -0.03203673 -0.042236447 -0.12131257 -0.16463073
-0.026491811 -0.06078826 0.019375762 0.078546956 -0.028620942 -0.10610205 0.015160965 -0.007203403
-0.047018867 0.18700251 -0.1155954 -0.058835812 0.20401101 -0.0050700987 -0.11729943 -0.017419742
-0.17034961 0.09410107 -0.008067472 0.057934936 0.014607807 -0.047075704 -0.034711946 0.13784173
-0.02022442 0.023391565 -0.13345926 0.09131357 0.039034046 0.2729237 0.06826768 -0.0008388868
-0.027356863 -0.10394495 -0.018437142 0.034563184 -0.04275643 -0.014551492 -0.06279308 -0.034507476
-0.065011606 -0.032871336 0.10382978 -0.096571505 -0.05276531 -0.025598194 -0.090975896 -0.037310835
0.027805785 0.09443535 -0.02931714 0.08557491 -0.12105443 0.0022797987 0.07500989 -0.012183476
-0.0378499 0.018579753 -0.105394274 -0.021154184 0.10052222 0.10418569 -0.015504464 -0.075876795
0.024903787 0.020065816 -0.04414196 -0.022656124 0.02454963 -0.010256991 0.1586788 -0.043216586
0.099687785 -0.026028309 0.0019396533 0.029574577 -0.11269895 -0.053198922 -0.09716109 -0.12893304
0.033451986 -0.030030979 -0.2206443 0.046684895 -0.07188699 0.007557767 -0.047862988 -0.026490035

dense_output.0.bias f4 [100]
00000000: 62f0 f23d a7b5 16be 835f e3bd 4cfc 7abe
00000010: dbec 193d 7d11 f03c 7ede 51bc 46c0 453e
00000020: df7f edbd 0252 42be ebef 3fbe 6e6b a93d
00000030: 4ee9 19be 565c 013d 47e5 6abd 479d d1bd
00000040: 3354 c1bd dbe2 e4bc d3af eebd 5996 15be
00000050: 6eaa dd3d 4439 81bd f2ff d7bd 018d 713c
00000060: 586a 3b3e 9fba 02be 601b 00bd 06d5 adbd
00000070: 6eb3 12be 31e3 88bd 1e9f f0bd 1656 29bd
00000080: e3a7 edbc 7c42 33be 29d1 88bd b000 34be
00000090: f565 a0bd 6509 e1bd 4323 09be 5773 d7bd
000000a0: 4cf4 903c 173a 45be ef31 40bd 872f efbd
000000b0: 7e58 1a3c 79d0 0e39 0754 123e e399 af3d
000000c0: 44de ec3c ba47 10bd 7fb4 8cbd 1aa6 1bbe
000000d0: 8059 0b3d b956 bbbd 3b61 a43d 3ad3 33be
000000e0: dc34 33be f688 60bd f97b bebd a182 25be
000000f0: 92ff fc3d 797c 063e 8508 7cbc b7a9 a3bd
00000100: d183 bbbd 26dd 7e3b a27c 3fbe 95c6 f23c
00000110: f523 27be 96a3 d83b 4f4d 2ebe 8424 08bc
00000120: aea0 d53d e516 d0bd 0e24 49be 357d 31be
00000130: eb05 c8bd fe0f d4bd 6b58 5e3e 8a8a 4e3b
00000140: f082 b23d 05e7 88bc fa26 003e 90f8 f7bd
00000150: 92b7 90ba 5c89 4cbd 887d 9cbc 1343 0e3b
00000160: aafa 3c3d 4fe8 97bd 0ef2 d73d 081f 343e
00000170: f5b0 383e 7cb9 46be 3fa8 b2bd 30d6 a6bc
00000180: c12d 7ebe 60fd 123d a036 9e3a 909c 8dbd
0.11862256 -0.14717732 -0.11102202 -0.24510306 0.0375794 0.029305214 -0.012809394 0.19311628
-0.11596655 -0.18976596 -0.18743865 0.08272444 -0.15030405 0.0315822 -0.057347562 -0.102350764
-0.09439888 -0.027940204 -0.116546296 -0.14608134 0.108235225 -0.06309751 -0.105468646 0.014743091
0.18302286 -0.12766503 -0.031276107 -0.084878966 -0.1432626 -0.06683958 -0.11749099 -0.041341864
-0.029010719 -0.1750583 -0.06680519 -0.17578387 -0.07831947 -0.1098812 -0.13392358 -0.10520046
0.017694615 -0.19260441 -0.04692262 -0.11678987 0.009420512 0.00013619837 0.14289866 0.085742734
0.028914578 -0.035224654 -0.068703644 -0.15200081 0.0340209 -0.091474004 0.08026358 -0.17561045
-0.17500633 -0.054818116 -0.0930099 -0.16163112 0.12353434 0.1313342 -0.015382891 -0.07991355
-0.09156001 0.003888914 -0.18699887 0.029635707 -0.1632231 0.006611298 -0.17021678 -0.008309487
0.10431038 -0.10160617 -0.1964266 -0.17332919 -0.09766754 -0.10354613 0.21713416 0.0031515681
0.087163806 -0.016711721 0.12514868 -0.121079564 -0.0011041036 -0.049935684 -0.019102827 0.002170746
0.04613749 -0.07417356 0.10544215 0.17589962 0.18036254 -0.19406694 -0.08723497 -0.020365804
-0.24822141 0.03588617 0.0012070723 -0.069146276

dense_output.3.weight f4 [1, 100]
00000000: 1373 ff3c 5a61 9dbc 5d1a 8ebc 4fd4 f7bd
00000010: 18c5 89b6 da0b d23c c9bc d8bc 811a a33d
00000020: 8295 a2bc c988 44bd 7483 ea3b 8c84 983d
00000030: 0180 4bbd b447 283d 83db 303b b699 723c
00000040: e5ef eabb 9e5f c5bd 25bd dc3b 7cab f13a
00000050: 2b85 0d39 7ab5 bebb 4366 c0bb 11e8 413d
00000060: 3095 3c3d 40b9 3c39 d5e2 413b 8a44 9b3c
00000070: 9074 bbbd f121 8abc d79a cdbb 8761 223c
00000080: 181d 1fbd 8baa a8bc 42aa f1ba 79fc 9eba
00000090: 4b9d 73bb 3d30 84bc 401d c2bc ef83 9abd
000000a0: 1a5d 073d b83f 313e 7e85 f0bb d69a b13a
000000b0: 4af2 ea3c 7280 883c 4f29 903c 5acc 973a
000000c0: 2126 233d 9e0a cb3b 134c 57bc 3734 d43c
000000d0: d7f6 8abc d3d5 0ebc 8c53 e63c 595f 9abc
000000e0: 1115 0bbd 1423 063b d393 0dbb a14a 83bc
000000f0: 774c 8f3d ebb4 843d 4b45 0d3b 74f8 a4bb
00000100: 6dcd a93c 9aa6 5939 9e26 b5bc 8093 9b3d
00000110: 579a 00bd 2542 993c f633 54bd 947b aebd
00000120: 1dea 8d3d ea62 8fbe 502a a6ba 303e e5bb
00000130: 8370 783d c320 0e3b 3544 ce3d cf82 753c
00000140: 767e 073d 38c4 853c ed2a 923d b57f ac3c
00000150: f775 8c3b 4933 063c ece5 03bc 63ae aaba
00000160: 94b3 3b3d 9719 e53c e5ff 443d 5adb 9c3d
00000170: e778 453d e397 3dbd 94cb 37ba 7909 75bd
00000180: 2985 f9bd b3f4 fa3c c38a 243c 42f2 9f3d
0.031182801 -0.01921146 -0.017346555 -0.121010415 -4.105863e-06 0.025640417 -0.026457207 0.079640396
-0.019846682 -0.04798201 0.0071567837 0.07447156 -0.04968262 0.041084006 0.0026986308 0.014807155
-0.007169711 -0.09637378 0.006736415 0.0018437947 0.00013496417 -0.0058199735 -0.0058715655 0.047340456
0.046040714 0.00017998088 0.0029584665 0.01895358 -0.09153092 -0.016861888 -0.006274562 0.009910948
-0.038846105 -0.020589134 -0.0018437582 -0.0012129686 -0.0037172611 -0.016136283 -0.023695588 -0.075446956
0.033047773 0.17309463 -0.0073401323 0.0013550173 0.028679986 0.01666281 0.017597822 0.0011581287
0.039831284 0.006196334 -0.013140696 0.025903804 -0.016963406 -0.008717972 0.02811601 -0.018844293
-0.033955637 0.0020467686 -0.0021603003 -0.016026797 0.069970064 0.0647982 0.0021556194 -0.0050345007
0.020727837 0.00020756797 -0.02211314 0.07596493 -0.03139719 0.018708298 -0.051807366 -0.085196644
0.06929419 -0.28005153 -0.0012677405 -0.0069959387 0.060654175 0.0021687008 0.10071603 0.0149848005
0.033079587 0.016328916 0.07137094 0.02105699 0.0042865234 0.008190938 -0.008050423 -0.0013021942
0.045825556 0.027966304 0.048095603 0.076590255 0.048211005 -0.04628743 -0.00070112315 -0.059823487
-0.121836014 0.03063426 0.010042849 0.07809879

exp_avg f4 [4, 1, 3, 3, 3]
00000000: 7022 623a d31f 8c3a 7fa0 2d3b 196a b23a
00000010: de31 ad3a 1908 633b 3e3d 583a fa26 c13a
00000020: d139 933b 39ba 4b3a 76f6 f33a 445c 3f3b
00000030: 00ed f53a 34e1 1c3b 42ed 643b 0432 cd3a
00000040: 3fbd 273b 42b4 a03b 05fb 353a df56 243b
00000050: 94a0 543b f0cf 1b3b f653 5e3b 1f6f 653b
00000060: a75b 303b 0d02 813b 2498 9f3b 66d9 f33a
00000070: 525c 873a fb87 af3b faae 863b cc6a 153b
00000080: a1ef 733b d2a4 b53b 5ec2 843a d6cf ca3a
00000090: 0db7 e53a fd07 a239 9120 983b 9a65 833b
000000a0: 4bbf a83a d8f0 553b 47bb a63b e1f1 8939
000000b0: 1473 c83a 915e e83a 344b 83b7 5ea0 823b
000000c0: 30c8 933b ccc2 cd39 45e4 1a3b 9b00 a93b
000000d0: fc22 87b9 ce15 6b3a 52af 42bb fa89 05b9
000000e0: 296a 0abb 0c7b 84bb 7911 23ba 83f7 9cba
000000f0: 4376 81bb af04 ae3a f6b6 243b edf5 13bb
00000100: 3d1e ffb7 9694 51bb 862f 80bb 0ea0 d9b9
00000110: 18bd 03bb 1a86 7abb 8e98 da3a 4244 f83a
00000120: 32ae daba 45ac adb7 c9f4 99bb eaa6 75bb
00000130: 8323 07ba bf79 58bb 7e2d 69bb e1bc b63a
00000140: 7d8f d039 9668 503c 7a84 6a3c 29c6 7f3c
00000150: c38a 933c 476b 843c b731 863c 3823 7e3c
00000160: 5c52 403c bb70 613c 51b0 4c3c f5a5 703c
00000170: b416 833c c0e6 8f3c 62f0 823c 7eb1 8d3c
00000180: 9dee 843c 11ee 303c 389e 623c e0f6 453c
00000190: 3996 4d3c d23c 893c 2b73 843c cbd1 743c
000001a0: bf66 953c 73ed 763c 138c 1d3c 22e7 753c
0.00086263474 0.0010690637 0.0026493368 0.0013611942 0.0013213714 0.0034642278 0.0008248872 0.0014736347
0.0044929762 0.0007771585 0.001861288 0.0029199282 0.0018762648 0.0023937942 0.0034931456 0.0015655165
0.0025594977 0.004904301 0.0006942007 0.0025076193 0.0032444345 0.0023775063 0.0033924556 0.003500886
0.0026910098 0.003937012 0.0048704315 0.0018604218 0.0010327196 0.0053567863 0.0041102143 0.0022799252
0.0037221687 0.0055433298 0.0010128727 0.0015473317 0.0017525867 0.00030905 0.004642554 0.0040099146
0.0012874393 0.0032644775 0.005088243 0.0002631089 0.0015293085 0.0017728378 -1.5651436e-05 0.0039864024
0.004509948 0.00039245782 0.0023634594 0.005157543 -0.00025775272 0.0008967788 -0.002970655 -0.00012735269
-0.0021120405 -0.0040429886 -0.000622056 -0.001197562 -0.0039508655 0.0013276542 0.0025133467 -0.0022577003
-3.041245e-05 -0.0031979433 -0.0039119152 -0.00041508715 -0.0020101722 -0.0038226903 0.0016677545 0.0018941241
-0.0016683994 -2.0703426e-05 -0.00469837 -0.0037483522 -0.0005155133 -0.003303155 -0.0035580094 0.0013941788
0.0003977976 0.012720248 0.014313811 0.01561121 0.018010503 0.016164435 0.016381128 0.0155113265
0.011738386 0.013759787 0.012493209 0.014688005 0.016002037 0.017566085 0.015983764 0.017296549
0.01622706 0.010798947 0.013831668 0.012082785 0.012548023 0.016752634 0.016168198 0.014942597
0.01823747 0.015071261 0.009615916 0.01500872

exp_avg_sq f4 [4, 1, 3, 3, 3]
00000000: bd95 dc37 37ce a738 e30d 4439 40fa e437
00000010: 73c9 b138 4701 6239 34ab a038 07c3 0639
00000020: 6507 8439 cc84 d637 6338 b038 324d 5e39
00000030: f310 d137 89ea ae38 3600 7239 6635 9e38
00000040: f6a2 0339 be75 8639 3b58 eb37 ac4b ad38
00000050: 6b82 5a39 f0f9 e137 341d ac38 c779 6739
00000060: b30b a638 a867 0339 845d 8039 1491 173a
00000070: c8d6 0c3a 2897 183a 4cc6 1b3a ab76 c939
00000080: 738e 8c39 5d95 413a 93b2 a539 3fd3 c238
00000090: b328 103a 94c4 153a 835c 2c3a 9114 213a
000000a0: 1503 e539 381f 9639 6b16 553a 8891 c239
000000b0: b290 cb38 c222 073a 3fb9 1b3a 1848 2f3a
000000c0: ab89 203a e55c 013a beb8 9c39 b2ea 5a3a
000000d0: bc9e e539 6459 ec38 e4b7 3439 273e 3e39
000000e0: 6402 4a39 dda8 3339 53bc 3c39 02e8 4f39
000000f0: 365b 3739 0fef 3939 d886 5939 f62e 4039
00000100: 755a 4439 84a3 5639 4fde 3e39 c5de 3c39
00000110: bd40 5d39 43a0 4439 0c05 3639 1903 6139
00000120: 9844 4839 e63c 4839 f914 5839 792b 4739
00000130: 3c1b 3f39 a81a 5f39 f53b 5039 2e11 3739
00000140: 3933 6039 ab90 083b 6a24 d83a 4751 0f3b
00000150: 14db 0d3b 4df0 f43a effd 183b 2ce8 de3a
00000160: 9f81 e33a c197 153b 104a 073b 1480 c43a
00000170: 3e6f 103b 9503 133b 0f18 e43a 7a3f 173b
00000180: eef4 e93a 21f0 d33a 265f 103b 0bd3 093b
00000190: 33c9 be3a dbd5 0f3b 9654 193b e128 e53a
000001a0: f25d 143b 81c9 f83a f2d9 d13a 8ee8 0a3b
2.6295771e-05 8.001591e-05 0.0001869719 2.729625e-05 8.4775405e-05 0.00021553515 7.6612836e-05 0.00012851889
0.0002518251 2.5572626e-05 8.402837e-05 0.00021200327 2.4922634e-05 8.340652e-05 0.00023078997 7.543973e-05
0.00012553841 0.00025646196 2.8055269e-05 8.263378e-05 0.00020838685 2.6938476e-05 8.2070386e-05 0.00022075242
7.917676e-05 0.00012531749 0.00024483737 0.0005781811 0.0005372581 0.0005820864 0.00059423293 0.00038426122
0.00026809014 0.00073846226 0.000316043 9.2899885e-05 0.0005499229 0.00057131913 0.00065750646 0.0006144727
0.0004368058 0.0002863349 0.0008128646 0.00037110993 9.706746e-05 0.00051550206 0.00059403846 0.0006686463
0.000612403 0.0004934802 0.00029892282 0.00083510124 0.0004379655 0.00011270007 0.00017234642 0.00018142966
0.00019265112 0.00017133677 0.00017999233 0.00019827488 0.00017486219 0.00017732031 0.00020744966 0.00018328041
0.00018725714 0.00020469545 0.00018202628 0.00018012065 0.0002110032 0.00018751719 0.00017358753 0.00021458826
0.0001909904 0.00019096173 0.00020607178 0.00018994314 0.00018225325 0.00021276867 0.00019858762 0.0001745864
0.00021381387 0.0020838182 0.0016490344 0.0021868513 0.0021645473 0.0018687338 0.0023344716 0.0017006448
0.0017357356 0.0022826048 0.002064351 0.0014991784 0.0022038962 0.0022432555 0.001740219 0.0023078606
0.0017849484 0.0016169586 0.002202937 0.0021030332 0.0014555812 0.0021947536 0.0023396364 0.0017483496
0.0022639004 0.0018980951 0.0016010387 0.0021195742

exp_avg f4 [4]
00000000: 3362 fe3a 8f28 0bbd 9709 4fbb 5337 fd3c
0.0019407928 -0.033974227 -0.003159141 0.03091017

exp_avg_sq f4 [4]
00000000: 238e 0e3c 1469 c83c 24ec f33a 8f67 f53c
0.00870088 0.024464168 0.0018609804 0.029956607
