models/dsec/dsec_half2/dsec_half2_monocular_even_model.pth (torch, 864422 bytes, 27 tensors)

conv3d.0.weight f4 [4, 1, 3, 3, 3]
00000000: cfff babe 9d7e 8cbe 066b d93d 8a9f 2ebe
00000010: 4f50 a3bd abee 3f3e d7ba 0bbd ad85 24bd
00000020: 6ed9 a23d 071b 3abe 434d 073e a988 be3d
00000030: 8efa 3b3c d601 6f3e c49a e43d c058 da3c
00000040: f389 753e c77f e8bd 7b36 e8bd 5e63 b93e
00000050: 4330 1cbe cfc1 fbbd e3d5 da3e 9d8c 25be
00000060: 065c 73be 8381 ba3e 565c d3be 3979 3dbc
00000070: d2f6 c73d 086a 1b3d 8a32 393e e465 90be
00000080: fde5 6dbd 3940 0c3e 2c77 4ebe d365 0e3d
00000090: f149 e7be e5ed 763e 6b49 1b3e 9829 0b3e
000000a0: 9900 94bc 834f 5abe 5dba b73d d82f 9fbe
000000b0: 6bbf 79be e4d8 1ebf d0c8 383e 46c6 a03d
000000c0: db83 acbd 9635 9b3e 0e10 e73d d6e6 9f3e
000000d0: 233a d03c 4d31 d73c b86a 8d3d 19b9 2a3e
000000e0: 3228 47be f8a8 f23c b30d 6d3e 95b2 3b3c
000000f0: c3b6 62be 3f0a 863c eab7 85bd e272 98bd
00000100: 5082 bc3c 00aa 9ebe c5fb 223e 8f03 a83e
00000110: 17a3 5cbe c93f 98be f1d7 023e 66a3 6cbe
00000120: 9254 8abc a779 05be dc15 56bd 579a b33c
00000130: ea91 993e 6d69 9dbd 94f8 94be 5af0 013f
00000140: edd2 7fbd 6d19 f53d cbd1 06be 5654 273e
00000150: 990f 9c3d 1784 503d 338a b03d f400 2abe
00000160: 671a 0f3e c71a 623e c7c6 ee3d 3252 babe
00000170: 1b58 e63d c6bf 9abd a2cc 1dbf c9eb 03bf
00000180: fcd6 48bd d2d2 473d 6865 6b3e 55ff 733e
00000190: 3c1d 45be 745e a93e 9978 4b3d 17bd 65be
000001a0: 16c8 16bf 3c16 c4bd 5c24 663d c5b3 543d
-0.3652329 -0.27440348 0.10616116 -0.17053047 -0.07974302 0.18743388 -0.03411373 -0.040166546
0.07951628 -0.18174373 0.13213067 0.093034096 0.011473311 0.23340544 0.11162332 0.026653647
0.23978405 -0.113524966 -0.11338516 0.36208624 -0.15252785 -0.122928254 0.42741308 -0.16166921
-0.23765573 0.36426935 -0.41281384 -0.011564546 0.09763874 0.037942916 0.18085685 -0.28202736
-0.058080662 0.13696374 -0.20162648 0.034765076 -0.451736 0.24114187 0.15164725 0.13590086
-0.018066691 -0.21319394 0.08971093 -0.3109119 -0.24389426 -0.620497 0.18045354 0.07850318
-0.08423587 0.3031432 0.11282359 0.312308 0.025418347 0.026268626 0.069051206 0.16672172
-0.19448927 0.029621586 0.23149757 0.0114561515 -0.2214003 0.016362308 -0.065292194 -0.07443787
0.023011357 -0.30989075 0.15916355 0.32815215 -0.21546589 -0.29736164 0.12777688 -0.23109207
-0.01688603 -0.13034688 -0.05226694 0.02192418 0.29994136 -0.07686124 -0.290959 0.5075737
-0.062457014 0.1196774 -0.13165967 0.16340765 0.076201625 0.05090722 0.086201094 -0.16601926
0.13974915 0.22080527 0.116590075 -0.36390835 0.112472735 -0.07556109 -0.6164037 -0.51531655
-0.04903315 0.04878504 0.22987902 0.2382787 -0.19249433 0.33079875 0.049675558 -0.22435413
-0.58899057 -0.09574553 0.05618702 0.051929254

conv3d.0.bias f4 [4]
00000000: 43b4 57bc 3494 be3c 1a60 953c 9521 9f3d
-0.013165536 0.023264028 0.018234301 0.07770077

gru.weight_ih_l0 f4 [300, 100]
00000000: 7772 433e 0612 e13d 4536 0b3e 505e 383e
00000010: 45b9 a53e d59e 263e 8de5 623d 210b ae3d
00000020: 63d6 193d 77d4 6b3e 73f4 933d aa59 d5bd
00000030: 611e d4bd f425 1bbe 779e 973d 7bff 393e
00000040: 5825 50be 80b5 f5bd 5554 f1bd 98cc a2bd
00000050: 2f4f 623e 3087 98bd 0a00 663c 500d 1abe
00000060: 8e4f 4dbe 5649 43be d62f b03e d590 413e
00000070: b864 ee3d 9cab a03e 2827 38be acb5 853e
00000080: e494 bf3e 3bf8 4e3e c7cf d13e 67e2 90bd
00000090: ce2b a43e 0f3d 1e3f bf20 8e3e 4b8f 9f3e
000000a0: b205 603b 9685 fb3d 956c aa3e 57b9 ac3e
000000b0: e868 993e ce44 20be 1c96 3cbd 6ad8 ec3c
000000c0: 63a5 e73d 3ee1 dbbb 56d2 6abb 80c1 7d3e
000000d0: 69a8 ca3e 9343 ae3e 0a54 033e 4a1f 5a3d
000000e0: 4c3c da3e 0f07 aa3e 0d97 643e 0ba8 d63d
000000f0: c69b d4bd 0845 a93d 1345 1b3e bff2 4e3d
00000100: 02db d4bd 9d41 82bd 9bed ecbc 8c49 a6bc
00000110: 8cd6 22be f357 b7be 6540 0c3d 5bf0 2c3e
00000120: 566a 9dbc c817 48bc bb45 afbe 9b66 c8be
00000130: b8b0 b5be b926 3cbf 9ed1 fabe 4b6d 01bf
00000140: 6bac afbe 0a98 0bbf 5a68 f7be b50a a7be
00000150: 7a68 e6be 2f13 9bbe 36e6 84bd 0852 dbbe
00000160: aa28 d7be 1e9a 05bf 64b2 b9bd a212 553e
00000170: 4fb0 1ebe ee7a 19be 2df0 1fbe 4352 48be
00000180: 0980 d53d 83e8 513e 4e87 2e3e 5d2b 98bd
00000190: 9471 55bd 3092 4e3e 3eb3 233e c159 8c3e
000001a0: 6a9b 9bbe 580f 88bc b177 ae3d fe93 cb3d
000001b0: 5cef 3f3e da97 0dbe 9f6d 02be 68e5 21ba
000001c0: f1e6 b03d 3860 ba3d 9c68 34bd 5a5e fdbd
000001d0: 447a cd3d d70b 853d 1c4d cc3b 6ef1 2fbd
000001e0: 340a df3d 0176 9a3e f6c1 2f3b 8fa6 98bb
000001f0: 683a ea3b 102f 813d a188 a83e 3cda 223e
00000200: 13ae d9bd 372f 9cbd 20a6 853d 9ee6 4a3e
00000210: 53ff 923e f4e3 2fbe 3c5c edbd bac6 03be
00000220: bcbf 193d 4756 563e 3bdf ebbd d33a 69bd
00000230: 3c35 47be 25a4 b6be 3118 063e 2d50 103e
00000240: 636a 723c 1bdd 94be fa32 6fbe 0e2e f33e
00000250: a9de a03e 99a0 bb3d 6c51 39be 0296 cdbd
00000260: e759 973c 65fc 93be e1fc e5be c9eb 9d3d
00000270: 822f d7bd 87f5 a33d 27f2 77be 4a7e 84bd
00000280: fd41 3c3e 9301 c43c 4984 cebd bebf 9dbd
00000290: e94c 163e 181e 7e3e 6d14 31bd a9fe 89be
000002a0: d66c 70be 79e0 5e3d f203 b23e 030f 953e
000002b0: a983 f6bd 53dd 96be 1225 183e c477 1d3f
000002c0: 864a d63e ee38 c93e a46e f63e 5ec7 2e3f
000002d0: d14d d33e dbe4 1e3d 3732 8e3e 8755 053f
000002e0: 2156 fc3e 2d30 e33e 8a7b 863d dfc3 843e
000002f0: a9b2 ec3e e786 843e f37b 173f 69d4 b03e
00000300: 1441 0c3f ff4b 6c3d d621 923e 6b7d ff3e
00000310: 2d57 ea3e 1f3c 233f 0a6f cc3d bba8 473e
00000320: b924 86bc 8e79 2d3e 69a4 f03d b30d 18bd
00000330: b750 043e 1d67 0f3e 1b74 633e f339 7a3e
00000340: f768 113e 5a69 8c3e 7c3c be3d fe4c 793d
00000350: 6304 4c3d 0a5f 43bd bdbb 0fbe 80a1 923d
00000360: 5a79 9bbd 86bc cdbd 640d 873d 7af7 04be
00000370: 3b79 5d3e e889 c43c a884 723d 53b1 f23d
00000380: 5c74 aa3d bf2e aa3d f1d0 3ebd 001b b23d
00000390: 1c27 23be b7af 5a3e 5a26 46bd 88ff dcbd
000003a0: 26ea 9dbd 7fd8 7ebe 367b c93d 516e 793d
000003b0: 88e7 8f3d 2d28 27be fa61 7dbe fcfd 2f3e
000003c0: 3776 e63d 66f1 893d f776 afbd 98c8 9cbe
000003d0: eccf 343e 8f4d f8bc a843 13be 42b6 33be
000003e0: 527a 56be b89d 2c3e f7bc 623e fac2 c3bd
000003f0: d519 123e 819f 8dbe a9c2 88bd 3c5b 533e
0.19086634 0.10989766 0.13594921 0.18004727 0.32367912 0.16271527 0.055394698 0.084982164
0.03755797 0.23030268 0.07224359 -0.10417493 -0.10357357 -0.15151197 0.07403272 0.18163864
-0.20326746 -0.11997509 -0.11783663 -0.079491794 0.22100519 -0.0744766 0.014038095 -0.15044141
-0.20049879 -0.19070944 0.34411496 0.18902905 0.11640304 0.31380928 -0.17983687 0.26115167
0.37418282 0.2021188 0.40978834 -0.07074433 0.3206467 0.6181192 0.27759358 0.3116401
0.0034183082 0.12281339 0.33285967 0.33735153 0.2996285 -0.15651247 -0.046041593 0.028911788
0.11310842 -0.0067102006 -0.0035830936 0.24780846 0.39581612 0.3403593 0.12825027 0.053252496
0.42624128 0.3320851 0.22323246 0.104812704 -0.10381274 0.0826512 0.15163068 0.05052447
-0.10393335 -0.06360171 -0.028921893 -0.020298742 -0.15902156 -0.35809287 0.0342411 0.16888563
-0.019215744 -0.012212701 -0.34232888 -0.39140782 -0.35486388 -0.73496586 -0.4898805 -0.5055739
-0.34311232 -0.5452887 -0.483218 -0.32625356 -0.45001584 -0.30288073 -0.06489222 -0.42836022
-0.42023212 -0.5218829 -0.090672284 0.20807889 -0.15496944 -0.149883 -0.15618964 -0.1956263
0.104248114 0.20498852 0.17043802 -0.07430146 -0.05211027 0.20172954 0.15986344 0.27412227
-0.3039201 -0.016608879 0.08518923 0.09940337 0.18743652 -0.13827458 -0.1273713 -0.0006175847
0.086377986 0.091003835 -0.044045076 -0.12371512 0.10033086 0.06496399 0.006234778 -0.042954855
0.10890618 0.30168155 0.002681849 -0.004658527 0.007148076 0.063078046 0.3291674 0.15903562
-0.10628905 -0.07626193 0.065258265 0.19814536 0.28710422 -0.17176801 -0.11589858 -0.12868777
0.037536368 0.2093135 -0.11517187 -0.056940865 -0.19453901 -0.35672107 0.13095166 0.14093085
0.014795872 -0.2907494 -0.2335929 0.47496074 0.31419876 0.09161491 -0.18097466 -0.10038377
0.018475486 -0.289035 -0.44919494 0.07710988 -0.10507108 0.08005815 -0.24213468 -0.064694
0.18384548 0.023926532 -0.10083825 -0.077025875 0.14677776 0.24816167 -0.04323237 -0.26952103
-0.23479018 0.054413293 0.34768635 0.29113016 -0.12036831 -0.29465732 0.14857891 0.6151087
0.41853732 0.39301246 0.48131287 0.6827296 0.41270307 0.038792472 0.27772686 0.5208363
0.4928446 0.44372693 0.06566532 0.25930688 0.46230057 0.25884172 0.59173506 0.34537056
0.547868 0.057689663 0.2854144 0.49900374 0.45769635 0.6376361 0.099821165 0.1949796
-0.016374933 0.169409 0.11750109 -0.03712244 0.12921415 0.14004178 0.2221226 0.24436168
0.14200197 0.27424127 0.0928888 0.06086444 0.04980887 -0.04769806 -0.1403646 0.0715971
-0.07591505 -0.100457236 0.06594351 -0.1298503 0.21628277 0.02399154 0.059208542 0.11850228
0.08322975 0.08309697 -0.04658598 0.08696556 -0.15932888 0.21356092 -0.04837642 -0.10790926
-0.07710676 -0.24887274 0.09837954 0.06089622 0.07026583 -0.1632392 -0.24744406 0.17186731
0.112530164 0.06735496 -0.085676126 -0.3062179 0.17657441 -0.03031042 -0.14381278 -0.17549995
-0.20945099 0.1685704 0.22142397 -0.09558673 0.14267667 -0.27660754 -0.066777535 0.20640272

gru.weight_hh_l0 f4 [300, 100]
00000000: 812d b23c a9b6 723e 7b09 083e 7ea1 523e
00000010: c721 c53e 2aa1 9ebe add8 dc3c a87e a53c
00000020: 0ece 99be e01c b3be c867 9abe 963c 1bbc
00000030: b1b3 3d3e b8b4 c43d 4b3a 883e 2ff2 00be
00000040: 474f 6f3d 22ca d0be 69cd 89bd 99cf b3bd
00000050: 9165 a4bd ff17 b73d 3b79 14be cc22 92be
00000060: 6d71 963e 7ca9 a0bd 6356 403e 06f1 56bd
00000070: 57ad 0fbd a83c ba3d 4965 293e 0def 933c
00000080: 7ec4 353e 2ca7 053f c895 a1bd 20dc 38be
00000090: f3c9 743b a19c 22be dc0b 063f bc42 7cbd
000000a0: 01f2 91bc 5eeb b93d e6f0 7dbd 6544 d4bd
000000b0: 1a2d 34bd 9930 be3e f9c6 b2be 2e6c a63e
000000c0: b16b 0e3d 6953 d73d ec89 07be 942e d7bd
000000d0: 864e 6fbe 4839 693e d09d 0c3e 5cd4 71be
000000e0: 3962 983d ee3c 0cbd 4aa6 a4be afc8 d8bd
000000f0: b223 493c 839a 64be e641 c5be b637 633d
00000100: 88d6 a5be 59ea 933d 90f9 41be 4026 1cbe
00000110: 71f9 673d 7972 513e c64e 3e3d 615e fe3d
00000120: 05d0 6c3c c13c b8bd 6302 fc3c 8130 823e
00000130: 00aa 863e 4ce1 1fbe 6f82 9a3d 3c7a f53c
00000140: c87a db3d e636 5c3d 099e 2d3e 4a1c 03be
00000150: cbf7 9abb 92af 3a3d af78 54be 9337 123b
00000160: 6115 dbbd 3070 fb3d 94ce 1fbf 6b15 a53e
00000170: 57da 533c d3dc 2c3e cb73 343d ea77 1b3d
00000180: 2754 483e b0b4 d2bd 4c3e 2cbe f194 e3bd
00000190: 0999 90be fe09 a6be 7b91 90be 5110 a23d
000001a0: cc32 89be 75bb 9b3d 5d8a bb3e 1aca d7bd
000001b0: c285 6cbd d818 3d3d afb7 cabe 41f3 593e
000001c0: 6072 8abe 2565 b83e f520 24bf becb c1bd
000001d0: 26f1 f2bd 2df8 87be da7b c63e 19fc 623d
000001e0: 0034 59be 2793 803d ce2a 82be c9bc 903e
000001f0: 1016 0abe ecdf ecbd 4ac4 013e d05e 13be
00000200: cf01 28bf 2db3 8dbe 60b7 173f 24b9 09be
00000210: 07ca 993e 024e 36bd f8bb 06bf cc67 5cbe
00000220: e04d 1cbd 0d7d a83d 091e 873e 8188 b03e
00000230: ad4c 3cbd 9108 383e 0778 6a3a 50cd 123e
00000240: 7d06 873d 2f71 f3bd 06ef 48be f5d1 513e
00000250: 7b37 63bd 84c5 73bc 38dc fe3c 09f5 373d
00000260: 5ef9 023e e7f1 873e 4395 033e a27e 133d
00000270: f167 8e3e 4328 4a3e 5ab1 45be 43bb 91bc
00000280: e9d3 30be 1201 efbd a7b2 48be 6b99 a3be
00000290: a824 8a3e b895 a23c c3ce 46be b83f a8bd
000002a0: d585 89be 1464 45ba afea e0be 7f22 863d
000002b0: 8e20 e23c 7c06 5fbe 6ad2 543e 445f 533e
000002c0: 6e9b 8bbe 5bc5 b33d f589 11be ad14 913e
000002d0: a305 7dbe 692b fe3e 5fc1 b3bd ec8a ddbc
000002e0: 21d8 09bf e02b 5c3e 0efc 9c3e 7b64 403e
000002f0: 7d7f c4bd 178e babd a550 37be f0aa 8bbe
00000300: 966c b03d eb3d bbbd 876f 633d fdc3 7dbd
00000310: 3ae4 f23e a4aa 36be 4ed4 b7bd 70a9 813e
00000320: 539b e63d 7b34 4c3e b45e aebd 4f4b bb3d
00000330: 8866 df3e 05f3 2fbe 5786 44be 3867 fcbd
00000340: 0179 11be ad1b 96bd 04b4 b03d 096c 04be
00000350: e26b 303d bb88 17bf 0acb c83d 0f9c 5abd
00000360: 5de4 5b3e 4b29 b4bd 1b79 27be 439c af3d
00000370: c35c ee3d ae83 32be 7eed 26bd 7fb3 37be
00000380: badd a4bb 8d6f d13d 0419 c3bd 3adf 0e3e
00000390: 94e0 e83d 9147 d7bd 8f2e 833d 76c4 ae3c
000003a0: d4d0 e7bd 8505 84be 9f99 dc3d 1316 203e
000003b0: f4c0 e5bc 3a02 ffbd b640 88be 3a56 e2bd
000003c0: 6864 01bd e286 e53c bf1f 023e e9be 963d
000003d0: 3218 983e 7294 aa3e 03c7 063e 44e6 85bb
000003e0: b6ad 82be 5d13 42be a10a fbbd f986 513e
000003f0: 9474 7ebe 13a5 8fbd c327 7e3d ee27 ad3d
0.021750214 0.23702492 0.13284867 0.20569417 0.38502333 -0.30982333 0.026958788 0.020201996
-0.3004002 -0.34982967 -0.30157304 -0.009474894 0.18525578 0.09604782 0.26606974 -0.12592386
0.058425214 -0.40779215 -0.06728632 -0.087798305 -0.08027185 0.08940124 -0.14499371 -0.28542173
0.29383412 -0.078448266 0.18782954 -0.05247595 -0.03507742 0.090936005 0.16542543 0.018058324
0.17750737 0.5220821 -0.07889897 -0.18052721 0.0037351816 -0.15880062 0.52361846 -0.06158708
-0.017815592 0.09078096 -0.061997317 -0.10364608 -0.043988325 0.37146452 -0.3491743 0.3250441
0.03477067 0.10513956 -0.13236207 -0.10506931 -0.23369798 0.22775757 0.13732076 -0.23616165
0.074406095 -0.034237795 -0.32158118 -0.10585152 0.012276577 -0.22324567 -0.3852684 0.055473052
-0.32390237 0.07222433 -0.18942857 -0.15248966 0.05663437 0.20453824 0.046461843 0.12420345
0.014453893 -0.08995963 0.030762857 0.2542763 0.26301575 -0.15613288 0.075444095 0.029965512
0.10716778 0.053763293 0.16954817 -0.1280376 -0.0047292463 0.045577593 -0.20749162 0.0022310957
-0.10697437 0.122772574 -0.6242459 0.32242903 0.012930474 0.16881113 0.04405574 0.037956156
0.19563352 -0.1028837 -0.1682064 -0.11112393 -0.28241757 -0.32429498 -0.28235993 0.07913268
-0.26796567 0.07604114 0.36629 -0.10536595 -0.05774475 0.04616627 -0.39593264 0.212842
-0.27040386 0.36014667 -0.6411279 -0.09462689 -0.11862402 -0.2655653 0.38766366 0.0554162
-0.21211243 0.06278067 -0.25423282 0.28269032 -0.13484979 -0.11566147 0.12672535 -0.14391637
-0.6562776 -0.27675763 0.59264183 -0.13449532 0.30036947 -0.044507988 -0.5263057 -0.2152397
-0.038160205 0.082269765 0.26390103 0.34479144 -0.04597156 0.17972018 0.0008944277 0.14336133
0.065930344 -0.118868224 -0.1962243 0.20490249 -0.055472832 -0.014878634 0.031110868 0.044911418
0.12790439 0.26551744 0.12849908 0.03600944 0.27813676 0.19741921 -0.19305936 -0.017789489
-0.17268337 -0.11670126 -0.195994 -0.31952986 0.26981091 0.019846782 -0.19414811 -0.082152784
-0.26859918 -0.00075298664 -0.4392905 0.06549548 0.027603414 -0.21779817 0.20783392 0.2064181
-0.2726702 0.08777877 -0.14212783 0.28336087 -0.24709181 0.49642494 -0.08777117 -0.027043782
-0.5384541 0.21501112 0.30661052 0.1878833 -0.09594629 -0.09109133 -0.17901857 -0.27278852
0.08614461 -0.09142669 0.055526283 -0.061954487 0.47439748 -0.17838532 -0.08976041 0.25324583
0.112600945 0.19941895 -0.08514157 0.09145223 0.43632913 -0.17182548 -0.19191872 -0.12324375
-0.14206316 -0.073294975 0.08628085 -0.12931837 0.043071635 -0.5919301 0.09804352 -0.053371485
0.21473832 -0.087969385 -0.16354792 0.085747264 0.11638787 -0.17433044 -0.040753834 -0.17939566
-0.0050313147 0.10226355 -0.09526256 0.13952342 0.1137096 -0.10511697 0.06405365 0.021333914
-0.11319128 -0.2578546 0.107714884 0.1563342 -0.028046109 -0.124515966 -0.2661187 -0.11051603
-0.031589895 0.028018419 0.12707423 0.07360632 0.2970596 0.3331638 0.13161854 -0.0040862877
-0.25523156 -0.18952699 -0.12257887 0.20461644 -0.24849159 -0.07013907 0.06204964 0.084548816

gru.bias_ih_l0 f4 [300]
00000000: 1327 5f3c 0a83 1c3e a6ab 27be 2e08 94bd
00000010: 7f17 07bd 481e 0abe 9496 16be 828c 4ebe
00000020: ef76 1dbe fcd8 7fbe 6327 25be 58bd 3dbe
00000030: 2129 cfbc 2baf 93bd 88a3 0fbe b1bf c3be
00000040: ebb8 33bd 5174 e7bd 51eb 0c3d 19f5 97bd
00000050: f372 e3bc f45b 4b3d f42d 05be b810 40be
00000060: 0919 60be 78e3 8ebe 5d9d 203e e446 18be
00000070: 064f f2bd 571c 30be 4781 d0bd 8672 23be
00000080: 6387 5dbe 15cd 26bc 4106 3cbe 18e4 46bd
00000090: 4927 bcbd 1ce9 41be c8e1 e9bd 654c 84bd
000000a0: 17b5 5abe e0e1 1ebe f1ed 93be 9bfa d5bd
000000b0: 5061 71be 7c59 3bbe 8da2 24be a942 9ebd
000000c0: 32e6 0d3d 3988 eb3d a73c 1ebe 6bc4 48be
000000d0: 256b 7fbd 0151 bfbd 6dc7 513c 0f32 1f3d
000000e0: f067 abbd 112c 27be fc60 5fbe d2c5 433d
000000f0: 314c 37be e4f4 d0bc b89e dabd 0118 8abe
00000100: a67b 67be 72cc 96be 3308 87bd 91f4 6ebe
00000110: c3c1 3bbd da1f 67be 9986 d9bd f57c 38be
00000120: 8563 463c a5d1 49be 51aa 17be e196 35bc
00000130: 3353 193c 9bf0 bd3b 6cd1 1abe 5edc 01be
00000140: 38fe 793d fc50 073e 0096 9dbe 015e 9c3d
00000150: ab1b bfbd c7f4 143d 4d57 68bd 4f64 d2bd
00000160: 650e 1c3e 5529 10be 6a21 45be 2280 41be
00000170: 9640 5bbd 55b4 adbd 7f6a fc3c 190c 4fbc
00000180: c657 5ebe 293a 42be 6e59 74be f131 d2bc
00000190: b3e3 15bd 589c 5dbd 3dbb aa3e 3b75 0bbe
000001a0: e755 7c3e 7b54 e83e ba1b 8d3e 8b41 a83e
000001b0: 6392 9fbc b645 823e 2c04 083e 6fbd ed3e
000001c0: 7c3a b03c 70eb 5c3e 43eb 2c3e 8e42 333e
000001d0: 3e1c 97bd 26b8 c83e 0061 15be cde6 58be
000001e0: b264 a13c 1da4 513d 9207 273e 4859 c9bc
000001f0: 59a4 6e3e 611a ab3c f1c9 bf3d f840 0d3c
00000200: 4421 393e 3f85 4a3e 02c4 dd3c f5a8 613e
00000210: 17e5 1a3d 4da1 033e 603c fdbe c212 82be
00000220: 592f c93e 0239 633e 2348 ff3d 1191 bcbd
00000230: e713 293e 23b2 313d 6d84 df3d 9b0b 1d3d
00000240: b756 c4bd cf95 1e3e d2ea 6abe f0da 03bd
00000250: 3b2e c7bd b4cd fcbd f52e 10be 6dfb c73d
00000260: 5b85 73be 5d1a a83d af86 9c3e 40b3 1ebe
00000270: 1eac 02bd 5ef4 9c3d bd7b 6d3e ff65 b33e
00000280: b623 0a3e b6e3 d9bd 8826 f53e 34ad 1f3e
00000290: a870 393e e3d9 533e 1345 013e 8666 1e3e
000002a0: 8b86 e2bd 544b af3e 256f 34be 7dd3 903e
000002b0: 0dac 333c ef8b 3c3e f7a2 4fbe 1b80 42be
000002c0: b8b4 d23e 9bff 55be fc95 323e a7e9 d23b
000002d0: f32e 70bd 5e7d 2cbd c80d b93c 098c 393e
000002e0: 3c8e d73e 8a49 8b3e 4808 ac3e 02fc 773e
000002f0: 5e9f 143e 898f a03e d45f 013f 7008 863e
00000300: f422 6abe e462 413e 66bb aabc 4c0f 81bd
00000310: c5fe b63e a3a9 243e 38b1 853e 9dd0 16bc
00000320: 8cc3 823e 34c2 543d 0ac0 0d3a da2d 0ebe
00000330: 66aa 94bd 0073 c6bb 95aa 8e3c 6998 9fbd
00000340: 61ca 03be bdcd d0bd 8b59 a1bb d964 dd3d
00000350: 6e68 8d3e 3bf4 243e 6031 c33d ddaf 163d
00000360: fd29 b83c c5c5 f5bd 1a36 bbbd ba42 17be
00000370: bb60 50be 8dc6 a7bd 7307 393d d7cd 6a3d
00000380: 8b98 ec3d 481d 433c e729 7b3e 9bca 1bbc
00000390: ffa8 223e e744 fdbb 375e 06be 0724 c4bd
000003a0: 9414 e73c 2591 9b3c 5a68 99bd 8d72 ea3d
000003b0: a12d 43be 395f 9bbc 8182 4f3d e63b 5ebe
000003c0: 97c9 efbc 7de6 3ebe f3c6 ebbc a2ea 1abe
000003d0: 433a 9a3a e85d d9bd d77f 0cbd 2ecc 0abe
000003e0: 310c 463e b92a abba 5dc4 59bd cee0 4abc
000003f0: d6fb 30be 8230 a63d 5714 06be 66d0 1dbe
0.013620156 0.15284362 -0.16374072 -0.07228123 -0.032981392 -0.13488114 -0.14705878 -0.20170787
-0.15377401 -0.24985117 -0.16128306 -0.1852926 -0.025288166 -0.07211145 -0.14027226 -0.38232186
-0.043877523 -0.113014825 0.034404103 -0.074197955 -0.027764773 0.04964824 -0.13005811 -0.18756378
-0.2188455 -0.2790792 0.1568503 -0.14870793 -0.11831479 -0.17198311 -0.10180908 -0.15961656
-0.21633677 -0.010180731 -0.1836176 -0.04855737 -0.091871805 -0.1893658 -0.114200175 -0.064598836
-0.21358143 -0.15515852 -0.28892472 -0.1044819 -0.23572278 -0.18295854 -0.16077633 -0.07727558
0.03464336 0.11500592 -0.15452825 -0.19606178 -0.06235804 -0.09341622 0.0128038945 0.0388661
-0.08369434 -0.16325404 -0.2181434 0.047796078 -0.17900158 -0.025507398 -0.106748044 -0.2697144
-0.22605762 -0.29452854 -0.06593361 -0.23335482 -0.045839082 -0.22570744 -0.106213756 -0.18016417
0.012108688 -0.1970888 -0.14811064 -0.011083336 0.009358215 0.0057965047 -0.1511895 -0.1268172
0.061033458 0.13214487 -0.30778503 0.07635117 -0.09331449 0.03636625 -0.05672388 -0.102730386
0.15239866 -0.14078267 -0.19251028 -0.18896535 -0.05352839 -0.08481661 0.0308125 -0.012637162
-0.2171317 -0.18967499 -0.2386224 -0.02565858 -0.036594104 -0.05410418 0.33345976 -0.13618939
0.24642144 0.45376953 0.27560216 0.32862505 -0.019478982 0.2544381 0.13282841 0.4643359
0.021512263 0.21574187 0.1688662 0.17505857 -0.07378434 0.39202994 -0.14587784 -0.21181794
0.019701336 0.0511819 0.16311482 -0.024578705 0.23304881 0.020886602 0.09364689 0.008621447
0.18079096 0.19777392 0.027071003 0.22037108 0.037816133 0.128545 -0.49460125 -0.25404936
0.39293936 0.22189716 0.12464931 -0.09207357 0.16511498 0.043382775 0.1091393 0.038341146
-0.09586852 0.15486835 -0.2294114 -0.032191217 -0.09725615 -0.12343922 -0.14080413 0.097647525
-0.2378134 0.082081534 0.30571505 -0.15498066 -0.031902425 0.07663797 0.23191734 0.35038754
0.13490185 -0.106391355 0.4788096 0.15593415 0.18109381 0.20688586 0.12624006 0.15468797
-0.11060818 0.34237158 -0.17620523 0.28286353 0.010966313 0.18412755 -0.2027701 -0.18994181
0.41153502 -0.20898287 0.17440027 0.006436545 -0.058638524 -0.042111747 0.02258958 0.18119825
0.42100704 0.27204543 0.33600068 0.24217227 0.14513919 0.3135951 0.5053685 0.26178312
-0.22864896 0.1888538 -0.020841312 -0.06301746 0.3574125 0.16080336 0.2611177 -0.009205011
0.25539815 0.05194302 0.0005407339 -0.13884678 -0.072590634 -0.0060561895 0.017415324 -0.07792742
-0.1287017 -0.101954915 -0.0049240044 0.10810251 0.27618736 0.16108792 0.09530902 0.03678881
0.02248096 -0.12000612 -0.091411784 -0.14771548 -0.203494 -0.081921674 0.04517312 0.05732521
0.11552533 0.011908837 0.24527703 -0.009508754 0.1588478 -0.007729161 -0.13121878 -0.09577184
0.028208055 0.018990109 -0.074906066 0.1144763 -0.19060375 -0.018966304 0.050661568 -0.21702537
-0.02927093 -0.18642612 -0.02878139 -0.15128568 0.0011766631 -0.10613614 -0.034301605 -0.13554451
0.19340588 -0.0013058997 -0.053165782 -0.012382699 -0.17283568 0.08114721 -0.13093697 -0.15411529

gru.bias_hh_l0 f4 [300]
00000000: fd65 46bd bfe5 103e 7004 44be 6d72 e6bd
00000010: df70 05be 908b 19be b884 bbbd 9f13 72be
00000020: fcc5 26be 4895 a2be 3472 f7bd 9520 7cbe
00000030: a01d e13c 21d3 16be a5f8 18be 26b3 a0be
00000040: 5bfe 38be e2fc 2cbe 40c7 e7bc 26f3 1dbb
00000050: 351d f7bd 3702 453d 4245 85be 8f06 28be
00000060: 2c91 83be 40fd 8dbe b4f7 0f3e 1691 65be
00000070: 285a ffbd 541f 50be 585c b2bd 8386 75be
00000080: 2c91 4ebe 3087 0cbc 4258 85be 9bbb 02be
00000090: 7f6f c3bd 3557 83be 3027 ecbd a407 7abd
000000a0: e50b 4cbe f6e0 24be f0d0 97be 07b8 12bd
000000b0: 6d38 e5bd f824 63be ee5a ffbd 2802 843c
000000c0: 32f9 833c 1f97 f43c b8e1 10be 5de3 59be
000000d0: 901d 19be 3bfe 56be 2df1 a8bc d172 c73d
000000e0: 3ffc a0bd 603e 83be 0c1c 33be 7d80 733d
000000f0: 5833 e6bd 7e52 163d a7e0 d23b 1594 87be
00000100: 322a 5bbe 81e5 5ebe b105 3dbd 1ef7 15be
00000110: 15bd 303d 24d7 f7bd 3f5c 19be d614 4fbe
00000120: 57ec 04bd f99b 62be 1383 53bd b99f 5a3c
00000130: 426f d03d ff3e 71bb 1cad aabd 006e 8fbd
00000140: 8c05 393d 2ee0 893d 0486 6abe 5a7f 3abd
00000150: e853 bebd 3993 a03c 85e0 82bd 1225 37be
00000160: fb66 733e 8665 48be 459d 69be c4aa e0bd
00000170: afdf 99bc 294d c5bd 9acc d7bc 653e f9bd
00000180: 9e6e 5fbe 44f6 debd e069 6bbe 0d81 10be
00000190: 5d0c 823d cb8e 97bd f1c0 4a3e 55ee 0fbe
000001a0: d5cc 113e a8ab d23e 490a 783e 0c30 5c3e
000001b0: 2e43 a1bd b2b2 2a3e 6fb4 193e a2e5 b53e
000001c0: 5cce 78bc 413e 483e b7c4 553e 224a 943d
000001d0: 7afd 46be bbbd 9d3e a02b 01be 23f3 1cbe
000001e0: b70a 90bd 1369 963d 33cf 8c3e 8a78 ef3c
000001f0: 2657 663e 7061 c53c 5593 783c ac10 7c3b
00000200: 2921 853d 27fc 943e cd25 353c 465b 873e
00000210: e248 8e3c 7f60 743a 4fc2 01bf 610f 3ebe
00000220: 85e9 953e c6fc 503e d9cc fa3d 1e6a 34bd
00000230: 5055 473e 4e02 44bc 796f b13d e7f9 b2bc
00000240: eeb3 a7bc d614 113e 440d 63be 7964 dcbb
00000250: ccf7 833c 465f 50bd 8835 13be e07f 173e
00000260: 5dc4 8ebe 5adf 163e f01b 8a3e fbb0 47be
00000270: 30df b33d fc1f 053e d699 473e fd04 a93e
00000280: 2f50 813e 234b 20be 8543 d83e b2cd 313e
00000290: baee 553e e303 7e3e 107e be3d e5bd 103e
000002a0: a6be 13be 6cbd a13e 83bf 0bbe e483 b03e
000002b0: f849 903c c747 ef3d e1d1 55be a490 03be
000002c0: 7e94 e33e 116f e9bd 8c5b 643e 575b 133c
000002d0: bde0 01be d044 e7bd fd26 213d f80c 923d
000002e0: d5c1 ab3e 1a7c 8f3e d488 5c3e 199e 9c3e
000002f0: f9fb 1f3e 29ee 9b3e 4fd0 f93e 874d 823e
00000300: 0f4b 65be c11f 103e e287 b53d eeb1 03bd
00000310: 4fa3 993e 5f55 6b3e e239 793e 174d 653c
00000320: 3756 553e 71d6 b1bd bf03 8ebd f962 c5bd
00000330: f0ba abbd 61c9 f6bb cc90 03bd 29c2 08be
00000340: 89a0 3d3d 7543 aabd 800a a0bd abb0 a03d
00000350: 1829 143e b42b 2c3e f590 af3c f4ab 9bbd
00000360: 1a35 ef3c e4c3 60bd 4ec7 5bbe bca5 983d
00000370: 7ab4 02be ca8a fc3d 295a e23c 68fa 903d
00000380: 1d84 213e e69f 5a3d 31cf 7f3e b2c1 ac3d
00000390: 2f36 373d aa54 d13b a7aa 01be 7a43 d3bd
000003a0: 0af2 933c 1b8d e7bc 65d4 f0bd 8126 8e3d
000003b0: 16c6 10be c0cb 7c3d 2876 b13c 400b 6cbe
000003c0: 4de3 d0bd b7b0 0ebe 0239 51bd 99a5 79be
000003d0: 4ded cabc 3b7d b6bd 3290 72bd c2de 70bd
000003e0: 1b11 533e e0be 0f3d 8ee3 85bd 3661 abbd
000003f0: efd0 6abd cbbf 9d3d d6ac 30be 8585 52be
-0.048437107 0.14150141 -0.19142318 -0.11252294 -0.13031338 -0.14994645 -0.091561735 -0.23640297
-0.16286463 -0.31754518 -0.120823294 -0.24621804 0.027479947 -0.14728977 -0.149386 -0.3138668
-0.18065779 -0.16893342 -0.028293252 -0.0024101227 -0.12066118 0.048097815 -0.26029402 -0.16408752
-0.25696695 -0.27732277 0.14059335 -0.22418627 -0.12468368 -0.2032445 -0.087090194 -0.23977093
-0.20172566 -0.008577153 -0.26043898 -0.12766878 -0.095427506 -0.2565247 -0.11530912 -0.061042443
-0.19926412 -0.16101441 -0.29651594 -0.035820033 -0.11192403 -0.22182071 -0.12468515 0.01611431
0.016110037 0.029857216 -0.14148605 -0.21278138 -0.14952683 -0.20995419 -0.020622814 0.09738696
-0.07860612 -0.25633526 -0.17491168 0.059448708 -0.11240262 0.036699764 0.006435472 -0.26480165
-0.21402815 -0.21767236 -0.046148006 -0.14645049 0.043149073 -0.12101582 -0.14976595 -0.20222792
-0.032451954 -0.22129811 -0.051638674 0.013343745 0.10177471 -0.003681123 -0.08333799 -0.07003403
0.045171306 0.06732212 -0.22902685 -0.04553161 -0.092933476 0.019601451 -0.0639048 -0.17885235
0.23769753 -0.19569978 -0.228139 -0.10970071 -0.018783418 -0.09633858 -0.026342679 -0.12170104
-0.21819541 -0.10886815 -0.22989607 -0.14111729 0.06350014 -0.074002825 0.19800164 -0.1405576
0.14238293 0.41146588 0.24222673 0.21502703 -0.07874142 0.1666973 0.15010236 0.35526758
-0.015185919 0.19554998 0.20875822 0.07240702 -0.19432631 0.30808815 -0.12614298 -0.15327124
-0.07033294 0.0734426 0.2750183 0.029232282 0.22494182 0.024094313 0.015171845 0.0038462086
0.065004654 0.29098627 0.011056376 0.26436824 0.017368738 0.00093222404 -0.50687116 -0.18560554
0.29279724 0.20408925 0.12246103 -0.044046514 0.19466138 -0.01196344 0.0866384 -0.021847678
-0.02047154 0.14168105 -0.22173029 -0.0067258445 0.01610937 -0.05087211 -0.1437589 0.14794874
-0.27884188 0.1473364 0.2697444 -0.19501106 0.08782804 0.13000482 0.19492278 0.33011618
0.25256488 -0.15653662 0.42239013 0.17363623 0.20891848 0.2480617 0.09301388 0.14134939
-0.14428195 0.3158983 -0.13647275 0.34475625 0.017613396 0.11683612 -0.20880844 -0.12848145
0.44449228 -0.11398137 0.22300547 0.008993945 -0.12683387 -0.11292422 0.039343823 0.0713138
0.3354632 0.2802437 0.21536571 0.3058937 0.15623464 0.3045514 0.4879174 0.25449774
-0.22391914 0.14074613 0.08863808 -0.03215211 0.30007407 0.22981785 0.24338487 0.01399543
0.2083367 -0.086834796 -0.06934308 -0.09638018 -0.08385265 -0.0075313305 -0.03212051 -0.13355316
0.046295676 -0.08313648 -0.07814503 0.07846197 0.14468801 0.16813546 0.021431426 -0.07601157
0.029200125 -0.054874316 -0.21462747 0.07453486 -0.12764159 0.123311594 0.027630882 0.07079011
0.15773053 0.053375147 0.24981381 0.08435382 0.044729408 0.0063882666 -0.12662755 -0.103156045
0.01805975 -0.028265527 -0.11759261 0.06940938 -0.14138064 0.06171775 0.021662787 -0.23051167
-0.10199604 -0.13934599 -0.051079758 -0.24379577 -0.024771357 -0.089106046 -0.059219547 -0.05880619
0.20611994 0.035094142 -0.06537543 -0.08368151 -0.05732816 0.07702597 -0.17253432 -0.20558746

dense_output.0.weight f4 [100, 100]
00000000: e6ea 5cbc fa89 0e3d c607 083c 1ff1 93bc
00000010: 6923 5cbd 2762 e53b 72a3 7f3d 4d8e b83c
00000020: b367 c33d d6a4 edbd 1ea0 0fbe 5955 713d
00000030: c8b0 07bd 607b 503d 7a1e 9a3d d57d a2bd
00000040: 9edd 09bd a775 edbd ac86 733d 7323 c33d
00000050: af5c 0a3c 878b 6ebd 331a 033d 921f dcbc
00000060: 067d f6bd 0e6e ec3c ed50 78bd c992 35bd
00000070: 3dc0 15bd 3b50 043d b80d 1e3e 0fd3 d8bd
00000080: f2af 173d 08d9 68bd 9e19 a73d 5bc7 9f3c
00000090: 9468 86bd c5fa 463c ef28 ecbc 07d8 08be
000000a0: 5a6f be3d e1db 20ba 2c2b 903d 0059 91bd
000000b0: ab4b 863d 2f83 2a3a 26fe f6bc 81fc a93d
000000c0: de97 8bbd f4bf 99bb a11d dd3c 7dd8 e83b
000000d0: 9eee 313e 0ba8 86bd 53a1 f8bc 06e4 803c
000000e0: 3312 983c 9693 423d 86dd 1abd 375f 133e
000000f0: 9d9a 7c3b ebc9 90bc 5e7c 0d3d b668 e63d
00000100: a297 413d 81b2 34bc 5f4a c1bd 4484 213d
00000110: b8b6 503a 3acf b7bd 1aee 0abe fa77 3dbd
00000120: c9e1 50bc 7d9a 6abd 84e0 a63c 8638 f2bc
00000130: 7e8f dcbc 2115 c0bd 7173 9e3d acdd a83d
00000140: 88b2 85bd c7a7 d2bd 1a3f ed3d ced5 cdbc
00000150: 6f03 a9bd 25c2 bebc ccd7 663c 59f8 c03c
00000160: 7b37 80bc f39b b8bd 2562 d73d 055d aabd
00000170: c521 86bc 70b2 4c3d 82ef c63d c6f5 9d3d
00000180: d7a3 d93c 0741 3bbd 29db 0fbc 3922 223d
00000190: 7f62 823d f6b2 01bc bd36 563e 881b b5bd
000001a0: 4933 5ebd 81b3 b2bd 3954 8a3d 8573 85bb
000001b0: 5659 e33d 9e66 463c 023d 3b3d d3ab 133d
000001c0: 5767 85bc 3d28 ba3d 34be 02bd 6916 8f3d
000001d0: a63a 88bd 93a4 3c3d 2177 f83d b550 30bd
000001e0: 8a82 5bbb 44c3 7dbd 24b4 b33d e4e1 4b39
000001f0: 6901 de3c 5e4d 30be 6eef dabd 78e8 6bbe
00000200: 7649 5fbe 06d4 b83d f5d2 0b3e d1b0 a03d
00000210: e0c6 1a3e 0087 24be 789d 563d 9c8f 89bd
00000220: a181 41be 1192 df3c 761a 16be 55d9 41bd
00000230: c0c1 d33d 9a0c 6ebd 9515 133e b9b4 1e3e
00000240: 1187 79bd f6e5 91bd 7fe0 49bd 6c55 9d3b
00000250: b3eb af3c 8a7a 79be ae40 ecba c6e3 343d
00000260: 863f 233d b3d9 173d 9dfc 58bd f9af 173e
00000270: d164 ae3d 602b 83bd ab92 08bd 6a86 bf3d
00000280: 5387 3cbd d359 a3bd 644b 0f3d ef78 933d
00000290: b766 90bc 59dc 1c3d 3f17 a93d bf3b be3a
000002a0: b909 0abe 86ed f33d 8f23 ddbb c704 8f3c
000002b0: 9179 183e 2aa8 273e 02db 833c 1b8a f4bc
000002c0: 1644 2a3c 9dd1 11bd 279a d13d 728c 263e
000002d0: c196 0abe 33b9 06be 28d3 e73c c473 213e
000002e0: d78d c8bd b5f5 e2bd f0b0 23bd d3ae 24be
000002f0: 7a46 c239 4aee cabc 5ed0 df3d dec1 43be
00000300: 9530 773e 32ed 223d e908 b0bc 5c1e b0bc
00000310: 3af2 34ba 7708 44be 157b 3a3d 84bf 7b3d
00000320: 5774 d63d 0470 a23d 94d1 313e 1e20 44bd
00000330: 7f1a c63c 3921 c63c 1ed4 1d3e 665e c0bd
00000340: b00a 19bd 8e4e 8cbc c256 be3c e6b7 7e3d
00000350: fc92 0fbe 5a1a f2bc 4f35 103e 3aa3 013e
00000360: 7de9 4dbd 8824 0d3e a574 a43c 42be f53d
00000370: a3ba 913d 6fd4 26bd 7bd1 bf3b 34bb a93d
00000380: c07d 823e 666e 76be cd83 d73c 2e17 dabe
00000390: 0198 66be 3aca 49be 8c39 663e 09c5 5f3d
000003a0: 33fd 033e c21c fa3d edcb b93d ab07 eebd
000003b0: ac00 39be b983 c33d 8be7 07be aad4 a4bd
000003c0: b5b2 d93d af75 973e d2a3 be3e e0b4 3b3e
000003d0: 7f16 1fbd 6f42 a2be 8335 98be f9cc 963d
000003e0: d8d9 c13d 6f6a 18be 96a1 02bd 5505 5e3c
000003f0: 7c94 00bd e78d a4bd 924e 8dba f795 b13e
-0.0134837385 0.034799553 0.008302635 -0.018059311 -0.053744707 0.007000226 0.062411733 0.022528792
0.095412634 -0.116037056 -0.14025924 0.058919284 -0.033127576 0.05089891 0.07525344 -0.07934157
-0.033658616 -0.11594706 0.059454605 0.09528246 0.008444949 -0.058238532 0.032007407 -0.026870523
-0.12035565 0.028861072 -0.06062405 -0.04432944 -0.036560286 0.032303076 0.15434921 -0.10587131
0.03703303 -0.056847602 0.08159183 0.01950424 -0.065629154 0.012144749 -0.028828112 -0.13363658
0.092985824 -0.000613628 0.070394844 -0.070970535 0.06557401 0.0006504533 -0.030150484 0.083001144
-0.06816076 -0.004692072 0.026991667 0.0071058855 0.17376181 -0.065750204 -0.030350363 0.01573373
0.018563366 0.04750403 -0.037808917 0.1439179 0.0038544305 -0.017674407 0.034542434 0.11250441
0.04726375 -0.011028887 -0.09438013 0.03943278 0.00079617975 -0.08975072 -0.13567391 -0.046256997
-0.012749144 -0.057276238 0.02037073 -0.029567968 -0.026923891 -0.0937903 0.077368625 0.082454056
-0.06528193 -0.10285907 0.11584301 -0.025126364 -0.08252608 -0.023285935 0.014089536 0.023555921
-0.015651455 -0.0901412 0.105167665 -0.08318523 -0.016373524 0.04997486 0.09713651 0.07712893
0.026567383 -0.04571631 -0.008780279 0.03958342 0.06366443 -0.007916203 0.20919318 -0.08843142
-0.054248128 -0.08725644 0.067543454 -0.004072609 0.11101024 0.012109427 0.04571248 0.036052536
-0.016284628 0.09089706 -0.031919673 0.06986696 -0.06651811 0.046055388 0.12132097 -0.04304572
-0.0033494555 -0.061953798 0.087745935 0.0001944374 0.027100282 -0.17217013 -0.10690199 -0.23037899
-0.21805367 0.09024815 0.13654692 0.07846225 0.15114927 -0.16067123 0.052396268 -0.067168444
-0.18897106 0.02729133 -0.14658532 -0.047326405 0.10339689 -0.058117487 0.14363702 0.15498628
-0.060919825 -0.0712394 -0.04928636 0.004801443 0.021474695 -0.24363151 -0.0018024647 0.044162534
0.039855503 0.03707285 -0.052975286 0.14813222 0.08515323 -0.064047575 -0.033343 0.09351809
-0.046027493 -0.07976117 0.034984007 0.072008006 -0.017627103 0.038296077 0.08256387 0.0014513655
-0.13480271 0.119105384 -0.0067486237 0.017458333 0.14890124 0.16372743 0.016095642 -0.02985101
0.0103922095 -0.035600293 0.1023448 0.16264513 -0.1353407 -0.13156585 0.02829893 0.15766817
-0.09792679 -0.11082021 -0.039963663 -0.16082315 0.00037055073 -0.024771828 0.10928415 -0.19116923
0.24139626 0.03977699 -0.021488624 -0.021498851 -0.00069025496 -0.19143854 0.045527536 0.06146194
0.10471409 0.079315215 0.17365104 -0.04788219 0.024182556 0.024185764 0.15412948 -0.09393005
-0.037363708 -0.017127302 0.023234729 0.062187098 -0.14020914 -0.029553581 0.14082836 0.12659922
-0.0502715 0.13783467 0.020075152 0.119991794 0.07115676 -0.040729936 0.0058538294 0.08287659
0.25486565 -0.24065551 0.026307965 -0.4259581 -0.22518922 -0.1970605 0.2248289 0.054631267
0.12889557 0.12212516 0.09072099 -0.11622556 -0.18066663 0.095466085 -0.1327192 -0.08048375
0.10629789 0.29581973 0.3723436 0.18330717 -0.038839813 -0.3169131 -0.29728326 0.07363314
0.094653785 -0.14884351 -0.03189238 0.013551076 -0.031391606 -0.08034878 -0.0010780862 0.34684727

dense_output.0.bias f4 [100]
00000000: 502e 933d 2443 54bd 7e57 d03d f08d 16be
00000010: 25c2 1cbd 96e9 7fbd 386e efbd b93f 69bd
00000020: 1ae2 1bbe 60d6 82be 825c a0bc 4752 eabd
00000030: ee03 3abe ee05 09be eef8 1cbd 8b8f b0bd
00000040: 2381 9fbd 3919 0fbe 67a7 e5bd 31e9 c0bd
00000050: 8df4 543e 1530 efbd 1cc5 3ebe d266 f9bd
00000060: b5dd b8bd 9cbd 15be bf40 bcbd 0e78 883d
00000070: 6f78 8ebc 979f 15be dd62 eabc c8d6 da3c
00000080: 386a e8bb 353a 7b3e f92f 0b3e cfd5 093e
00000090: ed5a 13be 225e aabd 8792 fbbd 1b18 9bbd
000000a0: 86e6 c0bd 185e 6ebe 5c40 7b3b 47ea f8bd
000000b0: 960f 0cbe c70a ba3d d83d 71be f839 e5bd
000000c0: 229f 063e ed80 0c3d 070e b2bd 93c5 c6bd
000000d0: 79fb 54bd 31ad d53d e2f8 96bd 676c 5e3d
000000e0: 627d 26be 05ba 31be 6fac 4abd 91ea c9bb
000000f0: 4ed2 c6bd 5f06 fb3c 786b f2bd 6bda e1bd
00000100: f1c6 94be 471a f0bd 19d7 8fbe c15d 06be
00000110: b1cf 4bbd d6c7 5abd 28e5 1ebe 93c2 8abc
00000120: e7fe 18be 33a4 63bc 5dd5 12be 61a6 96bd
00000130: 70d1 b23d b47a e9bd 08c2 1ebe 65e4 5fbe
00000140: 20af 2abe 4a09 b4bd aa36 13be 2c94 86be
00000150: 51b0 13be 11a6 c7bd 961d 80bd 9b8f e1bd
00000160: 439a 73bd 6b09 e9bd 9931 92bd 14d3 fbbd
00000170: 298b 653e ade9 4cbe 069e aa3d da60 2e3d
00000180: 33f2 2dbe bac7 22be a309 14bc 70b5 8bbd
0.07186568 -0.051821843 0.10172938 -0.14702582 -0.03827109 -0.062478624 -0.116909444 -0.056945536
-0.1522297 -0.2555418 -0.019575361 -0.114414744 -0.18165562 -0.13381168 -0.038323335 -0.08621129
-0.07788303 -0.13974465 -0.1121357 -0.09419478 0.20796414 -0.11679093 -0.18629879 -0.121778145
-0.09026662 -0.14623111 -0.09192037 0.066635236 -0.017391412 -0.1461166 -0.028611595 0.026713744
-0.0070927404 0.24533923 0.13592519 0.13460468 -0.14390154 -0.08318736 -0.12283807 -0.07572957
-0.09418969 -0.23278081 0.0038337922 -0.1215406 -0.1367782 0.09084087 -0.23558748 -0.11192697
0.13146642 0.03430264 -0.08694082 -0.09705653 -0.051997636 0.10433424 -0.073716894 0.0543026
-0.16258767 -0.17356117 -0.04948085 -0.0061619957 -0.09708081 0.030642686 -0.11836904 -0.11027988
-0.2905803 -0.11723762 -0.28093794 -0.13121702 -0.049758617 -0.053413235 -0.15517104 -0.016938483
-0.14940988 -0.013894129 -0.14339204 -0.07355953 0.08731353 -0.11400357 -0.15503705 -0.2186447
-0.16668367 -0.08790834 -0.14376321 -0.2628492 -0.14422728 -0.097484715 -0.06255643 -0.11013719
-0.059473287 -0.113787495 -0.07138366 -0.12296119 0.22416367 -0.20011015 0.08330922 0.042572834
-0.16986923 -0.15896502 -0.009035501 -0.06821716

dense_output.3.weight f4 [1, 100]
00000000: 2375 043b a07e 1d3b 7c2f 8a3d 724a 80ba
00000010: fb72 40bc 6275 b2bb 9d24 b13c ec84 aebc
00000020: 46d9 abbc fce3 c3bd 7f6f 1fbb 6876 febb
00000030: ecd4 d3bc 709c 8fb9 7430 fabb ce9a 673c
00000040: f936 5839 4af3 89bb a4b9 473c c52e ae3b
00000050: 82a1 843d 21e1 9bba 6abe d6bc 7c2b fd3b
00000060: e7bb 12bc a204 63bc 38fc 96bc ec12 783d
00000070: 66f6 ea3c cb29 773a d6fe 483d 1072 263d
00000080: e069 0f3c 7077 973d a4cf 293d bbc7 963d
00000090: a073 d4bc c57a 2fbc 0a8c d53c 36a5 98bd
000000a0: d438 f5ba 9461 9d3c 96b7 42bd a998 753c
000000b0: 21aa 4f3c 8cac 1c3d def0 0cbd 6954 793c
000000c0: c112 2f3d c995 813d 3f96 243b 0cf1 87bd
000000d0: 2d47 85bb 2299 d33c 08af 8f3c b202 dd3c
000000e0: e17e 9c3b bc65 97bb 3f54 dabd 5d38 01be
000000f0: 33f0 8c3b c717 0a3d 86f9 b3bc b30a 493c
00000100: f36c 9abd 9910 fcbb 3dbe 08bd 07b5 e4bd
00000110: 2a1d 52bd 8b77 0bb9 01a6 363b 6159 acba
00000120: 3caa a83b 2500 c4bc 76da 653c 3b54 723b
00000130: 986f 033d 6281 84bc 5ac2 c9bc 1924 323d
00000140: 3849 bbbc 77a1 2a3c 8d53 3ebc 2f7d c9bd
00000150: 046a 433d 020c 053c 0c77 863c eef0 abbb
00000160: 0805 0c3c a22a d3bb f610 883c a4a0 c4bd
00000170: c06a 3a3d 4896 e53b 38ca 813d 694d 95bd
00000180: 7254 a0bd 6d24 cf3c 7d5a db3a 6952 0c3d
0.002021142 0.0024031773 0.06747338 -0.0009787811 -0.0117461635 -0.005446122 0.021623904 -0.021303616
-0.020977627 -0.09564969 -0.0024327931 -0.00776558 -0.025858365 -0.0002739164 -0.0076351706 0.014136029
0.00020619844 -0.0042099105 0.012190256 0.005315634 0.06476118 -0.0011892655 -0.026213843 0.007726131
-0.008955932 -0.013856085 -0.018430814 0.06056492 0.028681945 0.000942853 0.049071155 0.040636122
0.00875327 0.07395828 0.041457787 0.07362314 -0.02593404 -0.010710423 0.026067752 -0.074533865
-0.0018708953 0.019211568 -0.047538362 0.01499001 0.012674839 0.03825049 -0.034409396 0.015217879
0.042742494 0.063273974 0.0025113968 -0.06637773 -0.0040673227 0.025829855 0.017539516 0.026978824
0.0047758673 -0.004620282 -0.106606 -0.12619157 0.004301095 0.033714082 -0.021969568 0.012270617
-0.07540312 -0.0076924083 -0.03338455 -0.11167341 -0.051297344 -0.00013300606 0.0027869942 -0.0013149196
0.0051472466 -0.02392585 0.014029136 0.0036976475 0.032088846 -0.016174976 -0.024628807 0.043491457
-0.022862062 0.010414473 -0.0116166 -0.0983833 0.047708526 0.008120539 0.016414188 -0.005247227
0.008546121 -0.006444291 0.01660965 -0.09600952 0.04551196 0.0070064403 0.06337398 -0.072901554
-0.07828607 0.025285924 0.0016735342 0.03425828

exp_avg f4 [4, 1, 3, 3, 3]
00000000: 8d10 3bbb d3cb 64bb df9b 31bb 4b6d 33bb
00000010: 7b55 7ebb 4f51 39bb 92a4 41bb 0cf7 78bb
00000020: b808 3ebb bf9c 40bb f85a 70bb 9fef 38bb
00000030: ec6e 49bb 1b18 80bb c1e6 39bb 1c29 60bb
00000040: 3230 73bb b6b0 3abb 9afe 37bb e1e6 84bb
00000050: 5deb 3dbb 4e80 4fbb 571a 89bb 68f4 3dbb
00000060: db56 76bb 0f35 7fbb 4d2a 3cbb 2c0a 133b
00000070: ed30 4d3b 490d a43a 111f 373b c00d 5a3b
00000080: 6234 833a 2737 423b 6490 453b 8ae7 0cb9
00000090: 04d7 093b 96d6 3d3b b90a 4f39 696d 3a3b
000000a0: 1b76 333b 1ded 4939 2ef1 633b 607d 203b
000000b0: 221e fbb9 fbb3 103b 2bbf 3b3b a0d2 cbb9
000000c0: 7213 553b 73dd 083b 1b9e 84b9 3896 863b
000000d0: 71f3 d93a 9b46 bfb9 68b4 8bbb b2ff 0ebc
000000e0: 110c 9ebb 4c27 abbb c246 32bc 02a9 bfbb
000000f0: 44a6 b1bb 86a9 34bc 64e1 cebb 2df6 a3bb
00000100: f022 0ebc 3ed7 a2bb b42d c8bb ddc6 2ebc
00000110: 49dc c2bb d3d2 c5bb 14ae 2fbc 0c22 c9bb
00000120: c9fb b8bb b9f0 09bc 1a4d 9ebb 9404 dabb
00000130: c71b 2abc 2bbb bdbb 2e65 d5bb 808d 27bc
00000140: 682d babb a855 62bb 814c ff3a f85c a93a
00000150: 5fdf 54bb 4cb8 d33a 2e53 1c3a 389d 71bb
00000160: cdc5 c639 4d7c bcb9 72ae 7fbb f3b9 1e3a
00000170: a16a 9fb8 5b2e 73bb 4778 1b3a 0654 d0b9
00000180: fe99 6bbb c20c 98b8 1f54 7fba 3ddb 9cbb
00000190: 2538 6eb9 8ca8 79ba 8fed 8ebb f6af 1d39
000001a0: c6fe 9dba 5321 6bbb 6276 94b8 0e70 d4ba
-0.00285438 -0.0034911528 -0.0027100963 -0.0027378376 -0.0038808275 -0.0028277223 -0.0029547554 -0.0037989048
-0.0028996896 -0.0029390303 -0.0036675315 -0.0028218997 -0.003073628 -0.0039091236 -0.00283663 -0.003420419
-0.0037107584 -0.0028486676 -0.0028075338 -0.004055843 -0.0028979399 -0.003166217 -0.004184048 -0.0028984789
-0.003758839 -0.0038941537 -0.0028711737 0.0022436483 0.003130968 0.0012516166 0.00279421 0.0033272356
0.0010010118 0.0029634924 0.0030145878 -0.00013437695 0.00210327 0.0028967015 0.00019745053 0.0028446561
0.0027383629 0.00019257185 0.0034781205 0.0024488792 -0.000478969 0.0022079933 0.002864788 -0.00038876105
0.003251281 0.0020883947 -0.000252948 0.004107263 0.0016628337 -0.00036482964 -0.0042634495 -0.008727955
-0.004823216 -0.0052231904 -0.010881128 -0.0058490047 -0.0054214317 -0.011026746 -0.0063134898 -0.0050037117
-0.008675322 -0.0049695065 -0.006108964 -0.01066753 -0.00594667 -0.006037095 -0.010722656 -0.006138092
-0.0056452495 -0.008419209 -0.0048309686 -0.006653378 -0.010382599 -0.0057901344 -0.0065123057 -0.010226607
-0.0056816824 -0.0034535918 0.0019477756 0.0012921384 -0.0032481772 0.0016152947 0.00059633225 -0.0036867391
0.00037912876 -0.00035950766 -0.003901389 0.000605493 -7.601572e-05 -0.0037106487 0.00059307035 -0.00039735454
-0.003594994 -7.250301e-05 -0.0009740013 -0.0047868774 -0.00022718364 -0.00095237116 -0.0043618153 0.00015038237
-0.0012054078 -0.0035878017 -7.0792405e-05 -0.0016207711

exp_avg_sq f4 [4, 1, 3, 3, 3]
00000000: 48c7 2b39 f615 8939 2b30 9d39 3490 4639
00000010: aaa5 9a39 2a41 a139 5c8b 5b39 b88f 9639
00000020: aeab 8e39 bff4 2839 e52a 8a39 9ec4 9b39
00000030: 5695 4139 a18a 9e39 c9ab a339 e70c 5839
00000040: 6ffb 9d39 8f03 9139 f225 2839 1981 8839
00000050: 04f6 9639 56f6 3e39 5e8f 9a39 92f4 a239
00000060: 3157 4f39 98fd 9d39 3dca 9239 fcf5 9e38
00000070: 12b5 1739 e963 4c39 ace9 f838 e291 0739
00000080: e278 1839 6dcf 2539 1d95 e438 994b df38
00000090: bc47 8438 93a3 2339 1193 6039 0400 ed38
000000a0: a655 1839 feaf 2739 4c57 2739 d922 f938
000000b0: d3cb f038 dd5a 6e38 098c 2e39 6407 7839
000000c0: b64c e338 6262 2a39 e991 3c39 979a 2b39
000000d0: e585 0e39 683a 0639 44e4 8f39 eb28 7839
000000e0: 2bca 0339 9f3d 9539 ea23 8e39 9156 1839
000000f0: 6211 7939 61f7 8239 6935 1939 fd29 9439
00000100: 8acc 8239 64fe 0a39 221a 9b39 0346 9939
00000110: 8945 2239 5a83 8039 56e1 8e39 9ced 2439
00000120: c1a8 9639 5e7b 8539 34eb 1239 a083 9d39
00000130: b817 9e39 8023 2a39 9ff7 8339 db42 9439
00000140: 2479 2d39 3f82 2639 1de5 5438 33ba f838
00000150: 6df1 e438 e3ed e137 4661 be38 71ee fd38
00000160: 41c8 9b38 9afa 2139 39d4 2839 2c2c 4338
00000170: ae60 c238 1568 e738 2c5b ba37 da43 8138
00000180: 5060 0039 90f4 8c38 dc4d 0139 d624 3d39
00000190: ff85 4f38 3f58 ac38 681c 0339 f577 c737
000001a0: 6677 5138 ec0e 0e39 68ef 8938 4ef0 de38
0.00016382069 0.00026147038 0.00029981261 0.00018936471 0.00029496598 0.00030756864 0.00020937383 0.00028717308
0.00027212262 0.00016112904 0.0002635337 0.00029710395 0.00018461546 0.00030239395 0.00031217773 0.00020604172
0.00030132706 0.00027659207 0.00016035864 0.00026036127 0.00028793525 0.0001821158 0.00029479986 0.00031081267
0.0001977354 0.00030134316 0.0002799797 7.579845e-05 0.00014467936 0.00019492175 0.00011869086 0.00012928949
0.00014540882 0.00015812898 0.00010899662 0.0001064755 6.307612e-05 0.00015605828 0.00021417091 0.000113010436
0.00014527756 0.00015991923 0.00015958882 0.00011879736 0.00011482057 5.6828245e-05 0.000166461 0.00023653876
0.00010838492 0.00016249114 0.00017983433 0.0001636542 0.00013592055 0.00012800994 0.00027445157 0.00023666366
0.00012568447 0.00028465406 0.0002711111 0.00014528098 0.00023752966 0.00024979844 0.00014611114 0.00028260043
0.00024947926 0.00013255473 0.00029583374 0.00029234597 0.00015475428 0.00024511927 0.0002725224 0.00015728775
0.0002873596 0.00025459653 0.00014011265 0.00030043442 0.0003015378 0.00016225688 0.0002517076 0.0002827857
0.00016543694 0.00015879514 5.0758117e-05 0.00011860244 0.00010916856 2.6932865e-05 9.0780246e-05 0.00012108393
7.428276e-05 0.00015447513 0.00016100788 4.653276e-05 9.268649e-05 0.00011034325 2.2215383e-05 6.163838e-05
0.0001224291 6.7212735e-05 0.00012331404 0.00018038167 4.947744e-05 8.218036e-05 0.00012503716 2.3778508e-05
4.994068e-05 0.00013547734 6.577262e-05 0.00010630545

exp_avg f4 [4]
00000000: 609e 1bbc 2ba3 3d3b 21ea f8bc 5a58 f6bc
-0.009498209 0.0028936367 -0.030385079 -0.030071426

exp_avg_sq f4 [4]
00000000: 2305 203b c954 eb3b 8390 fe3b 1e95 353c
0.0024417124 0.007181738 0.007768692 0.011082916
