models/dsec/dsec_half2/dsec_half2_multipixel_odd_model.pth (torch, 874045 bytes, 30 tensors)

conv3d.0.weight f4 [4, 1, 3, 3, 3]
00000000: b228 a6bd a352 413d 4ac3 19be e31b 5dbe
00000010: 6934 183e ee7f 06be 8db7 0abe be2a bebd
00000020: 2387 8cbd f62a 9e3e 4e9c 33be 567c fabd
00000030: ec75 6c3e a357 023e dc2c bc3e 8af8 ae3d
00000040: ba91 bdba e091 b43d b580 a03e 9a70 f7be
00000050: 9cd9 a63d 76d0 2b3d aeb0 96bd 1e50 973e
00000060: 622f fdbd a96b 54bc def7 85be 6989 083e
00000070: a022 29be d1f7 5bbd 51c4 66bd f3a8 17be
00000080: 859d 46be 93cd c03d 3db8 c9bd 7cd6 06be
00000090: 24d5 2d3d dc07 413e 9e82 b63e 3edb 2c3e
000000a0: c121 84be d1bc cb3e 3be6 513e d58d 48be
000000b0: 9de1 c13e 50d5 12be 79f6 6bbd e534 15be
000000c0: c7c1 d4be efa0 2bbd 2f11 87bb a813 b0be
000000d0: 4886 b43d aa5a 6e3e 110d f83d 0fd1 b1be
000000e0: 6afc a03d b9bb e93d 71b4 88bd b536 babd
000000f0: c0d3 8d3e feae 88bd 1800 913d f296 a43e
00000100: 9086 38be ce7b aa3c 2a8f ec3d 131d b8be
00000110: 2514 703a 370a 353e aee9 72bc 7f51 163e
00000120: db3b 9d3d 428e 8bbe d447 2dbe 73cf 8dbd
00000130: b84c 04bf 2d0d 00bf 659d a0bc 58bf 133d
00000140: 1981 8fbc e84d 0f3e bab2 113d b5c6 6d3e
00000150: 2ee7 7a3d a5e6 833d fde6 f63d 6783 8c3d
00000160: 2ac8 a73d 2639 a13e eef8 493d dbc3 583e
00000170: 8b15 923e 6a56 c9bd 7e85 063b 58cb 143e
00000180: 8412 ffbc 5d89 283e f0bd cc3d 7e8a bebe
00000190: b8b7 99be f666 38be bde2 50be 7e68 b2bc
000001a0: 84c3 a3bd 7ffb b0be 6263 70be 719f 63be
-0.08113231 0.04719795 -0.15015903 -0.21592669 0.14863743 -0.13134739 -0.13546582 -0.09285496
-0.06861713 0.30892152 -0.17540094 -0.122307464 0.23091859 0.12728743 0.36752975 0.08543499
-0.0014462986 0.08816886 0.31348196 -0.48328096 0.081469744 0.04194685 -0.07357918 0.29553312
-0.12362553 -0.012965121 -0.2616567 0.13333668 -0.16517115 -0.053703133 -0.056339566 -0.14810543
-0.19396026 0.0941421 -0.09849594 -0.13167757 0.042439595 0.18850654 0.35646528 0.1688051
-0.25807002 0.39792493 0.20497982 -0.19585355 0.37867442 -0.14339185 -0.0576081 -0.14570959
-0.4155409 -0.041901525 -0.0041219215 -0.34389997 0.088146746 0.23276773 0.12111867 -0.34729812
0.07860644 0.114127584 -0.066750415 -0.09092466 0.27700615 -0.06674002 0.07080096 0.32146412
-0.18020082 0.020810988 0.11550744 -0.35959682 0.0009158275 0.17679678 -0.014826221 0.14679526
0.07677432 -0.27256972 -0.16921932 -0.069243334 -0.51679564 -0.50020105 -0.019606302 0.03607115
-0.017517613 0.13994563 0.035570838 0.23220332 0.061255626 0.06440476 0.12055776 0.068610005
0.08192475 0.31488913 0.049309663 0.21168463 0.2853206 -0.09830935 0.0020526345 0.14530694
-0.031136759 0.1645865 0.09997165 -0.37215036 -0.3002298 -0.18008026 -0.20398994 -0.021778341
-0.07996276 -0.34566876 -0.23475412 -0.22228791

conv3d.0.bias f4 [4]
00000000: 2fef 25bc 2317 973c 5314 043e ebb0 053e
-0.010127827 0.01844365 0.12898378 0.1305577

gru.weight_ih_l0 f4 [300, 100]
00000000: 2e5e 08bf bf60 06bf b980 f7be 00fc 22bf
00000010: b1a0 1cbf 9cc4 c0be 59a5 f1be 3db6 20be
00000020: d9f6 afbe 839c 87be b8cf d5be 09d4 f1be
00000030: e292 32be 83b9 a4be 3fc2 a5be ab41 d4be
00000040: 41f3 04bf c2eb 29be 68ab 5ebe c6ed 9fbe
00000050: 9b31 d0be 07ad eebe e099 4bbe 8a3e 89be
00000060: f775 c3be 00b0 11be dac7 72be 4b2d 1fbe
00000070: de8c 8ebe 5f4e d3bd 4853 d1bd b592 aebd
00000080: 5bd4 30bd 6eab 5cbe 9d38 eabd ad18 12be
00000090: 3454 05be 0225 8ebd 9d1e acbd fbde a7bd
000000a0: 350e debd e526 41bd fa6d d2bd c9ec 093c
000000b0: 1c74 ddbd a9aa 9bbe 641c 43be 0aa2 87be
000000c0: 60c0 22be 50c2 acbe 5e53 833d 5db2 ee3c
000000d0: 6783 253e 3f00 833d 8040 a9bc 1c0f c8bc
000000e0: a8b8 f93c 140d 4a3e 0db9 a13d cc7d e5bd
000000f0: dbf3 bd3d fe72 62bd fe64 c73d ccf8 4d3d
00000100: 6286 58bd db9d 823c 6a50 643d d4a0 783c
00000110: 9d3f 513d 261a 2bbd 0e3c c9bd 2893 aabd
00000120: 0159 adbc 1723 85bb 6cf5 8b3d c1af 03bd
00000130: 9dc9 85bd c39b 8bbc fc53 6bbd 223f 363d
00000140: da12 ea3c fedd b0ba 593e 9ebd 0377 8a3c
00000150: 512b f83c 955d e83d 56fd 0a3e 4132 b53c
00000160: 7f75 1bbd c396 dc3d 6e54 99bc 8350 4cbd
00000170: d31f acbd 8b2a b0bd bfef 3c3d 5ffc 86bd
00000180: c106 833d 968b 3ebc 6ad5 8cbc 5bdf 693d
00000190: 4495 c5bc 5515 07be 1f05 c23c ffb5 8d3e
000001a0: f345 a83e 611e b6bc 550b 9fbd aac0 cc3d
000001b0: f6ea 793e bb12 833e bb87 b7bd b60f 4cbe
000001c0: cca0 1dbe 3937 2a3e 9793 8c3e 5218 2dbd
000001d0: 23ac 8dbd 72ce 41be 10d2 3fbd dc1f 973d
000001e0: 866c 40be 5bd4 41bd ba45 eebd 0258 813d
000001f0: 0fe3 773d 0807 fabd ed73 e53d d724 f03b
00000200: 92d2 19bd 18b9 f63d 24c4 28be d0cf b8bd
00000210: 0f74 4c3d 8666 e73c 2cf0 613d 7efa a6bd
00000220: e357 8dbc 6588 233e d65d bc3d 725a adbd
00000230: ff79 d8bd 1896 a1bd 5bde 63bc c37c 163d
00000240: 4f83 b3bd 2e0a 5fbe 41f7 6a3d f3b4 7bbd
00000250: c45b 9abd 10ba aabc f611 783c 2ef3 dfbc
00000260: 3258 883d 4eed fc3d c4d9 053e 5b55 0a3d
00000270: 9ad4 c33d 6d92 cc3d 83c8 f63d ba57 853d
00000280: eaca f83d f40d 843e 176d 243e 54f9 933d
00000290: 0753 7e3d 1f0a 123e 0353 463e b995 683e
000002a0: aa0f e93d d53f 203e f1fe 3f3e 9743 8e3e
000002b0: 48cd a33e ed0d 333e 00db 833e 7af2 b33e
000002c0: 21ba 173e c58a 113e 4e75 3f3e ac67 003e
000002d0: d59b 283e 1449 f93d 8fbb 323e d43a 5e3e
000002e0: d2c2 563e 51cd 473e 4559 fe3c e622 d03d
000002f0: 5fba 143e 17fe 4c3e 7643 d93c e1f2 843d
00000300: 2d99 923d cee1 bc3d 16ff 4d3e 6c8a ad3d
00000310: adb2 aa3d 75be 1e3e 58fb 0b3e c244 733d
00000320: 3e63 223e 5bc8 97be 16ba 77be 2a7c bebe
00000330: 906d 0bbf a965 9a3e f4f2 6bbe ec0d 6ebe
00000340: 375c abbe a1e9 0fbf b5ac fd3e 3b5b e43d
00000350: 5031 523e f44f 8ebc 6f11 bdbe e732 833e
00000360: 4a2f 403b 80f0 363e 4a5e 413d 9a40 a3be
00000370: ff1a c13e 95ae 50bd f030 973d 55cf 8dbd
00000380: 9340 b7be cb9f 93be e15d 7dbe a5c7 e4be
00000390: ca12 54be 8be9 9c3e 071a 19bd 6f77 88bd
000003a0: 8968 f0be 042e 20be 9fcb ee3d d864 51bc
000003b0: 8702 21be b554 e5be 39bd 91be 19bf 233e
000003c0: 8e9b 053e a57c e7bd c186 28bf ef21 3bbe
000003d0: fed6 593e 1972 da3d ec4f c2bd 0243 37bf
000003e0: 5ed5 50be bb4a 9a3e 0e72 703e 1b69 0f3e
000003f0: a3cc 4a3e 0af0 c83c 06a2 d6bd 196f 473d
-0.53268707 -0.5249137 -0.48340395 -0.6366577 -0.61182696 -0.3765 -0.47196463 -0.15694518
-0.34368017 -0.26486596 -0.4176004 -0.47232082 -0.17438844 -0.32172784 -0.3237476 -0.4145635
-0.51933676 -0.1659384 -0.21745074 -0.31236094 -0.40662846 -0.46616384 -0.19882917 -0.26805526
-0.38175938 -0.14227295 -0.2370905 -0.15544622 -0.27841848 -0.103176825 -0.10220963 -0.08524076
-0.043171268 -0.2154977 -0.114365794 -0.14267226 -0.13020402 -0.069406524 -0.084042765 -0.08196827
-0.108425535 -0.047156233 -0.102748826 0.00841827 -0.10813162 -0.3040364 -0.19053799 -0.26490813
-0.15893698 -0.33742 0.064123854 0.029137785 0.16163407 0.06396531 -0.020660639 -0.024421267
0.030483559 0.19731551 0.07896624 -0.112056345 0.09275027 -0.055285446 0.097360596 0.0502861
-0.052862532 0.015944412 0.05574075 0.015175063 0.051086057 -0.041772984 -0.09825908 -0.08328849
-0.021160604 -0.004063021 0.0683392 -0.032150034 -0.06532595 -0.017042046 -0.05745314 0.044493802
0.028573442 -0.0013493893 -0.077267356 0.016902452 0.030294092 0.11345974 0.13573202 0.02211869
-0.03795385 0.10770943 -0.018717017 -0.04988147 -0.084045075 -0.086018644 0.046127077 -0.06591105
0.063977726 -0.01162996 -0.017191608 0.057097774 -0.024119027 -0.13191731 0.023684083 0.27677915
0.32865867 -0.022231283 -0.07765833 0.09997685 0.24406037 0.25600228 -0.089614354 -0.19927868
-0.1539337 0.16622628 0.27456352 -0.04225952 -0.06917598 -0.18926409 -0.04683119 0.073791236
-0.18791398 -0.04732166 -0.11634393 0.06315614 0.060519274 -0.12208372 0.11203752 0.0073286104
-0.03755433 0.120470226 -0.16481072 -0.09024012 0.04991537 0.02824713 0.055160686 -0.08153246
-0.017253822 0.15969999 0.09197585 -0.08464517 -0.10570144 -0.07889956 -0.013907994 0.036740076
-0.087652795 -0.21781227 0.057364706 -0.061451863 -0.07537034 -0.020840675 0.015141001 -0.027337637
0.06657447 0.1234995 0.13071352 0.033772808 0.09562035 0.09988866 0.12049963 0.06510873
0.12148078 0.25791895 0.1605724 0.0722529 0.0620909 0.14261673 0.19367604 0.22713365
0.11379941 0.1564935 0.18749596 0.27785942 0.31992555 0.17485781 0.2575302 0.35145932
0.14817096 0.14213093 0.18697092 0.12539548 0.16465695 0.12172142 0.1745436 0.21702129
0.20972756 0.19511916 0.031048426 0.10162906 0.1452422 0.20018803 0.026521426 0.06491638
0.07158122 0.09222756 0.20116839 0.084736675 0.08334861 0.15502341 0.13670099 0.059391744
0.1585817 -0.29645047 -0.2419208 -0.37204105 -0.54464054 0.30155686 -0.23041898 -0.23247498
-0.33468792 -0.56215864 0.49545828 0.11150213 0.20526624 -0.017372109 -0.36927363 0.25624773
0.0029325061 0.17865181 0.04720906 -0.31885225 0.3771591 -0.050947744 0.07382381 -0.06924311
-0.35791454 -0.2883285 -0.24742843 -0.44683567 -0.20710292 0.3064693 -0.037378337 -0.06663405
-0.46954754 -0.15642554 0.116599314 -0.012780391 -0.1572362 -0.4479119 -0.28464678 0.15990867
0.1304762 -0.11303071 -0.6583062 -0.18274663 0.2127342 0.10666294 -0.094879 -0.7158662
-0.20393893 0.3013514 0.23481008 0.14004938 0.19804625 0.024528522 -0.10480122 0.048689935

gru.weight_hh_l0 f4 [300, 100]
00000000: a639 dcbc 0292 51bd dd8a abbb fbec 053d
00000010: 3068 fcbd 3289 ffbc 9624 07be 37ec fabd
00000020: 15a0 58be be00 1b3e e4b6 73bb 38dd e9bc
00000030: d2b6 24be ba07 9cbc 9361 263e 75ac d53d
00000040: 6a94 03be c81a 273e bd1c 0bbe c579 07be
00000050: 6a16 97bd 917b 92bd 9d83 393e ab02 463c
00000060: 9fd7 d33d c264 06bd feb0 c33d e22d 513e
00000070: 183a de3d 9d3c 453d 23ee 993e 0d59 bb3d
00000080: fa09 943e 1948 35be 35cd 9a3c 0f6d d23d
00000090: a3f7 d23d 1320 9abb f6c5 863e 8a10 f13d
000000a0: df6c 17be 4ff1 05be e88b 4b3e fcb4 d53d
000000b0: 1325 92be c30d 0a38 2397 8abd a1f5 88be
000000c0: 4455 dc3d 0476 003d caf3 c7bb d3f9 c9bd
000000d0: 3c02 06be 41e0 b43c f3b5 08be 302d ea3d
000000e0: d4da 1bbe eccd cebc 34c8 2b3e 4ffd 33bd
000000f0: f8da 28be 1af9 f0bd 0589 293d c869 3bbc
00000100: 9bff c23c b303 873e cee3 993d bb3c 0b3d
00000110: de4d 6c3d 0dec e73d 04b1 03bd 78ee 11bd
00000120: 01ec 593b 9618 e9bd 38d3 84be 7034 423e
00000130: 6352 be3d 1b41 6b3e 6d05 19bd 1f03 17be
00000140: ead5 573d 5ea0 163e 391a 2fbd fce2 04be
00000150: e1c2 323e c6ba 783d a88f b6bc bb12 803e
00000160: ef76 073e 412f 8f3d c99d 953d 831b 0a3c
00000170: 4b28 e73d a773 06be 9423 aebb 7d6d c23b
00000180: 0688 fabd 4e04 233d 563e 253e c2bb d1bc
00000190: 7ead bd3d 0a1a e1bc e3ff 9b3d 4e75 293e
000001a0: 66cd d63d d993 87bc 82b7 eaba 474a f9bd
000001b0: ae36 2abd c876 023c faed b9bd 7013 913d
000001c0: 42b1 e0bd 9850 99bd 7a60 f33d c4de 8a3e
000001d0: 300a 07be 63a8 d8bd fd40 46be df98 edbc
000001e0: a57a 46bd 2c17 37be 5982 25bc b5ee 3abb
000001f0: 88cb acbd cd3d eabd 29d1 9abe 0578 8e3d
00000200: aed4 92be 7761 bf3d 9691 f7bd 092e 3f3c
00000210: 2a9c a13d 9498 a43c 3880 68be b64b abbd
00000220: 4454 2d3e de3c 9ebd e5b4 8c3d 2751 1ebe
00000230: b5ae febd a3d8 a43e 0692 413d 2f46 5d3d
00000240: dfe0 753d 7ec4 fbbd ee38 78bd ff27 87be
00000250: 3f5d 48be fd72 093e e728 513d df16 ecbb
00000260: 24ea a4bd 2384 bb3e cad4 fdbc 68cd 24be
00000270: a023 513e 591d 80bc bcb7 8fbd 8085 92bd
00000280: 65f8 2abc 5acb 393e 4d49 d93c bd0d cebd
00000290: 603b 8bbe a013 ca3d 5178 773e fc11 3fbe
000002a0: caa7 0dbc 19c4 15bd cc01 953d 1448 63be
000002b0: 4794 febd 3a77 cfbd f125 c63d 3fc5 023e
000002c0: fc82 143e bae1 cdbd 76bb 9ebd 7e5f c0bd
000002d0: 7347 4bbe 7249 453d f107 5bbe 0e19 c1bd
000002e0: 89c6 3b3e f4db b0be ea11 81bb 65fc acbd
000002f0: 149c 663e 1e70 6f3e ff9b 3cbe 4ad9 953e
00000300: c9db bb3d 35c6 4fbe b22e 02be bfd2 2b3d
00000310: face d63b 1e66 813e 9614 8b3e abaf 333e
00000320: d6fc 4d3e 5b46 9bbd 7964 acbd a452 593e
00000330: cfa0 f43c e645 86bd 390b 4abc 4d3c d23e
00000340: 6576 92bd 6d77 d43d 55b5 26be 4161 f53d
00000350: 59c2 1a3d 8cff ef3d 8deb 3b3e 97f3 de3d
00000360: 3da5 0ebd 35db 71bd 3a91 153e e9f7 383d
00000370: 33e5 ec3d 75eb e23d d6d6 13bf 29ec a23e
00000380: 36ab edbd 5de9 713c e3cb 713e 8a77 7cbe
00000390: 3839 883e 10d1 c0bb 6b02 30be 2de3 3a3e
000003a0: 3522 713d 71d3 4ebe f093 9cbd 2820 0a3e
000003b0: b4c4 af3c 7b63 223d 00a3 04bd 1272 3f3e
000003c0: 69b2 0b3e 888d 6c3d d6e7 b5bd 50f4 76be
000003d0: 4848 2ebd 585c 913e d285 93bc 8fef bd3b
000003e0: 7c1b a5bd 6932 dcbc 136f d1bd f2f8 363d
000003f0: d33d f03d 60db 78be 961e 593e 5540 bc3d
-0.026882958 -0.051164635 -0.0052350597 0.032696705 -0.1232456 -0.03119335 -0.1319755 -0.12252086
-0.21154816 0.15137002 -0.0037187869 -0.028547868 -0.16085365 -0.019046653 0.16248159 0.10433284
-0.12849584 0.1631881 -0.13585182 -0.13230045 -0.07377322 -0.07152475 0.18116613 0.012085597
0.10343861 -0.032810934 0.09555243 0.20427659 0.10850924 0.04815351 0.30064496 0.091478445
0.28913862 -0.17703284 0.018896678 0.102747075 0.10301139 -0.0047035306 0.26322907 0.11770733
-0.14787625 -0.13080333 0.19877589 0.10434911 -0.2854391 3.291458e-05 -0.06767108 -0.267499
0.107584506 0.03136255 -0.00610206 -0.09862103 -0.1308679 0.022079589 -0.13350658 0.114344
-0.15220195 -0.025244676 0.1677559 -0.043942746 -0.1648978 -0.11766262 0.041390438 -0.011438794
0.023803523 0.2637001 0.075141534 0.033993464 0.057691447 0.1132432 -0.032151237 -0.035627812
0.0033252242 -0.113816425 -0.25942397 0.18965316 0.09293058 0.22974055 -0.03735869 -0.14747284
0.05269424 0.14709613 -0.042749617 -0.12977213 0.17457153 0.060724996 -0.022285298 0.2501429
0.13228963 0.06991435 0.07305486 0.008429411 0.11286982 -0.13130055 -0.0053143 0.005933462
-0.12232976 0.039799027 0.1613706 -0.025602225 0.09261607 -0.027478237 0.07617166 0.16548654
0.104883954 -0.016549991 -0.0017907473 -0.121723704 -0.041556053 0.00796289 -0.090785936 0.070837855
-0.10971309 -0.07486075 0.11883636 0.27123082 -0.1318748 -0.10578992 -0.19360729 -0.029003559
-0.048456807 -0.17879933 -0.010101878 -0.0028523628 -0.08437258 -0.11437569 -0.30237702 0.06956486
-0.28677887 0.09344762 -0.12088315 0.0116686905 0.07891114 0.020092286 -0.22705162 -0.0836405
0.16926676 -0.07726453 0.068704404 -0.15460645 -0.124356665 0.3219653 0.0472584 0.05402201
0.060028907 -0.12293337 -0.060601167 -0.26397702 -0.1956682 0.13422771 0.0510644 -0.007204875
-0.08052471 0.3662425 -0.030985255 -0.16093981 0.20423746 -0.015638994 -0.070174664 -0.07154369
-0.010435198 0.18143979 0.02652421 -0.10061214 -0.27193737 0.098670244 0.24166991 -0.18659204
-0.008645961 -0.036563966 0.07275733 -0.22195464 -0.124306254 -0.101301625 0.096752055 0.12770556
0.14503092 -0.100528196 -0.07750599 -0.09393214 -0.19851474 0.048165746 -0.21389748 -0.09428607
0.18337454 -0.3454281 -0.003938903 -0.08446578 0.22520477 0.23382613 -0.18418883 0.2926734
0.0917278 -0.20290454 -0.12713125 0.04194903 0.0065554352 0.25273222 0.27164143 0.17547481
0.2011598 -0.075817786 -0.08417601 0.21222931 0.029861836 -0.06556301 -0.012331777 0.4106163
-0.07151488 0.10374341 -0.1628011 0.1198144 0.037783 0.117186636 0.18351574 0.10886305
-0.034825552 -0.059046943 0.14606181 0.0451583 0.11567154 0.11080066 -0.5774969 0.318208
-0.116049215 0.014765111 0.23612933 -0.24654976 0.26606154 -0.005884297 -0.17188422 0.18250723
0.058870513 -0.20197846 -0.07645404 0.13488829 0.0214561 0.039645653 -0.03238201 0.18695858
0.13642277 0.057752162 -0.0888211 -0.24116635 -0.0425494 0.28390765 -0.018008146 0.00579638
-0.08061883 -0.026879506 -0.10226264 0.044671007 0.11730542 -0.24302435 0.21203074 0.09191958

gru.bias_ih_l0 f4 [300]
00000000: 6fd0 613c 9624 be3d c106 f13d 1999 8cbd
00000010: bfc0 a3bc ae9b a53d b6cc 81bc 29b6 493b
00000020: e9f6 2dbd 21d4 7cbd 0732 ea3d a3f6 4cbd
00000030: 621a 8bbd 5bac 83bd 6956 01be 9e14 24bd
00000040: 4a7a de3d 52f8 a03d 9a29 babc d72b 42bc
00000050: ba77 6fbe 3c82 ec3d df61 1cbd 0ec1 c1bd
00000060: b22c 54be 1f15 9e3d d50c 9dbd a07a 013e
00000070: 21c0 7b3e 1a03 07bd 2447 d8bc f11b 18bb
00000080: 8166 56bd f23d 3cbd 4b80 04bb 1af1 983d
00000090: 9903 d9bd f325 2e3e 2eb2 e03d 2f37 e5bc
000000a0: 4b0e 06bd 569b 49bd ecb7 9cbd 1422 fbbd
000000b0: 0ac4 9cbd 7a8b 1cbe ae4d 1f3e b4eb 61be
000000c0: 04ce e2bd aa8b 01be e00d 223e 3994 3f3d
000000d0: 545b a43d 4b0c 2cbd f5df 023d 8fb5 04be
000000e0: 6459 4f3d b3c4 bcbd 8fc7 993d 4c33 dcbd
000000f0: c819 12be 96ed a63d 3613 14be 7669 2c3d
00000100: c8b6 813d 0078 1cbe 3106 05be 3543 e83d
00000110: 6a85 b2bc 90c0 f63c 8ea6 48be 534d 563d
00000120: 53ce c7bd 8de7 f53d ff7e 6c3c 8541 3dbd
00000130: 4342 87bb cf2f acbd c1a9 97bd 0ea4 b43d
00000140: 37d2 02ba c68f 243d aaff cdbd 7f89 acbb
00000150: dd7c 3b3e 8654 5ebe 79af 0abe a00e 64bd
00000160: 3cf0 1cbe 1680 babc ee49 8bbd 0191 eebd
00000170: 8f50 0abd 4953 9fbd 1606 89bc 15d6 eebd
00000180: 69b6 25bc e721 773c 52cf aabd db41 66bc
00000190: 5870 de3d 3d19 f13d b2db 22be 1317 b3bd
000001a0: ab97 8c3d 0b42 5a3e 42c3 553c c5a2 a5bd
000001b0: e453 1a3e d3c8 de3c bff9 5c3e af1e ac3d
000001c0: 9e9c bd3e 860a 3abd fc0a 2d3e be1e a53d
000001d0: c7e6 18bd c307 373d b4c5 b93e eb63 993e
000001e0: d804 d13d 79e0 6a3e 5986 7cbe 1a3b 81bd
000001f0: f161 733d d96a eb3c 5c4e 4c3d a278 10be
00000200: 1fbc 6abe a64d cc3c b58a 67bd f7d5 12bd
00000210: efd3 c33d feaf 8cbd 986c ba3c dc91 593e
00000220: 6dcc b63e 2589 463d bff1 973d a24a 83bd
00000230: 6f0b 343e fa44 8a3c 59ad 16bd 049a f8bd
00000240: 0b7f 753d 0ee3 2b3e d5ab 523d d28a d1bc
00000250: 566c 6d3c 0fc7 00bd 9013 013c 819c e23d
00000260: 4449 ebbd ddf3 3f3d ae16 ab3d eb3e 1fbd
00000270: 76f1 64bc 800d 46be c996 c5bd e565 e03c
00000280: ef37 c03d fa37 5ebe 6052 263d 1253 893a
00000290: 3dcf dcbd a7d3 d03d 8ec4 e83d e654 a93c
000002a0: 21e7 873d 0d51 fbbb 227f 16be d2d6 963e
000002b0: f3fb 01bd b937 933c 972f 8a3c c16c 08bc
000002c0: cf80 fe3c ae02 fb3c f090 e3bd b405 58bb
000002d0: cd5a 003d 5aaf a1be ab99 123e 206e 6dbe
000002e0: 2ad1 873e 09d7 c7bd d3a5 ad3d 6f59 283e
000002f0: 466a 86bd b506 c83e ef7a 3abe ff76 0a3d
00000300: b05e 97bd ff46 7e3e 1487 cf3d fccf a6bd
00000310: 1238 db3d 4bd7 8cbd 4261 4a3e 2966 d63c
00000320: 1b9d 6abe b404 afbd beb1 823e 730e 4ebd
00000330: 7384 333d eafc 10bd e24a 0b3e 0efe b43d
00000340: b1e9 313c 03b4 543c 6a96 2b3e 52b4 57bc
00000350: 6fef 213e c820 2b3e eb68 62bd 885e f3bc
00000360: a02d 5d3c 4da0 16be 860a 343e 6650 5cbd
00000370: e450 233e 5f25 073e abf2 95bd e85b 833d
00000380: 2b7a 963d db3b 5d3d 5331 873c da3a 55be
00000390: bf38 bd3c 0fb4 303c 2f16 a1bd d49d 4abd
000003a0: 3797 78bd 4535 143e 9151 b2bd 725b c4bd
000003b0: 8617 28be 1ba5 993d dd2d dcbd 1173 b5bd
000003c0: 4daf 133e a98f fdbd 26cd 673d 5684 9a3d
000003d0: 5b2d f23d c7d8 7b3d 01c6 95bd 34f7 2d3e
000003e0: 39e4 163d 918a 11bd f0ed 753d 920c 3cbe
000003f0: ce90 c5bd 129d 933c e84d 0c3d 5160 3b3e
0.013782605 0.09284322 0.11768866 -0.068651386 -0.01998937 0.08086334 -0.015844684 0.0030778742
-0.0424718 -0.06172574 0.11435323 -0.0500399 -0.067921415 -0.064293586 -0.12630619 -0.040058725
0.108631685 0.07859863 -0.022724915 -0.011851273 -0.23385516 0.11548278 -0.038179275 -0.094606504
-0.20720175 0.07718872 -0.07668463 0.12644434 0.2458501 -0.032961942 -0.02640111 -0.0023210014
-0.05234385 -0.045957513 -0.002021807 0.074678615 -0.10596389 0.17006664 0.10971485 -0.027980415
-0.032728475 -0.049220406 -0.07652268 -0.12262359 -0.07654579 -0.15287581 0.15556976 -0.2206257
-0.110744506 -0.12650934 0.15825605 0.046772216 0.08025232 -0.04200391 0.031951863 -0.12959884
0.05062236 -0.09217205 0.07508766 -0.107519716 -0.14267647 0.08150785 -0.14460453 0.042092763
0.06333691 -0.15280151 -0.12990643 0.11340944 -0.021792132 0.030121118 -0.19594786 0.052319836
-0.0975615 0.120070554 0.014434575 -0.046205062 -0.004127772 -0.08407556 -0.07405425 0.088203534
-0.0004990431 0.040176176 -0.1005853 -0.0052654142 0.1830935 -0.2171193 -0.135435 -0.05567801
-0.15326017 -0.022766154 -0.0680121 -0.11648751 -0.033768233 -0.07779557 -0.016726535 -0.11661927
-0.010114291 0.015083767 -0.083403245 -0.014053787 0.108612716 0.11772392 -0.1590412 -0.087446354
0.06864866 0.21314256 0.013047041 -0.080876864 0.15071064 0.02719537 0.21579646 0.0840429
0.37033552 -0.045420192 0.16898721 0.08062504 -0.03732946 0.044685137 0.36283648 0.29959044
0.10206002 0.22937192 -0.24660625 -0.06310101 0.059419576 0.028737472 0.049879417 -0.14108518
-0.22923325 0.02493937 -0.056528766 -0.035848584 0.095619075 -0.06869505 0.02275686 0.21247047
0.3570284 0.048470635 0.07419156 -0.064107195 0.17582487 0.016878594 -0.03678641 -0.12138751
0.05993561 0.16785833 0.051433403 -0.02557889 0.014491161 -0.031439837 0.007878199 0.11065007
-0.11488584 0.046863426 0.08353935 -0.038878363 -0.013973584 -0.19341087 -0.096479006 0.027392337
0.093856685 -0.21701041 0.040605903 0.0010477027 -0.10781715 0.101966195 0.11365615 0.020670366
0.06635881 -0.007669574 -0.14696935 0.2946077 -0.031734418 0.017970907 0.016868396 -0.00832671
0.03106728 0.030640926 -0.11111629 -0.0032962384 0.031336594 -0.31579095 0.14316432 -0.2318654
0.26526767 -0.097578116 0.08478894 0.16440366 -0.06563239 0.39067617 -0.18210958 0.03380489
-0.07391107 0.2483177 0.10133186 -0.081451386 0.10704054 -0.068770014 0.19763663 0.02617176
-0.22911493 -0.08545819 0.25526232 -0.05030675 0.043827485 -0.035397448 0.13602784 0.088375196
0.010858939 0.012982371 0.16756597 -0.01316555 0.15813993 0.16711724 -0.05527584 -0.029708162
0.013499647 -0.14709587 0.1758214 -0.05378761 0.15948826 0.1319785 -0.07321676 0.06414014
0.073475204 0.05401216 0.016503012 -0.20823231 0.023098348 0.010785117 -0.07865559 -0.049466923
-0.060691085 0.14473446 -0.08706964 -0.09587754 -0.16415223 0.075021945 -0.10750935 -0.08859838
0.1442234 -0.123809166 0.05659213 0.07544772 0.11825057 0.06148603 -0.07313157 0.16988832
0.036838744 -0.035532538 0.060041368 -0.1836417 -0.0964676 0.018019233 0.034253985 0.1829846

gru.bias_hh_l0 f4 [300]
00000000: 2e2e 7e3d 7c4b 313b cf7a 2c3c b601 96bd
00000010: 55b2 8abd 82a5 a83d 297b bcbc 4ee1 41bd
00000020: 7119 b3bd 1495 7ebc 81bf 0b3e 1581 6fbc
00000030: b4cd 5ebe b1c9 9d3d 62c4 1ebd 6005 65bd
00000040: b376 5f3d 255d f33d c4f0 02be 8a24 a6bc
00000050: b80b 26be 6e4b 893d 1813 7dbd 9195 b6bd
00000060: 2760 0ebe bf31 edbc 109f 2dbd e50e ae3c
00000070: f517 b13d 30dd 83bd 9b6c 883c c312 0cbe
00000080: e879 16be a008 a63c 302c 483d 789b c73d
00000090: 3b96 bebd dd69 b73d acd3 bb3d 8872 90bd
000000a0: ee75 87bd 4dcd a9bc 448f 503c 447e 203c
000000b0: dd06 19be 2cff 96bd c497 433e 452e 72be
000000c0: e62c 08bd bffe 1bbe 8cb1 423d 7097 083d
000000d0: da05 a0bc 9cf4 22bc fc1e 163d a730 30be
000000e0: a222 ccbd 6350 3b3d 7e85 943d 5ae3 c03c
000000f0: cdff 31be cda2 063e e82c 4fbe 0674 34bd
00000100: e3ff ec3b e5f5 2abe c288 e5bd 45d0 1c3c
00000110: a1e1 263c 8c28 c5bc 1aa0 d6bd cdc8 85bc
00000120: 80ed 44bd 1f0d 203e 6b2f 003d 6eb4 2cbd
00000130: 93b1 7b3d f1ad 203c a62e 8cbd caf7 d93c
00000140: 37f8 773b 81aa 8a3d 3293 bb3a 439c cc3c
00000150: f780 5d3d 18ec 1fbe 2952 87bd 4f8d 4cbb
00000160: 2177 27be 7ccd c3bd ad3d 8fbd 3f9f d83c
00000170: d8c2 c53d 0d09 14be 687c 19bd ea6d 3fbd
00000180: 54ca b6bc 21e0 f63d c7cc 353c 2e10 773d
00000190: 9079 d13c a469 71bc 3b83 1cbe 0632 99bd
000001a0: 984d c13d 6e2d 3a3e 9e08 843c 6a68 43be
000001b0: cf79 333e e2f9 0f3e a7d3 2a3e 66e5 073e
000001c0: 3413 b93e b637 85bd 48e7 443e 7e6b 3f3e
000001d0: 72c9 33bd 1b6d d33d b7b2 893e 52f4 be3e
000001e0: 8b2f 643d 88b3 7b3e 7083 29be 3910 fd3c
000001f0: 19ae fc3c b981 95bc ddd1 0c3e 931d f8bd
00000200: a3a2 5cbe 583f 74bd 236c 873d 274c 15bd
00000210: dedd 1d3e d164 6d3c c78a e5bd 515b 953e
00000220: 06d2 e33e 7c59 d6bc e66f 033e 790c 98bc
00000230: 4190 123e 6cee 233d 5603 8abd d01f 03be
00000240: f1d5 1e3e ea49 4d3e 1706 b9bc 952b 29bd
00000250: b081 9cbd 34b6 57bd c381 62bd 3d4e 9f3d
00000260: 3fe0 3fbe d5d0 223e 1366 193e cb6f ecbd
00000270: bf7e 583d 1d7f 44be e6c8 9abd a64e 093d
00000280: 2d64 0d3e ebc4 3bbe 66b2 adbc 38a9 4bbd
00000290: dff1 083d 66fa b73d 6f0f dd3d 466c 00bd
000002a0: 3d89 b03d c881 70b9 5d48 28be 246a 8e3e
000002b0: 5c81 483b a8cd aabd 1f2d 66bd 46f9 e4bc
000002c0: d12f 8a3c 0ef7 00bc bb89 1bbe 6177 96bd
000002d0: 422d 883c 3baa b0be 351d f13d 8e61 ddbd
000002e0: e33b 4d3e cede ddbd 7e8c 033e ccf4 e43d
000002f0: 1a10 d2bc 3f88 c53e 88ed 13be 411f 143c
00000300: 4d05 82bd b763 2f3e 1f1f 98bc 3eb2 adbd
00000310: b8dc c53d 5084 86bd 9af3 ee3d c09c 703d
00000320: fb4d 17be 4425 25be cdd7 403e dc3d 2d3e
00000330: 91fc e13c a7e9 27be 96d4 193e 8454 1b3e
00000340: 450a 923c df93 8ebb 3aca 3d3e 0a04 2cbd
00000350: 72b1 263e 7c17 243e 2de1 c6bd bb74 4bbd
00000360: 580c 50bd 7374 82be 6df1 2a3e f27a f23c
00000370: 4702 293e 73fb f23b c0e8 44bc d019 43bd
00000380: c6c5 223c 0e56 803d 09f4 0a3c 1925 89be
00000390: ea0a da3e f145 f73d 6abc c2bd d3a8 cbbd
000003a0: b880 e0bd 6c52 d23d 4bb0 02be 5cc0 02bd
000003b0: 8a1a c8bd bcc0 bc3c 2d72 08bd f2dc 44bd
000003c0: 3ded 193e 43f3 133d 7208 283e c9f4 e4bc
000003d0: c6da 903d 5c7b 72bd 73e9 ddbd fed0 b93c
000003e0: 8cf4 34bd 55c1 b7bc 6195 5c3c 5b7f 3fbe
000003f0: a2a0 3cbe d6b9 263e b52a 033e a45d 523c
0.06205576 0.0027053049 0.010527327 -0.07324545 -0.067722954 0.08234693 -0.023007946 -0.047334008
-0.08745087 -0.015538473 0.13647272 -0.014618178 -0.21758157 0.07704485 -0.038761504 -0.05591333
0.05455656 0.11883 -0.12787157 -0.020281095 -0.16215408 0.0670384 -0.061785787 -0.08915246
-0.13903867 -0.028954385 -0.042388022 0.021247337 0.086471476 -0.064386725 0.01665335 -0.13679032
-0.14694941 0.020267785 0.048870265 0.0974645 -0.09305998 0.08955739 0.091712326 -0.07053095
-0.0661429 -0.020727778 0.01272947 0.009795729 -0.14944024 -0.07372889 0.19100863 -0.23650463
-0.033245943 -0.15233897 0.047532603 0.033347547 -0.01953404 -0.009946015 0.036650643 -0.1720606
-0.09967543 0.04573096 0.07252024 0.02354591 -0.17382737 0.13148041 -0.20231974 -0.04405596
0.0072326525 -0.16695364 -0.11207725 0.00957114 0.01018563 -0.024067186 -0.10479756 -0.0163311
-0.04807806 0.15630005 0.03129522 -0.04216426 0.061448645 0.009807096 -0.06844835 0.026607413
0.0037837157 0.06770802 0.0014310835 0.024976855 0.05407807 -0.15617406 -0.06607468 -0.0031212156
-0.16354038 -0.095606774 -0.069941856 0.026443122 0.09656304 -0.14456578 -0.03747216 -0.04673568
-0.022313274 0.12054468 0.011096186 0.060318165 0.02557066 -0.014734659 -0.15284435 -0.07480244
0.09438628 0.18181393 0.01611739 -0.190828 0.17526935 0.14060166 0.16682301 0.13271102
0.36147463 -0.06504767 0.19228852 0.18693349 -0.043893285 0.103235446 0.2689416 0.37295777
0.055709403 0.24580204 -0.16554046 0.030891525 0.030844735 -0.018250333 0.13751931 -0.12115016
-0.21546416 -0.05963072 0.06612422 -0.036449578 0.15416667 0.014489369 -0.1120811 0.2917123
0.44496173 -0.026165716 0.12835655 -0.018560635 0.14312841 0.0400223 -0.067389175 -0.12805104
0.155113 0.20047727 -0.022585912 -0.04130133 -0.076419234 -0.052663997 -0.05529953 0.07778595
-0.18737887 0.15899976 0.14980344 -0.1154476 0.05285525 -0.19189115 -0.075578496 0.03352227
0.13807745 -0.18336837 -0.021203231 -0.049721926 0.03343379 0.089833066 0.10793959 -0.031353258
0.08619926 -0.00022936531 -0.16433854 0.27815354 0.0030594682 -0.08340007 -0.056195375 -0.027950894
0.016868504 -0.007871402 -0.15189259 -0.073469885 0.016623143 -0.34504876 0.11773149 -0.10809623
0.20042376 -0.10833512 0.12846562 0.11179504 -0.025642443 0.3858051 -0.1444608 0.009040655
-0.06348667 0.17127882 -0.018569527 -0.084812626 0.096612394 -0.06568205 0.11667557 0.05874324
-0.14775841 -0.16127497 0.18832321 0.16918129 0.027586253 -0.16397725 0.15022501 0.15168959
0.017827163 -0.0043511237 0.18534175 -0.04199604 0.16278628 0.16024584 -0.097109176 -0.04967187
-0.050793022 -0.2547947 0.16693659 0.02959964 0.16504775 0.007415229 -0.012018383 -0.04763204
0.009934848 0.06266414 0.008481034 -0.26786116 0.42586452 0.12073887 -0.095085934 -0.0994431
-0.10962051 0.10269627 -0.12762563 -0.03192173 -0.09770687 0.023041122 -0.03331201 -0.048062272
0.15031905 0.036120664 0.16409472 -0.027948754 0.07072978 -0.059199676 -0.108355425 0.022682663
-0.04417853 -0.022431055 0.013463349 -0.18700926 -0.18420652 0.16281828 0.1280926 0.0128397085

dense_output.0.weight f4 [100, 100]
00000000: e744 fa3d 7b97 fa3c c436 f03c a975 50bd
00000010: 0c81 ad3b e572 5a3e efb0 a93c 7669 7c3d
00000020: 1253 35bd 0e80 31bd e0cc 4d3d 4335 c0bd
00000030: ac7e 9f3d 1efa d63c 75ed 59bc 5d50 573d
00000040: 92e0 bd3d c8c1 bc3d 9bec 3e3c d0a0 033e
00000050: 7f06 4abd b2fc a33d 19d7 9ebd 21ba 5e3c
00000060: 38c6 5e3d 48c8 59bc 6f76 b53d 1f31 15be
00000070: 45ed fabd 3756 24be 47f0 b13d 5a18 463d
00000080: b845 703c 7bb4 f33c 7df4 0fbd e415 c9ba
00000090: 9a20 05be f9c9 debd 66d2 f9bc 94fe 1f3e
000000a0: ec3b 0f3d ec80 c7bd 1315 ab3d c7bf ee3c
000000b0: ff77 963b 12c3 4a3e 5c66 523d 7f0b 08bd
000000c0: 250f 413d 6d92 24bd 6ce4 c53b c1eb 8b3b
000000d0: 8f11 c6bc f667 58bd 7f2e 613d 7c79 a3bd
000000e0: 836c 98bd 1a16 4dbc 6300 57bc b4e2 773c
000000f0: bbe4 ba3d 2a74 66bb d3d5 a63c 784e fb3d
00000100: ff2d 95bd 5919 283d 0819 ab3d 3162 a33d
00000110: 4efa babc 6d35 a5bd 2cfb b43d 9ea4 57bd
00000120: abf3 5fbc 9b47 923d f35f f2bc 85f1 c5bc
00000130: 14a7 fcbb 9646 ee39 72e8 06be 74b8 b9bd
00000140: 44f4 01be deec 0cbd 6e8e 523e bb7b 15be
00000150: 60aa 01bd 6474 90bd 8de7 dcbd 73da 5e3d
00000160: a6f1 003c 628e edbd a642 8e3c d13e 9bbd
00000170: 7756 00bd 8d58 113e 427e 113e 2190 94bd
00000180: 2680 433d adf1 89bd 3f39 dabd cd97 8c3d
00000190: 0822 b33b d06e 24bd 905f 4ebd 85b9 9f3c
000001a0: c5b8 d8bc f5a4 4bbd ec39 77be 1a73 56bd
000001b0: 57df 81bd 3d81 99bc 15c5 00bd 2a8e 0ebd
000001c0: 8eb8 423d 3ade c0bd b596 d63d c2ff 043e
000001d0: 75cf afbd e329 1c3d 80d0 9b3d 7258 94bc
000001e0: 43c3 9c3d 63cc d03b 7e4e 84bd 64fd 2dbc
000001f0: 03c3 ca3c d335 0b3e 0bf6 4b3d 5761 033d
00000200: 1dc9 14be 0e38 37bd 93cd a9bd 5a1d 1fbd
00000210: 06cd 2c3e dbdb b3bb b5ee 13bd 2ce0 3abd
00000220: 9771 22be 388b 6e3d 8d63 15bd c8a5 e23d
00000230: 4f56 0cbc f818 62bc fecb f3bb bd96 553c
00000240: f59f c63d 0a02 e23d 8e10 183c 85aa 4f3d
00000250: d861 8f3d a9a7 9b3d 1c47 19bd 9f6c 8cbd
00000260: d7fc 733d 567a 8fbd e658 113c 3969 15bc
00000270: f3f2 f33c 72aa a83d 51a5 a4bc e7b6 af39
00000280: 6622 993d 827e 0d3d c636 733d 0e76 b2bc
00000290: bcba dc3b 7513 213d f6f2 2dbe fb64 5a3e
000002a0: 5db0 24bc 4b1a ef3c 58c4 9fb8 b23b 613d
000002b0: 6578 123d 2050 37bc f163 913c 6e60 443c
000002c0: 68e5 26bc 8c5b 863d 03cc 8fbd 84ca d2bd
000002d0: f5d1 4a3d 8bbb 733d 4997 abbd 636b b23d
000002e0: 3cb9 5e3d 7a7c 523c d625 c03b 0f43 febc
000002f0: 94e8 b9bd 6b06 18bd f1fd a6bd 5758 92bc
00000300: 23ee e83c 94c1 b83c c604 c43d ce87 98bc
00000310: 6305 5c3e 7955 6ebd e811 a83a 0ab5 0f3c
00000320: c887 f23c 8711 bcbd f578 14bd 79a4 323d
00000330: 1b88 02be ebdb 6abc 9be6 16bd adc5 ef3d
00000340: 6b4c c23c 40f1 043d b053 81bc e48a ddbd
00000350: ce25 813c b6ab 65bb ad99 45bd 934a b43d
00000360: 0e00 193d bb05 443d 42d2 e7bc a392 aabd
00000370: 41e3 afbd 565a be3b d762 3f3d b5ab 2c3d
00000380: e99c 0f3d 6102 99bc cb4b 63bd 7109 bebd
00000390: 1703 803e 2c2a 0ebe 3934 79bd 4591 4abd
000003a0: 3407 0f3d 7abf cfbb 19fb 79bc 2d2d 153e
000003b0: 4583 98bd b50a f33b 0178 ab3d a1d6 c83d
000003c0: ec2a 84bd d583 2fbe 766b bb3d 58ee cebd
000003d0: 63e9 68bd aa9d 8c3d 7fce d0bd 7133 b7bd
000003e0: ea41 293c b9a7 a4bd 6b42 12bd 50e2 0f3d
000003f0: 6f91 73bd dc4d a2bd 9b5c 05bd 8093 de3d
0.12220173 0.03058981 0.02932299 -0.05089346 0.0052949246 0.21332891 0.020714251 0.061624013
-0.044268675 -0.043335013 0.050244212 -0.09385159 0.077878326 0.026242312 -0.013301243 0.052566875
0.09271349 0.09216648 0.011653091 0.12854314 -0.0493226 0.08007182 -0.0775587 0.013594181
0.054388255 -0.01329238 0.0886048 -0.1456952 -0.12252287 -0.16048513 0.086884074 0.048363067
0.01466506 0.029749146 -0.03514527 -0.0015341607 -0.13000718 -0.10878367 -0.030495834 0.15624458
0.034969255 -0.09741387 0.08353629 0.029144181 0.0045919414 0.19800976 0.05136715 -0.03321409
0.047133584 -0.040178705 0.006039193 0.0042700474 -0.024178294 -0.05283352 0.054975983 -0.07982156
-0.07442572 -0.012517476 -0.013122651 0.015129734 0.09125658 -0.0035164454 0.020365631 0.12270826
-0.07284164 0.0410398 0.08354384 0.07977713 -0.022824433 -0.08066831 0.0883697 -0.052647226
-0.013668935 0.07142564 -0.029586768 -0.024163017 -0.007710347 0.00045447488 -0.13174608 -0.09068385
-0.12690836 -0.03440558 0.20562145 -0.1459798 -0.031656623 -0.0705345 -0.10786352 0.05440755
0.0078701135 -0.11599423 0.017365765 -0.07580341 -0.03133246 0.14193936 0.1420832 -0.07254053
0.047729634 -0.06735549 -0.1065545 0.06864891 0.0054667033 -0.04014474 -0.050384104 0.019497642
-0.026455292 -0.049717862 -0.24143189 -0.052355863 -0.06341427 -0.018738383 -0.031437952 -0.034803547
0.047539286 -0.09417386 0.10477964 0.12988189 -0.08584491 0.038125884 0.076081276 -0.01810858
0.07654431 0.006372021 -0.06460284 -0.010619495 0.024751192 0.13594751 0.04979519 0.032075252
-0.14529844 -0.044731192 -0.08291163 -0.03884635 0.16875085 -0.0054888553 -0.03611632 -0.045623943
-0.15863644 0.058238238 -0.036471892 0.110667765 -0.008565499 -0.013799898 -0.0074400892 0.013036427
0.09698478 0.11035545 0.009281291 0.05069973 0.07001084 0.07600338 -0.03742133 -0.06856655
0.0595673 -0.070057556 0.008871293 -0.009119325 0.029778933 0.08235635 -0.02009836 0.00033514874
0.07477264 0.034544475 0.059378408 -0.021784808 0.0067361277 0.039325196 -0.16987213 0.21327583
-0.010051814 0.029187342 -7.618283e-05 0.05498857 0.03575935 -0.011188537 0.017747851 0.011985881
-0.010186531 0.0656043 -0.07021334 -0.10292533 0.049516637 0.059505027 -0.08378465 0.08711889
0.054375872 0.01284706 0.0058638854 -0.031037835 -0.09077564 -0.037115496 -0.08153904 -0.01786439
0.028433865 0.022553243 0.09571223 -0.018619444 0.2148643 -0.05818698 0.0012822719 0.00877119
0.029605761 -0.091830306 -0.036248166 0.043613885 -0.12747233 -0.014334659 -0.036841016 0.117076255
0.02371808 0.032456636 -0.015786976 -0.10817507 0.015765097 -0.0035044975 -0.04824226 0.088032864
0.037353568 0.047857028 -0.0282985 -0.0832875 -0.08588267 0.0058091087 0.04672512 0.04215594
0.03506175 -0.018677892 -0.055492204 -0.092791446 0.25002357 -0.13883275 -0.06084082 -0.049454946
0.03491898 -0.0063399645 -0.01525762 0.14568014 -0.07446913 0.007417048 0.08372498 0.09806562
-0.06453499 -0.17140134 0.09151356 -0.10104054 -0.0568632 0.068660095 -0.10195636 -0.089453585
0.010330657 -0.08039803 -0.035707872 0.035127938 -0.05946487 -0.07925007 -0.03255902 0.10867977

dense_output.0.bias f4 [100]
00000000: 5354 07be 2274 bfbd b05e 4b3d 074d abbd
00000010: 87e0 e7bd f6cc 7e3d c21d 23be 3fd9 023e
00000020: 1eab c7ba 26ab 8cbd 2bdb 56bd 6423 6fbc
00000030: e5ea b5bc 0439 5d3e b19a 58bd 083f 90bd
00000040: b9c3 833d b1f5 9bbc 0691 0dbd d787 6dbd
00000050: 6920 21be c41e 01be 7ee4 8b3c 71f6 f4bd
00000060: d47b f2bd 0706 2dbd 6042 dc3c b32b 01be
00000070: da89 28be 3c92 6e3c dff2 d53d ea29 743e
00000080: c1fd 35be 4f44 c8bd 960b 623b 5992 f0bd
00000090: 10f4 d9bd 593e 32bd c918 f73c bb2e 2b3e
000000a0: 1852 4f3e a07c 20be b218 88bd 58ba 39bd
000000b0: c4d4 e6bd 7858 78bd 20af b5bd 2926 863b
000000c0: 253e e0bd 188b b63c a4f7 4d3e 52ff 0ebd
000000d0: a865 3abd 3dac 05be 7637 26be fd9a 70bd
000000e0: 74a8 32be fb21 22be fa21 9ebd f466 89bd
000000f0: 332e d23c ec98 39be 1a2a 1abe 64a9 40be
00000100: 5168 f9bd 6f9a babd eba1 b8bd 39e0 9dbd
00000110: 7f71 09be 2f93 53bd 1fb5 82bd 9f0b 9fbd
00000120: 9de6 433d 854b 43bd baf3 22bd b795 f4bd
00000130: ebcd e2bd b839 11bd 65ee 29be 347f 3cbd
00000140: 7d1b 07bd f30f 4ebd d282 093e 01a9 09be
00000150: 6d56 13bb f866 363d dffd 1fbe 5abd b7bd
00000160: 7bc3 c63d aaa6 83bd 9bd0 cbbc ec28 3e3d
00000170: 12e5 00bd 0e65 89bd 8a8c f6bd 313e 19be
00000180: 594e 9ebc 2efa 1bbe 9428 50be 97b9 cb3d
-0.13215761 -0.093483225 0.049650848 -0.08364301 -0.11322122 0.062207185 -0.1592932 0.12778185
-0.0015233492 -0.068685815 -0.05245511 -0.01459584 -0.022206733 0.21603781 -0.0528819 -0.07043272
0.064338155 -0.019038053 -0.034562133 -0.057990875 -0.1573502 -0.12609392 0.017076727 -0.119610675
-0.118400246 -0.042242076 0.026887119 -0.12614326 -0.16458836 0.014561232 0.104467146 0.23844114
-0.1777258 -0.09778654 0.003449177 -0.117466636 -0.10642254 -0.04351649 0.030163186 0.16717045
0.2024616 -0.1567254 -0.06645335 -0.045343727 -0.112710506 -0.060631245 -0.08871293 0.0040939045
-0.10949353 0.022283122 0.20113999 -0.03491146 -0.045507103 -0.13053985 -0.16232094 -0.05874156
-0.17447072 -0.15833275 -0.07721324 -0.0670909 0.025656795 -0.18124741 -0.15055123 -0.18814617
-0.121781 -0.09111487 -0.090152584 -0.07708783 -0.13422202 -0.051654037 -0.06382202 -0.077658884
0.04782735 -0.047679443 -0.039783217 -0.11942618 -0.11074432 -0.035455436 -0.16594847 -0.046019748
-0.0329852 -0.05030818 0.1342881 -0.13443376 -0.0022481934 0.044531792 -0.15624188 -0.08971663
0.09705254 -0.06428273 -0.024879744 0.046425745 -0.03146846 -0.06708728 -0.120385244 -0.1496513
-0.019324468 -0.15232155 -0.2032798 0.09947508

dense_output.3.weight f4 [9, 100]
00000000: 997c 813b c8c4 c93c 2787 443d 38b7 69bd
00000010: 9d80 b43c b826 0d3d e698 3dbd 32b3 703d
00000020: aa5c 243d b773 8ebc 34dd 9abb 333f 913d
00000030: 1c85 f0bc 0107 e43b e4c9 c93c 4ecf 1fbd
00000040: 26e4 6cba 7aef b63c 5841 913d e023 5f3d
00000050: 8bba 5d3c 746a b7bc 0138 8e3c c219 43bd
00000060: ccab 2c3d 741d 823b 15d4 b83c 4a36 00bd
00000070: deed 463c dc1b 0b3e 97e1 88ba 45b3 8f3d
00000080: 8845 05be 2e6e e03d f335 773c 7ac9 68bc
00000090: a39b d73c c03b 5d39 5329 a23d cceb 443d
000000a0: efbb 183d 8219 663c 6bb3 f2bb 970e d53d
000000b0: 032c 5fbc f341 b03b ef0e 57bc e4bf 1d3d
000000c0: ae9b 76bc 89e6 0fbe d329 763d d196 3fbd
000000d0: 9393 d0bb bd9c 6abd b076 b0bb bbbb cdbc
000000e0: 0d6d d7bc 336b 5dbd a6d1 28bd bd63 673b
000000f0: 72e6 8b3b dead 7cbb a784 573c 2740 313b
00000100: 90c2 8cbd ad34 eb3c 1e2d b83d d5d7 31bd
00000110: 0da6 82bc 6954 aa3c 539f adbc cbef 2f3d
00000120: 7ccb 1abc eadf 553d 6191 44bd 8acc 403a
00000130: 16f0 533d bf01 a63d 2e59 e2bb 7d68 b2bc
00000140: 8273 0fbd 0d43 313d 8c92 053d 8c25 1dbd
00000150: faf4 5c3c d7e5 643d 01c2 da3b c21e 8ebc
00000160: f917 d53c 1498 87bc 9220 493d 9101 1f3d
00000170: 326f 333d 1468 84bc 1abe 52bd 70b2 183d
00000180: 8053 793c c2d3 82bc ae44 8abb 5de8 c33c
00000190: b723 b3bb 2240 9f3c 44b8 3f3d 118f c03c
000001a0: be97 bf3c 2e2f 2f3d b010 ca3a bebb 4a3d
000001b0: 755c 373d 5cb6 663d 8de2 24bd 65b4 873d
000001c0: 283b 7dbc 2b86 063d c612 1fbb 7454 3d3c
000001d0: 04ce 6739 30f0 a53d bb3a 1dbd 08c0 543d
000001e0: 1776 72bd 867c 8cbb eb88 ff3c 89da f1bc
000001f0: 0f90 433d e687 b3bb 8f27 b63c 3caa 853b
00000200: 504e 323d 3f23 103e bf02 003c d87e 883d
00000210: b467 03be 3f3d d43d cef4 453c 3e64 02bd
00000220: 130b acbc f6bb b63b b79d 933d 72bd 673d
00000230: f2df 213d 736d 543d f5d9 213b 6ea3 d73d
00000240: 2a01 a6bb 5bb8 febb ddf2 3cbb c08e 213d
00000250: d324 8e3b a4da 05be 8bb1 2d3d 7474 003d
00000260: 4bf7 65bc 9c16 e33c ab31 80bc 4d5e cf3c
00000270: 7d0a 2f3d e4a9 18bd 6eaa 25bd 640d 053b
00000280: cebe c63c 5339 ba3d e407 2dbb 1eaf 5b3d
00000290: 1d35 883d bb54 363d c190 8c3b ae3f 4abd
000002a0: a9d8 ef3d fa9e a8bc f9fe 75bc e623 513d
000002b0: 462f a03a 32a8 a0bd 8c79 2a3b c74d f0bc
000002c0: 30f8 2abc 0842 b33d 4ede 453c 65e6 08bd
000002d0: a85f 06bd 8152 1e3d 32e3 033d ee06 95bc
000002e0: e218 0d3d d954 683d b6df e33c 8a61 1b3d
000002f0: 3410 ac3c 003c 2d3d fe1b 303d d1eb 153d
00000300: c078 903b e9e0 553c 7694 91bd 0f46 c6ba
00000310: b312 a03c a4f7 373d 11a3 35bb f8f4 c83c
00000320: 0bff 953b 00a7 cf3c 4ebd 343d a566 54bc
00000330: 8134 953c 2cc9 343d 91eb 323d d79a 793c
00000340: c110 473d 032b eebc 82f0 e63c 6407 0c3d
00000350: a1ca 7a3d d674 dcba 8735 1cbd 250f 893a
00000360: 5704 a33b 92fb 933a 41c6 a9bc c546 3f3d
00000370: 6643 b0bd f40e 56bd c1c4 663d 66ee 5b3d
00000380: 3d70 babd 1544 02bd b2dd 9b3c 325b 143d
00000390: a9bd b13d 770e 123e 330a 8f3b 1834 913d
000003a0: 4fb7 06be e201 093e 8d2f 44bd 8e31 71bd
000003b0: d235 8eb7 5cfd bc3a bc86 a33d 4eed 253d
000003c0: 492a 823d 2104 a73b ba2f ae3c b66f d73d
000003d0: 56ef 4ebc 3b12 9fbd b610 8ebc 1126 2a3d
000003e0: 69d2 acbc 8173 06be ea85 a83d 2683 483e
000003f0: 5543 873c 49b4 c9bd c96e 0dbd c6ce 42bd
0.003951621 0.024629965 0.047980454 -0.057059497 0.022033984 0.034460753 -0.046288393 0.058764644
0.040127434 -0.017389162 -0.0047260765 0.070921324 -0.029360346 0.0069588427 0.024632402 -0.03901606
-0.00090366823 0.022330988 0.070925415 0.054477572 0.013533245 -0.022389628 0.01736069 -0.047631986
0.042156026 0.0039707962 0.022562066 -0.031301774 0.012141673 0.13584846 -0.0010443208 0.07016615
-0.13014805 0.10958515 0.015088546 -0.014208192 0.02631933 0.00021098461 0.07918038 0.048076436
0.037288602 0.0140441675 -0.007406642 0.104031734 -0.013621333 0.0053789555 -0.013126119 0.03851308
-0.015051765 -0.14052786 0.06009848 -0.04677469 -0.0063652485 -0.057278384 -0.0053852424 -0.02511393
-0.026297117 -0.05405731 -0.04121556 0.0035307251 0.0042694146 -0.0038555781 0.013154185 0.0027046294
-0.06873047 0.028711641 0.089929804 -0.043418724 -0.01594832 0.020792203 -0.021194136 0.042953294
-0.0094479285 0.052215494 -0.047990207 0.00073546974 0.051742636 0.08105802 -0.0069076037 -0.02177834
-0.035022266 0.043276835 0.03261046 -0.038365886 0.013486141 0.055883255 0.006675959 -0.01734865
0.026012408 -0.016552009 0.049103327 0.038819853 0.043807216 -0.01616291 -0.051450826 0.037279546
0.015217662 -0.015970115 -0.004219613 0.02391451 -0.005466904 0.01943976 0.04680659 0.02350572
0.023387786 0.042769603 0.001541635 0.04949545 0.04476591 0.056326255 -0.04025512 0.066262044
-0.0154559985 0.032842796 -0.0024272664 0.01155578 0.00022106624 0.08102453 -0.038386088 0.051940948
-0.05919465 -0.0042873053 0.031193217 -0.029523151 0.047744807 -0.005478847 0.02223566 0.0040791314
0.043531716 0.14075945 0.007813155 0.066648185 -0.12832528 0.10363244 0.012082292 -0.03183388
-0.021001374 0.005576606 0.07207816 0.056577154 0.03952021 0.05186219 0.0024696563 0.105292186
-0.0050660567 -0.0077734417 -0.0028831281 0.039442778 0.004337886 -0.13071686 0.042405646 0.03136106
-0.01403601 0.027720742 -0.015648684 0.02531352 0.04273461 -0.037271395 -0.040445738 0.002030217
0.024260905 0.09092965 -0.0026402408 0.0536338 0.066507556 0.0445144 0.004289717 -0.049377136
0.117112465 -0.020583618 -0.0150144035 0.051059626 0.001222112 -0.07844581 0.002601239 -0.029333962
-0.010435149 0.08752829 0.012076927 -0.033422846 -0.03280607 0.0386529 0.032199092 -0.01819178
0.03444756 0.056721542 0.027816635 0.037934817 0.02100382 0.04229355 0.042995445 0.036601845
0.004408926 0.013054111 -0.07108395 -0.001512708 0.019540166 0.044913903 -0.0027715603 0.024530873
0.0045775226 0.025348186 0.044125848 -0.0129639255 0.018213512 0.044137165 0.043681685 0.015234671
0.048599962 -0.029073244 0.028190855 0.034186736 0.0612284 -0.0016819488 -0.038136985 0.0010456784
0.0049748826 0.0011290184 -0.020724418 0.04669835 -0.08606605 -0.052260354 0.056339983 0.05369415
-0.09103439 -0.03180321 0.019026611 0.036219783 0.08678753 0.1426333 0.0043652295 0.07090014
-0.13155864 0.13379624 -0.04789691 -0.05888515 -1.6952781e-05 0.0014418769 0.07984683 0.040509515
0.063557215 0.0050969278 0.021262992 0.10519354 -0.012630304 -0.07767149 -0.017341953 0.04154021
-0.021096425 -0.13129999 0.08228667 0.19581279 0.016511599 -0.0984884 -0.03452948 -0.047560476

dense_output.3.bias f4 [9]
00000000: 8d0c fe3d ed77 ff3d cc68 fa3d bd5f fc3d
00000010: 896b f73d 241b fc3d e0e3 e83d 9b02 ef3d
00000020: fb70 ee3d
0.124047376 0.12474046 0.1222702 0.12322948 0.120810576 0.12309864 0.11371589 0.11670419
0.11642643

exp_avg f4 [4, 1, 3, 3, 3]
00000000: f775 1a3c 0109 1e3c 0166 063c cc78 223c
00000010: 9939 1a3c 1b73 163c a5bb 4a3c 2a16 203c
00000020: 64be 383c cda5 2c3c 45ab 053c a4a8 093c
00000030: 9df7 2d3c 2765 0a3c a720 213c 0077 433c
00000040: cfa9 0c3c 9115 4f3c dbad 1f3c 2d42 093c
00000050: 293f 133c 230b 253c 026c 0a3c c2e6 0f3c
00000060: 68aa 3b3c c917 103c 034a 363c 432e d83a
00000070: 44b2 b23a f655 aa3a e72a e53a a329 c7b9
00000080: 9c7c 07b9 8b18 fa3a 4d96 beb9 bca4 c1b9
00000090: d6fe f93a 94ea ef3a 8096 6638 b3b5 c93a
000000a0: 6f93 acb9 3d23 a1ba ee04 c73a 70ee 69ba
000000b0: 50bf 23bb cf7a 0a3b 055c fb3a 5ca5 bf39
000000c0: d31e 823a e025 dbb9 e6a3 63ba 26c8 2f3a
000000d0: a88a 2abb 7bf6 1bbb af7b 8a3a 0a41 d739
000000e0: 2b31 8eba 8977 0b3b 5a3b 233a f52e 9cba
000000f0: 54ff f23a 72cc c336 ae0a 02bb 7800 1839
00000100: ec19 05ba df06 8dba 8cb8 4f3a b8fc 9ab9
00000110: 005b 86ba a71d a239 3f19 93ba 15fa cdba
00000120: eaa8 1cba 581e 7dba 6421 4fba ac32 8db9
00000130: a931 2eba 5560 06ba e4e8 60ba 439f b4ba
00000140: 38f9 8aba 25f8 22bc 37b0 f6bb 76bc 10bc
00000150: 7e92 34bc af3c 12bc 30c4 18bc e683 2cbc
00000160: 5651 12bc 7c2f 10bc 3ec5 0ebc 2c3f 04bc
00000170: fb14 04bc 7d4c 2ebc 715a 2abc 9b15 18bc
00000180: f861 2dbc c4aa 2bbc 7465 10bc 22b1 00bc
00000190: c394 e1bb bfdb a1bb 951f 36bc 09be 27bc
000001a0: 4cf5 f5bb 8d2a 39bc ea1d 28bc 3dcd ebbb
0.009427539 0.009645701 0.008203031 0.0099164955 0.009413146 0.009182717 0.0123738395 0.009770909
0.011275861 0.010537577 0.00815851 0.008402023 0.010618118 0.008446968 0.009834445 0.011930227
0.008585407 0.012639419 0.00974604 0.008377594 0.0089872265 0.010073456 0.008448603 0.008783044
0.011454202 0.008794733 0.011126044 0.0016493279 0.001363345 0.0012995589 0.0017484099 -0.0003798726
-0.00012921024 0.0019080801 -0.00036351607 -0.00036934565 0.0019073139 0.0018304163 5.4976437e-05 0.0015389234
-0.00032916243 -0.0012293827 0.0015183964 -0.00089237746 -0.0024985857 0.0021130329 0.0019177204 0.0003655356
0.0009927399 -0.00041799154 -0.00086837856 0.00067055447 -0.0026022587 -0.0023798037 0.0010565425 0.00041056453
-0.0010848393 0.0021280965 0.00062268006 -0.001191585 0.0018539228 5.8352534e-06 -0.0019842791 0.00014496024
-0.000507741 -0.0010759494 0.0007923923 -0.0002956146 -0.0010250509 0.0003092114 -0.0011222734 -0.0015714789
-0.0005976098 -0.00096557057 -0.0007901399 -0.0002693137 -0.0006644973 -0.0005126049 -0.0008579625 -0.0013780374
-0.0010602837 -0.009946858 -0.0075283307 -0.008833995 -0.011021255 -0.008925601 -0.0093241185 -0.010529494
-0.008930525 -0.008800384 -0.008714018 -0.008071702 -0.008061643 -0.010638353 -0.0103975395 -0.009282495
-0.01058244 -0.010477725 -0.008813251 -0.007854732 -0.006884189 -0.004939526 -0.011115928 -0.010238179
-0.0075060483 -0.011301649 -0.010261038 -0.007196097

exp_avg_sq f4 [4, 1, 3, 3, 3]
00000000: 94cb 633a 894f 283a 92d2 f039 9ca6 2f3a
00000010: d988 1e3a 4628 073a f9f9 fd39 67b2 ef39
00000020: 480e e339 ba60 8b3a 3b88 233a 60d9 f539
00000030: 0171 483a a064 193a e084 093a f020 103a
00000040: ee6f ee39 7a75 e939 c7f8 9f3a 9034 2d3a
00000050: 19a2 123a 6d61 513a 087a 143a 6158 173a
00000060: b552 143a 4955 ed39 166c f839 e060 2939
00000070: a59e 2939 cf4e 9639 a1a9 1a39 36ce 1439
00000080: b3f3 8c39 a35f 3139 0930 2f39 c998 9539
00000090: 16ae 1039 bb8a 4239 5fdc c639 c1ba f738
000000a0: 0a7a 2639 2a5b c939 4416 1539 9c91 4139
000000b0: 9822 d239 8d72 1339 3265 8939 a7e9 d739
000000c0: 14c4 ea38 aa4b 8239 0bde e739 eee6 0c39
000000d0: 09d4 9039 8983 f739 c935 ed38 19d8 3038
000000e0: 2c87 b237 ee35 dd38 9eb8 1d38 5d83 9937
000000f0: 75d6 eb38 6e9f 5838 e607 0638 da0e d238
00000100: 7db7 0538 d944 9637 41de b638 a5b9 c937
00000110: f0f9 6937 c2d0 c438 fa2f 1e38 2329 e237
00000120: 963b b338 8580 0538 a775 a637 b487 8638
00000130: 4ef1 a937 4472 6537 22a0 9438 fd9a 0638
00000140: c040 dd37 38be ff39 b13a 063a a614 163a
00000150: 67ed f239 4cbb f639 918b 0b3a da7b e739
00000160: 2b68 ea39 465b 053a 0d62 fe39 cf16 0e3a
00000170: 2287 1a3a 637e f039 85c1 043a e0eb 123a
00000180: 3f45 e439 01ab fd39 7c10 0e3a 3ec6 013a
00000190: dc0d 133a 8b4e 123a be10 f539 2f2d 0b3a
000001a0: 07bb 0b3a bb00 ec39 fd4b 063a 0db4 073a
0.00086896983 0.0006420543 0.00045933254 0.0006700547 0.00060476136 0.00051558425 0.00048442165 0.00045718552
0.00043307454 0.0010633685 0.00062382565 0.00046891998 0.00076462334 0.0005851481 0.0005245935 0.0005498072
0.00045478292 0.0004452875 0.0012204879 0.00066072587 0.00055936124 0.0007987235 0.0005663936 0.00057733624
0.0005658076 0.00045267705 0.00047382776 0.00016153185 0.00016176196 0.00028668946 0.00014749776 0.000141912
0.0002688445 0.00016915663 0.00016707195 0.00028533328 0.00013797762 0.00018552963 0.00037929692 0.000118126634
0.00015876457 0.0003840563 0.00014218042 0.00018460158 0.00040080096 0.00014061686 0.00026206073 0.0004118208
0.00011194512 0.00024851906 0.00044225188 0.00013437468 0.000276238 0.00047209513 0.00011311059 4.2162927e-05
2.1282198e-05 0.000105481464 3.7603655e-05 1.8300192e-05 0.00011245619 5.1646894e-05 3.1955446e-05 0.00010016347
3.1880558e-05 1.7913453e-05 8.719834e-05 2.4047515e-05 1.3946075e-05 9.3848925e-05 3.7714817e-05 2.6960455e-05
8.546484e-05 3.1829364e-05 1.9843528e-05 6.4148946e-05 2.0258736e-05 1.3676068e-05 7.087017e-05 3.2092434e-05
2.6375405e-05 0.00048779114 0.000512044 0.0005725123 0.00046334715 0.00047060323 0.0005323226 0.0004415203
0.0004470957 0.0005087148 0.0004851971 0.0005420269 0.000589477 0.00045870533 0.0005064237 0.0005604606
0.0004353914 0.00048383328 0.00054193265 0.00049505 0.000560967 0.0005581162 0.00046742515 0.0005309162
0.00053302984 0.00045013972 0.00051230175 0.0005176671

exp_avg f4 [4]
00000000: e5eb 833c fe0b ff3a 92fb f83b 72ef f6bb
0.016103694 0.001945853 0.007598349 -0.0075358683

exp_avg_sq f4 [4]
00000000: 7faa 943c 7277 2f3c ed3d 153c a42e fe3b
0.018147705 0.01070963 0.009109003 0.007757025
