models/dsec/dsec_half2/dsec_half2_stereo_even_model.pth (torch, 863783 bytes, 27 tensors)

conv3d.0.weight f4 [4, 1, 3, 3, 3]
-0.18829471 0.20943302 -0.11896201 -0.064917326 0.16749318 -0.24505104 -0.08827495 0.028601136
-0.0315953 0.17180346 0.14537281 0.24413498 0.27630717 -0.052675445 0.2173316 -0.14077567
-0.12018853 -0.059757173 -0.26085368 -0.07746368 -0.031267148 0.16741379 0.2268906 0.15114981
-0.18728593 -0.1665832 -0.2652169 -0.15174228 -0.14918411 -0.13318431 0.011184528 -0.21216995
-0.100641355 0.05604687 0.045096885 -0.16148047 0.20190874 0.2730985 0.26792488 0.24139923
-0.3516211 0.28523493 0.4133607 -0.23954359 0.3216259 0.21818495 -0.11188834 -0.09139976
-0.13760826 -0.37604162 0.031909898 -0.1428752 -0.265884 0.22240175 -0.11527884 -0.15722549
-0.29009807 -0.25387555 -0.059770398 -0.056876577 -0.09731684 -0.24882475 -0.17587006 0.04625979
0.006588151 -0.029838737 -0.00053620746 -0.004434738 -0.22887403 -0.0027475099 0.1048513 -0.060828585
0.39301577 0.22811994 0.3020754 0.14621381 0.12573597 0.22384952 0.32863486 0.20648238
0.28534272 0.24465701 -0.38366708 0.124956936 0.04210855 -0.27003303 -0.07132427 0.05604804
0.03246185 0.14786075 -0.19427253 0.12145807 0.27710643 0.08025061 0.10101611 0.25497094
0.18273887 0.2505597 -0.035459425 -0.4131973 0.20909931 -0.07460356 -0.3012209 0.039545774
-0.1644845 -0.24636987 0.0862373 -0.18487379
00000000: 54d0 40be 9c75 563e 5ba2 f3bd 60f3 84bd
00000010: 5583 2b3e a9ee 7abe 7fc9 b4bd ee4c ea3c
00000020: 136a 01bd 3fed 2f3e 9cdc 143e 85fe 793e
00000030: 2278 8d3e 35c2 57bd 2d8c 5e3e 7f27 10be
00000040: 6725 f6bd f0c3 74bd 9d8e 85be 47a5 9ebd
00000050: fb11 00bd 856e 2b3e 0256 683e 04c7 1a3e
00000060: e2c7 3fbe c994 2abe 82ca 87be 5462 1bbe
00000070: b8c3 18be 7861 08be 4f3f 373c 1443 59be
00000080: 0e1d cebd 6791 653d 83b7 383d 235b 25be
00000090: 2ac1 4e3e 91d3 8b3e 732d 893e 5c31 773e
000000a0: ae07 b4be 500a 923e 03a4 d33e ea4a 75be
000000b0: 26ac a43e e06b 5f3e b725 e5bd cc2f bbbd
000000c0: 2ee9 0cbe 8788 c0be f4b3 023d e04d 12be
000000d0: f321 88be 49bd 633e 5017 ecbd b8ff 20be
000000e0: bc87 94be fafb 81be ced1 74bd 6af7 68bd
000000f0: 0d4e c7bd eacb 7ebe 4817 34be e87a 3d3d
00000100: 6be1 d73b 5e70 f4bc 4690 0cba 4751 91bb
00000110: f45d 6abe 910f 34bb 47bc d63d 6527 79bd
00000120: 5d39 c93e 4698 693e a0a9 9a3e 13b9 153e
00000130: eec0 003e cf38 653e d442 a83e 1e70 533e
00000140: 7118 923e 5e87 7a3e 0370 c4be 6ce9 ff3d
00000150: 047a 2c3d c541 8abe 7512 92bd a192 653d
00000160: b8f6 043d cf68 173e 61ef 46be 02bf f83d
00000170: e5e0 8d3e 6f5a a43d 89e1 ce3d 8d8b 823e
00000180: e61f 3b3e 5c49 803e e73d 11bd 998e d3be
00000190: 211e 563e c0c9 98bd a039 9abe c0fa 213d
000001a0: a06e 28be 6248 7cbe 2e9d b03d 8e4f 3dbe

conv3d.0.bias f4 [4]
-0.011909123 0.014984032 0.011254007 -0.0047863484
00000000: 7b1e 43bc 967f 753c ba62 383c cdd6 9cbb

gru.weight_ih_l0 f4 [300, 100]
-0.24365726 -0.07231429 -0.008064572 0.09503493 0.07262503 -0.23607913 -0.4465565 -0.0756385
-0.17869967 -0.17978695 -0.18349706 -0.27053505 0.12988818 0.027530195 -0.07265499 -0.15889776
-0.12213339 0.2990603 0.10342932 -0.09181843 -0.13608104 -0.104124114 0.14690956 0.17282175
-0.0058151037 -0.124029346 0.3496481 0.21657847 -0.101310864 0.1562004 -0.13351943 0.3318921
0.10161149 0.042264227 0.12530561 -0.33151776 0.17353298 -0.031012116 -0.044204183 0.073540084
-0.33251134 0.19364363 0.00788641 -0.035512473 0.033304237 -0.09859078 0.09032286 0.020486979
-0.037428167 0.06236858 -0.14371102 -0.2691013 -0.095211655 0.029543584 -0.06765847 -0.05875356
-0.13590914 -0.090829544 0.09863699 0.0069775525 0.010729286 -0.011052018 -0.025069986 0.09018712
0.16825035 0.09336225 -0.05273148 0.08527684 0.28109917 0.2800641 0.012506391 0.08200248
0.14583063 0.2411353 0.22049841 -0.51342916 -0.3930826 -0.09638505 -0.321925 0.08735368
-0.5167492 -0.22929129 0.07818749 -0.16286176 0.09439727 -0.4441933 -0.16852254 0.15291204
0.02960499 0.08241766 -0.44833696 -0.067269616 0.28856364 0.10917163 0.12609857 -0.30801687
-0.16471408 0.19999969 0.045044675 0.23810287 -0.07981785 -0.1358711 0.047091104 -0.104560204
-0.2154547 -0.26733476 -0.076805614 -0.08194874 -0.19625941 -0.31041425 -0.082110085 -0.07381529
-0.1490323 -0.038908113 -0.19969639 -0.0706507 -0.13400266 -0.16091058 -0.15881787 -0.26512134
-0.14470355 -0.03920683 -0.17830403 -0.18984808 -0.31868052 -0.348806 -0.10932983 -0.12683608
-0.35168806 -0.0793184 -0.2749565 -0.12855749 -0.19064973 -0.3733308 -0.18168168 -0.16640042
-0.0020920613 -0.15686251 -0.19670047 -0.16242328 -0.3511085 -0.02093133 -0.11070228 -0.042583957
0.018909745 -0.43124 -0.119727634 -0.25689563 -0.23427415 -0.083916724 -0.18130553 -0.023822043
0.14999683 0.105275445 -0.13397476 -0.056684665 0.04992377 0.08878715 -0.006770678 -0.13988397
-0.012121048 0.037632044 0.115906015 -0.021479199 -0.07010795 -0.14026186 -0.018204125 0.0851896
0.005813242 -0.15915053 -0.0943635 0.044050645 0.01730847 0.025116432 -0.18632305 -0.2750021
-0.19478512 -0.016278803 -0.27241334 -0.16385444 -0.31281292 -0.029754475 -0.11673223 -0.13403083
-0.30132952 -0.15410131 0.012888534 0.035950344 -0.09449404 -0.28084606 -0.024107821 0.066760115
0.09593673 -0.114357896 -0.2724772 -0.1196816 0.091760814 0.02982808 -0.13562202 -0.03361235
-0.09777028 -0.2302235 -0.206518 -0.2284232 -0.26836824 -0.2630334 -0.29450288 -0.33582187
-0.19028689 -0.3375619 -0.121906765 -0.054349054 -0.120341964 -0.08601009 -0.1031191 0.17603502
0.1610711 0.10440665 0.063287675 0.1458069 0.27331272 0.17459252 0.05575547 -0.02470173
0.24841896 0.13951842 0.0757086 -0.1447475 -0.1641678 -0.40052065 0.09106724 -0.04672684
-0.07079736 -0.1559073 -0.34623536 0.13051565 -0.06425315 0.008224999 -0.0983325 -0.31000456
-0.05569366 -0.08394207 -0.05619308 0.06862254 -0.12490365 0.10965451 0.049100287 0.1821559
0.12135917 -0.16345239 -0.14255467 -0.09723256 -0.18663388 -0.04150978 -0.15936221 -0.05498855
00000000: 4a81 79be 8419 94bd 4421 04bc aca1 c23d
00000010: 6fbc 943d babe 71be 0ea3 e4be 5ce8 9abd
00000020: 0cfd 36be 121a 38be a7e6 3bbe 9283 8abe
00000030: 6801 053e 0187 e13c 24cc 94bd 18b6 22be
00000040: 1221 fabd 6f1e 993e c0d2 d33d 4d0b bcbd
00000050: d458 0bbe 063f d5bd 766f 163e 2ff8 303e
00000060: a08c bebb 1903 febd 1305 b33e bfc6 5d3e
00000070: 127c cfbd fff2 1f3e 51b9 08be c3ed a93e
00000080: af19 d03d 411d 2d3d 1d50 003e b2bc a9be
00000090: a1b2 313e 1f0d febc 720f 35bd 2f9c 963d
000000a0: ed3e aabe 844a 463e 0036 013c 8775 11bd
000000b0: 066a 083d f6e9 c9bd 31fb b83d 4fd4 a73c
000000c0: 474e 19bd 3276 7f3d fb28 13be a5c7 89be
000000d0: 54fe c2bd 6305 f23c 8690 8abd 93a7 70bd
000000e0: c42b 0bbe d704 babd 3102 ca3d f4a3 e43b
000000f0: e3c9 2f3c 8613 35bc 925f cdbc 06b4 b83d
00000100: d249 2c3e b534 bf3d f7fc 57bd a0a5 ae3d
00000110: 3bec 8f3e 9064 8f3e 9be7 4c3c ebf0 a73d
00000120: a054 153e 2cec 763e 56ca 613e 1870 03bf
00000130: 1f42 c9be 8665 c5bd 5bd3 a4be 7ce6 b23d
00000140: ad49 04bf 56cb 6abe c320 a03d 3cc5 26be
00000150: 5b53 c13d 4e6d e3be 2c91 2cbe f994 1c3e
00000160: 2a86 f23c 97ca a83d 6c8c e5be a7c4 89bd
00000170: 9dbe 933e 6095 df3d fc1f 013e 63b4 9dbe
00000180: cfaa 28be b8cc 4c3e c480 383d 3dd1 733e
00000190: 8a77 a3bd cb21 0bbe 9ae2 403d a923 d6bd
000001a0: 28a0 5cbe 1ae0 88be 434c 9dbd bed4 a7bd
000001b0: 3af8 48be 9eee 9ebe 5529 a8bd 792c 97bd
000001c0: ec9b 18be 1d5e 1fbd 367d 4cbe 50b1 90bd
000001d0: fe37 09be bec5 24be 27a1 22be fcbd 87be
000001e0: 2b2d 14be 5797 20bd 5595 36be 8967 42be
000001f0: 182a a3be b396 b2be 51e8 dfbd 51e1 01be
00000200: 7510 b4be af71 a2bd 19c7 8cbe 93a4 03be
00000210: af39 43be 3725 bfbe c30a 3abe df64 2abe
00000220: f71a 09bb 91a0 20be d96b 49be 4a52 26be
00000230: 7ec4 b3be 2e78 abbc e1b7 e2bd 846c 2ebd
00000240: 9ce8 9a3c 7dcb dcbe c333 f5bd d387 83be
00000250: 90e5 6fbe 88dc abbd 28a8 39be 7226 c3bc
00000260: c598 193e a79a d73d ae30 09be 2e2e 68bd
00000270: de7c 4c3d 0ad6 b53d 90dc ddbb be3d 0fbe
00000280: 5c97 46bc 0f24 1a3d 2260 ed3d 25f5 afbc
00000290: c294 8fbd cea0 0fbe d120 95bc e377 ae3d
000002a0: 027d be3b 5bf8 22be a741 c1bd 736e 343d
000002b0: 7eca 8d3c fac0 cd3c 78cb 3ebe 13cd 8cbe
000002c0: c075 47be 205b 85bc c379 8bbe 75c9 27be
000002d0: 0429 a0be a8bf f3bc 4f11 efbd 613f 09be
000002e0: dd47 9abe bccc 1dbe 6e2a 533c ab40 133d
000002f0: 1786 c1bd 0ecb 8fbe c47d c5bc 87b9 883d
00000300: 7a7a c43d 7934 eabd 2282 8bbe a01b f5bd
00000310: 18ed bb3d 055a f43c 80e0 0abe 1aad 09bd
00000320: c93b c8bd b6bf 6bbe 7479 53be c5e7 69be
00000330: 9067 89be 50ac 86be 15c9 96be d8f0 abbe
00000340: 91da 42be ead4 acbe 41aa f9bd 1d9d 5ebd
00000350: d975 f6bd 0f26 b0bd 1b30 d3bd 8642 343e
00000360: d3ef 243e 27d3 d53d f89c 813d 674e 153e
00000370: a5ef 8b3e 62c8 323e d95f 643d 485b cabc
00000380: 8a61 7e3e ebdd 0e3e 1c0d 9b3d b038 14be
00000390: 9b1b 28be 0b11 cdbe 7681 ba3d a564 3fbd
000003a0: 35fe 90bd 2aa6 1fbe c345 b1be e5a5 053e
000003b0: 2897 83bd 25c2 063c 8d62 c9bd ebb8 9ebe
000003c0: 091f 64bd d2e9 abbd b72a 66bd f989 8c3d
000003d0: 7ccd ffbd 8b92 e03d 621d 493d 1487 3a3e
000003e0: 288b f83d 1060 27be daf9 11be dd21 c7bd
000003f0: f41c 3fbe 2906 2abd d92f 23be ac3b 61bd

gru.weight_hh_l0 f4 [300, 100]
0.20805183 0.10812823 0.11626701 -0.18475401 -0.051519137 -0.032510336 -0.2822321 -0.2864084
-0.09804505 -0.04851208 0.005457605 0.26981696 -0.0019384347 0.030187927 -0.65977323 0.04458707
0.11739438 -0.50455195 -0.13570033 -0.39715153 0.29229546 0.09703943 -0.085278064 -0.34695822
-0.11395509 0.0065864846 0.34174243 0.057287417 0.015189816 -0.22337474 -0.17129834 -0.14342822
0.14220916 -0.23046984 0.024836034 0.21429382 -0.069365785 -0.19378565 0.13275118 -0.3013187
0.015063475 -0.20410079 0.04155912 -0.12002475 0.10383621 -0.19171487 0.18095171 -0.069131956
0.022828568 0.12921382 0.13286951 -0.23851481 -0.027493363 -0.024148542 -0.027642172 0.013101504
-0.05844518 0.17923492 -0.24266303 -0.13294904 0.08863934 0.060490437 0.22464809 0.07848101
0.26392737 0.14657894 0.00940552 -0.109026045 0.106769085 0.08196171 -0.3482665 0.100137144
0.25269797 0.21952307 -0.008229765 0.18688594 -0.04079467 -0.18067755 -0.11342559 -0.09500554
0.05872648 -0.06729172 0.022325728 0.025616575 0.17530411 0.09611537 -0.06620423 0.11489778
0.10427038 -0.0375755 -0.07851141 -0.025467956 0.16927725 0.07770859 0.18911177 0.16785045
0.13036507 0.20353824 0.09295204 -0.051953357 -0.100593105 -0.46824378 -0.19586271 -0.016858624
0.1722617 0.0076998738 -0.17201105 -0.039377242 -0.14064713 0.40450808 0.017002951 0.03021526
0.03223076 0.14700952 -0.049900763 0.03897677 -0.21501248 -0.1522701 0.24380149 0.24210416
0.16604587 -0.0059449393 -0.061097566 0.037377488 0.06580195 -0.27960426 0.11184893 0.09417704
0.1692047 0.01650709 0.14940748 0.039856903 0.0370947 -0.0008175451 0.05344362 0.028292716
-0.10159728 0.28064066 -0.030075593 -0.2950204 0.07436806 0.22719997 -0.17641741 -0.11850448
-0.023532996 0.13636482 0.11610723 0.12919836 0.051154405 0.13502634 -0.16706806 -0.22366992
-0.095742054 0.18254256 -0.046524946 0.005616272 -0.21318476 -0.2813142 -0.07393788 0.07974955
0.27481627 0.104556896 0.11598584 0.098955356 -0.17117406 0.1701958 -0.20623213 0.2211822
-0.031434294 0.13993298 0.036357027 0.13302107 0.04627281 0.06874845 -0.13557255 0.08045188
0.048108466 0.19977304 -0.16577962 -0.10233009 -0.033852246 -0.15765563 -0.043906376 -0.06468546
0.40710148 0.05926 0.14439923 -0.28795382 -0.05134009 0.046457063 0.1544724 0.20565227
0.040822256 0.0010722803 0.012838464 0.2318289 0.10691923 -0.098007225 -0.2559378 -0.13582562
-0.009165805 0.090377375 0.4677743 0.21973662 0.11460064 0.2491287 -0.15203938 -0.24055918
0.12347756 -0.10191285 -0.061287656 0.34751686 0.047343418 0.009132415 -0.055577677 -0.09197618
-0.24002832 0.32723504 0.03598084 -0.022776794 -0.10710029 -0.11130014 0.047761813 0.038861584
0.30940714 0.30661348 -0.19914262 0.34106153 0.10509266 -0.038682133 -0.046568338 0.050480563
0.12611164 -0.11361404 -0.14707308 0.4190245 0.016110493 -0.006712028 0.12212012 0.10299292
0.17967963 -0.09661464 0.15115912 0.2741518 0.11875378 -0.34013936 0.095913425 0.017779348
0.10742862 0.051990606 -0.11757158 0.3137624 0.13702826 0.120162584 0.08080035 -0.07981353
00000000: 8a0b 553e 5572 dd3d 661d ee3d 2830 3dbe
00000010: bb05 53bd 8f29 05bd ba80 90be 1fa4 92be
00000020: d8cb c8bd 9ab4 46bd b5d5 b23b 7325 8a3e
00000030: 1313 feba ac4c f73c e6e6 28bf eea0 363d
00000040: 776c f03d 512a 01bf 07f5 0abe 7257 cbbe
00000050: c0a7 953e 9cbc c63d 44a6 aebd 82a4 b1be
00000060: 4961 e9bd 70d3 d73b ddf8 ae3e 36a6 6a3d
00000070: b5de 783c 59bc 64be d568 2fbe d9de 12be
00000080: 479f 113e 4900 6cbe f074 cb3c d76f 5b3e
00000090: a60f 8ebd bf6f 46be edef 073e 7246 9abe
000000a0: cbcc 763c ccff 50be e539 2a3d 89cf f5bd
000000b0: 14a8 d43d e750 44be 684b 393e 0e95 8dbd
000000c0: fa02 bb3c a150 043e f20e 083e 3a3d 74be
000000d0: c339 e1bc 2ad3 c5bc d671 e2bc b1a7 563c
000000e0: 3764 6fbd 5c89 373e a87c 78be cb23 08be
000000f0: 8b88 b53d d2c4 773d 260a 663e a7ba a03d
00000100: 7d21 873e ca18 163e 9c19 1a3c 0c49 dfbd
00000110: c0a9 da3d 8adb a73d fd4f b2be b414 cd3d
00000120: a161 813e a8ca 603e 23d6 06bc 075f 3f3e
00000130: 5018 27bd 8903 39be ad4b e8bd 4492 c2bd
00000140: 2d8b 703d 3ed0 89bd 72e4 b63c dad9 d13c
00000150: ec82 333e 23d8 c43d 1596 87bd 874f eb3d
00000160: b68b d53d c4e8 19bd 97ca a0bd 2da2 d0bc
00000170: 0457 2d3e ae25 9f3d 84a6 413e fde0 2b3e
00000180: 6c7e 053e 546c 503e a45d be3d 0bcd 54bd
00000190: c203 cebd a6bd efbe 3c90 48be 191b 8abc
000001a0: 5f65 303e 394f fc3b aa23 30be 084a 21bd
000001b0: cd05 10be af1b cf3e c649 8b3c fe85 f73c
000001c0: 6704 043d aa89 163e be64 4cbd 1ba6 1f3d
000001d0: 3b2c 5cbe b1ec 1bbe 19a7 793e 27ea 773e
000001e0: ee07 2a3e c4cd c2bb 7141 7abd 2319 193d
000001f0: 2cc3 863d 4a28 8fbe 0d11 e53d e4df c03d
00000200: ff43 2d3e e039 873c 46fe 183e fe40 233d
00000210: 9df0 173d 8650 56ba b3e7 5a3d 20c6 e73c
00000220: 3c12 d0bd 22b0 8f3e 1761 f6bc ea0c 97be
00000230: 484e 983d 1ca7 683e c4a6 34be 7ab2 f2bd
00000240: 45c8 c0bc 38a3 0b3e a1c9 ed3d 934c 043e
00000250: 4887 513d 5844 0a3e e413 2bbe ba09 65be
00000260: 6914 c4bd 70ec 3a3e f190 3ebd b408 b83b
00000270: 1b4d 5abe 6a08 90be be6c 97bd bb53 a33d
00000280: b8b4 8c3e ed21 d63d fc89 ed3d 1ba9 ca3d
00000290: 4148 2fbe cf47 2e3e 842e 53be 967d 623e
000002a0: 3fc1 00bd 974a 0f3e 1beb 143d ad36 083e
000002b0: 8f88 3d3d fdcb 8c3d 88d3 0abe f5c3 a43d
000002c0: 620d 453d 4e91 4c3e 22c2 29be 7092 d1bd
000002d0: a7a8 0abd 7a70 21be 2cd7 33bd cf79 84bd
000002e0: 9b6f d03e 9dba 723d 64dd 133e af6e 93be
000002f0: fc49 52bd c349 3e3d 032e 1e3e 8296 523e
00000300: 3d35 273d c28b 8c3a 6c58 523c 8e64 6d3e
00000310: 78f8 da3d 03b8 c8bd 480a 83be df15 0bbe
00000320: 2c2c 16bc c617 b93d 1d80 ef3e a302 613e
00000330: beb3 ea3d 981b 7f3e 36b0 1bbe 2555 76be
00000340: cee1 fc3d afb7 d0bd c408 7bbd bbed b13e
00000350: 2ceb 413d 20a0 153c 6ba5 63bd 025e bcbd
00000360: fcc9 75be 5a8b a73e a560 133d 6696 babc
00000370: 6657 dbbd 54f1 e3bd e4a1 433d 532d 1f3d
00000380: 9d6a 9e3e 71fc 9c3e 0bec 4bbe 9e9f ae3e
00000390: d23a d73d 2871 1ebd 71be 3ebd b5c4 4e3d
000003a0: 6923 013e 7aae e8bd 539a 16be 618a d63e
000003b0: 27fa 833c 92f0 dbbb 1d1a fa3d f4ed d23d
000003c0: f0fd 373e e5dd c5bd 75c9 1a3e a05d 8c3e
000003d0: 2f35 f33d bf26 aebe 426e c43d ffa5 913c
000003e0: 8903 dc3d 1af4 543d 5ec9 f0bd 77a5 a03e
000003f0: 2351 0c3e cd17 f63d a77a a53d 4775 a3bd

gru.bias_ih_l0 f4 [300]
-0.019909875 -0.10552916 -0.08439589 -0.12688293 -0.10253973 -0.061391078 -0.024703158 -0.042705745
0.08210191 -0.12646028 0.005969331 -0.18143348 -0.07490286 -0.18257584 -0.28505418 -0.09751166
0.0007313661 -0.054044887 0.1551921 -0.024880733 -0.026017254 -0.019341365 -0.056045737 -0.053040836
-0.08878669 0.030860975 -0.02877219 -0.011281543 -0.15424186 0.0074601574 0.065235645 -0.14023969
-0.12387938 -0.14051718 -0.105890125 -0.0024590835 -0.1777219 -0.09861806 -0.16468361 -0.06198942
0.022330869 -0.18337037 -0.07474214 0.2438338 -0.23603922 -0.044026732 -0.22608547 -0.13636068
0.07360154 0.043319296 0.13298205 -0.26392183 0.071022965 -0.07453822 -0.090934984 -0.02341893
0.14783077 -0.2123577 0.007774169 0.06963348 -0.038998727 -0.09822621 -0.06796135 0.09397956
-0.092085116 -0.2342651 0.06780387 -0.03711363 0.063016064 0.038421005 -0.02958863 -0.15690516
0.023974996 -0.16059473 -0.08179716 -0.105378225 -0.20568386 -0.15453734 -0.07950933 -0.28592753
0.051183924 -0.14671889 -0.002062196 -0.09856105 0.015850196 -0.18707825 -0.1270564 -0.06273997
0.07573286 -0.09601745 -0.18208486 -0.13769403 -0.058878977 -0.07890842 -0.23626135 -0.11377228
-0.07489345 -0.18993372 -0.0080905035 -0.11166496 0.28102955 -0.022809597 0.024028031 0.2362791
0.22384842 0.26466537 0.11219534 -0.02217554 -0.06796114 -0.12903437 -0.063509755 0.11120809
0.099746235 0.16908345 0.22195192 0.13285689 0.14558683 0.33064422 -0.16257013 0.16504751
0.33944845 -0.1032423 -0.045731872 0.38815793 0.1002612 -0.04268701 -0.09651863 0.17053461
-0.07352554 -0.1914343 -0.057229962 0.31180885 -0.07779819 0.013512648 0.274093 0.19659787
0.22847085 0.19376789 -0.035950266 -0.052742206 -0.0223681 -0.057781532 0.22782964 0.21280177
0.22011003 -0.011203434 0.06624192 0.23846884 -0.0439124 0.37267932 0.24007966 0.029010983
0.105419084 -0.006964834 0.1308609 0.0324799 -0.42272478 0.03847825 -0.25650954 0.51939845
0.004464094 0.10280035 -0.051006615 -0.084333226 -0.24923205 -0.075390965 -0.44994658 0.1583945
-0.0015787379 -0.07107204 -0.053608492 0.102864265 -0.034093503 0.07866192 -0.19910906 -0.030617679
0.09595125 0.39141482 0.06518995 0.03938539 -0.07687241 -0.041401934 -0.36494762 0.10931121
-0.10008531 0.25911167 -0.0709008 0.14123169 0.039506067 -0.052564055 0.09744509 -0.22523168
-0.039411273 0.24100211 0.2281188 0.15094434 0.2601503 0.118636094 0.2696253 0.015262708
-0.036648486 0.087692685 -0.075285956 -0.15499842 -0.14700803 -0.10261589 -0.17539078 -0.02274431
-0.14125043 -0.1234749 -0.10838977 0.07012543 0.09595943 -0.061042313 -0.09576338 0.10639349
-0.07044309 0.042051066 -0.016266052 0.115982786 0.07121131 -0.051061034 -0.1648629 -0.13498382
0.267858 0.08328473 0.22485676 0.061740458 -0.02616669 -0.13928495 -0.21226116 -0.12715867
0.08799758 0.10593659 -0.052013375 -0.12090175 -0.09792612 -0.17483094 -0.053580545 0.13658258
-0.14710362 -0.096631974 0.00021225226 -0.033980403 -0.10112041 -0.080117665 0.12611902 -0.17805433
-0.07210357 -0.11157234 -0.09361307 0.077728726 0.16357484 -0.017761346 -0.036137532 0.040405303
00000000: 091a a3bc ac1f d8bd c1d7 acbd 99ed 01be
00000010: 5a00 d2bd 3675 7bbd 475e cabc 38ec 2ebd
00000020: 0c25 a83d ce7e 01be 619a c33b b3c9 39be
00000030: ac66 99bd 29f5 3abe 9ff2 91be 31b4 c7bd
00000040: 26b9 3f3a 2c5e 5dbd aeea 1e3e aed2 cbbc
00000050: 2322 d5bc c871 9ebc 3790 65bd 5941 59bd
00000060: ccd5 b5bd 28d0 fc3c a8b3 ebbc 39d6 38bc
00000070: 94f1 1dbe 5674 f43b 449a 853d fe9a 0fbe
00000080: 79b4 fdbd bce3 0fbe ecdc d8bd 9328 21bb
00000090: bbfc 35be 44f8 c9bd d2a2 28be 9ee8 7dbd
000000a0: 3aef b63c 71c5 3bbe 6812 99bd 91af 793e
000000b0: 44b4 71be 6055 34bd f382 67be 22a2 0bbe
000000c0: 67bc 963d 936f 313d 722c 083e c320 87be
000000d0: 7d74 913d 7fa7 98bd 1f3c babd 0ed9 bfbc
000000e0: f360 173e 4c74 59be 75be fe3b ff9b 8e3d
000000f0: 21bd 1fbd d32a c9bd 522f 8bbd 5b78 c03d
00000100: 1f97 bcbd 31e3 6fbe c1dc 8a3d 7604 18bd
00000110: 910e 813d 585f 1d3d db63 f2bc bfab 20be
00000120: 3667 c43c f272 24be 4585 a7bd 8ad0 d7bd
00000130: ca9e 52be 093f 1ebe cad5 a2bd 1865 92be
00000140: 3ca6 513d 7a3d 16be e825 07bb 60da c9bd
00000150: 45d8 813c 7191 3fbe 131b 02be d07d 80bd
00000160: d419 9b3d cca4 c4bd 7474 3abe aaff 0cbe
00000170: 152b 71bd bd9a a1bd 7fee 71be 7101 e9bd
00000180: bd61 99bd fc7d 42be 088e 04bc 99b0 e4bd
00000190: 1be3 8f3e 31db babc 6fd6 c43c 26f3 713e
000001a0: 8538 653e 3882 873e acc6 e53d 7aa9 b5bc
000001b0: 362f 8bbd 9621 04be 6711 82bd 11c1 e33d
000001c0: c147 cc3d 3624 2d3e 5d47 633e a30b 083e
000001d0: b714 153e 334a a93e c978 26be 3702 293e
000001e0: 30cc ad3e b370 d3bd 5851 3bbd a3bc c63e
000001f0: be55 cd3d 93d8 2ebd 8fab c5bd a0a0 2e3e
00000200: 8f94 96bd 5a07 44be f769 6abd 69a5 9f3e
00000210: a854 9fbd 2764 5d3c eb55 8c3e f450 493e
00000220: 43f4 693e 176b 463e 9640 13bd 3608 58bd
00000230: 4e3d b7bc 54ac 6cbd 2c4c 693e b5e8 593e
00000240: 8664 613e 9c8e 37bc d8a9 873d 2d31 743e
00000250: 7ddd 33bd d3cf be3e 71d7 753e 71a8 ed3c
00000260: f6e5 d73d 4339 e4bb 6600 063e a509 053d
00000270: 626f d8be 5f9b 1d3d 3855 83be 4cf7 043f
00000280: 8947 923b fd88 d23d 50ec 50bd e6b6 acbd
00000290: b036 7fbe 9466 9abd 665f e6be 2b32 223e
000002a0: a7ed ceba 388e 91bd 9494 5bbd 80aa d23d
000002b0: a1a5 0bbd 8019 a13d 3fe3 4bbe edd1 fabc
000002c0: 1782 c43d 8667 c83e 4f82 853d 9352 213d
000002d0: 486f 9dbd 1395 29bd 6ada babe 8ede df3d
000002e0: 87f9 ccbd 49aa 843e 7034 91bd 0a9f 103e
000002f0: 1dd1 213d 684d 57bd 4b91 c73d 22a3 66be
00000300: b76d 21bd 42c9 763e fa97 693e 2791 1a3e
00000310: 6c32 853e 7bf7 f23d 540c 8a3e 7010 7a3c
00000320: b91c 16bd 3998 b33d 862f 9abd e8b7 1ebe
00000330: 4689 16be 4828 d2bd a499 33be 4652 babc
00000340: f4a3 10be 69e0 fcbd 75fb ddbd ec9d 8f3d
00000350: 6186 c43d 8107 7abd 971f c4bd d5e4 d93d
00000360: 7744 90bd bd3d 2c3d 6240 85bc 6288 ed3d
00000370: 3cd7 913d 6025 51bd d2d1 28be 3339 0abe
00000380: af24 893e 2f91 aa3d da40 663e 90e3 7c3d
00000390: 875b d6bc b7a0 0ebe fd5a 59be e235 02be
000003a0: 1338 b43d 48f5 d83d fa0b 55bd 569b f7bd
000003b0: 7d8d c8bd e206 33be 4677 5bbd 4edc 0b3e
000003c0: 55a2 16be fce6 c5bd 0890 5e39 092f 0bbd
000003d0: 3818 cfbd bb14 a4bd 5825 013e e053 36be
000003e0: 09ab 93bd 0a80 e4bd 36b8 bfbd 3d30 9f3d
000003f0: 2a80 273e 3e80 91bc f304 14bd 0880 253d

gru.bias_hh_l0 f4 [300]
0.117211975 -0.03629909 -0.16462521 -0.1398765 -0.07745001 -0.18995363 -0.043108627 0.008803384
0.05521755 -0.04524595 -0.024748052 -0.10412251 0.07661651 -0.16525559 -0.21430895 -0.16133043
0.033453543 -0.0104132285 0.13868248 -0.081037454 -0.042763453 -0.1311945 0.050933428 -0.036785517
-0.016805043 0.010855115 -0.04134434 -0.1336237 -0.07589025 0.03040759 -0.022379927 -0.049834244
-0.106492855 -0.11795541 -0.11157849 -0.15170135 -0.092825174 -0.18990025 -0.08776991 0.058873635
0.0062311185 -0.20996922 -0.06750585 0.21686329 -0.12144732 -0.096356206 -0.14084367 -0.0674831
0.044219352 0.08379173 0.08302069 -0.33804658 0.10377954 -0.023187375 -0.06702743 -0.13947344
0.15469635 -0.1328723 0.119521685 -0.019372236 -0.04841811 -0.09102322 -0.12312299 0.05557703
-0.15620029 -0.20753403 -0.067918636 0.00059744186 -0.036391035 0.094012655 -0.020961417 -0.13401164
0.011738943 -0.12890176 -0.13337702 -0.18615626 -0.12616345 -0.013584908 -0.12307335 -0.2698535
-0.038087863 -0.021494491 -0.03605466 -0.1526578 0.021426342 -0.070441976 -0.24703568 -0.18437248
0.024140043 -0.10885974 -0.23628017 -0.23705986 0.03271921 -0.08352019 -0.31870222 -0.1793008
-0.070800655 -0.29773957 -0.09105374 -0.17563345 0.3677472 0.07270594 0.101462625 0.27334532
0.24593867 0.260134 0.03036744 -0.052424315 -0.12571661 -0.024148472 -0.004573132 0.054842107
0.18120697 0.1428473 0.300234 0.2429645 0.2526204 0.3022075 -0.23556961 0.052172724
0.35007533 -0.16268483 -0.09232393 0.30396733 -0.023917228 -0.02716934 -0.06743508 0.19342484
-0.062489253 -0.2170832 -0.17063001 0.24232213 -0.029020883 -0.03365831 0.22019334 0.17348042
0.19693941 0.19103576 -0.07601248 -0.05656367 0.08119376 -0.016497226 0.21890166 0.2379843
0.19847728 -0.059459455 0.030632922 0.15477218 -0.0037342394 0.211524 0.32758805 0.07157565
0.07594036 -0.017662534 0.17604081 0.013071819 -0.4044397 0.02809961 -0.27887002 0.39437824
-0.0173699 0.16253266 -0.026437802 -0.06354109 -0.24669364 -0.09204237 -0.4638867 0.1539119
-0.007341373 -0.07765938 -0.023727337 0.07857708 0.072665416 0.13458925 -0.2483651 0.0015606603
0.14038026 0.33811182 -0.0037534784 0.057965763 -0.0728422 -0.12095028 -0.33470714 0.25203416
-0.07087154 0.19159539 0.025061829 0.123682834 -0.0033385027 0.0501691 0.06258268 -0.122130804
-0.005983506 0.251149 0.2347767 0.07804922 0.27556705 0.1277145 0.26231632 -0.00036551326
0.045911282 0.022496052 -0.007169352 -0.12700085 -0.109604806 -0.09355084 -0.048593003 0.113265365
-0.021561477 -0.19898748 -0.096164614 0.05725675 0.0077352235 -0.111158125 -0.120965645 0.05419098
0.030604208 -0.080447495 0.0045741578 -0.07270916 -0.06236197 -0.07565187 0.014475574 -0.09752833
0.19524452 0.15217657 0.035424247 0.013319881 -0.010348487 0.00401918 -0.28565672 -0.059811417
0.13684164 0.14175247 -0.060606338 -0.08571719 -0.08837468 -0.15716352 -0.07351462 0.21470797
-0.13920455 -0.07651289 -0.07183685 0.038299464 -0.056923658 -0.12742135 0.0015183694 -0.1028855
-0.052144025 -0.0640964 0.051418193 -0.073196895 0.16023447 -0.034500573 -0.038088743 0.011626305
00000000: d50c f03d 5bae 14bd 8393 28be c93b 0fbe
00000010: 1c9e 9ebd 3483 42be ac92 30bd 123c 103c
00000020: cc2b 623d d153 39bd 6dbc cabc 2f3e d5bd
00000030: 1ee9 9c3d c338 29be ce73 5bbe ce33 25be
00000040: 9506 093d 3f9c 2abc c802 0e3e f7f6 a5bd
00000050: bb28 2fbd da57 06be 929f 503d 69ac 16bd
00000060: bbaa 89bc a7d9 313c af58 29bd a7d4 08be
00000070: 596c 9bbd 5719 f93c 1c56 b7bc fe1e 4cbd
00000080: ed18 dabd 9b92 f1bd 4383 e4bd 9957 1bbe
00000090: 201b bebd 3675 42be b6c0 b3bd 7b25 713d
000000a0: 692e cc3b 2c02 57be 8240 8abd 6911 5e3e
000000b0: 5fb9 f8bd 6756 c5bd 5339 10be 9434 8abd
000000c0: 5a1f 353d 009b ab3d c006 aa3d 7114 adbe
000000d0: 5e8a d43d 73f3 bdbc ad45 89bd 20d2 0ebe
000000e0: b868 1e3e ad0f 08be c9c7 f43d 86b2 9ebc
000000f0: 1152 46bd 626a babd e827 fcbd bda4 633d
00000100: f8f2 1fbe cd83 54be ed18 8bbd a59d 1c3a
00000110: c40e 15bd b589 c03d 47b7 abbc 593a 09be
00000120: b254 403c d3fe 03be fc93 08be bf9f 3ebe
00000130: fe30 01be 3c93 5ebc e10d fcbd 3d2a 8abe
00000140: 0502 1cbd 3715 b0bc 0dae 13bd 5452 1cbe
00000150: 4c86 af3c e243 90bd ecf6 7cbe 24cc 3cbe
00000160: 57c1 c53c dbf1 debd 6ef3 71be d2bf 72be
00000170: 9404 063d a20c abbd f02c a3be a19a 37be
00000180: efff 90bd 5271 98be 627a babd 41d9 33be
00000190: 5c49 bc3e dae6 943d a3cb cf3d ebf3 8b3e
000001a0: 59d7 7b3e 4930 853e 23c5 f83c e1ba 56bd
000001b0: dbbb 00be 04d3 c5bc 36da 95bb 1ea2 603d
000001c0: 528e 393e 9046 123e 45b8 993e b0cb 783e
000001d0: 7657 813e f1ba 9a3e 2939 71be 11b3 553d
000001e0: 133d b33e da96 26be 5414 bdbd 9ba1 9b3e
000001f0: 10ee c3bc 3c92 debc 671b 8abd 2911 463e
00000200: bbf4 7fbd 0f4b 5ebe a2b9 2ebe 4b23 783e
00000210: 34bd edbc 4cdd 09bd 5d7a 613e daa4 313e
00000220: 7caa 493e e19e 433e 6eac 9bbd 4faf 67bd
00000230: ea48 a63d 3125 87bc c227 603e 28b2 733e
00000240: a13d 4b3e c28b 73bd e5f1 fa3c 997c 1e3e
00000250: 24ba 74bb bf99 583e 9fb9 a73e 4196 923d
00000260: 9f86 9b3d 05b1 90bc 0b44 343e 2f2b 563c
00000270: b812 cfbe 2731 e63c 0dc8 8ebe f2eb c93e
00000280: 524b 8ebc f66e 263e 1794 d8bc d521 82bd
00000290: 429d 7cbe b680 bcbd 8f82 edbe 159b 1d3e
000002a0: e68f f0bb e20b 9fbd d55f c2bc 05ed a03d
000002b0: 9bd1 943d c4d1 093e 6c53 7ebe 128f cc3a
000002c0: d8bf 0f3e fe1c ad3e ebfc 75bb 826d 6d3d
000002d0: 4b2e 95bd c8b4 f7bd bc5e abbe 9f0a 813e
000002e0: 1925 91bd 9531 443e 774e cd3c 6d4d fd3d
000002f0: c8ca 5abb 1d7e 4d3d 592b 803d b71f fabd
00000300: 4911 c4bb 9a96 803e 4e69 703e 45d8 9f3d
00000310: 2017 8d3e 97c7 023e 534e 863e 5ca2 bfb9
00000320: 780d 3c3d a449 b83c e2ec eabb 830c 02be
00000330: 7c78 e0bd 9597 bfbd 7509 47bd acf7 e73d
00000340: b2a1 b0bc 60c3 4bbe f4f1 c4bd 0e86 6a3d
00000350: c277 fd3b dfa6 e3bd d6bc f7bd 5cf7 5d3d
00000360: adb5 fa3c a8c1 a4bd d1e2 953b 8ae8 94bd
00000370: 446f 7fbd 5eef 9abd f52a 6d3c efbc c7bd
00000380: 2eee 473e 2dd4 1b3e 0419 113d a13b 5a3c
00000390: b38c 29bc 53b3 833b 9941 92be d1fc 74bd
000003a0: 3720 0c3e 8f27 113e 5a3e 78bd 7e8c afbd
000003b0: c9fd b4bd 79ef 20be d58e 96bd 68dc 5b3e
000003c0: a38b 0ebe cab2 9cbd 331f 93bd e6df 1c3d
000003d0: c828 69bd be7a 02be 0604 c73a a2b5 d2bd
000003e0: f994 55bd f944 83bd e29b 523d 41e8 95bd
000003f0: 8114 243e 7950 0dbd f102 1cbd 427c 3e3c

dense_output.0.weight f4 [100, 100]
-0.03968505 -0.029455539 0.043314874 0.04132193 -0.0035862692 -0.0019368881 -0.018152613 0.008975412
0.045683507 -0.0055865543 0.0051802746 0.093018904 0.10418537 -0.043513644 -0.0150065 0.14947689
0.005670936 -0.02087262 -0.014575728 -0.04063645 -0.075080276 0.01156327 0.006288093 0.007929391
-0.07781148 -0.08830745 -0.010784913 0.104389966 0.024502117 -0.007697695 0.06857782 -0.07807144
0.043042697 -2.161455e-05 0.044361647 0.028100735 -0.01548539 -0.046184387 0.039373517 -0.029271482
-0.083983526 -0.05658031 0.01228845 0.15744834 -0.054543227 -0.015468117 -0.006876246 -0.106433496
-0.057043556 -0.16757685 -0.0036929008 -0.014131742 -0.045629583 -0.012933286 -0.011699327 0.1219975
0.08518139 0.0041215387 0.051831085 -0.020017771 0.06208377 0.011801309 0.060064532 -0.03997781
-0.02936916 0.06860603 0.043780316 0.014791407 -0.046211854 0.055607807 0.10650003 -0.04942951
-0.06301779 0.019091766 0.06359481 0.02696827 0.04482064 -0.09175351 -0.018154358 0.023574004
-0.08840516 -0.07475582 -0.00906981 -0.060348015 -0.08412102 0.04173377 -0.019928252 -0.026141925
0.12249025 -0.08056317 -0.09314701 -0.002008192 0.032413233 0.0073765367 -0.065653116 0.035036337
-0.06612093 -0.035155367 0.0674733 0.008184954 -0.15057471 0.12095737 0.025167817 -0.07975114
-0.06552031 -0.10094261 -0.16204685 0.031344704 -0.22949782 0.050043214 0.004795503 -0.042723045
0.13654584 0.01785884 -0.11635633 0.013535136 0.12634909 -0.010161704 -0.0031097159 0.07041571
0.19687286 -0.033967983 -0.08885127 0.0091495495 0.03273038 0.07448845 0.100521035 -0.077841245
0.047460433 -0.0596252 -0.29287165 -0.0648733 0.087631404 -0.15251422 -0.11742316 -0.07308763
-0.074923 -0.18753852 -0.00011417167 -0.10212283 0.016339025 -0.04976416 -0.11396913 -0.3132956
0.106641136 -0.06809254 0.24970093 0.09579302 -0.13411821 0.077181205 -0.08619974 0.09669884
0.13844971 0.046533696 -0.04344049 0.013917013 0.02188361 0.047996484 -0.06264566 0.08308915
-0.19082122 0.22471303 0.05976975 -0.13120943 -0.08569986 0.12510738 -0.10299718 0.02183645
0.05912218 0.22634844 -0.031128133 -0.12472865 0.025564997 -0.041640084 0.0016140791 -0.24790642
-0.113102496 0.012067811 -0.033558276 -0.04895548 0.14479634 -0.11880692 -0.26621667 -0.008496528
0.05091706 -0.067634925 0.044625707 -0.101965114 -0.030113805 0.012917625 0.04074906 0.06466736
-0.03251369 -0.1088838 -0.033277143 0.08627732 0.0029344794 0.057658236 -0.1281556 0.06053763
0.056259174 -0.09339382 -0.004514865 -0.06962235 -0.010710359 -0.14013475 -0.16903415 -0.12063755
0.095333494 -0.046843287 -0.01650381 0.18104333 -0.07305487 0.03438924 -0.043770377 -0.03143344
-0.09321873 -0.06567571 0.13564877 -0.06967677 0.027013669 -0.041600928 0.023646442 -0.037939608
0.01898896 -0.10866328 -0.009002352 0.06225031 -0.007362175 0.010664812 -0.060833536 -0.09681596
0.0472314 -0.029695965 0.060694955 -0.08173033 0.08114068 -0.052464508 -0.05457544 -0.08276659
-0.022405578 -0.10907336 -0.08981701 0.1136406 0.054941915 -0.17866726 0.15987906 0.086895466
0.089789614 0.027661124 -0.010226178 -0.04391345 0.14561532 0.04605863 -0.08630707 0.0502356
00000000: ca8c 22bd be4c f1bc f06a 313d 2f41 293d
00000010: 9d07 6bbb 2edf fdba cab4 94bc 9b0d 133c
00000020: a11e 3b3d 6a0f b7bb 4bbf a93b b280 be3d
00000030: 245f d53d 5d3b 32bd d3dd 75bc 7810 193e
00000040: 42d3 b93b 0ffd aabc 09cf 6ebc 6872 26bd
00000050: b0c3 99bd df73 3d3c 590c ce3b 47ea 013c
00000060: a05b 9fbd 89da b4bd 34b3 30bc 68ca d53d
00000070: aab8 c83c f23c fcbb 8772 8c3d ebe3 9fbd
00000080: 8a4d 303d e550 b5b7 8fb4 353d 8333 e63c
00000090: 6fb6 7dbc d72b 3dbd 2046 213d bfca efbc
000000a0: 8eff abbd c1c0 67bd 7f55 493c 233a 213e
000000b0: b868 5fbd fc6d 7dbc 2252 e1bb cef9 d9bd
000000c0: 81a6 69bd 4499 2bbe 9804 72bb d288 67bc
000000d0: 16e6 3abd 22e6 53bc 89ae 3fbc d3d9 f93d
000000e0: 9573 ae3d f90d 873b d54c 543d 4ffc a3bc
000000f0: 8d4b 7e3d 475a 413c 3a06 763d c6bf 23bd
00000100: 9897 f0bc 5181 8c3d fd52 333d a857 723c
00000110: a448 3dbd 03c5 633d b01c da3d 9976 4abd
00000120: 790f 81bd 5666 9c3c ff3d 823d 90ec dc3c
00000130: d995 373d 44e9 bbbd 73b8 94bc 451e c13c
00000140: c40d b5bd 9419 99bd 8a99 14bc 7b2f 77bd
00000150: a447 acbd 08f1 2a3d 9340 a3bc 9727 d6bc
00000160: 2bdc fa3d 4efe a4bd dcc3 bebd df9b 03bb
00000170: bdc3 043d e0b6 f13b 2475 86bd 4382 0f3d
00000180: 696a 87bd 13ff 0fbd 712f 8a3d 2f1a 063c
00000190: 4230 1abe 7fb8 f73d bd2c ce3c 9154 a3bd
000001a0: 832f 86bd 00bb cebd 9cef 25be 4e63 003d
000001b0: 7a01 6bbe 1dfa 4c3d 9823 9d3b 5cfe 2ebd
000001c0: acd2 0b3e b44c 923c 3a4c eebd 7ac2 5d3c
000001d0: a861 013e 477d 26bc 60cc 4bbb 1d36 903d
000001e0: 0a99 493e 0322 0bbd a8f7 b5bd fee7 153c
000001f0: 4a10 063d 678d 983d f9dd cd3d 3b6b 9fbd
00000200: df65 423d 8e39 74bd 46f3 95be 4bdc 84bd
00000210: 1878 b33d b02c 1cbe 8e7b f0bd f8ae 95bd
00000220: 3b71 99bd 190a 40be 736f efb8 c625 d1bd
00000230: 6bd9 853c 81d5 4bbd a668 e9bd 4868 a0be
00000240: ab66 da3d 1a74 8bbd 9ab1 7f3e 222f c43d
00000250: 4956 09be 2e11 9e3d 7d89 b0bd 0b0a c63d
00000260: c3c5 0d3e 1e9a 3e3d a8ee 31bd 2f04 643c
00000270: 4245 b33c f697 443d 5e4c 80bd a52a aa3d
00000280: a366 43be 2c1b 663e 20d1 743d c45b 06be
00000290: 6883 afbd 261c 003e 2ff0 d2bd 5be2 b23c
000002a0: 192a 723d e3c7 673e 6d00 ffbc bc71 ffbd
000002b0: af6d d13c cb8e 2abd 828f d33a 2edb 7dbe
000002c0: 48a2 e7bd 11b8 453c 6774 09bd 8b85 48bd
000002d0: 7e45 143e 0b51 f3bd 8d4d 88be 0535 0bbc
000002e0: 688e 503d 2e84 8abd 72c9 363d 16d3 d0bd
000002f0: 3ab1 f6bc 72a4 533c 7de8 263d 5270 843d
00000300: 132d 05bd 78fe debd 9d4d 08bd 2ab2 b03d
00000310: 6550 403b 0b2b 6c3d 393b 03be 4ef6 773d
00000320: 0570 663d 4245 bfbd 6ff1 93bb 2a96 8ebd
00000330: 807a 2fbc 7c7f 0fbe 4a17 2dbe d210 f7bd
00000340: 353e c33d bfde 3fbd 0033 87bc 6c63 393e
00000350: cb9d 95bd bbdb 0c3d 9148 33bd 5ac0 00bd
00000360: 76e9 bebd fd80 86bd 83e7 0a3e b2b2 8ebd
00000370: c54b dd3c bc65 2abd 2fb6 c13c 9066 1bbd
00000380: bc8e 9b3c db8a debd 9a7e 13bc 2efa 7e3d
00000390: 663e f1bb 77bb 2e3c 962c 79bd 7247 c6bd
000003a0: b675 413d f444 f3bc 469b 783d 3b62 a7bd
000003b0: 162d a63d 06e5 56bd 7f8a 5fbd 8881 a9bd
000003c0: e78b b7bc db61 dfbd fbf1 b7bd 67bc e83d
000003d0: c60a 613d 8df4 36be 56b7 233e 40f6 b13d
000003e0: 9ee3 b73d 9599 e23c b38b 27bc 97de 33bd
000003f0: 2f1c 153e f9a7 3c3d c3c1 b0bd d8c3 4d3d

dense_output.0.bias f4 [100]
0.27033934 -0.054198023 0.08598975 -0.0899845 0.06883923 -0.15443866 -0.26297653 -0.19201188
0.23768678 -0.14914234 -0.112600125 -0.09402845 0.0040240325 -0.029148258 -0.073173374 0.028541552
-0.22282726 -0.10302905 -0.118794896 -0.14159484 0.00040629477 -0.1264959 -0.089405686 -0.29356298
-0.060050704 -0.06587449 -0.050785117 -0.02298881 -0.23100318 -0.13508844 0.2428231 -0.16972134
-0.082160935 -0.18993331 0.0142260725 0.13459878 -0.16100715 -0.12718794 -0.008374413 -0.1377173
0.14733519 0.07404175 0.13337685 0.13779943 0.091524005 -0.04090534 0.11388473 -0.08649964
-0.14772281 -0.26531392 -0.009182679 -0.23131986 -0.08826222 0.20224808 -0.14020793 0.038150948
0.06028708 -0.062324755 -0.05042092 0.12665959 -0.14263104 -0.07061124 0.069413215 0.06273685
0.07516727 0.061258346 -0.06985482 0.052734576 -0.09019686 0.13578334 -0.077745 -0.0005362417
0.11447217 -0.16772833 -0.23849703 0.015798846 -0.12719442 0.24726535 0.2493587 -0.15095805
-0.10655559 -0.12022054 -0.01601383 0.041236006 0.19961469 -0.07947541 0.0895063 -0.022453247
-0.04332843 -0.19507661 -0.12325227 -0.15562959 -0.01657727 0.19609317 -0.09386203 -0.15790649
0.06167287 0.04917975 -0.15525155 -0.09322336
00000000: eb69 8a3e bffe 5dbd 651b b03d cb49 b8bd
00000010: 95fb 8c3d 2b25 1ebe dca4 86be c39e 44be
00000020: 2a64 733e c5b8 18be e59a e6bd fd91 c0bd
00000030: 08dc 833b 54c8 eebc ecdb 95bd f9cf e93c
00000040: d42c 64be e500 d3bd bd4a f3bd 3dfe 10be
00000050: f603 d539 2488 01be 541a b7bd e34d 96be
00000060: baf7 75bd 34e9 86bd 0e04 50bd 0753 bcbc
00000070: 198c 6cbe a054 0abe 9ea6 783e 6ecb 2dbe
00000080: fe43 a8bd e17d 42be 7914 693c 43d4 093e
00000090: 0fdf 24be 8e3d 02be d534 09bc c405 0dbe
000000a0: 09df 163e 33a3 973d f193 083e 4b1b 0d3e
000000b0: f070 bb3d 5c8c 27bd 663c e93d b926 b1bd
000000c0: a644 17be 3ad7 87be f272 16bc 1ddf 6cbe
000000d0: d3c2 b4bd 1f1a 4f3e ab92 0fbe 2b44 1c3d
000000e0: 96ef 763d 3e48 7fbd 2b86 4ebd 0db3 013e
000000f0: df0d 12be a09c 90bd 8428 8e3d 2d7c 803d
00000100: 4cf1 993d 08ea 7a3d 0b10 8fbd 3600 583d
00000110: 22b9 b8bd ca0a 0b3e c538 9fbd 9292 0cba
00000120: 6370 ea3d fac0 2bbe 9138 74be 956c 813c
00000130: 413f 02be 2133 7d3e e357 7f3e bf94 1abe
00000140: d139 dabd 3036 f6bd 702f 83bc 16e7 283d
00000150: cb67 4c3e 01c4 a2bd 144f b73d dfef b7bc
00000160: 2779 31bd 2ac2 47be b06b fcbd 5d5d 1fbe
00000170: 0ecd 87bc a6cc 483e bc3a c0bd 3db2 21be
00000180: b19c 7c3d b570 493d 43fa 1ebe e4eb bebd

dense_output.3.weight f4 [1, 100]
0.061981495 -0.03341718 0.012649993 0.013516186 -0.0071308496 -0.009417185 -0.15682821 -0.004429334
0.03715451 0.0055006007 -8.563589e-05 0.004520744 0.14832795 0.045449976 -0.004263938 0.14441712
-0.07378488 0.023540756 -0.01938171 0.024498358 -0.0005613579 0.0038906888 -0.00029135976 -0.12637848
0.041831348 0.10349457 0.0041833897 -0.008512175 -0.060282 -0.04353677 0.089539476 -0.039098516
0.061952908 -0.014449271 -0.041393295 0.007857862 -0.0063282945 -0.029478246 0.011647047 0.02429071
0.011604803 0.007091464 0.04505869 0.0057588913 0.04651958 0.011868075 0.005162597 0.04184734
-0.0236283 -0.19262862 0.059825756 -0.041160356 -0.011513529 0.017205019 0.017492987 0.05652878
0.05850735 0.0063634096 0.008177873 0.067941226 -0.17205606 0.030286098 0.005397999 0.02684674
-0.00031729712 0.059047762 0.00951075 0.00059647806 0.027819758 0.052936945 -0.008129123 -8.4067804e-05
0.008986719 -0.011187992 -0.009077434 0.012264494 -0.0026329965 0.04514441 0.0698674 -0.018501408
-0.022071883 -0.0008054611 0.014117207 0.049881652 0.0513305 -0.0029395903 0.07490055 0.046584062
-0.06056644 -0.032044876 -0.009731422 -0.026316823 -0.0016027308 0.008982031 0.012715098 0.009805485
-0.0018992655 0.11747363 -0.041147497 0.004430911
00000000: 4fe0 7d3d 74e0 08bd eb41 4f3c fe72 5d3c
00000010: e7a9 e9bb 894a 1abc 9397 20be f223 91bb
00000020: 542f 183d 623e b43b 6b97 b3b8 c022 943b
00000030: 48e3 173e c129 3a3d 81b8 8bbb 15e2 133e
00000040: 871c 97bd 8bd8 c03c 64c6 9ebc c8b0 c83c
00000050: 1728 13ba edfa 7e3b a5c1 98b9 5c69 01be
00000060: 5957 2b3d f6f4 d33d d114 893b a676 0bbc
00000070: 42ea 76bd 9d53 32bd 7960 b73d c425 20bd
00000080: 55c2 7d3d a3bc 6cbc 048c 29bd 43be 003c
00000090: 955d cfbb 5d7c f1bc 41d3 3e3c 50fd c63c
000000a0: 1222 3e3c 835f e83b 768f 383d 15b5 bc3b
000000b0: 518b 3e3d 5072 423c 012b a93b 1e68 2b3d
000000c0: 2390 c1bc 7040 45be da0b 753d c397 28bd
000000d0: 3ea3 3cbc 8af1 8c3c 744d 8f3c b98a 673d
000000e0: 67a5 6f3d 2684 d03b 7cfc 053c c524 8b3d
000000f0: 772f 30be 8d1a f83c b3e1 b03b b2ed db3c
00000100: e65a a6b9 11dc 713d fad2 1b3c f75c 1c3a
00000110: 43e6 e33c 69d4 583d 0330 05bc 8f4d b0b8
00000120: 083d 133c d74d 37bc 85b9 14bc 04f1 483c
00000130: 5a8e 2cbb 58e9 383d a416 8f3d 4490 97bc
00000140: 18d0 b4bc 9425 53ba dc4b 673c b450 4c3d
00000150: ee3f 523d 24a6 40bb 7665 993d eece 3e3d
00000160: 8414 78bd 7d41 03bd 8b70 1fbc 6196 d7bc
00000170: b912 d2ba 5e29 133c fd52 503c 2fa7 203c
00000180: c6f0 f8ba 0496 f03d 478a 28bd 2d31 913b

exp_avg f4 [4, 1, 3, 3, 3]
-0.0010074362 -0.00078685285 -0.0012081618 -0.0012195858 -0.0013096904 -0.0014605091 -0.0007790521 -0.001194538
-0.0011147105 -0.0019580692 -0.0005193894 -0.002380187 -0.002143809 -0.0011637163 -0.002459844 -0.0019615628
-0.0010530051 -0.0018997034 -0.0016141118 -0.0010964567 -0.0031297966 -0.0020207926 -0.0019237372 -0.0030451221
-0.0020125352 -0.0020423825 -0.0021150557 -0.00093429687 -0.0010204822 -0.0004062614 -0.0018438939 -0.0018268909
-0.0011637664 -0.0034095906 -0.0032294441 -0.0013406741 -0.0004925728 -8.133506e-05 -0.00024703942 -0.0012770937
-0.00076778466 -0.0012151856 -0.0030725943 -0.0012194922 -0.0012694119 0.00032929063 0.0002888015 -0.00022365994
-0.00046118745 -0.00061897 -0.0011517237 -0.0011965268 -0.00088415487 -0.000911139 -6.747873e-05 -0.00031926177
0.0024875558 0.00030641246 0.0004459466 0.0032703404 0.0011898298 0.0016256605 0.0033756664 -0.00065575965
0.0010444757 0.0033475163 0.00013027973 0.0014640854 0.0038329319 0.0008967885 0.0025165451 0.0034924683
-0.0006750748 0.0019624794 0.0025239175 -0.00013563804 0.0025339841 0.0030057293 0.00027114636 0.0030999838
0.0025899564 0.0007822645 0.0022439107 0.0030291528 0.0007542851 0.0009187809 0.0014224717 0.00094496296
0.000583668 0.0012425544 0.0011310114 0.0024103897 0.0032951117 0.0010382787 0.001482361 0.001870937
0.0006066902 0.0015468455 0.0016695053 0.0014423761 0.0026558083 0.0031558406 0.0009969773 0.0017722419
0.0022742723 0.00077459257 0.0019397293 0.0021788164
00000000: f30b 84ba cd44 4eba 2f5b 9eba 82da 9fba
00000010: eba9 abba 8e6e bfba 4d39 4cba 0b92 9cba
00000020: 7a1b 92ba f352 00bb a227 08ba e9fc 1bbb
00000030: 267f 0cbb d787 98ba 5635 21bb 908d 00bb
00000040: fd04 8aba 78ff f8ba 9b90 d3ba fbb6 8fba
00000050: 461d 4dbb 466f 04bb e925 fcba ac90 47bb
00000060: bde4 03bb 7ed9 05bb bf9c 0abb 9aeb 74ba
00000070: b3c1 85ba 7bff d4b9 d0ae f1ba 4974 efba
00000080: 8589 98ba 7073 5fbb 15a5 53bb 8fb9 afba
00000090: 0020 01ba 6e92 aab8 1285 81b9 2764 a7ba
000000a0: 2845 49ba dd46 9fba 945d 49bb 5ed7 9fba
000000b0: 6562 a6ba a4a4 ac39 486a 9739 4286 6ab9
000000c0: 88cb f1b9 6042 22ba 6ff5 96ba c7d4 9cba
000000d0: a1c6 67ba 81d9 6eba 5e83 8db8 9762 a7b9
000000e0: 4306 233b fca5 a039 f1cd e939 3553 563b
000000f0: 10f4 9b3a 1d14 d53a 493a 5d3b 49e7 2bba
00000100: cae6 883a 0162 5b3b b39b 0839 8ee6 bf3a
00000110: ed31 7b3b 7516 6b3a 9fec 243b e5e1 643b
00000120: 81f7 30ba f19c 003b 4f68 253b 0f3a 0eb9
00000130: 3311 263b c5fb 443b a628 8e39 1929 4b3b
00000140: 42bc 293b e210 4d3a 930e 133b c084 463b
00000150: 37bb 453a 58da 703a 3b72 ba3a 64b7 773a
00000160: 4c01 193a 35dd a23a 723e 943a a1f7 1d3b
00000170: cdf2 573b da16 883a c84b c23a 3a3a f53a
00000180: 4a0a 1f3a 86bf ca3a 4dd3 da3a 1c0e bd3a
00000190: 120d 2e3b 38d2 4e3b 02ad 823a 924a e83a
000001a0: f50b 153b 070e 4b3a 843e fe3a 79ca 0e3b

exp_avg_sq f4 [4, 1, 3, 3, 3]
0.0002380698 0.00027431658 0.0002449377 0.0002050419 0.00022378168 0.00018900738 0.00013450182 0.0001397591
0.00012125183 0.00024691448 0.00026427858 0.00024525812 0.00020781954 0.00020629655 0.00018988569 0.00012726866
0.00012315369 0.00012110885 0.00023589765 0.0002523919 0.00024090662 0.00019117343 0.00019359899 0.00019284837
0.00011099584 0.000114805065 0.0001262556 0.00030144234 0.0002256965 0.00023889919 0.0002659455 0.00016322978
0.0001827891 0.000286155 0.0001900594 0.00020734957 0.00029935248 0.0002089388 0.00027728046 0.0002449734
0.00012681127 0.0002321852 0.00026397876 0.00014762382 0.0002589568 0.00027834225 0.00023301669 0.00031995942
0.00019946879 0.00015386475 0.00029059712 0.00021312486 0.00017671086 0.00032186235 0.00012323516 0.00010912719
0.00012526682 0.0001227066 0.00010663281 0.00012338594 0.00012851208 0.00011362918 0.00013159207 0.00012643228
0.00011091054 0.00012931855 0.00012332127 0.000108826185 0.00012995239 0.00012811064 0.00011707636 0.00013918591
0.00011236444 0.00010280406 0.000116667325 0.00010882519 0.00010352346 0.00011870648 0.00011592925 0.00011208779
0.00012850796 0.00010023601 0.00011236193 0.0001862398 0.00012524259 0.00014061002 0.00021046642 0.00018201729
0.00019818064 0.000249252 8.283094e-05 0.0001412477 0.00021851105 0.0001098863 0.00017130094 0.00024239562
0.0001734994 0.00022742881 0.0002741783 9.27743e-05 0.00018289815 0.00022672095 0.000119234865 0.00021266384
0.0002469229 0.00018165792 0.00026037885 0.00027189506
00000000: 60a2 7939 26d2 8f39 fb6a 8039 8400 5739
00000010: f0a6 6a39 4830 4639 0f09 0d39 4c8c 1239
00000020: 9548 fe38 4d74 8139 df8e 8a39 fd95 8039
00000030: 22ea 5939 4f51 5839 0d1c 4739 6c73 0539
00000040: d122 0139 d2fb fd38 4b5b 7739 7853 8439
00000050: e19b 7c39 ba75 4839 d500 4b39 5737 4a39
00000060: 70c6 e838 80c3 f038 7b63 0439 e80a 9e39
00000070: f1a8 6c39 0381 7a39 9a6e 8b39 a928 2b39
00000080: 13ab 3f39 1307 9639 af4a 4739 fa6b 5939
00000090: 69f2 9c39 9516 5b39 f45f 9139 c66f 8039
000000a0: a4f8 0439 bd76 7339 a166 8a39 78cb 1a39
000000b0: 98c4 8739 77ee 9139 f155 7439 3ac0 a739
000000c0: 7f28 5139 c156 2139 495b 9839 457a 5f39
000000d0: 764b 3939 a2bf a839 b038 0139 37db e438
000000e0: 0e5a 0339 cdaa 0039 0ea0 df38 2961 0139
000000f0: 33c1 0639 344c ee38 fafb 0939 e892 0439
00000100: a598 e838 af99 0739 cd4f 0139 9d39 e438
00000110: d443 0839 7055 0639 e486 f538 6ff2 1139
00000120: 33a5 eb38 8298 d738 4bab f438 1439 e438
00000130: bc1a d938 0ef2 f838 0b1f f338 ad10 eb38
00000140: 18c0 0639 cc35 d238 daa3 eb38 5e49 4339
00000150: 8d53 0339 b770 1339 a6b0 5c39 e5db 3e39
00000160: b6ce 4f39 0aae 8239 86b5 ad38 e41b 1439
00000170: 1d20 6539 c272 e638 3f9f 3339 942b 7e39
00000180: 64ed 3539 f579 6e39 97bf 8f39 d38f c238
00000190: 59c8 3f39 f1bb 6d39 bb0d fa38 84fe 5e39
000001a0: 6e75 8139 6d7b 3e39 7583 8839 238d 8e39

exp_avg f4 [4]
-0.013212223 -0.035649776 0.007451069 0.0068762973
00000000: 1478 58bc 8005 12bd 1928 f43b 9052 e13b

exp_avg_sq f4 [4]
0.004077568 0.03303536 0.011130737 0.0067217927
00000000: 1f9d 853b 1650 073d b25d 363c 7c42 dc3b
