models/dsec/dsec_half2/dsec_half2_stereo_odd_model.pth (torch, 863744 bytes, 27 tensors)

conv3d.0.weight f4 [4, 1, 3, 3, 3]
00000000: 1911 03be c458 76be d04b 5bbe 830c 69bd
00000010: 5a91 06be a12b 28be f0cb 32be 00c6 15be
00000020: a7b9 86be 742b 7f3e 86ee 7c3d dea8 c03d
00000030: 7ca9 873d e15c 963d cbf1 953c a916 8b3e
00000040: ecf7 4f3d 7946 3b3e 841d 4b3e 24b8 663d
00000050: fa27 5f3e 148c b5bb faa9 27bd 40ca b73d
00000060: 3f9f 1c3e ced8 183e e621 b43e 18b0 b63c
00000070: 117f 99bc 1794 6cbd 096f 4dbe f8f7 d2bd
00000080: acdb 03be 61f2 b03e e340 6ebe 0b02 2b3d
00000090: b56d a2bd c3a1 143f fb84 65bd 02e5 45be
000000a0: cc2f d33d af55 db3d a152 253e d297 883e
000000b0: 42e1 313e 16f9 acbd 5df7 773e 6d8c 43be
000000c0: f4a1 6abe e86f a83d 4455 4cbe 822f 87be
000000d0: e8e0 01be 7f1c 93bd d42f 593d 07d4 8bbd
000000e0: c58c 93be 8d5f 263e b686 1dbd f439 ecbd
000000f0: 8140 093e da68 b63d efad 11be c7cd c13e
00000100: 18f4 84bd 3d1b f43c 0153 7b3e e610 30be
00000110: ed33 af3d 4363 5e3e 9b21 0cbe 1627 393e
00000120: 7efb f83d ca76 3cbe a198 863c ee7f 00bd
00000130: 2623 cfbe eb90 86bd 0927 383d e128 e8be
00000140: eb35 443d 7921 65bd 6843 333e 9c9d 74bd
00000150: 5b7c e53d f550 3a3d 5aca 023e 467d 6cbd
00000160: 502a 4dbe 1cdc 783d a91a a7be 6d29 61be
00000170: 16e2 4dbe d390 a3ba 4ecc 1ebe 8c43 f73d
00000180: b8b3 6ebe 56bf 263d 6d5a 75be 3752 463e
00000190: e544 b2bd 4e39 f13e 3941 7e3e 0b0f 703e
000001a0: f062 933d d533 8c3e 811d 52be 3c25 8abe
-0.12799491 -0.24057299 -0.21415639 -0.056896698 -0.13141385 -0.16422893 -0.17460608 -0.14626312
-0.26313516 0.2491892 0.06175091 0.09407209 0.066241235 0.07341934 0.018303772 0.27165726
0.050773546 0.18288602 0.19835478 0.056327954 0.21792594 -0.0055403803 -0.040933587 0.08974123
0.15295123 0.14926454 0.35182112 0.022300765 -0.018737348 -0.057758417 -0.20061888 -0.103012025
-0.12876767 0.3455992 -0.2326694 0.041749995 -0.07931081 0.5805933 -0.056035023 -0.19325641
0.10311851 0.10709702 0.16144802 0.2667833 0.17371085 -0.08445947 0.24215455 -0.19096537
-0.22913343 0.082244694 -0.19954401 -0.26403433 -0.12683451 -0.071831696 0.053024128 -0.068275504
-0.28818336 0.16247387 -0.03845855 -0.11534491 0.13403513 0.089067176 -0.14226507 0.37852308
-0.0649187 0.029798144 0.24543382 -0.17193946 0.08554826 0.21717553 -0.13684694 0.18081316
0.12157343 -0.1840469 0.016430201 -0.031372003 -0.40456504 -0.0657061 0.0449591 -0.45343688
0.047902983 -0.055940125 0.17506182 -0.05972062 0.112053595 0.045487363 0.12772503 -0.057736658
-0.20035672 0.060756788 -0.32637528 -0.21988459 -0.20105776 -0.0012479074 -0.15507624 0.120734304
-0.23310745 0.040709816 -0.23960276 0.193673 -0.08704547 0.47114033 0.24829568 0.23443238
0.07196605 0.27383295 -0.20519067 -0.26981533

conv3d.0.bias f4 [4]
00000000: 4998 023c 8521 72bb 5c21 2c3d 7a3d b3bb
0.007970878 -0.0036946249 0.042024 -0.005469975

gru.weight_ih_l0 f4 [300, 100]
00000000: 548c 86be 2692 58bc a8cb b13d 1a17 cf3c
00000010: 37c9 ed3d 7553 1dbe 5e00 2e3e 65db 153e
00000020: 7dda 3b3d 2d00 503d 64db 58be e2b6 703d
00000030: 2764 9e3d 159b 093e ce86 2c3e da5f 89be
00000040: 7baf cabd b420 863d e873 543d d3e8 9f3e
00000050: 7d6a c8be 56f3 d7bd 1c73 4a3d a278 4e3e
00000060: fa0e f93e 8d6b 593f 332d 233f e04c e93e
00000070: 660f 173f e5c9 6e3f 41f2 503f 4c5a c63e
00000080: 63c5 123e 7bff b53e ad4a 243f e273 213f
00000090: 60bb b43e ef39 053f 5ec4 c53e 6618 553f
000000a0: eb07 023f 2c2f dc3e aefd 3f3f d7d9 003f
000000b0: c20d 653f ba11 1f3f 3c19 043f c676 263f
000000c0: f3e3 0e3f f2d7 833f 933e 9d3e 5d19 763e
000000d0: 2601 0e3e 81fb 573d a3fe 4cbd 2735 8f3e
000000e0: 62ca 0d3e 5e20 1f3d ab68 da3d db87 54bd
000000f0: 2a65 0d3e ae05 a13e 5226 003c 9948 533e
00000100: 7789 b13c 1e91 283e 0464 d83e e782 a83d
00000110: c927 333e 5533 493d 864f 073e 6729 993e
00000120: ac05 fa3c 1d29 be3c b3d4 01bd 06b9 70bd
00000130: 6c51 1e3e e363 d23c e4c9 c63d a458 1e3f
00000140: 0992 55be 4346 90bd ae5d 8dbe 3b32 91bd
00000150: bcf9 2b3e 3ca7 6ebc 7bd4 ae3e 6182 8a3e
00000160: ab7f 9f3e 63aa 9c3e d303 0a3e 48f8 763e
00000170: 877a 913d 31c3 403e 8c56 bb3e 0153 6a3d
00000180: 2fd3 433e 8cdf 423d 6fba 503e fae7 d33e
00000190: 3998 8bbe dfad 42be d3a6 0fbd 5cf2 913d
000001a0: 783c 1e3f 0ff5 30be 14ce 8fbd ec1d fe3c
000001b0: 4576 fe3c c1b8 af3e 7941 79be c0f7 d4bd
000001c0: cce0 05ba a26e 56bc d836 793e da7e a8be
000001d0: 0ff1 0cbe d05d 8b3c 7e11 a1bd 8285 2f3e
000001e0: 7dcd 95be bc2b bbbd 443f 023b 8b5d 5ebc
000001f0: 47d4 b23e 20ac c43d bf43 863e a3d7 b8bd
00000200: b6bc 833e b3a4 ef3e 9db2 693e 36e7 713d
00000210: e355 d3bd d849 473d 4f70 f73e 9d5c d23d
00000220: 1171 7a3e b80e 45be c240 313d 626d 013f
00000230: ca14 9d3d 1703 8d3e 17f8 28be edbe e33b
00000240: 08f4 b43e 40fa a93c f34e 593e b84f 87bd
00000250: 5a19 843e d3ec 223f f3a0 28bd 7ae1 263e
00000260: 097b dc3d 1845 533e a138 3dbd 02d3 87be
00000270: f8d6 03be 1326 9d3d 117d 933d 69c5 1a3c
00000280: 3384 eabd 09e2 1dbe f09d a8bd a8a4 f6ba
00000290: 6db4 3f3d df65 49be d6ea 2cbe 2856 5cbd
000002a0: 027c 9b3c 4b72 1b3e 362b ca3d 46b1 053e
000002b0: 6126 e6bc ca37 6b3d b6ab 5b3e 52b8 35bf
000002c0: 190d 25be bf42 2dbe a3b4 b0bd f984 193e
000002d0: e2be 11bf 6503 c4bd be7b 12bd e3e9 06be
000002e0: abeb 6d3e 5904 fcbe a313 8fbe ff3c a73c
000002f0: a65e 38be 3b92 253e 026b 16bf 8a3e cdbe
00000300: ad72 44bb 9d5b 7abd 7f3c fe3d ed23 56bf
00000310: 1a04 04bf d0fd bdbe eb17 70bd d2d2 9bbd
00000320: f0b3 2cbd 9b31 133e e244 6f3e 0c20 0b3e
00000330: f3cd 603e 3e0b e4bb e750 5b3c 67a1 603e
00000340: fca3 8c3e 2621 543e 2ff5 0ebc e439 a33d
00000350: 203c 6d3e 6fa9 3c3e f349 5b3e 1507 a9bd
00000360: 5617 513d 805d 3b3e 4621 253e 032d 4a3e
00000370: 25cb de3d 39ac 653d 619d 9a3e 4d1d 9f3e
00000380: 9454 bd3e 4b00 51be 72b0 82be 5ff4 80be
00000390: 09cb 2cbd 3a89 373d 534a d2be 1002 cdbe
000003a0: 997e 95be f7a7 02be 787e a2bd c20e 33be
000003b0: df67 05bf 4984 6cbe 269a 173e 3d40 1d3c
000003c0: 179e c1be 0898 08bf 86d1 cebe 7d04 e93d
000003d0: 00f8 0f3e 9e61 8dbe 2a14 bfbe 17b4 60be
000003e0: 1d82 733d 68cd df3d eb4e 8ebc 9532 333d
000003f0: 53ed 3bbe f7aa 69be e2f0 24be 8cc4 6fbd
-0.26278937 -0.013218438 0.086814225 0.02527957 0.11610644 -0.15363868 0.16992328 0.14634474
0.045862664 0.050781418 -0.21177441 0.05876816 0.07733946 0.13438065 0.16848299 -0.2683094
-0.098967515 0.065492064 0.05186835 0.31232318 -0.39143744 -0.105444595 0.049426183 0.20163205
0.4864424 0.84929734 0.63740844 0.45566463 0.5900787 0.93276817 0.8161965 0.38740766
0.1433311 0.3554648 0.64176446 0.6306745 0.35299206 0.52041525 0.3862638 0.83240354
0.5079333 0.4300474 0.7499646 0.503324 0.8947412 0.62136424 0.51601005 0.65024984
0.5581657 1.0300276 0.30711803 0.24033113 0.13867626 0.052730087 -0.050047528 0.2797024
0.13846734 0.038849227 0.10664495 -0.051887374 0.13808122 0.31449646 0.007821636 0.20633163
0.021671994 0.16461608 0.42263806 0.08228093 0.17495646 0.04912122 0.1321393 0.299144
0.030520283 0.023212964 -0.031696986 -0.058770202 0.15460747 0.025682395 0.09706476 0.61854005
-0.20856489 -0.07044651 -0.27610534 -0.07089659 0.16794485 -0.014566239 0.34146485 0.27052596
0.3115209 0.30598745 0.13478021 0.2411815 0.07103448 0.1882446 0.36589468 0.057208065
0.19123529 0.047576472 0.20383619 0.41387922 -0.27264574 -0.19011639 -0.035071205 0.071263045
0.6181102 -0.17280982 -0.07021728 0.031020127 0.031062255 0.34320644 -0.24341382 -0.10398817
-0.00051070447 -0.0130879 0.24337327 -0.3290928 -0.13763832 0.017012507 -0.078646645 0.17140773
-0.29258338 -0.09139201 0.0019874135 -0.013572107 0.3492758 0.09603143 0.2622356 -0.090255044
0.25729913 0.46805343 0.22822042 0.05905839 -0.10319116 0.048654407 0.48327872 0.10271571
0.24457194 -0.19243896 0.04327465 0.5055753 0.07669981 0.2754142 -0.16500889 0.0069502504
0.3534243 0.020749211 0.21221523 -0.06607002 0.25800592 0.63642615 -0.041169118 0.1629695
0.107656546 0.20631826 -0.046196584 -0.26528174 -0.12874973 0.07673278 0.07201589 0.00944648
-0.11450996 -0.15418257 -0.08233249 -0.0018817382 0.046802927 -0.19667767 -0.16886458 -0.053793103
0.01898003 0.15180318 0.09871523 0.13055906 -0.028094472 0.05742625 0.21452221 -0.70984375
-0.16118278 -0.16919993 -0.08628204 0.14992131 -0.5693189 -0.0957096 -0.03576254 -0.13175158
0.23234431 -0.49222067 -0.2794467 0.020414827 -0.18004856 0.16169064 -0.5875703 -0.40086776
-0.0029975579 -0.061122525 0.124138825 -0.8364857 -0.5156876 -0.37107706 -0.05861656 -0.0760857
-0.04216379 0.14374392 0.2336612 0.13586444 0.21953563 -0.006959348 0.013385988 0.2193657
0.2746886 0.2071577 -0.0087254485 0.07970026 0.23167467 0.18424009 0.21414928 -0.08253304
0.051047646 0.18297386 0.16125974 0.19743733 0.108785905 0.056072447 0.30198196 0.31077042
0.3697859 -0.20410268 -0.25525242 -0.2518644 -0.042185817 0.044808604 -0.4107233 -0.40040636
-0.2919815 -0.12759386 -0.07934278 -0.17486098 -0.5211162 -0.23097338 0.14804897 0.009597835
-0.37815925 -0.5335698 -0.4039423 0.11377809 0.14059448 -0.27613539 -0.3732007 -0.21943699
0.059450258 0.1092785 -0.017371615 0.04374941 -0.18352251 -0.22819124 -0.16107515 -0.05853705

gru.weight_hh_l0 f4 [300, 100]
00000000: 95ed f23d cd8a 8d3d 02b7 e5bc ca35 46bd
00000010: 0bf9 89be 944c 74bb 4072 20be 91d2 06be
00000020: ed4f 22be f218 343e db6d e63e 57fd 4bbd
00000030: d7bb a5bc 631a a93d 79e8 133e 01c2 47be
00000040: 6d0e b73e d5a2 aabe 2c80 433e bc9e 223e
00000050: 921f 43be d067 0f3f 6867 9f3c 19c6 0a3e
00000060: 5d21 503e fa02 463e 8ce9 6ebd ede9 493e
00000070: 2763 203e d84c 093e ee5b 31be 632f ee3d
00000080: d4c0 6d3e b1f2 cfbe 9567 5abd 479b 03be
00000090: f3c9 6cbe 5309 103d 50e4 8c3e 8882 8ebb
000000a0: 1609 3639 c641 ebbd 0784 bfbd abd6 c03e
000000b0: e11d 123e c172 143d c539 e5be d3d4 8c3e
000000c0: a449 3fbe 9735 a7be 7196 dabe bef1 9dbc
000000d0: eacb 853e 9c6f 27be 2b3c 363d f6d0 53be
000000e0: 52c3 51be e3c9 a0bd 24a6 ce3e 43dd 333e
000000f0: 855a 0b3e f89f 06be 747e 253d f470 c63d
00000100: 448a 973d c030 5d3e 789c 6f3e b30b 9e3e
00000110: 52c8 bc3d 9d48 ee3e 4f58 4bbd 2391 c1bc
00000120: 0f61 653e 10a4 843e 1806 7abe 80e4 703e
00000130: ba1b 743e 5595 6cbe 7d4b acbc 469c 6abd
00000140: 6626 e0be 4efc 60bd 1d8b 473e 66cc 0dbe
00000150: 2b5c 353e f147 e4bd 95f3 09bd 4450 f0bc
00000160: 836a c6bc c034 8d3d 4283 8f3e e3fe 70be
00000170: 45f9 1fbe 9876 553e 1b81 1f3e 1510 60bc
00000180: aeab e6bd 53a1 053e f9c9 4abe ad80 dd3e
00000190: abbd afbd ee4e c23e 70a9 2abe 68b0 ccbc
000001a0: 75d3 d7bd 595a aabe e338 92be 264d 16bd
000001b0: e05c 5dbd 7844 513e c3a3 123e 5ae7 073e
000001c0: 83c1 33bc 6c6f ec3e 2116 5ebd 4e39 13be
000001d0: 653f 153e 9b1a d43d 8861 b4be 900a 20be
000001e0: eae9 a43e 9b15 2fbe 2414 123e fb02 243e
000001f0: e71d 12bd 244b 3fbe 2117 e33c af04 4dbc
00000200: 8687 3bbe 33b8 2fbe 65f0 033e 7905 97be
00000210: 6b73 a9be 032e a13b c62b 963c 8296 ecbe
00000220: ff2e 83be dd03 203d a5cd 123e 31d7 6abd
00000230: 1c4e 233e f0cc 093e 36a7 4b3e b814 10be
00000240: f8cd 163f ad89 04bd 966a 283c de4c d73d
00000250: 9784 90be 682b 4a3e a319 5ebe c71a 80be
00000260: f248 753c e460 47be e027 763e 8558 043e
00000270: 538b bfbe 9157 07be 70e3 243e c802 f3be
00000280: bbf1 f5bc 383a 4c3e 17b6 823d b3e0 17be
00000290: 144f f73e 60cf 29bd d059 2cbe 093a 973e
000002a0: d153 0bbe ac8c b8bd 8b9c d0be 4772 38be
000002b0: 56cf 9dbc c557 ea3e a3a4 75be 85a0 65bc
000002c0: 99ac a5bd 69a4 873e f70d 0d3d f4b1 d83d
000002d0: 8400 7cbe b15d 85be b0e1 1c3e 94ac 14be
000002e0: 09c6 1e3d 09e2 c2be ba8b cdbb 4c7d 243e
000002f0: 47af 5f3e 4967 7e3e 69d6 bfbd 2ba5 70bd
00000300: 902e b1be ef78 70bd 0c5e 2abe c782 8bbc
00000310: 608a 1d3e 1a1f 3cbe 24ec 383c e432 0e3c
00000320: 2451 2ebe 3de5 863e d61d 813d ad95 47be
00000330: fbe0 37bc 351c b43d b853 d7bc ada4 3bbc
00000340: 08d4 d43d c658 2a3e a2d4 e1be 8473 12be
00000350: b6c8 a9bd eda7 6a3e 2cbc 2abe 8fa9 893c
00000360: 6d2a d53d 007d dd3e c5ea 423b 8833 d1be
00000370: 617b a2be 1c7c c43d da35 cebc 8942 28be
00000380: 7be7 71bb bece 7d3c ae1e 39be b19d a6bd
00000390: f60a 5d3e 13dc a0be 31b2 c3bc e758 ebb9
000003a0: d7f6 dcbd db3d 55bd ef29 cebe 746a d63d
000003b0: f3b0 913d b7c0 0abb 86a0 0d3f d86e 0dbe
000003c0: f5ce f6bd 23bb b9bd 3788 653e 33dc a83e
000003d0: 795b 80be d63f 513e 3504 b3be b67a d4be
000003e0: fc40 2c3e 0c71 09be 0b42 2abe 17b6 de3d
000003f0: c081 a4bd 363b 14be 2e35 6e3e 1512 61be
0.118617214 0.0691124 -0.028041366 -0.04839114 -0.26947817 -0.003727709 -0.15668583 -0.13166262
-0.15850802 0.17587641 0.45005688 -0.04980215 -0.02023117 0.08256986 0.1444415 -0.195076
0.35753193 -0.33327356 0.19091862 0.15880865 -0.19055012 0.5601778 0.019458488 0.13552131
0.20325227 0.19337073 -0.058328196 0.19718142 0.15662824 0.1340822 -0.17320225 0.11630132
0.2321809 -0.40614846 -0.05332144 -0.12852202 -0.23123913 0.035165142 0.2751794 -0.0043490566
0.00017360257 -0.11487155 -0.09351354 0.3766378 0.1426921 0.03624225 -0.44770637 0.27506122
-0.18680435 -0.32658073 -0.42692903 -0.01928031 0.26132137 -0.1635117 0.044490974 -0.20685181
-0.20484665 -0.07851007 0.4036113 0.17564873 0.13608749 -0.1314696 0.0404038 0.09689513
0.07399419 0.21600628 0.23399532 0.308683 0.092178956 0.46539775 -0.049644765 -0.023628777
0.22400306 0.2590642 -0.24416387 0.23524666 0.23838702 -0.2310384 -0.02103209 -0.05727794
-0.43779296 -0.054928117 0.19486661 -0.13847503 0.1771094 -0.11146534 -0.033679564 -0.029335149
-0.02422071 0.06894827 0.2802983 -0.23534732 -0.15622433 0.20846021 0.15576594 -0.013675709
-0.11263214 0.13049822 -0.19803609 0.43262234 -0.08581098 0.37950844 -0.16666198 -0.02498646
-0.10538379 -0.33272055 -0.28559026 -0.03669467 -0.05404365 0.20436275 0.14320283 0.13271847
-0.01097143 0.46178758 -0.054220323 -0.14377329 0.14574964 0.10356637 -0.3523066 -0.1562903
0.32209712 -0.17098086 0.14265496 0.16016762 -0.03567305 -0.18681008 0.02772099 -0.012513324
-0.18313417 -0.1716011 0.12884672 -0.29496363 -0.3309587 0.004918815 0.01833142 -0.46208578
-0.25621793 0.039066184 0.1433626 -0.05733413 0.15947765 0.13457084 0.19888005 -0.14070404
0.58908033 -0.03235786 0.010279318 0.10512708 -0.28226158 0.1974312 -0.21689467 -0.2502043
0.014971005 -0.19470555 0.24038649 0.12924393 -0.37410983 -0.13216998 0.16102386 -0.4746306
-0.030022493 0.19944084 0.06382387 -0.1483181 0.4830252 -0.041457534 -0.16831136 0.29536465
-0.13606192 -0.09011206 -0.40744433 -0.18012343 -0.019263905 0.45770088 -0.23988585 -0.014015322
-0.08089561 0.26492622 0.034437146 0.10580817 -0.24609572 -0.26048043 0.15320468 -0.14518958
0.03876308 -0.38063076 -0.00627276 0.16063422 0.21844207 0.24844088 -0.09367067 -0.058751266
-0.34605837 -0.05870908 -0.16637439 -0.017030133 0.15384817 -0.1837124 0.011286769 0.008679125
-0.1702314 0.2634677 0.06304519 -0.1949069 -0.011223073 0.087944426 -0.026285037 -0.011452836
0.10392004 0.16635427 -0.44107538 -0.14301878 -0.08290236 0.22915621 -0.16673344 0.016804485
0.10408483 0.4325943 0.0029741984 -0.40859628 -0.31734756 0.095939845 -0.025172163 -0.16431631
-0.0036911655 0.015491186 -0.1807811 -0.08135546 0.21586213 -0.31417903 -0.02388868 -0.0004488893
-0.107892685 -0.052060943 -0.40266368 0.10469523 0.071138285 -0.0021171996 0.55323064 -0.13811815
-0.12051193 -0.090688966 0.22415243 0.329805 -0.25069788 0.20434508 -0.34964147 -0.4149987
0.16821665 -0.1342203 -0.16626756 0.10874575 -0.0803256 -0.14475712 0.23262474 -0.21979554

gru.bias_ih_l0 f4 [300]
00000000: f446 89be 111f ebbd d92f 8dbe 88d2 19be
00000010: 8bc4 cd3b abbf 6bbe b994 133b 214d b0bd
00000020: fdaf 5bbd 0974 30be 48c9 bc3d 3214 e9bd
00000030: c78d a7bd f833 a9bd 274e 42be 4e24 583c
00000040: 57dc 05be b18f 25be dcb7 5dbd 035b 0bbe
00000050: 1d24 a7bb 8390 b53c f50c c93c 38fb f8bd
00000060: 099e 6cbd 84d4 17be ffbd 2f3d 05d9 0abe
00000070: fef6 0f3e 6e17 1cbe e587 f03c 8a49 d6bc
00000080: 753a 8ebc b5f5 83be b2ba 7ebe 3c47 453d
00000090: 1179 dbbd 3201 9a3c 37a3 cd3d 120d abbd
000000a0: 0384 8f3e d225 053e 1899 19be bf2b 97be
000000b0: bde7 d2be 1b6b c3bd 474c e7bd fdf5 5c3c
000000c0: a8c6 eabd 9780 57bd 765a 65bd 775b 04be
000000d0: b078 92bc 53d2 a1bc 681b af3d 998a 02be
000000e0: 4e9a aabd 4458 0d3e 5a97 cfbd dce5 9abe
000000f0: 8efa 39be dd04 42bc a704 b1bd 1fe3 89bd
00000100: 14cc c7bd 6b1e 9cbd 629f 1fbe 964c 8cbe
00000110: 8e01 84be 31fe 59bd f32f e7bd 79ae 7cbb
00000120: 26e8 3dbd 752e 26be eb8a 52be 83d5 223e
00000130: 5f75 98bd e2a8 85bd 2d5b 3b3e 4926 3bbd
00000140: 11fa 6fbe 9dc7 89be b164 9dbd 892d 43bc
00000150: 95b2 1abe be1a f7bd 3dce 8f3d f4be 2b3d
00000160: 3dd0 48bc 54d2 be3c efa4 49be f9e6 f4bc
00000170: 835c eebd 4216 e6bd b1ff d9bd a632 7e3d
00000180: e343 3fbd 08ac 493d c496 dd3c 9e8d a9bd
00000190: 7e75 3e3c 4f15 d73c bcab ce3d 575b 223e
000001a0: 0d95 15be 0fe2 243e 5458 04be 3a08 7f3e
000001b0: a409 753e 4ea8 87bc 160d 793d bdd2 2f3e
000001c0: b293 893e 6688 6b3d 2243 2e3e 809a 143e
000001d0: 6d99 183e 802a 02be 77c9 853c d321 263e
000001e0: 7198 ae3e a8b6 013c 758e 6a3d 4fdb 82bd
000001f0: 5071 2abc db49 9b3e ca46 263e 27b3 02bc
00000200: 62f5 16bc 7eb3 a93c e9fd c43e 4310 1b3e
00000210: 1bf2 c5bd ee1e 423e 6bb4 4abd a4b6 14bd
00000220: 21ee 2fbe 9dcb e33e 2637 003d 9d15 173d
00000230: 6b96 edbd b9fe 0b3e 291c 123d d143 203d
00000240: 65ba db3d a91f a33d 4139 883e fe62 a7bd
00000250: 8bbf 013e 93e6 843e 71d0 e9bd f5bd 5b3e
00000260: 470d b33d 9037 313e 28a2 85bc 2d8a 373c
00000270: f9e5 823c 1707 8c3d e5a1 783e 2e8d ec3d
00000280: ca11 343e 19da c43e 046c 1cbe 5152 68bd
00000290: 2f3f 313e 1460 6e3e b75d 8c3e b8e3 993d
000002a0: d00a 483e 4fb2 55be 72a8 61bd 1a74 4e3e
000002b0: bad9 bdbd 012d 523e 71da 1dbe b625 58bd
000002c0: a1df dd3e f701 a23d 9e67 e53d efe8 02bc
000002d0: 2255 f6bd 20ba 353e 506b 7f3e 5d7e 3c3e
000002e0: 991e ac3d 3ce9 8ebe 61c0 48bc b35b 443e
000002f0: e508 32be 3291 243e 373d 66be a9aa 693e
00000300: 72c0 2bbd 359b 873e 4623 993a cffb f13c
00000310: c517 6a3e 014a 5c3c 286a 523e ddb4 65be
00000320: 62ac 8dbe fd0f 313e 232d 9bbd 5763 ec3c
00000330: 8e77 74bc bc78 d5bd 7065 963d f108 373e
00000340: 7e18 ba3d 560c adba 594b 7dbe 7011 423e
00000350: e750 8cbd 37b5 c93d 72e3 51bb 05c6 8939
00000360: a85c b03c dbd7 323e bbd7 bcbd 327e 65be
00000370: 68f0 61bd cae2 81be fbde cebd 0d69 0c3d
00000380: bfa0 9dbd a5c4 e7bd a4e0 103e f2d2 ddbc
00000390: 9861 a63d 20d9 a3bd c6b7 2e3c 9507 aebd
000003a0: dd81 80be a9b3 5a3e a287 8ebc 78d4 02bd
000003b0: ca8f ac3d fa17 67bd fac8 123d 92bf 5f3d
000003c0: 0bec 18be 56df a4ba d314 283b 5ca0 0ebe
000003d0: e8b8 d03c 34bd adbd 3fba 223e 2fe3 7ebe
000003e0: 3fc0 243c 6579 c73d ed0d c13d 95d0 a8bd
000003f0: 0f13 1fbe af82 073e 9ef2 cc3d 9e7d 103c
-0.26811945 -0.11480535 -0.27575567 -0.15021718 0.0062795333 -0.23022334 0.0022519066 -0.08608461
-0.053634632 -0.17231764 0.09218079 -0.11380805 -0.08181339 -0.082618654 -0.18975125 0.013192249
-0.13072334 -0.16168095 -0.05413042 -0.13608937 -0.0051007406 0.022163635 0.024542311 -0.12157291
-0.0577679 -0.14827162 0.042905804 -0.13559349 0.14059064 -0.15243313 0.029361675 -0.026158113
-0.017361859 -0.25773397 -0.24875906 0.048163638 -0.10716451 0.018799398 0.100408964 -0.08352102
0.28030404 0.13002709 -0.14999807 -0.29525563 -0.41192427 -0.09541913 -0.112938456 0.013486383
-0.11463672 -0.052612867 -0.055994473 -0.12925516 -0.017879814 -0.01975361 0.08550149 -0.12748183
-0.083302125 0.13803202 -0.1013629 -0.30253494 -0.18161985 -0.01184198 -0.086434655 -0.06732773
-0.09755722 -0.07622989 -0.15588143 -0.2740218 -0.25782436 -0.05322093 -0.112884425 -0.0038556142
-0.046363972 -0.1622866 -0.20560805 0.15901761 -0.07444262 -0.065263525 0.182965 -0.04569081
-0.23435237 -0.26910105 -0.07685221 -0.011912712 -0.15107186 -0.120656475 0.07021759 0.041930154
-0.012256679 0.023293652 -0.19691823 -0.029895293 -0.11638739 -0.11234714 -0.106444724 0.06206002
-0.0466956 0.049236327 0.02704943 -0.082789645 0.011624692 0.026255278 0.100913495 0.15855156
-0.1460764 0.1610186 -0.1292432 0.24905482 0.23929459 -0.016559746 0.060803495 0.17170234
0.26870495 0.057503127 0.17017797 0.14512062 0.14902277 -0.12711525 0.016331417 0.1622384
0.3410068 0.007917084 0.057264764 -0.06389486 -0.010402992 0.30329785 0.16237941 -0.007977284
-0.009213777 0.020715471 0.38474968 0.15142922 -0.096653186 0.18957111 -0.049488466 -0.036306992
-0.17180683 0.44491282 0.031302594 0.036885846 -0.116009556 0.13671388 0.035671387 0.039127175
0.10728911 0.07965023 0.2660618 -0.08173178 0.12670724 0.25957164 -0.1141671 0.21459182
0.08742767 0.17306352 -0.016312674 0.011202377 0.0159788 0.0683729 0.24280508 0.115503654
0.17584911 0.38447645 -0.1527558 -0.056719128 0.17309259 0.23278838 0.2741525 0.07514137
0.19535375 -0.208688 -0.055092283 0.20161477 -0.09270044 0.2052498 -0.1541536 -0.05277034
0.43334678 0.07910531 0.11201404 -0.007990106 -0.120279565 0.17746782 0.2494328 0.18407579
0.084042735 -0.2791232 -0.012252898 0.19175605 -0.17386205 0.16071013 -0.22484289 0.22819008
-0.041931577 0.264856 0.0011683486 0.029539017 0.2286063 0.013445378 0.20548308 -0.22432275
-0.2767058 0.17291255 -0.075769685 0.028855963 -0.014921082 -0.10423419 0.073435664 0.17874505
0.09086703 -0.0013202529 -0.24735774 0.18951964 -0.068513684 0.09849017 -0.0032026437 0.00026278212
0.021528557 0.17465155 -0.09220835 -0.22411421 -0.05516091 -0.2536834 -0.10101124 0.03427987
-0.076966755 -0.11316804 0.14148194 -0.027078126 0.08124083 -0.08000398 0.010663932 -0.0849754
-0.25099078 0.21357597 -0.01739866 -0.031940907 0.08425863 -0.05641935 0.035836197 0.054626055
-0.14933793 -0.0012578766 0.0025647178 -0.1392836 0.025478795 -0.08483353 0.1589136 -0.24891351
0.010055601 0.09739951 0.09426484 -0.08242909 -0.15534614 0.13233446 0.10007213 0.008819012

gru.bias_hh_l0 f4 [300]
00000000: dbd2 61be 7bc9 5bbc ce0b 93be bf5d 01be
00000010: 715c 603d e5a3 49be 9d30 973d 3cca 45be
00000020: 18a4 11be 1c2a 41be 4c39 b23d efed 12be
00000030: bab9 6abd 4c59 e1bc a364 0dbe 3ebe 8c3d
00000040: 6cef 25bd 813a 2fbe da25 683c c8c4 64bd
00000050: 4992 75bc b399 83bd be7a 9e3d 74f6 f2bd
00000060: f33f 1abe c862 20be a3ee 373c 4311 e0bd
00000070: a273 283e ef95 a8bd 520e 093d ab71 23be
00000080: 9d03 563d d397 3abe 44ce b9be d55d 403d
00000090: 8be6 0dbe 4459 303c d55b 563e bbad a7bd
000000a0: 62db 383e 134e f63d 569f 2dbe 5622 38be
000000b0: 6930 ccbe 2a4f e7bc 05f8 9dbd 95e7 9dbc
000000c0: 6a25 01bd 1724 8bbd 59ca 153d acb6 20bd
000000d0: 4cfd 2bbd d5a8 c03a 96d4 d83c 1dfc 1dbe
000000e0: 94d5 abbd a0e7 843d 5422 01be afa6 a0be
000000f0: 4687 35bd 3386 103c 4dcb 37be 3ca8 4ebe
00000100: 0d12 21be 1639 e1bd 8ca2 03be 6ba8 82be
00000110: 9d8f eebd 48ff b73d 15f1 5fbd 5698 43bd
00000120: 0b71 d7bd fcd6 c9bd 5cb0 d5bd 57c3 223e
00000130: e8fe 78bd 2bc1 a2bb 1a17 4d3e f1a6 8dbd
00000140: 86e8 22be f9c5 48be c00f d4bd a0d3 8a3c
00000150: 484f 9ebd adb7 11be de81 42bd c2ea adbd
00000160: 5141 9b3c 5cf1 a33c 1b7f 62be 9b34 f7bd
00000170: f777 b9bd 0970 8ebd 9cc4 d6bd 3915 fd3b
00000180: 4384 8cbd 0f7a 213c dbd3 5d3d 509a 87bd
00000190: 050d 6cbd 356b 53bb 7b02 9b3d ea95 863e
000001a0: e7cf 28be 04fc 3d3e 3017 39be b20a 4e3e
000001b0: cac9 3a3e ed20 99bd ce40 333e 4f35 733e
000001c0: 067e 1f3e 4136 11bd 77ff b23d 773c a33c
000001d0: 3b2d 213e 893b 32be 7c02 1f3d 88e7 3f3e
000001e0: 63f7 cb3e 9cf5 343d 68ce 8cbd 892c 3e3d
000001f0: 9ea9 92bc 86a9 ae3e 3af8 eb3d c4b0 b23d
00000200: a746 42bd 096c 713d b579 c53e fbeb 293e
00000210: b432 7cbd 3e42 143e 69a0 ac3b 8061 11be
00000220: d215 39be a98d db3e cb07 01bd e935 093e
00000230: 260d f1bd bc5b e23d fc95 a13b b492 023e
00000240: b6c7 eabc 4d05 053e 7afa 8d3e 7fb9 9ebd
00000250: 4555 103e 612b 4b3e e210 03be a5b2 7f3e
00000260: 0921 173e 2aa3 813d a200 58bd 74b5 f4bc
00000270: f510 b6bc 70f8 523d c800 6b3e 78fc e93d
00000280: 7cdf b23d 6dd8 e73e 52fc f6bd d353 a9bd
00000290: fbcb 443e 38ac 283e 66ab 783e 3c21 013e
000002a0: 9677 053e 7cff 03be c3df a4bd e97c 3c3e
000002b0: 523f 02be 68d2 173e cba0 a3bd 09b7 623c
000002c0: b475 b83e 24af 973d d925 2c3e 499c ab3a
000002d0: 2ea9 83bd f03f 793e 5706 423e 9f33 2d3e
000002e0: 5e10 063d 8c45 91be 5729 62bd e21c 3e3e
000002f0: d34d 62be abe2 263e 888c 4bbe bad5 613e
00000300: 61e3 4ebd e2d6 a03e 93c9 cc3d 28f1 a5bd
00000310: 218a 643e f8f4 9e3c 61b2 ae3d ebcb 4bbe
00000320: 35c3 04bd 4c10 8e3d c834 25bd 0abe 0d3b
00000330: 96ab 013e 7719 96bd ead5 023e d624 2d3e
00000340: b252 b7bd 6b10 413c 8d85 dcbd 1aab 2d3e
00000350: 5eca 12be 78bd 85bd 26ca 94bd 8f59 06be
00000360: 21a3 a43d b405 f03c e69f 363d 69cd f6bd
00000370: 2921 c93d 36f4 92be 1d53 cfbc 7271 95bd
00000380: 99e3 6fbd cb54 23be bbc3 4f3d c5c3 563d
00000390: 5b50 cebd c509 efbd a6ad 403d 3891 53bd
000003a0: f72c 7abd 3c6b 5e3e 6d6c c23c d5b7 873d
000003b0: 3818 033e 97f7 debd 8127 173e a982 80bd
000003c0: 9203 0dbd d016 243e fe70 17be 5d6e 8ebd
000003d0: 1e6b d13c 1ca3 72bd e85a 5e3e bdfe 08bd
000003e0: 184a 103e 1ec0 393e 88fe 933e e45f 8abd
000003f0: 0e79 97bd b463 bfbd c4ac 4b3e b075 1f3d
-0.22053091 -0.013414736 -0.28719944 -0.12633418 0.05477566 -0.19691427 0.07382319 -0.19315428
-0.14222753 -0.1886372 0.08702335 -0.14348577 -0.05730603 -0.0275084 -0.13807921 0.06872223
-0.040511534 -0.17112161 0.014169181 -0.055851728 -0.01498849 -0.064258 0.07738255 -0.118634135
-0.15063457 -0.15662682 0.011226329 -0.109407924 0.1645036 -0.082317226 0.033460923 -0.1596133
0.05224954 -0.18221979 -0.3629018 0.046964485 -0.13857476 0.01076347 0.20933469 -0.08187433
0.18052438 0.1202661 -0.16955313 -0.17981848 -0.39880684 -0.02823599 -0.077133216 -0.019275466
-0.03152982 -0.06793993 0.036569927 -0.03923671 -0.04198961 0.0014698753 0.026468556 -0.15428205
-0.08390346 0.064894915 -0.12610751 -0.3137717 -0.04431846 0.008821058 -0.17948647 -0.20181364
-0.15729542 -0.109972164 -0.12854975 -0.25519118 -0.11648486 0.08984238 -0.054673273 -0.0477527
-0.10519608 -0.09855458 -0.104340285 0.15894829 -0.060789973 -0.004966875 0.20028344 -0.06916607
-0.15909013 -0.1960677 -0.103545666 0.016946614 -0.077299654 -0.14230223 -0.047487132 -0.08492042
0.018952044 0.02001255 -0.221188 -0.120705806 -0.090560846 -0.06954963 -0.10486719 0.007723477
-0.068611644 0.009855761 0.05415712 -0.0662123 -0.057629604 -0.0032259945 0.075688325 0.2628625
-0.16485558 0.18553168 -0.18075252 0.20121267 0.18241039 -0.07476983 0.1750519 0.23750804
0.15575418 -0.03545213 0.08740132 0.019926293 0.1573991 -0.17405523 0.03882073 0.18740666
0.3983718 0.044179544 -0.06875306 0.04642919 -0.017903145 0.3411371 0.11521955 0.087251216
-0.04743066 0.05894092 0.38569418 0.16593926 -0.06157179 0.14478394 0.005268146 -0.1419735
-0.1807473 0.42881516 -0.031501573 0.13399471 -0.11770086 0.11052653 0.0049312096 0.12751275
-0.028659683 0.12990303 0.2773016 -0.07750224 0.14095028 0.19840766 -0.12799409 0.24970491
0.14758696 0.06329949 -0.05273498 -0.02987168 -0.022224883 0.05150646 0.22949517 0.11425108
0.087340325 0.45282307 -0.12059845 -0.08267941 0.19218437 0.16471946 0.24284133 0.12610334
0.130339 -0.12890428 -0.08050492 0.18407024 -0.12719467 0.14826357 -0.07989653 0.013837584
0.360273 0.07406452 0.16811313 0.0013092841 -0.06428753 0.24340796 0.18947731 0.16914223
0.032730453 -0.28373373 -0.055215206 0.18565705 -0.221 0.16297404 -0.19877827 0.22054186
-0.050509814 0.31413943 0.09999385 -0.081026375 0.22318317 0.01940392 0.08530117 -0.19902007
-0.032412726 0.06936702 -0.04033354 0.0021628165 0.12663111 -0.07329076 0.12776914 0.16908583
-0.0895132 0.0117836995 -0.1076766 0.16959801 -0.1433501 -0.06530279 -0.07265119 -0.13120101
0.08038927 0.029299594 0.044586085 -0.12050898 0.09820778 -0.28701943 -0.025308186 -0.072970286
-0.058566663 -0.15950315 0.050723772 0.052432794 -0.1007392 -0.11671785 0.047040604 -0.051652163
-0.061078038 0.21720594 0.023733342 0.0662686 0.12802207 -0.10887068 0.14761163 -0.062749214
-0.034427233 0.16024327 -0.14789197 -0.06954644 0.025563773 -0.059237584 0.21714365 -0.033446062
0.14090765 0.18139693 0.2890513 -0.06756571 -0.07396136 -0.09345189 0.19890124 0.038930595

dense_output.0.weight f4 [100, 100]
00000000: 72d9 8abd bcbb dc3d dbb1 053e 3852 5b3d
00000010: fca0 5a3d 1380 843d 2b79 9dbd f9ca 013e
00000020: bad8 9b3d 8841 a33c 7c8d a0bb e179 c3bd
00000030: cb13 82bd ba2e 3cbd 1e50 743d 3749 17bc
00000040: b923 c83d f6bf ba3b a7c4 af3c 1bdd f9bb
00000050: bc11 a1bd 0d11 05bd c075 2f3d 3ec2 e63c
00000060: aa1c 1fbc 86ac 763e b43d c2bd 9656 ddbd
00000070: 3c3c 27bd b9be 38bd ae4e 2abe f01f 763d
00000080: 9fe7 5dbd c37f c13d 37c4 a63c 10da b4bb
00000090: dcb5 fdbd 0e0b 36bd 19c7 bb3c 8343 cf3d
000000a0: 4482 31bd d574 adbd efe3 b5bc a07d f43d
000000b0: e818 a93b a099 683c 2d2d a3bd 84b7 a0bd
000000c0: 0d85 58bd 8942 f3bb 7135 ff3c 5f1d 95bd
000000d0: 11b7 223b 3bb8 c33d f534 3d3d e97f a43d
000000e0: 4e32 3c3d 1b71 bdbd fc4a 593d 15db 2b3d
000000f0: 89f7 4bbd 7ea6 6f3d d0ec b1bd 18c9 8fbb
00000100: 25b4 f5bc 724c be3d 462e ba3d e0fc 533d
00000110: 441f 88bd bfed 5b3d 335d 93bc 1faf 60bd
00000120: 3cf5 d23d 665f adbb 05f4 883b ccd9 b03c
00000130: e183 2a3e ddbf ecbb 06b8 2abe 922a e33c
00000140: 00dd 88bc 8910 123e 4c55 36bd c3ea 6dbd
00000150: d820 df3b 2211 babd 3c07 0bbc 7330 40bd
00000160: 04b4 6dbd f7f8 8fbd e31d 513c 8b4f 993a
00000170: c8dd e13c 876a 8f3c e88f 733d c780 9b3b
00000180: d98f a4bd a992 2dbd 5cb0 853d ce2b 67bd
00000190: 808d 823a 5d88 a5bc b0c2 1ebd 2336 143c
000001a0: 66a0 1f3d e919 873b 7841 3cbd c80f a03d
000001b0: 42c0 ff3b 0a5f 24bd fd73 243c 57a3 9abd
000001c0: 8f59 cfbd d73a 943d 6654 893d 6483 6cbd
000001d0: 3f3d 043d da1e adbc 16a2 8d3d 5e61 f3bc
000001e0: 2519 81bd 5123 3c3c f98d 8dbc 1cdc e63c
000001f0: e058 113d 04e2 ad3c 3cef a6bd fce6 8d3c
00000200: 29ab 14bd 6dde 85bd a668 0ebe 19b9 eebb
00000210: 7e8c 73bd 20cc 65bb b615 473d 3d71 993d
00000220: 87f2 cabd ef71 c4bd 0cad 86ba 2fbf 93bc
00000230: 73ac 153c 83c3 86be 47b4 b73b 1082 023b
00000240: 1c31 87bc 1126 b73d 07bc f5bd 6cb4 243b
00000250: 9bb7 e5bc a19a 7cbd 1f67 0e3c 6c52 dc3c
00000260: d6a7 aebc fd6b 703d 852a ec3d 7208 75bd
00000270: ba1c b63d 8a05 acbd 7f2a d23d c5ed f0b9
00000280: 6400 9e3c f5ba 41bd 1750 0f3e 6407 dc3d
00000290: a96c 553d 43db a63d cc37 bc3d bdbd 8f3d
000002a0: 038f 543d 8b06 babd 26d1 75bd aa47 95bc
000002b0: 8e5f 9f3d ef99 10bd 64c2 e9bc c504 953d
000002c0: bfbe e73d 4c01 4abd 9e87 eabd 6e2b a2bd
000002d0: 31f1 cdbd 7fb5 613c 8354 d63b 6649 5abd
000002e0: 3fd5 ce3b 7340 423b e5da a33c dc2b cbbc
000002f0: e848 7abd 3439 8dbd 2841 2abd b8c0 673d
00000300: 0466 013c 9da4 ae3d 2aba bf3c e87b 5a3d
00000310: 3bd7 f63c e48e babd bef1 b83c de74 9b3d
00000320: 7c70 87bd 9dd6 713d 4853 9cbd 3fdf 233d
00000330: 2f41 08bd 9abe b5bd d2fd 05be 8be9 01bd
00000340: 166c c83d 1538 0a3e fb14 59bd ec73 a0bd
00000350: b1f8 813c a132 303d 56fb bbbd 34fd 413d
00000360: 05ff 74bd 7715 e13d 1a30 93bd 7add adbd
00000370: 581f 8b3c f528 07bd b41a 6c3d 024d 91bd
00000380: 4b6b f73d c094 0dbe 203e 80be 094b 61bd
00000390: 7898 17be a43d 8d3d 5447 af3d 832b 26be
000003a0: 4951 9fbd f67d 19be 0cf4 84bd c89b 9d3c
000003b0: 3e46 bf3d 4d0b 463b 00a0 353d 2d88 0c3d
000003c0: f2b6 5936 63a7 2b3d a3b8 9fbd 898f 92bd
000003d0: 9356 f6bd d3f9 dc39 0e7b a03d 9cde fdbd
000003e0: 4a82 173d 7bac 283d 414b 363e adfb de3d
000003f0: 929d 50bd 4cef 833e 3d0f 133d 8ad3 bf3c
-0.06779756 0.10777995 0.13056128 0.053545207 0.053376183 0.06469741 -0.076891266 0.12675084
0.07609697 0.019928709 -0.0048996788 -0.09544731 -0.063514315 -0.045943 0.05964672 -0.009233764
0.097724386 0.005699153 0.021456076 -0.007625235 -0.07864711 -0.032486964 0.042836905 0.028168794
-0.009711424 0.2408925 -0.09484425 -0.108075306 -0.04082893 -0.045103762 -0.16631576 0.06008905
-0.05417597 0.09448197 0.020357234 -0.005519159 -0.123882025 -0.044444136 0.022922086 0.10120299
-0.04333712 -0.084695496 -0.022203414 0.119380236 0.0051604398 0.014196783 -0.07967601 -0.07847503
-0.052861262 -0.007423703 0.031153413 -0.07280993 0.0024828354 0.095566235 0.046193082 0.080322094
0.04594641 -0.09250089 0.053050026 0.04195698 -0.049796615 0.05850839 -0.086877465 -0.004387986
-0.029993126 0.092919245 0.09090857 0.051754832 -0.066465884 0.05369353 -0.017988777 -0.05485451
0.10300681 -0.0052909134 0.00417948 0.021588229 0.1665187 -0.0072250203 -0.16671762 0.02773026
-0.016706944 0.1426412 -0.04451494 -0.058085214 0.006809335 -0.09085299 -0.0084856115 -0.046921205
-0.058033004 -0.07029908 0.012763473 0.0011696679 0.027571574 0.01750685 0.05946341 0.004745576
-0.08035249 -0.042376194 0.065277785 -0.05643826 0.0009960383 -0.020206625 -0.038759887 0.00904611
0.038971327 0.004122962 -0.045960873 0.0781551 0.0078049013 -0.0401297 0.010037419 -0.07550686
-0.10124504 0.07237785 0.06705551 -0.05774249 0.03228497 -0.021132875 0.06915681 -0.029709514
-0.06303624 0.011483029 -0.017279612 0.028181128 0.03548515 0.021225937 -0.08151099 0.017322056
-0.036296044 -0.06536565 -0.13907108 -0.007285249 -0.059460156 -0.0035064295 0.04860469 0.074923016
-0.0990954 -0.095920436 -0.0010274961 -0.0180355 0.009135353 -0.2632104 0.0056062075 0.001991395
-0.01650291 0.089428075 -0.11998754 0.0025131954 -0.028041651 -0.061670903 0.008691578 0.02689477
-0.021320265 0.058696736 0.115315475 -0.059822507 0.08892198 -0.08399494 0.10262012 -0.0004595352
0.019287296 -0.047297437 0.13995396 0.10743597 0.05210558 0.081472896 0.0919033 0.070186116
0.0518942 -0.09083279 -0.060013913 -0.018222649 0.077818975 -0.035303053 -0.028535075 0.072763
0.11315679 -0.049317643 -0.11451648 -0.0791844 -0.10055769 0.013776182 0.0065408363 -0.053292654
0.006312042 0.0029640466 0.020001838 -0.024801187 -0.061104685 -0.06895676 -0.041566044 0.056580275
0.007897858 0.08527491 0.0234042 0.053340822 0.030131927 -0.091092855 0.02257621 0.0759065
-0.066132516 0.05904256 -0.07633072 0.040007826 -0.03326529 -0.08874245 -0.13085106 -0.031716865
0.09786241 0.13497956 -0.052998524 -0.0783461 0.015865656 0.043017033 -0.09178798 0.047360614
-0.059813518 0.10990422 -0.07186909 -0.08489509 0.01698272 -0.032998044 0.057642654 -0.07094766
0.120810114 -0.13826275 -0.25047398 -0.0550032 -0.14804256 0.06896523 0.08558527 -0.16227536
-0.07779176 -0.14989457 -0.06491861 0.019239321 0.093395695 0.0030219138 0.04434204 0.034309555
3.2442008e-06 0.04190768 -0.077988885 -0.071562834 -0.120282315 0.00042147803 0.07835971 -0.12395975
0.036989488 0.041180115 0.17802145 0.10887847 -0.05093152 0.25768507 0.035903204 0.0234163

dense_output.0.bias f4 [100]
00000000: 9d30 b3bb ce15 a6bd f38d d1bc ef16 60bd
00000010: d185 2c3e 233c 24bc 0a47 34be 4448 013d
00000020: 56e3 ef3c c9e5 7dbe e1f9 c8bd 7710 98bd
00000030: b150 8ebe 83dd 12bc 6e89 843d 945c 09be
00000040: e6c1 d9bd 20d9 23be a1f7 85be 32ed bbbe
00000050: 4ae4 753d 1496 2abe 9d98 523e fef0 3f3e
00000060: 8af7 8f3e 6e2b 18be 7066 60be fdf6 30be
00000070: d557 19be ce9a a3bc a9c0 4fbe fa2c a73b
00000080: 1a97 4dbe 1681 d9bc ef07 9bbe 7863 c6bd
00000090: d8d2 c4bd f665 83bd cb96 1cbe 35dd 7fbe
000000a0: 755d e3bb bfad 883e 34c1 4f3d e1de 79bd
000000b0: cd6c debd 0b80 b83d 3760 4fbd 5f6f a8be
000000c0: 1e05 24be 70d9 8cbc 30aa 85bd a183 8e3e
000000d0: b1ef 1dbe 7623 213e a182 3bbd d235 05bd
000000e0: a8a2 18be 64dc 963d b0e4 b7bd 2adc a03c
000000f0: e978 eebd 2df3 c23d c437 2dbe 4e0c adbd
00000100: 230a 2fbe deaa 10be 4169 38be 20d9 87be
00000110: b6c1 bbbd 5cca d0bd 3cba a8bd 832c 8a3e
00000120: 64f4 ffbd 7d6b acbd ac93 103e 997c 43be
00000130: befc 29be 5838 3ebe f02a f1bd 95d1 69be
00000140: 203a f4bd 39b4 5e3e 22df 053d ba9d e9bd
00000150: 4602 373e bd43 96bd 9b9e 5cbe fd3c 99bd
00000160: c618 4ebe 7021 933e 9eb3 a2be a69b 14be
00000170: 3caa 6dbe a1ca 36be 5fc3 10be 8d8e 4e3c
00000180: 7e87 adbd 18d6 67be d659 62be ee56 07be
-0.0054684416 -0.08109628 -0.025580382 -0.05470937 0.16847922 -0.010024103 -0.17605224 0.03156306
0.029283207 -0.24794687 -0.098132856 -0.074250154 -0.27795938 -0.008963945 0.06471525 -0.13414222
-0.10632686 -0.16000795 -0.26165488 -0.36704403 0.060032167 -0.16658813 0.2056603 0.18744275
0.28118545 -0.14860317 -0.21914077 -0.17281719 -0.14974912 -0.019971278 -0.20288338 0.005101797
-0.20077172 -0.02655081 -0.3027949 -0.09686941 -0.09610528 -0.06415932 -0.15291898 -0.24986728
-0.006938631 0.26695058 0.050721362 -0.06100357 -0.10860596 0.09008797 -0.050628867 -0.3289747
-0.16017577 -0.017193526 -0.06526601 0.278348 -0.15423466 0.15736184 -0.045778874 -0.03252203
-0.14905798 0.07366255 -0.089791656 0.019636232 -0.116441555 0.09519038 -0.16915804 -0.084496126
-0.1709371 -0.1412768 -0.18008901 -0.2653284 -0.09167807 -0.10194847 -0.082386464 0.26987085
-0.12497786 -0.08418939 0.14118832 -0.19090499 -0.1660032 -0.18576181 -0.11775768 -0.22833855
-0.11925149 0.21748437 0.0326835 -0.11407037 0.17871961 -0.07337139 -0.21544878 -0.07482336
-0.20126638 0.28736448 -0.31777662 -0.145125 -0.2320947 -0.17850734 -0.14137028 0.012607229
-0.08473109 -0.22640264 -0.22104582 -0.13216755

dense_output.3.weight f4 [1, 100]
00000000: 42d4 e5bb 4fe8 12bc 417b 25bd 0775 533c
00000010: 8128 cd3c fd57 363d bb63 d23b 9d7d 86bb
00000020: f715 bcb8 0ddc debc d242 583c c202 8139
00000030: c2fc cbbd 8c26 673d 60bd b33b 1e4c cc3a
00000040: f5f4 aebb 3f64 6fbc c4b1 c7bc 7063 1dbe
00000050: d1ce 943d 8065 9fbb d5bc 6a3d 6a59 433d
00000060: ce62 3b3d 4f3c 09ba 46fc a3bd d6ab 30bb
00000070: 32ab a53c b685 28bd 3bd6 debb abc9 bfba
00000080: c7a7 78bc 4a7d b93b e441 c9bc f3b1 553c
00000090: 86de 16bc 7c77 a6bb c8b0 68bc 89cd 53bc
000000a0: 052a fbba f443 0c3d b293 493b 54a4 0b3c
000000b0: 3656 3cbc bd78 ab3c f368 0eba 96fa debd
000000c0: 3b71 743b 3fee 2c3b 9c08 af3c b88a 323d
000000d0: e30e 8abb 3fda 3c3d 0827 abbb cf3b 0a3c
000000e0: 20f2 84bd f6bf 3d3c a72d 4e3a 7ac2 253c
000000f0: e6d6 093b 059f a73d ca6b d13b 4cdf b73a
00000100: 7e58 aabb a1b6 bebb 4bba 80bc 934a 97bd
00000110: 448e dc3c f09d 9d3b 3c21 d13c 4e31 5a3d
00000120: 13dd 8c3b ff11 7fbb 090b 4c3d d24d 41bd
00000130: ae41 a53c 5a39 c2bc ca21 d73c d65b 87bb
00000140: a016 c2ba 7c20 f23c c345 563d f48f a4bb
00000150: 02ea 943d 66a9 6a3d 5cd7 d0bc 9b7a 0c3d
00000160: 252e e3ba 38f1 5b3d 81ec 89bd 67b5 fb3b
00000170: e3c9 01bc 032c 2a3c f264 0f3d b2ef b93d
00000180: 4e19 513d 4251 b0bc 56a5 613c 343d 00bb
-0.0070138285 -0.0089665195 -0.040400747 0.012906319 0.025043728 0.044517506 0.00642058 -0.0041043297
-8.96863e-05 -0.027204538 0.013199525 0.00024606852 -0.09960319 0.056433246 0.0054852217 0.001558665
-0.0053392597 -0.014611303 -0.024376757 -0.15369964 0.072660096 -0.0048643947 0.05730899 0.047692694
0.045748524 -0.0005235122 -0.08007102 -0.002695789 0.020223234 -0.04114314 -0.0068004406 -0.0014632245
-0.01517672 0.0056606876 -0.024567552 0.013042915 -0.009208327 -0.0050801616 -0.014202304 -0.012927421
-0.0019162303 0.034244493 0.00307582 0.008523066 -0.011495164 0.020931596 -0.0005432509 -0.10887639
0.0037298936 0.0026387123 0.02136641 0.043589324 -0.0042132004 0.046106573 -0.0052231587 0.008437111
-0.06491494 0.011581412 0.0007865079 0.010117168 0.002103263 0.081846274 0.0063910233 0.001402834
-0.0051985374 -0.005820111 -0.015713831 -0.07387271 0.026923306 0.0048100874 0.025528543 0.053269677
0.004298815 -0.0038920639 0.04981521 -0.047193356 0.02017292 -0.023708988 0.026261229 -0.0041308207
-0.0014807768 0.029556505 0.052312624 -0.0050220434 0.07271196 0.057290457 -0.025493316 0.034296613
-0.0017332478 0.05369684 -0.06734563 0.007681537 -0.007921669 0.01038647 0.03500838 0.090789214
0.051049523 -0.021523122 0.013772329 -0.001956773

exp_avg f4 [4, 1, 3, 3, 3]
00000000: 60b6 983b 7a17 3e3b b26a 383a 37bc 8e3b
00000010: 92fc fd3a 8c5b 24b9 025b 923b cda8 a93a
00000020: 0aeb 32ba e7d7 a33b cfb1 1c3b 0244 dd39
00000030: 4586 743b 9b69 8c3a 14e2 9138 445f 583b
00000040: bc5d 023a 6dee 5ab8 3cf7 973b b9cd 863a
00000050: d1ee 793a 8598 343b 1a49 65b9 cd87 2739
00000060: 4313 113b 0c90 d7b9 5012 d039 acf8 ecb9
00000070: df5b faba e4e0 1cbb 974c b9ba 18f8 bdba
00000080: 991d 33bb 4652 c5b9 7ebe d0b9 84f2 27bb
00000090: 8c81 45b9 79bc ceba d211 14bb 4f4e 05ba
000000a0: 87be 9eba 87a6 2fbb e543 1fb9 68df 44ba
000000b0: a475 46bb 7195 ec39 66d8 bcba 3f7d f4ba
000000c0: aa68 a338 6d30 8bba aa96 11bb baad 9bb9
000000d0: 84f1 a2ba 70d0 26bb 2579 8bbb 1612 1fbb
000000e0: 23a3 1ebb 234c 6dbb 0f87 14bb 563c daba
000000f0: 9900 2abb 984b 0cbb 1d91 06bb 3436 94bb
00000100: 7c24 2fbb d95d 31bb a815 8abb 4dc7 08bb
00000110: 8f89 08bb aea2 62bb 65c7 13bb 5fa2 15bb
00000120: 79eb 89bb 5ce4 38bb 4531 40bb 0592 6dbb
00000130: 00bc 0dbb 4a24 28bb d9d1 53bb 4d2c 06bb
00000140: 763c 44bb 6e5d c437 394b deb7 c9ff 6cba
00000150: 96a7 c4b8 4979 1739 16d2 9938 7be8 9436
00000160: e5ca c439 fa81 123a cd30 1f3a 9eab a13a
00000170: 3ca2 283a 9ddf 153a e8a7 ae3a c8bf fb3a
00000180: 4cd0 883a 0d4c 883a a671 f93a 3587 123b
00000190: 69ac e13a b782 213b 0159 203b b713 193b
000001a0: 4286 563b 93d1 0c3b 9d4a 0e3b fd88 393b
0.0046604127 0.0029005692 0.0007034942 0.004355933 0.001937764 -0.00015674363 0.0044664154 0.0012943983
-0.00068251847 0.005000103 0.0023909693 0.00042203075 0.0037311476 0.0010712625 6.956249e-05 0.0033015767
0.0004973074 -5.21973e-05 0.004637627 0.0010284699 0.00095341826 0.002755673 -0.00021866374 0.00015976951
0.0022136725 -0.0004111532 0.00039686495 -0.00045198703 -0.0019100866 -0.0023937756 -0.0014137205 -0.0014493493
-0.0027330874 -0.00037636067 -0.0003981478 -0.0025626728 -0.00018835644 -0.0015772722 -0.002259363 -0.0005085216
-0.0012111225 -0.002680214 -0.00015188714 -0.0007510097 -0.0030282522 0.0004512477 -0.0014407753 -0.0018653049
7.791941e-05 -0.001061929 -0.0022215047 -0.0002969334 -0.0012431596 -0.0025453828 -0.004256385 -0.0024272255
-0.0024206124 -0.003620871 -0.002266351 -0.0016650062 -0.0025940298 -0.0021407362 -0.0020533272 -0.004523063
-0.0026724627 -0.0027063994 -0.0042140074 -0.0020870746 -0.0020833944 -0.0034581828 -0.0022549268 -0.0022832376
-0.0042089787 -0.0028212285 -0.0029326242 -0.0036250365 -0.002162695 -0.0025656396 -0.0032321124 -0.0020473183
-0.0029943264 2.3408527e-05 -2.649949e-05 -0.00090408005 -9.3772236e-05 0.00014445664 7.33474e-05 4.437808e-06
0.000375352 0.0005588826 0.00060726405 0.0012334471 0.0006432866 0.000571722 0.0013325186 0.0019206936
0.0010438054 0.0010398641 0.0019031062 0.0022358422 0.001721752 0.0024644563 0.0024467113 0.0023357698
0.0032733832 0.002148722 0.0021711953 0.002831041

exp_avg_sq f4 [4, 1, 3, 3, 3]
00000000: 3a6a 2f39 8053 2039 a087 3039 6281 2039
00000010: b762 0c39 403c 1c39 809d 1a39 9665 0b39
00000020: bf3b 1939 b23b 2b39 9235 2139 04c4 3d39
00000030: 3d14 1939 8623 0f39 95fc 2d39 a65a 1539
00000040: 35a3 0d39 174d 2a39 5be2 1d39 fd1a 1239
00000050: 52ea 3239 92c6 0b39 7902 0839 aae9 2c39
00000060: 2187 0839 a2f0 0339 bca3 2b39 9c35 6239
00000070: 7eab 9939 cd78 a839 a9b7 4039 39dd 7439
00000080: 07f0 9339 5c55 8139 5d09 8239 989a 9a39
00000090: d9b3 6b39 6308 bb39 b73a a239 7022 3539
000000a0: 652e 9839 e414 9239 359f 6539 53a0 9639
000000b0: c676 9a39 7b38 9239 f45b c339 48bc 8c39
000000c0: cbb7 5a39 f351 a339 fc35 7a39 1fe0 6f39
000000d0: 0b77 9f39 c267 8a39 6dd3 a339 134a 3c39
000000e0: a3ee c838 cb75 9a39 64a4 2639 8835 ac38
000000f0: e506 9539 e9c0 2f39 6cce c538 bc98 a239
00000100: e744 1439 644d c138 6b40 9739 b2ee f838
00000110: a803 a238 7637 9439 0404 0639 93d7 ba38
00000120: 8a82 8739 b132 fb38 3c8d d938 8915 7639
00000130: 76e1 ce38 87a9 ba38 6c62 7739 cf33 e238
00000140: 22f1 d338 f224 a739 01f2 a439 03ab b739
00000150: eaf5 b139 4fc8 9239 b7ea 9239 5609 8f39
00000160: b235 4a39 cac9 4d39 65f7 bc39 68eb bb39
00000170: 75de c339 0f7a cc39 36c3 aa39 1b30 9739
00000180: 1dba a839 9c85 7339 4d52 4c39 8327 e539
00000190: 93a1 d039 50c1 dd39 5db0 f739 c4c1 b939
000001a0: 4054 aa39 615d d239 9746 8139 d713 6d39
0.00016728873 0.00015289895 0.00016835192 0.00015306988 0.00013388215 0.00014899764 0.00014745258 0.00013293917
0.00014613474 0.00016330069 0.00015374113 0.00018097466 0.00014598756 0.00013650776 0.0001659266 0.00014243516
0.00013507607 0.00016241182 0.00015057011 0.00013933699 0.00017062694 0.00013330046 0.00012970892 0.00016490245
0.0001302031 0.00012582776 0.00016368827 0.0002157301 0.00029310206 0.0003213346 0.00018378966 0.00023352065
0.0002821686 0.00024668395 0.00024802508 0.0002948835 0.00022478345 0.00035673668 0.00030942794 0.00017274334
0.00029026266 0.00027862855 0.00021898451 0.0002872968 0.00029461662 0.0002788937 0.0003726181 0.0002684316
0.00020858568 0.0003115084 0.00023861969 0.00022876308 0.00030415537 0.00026398717 0.00031247307 0.00017956672
9.581193e-05 0.00029460932 0.00015892234 8.21157e-05 0.0002842463 0.00016761165 9.432141e-05 0.00031012844
0.00014140048 9.217372e-05 0.0002884896 0.00011870022 7.725443e-05 0.0002827008 0.00012780732 8.909325e-05
0.00025846466 0.00011978055 0.00010373673 0.0002346841 9.864841e-05 8.900748e-05 0.0002359242 0.0001078617
0.000101061785 0.0003188025 0.00031460825 0.00035031894 0.0003394329 0.00027996532 0.00028022166 0.0002728204
0.00019284224 0.00019625496 0.00036042478 0.0003584281 0.00037359042 0.00039000853 0.0003257037 0.00028836806
0.00032182122 0.00023224059 0.00019485615 0.00043707722 0.00039793234 0.00042296434 0.00047242912 0.00035430316
0.00032487698 0.00040123894 0.0002465739 0.00022609472

exp_avg f4 [4]
00000000: c5d1 bd3b 0cb7 11bc bb7f 51bc 21d8 993b
0.0057928287 -0.008893739 -0.012786801 0.004694954

exp_avg_sq f4 [4]
00000000: 418d c83b 495e 263c f303 773c 5074 de3b
0.0061203544 0.010154315 0.015076625 0.006788768
