models/mvsec/indoor_flying2/indoor_flying2_stereo_even_model.pth (torch, 862766 bytes, 27 tensors)

conv3d.0.weight f4 [4, 1, 3, 3, 3]
00000000: 0f4e 1abd 43c0 1fbc 0d59 0e3e 52eb 203e
00000010: 2335 09bb 7c18 4abe 864c a0bd 6d1a d23d
00000020: 5417 a13c 7cdc b4bd c793 0abe af19 573e
00000030: 174c b63e 6262 b6bd 8f95 b5be 6ae6 8a3e
00000040: 1f7c 8dbd f972 8ebd d9d9 22be 41d9 2fbe
00000050: 86d5 793e e76e b93e d916 96be cca7 11be
00000060: b859 af3e 8470 6fbe 24bb 17be f6fd 2abd
00000070: e2b0 683d 7c2e 343d 09ba 693d 7982 ef3b
00000080: 3513 55bd 75fd 65bd 06a0 6b3c d2d9 fabc
00000090: fa70 2bbd c703 9abd aaae 96bd 0729 b1bd
000000a0: b91b aebd 891d b23c d38d 683d 6a6c af3c
000000b0: 0a1e 49bd 95db de3c 0067 2e3d 0ebc f53c
000000c0: f688 3ebd 6a88 67bd 5b99 3dbd bca6 b6bd
000000d0: 1b0c febc b392 94bb 68bf 263c 205e 11be
000000e0: bf19 37be ed4a 423d 6f6f af3d 3f7b 1dbc
000000f0: e454 cbbd 062f ef3d 6e15 3f3d 63a3 9cbd
00000100: fc8c 92be bda3 b83d 5f5c 1ebe b809 d5bd
00000110: 46a5 153e 15f5 e3bc b8e6 143e c018 603e
00000120: 0ee3 2ebd 531f 47be 2b73 803e e28d 55be
00000130: a7d9 77be 9652 743e 5f71 9f3c 1582 093d
00000140: 466c 733e 2e7d 8abe 560e b1be 73bb bdbe
00000150: ed4e 64be dca3 55be 4174 b8be df2b 49be
00000160: 9c24 65be 3792 a2be d478 2a3b 1b82 793d
00000170: 9656 673d 46dc 3f3d a8bd 3dbd 4799 263d
00000180: 9076 1bbb 1322 13bd 30e9 be3b f6e8 de3e
00000190: dd17 9d3e 821e c23e fbb7 a13e 7173 703e
000001a0: c784 b93e c09b 8d3e 9b32 903e 8248 b73e
-0.0376721 -0.009750429 0.13901158 0.15714768 -0.0020936213 -0.19735903 -0.07827096 0.102589466
0.019664444 -0.088311166 -0.13532935 0.21005891 0.35604927 -0.08905484 -0.35465667 0.27128917
-0.0690844 -0.06955523 -0.15903415 -0.1717272 0.24397859 0.36217424 -0.29314306 -0.14224166
0.34248137 -0.23382765 -0.14817482 -0.041746102 0.056809314 0.043989643 0.057062183 0.0073092547
-0.05202027 -0.05614992 0.014381414 -0.030621443 -0.04185579 -0.07520252 -0.07357533 -0.086504035
-0.085013814 0.0217426 0.05677588 0.021414 -0.049100913 0.027204314 0.042578697 0.029996898
-0.046517335 -0.05652658 -0.04628883 -0.08918521 -0.031011632 -0.0045340895 0.010177471 -0.14196062
-0.17880915 0.047434736 0.08566176 -0.009611904 -0.09928301 0.11678891 0.046651296 -0.07648351
-0.28623188 0.090156056 -0.15464924 -0.10402244 0.14613828 -0.027826825 0.14541137 0.21884441
-0.042697005 -0.19445543 0.25087866 -0.20854905 -0.24204122 0.23859629 0.01946324 0.03357132
0.23771772 -0.2704863 -0.3458125 -0.37057075 -0.22295733 -0.20863289 -0.36026195 -0.19645642
-0.22377247 -0.31752178 0.002601196 0.060915094 0.05647906 0.04684093 -0.04632345 0.04067352
-0.0023721792 -0.035921168 0.005826138 0.4353711 0.3068227 0.379139 0.31585678 0.23481537
0.36234114 0.2765789 0.2816361 0.35797507

conv3d.0.bias f4 [4]
00000000: 4731 e2bc 5fd7 a4bd c5ad 82bd 4efc c03a
-0.027611388 -0.08048891 -0.063808 0.001472363

gru.weight_ih_l0 f4 [300, 100]
00000000: bdcf 5e3d d374 d53c 276f c33e 8ed9 b03e
00000010: ec0e f2bd 6326 6c3e 082e 7e3e 6e69 e43e
00000020: 4a03 963e 3a1c 813b 13c8 a73c e4da 07bd
00000030: 15cc 283e 850f c13d 0df2 4c3e 34a8 a83e
00000040: 54bd 243e 6d0e bb3c d4c4 3d3e a048 8b3e
00000050: 9ac2 c6bd 53a9 673e a772 933d d24b 54bd
00000060: 0ef5 07bd ef25 9dbb 1957 13bd 34a0 88bc
00000070: 35a5 13bd d3d1 e7bc 2241 e03c ff3c d8bb
00000080: 263f 93bb a496 993c f8c2 af3c 07d5 eabc
00000090: d910 d63c f8ef c4bc 6e7c b93c 55c3 033d
000000a0: 61a3 85b7 979e 48bc 96ef 173d 85d0 043c
000000b0: 721a d1bc a7be eebc 27f3 0a3d 1639 adbc
000000c0: 5c42 b1bc f435 8b3c 272c 933e 305b e5be
000000d0: acb9 53be 34a4 0ebd 59c4 5dbd 1389 273d
000000e0: 282f 22be 94ca eebd 4284 14be 184b bdbd
000000f0: 65c3 803e 231c aebc f9e9 9c3c 1022 9b3d
00000100: b6dc e43d 8721 e3bb 9481 1abe dc56 16bd
00000110: 4c43 883e 1aae 963e 7d82 17be a583 3cbe
00000120: 5ee6 1c3e 8023 7a3e cb87 893e 19ea 7a3e
00000130: 7c8b 2e3e 4034 703e c85b 853d b36d 583e
00000140: f6c5 4a3e 4f69 f43c 1596 a7bc 6890 a8bd
00000150: d0dd 9c3b 8a9e a03e cdd4 313e 38df 0d3e
00000160: 3a03 d83d 356d 4a3e 2218 423e 7bc8 263e
00000170: 396f 323e 02fe 4e3e e81c 553e d5df 5f3e
00000180: 3628 b53e 7ad3 c13e bbbb c53e 7212 893e
00000190: ff23 a7be 0165 69be 7716 26be 9510 a4bb
000001a0: d48f 2cbd 3ee9 0a3e 4c18 97bd 8f71 efba
000001b0: 8b48 b33d d0c1 dcbd ad8d a53d 6443 3dbd
000001c0: b1ab 8fbd 0b6e 233e df1d 02be ba5b a6bc
000001d0: 7dce 1e3d d697 4d3e b8d4 463d ca6e 2ebd
000001e0: 5d29 6cbd 4bf1 f73c d077 f93d 86f0 023e
000001f0: edd9 88bd e196 d23c 90a3 f4bc 8c87 263d
00000200: 606e ffbc a8ed ccba 235c e4bc deca af3c
00000210: 5029 ea3c b227 76bc 60fc e03c a7ec 1abd
00000220: 2245 9fbc 78aa 0abd f643 efbc 951e 3ebb
00000230: 0d7d ebbc 1960 eabc 734d 05bd 2f3e d53c
00000240: fc9a 1a3d f47d 243c 14b2 fdbb a35f 01bd
00000250: 9d8c 21bd 2d81 bdbc 36b3 99be 9a4d 9dbd
00000260: 0ad1 b8bd edab 7cbd af30 03be 0af6 be3d
00000270: f187 e83d 4c92 663d 12d1 673d 056b 463e
00000280: 444a dfbd 91dd 203d aa66 21be ff2e c23d
00000290: cee9 973d 0a0a babd 86ca 5e3d 2c98 17be
000002a0: b958 a13e 3c2f 9f3d c542 99bc c869 693e
000002b0: 0ddb edbc 6462 263e dd6f aa3d 06d2 67be
000002c0: 6e0d a5be 9cc1 cabe fcdb 89be c53d 10be
000002d0: afc9 1abf 4b22 15bf 5a24 0cbf 1be8 febe
000002e0: 3338 77be 49d4 d1be 0776 e0be cbcf bcbe
000002f0: 5a07 ddbe cf61 1cbe 003e b4be 8ddb cdbe
00000300: cfbe 09bf 8c18 dbbe 67d5 9ebd cac6 01bf
00000310: 6fc3 03bf 5091 f6be 9b3a d6be 45c5 2c3e
00000320: 05dc 6f3b c63c 09be 5728 023d ebe2 8f3c
00000330: 970b b33d 5fcc 013e 1032 db3c 7738 d43e
00000340: 1d91 903d 3b63 4c3c c42e 193e 2d1d 25be
00000350: 16b6 a93e 9274 563e 4cfe 12bd 8934 65bd
00000360: 866c 9fbe 03af fb3d a0a3 193e e098 0f3e
00000370: 85f4 72bd e1a9 33be 785f 73be a79e 7cbe
00000380: 472c 9bbc 7922 1abc 8af3 d0bc 0fb3 bd3c
00000390: fac3 bc3c 9099 c5bc 0a8b 4c3c fe5a 4d3c
000003a0: 684c 44bc 58e9 0abc 3f21 a0bb 39ef b53c
000003b0: ab14 d93c 2379 f33c decf d7bc 416f d7bc
000003c0: d630 1fbd 6729 143b 0262 1aba 1b2b 02bc
000003d0: 5af4 5a3c bae2 92bc 3908 27bd eb1c 003c
000003e0: 9826 3bbc 9bdb f3bc d78a 11be 8ede fabd
000003f0: d978 9cbb 360d 3b3d 2a46 073e b495 96bd
0.054397333 0.026056683 0.3817074 0.3454098 -0.11819252 0.23061518 0.24822247 0.44611686
0.29299384 0.0039401324 0.020481145 -0.033167735 0.16484101 0.09426788 0.2001421 0.3294083
0.16087848 0.022834027 0.18532115 0.27203846 -0.09705086 0.22623186 0.071996026 -0.05183012
-0.033192687 -0.004795782 -0.035971735 -0.016677953 -0.036046226 -0.028298294 0.027374808 -0.006599068
-0.004493612 0.018748589 0.021455273 -0.028666032 0.02613108 -0.024040207 0.02264234 0.032168705
-1.5930915e-05 -0.012244842 0.03709372 0.008106356 -0.025525305 -0.029143644 0.033923294 -0.021145385
-0.021638088 0.0169935 0.28744623 -0.44796133 -0.20676297 -0.034824565 -0.05414233 0.04090221
-0.15838301 -0.116597325 -0.14503577 -0.092428386 0.25149074 -0.021253651 0.019154536 0.07574856
0.1117491 -0.006931487 -0.15088493 -0.03670393 0.26613843 0.29429704 -0.14795871 -0.18409593
0.15322253 0.24427605 0.26861414 0.24503364 0.17045397 0.23457432 0.065116465 0.21135597
0.19802079 0.029835371 -0.020457307 -0.08230668 0.0047871843 0.31370956 0.17366333 0.13854682
0.105474904 0.19768222 0.18954518 0.16287415 0.1742524 0.20214084 0.20811808 0.21862729
0.3538224 0.37856656 0.3861979 0.26771885 -0.3264465 -0.22792436 -0.16219507 -0.0050068595
-0.042129353 0.13565537 -0.07377681 -0.0018268096 0.08754071 -0.10779154 0.08083663 -0.046206847
-0.070151694 0.15959947 -0.12706707 -0.02030741 0.03877114 0.20077452 0.04854271 -0.042586125
-0.057656635 0.030266425 0.121810555 0.12787065 -0.06682191 0.02570671 -0.029863149 0.04065661
-0.03118056 -0.0015634792 -0.027875965 0.02145904 0.028584152 -0.015024113 0.027464092 -0.037823346
-0.019442145 -0.033853978 -0.029207211 -0.0029009928 -0.028746152 -0.028610276 -0.032544564 0.026030628
0.03774546 0.010039795 -0.007742176 -0.031585347 -0.03944074 -0.023132885 -0.3001954 -0.07680817
-0.09024246 -0.0616874 -0.1281154 0.09324272 0.11354054 0.056291863 0.05659587 0.19376762
-0.10902837 0.039273802 -0.1576182 0.0948162 0.074176416 -0.09083946 0.05439236 -0.14804143
0.31513003 0.07772681 -0.018708596 0.22794259 -0.029035116 0.1624847 0.083221175 -0.22638711
-0.3223681 -0.39600837 -0.26925647 -0.14086063 -0.60463995 -0.5825545 -0.5474297 -0.49786457
-0.24142532 -0.40982273 -0.43840048 -0.36877283 -0.4316967 -0.15271686 -0.35203552 -0.40206566
-0.53806776 -0.42792165 -0.07755547 -0.50693953 -0.51470083 -0.4815774 -0.41841587 0.16872127
0.0036599648 -0.1340209 0.031776752 0.017564258 0.08742445 0.12675618 0.02675727 0.4144933
0.07058928 0.01247483 0.14959246 -0.16124411 0.33146733 0.20942906 -0.035887048 -0.055958305
-0.31137484 0.1228924 0.15003824 0.14023161 -0.059315223 -0.17545272 -0.23766887 -0.24669896
-0.018942012 -0.009407633 -0.025506753 0.02315667 0.023042668 -0.024121076 0.012484321 0.012533901
-0.011981107 -0.008478485 -0.0048867757 0.022208797 0.026499113 0.029720848 -0.026344236 -0.026298167
-0.038864933 0.0022607686 -0.0005889238 -0.007944847 0.013363922 -0.017930377 -0.040779326 0.007819395
-0.011422776 -0.029767802 -0.1421312 -0.1224948 -0.0047751484 0.045666896 0.13210359 -0.07352772

gru.weight_hh_l0 f4 [300, 100]
00000000: 1a6c 4b3d 7d7d 173f 2be0 e83e d8be b83e
00000010: 1edc 99bb e0c0 81be 4207 36be 3449 ab3e
00000020: 5787 c33e 7a0a c9be f270 3cbd 099f 383d
00000030: 6623 2e3d d7aa 9ebe e10c 5c3d 20a8 66bc
00000040: 3fdf dabd bbd8 a33e 048d 0dbd 96c9 9a3d
00000050: a508 dd3e f62d a9be 85da 433d 2941 933d
00000060: 9b9f a73d d0a8 0d3e 4448 953e bdf0 23bf
00000070: 057d 713d 3845 6cbe 6b71 0c3e 0986 65bd
00000080: 720f e9bb 2f3f 03bf 4541 183e f5cd 8abc
00000090: fb0e 9dbd 8f5c f1bd e7c4 903d 6176 9fbd
000000a0: c240 37bd 17de 5fbe 4b60 8e3d e631 843d
000000b0: e5f7 ec3c c928 8b3b f121 f93b d0ca 55be
000000c0: 232b 253e b7f9 cbbe 88c4 363e f7ec cb3b
000000d0: f61b fa3e b764 19be e15f 00bf e9a5 93bc
000000e0: 4c5c 2a3e e813 1f3e 1ffb a5be 4a6f e63c
000000f0: b248 d53d c4b5 643e 226a adbe 3665 81bd
00000100: e245 833e 340e 6a3e 2c39 d33d 0c15 3cbe
00000110: ad50 ffbe b7b4 72be ea29 363c 0f12 97be
00000120: b02e cd3d 8b71 f1be a3f3 9abe ab05 813e
00000130: 4918 39bd 2901 9cbd 16c4 a43d 970c 5e3d
00000140: 76d7 dc3d 68b8 183f 958d cd3d 27a2 a6be
00000150: 26f5 453e 7691 9c3e a12f 063d 80b5 6e3e
00000160: 844a 343d 1dd9 a43d 3267 bc3d 2773 313e
00000170: b8b7 f73d a08b dabe 5ea0 b63e b9e1 2bbf
00000180: 447d 153e 2545 86be 72f6 9abe e7cd 043e
00000190: 94f9 40bd 974c 0d3f 26c4 983e fdb2 c9bb
000001a0: b854 5bbe 1f92 75be 0e81 9cbd f070 10bd
000001b0: 409b 7abe 0b41 5e3e b1d1 1c3e 697b 643c
000001c0: abcf 73bb 3709 4c3b 2cee c63d 5deb 26be
000001d0: 9355 1bbe acb3 ec3d e379 28be caf6 b4bd
000001e0: 7750 da3d a8a5 9dbd 1594 df3c 9336 20bd
000001f0: 87fd b2be ca62 5fbe 0f50 a13e 55fc 27be
00000200: 78d6 eebc 94f7 4cbe b8b3 cdbd 7b16 883d
00000210: b29a 1bbe 0b7d b0bd 2628 8f3e cd45 433e
00000220: a6de d43b d0d1 283e 3eb3 a83d c0c9 033e
00000230: b906 843d 691e 833e 2fbe 1bbd 36a5 273e
00000240: 5e2e 8d3c 5382 2fbe 69b9 0ebe b03b 29be
00000250: d290 993d 3797 c43b b5fe c03e 72c1 533e
00000260: 5961 dc3d 3c84 89be dea1 72be 38d2 7abe
00000270: dc53 2b3e e9f9 78bd 5648 7a3e 3d97 34bd
00000280: 666c cd3c 1950 a4bd f761 34bd 50cd dfbe
00000290: d637 9a3e 19f4 943e 3963 0e3e 9d23 c7bd
000002a0: 322b 1cbd d243 1d3d 273d 09bf 7a0d 35be
000002b0: 787e 683e 475f 42be 1403 acbe 6bb6 3b3e
000002c0: 48a0 01be 8a09 c0bd 9666 b03e 39e0 32be
000002d0: 12b6 1cbe d2fa 9d3c 69c9 873e 6ced 3a3e
000002e0: c85f 7abe 5da9 513e 7b3c 0c3f 114a c8be
000002f0: 4cdf 823e 8974 353e 4ba3 afba dee0 31bd
00000300: 7421 d43d b471 a73c cb37 933d e09a 913e
00000310: faa8 a43d 128d ab3d 0673 e23c a8d1 aabd
00000320: 6c13 e33c bd8f 05bd 887f 78bd ba43 043d
00000330: 68be b0be 0e58 02bd db9e e23e 9105 49bd
00000340: 6a9b 713e 9cda fa3d 5889 bdbe bf24 e1bd
00000350: f383 1dbd 5d73 3fbd dd50 3c3d 4cf4 633e
00000360: bc09 9d3e 818a 6ebc d9fe 85bb 3006 963c
00000370: 4565 a9be 63da 023e fed7 a5bc d1bf eebd
00000380: 4010 b83e 72c9 b0b9 d0de 9e3e 32af c5bd
00000390: 31fd 9b3d acaa 3abe 74ba bebd 2b9d 9cbe
000003a0: 2477 2cbc 716a 0bbe 090d 123e 607a 333e
000003b0: f0c6 e3bc cdc3 04be 0024 81be 77d3 2abe
000003c0: 5c9f 09be 8153 d3be a878 4e3e b7b3 823c
000003d0: 1a11 9abe ee44 013f 805e aebc ea6b 2c3e
000003e0: d315 f5bc 27a9 67be 8ac7 ffbe 6664 33bd
000003f0: ab4e b7bd 6ac7 5e3e 29a2 b9be f2b5 db3e
0.04966364 0.59175855 0.45483527 0.36083102 -0.0046954295 -0.25342464 -0.17776206 0.33454287
0.38189194 -0.39265805 -0.04600615 0.045073543 0.042514227 -0.30989715 0.05372322 -0.01407817
-0.10687112 0.3200129 -0.03455831 0.07557981 0.43170658 -0.33042878 0.04781582 0.07190163
0.08184739 0.13833928 0.29156697 -0.6403921 0.05895712 -0.2307328 0.1371514 -0.05603603
-0.007112437 -0.51268286 0.14868648 -0.016943911 -0.07668873 -0.11785232 0.07068806 -0.07786251
-0.044739492 -0.21862064 0.0695196 0.0645483 0.0289268 0.0042468053 0.007602923 -0.20878148
0.16129737 -0.39838955 0.17848408 0.006223317 0.48849458 -0.14979826 -0.501463 -0.018023448
0.16636771 0.15534937 -0.32418153 0.028129239 0.10414256 0.22334963 -0.33870035 -0.063181326
0.25639254 0.2285698 0.10313639 -0.18367404 -0.49866238 -0.2370175 0.0111183915 -0.29505965
0.100186706 -0.4715694 -0.30264005 0.25199637 -0.045189176 -0.07617409 0.08045213 0.054211225
0.107832834 0.5965638 0.1003677 -0.32545587 0.19331798 0.30579728 0.032760266 0.23311424
0.044016376 0.080492236 0.091993704 0.17329083 0.120955884 -0.4268465 0.35669225 -0.671413
0.14598566 -0.26224628 -0.30266148 0.1296917 -0.047113016 0.5519499 0.2983715 -0.0061553703
-0.21419036 -0.23981522 -0.07641803 -0.035263956 -0.24473286 0.217045 0.15314366 0.013945439
-0.0037202637 0.0031133422 0.097133964 -0.16300721 -0.15169363 0.11557707 -0.16452746 -0.08836134
0.10659879 -0.07697612 0.02729229 -0.039114546 -0.3495905 -0.21815029 0.31506392 -0.16404851
-0.029155001 -0.20016319 -0.10044044 0.06644913 -0.1519573 -0.086176 0.27960318 0.19069596
0.0064962683 0.16486287 0.08237313 0.1286993 0.06446595 0.2560914 -0.03802317 0.16371617
0.017234024 -0.17139558 -0.13937916 -0.16526675 0.074983254 0.0059994715 0.37694326 0.20679262
0.10760755 -0.268587 -0.2369456 -0.24494255 0.16731209 -0.060785208 0.24441656 -0.044089545
0.025076102 -0.0802309 -0.04403874 -0.43711329 0.30120724 0.29092482 0.13905038 -0.097235896
-0.03812713 0.038394757 -0.53608936 -0.17680922 0.22704494 -0.18981658 -0.33596098 0.18331306
-0.12658799 -0.093768194 0.34453267 -0.17468347 -0.1530383 0.01928464 0.2652085 0.18254632
-0.244506 0.20474763 0.54779786 -0.39119008 0.25560987 0.17720236 -0.0013400106 -0.04342734
0.10357943 0.02043996 0.07188376 0.28438473 0.08040042 0.083765164 0.027642738 -0.0834077
0.027719222 -0.032607783 -0.0606685 0.03229115 -0.34520268 -0.031822257 0.44261822 -0.049077574
0.23594442 0.12248728 -0.37018847 -0.10993337 -0.038455915 -0.04674088 0.045975555 0.2226116
0.3067149 -0.014559389 -0.004089218 0.018313497 -0.33085075 0.1277862 -0.020244595 -0.1165768
0.35949898 -0.00033719424 0.31029367 -0.096525565 0.07616652 -0.18229169 -0.09312907 -0.3058866
-0.010526452 -0.13614823 0.14262785 0.17527151 -0.027804822 -0.12965317 -0.25222778 -0.1668223
-0.13439697 -0.41274646 0.20163214 0.015954835 -0.30091172 0.50495803 -0.021285295 0.16838041
-0.029917633 -0.2262312 -0.49956924 -0.04379692 -0.089505516 0.21755758 -0.3625653 0.4291225

gru.bias_ih_l0 f4 [300]
00000000: 0b69 a63c f332 2abd d95c 0ebe 607b 08be
00000010: c27d 13be 46e6 80bd 2e94 a4bd 3505 15be
00000020: ec53 a8bd fd0f 5ebe 4d8c 2cbe 0cad 4bbe
00000030: d3c0 8ebe 5e96 bbbe 4a2b ccbd 4462 1ebe
00000040: 02d0 4a38 c131 66be 3174 2a3e a5d5 5cbe
00000050: cd23 e5bd f985 07be 2b08 b73c 5361 6abe
00000060: 950d bcbe 1167 30be 9b27 27be 140a 4cbc
00000070: e5f1 29be 9cd8 9dbe d4a6 b93c c118 323e
00000080: ed42 81be 0004 693d 9d9e 00be 0678 92bd
00000090: 35a7 d8be c56a 8abd b010 8abd 2ee0 52be
000000a0: 3896 053e eb72 2cbd 73f9 91be 7815 2fbe
000000b0: 0c44 38be 4f12 2abe e9d6 7a3c 0d07 1c3e
000000c0: 2a51 abbb b23b cdbd 8ff9 ef3d 586c 07be
000000d0: 86d1 173e fb0f e53d bcd7 623d 7c98 76be
000000e0: 1d8f 4cbe 3a9c e1bd 6ba2 d8be 942e 22be
000000f0: 11b9 043e 54c5 60be 733f b33d e88e 44be
00000100: 7b45 43be 4adb 6abe 15b5 36be 9826 913c
00000110: 5141 80bd 7e57 24be 1943 7abe 3c58 47be
00000120: 9994 13be 5567 ae3d 53d8 d1bd 797a 74be
00000130: cd41 b9bd d579 52bd 454f 03be e2a4 03bd
00000140: 6b85 b7bd ac6a e43c 5cf3 09bc 6f5d 48be
00000150: 2211 e9be cf3c 8fbe 31a5 20be 01ba 3abd
00000160: aa6e 0dbe b66d 1fbe e58c 79be 490f 57be
00000170: 307d 97be 63f0 313d e06a b1be 735f c7bd
00000180: 26ad 8cbe fb11 03be 5e57 aabd 512a 343d
00000190: 21c2 ae3c 5280 1f3e f84c cd3e bc6a f43e
000001a0: 43f7 a43e 7cc0 7b3e e613 d7bd 6b02 c23d
000001b0: 707e 7b3e bde8 5a3e 42de 803e 3b5f bd3d
000001c0: 209f c03e 96b0 8e3e c31d b23e ab20 903e
000001d0: b4ed 9d3e a106 563e fa32 6bbe ea12 213e
000001e0: 89bc 943e 0888 163c 8ac7 3b3e 2c83 963e
000001f0: 367f 6e3e d57b 983e 7cea a33e 48c1 433e
00000200: 7033 693e f1de c53e 895b ee3e 6e84 a23e
00000210: b15f 88bc 9f47 f8bd 5159 0f3e 6e9b cc3e
00000220: fb13 4dbe f1a1 8b3e 0443 813e 548d a73e
00000230: 7815 0cbd 1f61 bc3e 681e 583e a9fb f23c
00000240: 85d0 9e3c 5691 b63e 4fe6 4b3d b507 5a3e
00000250: 6247 863e 3e3a 4d3e 3f72 063f da4e 833e
00000260: 2a53 0fbe 2113 c23e 7d2b 173f 62a9 803e
00000270: 123d debd 0499 783e 13f8 3e3e de3d 923e
00000280: 85bf 803e 2eaf 873e bf33 08be 7b7c 523e
00000290: 0664 903e 1d3a 9b3e 1192 c53e c198 01bd
000002a0: 8d78 c4bc eaba cc3e 2f3d d73e e18b c43e
000002b0: 4c21 d13e 7995 f03d bd9f b33e beba 7f3e
000002c0: 05df f8bc acc7 7dbc 2ba0 b83e da7b bbbd
000002d0: fa8e f83e 61bc 003e e72e 643e 8944 36be
000002e0: 15e7 af3e 8f8b a23e a3ca af3e d2dd 893e
000002f0: 15c8 c83e 8ebe aa3e 3359 9e3e 3ec9 ea3d
00000300: 7e66 533d a9a8 793d 5c57 0dbe b912 6e3d
00000310: 3cd0 4b3e 18ad 09bd a806 9d3e 366d 953e
00000320: 2e8b 13bc 2ac3 86be 9a5f 8dbe 1362 0c3e
00000330: 089a f43d 2000 8e3e 5f30 d63c 9cc7 e3bb
00000340: 158c 3b3e 0858 7ebe 5a5b ec3c 0df5 083a
00000350: 088d 3e3d 2097 2cbe 5a8c 8b3d 9ec2 213e
00000360: 2c8b a33d 44d7 e83b 5c4f 873e e195 e5bd
00000370: c03a 393e 622d d0bc ca52 18be dea1 4bbe
00000380: 87bb 8c3d 55ad 01bc 60d8 25bc 2e00 333e
00000390: 8629 af3c 9660 613d 0c74 9a3e 7b84 b2bd
000003a0: 5549 ea3d 9533 033e dadd ec3d 27a0 73be
000003b0: 923d 1cbe 9e9d 073e d9bb 75bd a070 5fbe
000003c0: 6061 593c 5115 febd 6ac3 853e cc07 82be
000003d0: f539 243e 6c79 0fbd a0a7 b53e 3cd8 953e
000003e0: 34b9 3c3e 4520 05bd 402d c23c 4c09 7b3d
000003f0: 2adb d4be 3e9b 12be 4d97 8a3e 6aab adbc
0.02031376 -0.041552495 -0.13902606 -0.13328314 -0.14403442 -0.06293921 -0.080360755 -0.14552768
-0.08219132 -0.21685787 -0.16850396 -0.19890231 -0.27881488 -0.3663816 -0.09969194 -0.15467173
4.8354275e-05 -0.22479917 0.16645886 -0.21565874 -0.11188469 -0.132347 0.022342762 -0.22888689
-0.36729112 -0.17226817 -0.16323702 -0.012453575 -0.16596182 -0.30829322 0.022662558 0.17392255
-0.25246373 0.05688858 -0.12560506 -0.07151799 -0.4231507 -0.06758646 -0.06741464 -0.2059333
0.13045585 -0.04210178 -0.28510627 -0.17098033 -0.17994708 -0.16608547 0.015310028 0.15237065
-0.0052281814 -0.100211516 0.117175214 -0.13224924 0.1482602 0.11184689 0.05538152 -0.24081606
-0.19976468 -0.11016126 -0.42311415 -0.1583808 0.12961222 -0.21950275 0.08752336 -0.1919514
-0.19069473 -0.22935215 -0.17842515 0.017718598 -0.06262458 -0.16049 -0.24439658 -0.19467252
-0.14412154 0.08515803 -0.10246339 -0.23874845 -0.09045754 -0.05138572 -0.12823208 -0.032139666
-0.08960994 0.027882896 -0.008419838 -0.19566892 -0.45520884 -0.2797608 -0.15688016 -0.045587543
-0.13811746 -0.15569195 -0.24370153 -0.21001925 -0.29587698 0.04344214 -0.34651852 -0.09735002
-0.27475852 -0.12799828 -0.08317445 0.04398567 0.021332802 0.15576294 0.40097785 0.47737682
0.32219896 0.24585146 -0.10501842 0.094731174 0.24559951 0.21377845 0.2516957 0.092466794
0.37621403 0.278691 0.3478833 0.28149924 0.30845416 0.20900966 -0.22968665 0.15729871
0.2905009 0.009187706 0.18337837 0.2939695 0.23290715 0.29781976 0.32014835 0.191167
0.22773528 0.38646653 0.4655421 0.3174166 -0.016647192 -0.12123036 0.13998915 0.39962333
-0.20027153 0.2727199 0.2524644 0.32725012 -0.03420016 0.36792848 0.21105349 0.029661017
0.01938654 0.35657758 0.049780186 0.21292002 0.26226336 0.20041749 0.52518076 0.25646096
-0.13996568 0.3790522 0.5905073 0.2512923 -0.10851492 0.24277121 0.1864932 0.28562826
0.25146118 0.2650084 -0.1330099 0.20555298 0.28201312 0.30317774 0.38588002 -0.031639818
-0.023983264 0.39986354 0.42038867 0.3838797 0.40845716 0.1174726 0.35082808 0.2497358
-0.030379781 -0.0154895 0.36059698 -0.09154482 0.48546582 0.12571861 0.22283517 -0.17799582
0.3435599 0.317471 0.34334287 0.26927048 0.3921515 0.33348507 0.3092743 0.11464165
0.051611416 0.060951862 -0.13802856 0.058123324 0.19903654 -0.03361234 0.3066914 0.29184884
-0.009005351 -0.26320773 -0.27612 0.13709287 0.11943442 0.2773447 0.026146112 -0.0069512855
0.18315156 -0.24838269 0.028852154 0.00052245037 0.046521217 -0.16854525 0.06813879 0.15796897
0.07985529 0.00710574 0.26427734 -0.11210228 0.18088818 -0.025412265 -0.14875332 -0.19885966
0.068717055 -0.007914861 -0.010122389 0.17480537 0.021382105 0.055023752 0.30166662 -0.08716675
0.11439768 0.12812646 0.11565752 -0.23791562 -0.15257862 0.1324372 -0.0599936 -0.21820307
0.013267845 -0.124064095 0.26125652 -0.25396574 0.16037734 -0.035027906 0.3547945 0.29266536
0.18430024 -0.032501478 0.023703218 0.061288163 -0.4157346 -0.14317033 0.27068558 -0.0211999

gru.bias_hh_l0 f4 [300]
00000000: 73ad 4ebc 2060 c93c e57f 42be 053a 0fbe
00000010: 144b 08be 7815 adbd e197 0dbe 57f9 0cbe
00000020: cad8 2bbd 20ca 49be 3fa6 69be 6d68 67be
00000030: 70f1 66be 09ea b8be 0ac6 ffbd 3e78 15be
00000040: bde0 56bc 7b4a 5bbe aa3a 2b3e 4e5c 3abe
00000050: c719 0bbe 5e0c b9bd 014f 823d 4439 58be
00000060: e30d bebe 3125 7abe 44ec 48be 67ff bfbc
00000070: a125 64be b3dd a0be 169d 913d faf5 ca3d
00000080: 59e2 88be c7d0 0f3d 6a81 c5bd bb24 5ebd
00000090: 0e06 e1be 322e ccbd 19db 7abd 6049 5abe
000000a0: 28ad 863d 973a 71bd 61b4 7ebe 0cff 62be
000000b0: 3590 41be ba5b 19be 5c3e af3c a49f 243e
000000c0: b7f9 13bc 2df4 1dbe 51f0 223e 5b15 febd
000000d0: bfa4 f63d 7453 d83d d51c 8c3d 463b 70be
000000e0: 9297 21be c0bb 0bbe 2db8 babe 0253 04be
000000f0: 7118 173e 58eb 59be 56c7 d43d 985f 3cbe
00000100: 50c1 60be 3c5e 4bbe a708 10be afa0 d63c
00000110: 9e81 bfbd 86d2 15be 2615 89be 4633 67be
00000120: 3be6 fdbd ab95 c53d dfe0 b2bd 3277 65be
00000130: e11b febd 192b d5bd 746f f3bd 68f7 f2bc
00000140: a721 81bc 89f3 1f3d 07b4 02bd 1438 5abe
00000150: ff9e f2be de0b 9cbe dfe3 68be 52b0 d2bc
00000160: 1b16 02be eec4 5abe 249d 62be cab5 27be
00000170: 0346 93be a055 b93d 8681 b1be e182 e4bd
00000180: 38b1 aabe 4365 01be dcff a0bd f77c d13c
00000190: 9c61 6a3d bfb1 223e da42 d73e 6166 f53e
000001a0: e01a 8e3e d5cc 343e 0897 f1bd e26c 2b3d
000001b0: 4510 7f3e e703 783e d583 913e 2f20 d63d
000001c0: 1d49 bd3e 941c 6c3e 7564 a63e 03a3 8d3e
000001d0: 5a3a 873e c02d 2f3e d7ee 2dbe eace 483e
000001e0: 88a1 863e 6feb 03bd 8cc0 433e 0d10 ae3e
000001f0: 786c 5f3e 5754 933e b35f a73e 2916 343e
00000200: aaae 313e 9586 a53e a09d cc3e e63e ad3e
00000210: fd8f 9ebc 3fcc dbbd 1f02 153e 875e d73e
00000220: dd7b 3abe cf3d a23e f747 733e ba51 a83e
00000230: 696a cabd 67e0 c73e 141b 533e 093c f33c
00000240: 6253 c0bc 43b9 a73e c0f8 f13d 5157 6a3e
00000250: 41fc 783e 9006 513e 1dc5 ec3e 07dc 9e3e
00000260: c23e 1abe 5885 dd3e e00d 173f 908a 8f3e
00000270: e545 ecbd 1ef3 773e 6b99 493e 347a 8e3e
00000280: fe9f 893e 6eb7 543e 3d9b 4dbe 6f79 253e
00000290: 4814 963e 62cf bb3e acc4 b83e 48b2 86bc
000002a0: 1397 e93b cf27 cb3e 0603 be3e 5886 be3e
000002b0: de32 ce3e 07a4 383e f52c b43e 1d97 613e
000002c0: 6a54 063d 4213 93bd 1221 c33e 4f4c 12be
000002d0: 0667 ff3e be6f e53d de56 443e 6c08 83be
000002e0: 8bc5 ba3e b68e b73e 16fe 933e ec01 8a3e
000002f0: 6a90 c43e ff24 973e c5c8 ac3e 39db ee3d
00000300: 6efb 4a3d f46d 283d d2ee d5bd 05d2 b73d
00000310: 70ac 383e 1a7e cabd 82d3 943e b2fb 8c3e
00000320: 7b7b 703d aedd cdbe 844f 0fbe dd17 2a3e
00000330: a436 753e 25c0 ed3e e13a 0ebd cef4 9bbd
00000340: a2c8 293e 2d1c 96be 7ce1 a63d b5d3 40be
00000350: 90bc 143e 0a48 a2bc b6c8 293e b5a3 e23d
00000360: c25e 143e 1bf1 58bd ea90 973e f3a2 70be
00000370: b7b2 583e 2b8e d4bc d14c 23be a96a 9bbd
00000380: ccea 2e3e 4231 1d3e 0445 84bc bdc2 ff3d
00000390: 9648 143d 40fa b53d 293f af3e 5863 b8bd
000003a0: e91a 933e 95c7 5e3d 7fc9 0d3e 5326 53be
000003b0: fb67 51be 5820 1e3e 4477 1fbd b042 28bd
000003c0: 883e 34bb 2a1b d8bd 0b16 443c a8c5 42be
000003d0: fbc7 1b3e 1f7c 3ebc 3dd9 9f3e 2274 733e
000003e0: b6d9 753e 1e5d 363d 3b3b 723d 56d2 923d
000003f0: 052c b1be dfba 19be c847 743e c7c8 62bd
-0.012614596 0.024581969 -0.189941 -0.13986976 -0.1330989 -0.084513605 -0.13827468 -0.1376699
-0.041954793 -0.19706011 -0.22817324 -0.22598429 -0.22553039 -0.36116055 -0.12488945 -0.1459665
-0.013115105 -0.21415131 0.16721597 -0.18199274 -0.13584052 -0.09035562 0.06362725 -0.21115595
-0.3711997 -0.2442825 -0.19621378 -0.023437215 -0.2227998 -0.31419143 0.0711004 0.099101976
-0.2673519 0.035111215 -0.096438244 -0.054234248 -0.43949932 -0.099697486 -0.061244104 -0.21317053
0.06575996 -0.058893766 -0.24873497 -0.22167605 -0.18902667 -0.14976397 0.02139204 0.16076523
-0.009031705 -0.15425177 0.15911986 -0.12406417 0.120431416 0.105627924 0.06841437 -0.23460111
-0.15780476 -0.1364584 -0.3646864 -0.1292229 0.14755417 -0.21281183 0.10389583 -0.18395841
-0.21948743 -0.19860166 -0.140658 0.026199667 -0.093508944 -0.1463109 -0.26773947 -0.22578153
-0.123974286 0.096476875 -0.08734297 -0.2240875 -0.12407661 -0.10408611 -0.11886492 -0.029658988
-0.015763117 0.039050613 -0.03190997 -0.21310455 -0.4738693 -0.30477804 -0.22743176 -0.025718842
-0.12703745 -0.21364185 -0.22130257 -0.16377941 -0.28764352 0.09049535 -0.3466913 -0.11157776
-0.33338332 -0.12636285 -0.07861301 0.025572283 0.057221994 0.15888117 0.4204319 0.4792967
0.2775488 0.17656262 -0.11796385 0.041851886 0.2490855 0.24220239 0.28420892 0.10455357
0.36969844 0.23057777 0.32498518 0.2766343 0.26411706 0.17107296 -0.16985641 0.19610181
0.26295114 -0.03220695 0.1911642 0.3399662 0.21818721 0.28775284 0.326902 0.17586578
0.17351785 0.3232924 0.39964008 0.3383705 -0.019355768 -0.10732316 0.1455159 0.42064306
-0.18211313 0.3168778 0.23757921 0.32874852 -0.098835774 0.39038393 0.20615798 0.029691713
-0.02347726 0.3275853 0.118150234 0.22884871 0.24314977 0.2041266 0.46244135 0.31027243
-0.15063003 0.43265796 0.59005547 0.28035402 -0.11536769 0.24213836 0.1968743 0.2782761
0.26879877 0.20773098 -0.2007875 0.16159604 0.29312348 0.36681658 0.3608755 -0.016442433
0.007128605 0.3967881 0.37111682 0.3721187 0.40273184 0.18031321 0.3519055 0.22030301
0.032795347 -0.071814075 0.38111168 -0.14286922 0.49883288 0.11202954 0.19173762 -0.25592363
0.36478838 0.35851067 0.2890479 0.2695459 0.3839143 0.29520413 0.33746925 0.11662907
0.04955619 0.041120484 -0.10445942 0.08975605 0.1803453 -0.09887333 0.29067618 0.27535778
0.05871151 -0.4020819 -0.13995177 0.16610666 0.23946625 0.46435657 -0.03472412 -0.07615052
0.16580442 -0.2931837 0.081484765 -0.1883076 0.14525056 -0.019809742 0.16580471 0.11066381
0.14489272 -0.05296431 0.29602748 -0.2349966 0.21161924 -0.025946697 -0.15947272 -0.07588703
0.17081755 0.15350822 -0.01614619 0.12488315 0.036202036 0.08885622 0.34227875 -0.09003323
0.28731468 0.054389555 0.13846396 -0.20620088 -0.20449822 0.15442026 -0.0389321 -0.041079223
-0.0027503092 -0.10552056 0.011968146 -0.19020712 0.15213005 -0.011626272 0.31220427 0.2377477
0.24008831 0.044522397 0.059138518 0.07169025 -0.34603897 -0.15012692 0.23855507 -0.055367257

dense_output.0.weight f4 [100, 100]
00000000: 63f1 b1bd 08b7 47be 7e13 103e 781d b2bc
00000010: 63ae c1bd d198 533e ed67 65bb da6f 7a3d
00000020: a143 2fbe 70b4 62bc b5eb 6ebe d4ff 7bbd
00000030: d602 6d3d 46a7 d1bc 8c4c 0a3c bc74 ad3d
00000040: 5605 54bd 8aca a53d 66fc 6ebd ce19 1a3d
00000050: db84 90bd 4145 7abd 54b9 bcbd 890d e73c
00000060: 2514 61bd ccc5 613d b1d5 00be 308d 2cbe
00000070: 7afd 8d3e 6e57 143e c630 15be 8d31 6a3e
00000080: d9cd 103e fc05 2dbe 723e b13d 8964 71bd
00000090: 5bc9 e43c c634 e3bd 7bea c13d 623c b63e
000000a0: ecc9 7d3e 71e8 403e 4df7 bdbd 751f 953c
000000b0: 0d57 543d e728 65be f3e6 5dbc 846e 163e
000000c0: 0f1a 31be 4feb 483e 3174 4d3e 3b9a 69be
000000d0: ced8 6bbd b326 123e 8f0a 543e c544 9abd
000000e0: 113b 223d 8f49 753d a2dc 89be 79ec 3abe
000000f0: 73bd e4bd 829c 28be 8b7d 7fbd d07a 0dbe
00000100: 3257 b0be 4bb8 5bbe 955e 2abd 1c64 d3bd
00000110: 58d5 d7bc 5cc2 ac3e 7889 a63e 1c66 c73e
00000120: 7fc8 413e 1b26 25bd 9f20 d03e df0d 32be
00000130: 353e a03d e100 4a3e 47ab 1b3e b23c cb3d
00000140: aae5 7ebb 79ff b53d 31d9 8fbd 017f ee3c
00000150: 432f bbbd 5760 0ebe 0a7c 3cbd 174e 473c
00000160: c9a7 563e bf01 cb3d 701d 03be daef 34bd
00000170: 3c49 123e 3af6 21be 8a8a e83c 9178 013e
00000180: de54 9f3e 7d9e 4f3d c951 933d b7be dcbd
00000190: d4a2 96be d9c1 863e 6145 a43d 2ba6 f93d
000001a0: 73cb 353d 8fda e8bc ad12 88bd e07b 3cbc
000001b0: 9525 a2be c62f 863d fff4 24be 6045 45be
000001c0: dc08 253c d4df ff3d fd9d 00bd 2c93 17bd
000001d0: 455b 5cbe 2ba4 103e 163f 0dbe 22a2 c1bc
000001e0: b647 383d f35c 013e 3587 933d d11d c3bb
000001f0: fd4e 553e 6738 7e3d b1b8 f5bc 238b 92bd
00000200: 10a5 ad3d 38c6 283e c8b5 d1bd 706e 173e
00000210: 21ba 1e3e d1fc 7dbe 039d 243e d69a b1be
00000220: bdb1 f0bd 8643 6fbe 2d2c 12be d91a 953e
00000230: 3190 bfbd 9f3c 8a3d eb4c 663d fb18 8bbd
00000240: c94c 123c b1af 8e3e 5c1e 3dbe 42d3 efbc
00000250: 6365 51bc 5a34 803d 8c6a ca3d 2113 d93d
00000260: 5ae1 353e b88b 083e be09 06be 1fd2 fd3d
00000270: eb93 c7bd 99f5 dabd f912 453d 6b6d b53d
00000280: d457 573d 7dcd 10be 18d3 c1be 1c2d 79bc
00000290: 4cb1 4d3d 1260 63be 7a83 f7bd ab59 9fbe
000002a0: b1e5 32be 5566 453e 9353 7d3d a81b 5e3e
000002b0: 9d61 0d3e 1ca2 2fbe 30d4 f43d 6b1a 25be
000002c0: ac0e 6f3d 543f 3e3c a8a3 d63e b97a 343e
000002d0: 52b5 ac3a 99ab cc3d 90b9 71be 77bd 1cbe
000002e0: 05a2 a63d e226 c6bd 955b 11be d4a2 51be
000002f0: 2605 633e f305 ebbc 8bbb bb3d 3e4a 5fbe
00000300: 2704 bb3d 315b e8be c12a b83d 3159 703e
00000310: 6096 33be f96b 6abd d273 663e d6cd 15bd
00000320: f43b 1dbc 1f38 ddbe 3084 5d3e bf6e ffbe
00000330: 540b 943d 47a9 28bd 263d 8f3d 6947 e1be
00000340: 45d9 f7be aa89 eb39 74f7 54bd 9ae1 443e
00000350: 63e3 bd3d ccd7 983d fa52 3f3c cf05 36bd
00000360: 2667 c4bd 88ce d1bd a028 a53d 9505 0e3e
00000370: 19ed 79be e1aa 4d3e 3a8f b6bd ec95 0d3e
00000380: 95ff 19bc 781f ea3d 46f7 53be 3619 b4bd
00000390: b7a2 78be 4c95 1f3d 4182 003e 90e9 6d3e
000003a0: c0b2 3c3e 57ba 21bb d8df 8f3e e6df 09be
000003b0: c486 373e 07ad 11be c695 ecbe 4241 6b3d
000003c0: b5e7 f8bd a86e 0c3d 4fc8 9cbd 5652 053d
000003d0: bf12 bcbd ce73 57bd a6f0 32be 6a03 013e
000003e0: 99b6 0fbe 0da9 053e 07f1 a03e c0f9 633d
000003f0: a4f9 6f3e 36bd 613e a979 73be 4aa9 5cbe
-0.08688619 -0.19503415 0.14069936 -0.021742567 -0.0945709 0.20663764 -0.0035004572 0.061141826
-0.17115642 -0.013836965 -0.23332103 -0.061523274 0.057864033 -0.025592458 0.008441102 0.08469531
-0.0517629 0.08095272 -0.058346175 0.037622266 -0.0705659 -0.061101202 -0.09215036 0.028204696
-0.054950852 0.055120274 -0.12581517 -0.16850734 0.2773245 0.14486477 -0.14569387 0.22870465
0.14141025 -0.16896814 0.086544886 -0.05893377 0.027928045 -0.1109405 0.09468552 0.35592943
0.24784058 0.1883867 -0.092756845 0.018203476 0.05184083 -0.22378884 -0.013543832 0.14690596
-0.17295097 0.19621013 0.20063855 -0.2281274 -0.057579808 0.14272575 0.20707153 -0.07532648
0.03960711 0.059884604 -0.26926142 -0.1825427 -0.11168947 -0.16465953 -0.062375586 -0.1381638
-0.34441525 -0.21457021 -0.041594107 -0.10321829 -0.026346847 0.33742034 0.32526755 0.3894509
0.1892414 -0.040319543 0.40649888 -0.17388104 0.07824365 0.19726898 0.15202056 0.09923686
-0.0038894215 0.08886618 -0.07023848 0.029113295 -0.09139874 -0.13903938 -0.04601673 0.012164614
0.20962442 0.099124424 -0.12804198 -0.044174053 0.14285749 -0.15816584 0.028386373 0.12643649
0.31119436 0.050688256 0.07193334 -0.107785635 -0.29421103 0.2631977 0.080210455 0.12189897
0.044383477 -0.02842453 -0.06644187 -0.0115041435 -0.31669298 0.06552081 -0.16109084 -0.19264746
0.010072913 0.12493864 -0.03140067 -0.03700559 -0.21519192 0.14125125 -0.13793597 -0.023636881
0.044990264 0.12633114 0.07203523 -0.005954482 0.20830913 0.06206551 -0.029995294 -0.071554445
0.08478749 0.16481864 -0.1023975 0.14788222 0.1550069 -0.24803473 0.1607552 -0.34688443
-0.11752651 -0.23365602 -0.14274664 0.29122046 -0.09353674 0.06749844 0.0562257 -0.06791874
0.00892944 0.27868417 -0.18468612 -0.02927554 -0.01278052 0.06259985 0.098836035 0.10599352
0.17761746 0.13334548 -0.13089654 0.12393593 -0.0974501 -0.10691375 0.048113797 0.088587604
0.052573994 -0.14140888 -0.37856364 -0.015208509 0.05021791 -0.22204617 -0.12085624 -0.311231
-0.17470433 0.19277318 0.06184728 0.21690238 0.13806768 -0.17151684 0.11954534 -0.16123359
0.0583636 0.011611778 0.41921735 0.1762494 0.0013176596 0.09993667 -0.23605943 -0.1530665
0.081363715 -0.09675385 -0.14195092 -0.2047227 0.22169933 -0.02868936 0.0916663 -0.21805665
0.09131651 -0.45382074 0.0899253 0.23471524 -0.17537832 -0.057231877 0.2250512 -0.036573254
-0.0095968135 -0.4320688 0.21632457 -0.4988918 0.07228723 -0.04117706 0.06994085 -0.43999794
-0.4840795 0.0004492526 -0.051993802 0.19226685 0.09271886 0.07463035 0.011677498 -0.044439133
-0.095899865 -0.10244471 0.08064389 0.13869317 -0.24406852 0.20084716 -0.08914037 0.13826722
-0.009399314 0.114317834 -0.20699796 -0.08793871 -0.24280821 0.03896074 0.12549688 0.23233628
0.18427563 -0.0024677718 0.28100467 -0.13464317 0.17922503 -0.14226161 -0.46208018 0.05743528
-0.121535696 0.034285218 -0.07655393 0.032549225 -0.09183263 -0.052600674 -0.17474613 0.12598959
-0.14034499 0.13052769 0.3143389 0.055658102 0.23435074 0.22044834 -0.23776878 -0.21548954

dense_output.0.bias f4 [100]
00000000: 248b 44be 04c5 0ebe fd38 73be c965 80be
00000010: 7d9f 20be 4055 22be 5f74 07be 489b 80be
00000020: 76e5 44be 6d55 eebe 3749 af3d 5db7 bdbd
00000030: 4d07 dfbd 5446 8abe 57f0 8ebe 920a 0fbe
00000040: f678 33be e7e8 9e3e b7cc 9bbe a4cd 0bbe
00000050: 4fc1 10be bb8e 85be 22e8 20be 6799 0fbe
00000060: a79f 29be 99b1 00be 7123 84be 925d 53be
00000070: f5a8 8ebe 6259 d0bd b7a6 6fbe cf4b 80be
00000080: f6ff 5ebe 93d6 8bbe d536 4cbe 5043 68be
00000090: 28c7 15be 2c99 afbe 97b8 27be a64e c73c
000000a0: d40d 0ebe c9a0 dabd 11ea e3bd 380e 47be
000000b0: e2f2 42be 02c4 46be c90a b5bd f44c 26be
000000c0: 0011 75be d114 5cbe 89ac a8be a4a0 74be
000000d0: 110a 52be 9bd2 98be d536 2bbe 1703 80be
000000e0: 80db 43be df90 01be 4a0b c2bd 8e84 17be
000000f0: 92c1 02be ef2a 49be e6fa 62be 63c3 6dbe
00000100: b96a 84be 7571 46be 26c1 c4bd e6bb 21be
00000110: db39 52be bd78 42be c09f 29be 863a 24be
00000120: fb02 99be d9c5 77be 6fe0 91be 3830 8abe
00000130: b40b 2cbe 1454 62be 4fac 2bbe 4efe dc3c
00000140: 7267 51be 1ef0 01be ae5b c9bd c6ce 313e
00000150: 8c35 9abe 5f45 26be 686b 10be 1198 61be
00000160: da3b 88be 67e6 27be 7e34 79be bd47 69be
00000170: 38be 1cbe f0d6 a5bd ae67 72be ded6 50be
00000180: ccdf 50be 607a 39be bac1 0dbe 2a2f 5abe
-0.19193703 -0.13942343 -0.23752208 -0.25077656 -0.1568584 -0.15852833 -0.13227986 -0.2511847
-0.19228157 -0.4654955 0.085588865 -0.092634894 -0.108900644 -0.2700678 -0.2791774 -0.13968876
-0.17526612 0.31037065 -0.30429623 -0.13652664 -0.14136241 -0.26085457 -0.15713552 -0.14023362
-0.16564809 -0.12567748 -0.2580829 -0.20641163 -0.2786328 -0.101732984 -0.2340344 -0.25057837
-0.21777329 -0.27312145 -0.19942792 -0.22681928 -0.14626753 -0.34296548 -0.16379009 0.024329495
-0.13872463 -0.106751986 -0.11128629 -0.19439018 -0.19037965 -0.19410709 -0.08839948 -0.16240293
-0.23932266 -0.21492316 -0.32944134 -0.23889405 -0.20511653 -0.2984818 -0.16720136 -0.25002357
-0.19126701 -0.1265292 -0.094748095 -0.1479666 -0.12769154 -0.19645284 -0.22166023 -0.23219065
-0.25862673 -0.19379218 -0.09607153 -0.15794334 -0.20529883 -0.1899137 -0.16564846 -0.1603795
-0.29885086 -0.24196567 -0.28491542 -0.26989913 -0.1680134 -0.22102386 -0.1676495 0.02697673
-0.20449618 -0.12689254 -0.0983194 0.17364034 -0.30118978 -0.162374 -0.14103472 -0.22030665
-0.26608163 -0.16396485 -0.2433643 -0.22781272 -0.15306938 -0.08097637 -0.23672363 -0.20394465
-0.20397872 -0.18113089 -0.13843432 -0.21307054

dense_output.3.weight f4 [1, 100]
00000000: dc03 8dba b496 fc3c cf1b 52bd a079 ffbc
00000010: 9d8b 88bc 2ea8 4abc c171 0abc dbfa 1b3c
00000020: df8f a73c a0b1 c6bd 40d1 253d 109c 9b3c
00000030: 3e5a 0cbc aa72 303c d878 d3bc 35b1 363b
00000040: e910 2dbc ab86 c13d eff1 f7bc d084 ac3b
00000050: 0815 c73a 7fb5 01bc 358a d93c 18bb 3fbb
00000060: 339f c8bc e71f 7abc 6da2 e0bc 3547 8b3b
00000070: 7455 203c e065 01bc b7c5 d03c 7526 aabb
00000080: e3e9 823d 66e8 b6bc 608d 3b3c b34d 23bc
00000090: 7dce 9e3d fdee 183e 4eba 0ebb 27db adbd
000000a0: 3231 bfbb 0cdd 533c 7fc4 34bc c423 433d
000000b0: f476 d03a a208 123c 87c9 1c3c c0c2 ed3c
000000c0: 6d8d 6d3c 367c a53c 7823 0d3d 7ac3 6bbc
000000d0: 481f ad3c 3673 b63c 5481 06bc c64c 30bd
000000e0: 4791 cdbb bcef 7d3b 5e3b ae3c c10b 373c
000000f0: 3b77 713b 7406 dfba e813 313b cf0a dbba
00000100: 28fe 50bb 4cc4 323d 73e0 7f3d 7e09 d738
00000110: 5e4e 603d 7ff5 12bc e714 973a f24b 94bc
00000120: a3d5 b2bd d0b9 75bb be24 283d b746 b93c
00000130: 93ae a73c 5a83 d53a 91a6 653c 8491 593d
00000140: 443d 8cba 385b 13bd e7f1 b7b9 b560 893c
00000150: 8b8d b33d dc5a 943b f9fe 3c3c 48f9 5d3c
00000160: 6f79 2ebc 4821 8b3c f8e6 f03c 287c bdbc
00000170: 81ab cd3b 58d1 ee3b 9d35 dbba c918 eb3c
00000180: f3b9 1c3d 822e 3dbd 73d0 303c 7fac 3a3a
-0.0010758596 0.03083358 -0.05129605 -0.031185925 -0.016668135 -0.012369199 -0.008449973 0.009520258
0.020454345 -0.09701848 0.04048276 0.018995315 -0.008566437 0.010769526 -0.025814459 0.002787662
-0.010563114 0.09449514 -0.03026673 0.005264856 0.0015188763 -0.007916807 0.02655516 -0.0029255804
-0.024489975 -0.015266395 -0.0274212 0.004250432 0.009785999 -0.007897824 0.025484903 -0.0051925727
0.063922666 -0.022327613 0.011447281 -0.009967255 0.07754228 0.14934917 -0.0021778527 -0.084890656
-0.005834722 0.01293112 -0.011033176 0.04764153 0.0015904591 0.008913191 0.009569532 0.029023528
0.014499051 0.02020083 0.034457654 -0.014389867 0.02113308 0.022271734 -0.008209545 -0.043041967
-0.006273422 0.003874763 0.021268543 0.011172236 0.0036844749 -0.0017015473 0.0027019922 -0.0016711595
-0.003188977 0.043644235 0.06246991 0.00010253767 0.054762237 -0.008969664 0.0011526615 -0.01810262
-0.08732154 -0.0037494786 0.041050665 0.022616727 0.020468986 0.0016289756 0.014016763 0.05311729
-0.0010699411 -0.035975665 -0.0003508471 0.016769746 0.087672316 0.004527433 0.0115354 0.013548203
-0.010649069 0.016983643 0.02940701 -0.023130491 0.0062765484 0.0072881393 -0.0016724352 0.028698342
0.038263272 -0.04618693 0.010791886 0.0007121041

exp_avg f4 [4, 1, 3, 3, 3]
00000000: 81de 1ebb 7865 2fbb d6b2 17bb 059c 20bb
00000010: 55bd 05bb a3a1 b5ba ec8c 5db9 ff41 bdb7
00000020: 7ca3 fb37 8961 25bb 9cd7 32bb 43c3 1abb
00000030: 5670 27bb 5428 12bb 0c0b bfba 6932 67b9
00000040: af36 0ab8 3c9f 2ab7 f4af 2ebb 8458 36bb
00000050: b392 1ebb 662d 26bb 6d08 16bb ce40 d1ba
00000060: 3fbb 87b9 4b1e f5b8 6ace c1b8 0400 0000
00000070: 0400 0080 0400 0000 0400 0000 0400 0000
00000080: 0400 0000 0400 0000 0400 0000 0400 0000
00000090: 0400 0000 0400 0000 0400 0000 0400 0000
000000a0: 0400 0000 0400 0000 0400 0000 0400 0000
000000b0: 0400 0000 0400 0000 0400 0000 0400 0000
000000c0: 0400 0000 0400 0080 0400 0000 0400 0000
000000d0: 0400 0000 0400 0080 111a 56ba ab2a 96ba
000000e0: 738e a8ba 6d1f fb38 832a 4838 3c9c 1eba
000000f0: a60e 6339 8fd3 a238 feb0 86b9 fced 3aba
00000100: be56 88ba 8442 9dba 1230 8139 0820 6a39
00000110: edde 00ba c3a4 fd39 ac3f a739 8f46 b7b7
00000120: 6f01 38ba 9a1f 8cba cae3 b4ba e754 9939
00000130: f068 6539 f670 12ba 2753 303a 48d8 d339
00000140: 2e9a c738 1477 e43a f738 dd3a 9aeb 2639
00000150: 5a48 823b b73a 7f3b 988c e63a 7959 283b
00000160: fd86 2f3b 2343 833a 34af d43a 8764 9b3a
00000170: e8c1 0bba 76ef 853b 04c5 5d3b ec16 913a
00000180: 3578 353b 101e 033b f093 8b39 add0 cc3a
00000190: edaf 383a 0171 7eba ae58 823b 630d 2e3b
000001a0: b212 d739 d59c 343b a22d a13a 68ad a3b9
-0.002424151 -0.002676336 -0.0023147366 -0.0024507057 -0.002040704 -0.0013857376 -0.000211287 -2.2561288e-05
2.999766e-05 -0.0025235137 -0.0027289158 -0.002361492 -0.0025549135 -0.002230187 -0.0014575436 -0.00022048656
-3.2952692e-05 -1.0169864e-05 -0.002665517 -0.0027823756 -0.0024196326 -0.002535665 -0.0022893206 -0.0015964748
-0.00025888716 -0.00011688153 -9.241405e-05 6e-45 -6e-45 6e-45 6e-45 6e-45
6e-45 6e-45 6e-45 6e-45 6e-45 6e-45 6e-45 6e-45
6e-45 6e-45 6e-45 6e-45 6e-45 6e-45 6e-45 6e-45
6e-45 -6e-45 6e-45 6e-45 6e-45 -6e-45 -0.00081673363 -0.0011456808
-0.0012859836 0.00011974466 4.7723308e-05 -0.00060505024 0.00021653864 7.764168e-05 -0.0002569034 -0.00071307993
-0.0010401828 -0.0011997973 0.00024640613 0.00022327912 -0.0004916031 0.00048378677 0.0003190016 -2.1848156e-05
-0.00070192566 -0.001069057 -0.0013800797 0.0002924569 0.00021878234 -0.00055862905 0.0006726258 0.00040406198
9.517778e-05 0.0017430508 0.0016877939 0.00015918762 0.00397591 0.003894491 0.0017589508 0.0025688095
0.002678334 0.0010014515 0.0016226531 0.0011855521 -0.00053313235 0.004087384 0.0033839354 0.0011069453
0.0027690057 0.0020006932 0.00026622368 0.0015626155 0.0007045258 -0.000970617 0.0039778566 0.0026558272
0.00041021925 0.00275593 0.0012296925 -0.0003121898

exp_avg_sq f4 [4, 1, 3, 3, 3]
00000000: a784 de38 eb9b b938 abc3 b638 d67b 0b39
00000010: d59f b838 a343 8338 b903 1039 6278 c938
00000020: b1b7 8f38 8c59 dd38 4bd4 b738 4b1a bb38
00000030: d215 0c39 3ac9 b038 0402 8338 acd0 1239
00000040: a753 c238 136c 8f38 cc51 db38 283c b738
00000050: 1224 bc38 db33 0939 c317 aa38 423d 8438
00000060: 885a 1139 d82a ba38 e836 8f38 f401 0000
00000070: f401 0000 f401 0000 f401 0000 f401 0000
00000080: f401 0000 f401 0000 f401 0000 f401 0000
00000090: f401 0000 f401 0000 f401 0000 f401 0000
000000a0: f401 0000 f401 0000 f401 0000 f401 0000
000000b0: f401 0000 f401 0000 f401 0000 f401 0000
000000c0: f401 0000 f401 0000 f401 0000 f401 0000
000000d0: f401 0000 f401 0000 6178 0c38 e858 1b38
000000e0: b4db 7638 1bf8 3f38 b2fc 6538 ec9f a938
000000f0: 8950 8a38 29c0 ab38 0e6a d938 332a 0838
00000100: 02ea 1d38 e92c 8238 66bc 3c38 a74d 6938
00000110: 50e5 af38 ccfe 8a38 b73c b038 86cd de38
00000120: ea22 0838 bf14 2538 9451 8838 6d03 3e38
00000130: 01bf 7238 cf22 b638 8d63 8e38 57ec b638
00000140: d992 e338 c36a 1b39 0e42 1d39 d5a0 2239
00000150: 8177 1c39 db3c 1e39 d274 2639 a185 1039
00000160: 9a3a 1339 94da 1a39 6b1b 1939 a57f 1b39
00000170: a4f3 2139 56dc 1a39 6162 1c39 d2fb 2439
00000180: f4d5 0e39 52e3 1139 b7f6 1939 6f2a 1339
00000190: 0d2e 1739 698d 1d39 627d 1739 4b7c 1a39
000001a0: f07f 2239 865d 0b39 dc45 1039 7ae8 1739
0.00010610493 8.8505294e-05 8.714882e-05 0.00013302205 8.803575e-05 6.259165e-05 0.00013734297 9.60685e-05
6.8529866e-05 0.000105547806 8.765663e-05 8.921752e-05 0.00013359569 8.429815e-05 6.246942e-05 0.00014001381
9.266222e-05 6.838902e-05 0.000104579696 8.737325e-05 8.971257e-05 0.00013084656 8.110658e-05 6.305661e-05
0.00013862003 8.8771514e-05 6.8289984e-05 7e-43 7e-43 7e-43 7e-43 7e-43
7e-43 7e-43 7e-43 7e-43 7e-43 7e-43 7e-43 7e-43
7e-43 7e-43 7e-43 7e-43 7e-43 7e-43 7e-43 7e-43
7e-43 7e-43 7e-43 7e-43 7e-43 7e-43 3.3490713e-05 3.703768e-05
5.8855585e-05 4.5769015e-05 5.4833195e-05 8.088336e-05 6.5953536e-05 8.189708e-05 0.000103671206 3.2464228e-05
3.7649654e-05 6.207248e-05 4.4998153e-05 5.562385e-05 8.387363e-05 6.6278124e-05 8.403643e-05 0.000106240666
3.2457443e-05 3.9358387e-05 6.5001805e-05 4.530272e-05 5.7875182e-05 8.68492e-05 6.7896304e-05 8.722458e-05
0.00010851556 0.00014821724 0.00014997294 0.00015509439 0.00014921838 0.00015090725 0.00015874513 0.00013782691
0.00014040843 0.00014768011 0.00014601431 0.00014829503 0.0001544492 0.00014768666 0.00014913968 0.00015734069
0.00013621879 0.00013912961 0.00014683125 0.0001403482 0.00014417637 0.00015025366 0.00014447191 0.00014732887
0.00015497184 0.00013290913 0.00013758935 0.00014487086

exp_avg f4 [4]
00000000: 1213 0b38 0400 0000 b255 ddba 8f10 883b
3.3157943e-05 6e-45 -0.0016886501 0.0041523646

exp_avg_sq f4 [4]
00000000: feb8 543a f401 0000 2809 033a d3a7 0e3b
0.0008114724 7e-43 0.0004998618 0.0021767511
