models/mvsec/indoor_flying2/indoor_flying2_multipixel_odd_model.pth (torch, 872278 bytes, 30 tensors)

conv3d.0.weight f4 [4, 1, 3, 3, 3]
0	0xbe28f22a	-0.16498628
1	0xbd8c1e3d	-0.06841705
2	0x3debe143	0.11517575
3	0x3d352f7c	0.044234738
4	0xbce1aae3	-0.027547305
5	0x3c34d609	0.011037358
6	0x3e3dd517	0.18538319
7	0xbcaf7b8d	-0.021421218
8	0xbde06cb4	-0.109582335
9	0xbe9128a3	-0.28351316
10	0xbd6fa295	-0.05850466
11	0x3edd6c99	0.43246916
12	0xbdc33db1	-0.09533251
13	0xbe3704d8	-0.17872941
14	0x3e6554f5	0.2239569
15	0x3e43c06c	0.19116372
16	0xbcef2adb	-0.02919524
17	0xbdee6046	-0.116394565
18	0xbe90dba7	-0.2829258
19	0x3d9f55e0	0.07780051
20	0x3ebdf90a	0.37104064
21	0xbd89ab7e	-0.06722163
22	0xbe0c76dd	-0.13717218
23	0x3dfd16cd	0.123578645
24	0x3bdf214e	0.00680939
25	0xbd725a14	-0.059167936
26	0x3d84c73f	0.06483316
27	0x3dda4744	0.10658124
28	0x3dd7a84f	0.10530149
29	0xbd4209b9	-0.047372553
30	0x3d596de0	0.0530833
31	0xbbf28ed2	-0.0074022794
32	0x3e7afabd	0.24509712
33	0x3e96d8b4	0.29462206
34	0x3db11073	0.086457156
35	0x3dd658a2	0.10466124
36	0x3da6f62a	0.08152421
37	0xbde3b804	-0.111190826
38	0xbe4d3a22	-0.20041707
39	0x3e0d969b	0.13826983
40	0x3d7ecd01	0.062207226
41	0xbd990872	-0.07472314
42	0x3ea7ceea	0.3277505
43	0xbda49aea	-0.0803736
44	0xbe416295	-0.18885262
45	0x3cc7749d	0.024347598
46	0xbd83d24a	-0.06436594
47	0xbe9be0a6	-0.3044483
48	0x3d1b0af5	0.037852246
49	0xbe889be6	-0.2668144
50	0xbe3f8e76	-0.18706688
51	0x3e71b6f4	0.23604947
52	0xbe484ac8	-0.19559777
53	0xbdcebc37	-0.10094493
54	0x3ca14a9c	0.019688897
55	0x3cebbacd	0.028775597
56	0x3d06728e	0.03282409
57	0x3e931f22	0.2873469
58	0x3da4e39f	0.08051228
59	0xbe040621	-0.12892963
60	0xbe18b936	-0.14914402
61	0xbe6784a4	-0.22609192
62	0xbddfe3e7	-0.10932141
63	0x3d9f78b3	0.077866934
64	0xbb569b84	-0.0032746503
65	0x3dbdfc23	0.09276607
66	0x3e7a1393	0.2442153
67	0x3e598ba6	0.21244678
68	0xbe70cef8	-0.23516452
69	0xbe867a9a	-0.26265413
70	0xbde288ce	-0.1106125
71	0xbdfebf1d	-0.12438796
72	0xbdba62d2	-0.0910088
73	0x3e6d70d3	0.2318757
74	0x3d9d6c53	0.07686677
75	0x3db859c1	0.09001494
76	0x3e0f7a55	0.1401151
77	0xbe627540	-0.2211504
78	0xbd6e57fe	-0.058189385
79	0x3cf6c92b	0.030125221
80	0x3caf2610	0.021380454
81	0x3e36318d	0.1779234
82	0x3e9107d0	0.28326273
83	0x3e8c99f3	0.27461204
84	0x3e279cc1	0.1636839
85	0x3e2658f9	0.16244878
86	0x3e6b964a	0.2300655
87	0x3e17c439	0.14820947
88	0x3e756842	0.23965552
89	0x3e59ecc3	0.21281724
90	0xbd462305	-0.04837324
91	0xbd460268	-0.04834214
92	0xbd9cd6eb	-0.0765818
93	0x3cca9e46	0.024733674
94	0xbce383d4	-0.027772821
95	0xbd41b845	-0.047294874
96	0xbcc9cd4e	-0.02463403
97	0xbd84d202	-0.06485368
98	0xbc94c102	-0.01815844
99	0xbe7a740b	-0.2445833
100	0xbe7001f2	-0.23438242
101	0xbe44e1a7	-0.19226705
102	0xbe6a376e	-0.22872707
103	0xbded22b9	-0.115788884
104	0xbe0239e2	-0.12717393
105	0xbe642cca	-0.2228271
106	0xbe431c85	-0.19053848
107	0xbe855e0b	-0.26048312

conv3d.0.bias f4 [4]
0	0xbe211e22	-0.15734151
1	0xbdd2abc9	-0.10286672
2	0xbd972bcf	-0.07381403
3	0x3e7c64f0	0.2464788

gru.weight_ih_l0 f4 [300, 100]
0	0xbe7416db	-0.23836844
1	0xbe6e709b	-0.23285143
2	0xbe1dc793	-0.15408163
3	0x3bf2afeb	0.007406225
4	0xbe924c26	-0.28573722
5	0x3e21a573	0.1578577
6	0xbe7b9f23	-0.24572425
7	0xbdb40998	-0.08790892
8	0xbd82d86c	-0.063889354
9	0x3e3b13f2	0.18269327
10	0xbd817fb8	-0.063231885
11	0xbe6b69f6	-0.2298964
12	0xbe58c400	-0.21168518
13	0xbd97ae0b	-0.07406243
14	0x3d8fb48d	0.07016859
15	0xbeb2bb92	-0.3490873
16	0xbf041581	-0.5159531
17	0xbe76fb9d	-0.2411942
18	0x3de2636f	0.11054122
19	0x3c3d23b5	0.011544158
20	0xbe40f865	-0.18844755
21	0xbeca99cb	-0.3957046
22	0x3da1ca6e	0.078999385
23	0x3ea7971c	0.32732475
24	0xbe199763	-0.14999156
25	0xbe0c5d5a	-0.13707486
26	0xbe2e4d00	-0.1702156
27	0xbdc9b43b	-0.09848829
28	0xbe80313b	-0.2503756
29	0xbc10d04a	-0.0088387225
30	0xbc4e3d01	-0.012587787
31	0x3e20d645	0.15706737
32	0x3d999da7	0.07500773
33	0xbe2ce7a9	-0.16885246
34	0x3e906359	0.28200796
35	0x3e5f79ef	0.21823858
36	0x3e6592ac	0.22419232
37	0x3d307705	0.043082256
38	0xbe100a68	-0.1406647
39	0x3eadf6c4	0.3397733
40	0x3e3d6a73	0.18497638
41	0xbce289a5	-0.027653525
42	0xbb4723c8	-0.0030386318
43	0xbe448fa3	-0.19195418
44	0x3de169dc	0.11006519
45	0xbe1c9369	-0.15290608
46	0xbdf140db	-0.11779948
47	0x3c8f7a47	0.017514361
48	0x3de831b3	0.113376044
49	0x3d8a063c	0.0673947
50	0x3e6c3c20	0.23069811
51	0x3e510832	0.20413283
52	0x3d82b126	0.06381445
53	0xbe10e901	-0.14151384
54	0x3e1848c8	0.14871514
55	0x3e33623f	0.17517947
56	0x3e5d05cb	0.21584241
57	0x3d7fa6d6	0.062414967
58	0xbe5b1c02	-0.21397403
59	0x3e38aa9e	0.18033835
60	0x3d06d80b	0.03292088
61	0x3d80fa60	0.06297755
62	0xbe69464c	-0.22780722
63	0xbe5feb21	-0.21867038
64	0xbd2793de	-0.0409125
65	0x3e49c20c	0.1970293
66	0x3e2feca5	0.17180116
67	0xbd374006	-0.044738792
68	0x3def794a	0.11693056
69	0x3eac3d0e	0.3364033
70	0xbe766c82	-0.2406483
71	0xbe89471e	-0.2681207
72	0xbde8c795	-0.11366192
73	0x3e18cac7	0.14921103
74	0x3ee30804	0.44342053
75	0xbeb4a377	-0.35280964
76	0xbeaa3719	-0.3324516
77	0xbe9d793e	-0.30756563
78	0xbe238cfc	-0.1597175
79	0xbe249440	-0.16072178
80	0xbe2ce9ce	-0.16886064
81	0xbe25befc	-0.16186136
82	0xbdf149c0	-0.11781645
83	0x3e00fea2	0.12597135
84	0xbd0b3bd9	-0.033992622
85	0xbd28fb63	-0.041255366
86	0x3d8490df	0.064729445
87	0x3da88a34	0.08229485
88	0x3e1f75e0	0.1557231
89	0xbcbefa13	-0.023312604
90	0x3d77580c	0.060386702
91	0x3e2bd49f	0.16780327
92	0x3e1c920a	0.15290084
93	0x3e329d77	0.1744288
94	0x3da7576d	0.08170972
95	0x3b8656ff	0.004099726
96	0x3db2010e	0.086916074
97	0x3e1c2432	0.15248182
98	0x3e1c7ca4	0.15281922
99	0xbcf3b1f3	-0.029747939
100	0xbf14b802	-0.58093274
101	0xbdcc6258	-0.09979695
102	0xbeec9ce7	-0.46213457
103	0xbe468652	-0.19387177
104	0xbc142322	-0.009041579
105	0xbf05723e	-0.52127445
106	0xbdd538a6	-0.104111955
107	0xbda76a2e	-0.08174549
108	0xbe0d7b8d	-0.13816662
109	0x3e847390	0.25869417
110	0xbe0b4d40	-0.13603687
111	0xbe649b14	-0.22324783
112	0xbe9811bf	-0.2970104
113	0xbda09431	-0.07840765
114	0x3e65c85f	0.22439717
115	0x3e876388	0.26443124
116	0xbe48b6b2	-0.19600943
117	0xbeba39c7	-0.36372206
118	0xbe5c8fc3	-0.21539216
119	0xbd43c129	-0.047791634
120	0x3f008042	0.50195706
121	0x3e85e144	0.26148427
122	0x3cec4ac1	0.02884424
123	0x3e1c681f	0.15274094
124	0x3d825787	0.06364351
125	0xbe4993f9	-0.19685353
126	0xbe18c350	-0.14918256
127	0xbe7bd4b1	-0.24592854
128	0xbdc426e6	-0.09577732
129	0xbd8a57a0	-0.067549944
130	0xbe15b6c1	-0.14620496
131	0x3d4da10b	0.05020241
132	0x3e4aa825	0.19790705
133	0x3c8b38eb	0.016994914
134	0x3ddfbe6a	0.109249905
135	0x3e35286f	0.17691205
136	0x3ebae810	0.36505175
137	0x3eadbd94	0.339337
138	0x3d99f64b	0.0751768
139	0xbda90934	-0.082537085
140	0x3df7a3e9	0.1209181
141	0x3d522b15	0.051310617
142	0xbe88828d	-0.26662102
143	0xbde52a14	-0.111896664
144	0xbeab2594	-0.33427107
145	0x3d6b6eeb	0.057478826
146	0x3da21772	0.07914628
147	0xbeb47892	-0.35248238
148	0xbe2351fa	-0.1594924
149	0xbdc60326	-0.09668569
150	0x3d3edfba	0.04660008
151	0x3e0088a6	0.12552127
152	0x3c7b60e3	0.015342924
153	0xbe6ef958	-0.23337305
154	0xbdbe66d5	-0.092969574
155	0x3e8da91a	0.27668077
156	0x3e1742a7	0.1477152
157	0xbddee23d	-0.10882995
158	0xbe89ec69	-0.2693818
159	0xbdaa6cb3	-0.08321514
160	0x3d16158c	0.036641642
161	0x3e59dd22	0.21275762
162	0xbcaa1628	-0.020762518
163	0xbe494905	-0.19656761
164	0x3e3a9f98	0.18224943
165	0x3de099a1	0.109668024
166	0x3decb465	0.11557845
167	0x3d478ee2	0.048720248
168	0x3dccd2c6	0.10001139
169	0x3eabc213	0.33546504
170	0xbd6aed38	-0.057355136
171	0xbe8ac8ec	-0.27106416
172	0x3d6fedb1	0.05857629
173	0xbcb9cd78	-0.022680983
174	0x3e7a070b	0.24416749
175	0x3e2b26b3	0.16713981
176	0x3e74efa2	0.23919538
177	0x3e38a9a7	0.18033467
178	0x3e190b93	0.14945821
179	0x3d6c4a69	0.05768815
180	0xbc9bde1c	-0.019026808
181	0xbd7796fd	-0.060446728
182	0x3e0f27f2	0.13980082
183	0x3d74bec3	0.059752237
184	0xbeb7a26e	-0.35866112
185	0xbd9b0e22	-0.07571055
186	0xbe7a7a43	-0.24460702
187	0xbc9f8e23	-0.019476956
188	0xbd4117b0	-0.04714173
189	0xbeae1c29	-0.3400586
190	0xbe0929fe	-0.13394925
191	0xbe704226	-0.23462734
192	0xbdce1f42	-0.10064556
193	0xbe1e4742	-0.1545687
194	0xbf0c998c	-0.54921794
195	0xbe9e57fa	-0.30926496
196	0xbed715a5	-0.420087
197	0xbec6acd6	-0.38803738
198	0xbf147134	-0.57985234
199	0xbf479d59	-0.7797447
200	0xbe35357a	-0.17696181
201	0x3e12e2b7	0.14344297
202	0x3da751ee	0.08169924
203	0xbc80c062	-0.015716735
204	0x3ef3ea0c	0.476395
205	0xbeb88703	-0.36040506
206	0x3c4375f2	0.011929976
207	0x3e1849a8	0.14871848
208	0xbdd69ac2	-0.104787365
209	0x3eb26a1e	0.34846586
210	0xbc88d6c4	-0.01670397
211	0xbcf892d2	-0.030343447
212	0x3896d398	7.19197e-05
213	0xbe8c3f21	-0.27391914
214	0x3daf73b2	0.08566989
215	0xbdb67c8d	-0.08910475
216	0xbd32128d	-0.043474723
217	0x3df4e0bf	0.119569294
218	0x3cbd4b52	0.023107205
219	0xbe10ca7f	-0.14139746
220	0xbe97f10e	-0.29676098
221	0xbe3f2c7a	-0.1866931
222	0xbb818dea	-0.003953685
223	0x3dbf745b	0.09348365
224	0xbe915998	-0.28388667
225	0xbe23e087	-0.16003619
226	0xbe3bdc87	-0.18345843
227	0x3db5a7f6	0.08869927
228	0x3e6356ef	0.22201131
229	0x3e644d12	0.22295025
230	0xbe89a8ee	-0.26886696
231	0xbe90bac2	-0.28267485
232	0xbd5b9c7a	-0.053616025
233	0x3d147439	0.03624365
234	0x3e0d9785	0.13827331
235	0xbec22591	-0.37919286
236	0xbe02a07b	-0.12756531
237	0xbe3c4978	-0.18387401
238	0xbd946342	-0.072454944
239	0x3a3d7117	0.00072266295
240	0xbe5829e5	-0.21109731
241	0x3e3905dc	0.18068641
242	0xbdea6378	-0.114447534
243	0xbe24c49b	-0.16090624
244	0xbcc81f57	-0.024429007
245	0xbe9097da	-0.28240854
246	0x3e767c48	0.24070847
247	0xbe03eee1	-0.12884094
248	0xbe8e815b	-0.27833065
249	0x3e29271a	0.16518822
250	0x3d76f7a6	0.06029477
251	0x3d93c81e	0.07215904
252	0x3e1a125e	0.15046069
253	0x3e43b876	0.19113335
254	0x3ca3c567	0.01999159
255	0x3e7aef89	0.24505438

gru.weight_hh_l0 f4 [300, 100]
0	0x3c6960c1	0.014244259
1	0x3e95ea9a	0.2928055
2	0x3e552f78	0.20818889
3	0xbe0351bc	-0.12824148
4	0x3c207d54	0.009795506
5	0x3de5c055	0.11218325
6	0xbe0cd3e7	-0.1375271
7	0xbd35bbea	-0.044368662
8	0x3db64ce6	0.08901386
9	0x3d8fe497	0.07026022
10	0x3e84f5d0	0.2596879
11	0x3ca93ffa	0.02066039
12	0x3dadd0af	0.08487069
13	0x3daf4550	0.08558142
14	0xbec50df9	-0.38487223
15	0xbe012839	-0.12613
16	0xbdc58ba3	-0.09645774
17	0xbd7c6047	-0.061615255
18	0x3e9b55b3	0.3033882
19	0x3e189d40	0.14903736
20	0xbd878caf	-0.0661863
21	0xbea7ca9e	-0.32771772
22	0xbcd24492	-0.025667462
23	0xbe3264f1	-0.17421319
24	0x3e7c121b	0.24616282
25	0x3b8a9f80	0.0042304397
26	0x3e561f7e	0.20910451
27	0xbee1c8d3	-0.4409853
28	0x3d8c3288	0.068455756
29	0xbe2f5b35	-0.17124636
30	0xbe5e80ef	-0.21728872
31	0xbd72d7f8	-0.059287995
32	0xbd879af6	-0.06621353
33	0x3e0412e6	0.12897834
34	0x3ec30cec	0.38095796
35	0x3e172826	0.14761409
36	0x3e0a2d42	0.13493827
37	0xbe01da55	-0.12680943
38	0x3cf4befd	0.029876227
39	0xbde35ee9	-0.11102087
40	0x3d95b5fd	0.07310102
41	0x3eb9c50d	0.3628315
42	0xbe7b30d3	-0.24530344
43	0x3d12bcf2	0.035824724
44	0x3e7b8784	0.24563414
45	0x3dbcbaf9	0.0921535
46	0x3ede7c45	0.43454185
47	0x3ebd8aa1	0.37019828
48	0x3e06885f	0.13137959
49	0x3e1739fd	0.14768215
50	0x3e09f5a2	0.13472608
51	0x3d92a352	0.07160057
52	0x3e9f72db	0.31142315
53	0xbc1ac4f3	-0.00944637
54	0xbe445f27	-0.19176923
55	0xbcf76ea0	-0.030204117
56	0xbd4460e6	-0.047943972
57	0x3df0d48d	0.11759291
58	0x3e19bce8	0.15013468
59	0x3c2a3227	0.010387934
60	0x3d73b2b7	0.059496608
61	0x3e562486	0.2091237
62	0xbd7dde2c	-0.061979458
63	0x3e0734a2	0.13203672
64	0x3dc1bb0f	0.09459507
65	0x3dcd6516	0.10029046
66	0xbe0cb476	-0.13740715
67	0x3d1b824c	0.037966058
68	0x3dd33335	0.10312501
69	0x3e365e61	0.1780944
70	0xbe147846	-0.14499006
71	0xbe6c196f	-0.23056577
72	0xbcd3c99b	-0.025852969
73	0xbeb15b44	-0.34639943
74	0xbdfdf5ef	-0.12400424
75	0xbe8bd718	-0.2731254
76	0xbec74a8d	-0.38924065
77	0x3e664719	0.22488059
78	0x3e723b75	0.23655494
79	0x3db6cba7	0.08925562
80	0x3d0d196e	0.03444808
81	0x3e99d8a1	0.30048087
82	0xbdef73f3	-0.116920374
83	0xbe2e7a9b	-0.17038958
84	0xbdf8fa69	-0.12157137
85	0x3db4c935	0.0882744
86	0x3dbac252	0.09119095
87	0x3e36ea21	0.1786275
88	0xbc0eb2d2	-0.008709626
89	0xbde94d03	-0.11391642
90	0x3e1ab758	0.15109003
91	0x3e3baad7	0.18326889
92	0xbd8f8492	-0.07007708
93	0xbddd1e98	-0.10796851
94	0xbe94667f	-0.28984448
95	0x3da079e7	0.07835751
96	0xbccedcd2	-0.02525178
97	0xbe3128ea	-0.17300764
98	0xbc3376c6	-0.010953611
99	0x3e9fb812	0.31195122
100	0x3e0e2ec0	0.13885021
101	0xbd89125b	-0.06692954
102	0xbd67d5ff	-0.056600567
103	0xbeaba344	-0.33523
104	0x3e4397d6	0.1910089
105	0xbdf081cd	-0.117435075
106	0x3da428c1	0.08015586
107	0xbd388fb8	-0.045058936
108	0xbd2a6bcf	-0.04160672
109	0xbe218dae	-0.15776703
110	0xbe60942e	-0.21931526
111	0x3e353f7d	0.177
112	0xbdd35f3b	-0.10320898
113	0xbdc077ca	-0.09397848
114	0x3e0d7aeb	0.1381642
115	0x3cda2def	0.026633231
116	0x3e0623e1	0.13099624
117	0xbc9ca42c	-0.019121252
118	0xbed70166	-0.41993254
119	0x3d8e48c2	0.06947471
120	0x3defe04f	0.11712705
121	0xbd4b06bf	-0.04956698
122	0x3d8776dc	0.066144675
123	0x3ea2d1f9	0.3180082
124	0x3ebce266	0.36891478
125	0x3eaf8991	0.34284642
126	0xbee191ff	-0.440567
127	0x3da64ad6	0.081197426
128	0xbd80b207	-0.06283956
129	0xbe06326f	-0.13105176
130	0xbd5a646a	-0.05331842
131	0xbea79c3d	-0.32736388
132	0x3d6b14bf	0.057392832
133	0xbe2f23dc	-0.17103523
134	0xbe1de3f8	-0.15418994
135	0xbd7eb94c	-0.06218843
136	0xbc0a209d	-0.008430627
137	0xbd62b618	-0.05534944
138	0xbdd9d539	-0.10636372
139	0x3be969b7	0.007123198
140	0xbd95b84e	-0.07310544
141	0xbdf50dbe	-0.11965512
142	0x3d44cd56	0.048047386
143	0x3e1e5544	0.15462214
144	0x3e0013dc	0.12507576
145	0xbe6df22f	-0.23236917
146	0xbe0eb0b1	-0.1393459
147	0xbf218c82	-0.6310502
148	0x3e0c91cd	0.13727494
149	0x3e49f7fe	0.19723508
150	0x3e06c001	0.13159181
151	0x3e4ae382	0.1981335
152	0xbea79d99	-0.32737425
153	0xbb69c841	-0.003567234
154	0x3e8ea7af	0.27862307
155	0x3d8c251c	0.068430156
156	0xbe4223ad	-0.18958922
157	0xbd914090	-0.070923924
158	0xbdee2f86	-0.11630158
159	0xbd8ded92	-0.069300786
160	0xbe0bbdb1	-0.1364658
161	0xbdd8712b	-0.1056846
162	0xbe305801	-0.17221071
163	0xbde1e2c6	-0.11029582
164	0xbddaf6d2	-0.106916085
165	0xbc1dc931	-0.009630487
166	0xbdfd835e	-0.12378572
167	0xbded0a2a	-0.11574204
168	0x3d1f9490	0.03896004
169	0x3d04707a	0.03233383
170	0x3d5613b5	0.052264888
171	0xbc37dfd0	-0.011222795
172	0xbc2a3891	-0.010389463
173	0x3e464eaa	0.19365945
174	0x3d5ce7fc	0.053932175
175	0x3d8bdade	0.06828855
176	0xbc30f500	-0.0108006
177	0xbe09bedb	-0.13451712
178	0xbdb6d928	-0.08928138
179	0xbd6ec5f4	-0.05829425
180	0xbd547cfa	-0.051877
181	0x3d8248d5	0.06361548
182	0xbe0aea82	-0.1356602
183	0x3e6b2771	0.22964264
184	0x3be97b4a	0.007125293
185	0x3db9e1db	0.09076282
186	0x3d524416	0.051334463
187	0x3dee3440	0.1163106
188	0xbd3694f6	-0.044575654
189	0x3ddb3c72	0.107048884
190	0xbe61c2ad	-0.22046919
191	0x3dd0c948	0.10194641
192	0xbd9410b4	-0.07229748
193	0xbd767962	-0.060174353
194	0x3e661e0d	0.22472401
195	0xbe00f48c	-0.12593287
196	0x3e16df6c	0.14733666
197	0x3e69eb66	0.22843704
198	0xbe1e3d43	-0.15453057
199	0x3ce5a47c	0.028032534
200	0xbd29872c	-0.041388676
201	0x3e9a2ebd	0.30113783
202	0xbe0d9af2	-0.13828638
203	0x3e3ad462	0.1824508
204	0xbd9db8b7	-0.07701247
205	0xbd81a49a	-0.063302234
206	0xbed4d4cb	-0.41568598
207	0x3df7fac5	0.12108377
208	0xbe2e7afc	-0.17039102
209	0xbd6b1957	-0.057397213
210	0xbe0e05ee	-0.1386945
211	0xbe2db786	-0.1696454
212	0x3de3bcac	0.11119971
213	0xbe0e13c9	-0.13874735
214	0x3e323b35	0.17405398
215	0x3dc42232	0.09576835
216	0xbbf837ee	-0.0075750267
217	0x3e8dab37	0.2766969
218	0xbd92104f	-0.07132017
219	0xbd49bdfb	-0.049253445
220	0xbd366b33	-0.044535827
221	0xbc1b6a9d	-0.009485868
222	0xbe1d9a9b	-0.15391009
223	0x3dac5442	0.084145084
224	0xbe96d7f8	-0.29461646
225	0x3e84d16b	0.25941023
226	0xbe06a4a6	-0.13148746
227	0xbc8d4732	-0.017245863
228	0x3e6dddc4	0.23229128
229	0x3e4100df	0.18847989
230	0x3da4a849	0.0803991
231	0x3d9102b6	0.07080595
232	0x3f3b3e0d	0.73141557
233	0x3e186be8	0.14884913
234	0xbddaaf08	-0.10677916
235	0xbda220a1	-0.0791638
236	0xbd87d5ea	-0.06632598
237	0x3d76fc66	0.0602993
238	0x3d72870c	0.059210822
239	0x3cae96a6	0.02131207
240	0xbce96bdd	-0.028493816
241	0xbe4dfe08	-0.20116436
242	0x3e4d3577	0.20039926
243	0xbdb31a2f	-0.087452285
244	0xbc813374	-0.015771605
245	0x3e193f20	0.14965487
246	0xbcc7178b	-0.024303218
247	0xbdd71181	-0.105013855
248	0x3d356d93	0.04429395
249	0xbe850b6d	-0.2598528
250	0xbdeb726c	-0.114964336
251	0x3db2a54e	0.087229356
252	0xbdc1f2fa	-0.09470172
253	0x3adb2784	0.0016720151
254	0x3bda3a40	0.006659776
255	0x3e7796f1	0.24178673

gru.bias_ih_l0 f4 [300]
0	0xbd4a3cc8	-0.04937437
1	0xbca006c1	-0.01953447
2	0x3d8b829c	0.06812021
3	0x3d4ae84c	0.04953794
4	0x3e48b7fa	0.19601431
5	0x3c2a220c	0.010384094
6	0xbc583a0a	-0.013197431
7	0xbdb6e22d	-0.08929858
8	0xbe9134a3	-0.2836047
9	0xbe01fe2b	-0.12694614
10	0x3bd22eed	0.0064142854
11	0x3ded8a6f	0.1159867
12	0xbe0b0e7b	-0.13579743
13	0xba093c03	-0.00052350777
14	0xbdd3044d	-0.10303555
15	0xbe055742	-0.13021567
16	0xbdead20b	-0.11465844
17	0x3d616dc6	0.05503633
18	0xbcc952df	-0.024575649
19	0xbe6e1281	-0.23249246
20	0xbd39a7a7	-0.0453259
21	0xbc5a1120	-0.013309747
22	0xbe208e8c	-0.15679377
23	0xbe387293	-0.18012457
24	0x3e47e1b0	0.19519687
25	0xbe52f299	-0.20600356
26	0xbe2cdab5	-0.16880305
27	0x3d5729de	0.052530162
28	0xbdd58950	-0.10426581
29	0xbd434a1a	-0.04767809
30	0xbdcb406c	-0.09924397
31	0xbd967eb2	-0.07348384
32	0xbd56ad96	-0.05241164
33	0xbe602a45	-0.21891125
34	0x3dfaf9d9	0.12254686
35	0xbe004885	-0.12527664
36	0xbc5bc769	-0.013414242
37	0xbe82625b	-0.25465664
38	0x3e02d368	0.12775958
39	0xbc501b28	-0.012701787
40	0xbdbe2afb	-0.092855416
41	0xbba989a6	-0.0051738797
42	0xbd85b952	-0.06529488
43	0xbe134a0f	-0.1438372
44	0x3c39f523	0.011349949
45	0xbd9de3a8	-0.077094376
46	0xbbfdbb8b	-0.007743304
47	0xbd522f37	-0.05131456
48	0x3df6db76	0.120535776
49	0x3e016006	0.12634286
50	0xbdb2e957	-0.08735912
51	0xbc822225	-0.015885422
52	0xbd4c5c52	-0.04989273
53	0xbd8eaf17	-0.069669895
54	0xbe577bfe	-0.21043393
55	0x3d35d271	0.044390146
56	0xbd7f6552	-0.062352486
57	0x3dbc1401	0.09183503
58	0x3e159870	0.14608932
59	0x3e626a7c	0.22110933
60	0xbe0dfe91	-0.1386664
61	0xbe071ef4	-0.13195401
62	0xbe4cf923	-0.20016913
63	0xbdeccc27	-0.115623765
64	0xbe336964	-0.17520672
65	0x3d9d1355	0.07669703
66	0xbe3fb150	-0.18719983
67	0xbe1112a6	-0.1416727
68	0xbdafb412	-0.085792676
69	0xbe474711	-0.19460703
70	0xbc0a40cc	-0.0084383
71	0x3e287f6a	0.16454855
72	0xbdced502	-0.10099222
73	0xbd7056d5	-0.05867656
74	0xbe0e1a09	-0.13877119
75	0xbde89163	-0.11355855
76	0x3e950b66	0.2911026
77	0xbd85c320	-0.06531358
78	0x3d7dddb3	0.061979007
79	0xbd25affe	-0.040451042
80	0xbd4213c6	-0.04738214
81	0x3e49c9fa	0.19705954
82	0xbd1dfe8e	-0.03857284
83	0xbe63ee91	-0.22258975
84	0x3d976f3c	0.07394263
85	0xbdfc4453	-0.12317719
86	0xbdf34f36	-0.11880343
87	0x3ce792a2	0.028268162
88	0x3bacab64	0.005269455
89	0xbe35a263	-0.17737727
90	0x3e40e1e3	0.18836169
91	0x3e26f8dd	0.16305871
92	0x3c5e0ee2	0.013553353
93	0xbcad0ac9	-0.021123307
94	0x3d0275fb	0.031850796
95	0xbd709e2b	-0.05874459
96	0xbc841733	-0.016124343
97	0xbe060eda	-0.13091603
98	0x3e6e7202	0.23285678
99	0xbe10081d	-0.14065595
100	0x3e5b3347	0.2140628
101	0x3dc0ca6b	0.09413608
102	0x3e3e92ed	0.18610735
103	0xbe243497	-0.16035686
104	0x3ec3af2f	0.38219592
105	0x3e2145fc	0.15749353
106	0x3d69353d	0.056935538
107	0x3d9fab63	0.07796361
108	0x3e5cde09	0.21569075
109	0x3ea97408	0.33096337
110	0x3dd84e8b	0.10561856
111	0x3f03a633	0.51425475
112	0x3e99ca2f	0.30037066
113	0x3eba7ffe	0.36425775
114	0x3dd1dcc8	0.10247189
115	0x3ec1fefb	0.37889847
116	0x3de22be6	0.11043529
117	0x3dd58b87	0.10427003
118	0xbcc3c760	-0.02389878
119	0x3e882d51	0.26597074
120	0x3e22803c	0.1586923
121	0x3e0450f1	0.12921502
122	0x3d29970a	0.041403808
123	0x3e82a40c	0.25515783
124	0xbd72b23e	-0.059252016
125	0xbd27dcea	-0.040982164
126	0xbe2f0844	-0.17092997
127	0x3d21354b	0.039357465
128	0x3e4fa483	0.202776
129	0xbc6a5d36	-0.01430445
130	0x3e46d4f9	0.1941718
131	0x3e33f12b	0.17572467
132	0x3e311315	0.17292435
133	0x3def37e9	0.11680586
134	0x3e20f22e	0.15717384
135	0x3e1779af	0.14792512
136	0x3e0f310b	0.13983552
137	0x3de7bf4e	0.11315785
138	0xbd5e9067	-0.05433693
139	0x3eb26fcc	0.3485092
140	0x3bfa19bc	0.0076324623
141	0x3e47dcf4	0.1951788
142	0x3e4b0e36	0.1982964
143	0x3db70078	0.08935636
144	0x3e8b6993	0.27228984
145	0x3e29b970	0.16574645
146	0x3dd11d7c	0.10210702
147	0x3d13d504	0.03609182
148	0xbe02c885	-0.12771805
149	0x3eb19a9a	0.34688264
150	0x3e1a4cf8	0.15068424
151	0xbe0192b9	-0.12653627
152	0x3e6a756c	0.22896355
153	0x3c736bbd	0.01485723
154	0x3e8916b3	0.2677513
155	0xbd8cc142	-0.068727985
156	0x3e211558	0.15730798
157	0x3e3c2751	0.18374373
158	0xbda71f1b	-0.0816023
159	0x3e95225f	0.29127786
160	0x3ea6828c	0.32521474
161	0x3ec310f8	0.38098884
162	0x3e6bd3b4	0.23029977
163	0x3e48afe8	0.19598353
164	0x3d094e47	0.033521917
165	0x3dba3e07	0.09093862
166	0x3d0d8c1b	0.034557443
167	0x3e1b9fc3	0.15197663
168	0xbe5eedfe	-0.21770474
169	0xbcd8ff98	-0.026489064
170	0x3e430820	0.19046068
171	0x3dfe869b	0.12428018
172	0xbe8c19b0	-0.27363348
173	0x3e8ad0d7	0.27112457
174	0x3e2fe317	0.17176472
175	0x3e8ca63a	0.2747057
176	0xbde4e168	-0.11175805
177	0x3d48f755	0.049064
178	0x3cd9e75b	0.026599577
179	0x3e62ee28	0.22161162
180	0x3e3ef216	0.18647036
181	0x3c48234f	0.0122154495
182	0xbdd6c83e	-0.10487412
183	0x3dd2becb	0.10290297
184	0x3e072c99	0.13200606
185	0x3e99f56d	0.30070058
186	0x3e2aedd0	0.16692281
187	0x3e5f6335	0.21815188
188	0x3e26397f	0.1623287
189	0x3eb40b6e	0.3516497
190	0x3e971918	0.29511333
191	0x3e6050ec	0.21905869
192	0x3e647907	0.22311793
193	0x3e516443	0.20448403
194	0x3e07f925	0.13278635
195	0x3e0b91ff	0.13629912
196	0x3e4c0718	0.19924581
197	0x3d7ee5ae	0.06223076
198	0x3ddf9825	0.10917691
199	0x3de81079	0.11331267
200	0x3e7ebe25	0.24877222
201	0x3e1a935c	0.15095276
202	0x3dcfd698	0.101483524
203	0xbd646496	-0.05575999
204	0x3cc7e3c2	0.024400596
205	0xbe79d282	-0.24396709
206	0xbdb0ffdc	-0.08642551
207	0xbe129da0	-0.14317942
208	0xbdfb5f48	-0.12274033
209	0xbd9bc454	-0.07605806
210	0x3f11684c	0.5679977
211	0x3b50aa13	0.0031839653
212	0xbd3ec74c	-0.046576783
213	0x3e36ec9a	0.17863694
214	0xbd94f831	-0.07273901
215	0xbe1460be	-0.14490029
216	0xbde27e41	-0.11059237
217	0x3ddc7628	0.10764724
218	0x3e19d8f7	0.15024172
219	0xbd630797	-0.05542716
220	0xbdeab221	-0.11459757
221	0xbe226008	-0.15856946
222	0x3ddacb77	0.10683339
223	0x3dadeefe	0.0849285
224	0x3ebd63cf	0.3699021
225	0x3e0606e6	0.13088569
226	0xbe0e6473	-0.13905506
227	0x3c0e4211	0.008682744
228	0x3e887e26	0.26658744
229	0x3e55e33e	0.20887467
230	0xbdbec833	-0.09315529
231	0x3df97b29	0.12181694
232	0x3dd35346	0.103186175
233	0x3da1b16b	0.07895168
234	0x3e77a538	0.2418412
235	0x3e1525a6	0.14565143
236	0xbb8143ef	-0.003944866
237	0x3d413b13	0.04717548
238	0x3e82b2b2	0.2552696
239	0x3e7f343e	0.24922273
240	0x3d8fb459	0.070168205
241	0x3e56f91c	0.20993465
242	0xbdd7faac	-0.10545859
243	0x3d475b06	0.04867079
244	0xbd74cf95	-0.05976828
245	0x3cc52804	0.024066932
246	0x3b8718a0	0.0041228086
247	0x3d8ef69b	0.0698063
248	0x3d8f691b	0.07002469
249	0xbea9e132	-0.33179623
250	0xbe6d495b	-0.23172514
251	0x3d12a53f	0.035802122
252	0x3dcc105a	0.09964056
253	0xbd07720c	-0.033067748
254	0x3dec6dc2	0.11544372
255	0xbe6a1a58	-0.22861612

gru.bias_hh_l0 f4 [300]
0	0xbd643a0d	-0.055719424
1	0x3bf401c0	0.0074464977
2	0x3dede26b	0.116154514
3	0x3c501afd	0.012701747
4	0x3e171c45	0.14756878
5	0xb9f819bc	-0.0004732142
6	0xbda529c9	-0.080646105
7	0xbe3d6887	-0.18496905
8	0xbe394ea5	-0.18096407
9	0xbd77793a	-0.060418345
10	0xbd48ef3e	-0.049056284
11	0x3d71662d	0.058935333
12	0xbde449f7	-0.1114692
13	0x3ddb90be	0.10720967
14	0xbe31c8fc	-0.17361826
15	0xbe10759f	-0.14107369
16	0xbe5c679f	-0.21523903
17	0xbc11dcc8	-0.008902736
18	0xbdccddca	-0.100032404
19	0xbe4fd0a9	-0.20294441
20	0xbd8c90fd	-0.06863592
21	0x3b9d4d8f	0.0048005055
22	0xbe62146b	-0.22078101
23	0xbdfe88ca	-0.12428434
24	0x3e1d4166	0.15356979
25	0xbe16a538	-0.14711463
26	0xbd907441	-0.07053424
27	0xbcc9c8fd	-0.024631971
28	0xbdb78084	-0.08960059
29	0xbd1e1d6d	-0.03860228
30	0xbdb78ecc	-0.08962783
31	0xbe21b0d1	-0.15790106
32	0xbd8c5d54	-0.068537384
33	0xbe36ecd8	-0.17863786
34	0x3df8c8e4	0.12147692
35	0xbe04b9f1	-0.12961556
36	0x3d8c1702	0.06840326
37	0xbe2f72f6	-0.17133698
38	0x3e2ace03	0.1668015
39	0xbdda84dd	-0.10669873
40	0xbd007237	-0.031358924
41	0xbdbcc764	-0.09217718
42	0xbdaf67aa	-0.08564694
43	0xbe17ae80	-0.1481266
44	0x3cf6274a	0.030048031
45	0xbcddc493	-0.027071273
46	0xbcaade42	-0.020857934
47	0xbdc79ac9	-0.0974632
48	0x3d876eb7	0.06612914
49	0x3e40c1b4	0.18823892
50	0xbe13110a	-0.14361969
51	0xbd0fd693	-0.035116743
52	0xbd927f01	-0.0715313
53	0xbe06f061	-0.13177635
54	0xbe40efc0	-0.18841457
55	0xbd728282	-0.059206493
56	0xbdddf539	-0.10837788
57	0x3de3cdba	0.111232236
58	0x3d9104f7	0.07081025
59	0x3e588d4a	0.21147648
60	0xbdac77e6	-0.08421306
61	0xbe4eedd7	-0.20207916
62	0xbe4d3136	-0.20038304
63	0xbc46dcfd	-0.012137649
64	0xbdf7707a	-0.12082
65	0x3e3c9da9	0.18419518
66	0xbe3c3d9c	-0.18382877
67	0xbdd6b616	-0.10483949
68	0x3cbe3a9f	0.023221312
69	0xbdfd5511	-0.12369741
70	0xbdb83e4d	-0.08996258
71	0x3e3b994b	0.18320195
72	0xbe0488d9	-0.12942828
73	0xbdb592e2	-0.08865906
74	0xbd7a35ff	-0.06108665
75	0xbd92cc04	-0.07167819
76	0x3e9fc7ba	0.31207067
77	0xbdb28fa0	-0.087188005
78	0x3db749d4	0.089496285
79	0xbd94e9a7	-0.07271128
80	0xbd9aa120	-0.075502634
81	0x3e318968	0.17337573
82	0xbc2159b3	-0.009848046
83	0xbe00b5e4	-0.12569386
84	0x3b3a397e	0.0028415616
85	0xbe046ad7	-0.12931381
86	0xbd6d6864	-0.057960883
87	0x3d2a8616	0.04163178
88	0x3c42d614	0.0118918605
89	0xbe666945	-0.22501095
90	0x3e3f8fcc	0.18707198
91	0x3e34a85b	0.17642348
92	0xbd306c6d	-0.043072153
93	0xbd8b7138	-0.06808704
94	0x3c84a8ed	0.016193831
95	0xbd8f997b	-0.07011696
96	0x3d2d6c87	0.042339828
97	0xbd1ef93c	-0.038811907
98	0x3e15c565	0.14626081
99	0xbe09eceb	-0.13469283
100	0x3e620435	0.22071917
101	0x3e10e720	0.14150667
102	0x3e31dcee	0.17369434
103	0xbe661d3d	-0.22472091
104	0x3ebbe66d	0.36699238
105	0x3e3e5b04	0.18589407
106	0x3b9179ec	0.004439583
107	0x3c8a969b	0.016917517
108	0x3dd71b94	0.10503307
109	0x3ec0d477	0.37662098
110	0x3dec5b71	0.115408786
111	0x3ed29ac9	0.41133717
112	0x3ea5c4f0	0.32376814
113	0x3eb0e07a	0.34546262
114	0x3e13dd43	0.14439873
115	0x3edc8967	0.4307358
116	0x3e2bafdf	0.16766308
117	0x3d63410c	0.055481955
118	0xbdf8e9d5	-0.12153975
119	0x3e85eca6	0.2615711
120	0x3e2c1055	0.16803105
121	0x3dc454d2	0.09586491
122	0x3c90907f	0.017647026
123	0x3e453685	0.19259079
124	0xb9f565d4	-0.0004680591
125	0x3d8037b0	0.062606215
126	0xbe40aa18	-0.18814886
127	0x3dd6c63f	0.10487031
128	0x3e572ad0	0.21012425
129	0x3dc33e97	0.095334224
130	0x3e7c5d34	0.24644929
131	0x3e327744	0.17428309
132	0x3e02fc74	0.12791616
133	0x3dd26a1f	0.10274147
134	0x3e25f9fc	0.16208643
135	0x3e6e9df5	0.23302443
136	0x3e25b4c7	0.16182242
137	0x3e06e8c6	0.13174734
138	0xbdb0d4fa	-0.08634372
139	0x3ec1ccb8	0.378515
140	0x3d976b41	0.07393504
141	0x3e816d91	0.25278905
142	0x3e5a2c9d	0.21306081
143	0x3db3162a	0.08744462
144	0x3ec1907e	0.3780555
145	0x3e5971ce	0.2123482
146	0x3d903440	0.07041216
147	0xbd4cbe7c	-0.049986348
148	0xbe1dbd15	-0.1540416
149	0x3e87a4bb	0.26492867
150	0x3e0870cc	0.13324279
151	0xbe3e22af	-0.18567918
152	0x3e3282fa	0.17432776
153	0x3de8c94e	0.11366521
154	0x3e8e2489	0.2776225
155	0xbd6df7af	-0.058097538
156	0x3e3002af	0.17188524
157	0x3e369514	0.17830306
158	0xbdd09972	-0.10185517
159	0x3e74956a	0.23885122
160	0x3e74ac01	0.2389374
161	0x3eb2fda1	0.34959128
162	0x3e813f3e	0.25243562
163	0x3de33cd1	0.11095584
164	0x3d241986	0.040063404
165	0x3e317d5d	0.17332979
166	0x3cd2d7a5	0.025737593
167	0x3d994811	0.07484449
168	0xbe97cd3d	-0.29648772
169	0x3d40edb0	0.047101676
170	0x3e1bc8f4	0.15213376
171	0x3ddf35e3	0.1089895
172	0xbe7728b0	-0.24136615
173	0x3ebbbba6	0.36666602
174	0x3e264dc8	0.16240609
175	0x3e869ffd	0.26293936
176	0xbd596967	-0.053079035
177	0x3d1a5711	0.03768069
178	0x3de76fb4	0.113006026
179	0x3e8aecf0	0.27133894
180	0x3e8993cf	0.26870582
181	0x3d3f43f1	0.046695653
182	0x3c9a892f	0.018864242
183	0x3e09651e	0.1341748
184	0x3e0906a1	0.13381435
185	0x3e8b9744	0.27263844
186	0x3da1d862	0.079026
187	0x3e1ba821	0.15200855
188	0x3e1d3a40	0.15354252
189	0x3e8e8c4b	0.2784141
190	0x3e71782b	0.23580997
191	0x3e543b09	0.20725645
192	0x3e83da84	0.25752652
193	0x3e860180	0.2617302
194	0x3e43f024	0.19134575
195	0x3e4202f2	0.18946436
196	0x3e06ede5	0.13176687
197	0x3d50c6e1	0.050970916
198	0x3de923bb	0.11383768
199	0x3dad9afe	0.08476828
200	0x3e1d21d2	0.15344933
201	0x3e7d6fd0	0.24749684
202	0x3e09eee5	0.13470037
203	0xbddf8783	-0.10914519
204	0x3c9d1cfd	0.019178862
205	0xbdfeab98	-0.12435073
206	0xbd863d12	-0.06554617
207	0xbe298b01	-0.16556932
208	0xbc8bd91b	-0.017071297
209	0xbd228a84	-0.03968288
210	0x3ea092c7	0.31361982
211	0xbcdd0657	-0.026980562
212	0x3de0b47a	0.10971923
213	0x3e303065	0.17205961
214	0x3e830ed2	0.25597245
215	0xbdb9ba77	-0.090687685
216	0xbe3a39a7	-0.18186055
217	0x3e3ff527	0.18745862
218	0x3e6cac2f	0.23112558
219	0xbe0f29ad	-0.13980742
220	0xbe722f86	-0.23650941
221	0xbe363359	-0.17793025
222	0xbcef000e	-0.02917483
223	0x3df895df	0.12137961
224	0x3f2766eb	0.65391415
225	0x3e1142aa	0.14185587
226	0xbdbdcea7	-0.092679314
227	0xbd1e8137	-0.038697448
228	0x3ea41856	0.32049817
229	0x3ab64789	0.0013906817
230	0xbdb7c3e7	-0.08972912
231	0x3e507abd	0.20359321
232	0x3e1c0b98	0.15238798
233	0x3e3150c7	0.1731597
234	0x3ea813f8	0.32827735
235	0x3e8febdb	0.2810963
236	0x3e07fcd1	0.13280036
237	0x3d4c52f0	0.049883783
238	0x3ecc2920	0.39875126
239	0x3e1f784d	0.15573235
240	0x3b1e2533	0.002413106
241	0x3e8a8ae8	0.27059102
242	0xbe64c039	-0.22338952
243	0x3c83fc63	0.016111558
244	0xbe286edb	-0.16448538
245	0xbd4b62f4	-0.049654916
246	0xbd2c2a33	-0.04203243
247	0x3e1638cf	0.14670108
248	0x3e0ca7f8	0.1373595
249	0xbed4f6bb	-0.4159449
250	0xbe568d6b	-0.20952384
251	0xbd7428ee	-0.059609346
252	0x3e32e680	0.17470741
253	0x3e0ac40c	0.13551348
254	0x3d8af5d7	0.067851715
255	0xbed866bf	-0.4226589

dense_output.0.weight f4 [100, 100]
0	0xbd58afaf	-0.05290192
1	0x3b4739ae	0.003039937
2	0xbdcba0ca	-0.099427775
3	0xbdb2970f	-0.087202184
4	0x3e7ecd01	0.2488289
5	0xbc9ec71b	-0.01938205
6	0xba534975	-0.0008059957
7	0xbd602d97	-0.054730978
8	0xbdb0809e	-0.08618282
9	0xbdc451d9	-0.09585924
10	0x3c833859	0.01601808
11	0xbbfcb7f4	-0.0077123586
12	0x3d22a834	0.039711192
13	0xbdcaf2f6	-0.09909622
14	0xbdb469ac	-0.08809218
15	0x3c9a1801	0.018810274
16	0x3d9fa0fd	0.07794378
17	0xbcd44417	-0.025911374
18	0xbbbc4668	-0.0057456978
19	0x3e3e792f	0.18600915
20	0x3e0bd322	0.1365476
21	0x3ca74cfe	0.020422455
22	0x3dfae985	0.122515716
23	0xbdd3be65	-0.10339049
24	0x3c9b8447	0.018983973
25	0x3dc08b74	0.094015986
26	0xbe0d96cf	-0.1382706
27	0xbd4c96a2	-0.049948342
28	0xbd330bd4	-0.043712452
29	0x3d7edae4	0.06222047
30	0xbd89389a	-0.06700249
31	0xbd2707f0	-0.040779054
32	0xbdd22780	-0.1026144
33	0xbdcccc2e	-0.09999882
34	0x3dd9c879	0.1063394
35	0xbe477d0f	-0.194813
36	0xbdbf9b5e	-0.09355806
37	0xbe048330	-0.12940669
38	0xbd4fd88a	-0.050743617
39	0x3d58453d	0.052800406
40	0xbd24fb6b	-0.040278833
41	0xbbd50b6c	-0.0065016057
42	0x3e5ab2f4	0.21357328
43	0xbd2d4f8b	-0.042312186
44	0x3dc76a8a	0.097371176
45	0xbdc4a6e9	-0.09602148
46	0x3de0a3b0	0.10968721
47	0x3ce22e6e	0.02761003
48	0x3c775e0c	0.015098106
49	0x3d718a5f	0.05896985
50	0x3d57170b	0.05251221
51	0x3cae2b16	0.02126078
52	0xbd9a05e5	-0.075206555
53	0xbd487bf3	-0.048946332
54	0xbd8e6479	-0.069527574
55	0x3da9109f	0.08255123
56	0x3d04c545	0.032414693
57	0x3d0bd01f	0.034134027
58	0xbd58c1bc	-0.052919134
59	0xbe633df9	-0.2219161
60	0x3dcd8b63	0.100363515
61	0x3d301c0f	0.04299551
62	0xbe0fc0c2	-0.14038375
63	0xbd937fce	-0.07202111
64	0xbd9c0d5f	-0.07619738
65	0x3c9a362c	0.01882466
66	0xbdd34133	-0.1031517
67	0xbd19e692	-0.037573405
68	0x3dd9f24d	0.10641918
69	0x3e054d5f	0.13017796
70	0x3c084e99	0.00831952
71	0x3c77c200	0.015121937
72	0x3d8ea63e	0.06965302
73	0xbe217bc0	-0.15769863
74	0x3cd112a4	0.025521584
75	0x398446ab	0.00025229654
76	0xbc61fd5c	-0.013793316
77	0x3d1aab95	0.03776129
78	0x3b5673b7	0.003272278
79	0x3c102659	0.008798205
80	0x3d9d610c	0.07684526
81	0x3d917b7d	0.07103632
82	0x3d00d11c	0.031449422
83	0x3c50649e	0.0127193015
84	0xbca94cc8	-0.020666495
85	0x3dd221b2	0.10260333
86	0x3dd05d37	0.10174029
87	0x3e08ee7a	0.13372222
88	0xbc6e242a	-0.014534989
89	0x3dbea01a	0.09307881
90	0xbe0a4fe4	-0.13507038
91	0xbd1f577a	-0.038901784
92	0xbcd1b0e4	-0.025597043
93	0xbdd92211	-0.10602201
94	0xbccaf363	-0.024774259
95	0xbda49180	-0.080355644
96	0xbd9acfbd	-0.07559154
97	0x3d8fb18d	0.07016287
98	0xbd35f1bd	-0.044419993
99	0x3ca44ad2	0.020055208
100	0x3d188a29	0.037241135
101	0x3e8154b5	0.2525994
102	0xbd8e2d69	-0.06942255
103	0xbd78cd0a	-0.060742415
104	0x3e028773	0.12746982
105	0x3d0d09a5	0.034433026
106	0xbb54304e	-0.0032377425
107	0xbc17bd88	-0.009261496
108	0xbd8cb1ca	-0.06869848
109	0xbdc2a342	-0.09503795
110	0x3dc9be5c	0.09850761
111	0x3da78179	0.08178992
112	0x3c988084	0.018615969
113	0xbd66c891	-0.05634362
114	0xbdc2148b	-0.094765745
115	0x3c6b4672	0.014360057
116	0x3d64f9fd	0.05590247
117	0xbd964886	-0.073380515
118	0x3d612730	0.054969013
119	0x3d8c4327	0.06848746
120	0x3d269123	0.040665757
121	0xbe0599b3	-0.13046913
122	0x3bd9ded2	0.0066488767
123	0x3bb5a4ff	0.0055433507
124	0xbdc2b736	-0.09507601
125	0xbcfe26e6	-0.031024408
126	0x3d6ebeda	0.05828748
127	0xbd2b9cb0	-0.041897476
128	0xbd33b958	-0.04387793
129	0x3de31998	0.11088866
130	0xbd908903	-0.07057383
131	0x3d45d0a0	0.048294663
132	0xbc099b51	-0.008398847
133	0x3c729d90	0.014808074
134	0x3d2b204f	0.04177886
135	0x3c84626f	0.016160218
136	0xbb84141e	-0.0040307185
137	0xbcaa4126	-0.020783018
138	0xbd0fd32e	-0.035113506
139	0x3e2581b9	0.16162767
140	0xbce1556e	-0.027506556
141	0xbb0f951c	-0.0021908944
142	0x3db0d071	0.08633507
143	0xbd84684d	-0.06465206
144	0x3dd236db	0.10264369
145	0xbdeb6974	-0.11494723
146	0x3d6bf856	0.05760988
147	0xbda9f7b3	-0.08299198
148	0x3e099ca7	0.13438664
149	0xbda29106	-0.07937817
150	0x3d312799	0.043250654
151	0x3cf6b798	0.030116841
152	0xbce5b795	-0.02804164
153	0x3d0ae7e2	0.033912547
154	0xbd838f3f	-0.064238064
155	0xbcf1384e	-0.029445793
156	0xbc95091e	-0.018192824
157	0x3c61e7a5	0.0137881385
158	0x3af33001	0.0018553735
159	0xbda4f9bd	-0.08055446
160	0xbd6ae8e1	-0.057350997
161	0xbd482225	-0.048860688
162	0xbdc898ee	-0.09794794
163	0x3dea90bc	0.11453387
164	0xbb1050d6	-0.0022020838
165	0xbe373235	-0.17890246
166	0xbda21a41	-0.07915164
167	0xbd3ab30e	-0.045580916
168	0xbcb88b01	-0.02252722
169	0x3c8aa0ff	0.016922472
170	0xbd432309	-0.047640834
171	0xbdd7a96b	-0.10530361
172	0xbdd41fb7	-0.103576116
173	0xbe1c3f66	-0.1525856
174	0x3ce9aabb	0.028523793
175	0x3c55e955	0.013056119
176	0x3e2d676c	0.16933984
177	0x3db4ab0e	0.088216886
178	0x3d5d63ba	0.054050185
179	0xbd8dbe5c	-0.06921074
180	0xbcad5558	-0.02115886
181	0x3cc4d57c	0.024027579
182	0xbd81340a	-0.06308754
183	0x3d4c9d0e	0.049954467
184	0xbc404046	-0.011734074
185	0x3d9fc1f6	0.07800667
186	0x3d824a18	0.063617885
187	0xbca94410	-0.020662338
188	0xbcfe333f	-0.031030295
189	0xbdaae20b	-0.083438955
190	0xbda79e58	-0.081844985
191	0x3ba98fb8	0.0051746033
192	0xbd8b4c54	-0.06801668
193	0x3d11c876	0.035591565
194	0xbdb43edd	-0.08801053
195	0xbdb86960	-0.09004474
196	0x3d60775b	0.054801326
197	0x3cd903cc	0.026491068
198	0x3cb7e562	0.022448245
199	0x3d003545	0.0313008
200	0xbd117284	-0.0355096
201	0x3e22f7be	0.15914819
202	0xbd8f1086	-0.069855735
203	0x3d63a3b8	0.055576056
204	0x3e1ecdf0	0.15508246
205	0x3cd3a05d	0.025833303
206	0x3ca9cf21	0.02072865
207	0x3d3ffa19	0.04686937
208	0xbda1e5e6	-0.07905178
209	0x3bf2185b	0.0073881573
210	0xbca8ed23	-0.020620888
211	0x3c87bde4	0.01657004
212	0xbd4a874d	-0.04944544
213	0xbdd7b043	-0.10531666
214	0x3cc93152	0.02455965
215	0xbbf333fb	-0.007421968
216	0x3e3feb53	0.18742113
217	0xbcc5b3d8	-0.024133608
218	0x3dc01481	0.09378911
219	0xbc227cf0	-0.009917483
220	0x3dfd8e86	0.123807
221	0xbd882abe	-0.066487774
222	0x3d4bc869	0.049751673
223	0xbd87da4c	-0.06633434
224	0xbd97cffe	-0.07412718
225	0xbde00eb2	-0.10940303
226	0xbc4b8301	-0.0124213705
227	0xbc544802	-0.012956621
228	0xbd4ec685	-0.05048229
229	0x3d5ca0d0	0.0538643
230	0xbc90ea34	-0.017689802
231	0x3d69ec06	0.057109855
232	0xbd8b53c6	-0.06803088
233	0xbd3b41f2	-0.045717187
234	0x3d7d5140	0.061845064
235	0x3e0728f2	0.13199213
236	0xbd51e710	-0.05124575
237	0x3cbfe7c7	0.02342595
238	0xbdc5d24b	-0.09659251
239	0x3dbd5dd4	0.09246412
240	0x3d15fa84	0.036615863
241	0x3da944ed	0.082651
242	0x3c209923	0.009802136
243	0x3c7a571b	0.015279557
244	0x3e507e5a	0.203607
245	0xbd83f459	-0.0644309
246	0xbc94668f	-0.01811531
247	0x3dad4a21	0.084614046
248	0x3b8f5a79	0.004374799
249	0x3d9a195a	0.07524367
250	0x3ded6bdd	0.11592839
251	0x3c891d64	0.016737647
252	0x3d6519c1	0.055932764
253	0x3dd6eb8e	0.10494147
254	0xbd6f5688	-0.058432132
255	0xbdb6eec2	-0.08932258

dense_output.0.bias f4 [100]
0	0xbdb0c5a6	-0.086314484
1	0xbe21f7a4	-0.15817124
2	0xbdbf95a4	-0.093547136
3	0xbd1e1ae9	-0.038599882
4	0x3cc5a9a4	0.024128743
5	0xbe1eb61f	-0.15499161
6	0xbe1a190c	-0.15048617
7	0xbd6c72f6	-0.057726823
8	0xbe1645c1	-0.14675047
9	0xbe19b3e0	-0.15010023
10	0xbe16352f	-0.14668725
11	0xbe4de88b	-0.2010824
12	0xbe09c975	-0.13455756
13	0xbdcee564	-0.101023465
14	0xbdec07c4	-0.11524919
15	0xbe4591eb	-0.19293945
16	0xbe0a302b	-0.13494937
17	0xbd9c623e	-0.07635926
18	0xbe0057e5	-0.12533529
19	0xbd817f76	-0.06323139
20	0xbddc990a	-0.107713774
21	0xbe0ccae8	-0.13749278
22	0xbd0f4586	-0.034978412
23	0xbdf749df	-0.12074637
24	0xbe02fce5	-0.12791784
25	0xbda7f1e6	-0.08200435
26	0xbe1b7578	-0.1518153
27	0xbdf78050	-0.120850205
28	0xbd9d2e96	-0.07674901
29	0xbd37f650	-0.044912636
30	0xbdde372a	-0.108503655
31	0xbe01f196	-0.12689814
32	0xbe315ca3	-0.17320494
33	0xbe0bcc3f	-0.13652132
34	0x3de471b3	0.11154499
35	0xbd6ac511	-0.057316843
36	0xbe55f04b	-0.20892446
37	0xbd7ca307	-0.061678912
38	0xbdee75e4	-0.116435796
39	0xbe4389b8	-0.19095504
40	0xbe26b7b7	-0.16281019
41	0xbe1a3cc3	-0.15062241
42	0xbe091e84	-0.13390547
43	0xbe15cdab	-0.14629237
44	0xbd17589a	-0.03694973
45	0xbd8e8ada	-0.069600776
46	0xbdf3fd00	-0.1191349
47	0xbdac65db	-0.08417865
48	0xbe5b0611	-0.21389033
49	0xbdbb6352	-0.09149803
50	0xbdc144a3	-0.094369195
51	0xbe39c529	-0.18141617
52	0xbdadda29	-0.084888764
53	0xbcead4fb	-0.02866601
54	0xbdb5c9d1	-0.08876384
55	0xbdc9a646	-0.09846167
56	0xbe0ccc1a	-0.13749734
57	0xbe1cf5ec	-0.15328187
58	0xbe213049	-0.15741076
59	0xbdfae963	-0.12251546
60	0xbe219ecf	-0.15783237
61	0xbd4ab1f8	-0.04948613
62	0xbd95b8af	-0.07310616
63	0xbe020bf5	-0.12699874
64	0xbe5b4974	-0.21414739
65	0xbe4444e9	-0.19166912
66	0xbe1974be	-0.1498594
67	0xbe0d205d	-0.13781877
68	0xbe2609b1	-0.16214634
69	0xbd1e3ab7	-0.038630214
70	0xbd2bde4c	-0.041960046
71	0xbdc15753	-0.09440484
72	0xbdddcb09	-0.108297415
73	0xbe003581	-0.1252041
74	0xbe2da455	-0.16957219
75	0xbe1f58ef	-0.15561269
76	0xbc9707df	-0.01843637
77	0x3e1d4715	0.15359147
78	0xbe163fc4	-0.14672762
79	0xbbff2fbc	-0.007787673
80	0xbe005595	-0.12532647
81	0xbe19682d	-0.14981146
82	0xbe024d25	-0.12724741
83	0xbe126af7	-0.14298616
84	0xbe113bd4	-0.14182979
85	0xbd4390bb	-0.047745448
86	0xbe06a324	-0.1314817
87	0xbe6b0658	-0.22951639
88	0xbdb2e9f4	-0.08736029
89	0xbd8b658e	-0.068064794
90	0xbdc34bbb	-0.09535929
91	0xbe059e3f	-0.13048647
92	0xbd920bfd	-0.07131193
93	0xbdeccf63	-0.115629934
94	0xbe0bee6e	-0.13665172
95	0x3e5c48d6	0.2151216
96	0xbe074fc5	-0.13214023
97	0xbe086ae4	-0.13322026
98	0xbd79d477	-0.060993638
99	0xbd682d4c	-0.056683823

dense_output.3.weight f4 [9, 100]
0	0xbcc8f3d9	-0.024530338
1	0x3be6fb55	0.007049004
2	0x3ca578a9	0.020199137
3	0xbc38f59b	-0.011289026
4	0x3c911382	0.017709497
5	0xbcddb6c8	-0.027064696
6	0xbd3810ad	-0.04493778
7	0x3d789481	0.0606885
8	0x3e185672	0.14876726
9	0x3c0811ec	0.008305054
10	0x3c1b4874	0.009477723
11	0xb99d176c	-0.00029962824
12	0xbc042aa3	-0.008066806
13	0xbd58cdb8	-0.052930564
14	0xbd00dbed	-0.031459738
15	0xbbeef854	-0.0072927866
16	0xbc097ac0	-0.008391082
17	0x3d677880	0.056511402
18	0xbc780698	-0.015138291
19	0x3bd9c208	0.006645445
20	0x3c98a5c7	0.018633736
21	0x3c0d3658	0.008618914
22	0x3bf4a1dd	0.0074655847
23	0xbd382d47	-0.044965055
24	0xbb94f6ab	-0.0045460067
25	0x3b3dcdc5	0.002896176
26	0x3b45f1c8	0.0030203927
27	0xbd0fc5d3	-0.03510077
28	0xbc4a7e9f	-0.01235929
29	0x3ca7d477	0.020487053
30	0xbd0bdbbf	-0.034145113
31	0x3c046c6d	0.008082491
32	0x38c8292e	9.5444135e-05
33	0xba24d3c5	-0.00062876596
34	0x3cb278cf	0.021786122
35	0x3d3db49a	0.046314813
36	0xbd4b32e7	-0.04960909
37	0xbcc6471d	-0.024203831
38	0x39ab35cb	0.0003265574
39	0x3d152217	0.036409464
40	0x3c0f1d0d	0.008734954
41	0x3d5c3c5c	0.0537685
42	0xbb79ce9f	-0.003811754
43	0x3cb860cc	0.022507094
44	0xbb960dff	-0.004579305
45	0x3b843278	0.0040343367
46	0xbc696046	-0.014244145
47	0x3d7e9f00	0.062163353
48	0x3be7188f	0.007052488
49	0xbc6fc9de	-0.014635531
50	0x3cccaee4	0.024985738
51	0x3c85e188	0.016342893
52	0x3c22e364	0.009941909
53	0x3d53ce5b	0.051710468
54	0x39abbdcf	0.0003275708
55	0xbcbf10b7	-0.0233234
56	0xbc40582b	-0.011739771
57	0x3ce176c6	0.027522456
58	0x3cc134ce	0.02358475
59	0xbd9325d9	-0.07184953
60	0x3c206b0e	0.009791149
61	0x3cec380e	0.028835323
62	0x3d8d861f	0.06910347
63	0x3cb1ff0b	0.02172806
64	0x3ce0b5e5	0.027430484
65	0x3c6fd647	0.01463849
66	0xbc83c64e	-0.01608577
67	0x3c1144d2	0.008866506
68	0xbca037a2	-0.019557778
69	0x3c450497	0.01202502
70	0xbcb35130	-0.0218893
71	0x3d13ed3e	0.036114924
72	0x3cbf5619	0.023356484
73	0xbd2efe61	-0.042723063
74	0xbc089f13	-0.0083387075
75	0xbd75b661	-0.059988383
76	0x3d01af22	0.03166116
77	0x3dc12413	0.09430709
78	0xbd130995	-0.03589781
79	0x39da097e	0.00041587272
80	0xbbb8b23a	-0.0056364806
81	0xbb503f42	-0.0031775986
82	0xbc2e53d8	-0.010640107
83	0xbc9ac079	-0.018890606
84	0x3d9a858d	0.07545004
85	0x3d185b9f	0.03719675
86	0x3c6eb41d	0.01456931
87	0xbd1603f8	-0.03662488
88	0x3c9ed620	0.019389212
89	0xbd81dab3	-0.06340542
90	0xbc166131	-0.009178446
91	0xbd21b750	-0.03948146
92	0x3d05bcbd	0.032650698
93	0xbd0f92cf	-0.035052117
94	0x3dc2ba2e	0.09508167
95	0x3d47b044	0.048752084
96	0xbcae4d31	-0.021277042
97	0x3c21fd8a	0.009887109
98	0x3c69cf1b	0.014270569
99	0xbaf33df8	-0.0018557897
100	0xbc95e43d	-0.018297309
101	0x3b5a8d4f	0.0033348387
102	0x3d27af15	0.040938456
103	0x3a39958b	0.00070794736
104	0x3c7a02f3	0.015259492
105	0x3c008360	0.007843822
106	0xbcb4c6c4	-0.022067435
107	0x3dbcf19f	0.09225773
108	0x3e123d23	0.14281134
109	0x3d1d6281	0.03842402
110	0x3d02fed6	0.03198131
111	0xbb1f175b	-0.0024275396
112	0x3ce7dcab	0.028303465
113	0xbd341b2b	-0.043971222
114	0xbd310577	-0.043218102
115	0x3d143c4c	0.036190316
116	0x3aa9799d	0.001292992
117	0xbcabd3a7	-0.020974947
118	0xbaceade7	-0.001576838
119	0xbc5b3ef7	-0.013381711
120	0xbc43b820	-0.011945754
121	0xbb32899f	-0.0027242673
122	0xbc0c82be	-0.008576093
123	0xbd3ef9bb	-0.04662488
124	0x3ba9507d	0.0051670657
125	0xbb90933b	-0.0044120825
126	0xbcdcaae5	-0.026936958
127	0x3ba0217d	0.0048868046
128	0x3d069448	0.032856256
129	0x3c3c5208	0.011494167
130	0xbc84e8f8	-0.01622437
131	0xbb97cae1	-0.0046323393
132	0xbc1eaeec	-0.009685259
133	0xbcb3dd47	-0.0219561
134	0x3c9f62d3	0.019456303
135	0x3d5b1eed	0.05349629
136	0xbd38965c	-0.04506527
137	0xbbf64bd7	-0.007516365
138	0xbd2b1610	-0.041769087
139	0x3d1c67d5	0.03818496
140	0x3be143d3	0.0068745404
141	0x3c7846f5	0.015153636
142	0xbb1c6297	-0.0023862475
143	0xbcd28c95	-0.0257018
144	0x3c215797	0.009847543
145	0xbcb7cf54	-0.022437729
146	0xbbdc1f4f	-0.0067175995
147	0x3d269eb7	0.040678706
148	0x3c40ae29	0.011760273
149	0xbc832d4f	-0.016012816
150	0xbb39a2d9	-0.0028325825
151	0x3c6eb785	0.014570122
152	0x3c2fb472	0.010724174
153	0x3d610fe0	0.05494678
154	0x3b04fac9	0.002029108
155	0x3ae02f49	0.0017103936
156	0x3d2845d1	0.041082207
157	0x3caf4006	0.021392833
158	0x3bf5d5f1	0.0075023104
159	0x3c8a99da	0.016919065
160	0x3d89f7b4	0.06736699
161	0xbc77c47a	-0.015122527
162	0x3d9504e9	0.07276327
163	0xbbca4204	-0.0061724205
164	0x3d189bdd	0.037258018
165	0xbc68b89d	-0.0142041715
166	0xbc7c6b2e	-0.015406413
167	0x3da37b24	0.079824716
168	0xbae15211	-0.0017190595
169	0x3b989d6a	0.004657437
170	0x3c9b8c45	0.018987784
171	0xbc380718	-0.01123216
172	0xbb4cd536	-0.0031255013
173	0xbd2192d0	-0.039446652
174	0xbc3ac015	-0.011398335
175	0xbbf6c2c0	-0.00753054
176	0xbc967783	-0.018367535
177	0x3dc18d1f	0.09450745
178	0xbca6ee3b	-0.020377269
179	0x3c267f71	0.01016222
180	0x3ca48c03	0.020086294
181	0xbc4e9cb8	-0.012610607
182	0x3cd3cce3	0.025854534
183	0xbab7ac72	-0.0014013185
184	0x3d99f549	0.075174876
185	0x3cf3a6e4	0.029742666
186	0xbce325e9	-0.027728038
187	0xbd038de4	-0.03211774
188	0xbc451906	-0.012029892
189	0xbd829ceb	-0.06377586
190	0x3ce078e2	0.027401391
191	0x3b32e6c7	0.0027298199
192	0x3c30c101	0.010788203
193	0xbb12fb6f	-0.0022427698
194	0x3db2eb27	0.08736258
195	0x3d459789	0.04824022
196	0xbc17d4fe	-0.00926709
197	0x3ab17898	0.0013539968
198	0x3c15f903	0.009153607
199	0xbc2a1687	-0.0103813475
200	0x3c9f1deb	0.019423446
201	0xbba50e3f	-0.0050370987
202	0x3ce61dc9	0.028090375
203	0x3c8ea462	0.017412368
204	0x3c7639ec	0.015028458
205	0xbca6f4b1	-0.02038035
206	0xbb0c9fd7	-0.0021457577
207	0x3c8540fa	0.016266335
208	0x3de8deea	0.113706425
209	0x3cb6cc76	0.022314291
210	0xbcc497d8	-0.023998186
211	0xbafafe55	-0.0019149283
212	0x3bd97390	0.0066360906
213	0xbd59426d	-0.053041864
214	0x3bfd8036	0.007736231
215	0x3d8f69a7	0.070025735
216	0x3c52c375	0.012863983
217	0x3d77211b	0.060334306
218	0xbc21b062	-0.009868713
219	0xbc225b71	-0.009909497
220	0x3c448d57	0.011996589
221	0xbca62142	-0.02027953
222	0xbcaa443f	-0.020784495
223	0xbd52e7c7	-0.05149057
224	0x3b94ee52	0.0045450116
225	0x3c12289f	0.008920818
226	0xbd165ee8	-0.036711603
227	0xbcd492fa	-0.02594899
228	0x3b2330f3	0.0024901002
229	0x3c6f62af	0.01461093
230	0xbcb864ac	-0.022508942
231	0x3ccffddd	0.025389606
232	0xbd0310ee	-0.031998567
233	0x3d2e1119	0.042496774
234	0x3c9768dc	0.018482618
235	0x3d6b117c	0.05738972
236	0xbcca61eb	-0.024704894
237	0x3cc3c231	0.023896309
238	0xbd8c7ce8	-0.068597615
239	0xbd26204b	-0.04055814
240	0x3ba261b2	0.004955494
241	0x3d1ab508	0.0377703
242	0xbca811ec	-0.020516358
243	0xbba1433f	-0.0049213464
244	0xbd11b370	-0.035571516
245	0xbc08f33c	-0.008358773
246	0xba96c7e5	-0.0011503665
247	0x3ba8a058	0.0051460676
248	0x3c0508b6	0.008119753
249	0xbc873fee	-0.016509976
250	0xbcda8605	-0.026675234
251	0xbc886fc7	-0.016654862
252	0x3cb589fe	0.022160526
253	0x3d641cd8	0.05569157
254	0x3cde4584	0.027132757
255	0xbd03842e	-0.03210848

dense_output.3.bias f4 [9]
0	0x3e06fc83	0.13182263
1	0x3e0767d0	0.13223195
2	0x3e072387	0.13197146
3	0x3e059cd2	0.13048103
4	0x3e05fc9d	0.13084646
5	0x3e05fb4b	0.13084142
6	0x3e03c1d0	0.12866902
7	0x3e038e06	0.12847146
8	0x3e04581b	0.12924235

exp_avg f4 [4, 1, 3, 3, 3]
0	0xb9a9d0d5	-0.00032389784
1	0xb9f6952c	-0.00047031918
2	0xb9f1a130	-0.00046087196
3	0xb9da93f0	-0.00041690422
4	0xba4556c3	-0.0007527882
5	0xba646437	-0.0008712443
6	0xba0b9158	-0.0005324087
7	0xba4abcb6	-0.00077338086
8	0xba7f99fd	-0.0009750424
9	0xba4a3aff	-0.00077144796
10	0xba80a29d	-0.0009814088
11	0xba745d2b	-0.00093217444
12	0xba1ef7ec	-0.0006064165
13	0xba814a99	-0.0009864151
14	0xba8f1ec7	-0.0010919207
15	0xba0f88f3	-0.0005475424
16	0xba4d73bb	-0.00078373746
17	0xba69963a	-0.000891063
18	0xba43904c	-0.00074601616
19	0xba82400c	-0.00099373
20	0xba81df62	-0.0009908492
21	0xba1344a1	-0.00056178315
22	0xba6eda15	-0.0009111476
23	0xba87f9cd	-0.0010374129
24	0xba0e836f	-0.0005436455
25	0xba34ae6d	-0.00068924465
26	0xba52e294	-0.0008044627
27	0xba4c8ef7	-0.0007803286
28	0xba932634	-0.0011226595
29	0xba6f167e	-0.0009120478
30	0xbaefd09f	-0.0018296427
31	0xbb0344ca	-0.0020030015
32	0xbb028ef9	-0.0019921644
33	0xbb1cdf9e	-0.0023936997
34	0xbb14edb5	-0.0022724692
35	0xbb0668ff	-0.002050936
36	0xba57f052	-0.00082374096
37	0xba875368	-0.001032454
38	0xba642f65	-0.0008704572
39	0xbb043188	-0.0020171124
40	0xbb037595	-0.0020059098
41	0xbb071a71	-0.0020615126
42	0xbb1f1932	-0.0024276492
43	0xbb127496	-0.0022347323
44	0xbb0a4e48	-0.0021103788
45	0xba4e1be2	-0.0007862431
46	0xba7d395b	-0.0009659731
47	0xba4f38c7	-0.0007904884
48	0xbb105c84	-0.00220278
49	0xbb0b897f	-0.002129167
50	0xbb098f67	-0.0020990015
51	0xbb2a2393	-0.0025961145
52	0xbb1af506	-0.002364458
53	0xbb0e1eeb	-0.002168591
54	0x3a93cfa7	0.0011277095
55	0x3a7ffbe6	0.0009765014
56	0x3a54d82e	0.00081193715
57	0x3a79fbe8	0.0009536133
58	0x3a92dfd9	0.0011205628
59	0x3a8ae2fd	0.0010596212
60	0x392c4df2	0.00016432235
61	0x38ff41b0	0.00012171583
62	0x3a501870	0.0007938212
63	0x3a16e492	0.00057561055
64	0x3a1a304d	0.0005881831
65	0x39f8abfa	0.0004743038
66	0x3a332e6a	0.00068352243
67	0x3a627754	0.0008638997
68	0x3a3a39db	0.0007103958
69	0xb82b15da	-4.0789928e-05
70	0x37280275	1.0014152e-05
71	0x3a42ed73	0.00074358954
72	0x3a0357ab	0.0005010317
73	0x3a436f85	0.00074552774
74	0x3a12caf7	0.0005599702
75	0x3a28f5dc	0.00064453273
76	0x3a55233c	0.00081305555
77	0x3a425611	0.00074133376
78	0xb92ba0d3	-0.00016367743
79	0x385b1784	5.223557e-05
80	0x3a656f1f	0.0008752215
81	0x3aa203a9	0.001236071
82	0x3ad2cf5b	0.0016083525
83	0x3ae95d5b	0.0017804311
84	0xba5491c7	-0.0008108881
85	0x39e6ef4b	0.00044047306
86	0x39e2b27a	0.00043239055
87	0x38a2afc3	7.7575e-05
88	0x3ad7fa1d	0.0016477738
89	0x3af53195	0.0018706793
90	0x3a8da979	0.0010807953
91	0x3aa4f668	0.0012585642
92	0x3ae119a1	0.0017173776
93	0xb9b87119	-0.0003517948
94	0x3a0695d5	0.0005134021
95	0x3a44131c	0.0007479654
96	0x39f07614	0.00045864342
97	0x3ad8d48c	0.0016542836
98	0x3afac1e1	0.0019131267
99	0x3a4e702b	0.00078749907
100	0x3a37db8a	0.000701361
101	0x3ad17f22	0.0015983323
102	0xb8fb2d09	-0.00011977001
103	0x39bff2a3	0.00036611137
104	0x3a84528f	0.0010095405
105	0x3a1c4e7e	0.0005962624
106	0x3ac35a04	0.0014904146
107	0x3b0b9244	0.0021296898
