models/mvsec/indoor_flying2/indoor_flying2_multipixel_even_model.pth (torch, 872366 bytes, 30 tensors)

conv3d.0.weight f4 [4, 1, 3, 3, 3]
00000000: 2391 75bd 52cf c13c 84eb 07bc cc93 c2bc
00000010: a5ce 3a3d 68da 203e b742 e83d 1ab6 f7bd
00000020: b284 53be 4549 aabb c6d9 cabc 5254 9a3d
00000030: b7bf f53c 8bb3 d73d 171e 753c 2e84 f03d
00000040: 77c3 1dbe 2c08 00bf 3f20 2c3e 28e0 ce3c
00000050: 845e 133d c563 853d 9df7 c13d 0a7b 983c
00000060: d56c 5d3e 616f ecbd a676 06bf 5a12 6dbe
00000070: 6448 b5be e757 c3be 31b3 5cbe 714a 81be
00000080: 5ee6 8fbe b639 9bbe 3fbd 87be dbe2 bcbe
00000090: 30a2 123d 2632 533d 22a1 8c3d b77d 283d
000000a0: c3d9 0d3d 4e32 323c c84c b13d 8466 10bd
000000b0: a83a 1d3d 2473 9e3e d5c0 993e 43b1 da3e
000000c0: 6985 943e 2669 383e f4f2 5a3e 3eab d03e
000000d0: f336 ad3e 66be de3e fa45 193d 518c 8b3d
000000e0: f6e9 29be 5f01 67be 6ff4 9ebc 5f11 413e
000000f0: dcdb 1abc 7f26 db3b 8d4b eebd e03e f13e
00000100: c5d1 053c e004 91be 43ff 07be 7393 1dbe
00000110: e7fb 4b3e 4614 a23d ab17 b0bd fb13 1b3e
00000120: 4b10 0a3f 1ad6 b0be 3d43 08be 9d29 123e
00000130: 1dd2 77be 82eb 0f3e 67ac b93c e82d f4bd
00000140: 6e1c 303e 1032 3bbd a161 9a3d 4eb9 4e3d
00000150: 51df 263e 39cc fcbd 82ae 823d 0c2a 263e
00000160: 73b9 d1bb 7da7 083d a5b0 8fbe d783 5e3d
00000170: 70b9 6e3e ebf9 06be 79a0 40be 782e 233e
00000180: 2194 1e3e 3e7f 3abe 2e55 d63d 45ed abbe
00000190: 19d6 e83d 4b0f 923e ccca 4abe b7fe 66be
000001a0: 0432 793e b608 b6bb e44b b1be ccc2 5a3e
-0.059952866 0.023658428 -0.008295897 -0.023752116 0.045607228 0.15708315 0.1134085 -0.1209528
-0.20656088 -0.0051967227 -0.024762046 0.07535614 0.029998643 0.10532292 0.014960787 0.11743961
-0.15406595 -0.5001247 0.16809176 0.02525337 0.03597881 0.0651317 0.094710566 0.018613357
0.21623547 -0.11544681 -0.52524793 -0.23151532 -0.35406792 -0.38153002 -0.21552731 -0.25252107
-0.28105444 -0.30317467 -0.2651157 -0.36891827 0.035799205 0.051561497 0.06866671 0.041135516
0.034631502 0.010876251 0.08657223 -0.035254017 0.038386017 0.3094722 0.30029932 0.42713365
0.29008034 0.18008861 0.21381742 0.40755647 0.33830985 0.43504637 0.03742025 0.068138726
-0.16593155 -0.22559117 -0.019403664 0.18854283 -0.009451833 0.0066879387 -0.11635504 0.47118282
0.008167689 -0.28324032 -0.13280968 -0.15388279 0.19920312 0.07914023 -0.08598264 0.1514434
0.5393111 -0.34538347 -0.133069 0.14273687 -0.24201246 0.14054683 0.022665216 -0.119228184
0.17198345 -0.04570204 0.075381525 0.05046969 0.16296126 -0.1234364 0.06380941 0.16226977
-0.006400281 0.033362854 -0.28064457 0.05432495 0.23312926 -0.13181274 -0.18811215 0.15935695
0.15486194 -0.18212602 0.104654655 -0.3357946 0.11368961 0.28527293 -0.19803923 -0.22558104
0.24335486 -0.0055552376 -0.34628212 0.21363372

conv3d.0.bias f4 [4]
00000000: 6ffc 403d 55d5 65ba 1315 15be f503 b5bd
0.04711574 -0.00087674457 -0.1455882 -0.08838645

gru.weight_ih_l0 f4 [300, 100]
00000000: d079 11bf 7eeb dcbe 28dd 133d 783c 79bc
00000010: 87d6 953a 713d 1cbe f937 fabd 264a 96be
00000020: cef5 9fbe d699 f7bd 053e 19be e531 dcbe
00000030: 2ca6 aebe a911 92be 0710 77bd b602 97be
00000040: fb1a afbe 16dd 45be 986d b5bd 5f5f 123e
00000050: d061 94be 37a8 48be 45d0 0abb 7655 b83e
00000060: e1a5 013f 23a4 af3e 4652 513e f8d6 97bd
00000070: 77b5 dcbd 8e63 7c3c 4032 563e b87b 45bd
00000080: 45cb 96be d07c 73be f4e0 a13d d139 cc3d
00000090: 50ff 4cbe 8b54 c6be 38f0 a2be e7f6 853d
000000a0: 3d20 4b3e cd5c 27be 5438 53be 6fe4 c0bd
000000b0: e7e0 213e 33ca c23e f7e3 9c3e bcb3 023e
000000c0: adf6 2e3e 862b b8bd e814 393e 8f0e 753e
000000d0: 6217 e73b 3795 4a3e fa62 28be dd89 663b
000000e0: 919d 903e 21f1 ff3d 6946 1fbc 4737 10bd
000000f0: 34c9 f0bd 0ee5 9dbe 7af8 3abe b063 93be
00000100: 9680 16be 2bc6 733d c655 59bd d68e 24be
00000110: e993 75be a6cb e6bd a474 9fbe 062b adbe
00000120: 940b 96be f98a 0ebe 74b6 e43d e2e8 5dbd
00000130: fc36 613e 85d3 8cbd a5ad 643e 0147 8dbe
00000140: 4050 de3d 5a23 013e fa2e be3e 0acb e13d
00000150: 6a6a 3d3d 5c7b 58be 4111 ea3d fa4b 673e
00000160: 5975 3c3e e94c 5a3e 2555 71be 832e ec3d
00000170: 2fdb 803d c957 99bd e0f4 873e b674 88bc
00000180: c11e 6c3e f5fa e4bc 0b57 f7bd 0fa7 64be
00000190: 7640 fe3c 3ab9 843c ce60 673d e2b2 0dbd
000001a0: 3947 5abe dadc 6bbe 4fe1 e9be 8d85 2eba
000001b0: e414 58bd 301c 6fbd 4414 c73d 3193 95bb
000001c0: 92e5 ad3d 1403 c93c 3d88 40bd 7d11 003c
000001d0: 23a2 19be 873c f7bd c6a4 883c 8981 ca3c
000001e0: c46f f0bd c3b2 3bbe dd97 05be b40c b6bc
000001f0: 7340 17bd b791 afbe e8ed 19bf 936c fcbe
00000200: 9e27 0bbf 7840 f7be 9ac8 b6be d909 18bf
00000210: f637 f4be 9c0d 04bf f351 a7be 904c 85be
00000220: be1f 13bf b14e d7be 56ef 08bf 0281 8abe
00000230: 0dbf 50be f00f dfbe 8a2c 86be 20e3 fdbe
00000240: 8103 9fbe d744 8bbe fcfb d1be 8ce9 89be
00000250: bff9 ffbe a249 c9be a3ae 333d 73c4 05bd
00000260: a694 48be a282 01be 6de1 c0bc 9dd6 b1bd
00000270: 9635 14be 5bf3 27be 2512 a5be f68a 61bd
00000280: 22c8 80bd 1393 cabc 7b32 06bb 20e2 2c3b
00000290: d96f db3b e8a2 7f3d 5e0d 91bd 0be2 983b
000002a0: 24b4 07bd 5abf c8bc 10f7 023e c325 99bd
000002b0: f7e3 8bbd b729 0cbe 0cec e2bd a2cc 5bbb
000002c0: d91e 37be 8279 55be 8d59 2abe 103e 26bd
000002d0: 0c80 72bd dd49 0ebe a74e 3dbe 515e 20be
000002e0: ae96 2f3d d004 92bd a145 0ebe 9633 0dbe
000002f0: e14f a1be a540 c23d 72d7 72bd 8842 acbd
00000300: a1c4 99bd 5893 18be afb4 033e 8138 64bd
00000310: f311 d7bd dd49 f7bd 2ede 27be c62e 063e
00000320: 0554 dd3c daac 00be 9340 183d dd68 873e
00000330: b1d1 a73e 5527 04be 6c8b ecba c386 a23b
00000340: 0753 0b3e 44ad 253d 9076 86be 4c5e 6dbe
00000350: 6c6b 4abd 667e ad3c 0156 223e d889 77be
00000360: 0f4b 5fbe b9ef 90be a279 46be 2d5e 15be
00000370: 12bd 06be d907 1dbe 7deb 23be 459f 9fbd
00000380: ed28 78be ff0e b0bd 5fb4 f2bb 3275 e23d
00000390: 3861 883e b1e0 d73e 4765 52be ecf1 f2bd
000003a0: 2151 abbd d3f7 7a3d 9640 9f3d dffc 40be
000003b0: 8a6b 6dbd 3ae7 25bd 38b3 993d 44e2 a13d
000003c0: 4b5b 14be eb50 95bd d46f 21bc c3fd d93d
000003d0: 1289 c73d 801a 96be 71f2 12be 795f 02be
000003e0: 523c 32bd d731 07bc fe2a 743e d8d0 8a3e
000003f0: 24e1 8fbd fe1c e53e e442 c03e 28d9 133e
-0.56826496 -0.43148416 0.036099583 -0.015212171 0.0011431732 -0.15257813 -0.12217707 -0.29353446
-0.31242222 -0.12089889 -0.14965065 -0.43006817 -0.34111154 -0.285291 -0.06031802 -0.29494256
-0.34200272 -0.19322619 -0.08858794 0.14294194 -0.28980875 -0.19595419 -0.0021181267 0.36002702
0.50643736 0.34304914 0.20441541 -0.07414049 -0.10776799 0.015404595 0.20917606 -0.04821369
-0.29451957 -0.23778081 0.079042345 0.09971965 -0.20019269 -0.38736376 -0.31823897 0.065412335
0.19836517 -0.16343994 -0.20626956 -0.0941857 0.1580845 0.3804489 0.30642673 0.12763876
0.17086287 -0.089926764 0.18074381 0.23931335 0.007052348 0.19783483 -0.16444007 0.0035177388
0.28245214 0.124971636 -0.009721377 -0.035208967 -0.117571265 -0.30838817 -0.18258849 -0.28786993
-0.14697489 0.05951516 -0.053060316 -0.16070113 -0.23982204 -0.112693116 -0.31143677 -0.33821887
-0.29305708 -0.13920201 0.11167613 -0.054177172 0.21993631 -0.06876282 0.22331865 -0.27593234
0.1085515 0.12611142 0.37145215 0.11025055 0.046244062 -0.21140808 0.11429072 0.22587577
0.1840414 0.21318401 -0.23567636 0.11532309 0.06291806 -0.07487447 0.26554012 -0.016657215
0.23058607 -0.027951697 -0.12077149 -0.22329353 0.031036597 0.016201604 0.056488805 -0.034594424
-0.21316232 -0.23033467 -0.4567971 -0.0006657474 -0.052754298 -0.05837649 0.09720662 -0.0045646657
0.08491053 0.0245376 -0.047004927 0.0078166695 -0.15003256 -0.120720915 0.016680133 0.02471997
-0.117400676 -0.18329911 -0.13046212 -0.022222854 -0.036926698 -0.3429086 -0.6012864 -0.49301586
-0.54357326 -0.48291373 -0.35699922 -0.59390026 -0.47698945 -0.51583266 -0.3267971 -0.26034975
-0.5747031 -0.42052224 -0.534902 -0.2705155 -0.2038538 -0.43566847 -0.26205856 -0.49587345
-0.3105736 -0.27200958 -0.4101256 -0.26935995 -0.4999523 -0.3931399 0.04386772 -0.03265805
-0.19587955 -0.12647489 -0.023544991 -0.08683512 -0.14473566 -0.16401426 -0.32240406 -0.055064164
-0.06288172 -0.024728334 -0.0020476866 0.0026379898 0.006696683 0.06241122 -0.07082628 0.0046656183
-0.03313078 -0.024505306 0.1278956 -0.074779056 -0.0683059 -0.13687788 -0.110801786 -0.0033538719
-0.17882861 -0.20847133 -0.16635723 -0.04058653 -0.059204146 -0.13895364 -0.18487035 -0.15660979
0.04286831 -0.07129824 -0.13893749 -0.1378921 -0.31506255 0.09484986 -0.059287496 -0.08411127
-0.07508207 -0.14899957 0.12861894 -0.05571795 -0.105014704 -0.12074635 -0.16393349 0.1310378
0.027017603 -0.12565938 0.037170958 0.26447192 0.3277717 -0.12905629 -0.0018046922 0.0049599125
0.13605891 0.040448442 -0.2626233 -0.23180503 -0.04941885 0.021178436 0.1585312 -0.24173677
-0.21805976 -0.28307894 -0.19382337 -0.14586706 -0.13158062 -0.15335025 -0.160078 -0.0779405
-0.24234362 -0.0859661 -0.007406756 0.110575095 0.26636672 0.42163613 -0.20546447 -0.11862549
-0.083650835 0.0612715 0.07775991 -0.18846463 -0.057963885 -0.040503718 0.075048864 0.07904485
-0.1448795 -0.072908245 -0.009853322 0.10644104 0.09742941 -0.29317093 -0.14350297 -0.12731732
-0.043514557 -0.008251629 0.23844525 0.2711246 -0.07025364 0.44748682 0.37551033 0.14438307

gru.weight_hh_l0 f4 [300, 100]
00000000: 7f24 d93d 52a6 a93e 9baf 84be 1de9 2f3e
00000010: b6a7 f0bd 36a0 74be b14b 903e 55a5 783e
00000020: b0ab f3bd c035 a73d 2a7e 3ebd 8cbc 1ebe
00000030: 1e6c 84be a12d b5bd d4de 7c3e 5459 1e3e
00000040: d2d2 233f eded 9b3d 0e94 1dbe e379 3dbc
00000050: e5b0 9b3d bd39 7cbd 40de cb3d d435 28bb
00000060: 83fe 0b3e 65df 353f b24f de3d 7e94 f33d
00000070: 1e78 0b3e 9977 98bd 609a 223e a825 a23e
00000080: 9be5 b5be 840d 533d 23a3 6dbc 5dcf d33d
00000090: 4ed4 4f3e e790 063e b980 04be 203e cbbd
000000a0: 6cda c2bd d493 a6be 589c 8cbc 4e64 353f
000000b0: 2be9 84bd 30a3 7d3d 3a07 493e 144f e03e
000000c0: 1d8c 503d e9ba dcbd 2730 d33e 7283 1abd
000000d0: 3f88 6a3c 8bd3 00be 4bed 21be 171e 62be
000000e0: c8d9 273e c42d 143c 96a1 e13e cd71 5fbe
000000f0: b087 04bf e495 ad3e 0de4 a83d 916f ae3d
00000100: dff1 c73d 4860 843e 82f2 623e 0be4 c1bd
00000110: 327a 2e3d 2f60 9f3e 243d 213e 2381 023d
00000120: 4cd4 c63c d968 983d 9cf0 013d 8145 5d3c
00000130: 5f5a 01be 53cb e53a fc53 1abe 5448 863e
00000140: 51d9 c2be 8247 673e cddf 2a3e c15f 46be
00000150: c0ff 9d3e d7c4 51be f46d 483e 9027 68be
00000160: f040 323d 3347 c63d 0136 1bbf f822 98be
00000170: 4617 263e 42d5 cb3e 143d 76be 2f9c 113e
00000180: c33f 563c 90d4 00bd 6c03 eabe de5b 83bd
00000190: 1697 163e 8866 f5bc 9384 c63e 647b 743e
000001a0: 1489 11be 047b 48be a3dd 87be 4283 08be
000001b0: dabb 64bd 880a 3cbd bc7b bdbd 89ca 6abe
000001c0: 2f7b 453f 0165 55bc 07f6 b7be d9ee 93bd
000001d0: e805 35bc 4246 b8bc 1b37 b4bd 5e9b 99be
000001e0: ed6f 0abc 7428 083d eb13 68be 818f 8b3d
000001f0: 0313 7fbe 7579 07be 5d06 483e 0a68 d93d
00000200: da7a 9b3e a3ab 783d 7f93 1dbe 5980 f2be
00000210: 5a82 b9be a15d 41bd 6eee 5fbe 46fd 72bd
00000220: 0e30 1e3d 0f80 ccbd e73c 5a3e 3532 b13b
00000230: f2cf 8e3d f01b 0cbe e072 c93d d9ec 5b3d
00000240: 1c18 d1bc 0c3d 35bc dd90 f33d af44 2f3e
00000250: c771 45bb 6bb7 02be 6840 64be e542 3d3e
00000260: 4572 8e3d ab98 4ebe 53bf 61be 25cc b63d
00000270: 7fa8 4e3e d87f 4dbe e001 333e de83 3e3d
00000280: ad2c 563e f314 55be 11f4 393e cf15 863b
00000290: c5c8 d83d e57c 763e 6a28 0abe 6c2f ee3d
000002a0: 6705 0abe 3dd8 f1bd e178 6fbd bf8c 713d
000002b0: d1af 143b 55ab 2dbd e1a4 003e 9ddf 97bd
000002c0: 9c1c 933d 7c63 3cbe 9b8d bb3c fa7b 7dbe
000002d0: 180d c3be b4a1 813e 4486 ea3d 044d ba3d
000002e0: 2f2b a53d d8a9 f23d 99a7 c3bb 7fa9 48be
000002f0: 6c9e 473d bac7 5cbe 2a09 413e f0f2 023f
00000300: cf34 c33d 7d67 0fbc 78c1 b93c c1c8 efbc
00000310: e583 3ebc 41a0 143d 0a4b e53d 257d 1c3e
00000320: fbe2 443d 6612 263d 10fe 3bbd 6288 ec3e
00000330: 2fbb 9ebe ce90 99be 3373 093d 5f90 0ebe
00000340: 0d44 56be ae92 e5bd 7612 633e 658a b33d
00000350: 40f7 e73d 03eb 863e 022f 9a3c 81d7 a1bd
00000360: 8d6a 38be 38fb 8dbe b871 fc3b e2f7 abbe
00000370: c7c7 98be 4f03 543e 62db 27be 952a c33e
00000380: c287 5a3c 3535 353e bda3 f2bd cf4e ad3e
00000390: d2ca d33d 5e7b 873e 7b64 79bd edc2 bcbe
000003a0: 318a 313e 1b39 92be ba7a 0f3e a3bc 83bd
000003b0: 13ca 6f3e 1e98 d8bd d112 4e3e be68 c33d
000003c0: dee0 ad3e 3847 49be fae2 01bd 9f43 84bd
000003d0: cb3a 313e 461c aa3e 7e3a a83e ed03 853e
000003e0: c125 b6be f9a7 bf3e 163f 60be d01d d2bd
000003f0: 572f 76bd d803 4ebd e902 7ebd d6a2 e8bd
0.10602664 0.33134705 -0.25915226 0.1717877 -0.11750738 -0.2388924 0.28182748 0.24281819
-0.11897981 0.08164549 -0.04650704 -0.15501612 -0.25863737 -0.08846594 0.24694377 0.15463763
0.6399356 0.0761374 -0.1538851 -0.011564705 0.07602099 -0.0615785 0.099545 -0.002566685
0.13671307 0.71044 0.108550444 0.11893557 0.1362004 -0.074446864 0.15879202 0.31669354
-0.35526738 0.05152656 -0.014504227 0.10342286 0.20295832 0.13141213 -0.12939729 -0.09923959
-0.09514317 -0.3253466 -0.017164394 0.7085618 -0.06489786 0.061923206 0.19631663 0.43810332
0.050914872 -0.10777838 0.41247675 -0.037723012 0.01431471 -0.12580697 -0.15813176 -0.22081791
0.1639167 0.0090441145 0.44068593 -0.21820755 -0.5176954 0.3390342 0.08246622 0.08517373
0.0976293 0.25854707 0.22162822 -0.09467324 0.042597003 0.3112807 0.1574598 0.031861436
0.024271153 0.07441873 0.031723604 0.013505341 -0.1263213 0.0017531909 -0.150711 0.26227057
-0.38056424 0.22585872 0.16686936 -0.19372465 0.30859184 -0.20485245 0.19573194 -0.22671342
0.04351896 0.09681549 -0.6062928 -0.2971418 0.16219816 0.3981114 -0.24046737 0.14219736
0.013076725 -0.031452715 -0.45705736 -0.06414007 0.14706072 -0.029956117 0.3877302 0.23875195
-0.14212447 -0.19578177 -0.26536283 -0.13331321 -0.05584321 -0.04590848 -0.09252116 -0.22928824
0.7714109 -0.0130245695 -0.3592989 -0.07223291 -0.011048771 -0.022494439 -0.08799573 -0.30001348
-0.008449537 0.033241704 -0.22663848 0.068144806 -0.24909596 -0.13229926 0.19533677 0.10615547
0.30367166 0.06071056 -0.15388297 -0.47363546 -0.36232263 -0.047208432 -0.21868297 -0.05932357
0.038620047 -0.09985363 0.21312295 0.0054075965 0.06973256 -0.13682532 0.09836364 0.053692672
-0.025524192 -0.011061918 0.11892865 0.17116044 -0.003012763 -0.12765281 -0.22290194 0.1848255
0.06955389 -0.20175426 -0.2204564 0.08925656 0.20181464 -0.200683 0.17481184 0.046512477
0.2091548 -0.20808773 0.1815951 0.0040919553 0.10585169 0.24071081 -0.13491979 0.11630139
-0.13478623 -0.11808822 -0.05846489 0.058972117 0.0022687803 -0.042399723 0.12562896 -0.07415698
0.07183191 -0.18397325 0.022894671 -0.24754325 -0.38095927 0.25318682 0.114513904 0.09096721
0.08064877 0.118488014 -0.005970907 -0.19595908 0.048735067 -0.21560565 0.18851152 0.51151943
0.09531557 -0.008752701 0.02267526 -0.029270532 -0.011628126 0.036285643 0.11195953 0.15282114
0.048068028 0.04054489 -0.04589659 0.46197802 -0.31002185 -0.2999329 0.03355713 -0.1392226
-0.20924397 -0.112096176 0.22175011 0.08766631 0.11326456 0.26351175 0.018821243 -0.07902432
-0.18009396 -0.27730727 0.007703986 -0.33587557 -0.29839918 0.20704387 -0.16392282 0.38118425
0.013338031 0.17696078 -0.11847637 0.3384919 0.10341419 0.2646131 -0.06088684 -0.36867467
0.17337872 -0.28559193 0.1401166 -0.06432464 0.23416929 -0.10575889 0.20124365 0.09541462
0.33960623 -0.19656074 -0.031710602 -0.0645821 0.17307584 0.33224696 0.32857126 0.25979558
-0.3557568 0.3743284 -0.21899065 -0.102595925 -0.06010374 -0.050296634 -0.062014494 -0.113591835

gru.bias_ih_l0 f4 [300]
00000000: b0b8 88be 0a7d cfbb f10e 5cbe ba70 fcbd
00000010: 19a3 66be b879 70be 9d3e 35bd 17e8 303d
00000020: a01b 85be 535e 3dbe 6cda e8be bd4f e2bd
00000030: 3cd0 93bb 1429 9ebe b575 2fbe e583 ffbd
00000040: 40e0 abbe 91bc bcbe 5f43 30be de75 c0be
00000050: e566 0ebe b8dc 59be 10a5 e23d c316 08be
00000060: 1eab 80bd 96b0 e83c 421e fc3c 88c6 07be
00000070: 134c 57be 920f 353d 938a 6b3d cb2a a2be
00000080: 5dbf 5bbe 47e2 88bd f766 8bbe 2f75 8abd
00000090: f938 89be a44d f4ba 0538 e6bc 26e2 95be
000000a0: de17 0dbe e452 24be 8c68 2bbe 00bd 2a3e
000000b0: 1eab f1bd 0fc1 17be a85b f5bd 79b0 c73a
000000c0: 4f2f b0be 4838 cf3d f6e0 d53d 3279 abbd
000000d0: 9f95 b9bd 03dc 13be 4f43 58be 8a47 bdbe
000000e0: 979c 41be f50e 6abe ee66 b5bc 86b0 48be
000000f0: 8ffc b03c 3d1c 97bd 87cb 99be 781e b8bd
00000100: 7a76 82bc 7a0f e2bd b3dc 3b3c 2a1e 33be
00000110: 3c2f cabd 7093 58be 3aee 58bb be26 85bd
00000120: 6fb4 2fbe 0ea9 ae3d 6ab9 d8bd 3f25 90bd
00000130: 3060 1bbe c8c7 8fbe 3926 03bd a943 25be
00000140: 379f e5bd ed58 6fbe f608 59bd 9142 d6bd
00000150: 043c a33c bc2c 40be b1c7 dcbd 5c2e d3bd
00000160: 5fd3 ac3d 161a c3bd 3c5b 233e ba2a 003d
00000170: ef6d 74be 9fbf e2bd d24b 4dbe d28c 8abe
00000180: ef10 42be c01b b03c 19a8 a3bd 4099 7fbe
00000190: 28a4 573e 7ff2 a43d 205b de3e bc76 1dbe
000001a0: d9b5 503c cc89 d83d d5f3 c33e b85c 023f
000001b0: 1ff2 663e 71b4 843e f430 063e 224c 703e
000001c0: 8553 133e 196a f23d 8425 243e c496 613e
000001d0: c889 683e 0c0b 883e e251 d73e 3fa9 903e
000001e0: e9ef 0fbe 1281 563e 6547 f93d 8da0 173e
000001f0: 8df0 1f3f 0a8b 83be 93ae c23e cf58 87bd
00000200: 34bc 923e a0d1 b63e 8172 243e c046 903e
00000210: 5fb2 a03e b679 383e 32e1 9e3d aa1c 753e
00000220: cae1 8c3e 379f 6e3e 3ec7 ec3e 76e3 d73d
00000230: 7d53 e43c 6f7b b33e 47a1 d23d 9ca1 3fbe
00000240: 2968 393d a784 6f3e 7763 cd3e 4cd5 11be
00000250: c95e 043d 7bb1 563e 07ae 5abe b8cb 2a3e
00000260: fcb6 ef3d cbe8 653d 10c6 12be ecaa c6bc
00000270: 4401 b8bd b982 813e ab45 a1bc 3b08 983e
00000280: bd61 a3be 2cf8 953d 753a 383e 59c7 7c3e
00000290: ab48 e33e 29fe c93e 2e8b c63e 3813 9c3d
000002a0: fa25 343d 9361 733e 1130 263e e1ae 913e
000002b0: 5390 823e adb6 803e e4fc 693e 6fe4 243e
000002c0: d3b2 653e 737e 593e 2b0f 733e 7429 e03d
000002d0: 078f 3b3e 3b35 c73e 7485 ea3e 333f 8b3e
000002e0: 4c3e 433e c68b c03e 9e05 193e ae24 1a3e
000002f0: 368c 703e c13a 5d3e 4b9f bf3c 9900 993e
00000300: ef7a 0b3e ee04 8d3e 3ee9 c93d 15ae 343d
00000310: 1989 863e 9bb0 a03e 892e 753e f9ea 263e
00000320: 0a57 803a eaa1 b2be ffc5 8ebc 707a 0abe
00000330: ab96 c73b 4ec2 1abe 8140 ad3b acb4 37bb
00000340: bdb9 583d 955c 2a3b e83c ffbc a9ae 2cbe
00000350: 0a7c 12be d0b8 afbd 008b 51bd d8bb d4bd
00000360: 394f b2bd f4f1 42bd 0ff2 773e 12b7 d63d
00000370: c85c b0bd 7ea4 13bb 8c6d dbbe e48d bbbd
00000380: 4509 1bbc fc7c eabe 2b5d cebc 83de 91be
00000390: a50f dabd 5bfc 8cbc d573 bebd cb85 7d3d
000003a0: 0e87 d53c 75c7 a53d 6a16 66bd f263 71bd
000003b0: 47d1 5ebd de17 28be 1384 c9bd 8abf 12be
000003c0: bdf1 b6bc 3615 1e3e b9ff 5ebd edef b4be
000003d0: ab5d f43c a010 503c 3f36 303d 0361 a7bd
000003e0: dc7b 0a3e 9341 2abd d9bd b4bd 7180 00bc
000003f0: 46db 723d 3024 92bc 0e4c f8bc cfe3 9f3d
-0.26703405 -0.0063320445 -0.21490075 -0.123261884 -0.22523154 -0.23483932 -0.044249166 0.043190088
-0.2599764 -0.18493013 -0.45479143 -0.11050365 -0.0045109075 -0.30890715 -0.17134745 -0.12476329
-0.33569527 -0.36862615 -0.172132 -0.37589926 -0.13906439 -0.21275604 0.110666394 -0.13289933
-0.06282638 0.028404515 0.030776147 -0.13259327 -0.21025114 0.044204302 0.0575052 -0.31673273
-0.21459718 -0.06683784 -0.27226993 -0.06760632 -0.2680128 -0.0018638861 -0.028102884 -0.292741
-0.13778636 -0.16047245 -0.167391 0.1667366 -0.11800216 -0.1481974 -0.11980373 0.0015235088
-0.34411094 0.10118157 0.104432985 -0.083727255 -0.09061741 -0.14439397 -0.21119426 -0.36968642
-0.1890739 -0.22857268 -0.022143807 -0.19598588 0.021604804 -0.07378433 -0.30038092 -0.089901865
-0.015925635 -0.11038108 0.011466193 -0.17491975 -0.098722905 -0.21149993 -0.0033100978 -0.0650153
-0.17158674 0.085283384 -0.1058224 -0.07038354 -0.15173411 -0.28082108 -0.032018874 -0.16139092
-0.112120084 -0.23373766 -0.05298706 -0.10461915 0.019926079 -0.18767065 -0.107802756 -0.10311577
0.08438753 -0.0952646 0.15952772 0.031290747 -0.23870061 -0.11071705 -0.20048454 -0.27060562
-0.18951772 0.021497607 -0.079910465 -0.24960804 0.21058714 0.08054065 0.43428898 -0.15377325
0.012738668 0.10573158 0.38271967 0.5092273 0.225533 0.25918916 0.13104612 0.23466542
0.14387329 0.11836643 0.16029936 0.22030169 0.2270881 0.26570928 0.4205466 0.28254125
-0.14056362 0.20947674 0.121718206 0.14807339 0.62476426 -0.25692016 0.38023815 -0.06608736
0.28659213 0.35706806 0.16059305 0.28178978 0.31386086 0.18015179 0.07757796 0.23936716
0.27516013 0.23302923 0.4624576 0.105414316 0.027871842 0.3505511 0.102846675 -0.18713993
0.04526535 0.23390447 0.40114948 -0.14241523 0.032316957 0.20966141 -0.21355449 0.16679275
0.117048234 0.05613021 -0.14333367 -0.024251424 -0.089846164 0.25295046 -0.01968654 0.2969378
-0.31910506 0.07322726 0.1799105 0.2468542 0.4439138 0.3945172 0.3877806 0.07620853
0.04398153 0.2376769 0.16229273 0.28453735 0.25500736 0.2513937 0.22850376 0.16102766
0.22431497 0.21239643 0.23736255 0.109454066 0.1831628 0.389078 0.45804942 0.27196655
0.19066733 0.3760664 0.14943549 0.15053055 0.23490986 0.21604444 0.023391386 0.29883268
0.13621114 0.27542824 0.098589405 0.04411133 0.26276472 0.3138474 0.23943533 0.16300572
0.0009791565 -0.34889156 -0.017428396 -0.13523269 0.006090959 -0.15113184 0.0052872305 -0.0028031273
0.05291151 0.0025995125 -0.031156972 -0.16863503 -0.1430513 -0.08580172 -0.05115795 -0.10387391
-0.08706517 -0.047594026 0.24213432 0.10484137 -0.086114466 -0.0022528465 -0.42857015 -0.09157923
-0.009462659 -0.4579848 -0.02519091 -0.28490075 -0.10647515 -0.017210176 -0.09299437 0.061895173
0.026065376 0.08094684 -0.05617372 -0.058933206 -0.0543988 -0.16415355 -0.09839644 -0.14330879
-0.022332067 0.15437779 -0.054443095 -0.353393 0.02982982 0.012699276 0.043020483 -0.081728004
0.13523811 -0.041566443 -0.08825273 -0.007843123 0.059291147 -0.017839521 -0.030309703 0.07807123

gru.bias_hh_l0 f4 [300]
00000000: bbcb 78be c624 643b 2624 4fbe a1eb bdbd
00000010: 10aa 79be cebf 68be e407 79bd ac03 913d
00000020: 4c81 62be f57f 01be a719 e3be f01b 41be
00000030: 7243 71bc 0825 adbe ae49 46be 8de9 01be
00000040: 1efa 98be 077a adbe ec21 2fbe ba09 adbe
00000050: 0122 15be f522 8abe 00c8 453d 1265 15be
00000060: 9478 04bd 0da2 143d 09f2 edbb 3a9b debd
00000070: a621 37be 4703 443d 1b63 bbbb dddb 89be
00000080: ecf8 40be a6c7 10bd 6d5c 6fbe fbf7 0bbd
00000090: 7ab7 97be 3932 4dbd 20c3 81bd 3eb1 90be
000000a0: b8ea 19be 160a fbbd ca8c 58be 1b16 2e3e
000000b0: 77b1 8fbd 0792 35be 9c96 94bd 81de cabb
000000c0: 86ba a8be dbd5 c63d 52e1 9a3d 8154 9cbd
000000d0: eb83 c7bd 549c 45be 0258 54be 6459 babe
000000e0: 207d 62be a321 6fbe 0699 d63c d1ac 38be
000000f0: b5e9 0fbc f82c c3bc 637e 96be 6fe0 08bd
00000100: 1f03 96bc 8ea8 01be d783 a9bc b728 0dbe
00000110: dc45 76bd b867 7abe 958d 41bc a0cf 80bd
00000120: 4b20 13be f41f d43c 9e8d 1ebe 0736 e1bd
00000130: a7a5 f7bd 9778 73be 7b7d cd3a ae38 3ebe
00000140: 6919 e5bd 35fc 5cbe 4926 3bbd a08b 0abe
00000150: 56b1 4c3d d612 51be e186 ccbd 897d fcbc
00000160: 80c7 a43d dc60 c8bd 1405 463e 5b7f 723d
00000170: fc54 77be 3481 26be 3da0 42be cfc4 63be
00000180: 1676 59be 0faf 03bb 234e 73bd b3f8 40be
00000190: eabc 2d3e e260 933d c064 e13e 97e6 1dbe
000001a0: 704f a1bc c72c a83d e112 bf3e 0812 fc3e
000001b0: a035 603e 5943 953e 3106 283e c064 603e
000001c0: 4eb4 013e b07b 0c3e c3e7 243e 7b82 803e
000001d0: dca6 7d3e 5af6 593e 083a b03e f5d6 a73e
000001e0: 07f7 9cbd 805e 883e 5240 1b3e 68fb 0a3e
000001f0: e4bc 1a3f c0aa 6cbe da57 c03e 9784 8ebd
00000200: 7356 8c3e 7c03 ae3e 55df ae3d be4b 8e3e
00000210: 007f 8b3e 1a68 f53d c014 d63d 3093 323e
00000220: 3eae 813e ddde 653e 7047 e53e 7db1 283e
00000230: 02f2 5fbc 53b0 c93e ae0f f13d 209f 3bbe
00000240: 0208 ce3d 14cd 3a3e 5145 e13e 5bc1 20be
00000250: 645b 293a 3127 4d3e 0791 68be 3b88 3d3e
00000260: 4804 393e 284c 853d 657b 0dbe a41c 0ebd
00000270: 5a3e 65bd 2267 633e 9617 4e3d d33f 953e
00000280: 36bb 91be 0082 853c b89f 233e f91e 493e
00000290: 3ebd f63e 953d c23e 1548 e03e 03be c23d
000002a0: eae5 d43d f3b8 713e e29b 123e 2ed1 723e
000002b0: ced3 5c3e 34cc 953e 167e 5f3e ea0a 673e
000002c0: 9b45 543e 7ecb 6f3e 1fb1 593e 0783 073e
000002d0: ad99 4e3e 1383 b13e ce17 d03e b926 913e
000002e0: 6714 303e ba77 d83e baf3 0a3e c034 3c3e
000002f0: 5faf 663e 23e8 633e a450 1a3d 56c3 b53e
00000300: 5240 553e 92e8 893e 92f6 0b3e 41df 803d
00000310: ac91 9a3e f5b4 9a3e 6111 4e3e eb6b 233e
00000320: d070 cbbc 83aa 9bbe 6f86 5ebc 3d87 37be
00000330: 91c6 b1bc 774e 183e e32d a53d 8ac6 923d
00000340: b2bf 82bc 6fa1 f2bd 2664 0bbe ac23 99bd
00000350: 00b3 85be bbf4 1dbd ebd8 87be 3f72 26be
00000360: 4b06 2c3d 6790 34be b14e 113c f528 2abe
00000370: 4e96 373d 6fda 363e 1f65 81be 1102 083c
00000380: 5e3a 533d a56a f5be d7a9 c4bd 7fdb 15be
00000390: 4bcc 57be 4fee 463d bfa5 c8be 8a6c 17bd
000003a0: ba06 103e 6e9b 66bd 020f c4bd f644 4fbe
000003b0: 2c8b 233e d5d3 bebd 13f5 1ebe 8448 0ebd
000003c0: 3174 8a3d 295a a83d 301e de3d df4c d0be
000003d0: adac 3a3e d783 a8bc 96a3 283d 2e76 60be
000003e0: 46de 2abd 88d2 743d 2900 0ebe 8358 51bd
000003f0: f762 7cbd a939 313d 886b 033c e739 31be
-0.24296467 0.0034811958 -0.20228633 -0.09273458 -0.2438128 -0.22729418 -0.06079854 0.070807785
-0.22119635 -0.12646468 -0.4435551 -0.18858314 -0.014725553 -0.33817315 -0.19364044 -0.12686749
-0.29878324 -0.33882162 -0.17102784 -0.33796483 -0.14563753 -0.26979795 0.048286438 -0.14589337
-0.032341555 0.036287356 -0.007261519 -0.10869451 -0.1788393 0.047854688 -0.0057186014 -0.26925555
-0.18844956 -0.03534665 -0.23375101 -0.03417204 -0.2963217 -0.050096724 -0.06336045 -0.28260225
-0.15030944 -0.12257783 -0.21147457 0.1700062 -0.070162706 -0.17731486 -0.07255289 -0.0061910753
-0.32954806 0.097087584 0.07562508 -0.07633305 -0.09741958 -0.19297916 -0.20736697 -0.36396325
-0.22118044 -0.23352675 0.026196014 -0.18034674 -0.008783747 -0.023825154 -0.293933 -0.03341716
-0.018312035 -0.12661955 -0.020692749 -0.13785063 -0.060125217 -0.24453628 -0.011813541 -0.06289601
-0.14367788 0.025894143 -0.1548371 -0.10996633 -0.120921426 -0.2377647 0.0015677655 -0.18576309
-0.11186487 -0.21580584 -0.04569081 -0.13529825 0.04997381 -0.20417342 -0.099866636 -0.030821579
0.08045864 -0.097840995 0.19337875 0.059203487 -0.24153513 -0.16260225 -0.19006439 -0.22243045
-0.21236452 -0.0020093357 -0.05940069 -0.18844871 0.16966596 0.07196213 0.4402218 -0.15419994
-0.019691199 0.082116656 0.3731909 0.49232507 0.21895456 0.29152945 0.16408612 0.21913433
0.12666437 0.13719058 0.16104035 0.2509955 0.24770683 0.21285382 0.34419274 0.32781187
-0.07664304 0.26634598 0.15161255 0.13572466 0.60444474 -0.23112011 0.37567025 -0.06958883
0.27409706 0.33987033 0.08538691 0.27792162 0.2724533 0.119827464 0.104531765 0.1743896
0.2532825 0.22448297 0.44781065 0.16473956 -0.013668539 0.39392337 0.11770569 -0.1832242
0.10060121 0.18242294 0.43998197 -0.1569876 0.00064604566 0.20034482 -0.22711574 0.18508999
0.1806804 0.06508666 -0.13816603 -0.034695283 -0.055967666 0.22207311 0.050315462 0.29150257
-0.28463143 0.01629734 0.15978897 0.19640721 0.48191255 0.37937608 0.43804994 0.09508898
0.10395415 0.23605709 0.14317277 0.23712608 0.21565172 0.29257357 0.21825442 0.22562757
0.20729677 0.2341747 0.21258973 0.13233577 0.2017581 0.34670314 0.40643162 0.28349856
0.17195283 0.42278844 0.13569537 0.18379498 0.22527836 0.22256522 0.03767456 0.35500592
0.20825318 0.2693525 0.13668278 0.06292582 0.30189264 0.30216184 0.20123817 0.15959136
-0.024834067 -0.30403528 -0.013581856 -0.17922683 -0.02170113 0.14873682 0.08065393 0.071667746
-0.015960548 -0.11847197 -0.13612422 -0.07477507 -0.2611313 -0.03856347 -0.26532683 -0.16254519
0.04199819 -0.1763321 0.008868859 -0.16617186 0.044821076 0.17856763 -0.25272462 0.008301274
0.051569335 -0.47932926 -0.09602707 -0.14634512 -0.21074025 0.048567113 -0.39188954 -0.036968745
0.14065066 -0.056300573 -0.09573175 -0.2024115 0.15971059 -0.093177475 -0.15523176 -0.034737125
0.06760443 0.08220322 0.108456016 -0.40683648 0.18229933 -0.020570679 0.041171633 -0.21920082
-0.041715883 0.05977109 -0.13867249 -0.051109802 -0.061617818 0.04326788 0.008021243 -0.17307244

dense_output.0.weight f4 [100, 100]
00000000: b96c 013b e0f2 783c 2248 0a3d 84ef 29bd
00000010: f802 a93d 0189 75bc d6ef f53b 5a4e 243e
00000020: deef a53d bd87 b1bd ada1 1b3d b55c f93c
00000030: d9eb 0f3d b59b 89bd f150 173e 5b08 273d
00000040: 31b6 8e3d 03dc b13c 64a2 81bd 1f03 d03c
00000050: 7aa5 8fbd b2ff d23c 6304 9b3c 194c 8e3c
00000060: 1e93 ee3d 2694 0c3d ab86 933c 0785 ac3d
00000070: 8761 53bd 512e 163d e9a9 633e 19c0 b13c
00000080: 0714 513d c2ee 8abd 187b 263c 4c42 943d
00000090: dd2a 4f3d 2047 bd3c dbf8 98bd a976 c7bc
000000a0: 2044 9abd dab3 18bc 5a7c 973b 293f 213e
000000b0: 1a57 893c 5579 ac3d 6294 3cbe f46d 00bd
000000c0: 57a2 e03c ee67 453e c9ad 313d fe6e 44bd
000000d0: bba0 303d eb76 90bc e0fa 583d c148 27bc
000000e0: ce6e efbd fb97 17bd 07ea 293d b50c 1b3d
000000f0: 5f77 f33b 47f6 0f3e 0721 5e3d 7648 f43d
00000100: cb49 da3c 7fcb 883d 36dc 923d 130f 513e
00000110: d6dc 3cbe fdef 9dbd 9388 1a3e 4a51 493d
00000120: 0d10 06bd 92a4 32bd 147a 143b 9ab7 98bc
00000130: 3ea3 993d d534 1b3c ae79 16be 7ea0 0e3e
00000140: 817e d93d c446 ca3b e130 b33d f3ae 9b3b
00000150: 91d2 acbd 1909 1fbd 38ca a83d f188 863c
00000160: b2f4 00be 05e2 6bbc 28e9 253b 5fa1 573d
00000170: 8d15 a0bd 27f1 b53c e32a c1bd 56eb e73c
00000180: a8ba e83c dcac b53b c2d4 65bd bde6 5dbd
00000190: 0de4 3cbd fd5c 3bbc 9b8e 74bd c29a 4cbd
000001a0: 566a 153e 206a 02bd 3f3e 14bd 3036 ff3d
000001b0: 345c 0f3c ea5b 7fbd 4972 373c c810 6b3d
000001c0: e021 9dbd 5de3 51bd 7328 043e 81ed cd3d
000001d0: b725 8cb9 2ca2 f13b 7e4f a93b 9976 75bd
000001e0: 3029 eabd 7355 1dbc e0f5 a8bc e5e3 05bd
000001f0: 23b8 c03d f3dd 51bd e296 64bd 72b3 023c
00000200: e7a2 933d 4cd5 6e3c fac6 d63d d738 413d
00000210: 7b20 933d 0abf debc dafd 7fbd 325d 1dbd
00000220: fb4e b6bd 7882 3bbd 8fe1 cb3c f6e0 7abd
00000230: e718 0b3c 8404 cfbd 76a8 23bd 6256 5a3c
00000240: 98e8 5ebb c504 013d 421f d4bd 2e6b 1ebd
00000250: 40e5 ab3c 01b2 ec3d 2fbf 613d 9221 3cbb
00000260: 218e c63d 1ebb b63d a6be 7a3d 74e7 99bd
00000270: 0f57 e93d c63a b0bc 2d95 26bd e1ac 703d
00000280: da24 84bd d517 503d e881 ccbb 5d92 133e
00000290: 7307 e3bd 7b21 e53d 29ba d13d b475 073d
000002a0: a488 d9bd d328 55bd 721d 0f3e 047c 85bd
000002b0: 4ac2 843c 5424 b5bc b188 d83d 1758 f1bd
000002c0: 39a5 45bd a7ed a83b ff6a a5bd d09d 023e
000002d0: 086b 433c 6063 1d3d 4253 073e 5ec3 5e3d
000002e0: 2ceb c13c b08b 07bd 2276 87bc 1408 993c
000002f0: 17f2 cebd c7d3 583c 455e 633d f7ce a23d
00000300: 7ea1 d3bd 44d6 6c3c 69e1 e0bc aa27 15bd
00000310: 0686 4ebd c77a ab3d 4435 583c b12a 02be
00000320: 6850 48be 1778 813d 2f30 5cbd 4023 83be
00000330: 7fc9 4ebe 6595 3e3e 2438 f73d e5f7 743d
00000340: 3c58 fb3c 22b4 97bd 4e5a ebbc 48ca 3b3e
00000350: 65ca caba 2b5d 213e e86e ca3d a08e ca3c
00000360: f4bd 593d e6d4 1dbe fcb6 80be e42d ad3d
00000370: 2c74 77bc ab5e e53c ec7f 663e 5001 b03d
00000380: 9521 de3b 481c 6b3c 551a f4bc 64fb 7e3c
00000390: bc7f 65bd 9088 b93d 5b98 b4bc fc2f 823e
000003a0: cba3 d0bd 884c 1fbe 3467 863e 8037 353d
000003b0: 6f57 103e 0b34 803e 7a08 a0be 02c3 1c3e
000003c0: 373e 6e3e c93d bb3d 9f93 0c3e fcf8 0fbc
000003d0: b26c 77bd 3e33 a33e d6c5 fa3b 70fb 3cbd
000003e0: 80f2 31be f42d 533e 827d 7ebd e6b2 0b3e
000003f0: 9e84 81be 1809 ffbc a294 3ebe d01b b53a
0.0019748642 0.015194625 0.033760197 -0.041488186 0.08252519 -0.014986278 0.0075053973 0.16045514
0.08102392 -0.08668468 0.037995983 0.030439714 0.03513703 -0.06719152 0.1477697 0.040779453
0.06968344 0.021711355 -0.06329802 0.025392113 -0.07013984 0.02575669 0.01892299 0.01737027
0.11649154 0.034320973 0.01800855 0.084238105 -0.05160668 0.036665265 0.22232784 0.021698045
0.05104449 -0.06783821 0.010161184 0.072392076 0.050577987 0.023105204 -0.074693404 -0.024348574
-0.07532525 -0.009320224 0.004622978 0.1574675 0.016765166 0.0842158 -0.18415979 -0.03135486
0.02742116 0.19277927 0.043378625 -0.047957413 0.043122035 -0.01763483 0.052973628 -0.010210217
-0.11691056 -0.037010174 0.04148295 0.037853915 0.0074300016 0.14058791 0.054230716 0.11927883
0.026646515 0.06679439 0.07170908 0.20415907 -0.18443617 -0.0771179 0.15091161 0.04914979
-0.03273015 -0.043613978 0.0022655772 -0.018642236 0.07501839 0.009473045 -0.14694855 0.1392841
0.10619832 0.0061729867 0.08749557 0.00475108 -0.084386 -0.038827036 0.08241695 0.01642272
-0.12593344 -0.014397149 0.0025315974 0.05264413 -0.078166105 0.022209717 -0.09432008 0.02831046
0.028409317 0.005544288 -0.056111105 -0.054175127 -0.046115924 -0.011435744 -0.05970631 -0.049952276
0.14591345 -0.03183949 -0.036192175 0.12461507 0.00875001 -0.062343515 0.011196681 0.05738905
-0.07672477 -0.05124222 0.12906055 0.10055066 -0.0002673098 0.0073740687 0.005166947 -0.059927557
-0.11433637 -0.009602892 -0.020625055 -0.03268804 0.09410121 -0.051237058 -0.055807956 0.007977353
0.072088055 0.014577221 0.104871705 0.047173347 0.071839295 -0.027190704 -0.06249795 -0.038418956
-0.08901783 -0.04577872 0.024887828 -0.061249696 0.008489824 -0.10108283 -0.03995558 0.013326259
-0.0034013148 0.03149869 -0.103575245 -0.038676433 0.020983338 0.11557389 0.055113968 -0.0028706533
0.09695078 0.089224085 0.061216973 -0.07514849 0.11393558 -0.0215124 -0.04066961 0.05875862
-0.064523414 0.050803978 -0.006241072 0.14411302 -0.11085405 0.111880265 0.10240585 0.033071235
-0.10621765 -0.052040886 0.13976076 -0.06517795 0.016205925 -0.02211205 0.10572947 -0.1178438
-0.04825327 0.0051552835 -0.080770485 0.12755513 0.011927374 0.03842485 0.13215354 0.054385535
0.023671709 -0.0330922 -0.016535822 0.01868061 -0.10104769 0.013234085 0.055509824 0.07949632
-0.103335366 0.014455382 -0.027451234 -0.03641478 -0.050420783 0.08373027 0.013196293 -0.12711598
-0.19561923 0.063217334 -0.05375689 -0.2561283 -0.20194052 0.18611677 0.12071255 0.059806723
0.030681722 -0.074074045 -0.028729584 0.18338883 -0.0015471695 0.15758197 0.09884435 0.024726212
0.05315967 -0.15413246 -0.25139606 0.084560186 -0.015103381 0.027999243 0.22509736 0.08594
0.0067789056 0.0143500045 -0.029797712 0.015562866 -0.05603002 0.0905925 -0.022045305 0.25427234
-0.10187491 -0.15556538 0.26250613 0.044242382 0.14095853 0.25039706 -0.31256467 0.15308765
0.2326592 0.09142644 0.13728188 -0.00878739 -0.060406394 0.31875032 0.0076529784 -0.046138227
-0.17377663 0.20622998 -0.062131412 0.13642463 -0.2529649 -0.031132266 -0.18611386 0.0013817493

dense_output.0.bias f4 [100]
00000000: 9125 3dbe e210 e6bd 40c8 53bc 7541 0dbd
00000010: bc52 f9bd 8ce4 8cbd f39b 00be 6a1b 8bbe
00000020: bcc9 1bbe 2496 07be 87e2 1cbe fd83 09be
00000030: e66f 06be e901 20be 91c3 febd 18ed eabd
00000040: ac08 e8bd 8a97 d3bd 67a7 43be 928a 19be
00000050: 6756 d8bd 9d6a a2bd bc2c 8bbe acb6 f9bd
00000060: 089b 91bd b04d 0fbe ebc1 0abe 7c45 1bbe
00000070: 385f 81be d2be e6bd 8ef3 45be cb5a 98bd
00000080: 4b4d 95be 0b10 35be 8875 08be dc48 d73c
00000090: a3bc 2fbe 26b4 3abe ddf9 43be 7165 09be
000000a0: 1ccf 34be 1413 8abe 43a2 f7bd 8cf8 06be
000000b0: 3636 1abe a489 31be 4b71 91bd 75f5 07be
000000c0: 1804 b3be eaf4 7abe 8e8c 2fbe d052 c6bd
000000d0: 14a5 19be ed58 c8bd 5066 b5bd c993 edbd
000000e0: 25a7 c2bd 7967 453e bddb 11be c127 92be
000000f0: b8a7 5dbe d457 16be 9481 28be bbd2 83be
00000100: 3f4c 80be 19ff 23be 4e35 f9bd a098 2bbe
00000110: 0f50 a7bd 77f2 b1bc 6f46 10be 67eb acbd
00000120: 9a91 1cbe e016 63be 6d57 143c 16d3 63be
00000130: 8526 49be fc90 94bd 0d31 bdbd b16a 4ebe
00000140: c33d cfbd 6488 dabd 931e 4bbe ee23 3fbe
00000150: 062c 84bd a7fd 9dbd b1da 1abe ac3e 7f3e
00000160: ceea 2dbe 1991 69be c7bd 91bd 3d1b d9bd
00000170: fe44 09be e6af 2dbe dfd8 07be a281 93be
00000180: 380f ddbd b6b8 1ebe 95c5 1abe e4f0 febd
-0.18471362 -0.11233689 -0.012926161 -0.034486253 -0.121739835 -0.06879529 -0.1255949 -0.27169353
-0.15213674 -0.13240868 -0.15320788 -0.13429256 -0.13128623 -0.15625729 -0.12439645 -0.11471003
-0.11329779 -0.10331638 -0.19106828 -0.14994267 -0.10563355 -0.07930491 -0.27182567 -0.12193045
-0.07109648 -0.13994479 -0.13550536 -0.15163225 -0.2526796 -0.11266865 -0.1933119 -0.074391924
-0.29160532 -0.17681901 -0.13326085 0.02627986 -0.17161803 -0.18232784 -0.19138284 -0.13417603
-0.17657131 -0.2696768 -0.12091496 -0.1318075 -0.15059742 -0.17337662 -0.07101687 -0.13277228
-0.3496406 -0.2450749 -0.17143461 -0.09683764 -0.15004379 -0.09782586 -0.08857405 -0.116004534
-0.095045365 0.19277753 -0.1424398 -0.28545955 -0.21646011 -0.14681941 -0.1645568 -0.25746712
-0.2505817 -0.16015281 -0.1216837 -0.1675744 -0.08169567 -0.021722062 -0.14089368 -0.08443337
-0.15289918 -0.22176695 0.009054047 -0.22248492 -0.196436 -0.07254216 -0.09237871 -0.20157887
-0.10119202 -0.10670546 -0.19835882 -0.1866605 -0.06453709 -0.07714396 -0.15122487 0.24926251
-0.16984102 -0.22809257 -0.07116275 -0.106008984 -0.13405225 -0.16961631 -0.13266324 -0.2880984
-0.10793918 -0.15500149 -0.15114434 -0.1244829

dense_output.3.weight f4 [9, 100]
00000000: 47a1 2ebd d043 0b3d b1a9 653d c4db 08bd
00000010: 89a9 01bb fcab a73c cb17 b23c 204e 943d
00000020: 1ed4 9bbc 9d36 b2bc ecdd 513c 3884 2f3d
00000030: e76d 22bd 5296 473d 8e3c 8e3c 1133 0cbb
00000040: e048 aa3b 3f57 acbc 9b22 6abc 46e0 20bc
00000050: 9104 80bb 9773 5d3b 3495 4f3e e5b5 e4bb
00000060: 1e90 b7bc ecf4 183c 39cd cdbc f6c8 9f3d
00000070: 4829 743d b678 f73c ce27 cabb 502e 82bb
00000080: 7250 803d e537 39bb 4f65 19bd 01f7 c1bc
00000090: 149c 073b ffba 733d 3f93 a3b9 3007 80bb
000000a0: f8a2 c33d dda0 ad3c 3d98 cf3b 5b0d 07bc
000000b0: 0d8e d9bc 98d9 9d3b d815 fe3b e607 0abb
000000c0: ce9e c2bd 8126 543c 2921 643b 9cb4 c23b
000000d0: e9e4 1b3c e754 2cbc 5f07 78bc ef4b 8b3c
000000e0: 6a6b b03b 4acc da3c cf81 a4bb d32f 1a3c
000000f0: e7f2 913d 6692 833c 344a 123c e16e bfbd
00000100: a605 7f3d 7615 183d 580a 22bd 1fb1 a03b
00000110: 6a5a 593d eb72 95bc 8746 1c3d ed56 33ba
00000120: 7604 d53d b8cc 7a3c 4e21 a0bd cb4e 3bbd
00000130: 0cc0 083c 9e03 34bc fb20 483c 50bf 0c3c
00000140: 300a b83c 0c8c b9bb 0c09 453d aafa e03c
00000150: 7873 563d 0595 833c f064 f03c f253 c93d
00000160: 771f 293d abb7 0abd 39f9 5d3d 6e99 edbb
00000170: 2f2d 4cbc dc7c 7dbb ee2a b6bc 99e3 8fbd
00000180: a626 d23c 50d7 023d b583 943c eedc a83c
00000190: 30dc 69bd 6e08 10bb d19c 753d 068c 82bc
000001a0: 47eb 263a 09d3 babc 240a 873b 3b17 643d
000001b0: a3a9 2abc 7d17 00bd 211a a83c b301 0d3d
000001c0: fc07 14bd a83f f63c 5e9b 8b3c 72d9 533d
000001d0: d53b 6b39 ee2f 7ebb c0af 5e3a 0af0 5d3b
000001e0: c40c 0c3c f6b1 923c 5ed4 ff3d 16ed 743b
000001f0: 82ba babc a48b 203c a248 d1bc 1c8f b83d
00000200: 5bc2 243d 3456 ff3c bfba 8fbd cacf 8eba
00000210: 75e8 673d c23e 203c 6275 f8bb 2e87 4bbc
00000220: d7e0 26bc 5303 583d 3b73 62bc 7a90 a8bc
00000230: 2e8e b33d 46c6 f5bc 763f 35bd 768a 533d
00000240: 574e 43bc 6827 1bbc 1f5c 4abc b42c 49bc
00000250: 58da fbbd 6701 f0bb 2fca eb3b a0db 813c
00000260: de78 513d 4d91 eabb 17c0 babc 35fb c33a
00000270: 409c 41bc 96eb ea3c a486 1cbc 52d5 e7bc
00000280: 897b 883d 7658 99bc 8677 2d3c 5f0f eabd
00000290: 4f05 c83d 846f 863c 8747 8bbd 4fd2 3f3c
000002a0: c37c 93bc aa48 ac3c 56ea c93c ada4 fa3b
000002b0: cc96 d03d 4f4a b83c 11ed a0bd 2998 41bd
000002c0: 4bd2 9fbc 68bc 82bc 48ff c53c 9d9d f13b
000002d0: 2ad2 f9bc 284b 563c 3e62 443d d076 843d
000002e0: 7321 633d 74ca ae3c 687d 413d 6932 c83d
000002f0: c1ad afbc 8e2d ddbd ee44 493d 5886 8c3b
00000300: cfee 31bd a692 32bc 15bb a9bc 3f9a a2bd
00000310: 43c8 2dbc fef3 5abb 760f 38bc 48ab 843c
00000320: ffc6 0dbb c979 11bd 8f5c 813d b38d 73bb
00000330: 50a6 df3b e410 03bc 7725 6c3c 8c0a 853d
00000340: 3063 bbbc 6303 b1b9 d8f2 5e3c bf64 543d
00000350: bf53 1fbd 55ad d23c 32d2 683c d2c0 613b
00000360: ed04 7bbc cbc8 323a b16e 273d af78 483d
00000370: 74d3 d6bb 8852 65bc 1951 a13c 558d 30bb
00000380: 1c70 bfbb b13a 2abc 8b85 54bd 4d6f ea3d
00000390: 8da8 9e3d d8ee bf3c 6581 083d ad47 fb3b
000003a0: 89a3 6c3d 2ab5 83bc 5874 bdbc 3a55 733a
000003b0: 00e4 ac3b 3ebf 683d cefb a4bb 1035 fb3b
000003c0: 2864 b13d b373 a2bc ae8b 2abc cf04 6abc
000003d0: d3e4 a6bd bcb2 e33b ecb6 cabc 0d77 17bc
000003e0: daa1 d0bd f00f 3c3c 33b7 173c 693b 003c
000003f0: a3d7 803c 5faa f8bb 629d 4d3c bafa dc3b
-0.042634275 0.034000218 0.056070033 -0.03341271 -0.0019784889 0.02046775 0.021739861 0.07241464
-0.019022044 -0.021754557 0.012809258 0.042850703 -0.039655592 0.04872734 0.01736286 -0.0021392743
0.0051966757 -0.021037696 -0.014290477 -0.009819096 -0.0039067944 0.003379082 0.2027176 -0.0069796913
-0.022407588 0.009335738 -0.025122272 0.07802002 0.05960968 0.030208927 -0.006169296 -0.003972806
0.06265344 -0.0028262076 -0.03745013 -0.023677351 0.0020692395 0.059504505 -0.0003119949 -0.003907107
0.09552568 0.02119487 0.006335287 -0.00824293 -0.026556993 0.004817199 0.007754069 -0.0021061837
-0.09502946 0.012948633 0.0034809804 0.0059419405 0.009515026 -0.010518289 -0.015138476 0.017003981
0.0053838985 0.02670874 -0.005020357 0.009410816 0.07126408 0.01606102 0.008928824 -0.0934732
0.062261246 0.03712984 -0.039560646 0.004903927 0.05306474 -0.018243274 0.038153198 -0.0006841261
0.104012415 0.015307598 -0.07818852 -0.04572944 0.008346569 -0.0109871905 0.012214894 0.008590534
0.022465795 -0.005662447 0.04810433 0.027463276 0.052356213 0.016062269 0.029345006 0.098304644
0.041289773 -0.033866566 0.054192755 -0.0072509563 -0.0124619445 -0.0038679158 -0.022237267 -0.07025833
0.025653195 0.03194362 0.018129209 0.02061316 -0.057094753 -0.002197768 0.059964005 -0.015935909
0.00063674565 -0.022805708 0.004121082 0.055686217 -0.010416421 -0.0312724 0.020520272 0.03442545
-0.036140427 0.03005965 0.017041858 0.051721044 0.00022433636 -0.0038785893 0.0008494817 0.0033864998
0.008547965 0.017907124 0.12491678 0.003737276 -0.022794012 0.009798918 -0.02554733 0.09011671
0.040224414 0.031169035 -0.07018041 -0.0010895666 0.056618173 0.009780588 -0.0075823525 -0.012422366
-0.010185442 0.052737545 -0.013821418 -0.020576704 0.08767353 -0.03000177 -0.044249974 0.05164572
-0.011920533 -0.009469844 -0.012351065 -0.012278724 -0.12297505 -0.007324386 0.007195733 0.015851796
0.05114066 -0.0071584345 -0.022796674 0.0014952185 -0.011817038 0.02867679 -0.009553585 -0.028299961
0.066641875 -0.01871894 0.010587579 -0.11428713 0.097666375 0.016410597 -0.06800752 0.011707856
-0.018003827 0.021030743 0.024647873 0.0076490254 0.10185012 0.02249637 -0.07857717 -0.04726425
-0.019509455 -0.01595898 0.02416958 0.0073735253 -0.030495722 0.013079442 0.047945254 0.06467974
0.05545182 0.021336772 0.047238737 0.0977524 -0.021445157 -0.107997045 0.049138002 0.004288476
-0.043440636 -0.0108992215 -0.02071909 -0.07939576 -0.010606828 -0.003340959 -0.011234155 0.016194955
-0.0021633503 -0.035516534 0.06316482 -0.0037163317 0.006825246 -0.0079996325 0.014413229 0.06496152
-0.022874445 -0.00033762594 0.013607703 0.05185389 -0.038898226 0.025717417 0.014210271 0.0034447205
-0.015320999 0.00068200816 0.040877048 0.048943218 -0.006555969 -0.013996728 0.01969199 -0.002693971
-0.005842222 -0.01038997 -0.05188517 0.1144701 0.07746992 0.02342932 0.033326525 0.0076684565
0.057773147 -0.016077597 -0.023126766 0.0009282414 0.005276203 0.056823008 -0.0050349003 0.0076662377
0.086616814 -0.01983056 -0.010409279 -0.014283373 -0.081491135 0.006948797 -0.024745427 -0.0092446925
-0.10187121 0.011478409 0.009259987 0.0078266645 0.015727824 -0.007588669 0.01254973 0.006743756

dense_output.3.bias f4 [9]
00000000: 711a 483e 1db8 483e c18e 483e 44d6 453e
00000010: e741 453e 446b 463e 1590 433e b059 433e
00000020: e254 433e
0.19541337 0.19601484 0.19585706 0.19320017 0.19263421 0.19376856 0.19097932 0.19077182
0.19075349

exp_avg f4 [4, 1, 3, 3, 3]
00000000: 6fc9 8fba a97c 89ba 762c 1aba c57b a0ba
00000010: b1c1 5dba cd94 3fb9 1543 98ba 2d32 2cba
00000020: 9ecd e4b8 46f9 99ba 9f55 8cba 07df 30ba
00000030: 6f19 baba 82d5 72ba eb77 a1b9 ae28 adba
00000040: f29a 3bba e355 0db9 95fd acba 8545 93ba
00000050: 70dc 4cba 64a8 d5ba e879 85ba 4ce0 edb9
00000060: b117 c1ba 742f 45ba 0686 4cb9 84de cd38
00000070: fc35 9cb9 223b 9f3a 0b0a 7ab9 6609 6338
00000080: 227f cc3a d691 693a e519 b83a 35ab 263b
00000090: 8448 77b8 4a5c aab9 0411 d53a 289f 7fb9
000000a0: 0032 e938 f54c 023b 9503 3d3a c0ab 9a3a
000000b0: d4b8 303b c2b3 f9b8 0d03 a1b9 d754 013b
000000c0: f892 0fb8 3e3e 8639 4f00 1e3b 1943 3d3a
000000d0: 7408 7c3a 9789 3e3b 5729 73bb 6c45 4ebb
000000e0: 142d 18bb 5787 65bb 01b3 60bb 4583 3dbb
000000f0: 0efd 25bb 0533 3abb fd32 12bb 7464 80bb
00000100: 113f 46bb 1a3c 14bb f0ac 70bb 5e4d 68bb
00000110: 9a40 48bb 3785 2dbb 70d3 3dbb b354 16bb
00000120: 6790 82bb 2f97 3bbb 1e61 1dbb 023c 7dbb
00000130: e9ce 68bb ccc6 52bb cd02 36bb be62 3fbb
00000140: c2f7 1abb 674c 23bb 830d 23bb af52 39bb
00000150: c0a0 cdba c587 9dba 4c36 d7ba af12 91ba
00000160: 303c 8fb9 1f4a 9eb9 7942 1abb 8ed6 2ebb
00000170: b1a3 42bb 3f19 c0ba 91e5 aeba 617f f3ba
00000180: 3555 88ba 0bfe b0b9 7ebf 08ba 8487 15bb
00000190: 393b 3abb d43f 49bb 4780 b1ba 97d8 c4ba
000001a0: cd8a 02bb 61cd 77ba 0996 d9b9 054a 59ba
-0.0010970066 -0.0010489422 -0.0005881259 -0.0012243917 -0.0008459343 -0.00018270612 -0.0011616672 -0.0006568756
-0.000109101864 -0.0011747263 -0.001070667 -0.0006747101 -0.0014198254 -0.00092633825 -0.0003079766 -0.0013210976
-0.00071565725 -0.00013478803 -0.0013198132 -0.0011235928 -0.000781483 -0.0016300795 -0.0010183426 -0.00045371277
-0.0014731792 -0.00075220247 -0.00019504884 9.8166085e-05 -0.0002979486 0.001214836 -0.00023845599 5.412977e-05
0.0015601853 0.0008909976 0.0014045803 0.0025431637 -5.8956924e-05 -0.00032493687 0.0016255681 -0.00024377985
0.00011119619 0.0019882296 0.00072103116 0.0011800453 0.0026965635 -0.00011906728 -0.00030710586 0.0019734406
-3.4230732e-05 0.00025604846 0.002410907 0.0007219776 0.0009614297 0.002907371 -0.0037103498 -0.0031474484
-0.0023220228 -0.0035023296 -0.0034286382 -0.0028917354 -0.0025327834 -0.0028411758 -0.0022308223 -0.003918225
-0.0030249993 -0.002261883 -0.0036724173 -0.0035446505 -0.0030556084 -0.0026477107 -0.0028965138 -0.0022938668
-0.0039844993 -0.0028624048 -0.0024014185 -0.0038640504 -0.0035523719 -0.003216195 -0.0027772665 -0.0029203142
-0.002364621 -0.0024917366 -0.002487988 -0.0028278043 -0.0015688166 -0.0012018612 -0.001641938 -0.001106819
-0.0002731993 -0.00030191333 -0.0023538156 -0.0026678178 -0.0029699618 -0.0014655961 -0.0013343563 -0.0018577391
-0.001040137 -0.00033758613 -0.0005216523 -0.002281637 -0.0028416647 -0.003070821 -0.0013542258 -0.0015018162
-0.0019919157 -0.0009452906 -0.0004150125 -0.0008288923

exp_avg_sq f4 [4, 1, 3, 3, 3]
00000000: 7592 7938 47c3 6b38 813b 5a38 bd12 4838
00000010: 43dc 2738 1185 0b38 6d65 0c38 6be0 a137
00000020: 92cd 3837 53b7 7338 a878 6538 2390 5538
00000030: 13b9 4438 45fe 2138 a01a 0738 9b76 0838
00000040: 7efd 9237 e737 2b37 e926 7338 4ff8 6438
00000050: da6e 5638 667e 4238 aa7e 1f38 fb74 0838
00000060: 5167 0338 4f66 8b37 0cc0 2c37 1787 0339
00000070: fc82 0d39 244f 1039 b158 fe38 ed81 0939
00000080: 22a4 1139 ac5b ec38 e42c 0539 bb55 1639
00000090: ca0b 0139 08cb 0939 78d5 0b39 877e fa38
000000a0: e685 0739 65a7 0e39 783d e938 2140 0439
000000b0: 2b8f 1339 1d4f fe38 fe59 0639 ca90 0639
000000c0: e78d f938 167d 0639 d426 0b39 5a3c e638
000000d0: 3ba6 0239 e327 0f39 19fa e638 51d6 a138
000000e0: 647a 6738 636f b338 55e0 9038 010f 9538
000000f0: 7942 9f38 9ad0 8538 7fa4 8938 151f de38
00000100: d86e 8f38 c4f2 5f38 0aa7 b238 d665 8d38
00000110: cf9e 9838 20ca a238 3a8f 8838 65df 9538
00000120: 8ee6 dc38 f4d3 8838 6f09 6138 9d26 b238
00000130: 6df7 8a38 184a 9938 badc a038 4961 8838
00000140: 002e 9a38 ea53 0938 30cb 4138 624f 9438
00000150: b177 0b38 dcaa 2338 b1a2 8938 c333 3238
00000160: fbd2 3438 46e1 8538 3896 0638 f65b 4d38
00000170: 3cbb 9c38 e25b 0738 9994 2838 04f7 9238
00000180: 81d1 2d38 f7e7 3638 e7b8 8c38 eed2 0638
00000190: aa9a 5938 81cd a038 06f8 0438 be71 3238
000001a0: 4a49 9838 37b0 2838 e0ce 3c38 768e 8f38
5.9502625e-05 5.6210232e-05 5.2030668e-05 4.7701167e-05 4.0021037e-05 3.326411e-05 3.347306e-05 1.9297198e-05
1.1015118e-05 5.810645e-05 5.4710225e-05 5.0917395e-05 4.6902405e-05 3.86222e-05 3.2211305e-05 3.2535387e-05
1.7522598e-05 1.020541e-05 5.7971953e-05 5.459069e-05 5.1124814e-05 4.6370922e-05 3.802652e-05 3.2533873e-05
3.1329055e-05 1.6617732e-05 1.0296713e-05 0.00012543458 0.00013495603 0.00013762392 0.00012128184 0.00013113739
0.00013889422 0.00011270432 0.00012700591 0.00014337052 0.0001230679 0.00013140973 0.00013335596 0.000119444965
0.00012924484 0.00013604535 0.00011121755 0.00012612391 0.00014072347 0.000121264 0.0001281276 0.00012833174
0.000118996766 0.00012825834 0.00013270538 0.00010978496 0.00012459692 0.00013652402 0.00011013839 7.716998e-05
5.5188677e-05 8.5561325e-05 6.90824e-05 7.107668e-05 7.594092e-05 6.380789e-05 6.563309e-05 0.000105915744
6.8394176e-05 5.3393436e-05 8.518815e-05 6.742372e-05 7.277505e-05 7.762411e-05 6.5116634e-05 7.146484e-05
0.00010533362 6.524465e-05 5.3652966e-05 8.494894e-05 6.6264394e-05 7.3094096e-05 7.670508e-05 6.503106e-05
7.3518604e-05 3.2741496e-05 4.620402e-05 7.071976e-05 3.3251654e-05 3.9021354e-05 6.562973e-05 4.2486714e-05
4.3111835e-05 6.383895e-05 3.208799e-05 4.8961454e-05 7.473535e-05 3.227208e-05 4.0192714e-05 7.007833e-05
4.144153e-05 4.3608215e-05 6.710161e-05 3.2144533e-05 5.1880874e-05 7.6676726e-05 3.1702242e-05 4.2544438e-05
7.261576e-05 4.0218434e-05 4.501536e-05 6.845307e-05

exp_avg f4 [4]
00000000: e2c1 a7bb 32d8 3f3c 22c1 adbb 11a7 f0bb
-0.005119548 0.01170926 -0.0053025642 -0.0073441346

exp_avg_sq f4 [4]
00000000: 19dd 393a a09a ed3a 1bc4 c439 7511 bc39
0.0007090136 0.0018127747 0.00037530143 0.0003587116
