models/mvsec/indoor_flying2/indoor_flying2_stereo_odd_model.pth (torch, 862658 bytes, 27 tensors)

conv3d.0.weight f4 [4, 1, 3, 3, 3]
00000000: e107 a33c 9532 e0bd ab69 00be 59ac ecbd
00000010: 12b1 a43d 6eef 6dbd 954d 543e 6d40 f63d
00000020: 87ac 433d 58a1 1e3e a930 743d 7784 b2bc
00000030: 98df b3be 263d 81be 6201 80be 151d 203e
00000040: eb4e 6b3d ff78 103e 0069 c23d fc1c d13d
00000050: cb83 313e 17ab dcbe 08bb b3be d35d 4cbe
00000060: fb23 0239 6a21 2ebc 5c91 5d3e d43b 99be
00000070: 7eb9 bf3d 74d4 033e 7761 d73d dcb0 bf3d
00000080: 19b2 e2bd 799b c03d fc5f 993d 1fcf 8fbd
00000090: 78d9 b0be 53a2 ad3e 953f 783e ced9 18bd
000000a0: 3a80 153e de37 bfbd dc42 263d 47e5 343c
000000b0: c22e cfbd a347 d2be ea46 b93e 9a39 0c3e
000000c0: b826 33be 7aa6 113e 4883 b2bd 8bcc 10be
000000d0: 3954 fcbd 0d8f 0e3b 0f08 ae3e 6feb 0b3e
000000e0: 33d5 9e3e d09d 1b3e 19cc c93d 6922 8f3e
000000f0: d1c9 a93e 6c02 5e3e 29f2 b63e b696 133e
00000100: a1cb 013e 083f 093e 0a61 cf3d f367 993d
00000110: a16f b73d 40d4 da3d ae08 8e3d 6898 143e
00000120: 9efd 94be 2618 98be 4cb6 92be 7482 91be
00000130: 54d5 88be 3bd0 46be e653 9dbe e4c3 90be
00000140: fa73 94be 1e99 37bd 46fd 0e3b 7017 a13d
00000150: ba1d c5bb 53df 123e 390c 00be 35fc 5dbe
00000160: cdc9 aa3d 9f69 a63d e0d0 023d 815f 05be
00000170: 5d42 993c 5513 b93e ae05 2a3c 4eb2 d5be
00000180: 36df 1c3d ccca 993d f0d2 21be 2f18 0e3d
00000190: 9f5f 33be 0b52 223e 02f7 f93e 426a b1bd
000001a0: cf46 b6be 225c 833e 68c4 903c 7be5 6fbe
0.019901218 -0.10947148 -0.12540309 -0.1155631 0.08041586 -0.058089666 0.2073272 0.12024007
0.047771957 0.15491235 0.05961672 -0.02179168 -0.35131526 -0.25241965 -0.25001055 0.15636094
0.05744831 0.14108656 0.094926834 0.102106065 0.17335431 -0.4309928 -0.3510363 -0.19957666
0.0001241117 -0.010628084 0.21637481 -0.29928458 0.09361552 0.12874013 0.10516637 0.09359905
-0.11069126 0.09404654 0.07489011 -0.07021927 -0.34540915 0.33912906 0.24243005 -0.03731709
0.14599696 -0.09336828 0.040591106 0.011040992 -0.1011634 -0.4107028 0.36186916 0.13693848
-0.17495239 0.14223662 -0.08716446 -0.14140527 -0.12320752 0.0021752745 0.33990523 0.1366403
0.31022033 0.1519692 0.09853382 0.2795594 0.33161786 0.21680611 0.3573163 0.1441296
0.12675335 0.13402951 0.101259306 0.0749053 0.089568384 0.10685015 0.06935249 0.14511263
-0.29099745 -0.29705924 -0.28654706 -0.2841984 -0.26725256 -0.19415371 -0.30728072 -0.28274453
-0.28994733 -0.04482376 0.0021818443 0.078657985 -0.0060155066 0.14343004 -0.12504663 -0.2167824
0.08339272 0.081256144 0.03193748 -0.13024713 0.018708402 0.36147562 0.010377331 -0.41737598
0.038298808 0.075093836 -0.15803123 0.034691032 -0.17516945 0.1585161 0.48821265 -0.08662845
-0.35600898 0.2565623 0.017671779 -0.23427384

conv3d.0.bias f4 [4]
00000000: 1d75 9a3d c934 c5bd b1b2 45bd 2d16 02bd
0.07541869 -0.096292086 -0.048266117 -0.03175943

gru.weight_ih_l0 f4 [300, 100]
00000000: 1029 61be ba0a 7bbe 1a62 5dbe 0f45 4bbe
00000010: 673b 69be c3d4 3cbe 81bb 13be 8d25 fbbd
00000020: ed25 82bd 7c0e 00be 3ab8 a4bc 7570 123e
00000030: 0309 383e c3ae 3c3e 6f16 603e 1463 453c
00000040: 7284 d43d 96d0 ccbd dacd 20be 9606 cb3d
00000050: 1df9 f4bd 144e a8bd b23a 91bd 3b30 e03d
00000060: 48c3 8b3d 3db2 e13e 26cf 123f 37ec ba3e
00000070: 3c7b ec3e b9da a33e 97d6 373f 2a3f 3e3f
00000080: 0136 033f ca37 c73e 3c63 f83e cd21 b23e
00000090: 3ee7 aa3e 537d f13e 130a 033f ba01 433f
000000a0: fb86 5cbe ea56 e7bc 7628 ab3e daaa 023e
000000b0: bc62 393e 26b2 8ebd 0f44 013e 2448 073f
000000c0: 05f3 6f3e e738 fb3d 49bd 8cbe f8e9 1cbe
000000d0: aa47 b2bd 8819 183e 2ca3 e63e 73ba 12bf
000000e0: 7005 a3be 7466 97be b813 bbbd 73e9 2f3e
000000f0: c098 2abf 7dd9 92be 66be b7be 9a43 12be
00000100: cc11 283e a66a 16bf f917 1ebe 1915 78be
00000110: b93b c2bb 5c0f ab3e 5a43 ebbe e1f3 f0bb
00000120: bafb bc3d 1a4d 983e 36d6 443f b86a 57bd
00000130: beef 7abe 6dbb 0ebe 9139 af3d 6595 703c
00000140: f268 8ebd 82b2 d1bc 10dc 87be b8c4 68be
00000150: ee22 7c3c 4900 87bd 3c0c 7cbd 6059 9cbe
00000160: 7eb7 72be 725c e63d 39d8 2dbe 8814 323c
00000170: 0895 67bd 3bf5 b33d 34c6 d43e f345 a0bd
00000180: b62c b43c b182 ea3d 3e96 ab3e 6c44 2d3f
00000190: 7a27 7abe b3f8 b6bd 3907 73be c759 05be
000001a0: 190a b1be 3928 63be 7672 9fbd 1bd3 18be
000001b0: 30da 09be 88e2 953d eaf9 83be 66a9 ed3d
000001c0: 257f 1e3c acbd 153e 2c15 a73e 1b72 d63d
000001d0: f605 4f3e 1c82 4b3d 7641 0c3e e6ee d03e
000001e0: 7260 9ebe d55f 4ebe db61 b5bd fb55 483e
000001f0: 1d89 e73d c08c 2f3f a44c 9c3d 5f39 1a3e
00000200: 916f 103f 7dcc 4e3e 90d8 e83e 48ca 053e
00000210: 81b7 843e ec4b c83e 022e 75bd 5034 0e3b
00000220: 5bbd 2e3e 2329 753e e205 17be 9908 36bf
00000230: da69 83be 10a7 0a3e 7c69 723e 587b 3ebd
00000240: b2c6 5dbe ef7b 543e ec39 9a3e 9ebd 3dbd
00000250: 66e3 ba3d 633d cf3d ddfa 07bf fba3 8cbe
00000260: 4280 dc3d 5ef1 6f3d 21fc 123d 321f 4bbe
00000270: c373 4fbb 975f 073e 892c b33d 5394 b83d
00000280: c337 28be 9218 a23c 65e8 063d 7e7e 263e
00000290: 36b5 e33d d8a5 1bbe ec97 7ebd da5d 2abd
000002a0: 1f09 713e d411 6e3e 419f 10be e194 963b
000002b0: 180a 183e 9185 c93e f617 983e 9a3a a1bc
000002c0: f06d 143e 9d59 243e f273 9bbe 0ce6 24be
000002d0: 7114 1e3e 2636 4cbe f68f 1b3e 2654 45bd
000002e0: bc7f 16bc 4344 c63e 736f b8be f4ff 173c
000002f0: 94aa eebc c90a 803d c750 943e 40c7 91be
00000300: 8952 963d 071b 36bd 3d55 1e3e d8a4 fd3d
00000310: 1254 023e 21e3 b13e 7ce5 e43c a08d 493e
00000320: c113 cd3d dc1c 363e 536f b93d 1d42 65bd
00000330: d421 eabd 0354 a5be a55c 27bc 29a0 d4bd
00000340: a9cb 78be 7bb3 73be 6208 eebc 33f8 033e
00000350: cb51 7abe b185 10be be54 b9bd 4171 48bd
00000360: 81a4 b63a e30e a5be 9b4d 6cbe 3dee 30be
00000370: b6db 98bd 3fcd f73d dff3 5c3d e3d9 833e
00000380: a237 533e d65e 8fbd 0618 2c3e 4c8f d83d
00000390: 5b59 a43d a789 2abd 8f47 163b 6902 423e
000003a0: d448 663d c9c9 c53d 149b b7bd 5558 9bbe
000003b0: e174 17be ab00 a53d e4e4 a93d b6fe 89bd
000003c0: c150 9bbe 94d2 25be 6efc 423e fd6e a93d
000003d0: 2e11 c63c 23e0 c5bd 61e5 9bbd 9207 2d3d
000003e0: 89b7 fbbd 6660 013e e924 42bc b98a a13d
000003f0: 7dcf c73d f2d0 54be d215 c6be a652 8bbe
-0.2198832 -0.2451581 -0.21619454 -0.19850563 -0.22776566 -0.18440537 -0.14426996 -0.122630216
-0.0635489 -0.12505525 -0.020107377 0.14300711 0.17972188 0.18426041 0.21883558 0.012047548
0.103768244 -0.10000722 -0.15703526 0.099133655 -0.11961577 -0.08218017 -0.07091273 0.10946699
0.06824356 0.44081298 0.57347333 0.36508343 0.4618777 0.3200281 0.71811813 0.7431513
0.5125428 0.3890975 0.4851321 0.34791413 0.3337955 0.47165927 0.5118725 0.7617451
-0.21535866 -0.028239686 0.33429307 0.12760487 0.1810407 -0.06967573 0.12623619 0.5284445
0.23432548 0.12266713 -0.27488163 -0.15323627 -0.08705075 0.1485349 0.45046365 -0.5731575
-0.31840086 -0.29570353 -0.091346204 0.17178898 -0.6663933 -0.28681555 -0.3588745 -0.142836
0.16413039 -0.5875648 -0.15438832 -0.24226798 -0.0059275297 0.33410156 -0.45949823 -0.0073532914
0.092277005 0.29746324 0.7688936 -0.05259201 -0.24505517 -0.13938685 0.08555902 0.014684056
-0.069536105 -0.025597814 -0.26535082 -0.22731292 0.015389187 -0.06591851 -0.061535105 -0.30536938
-0.23702809 0.11248101 -0.16977014 0.010869153 -0.05653861 0.087870084 0.41557467 -0.07825842
0.021993976 0.11450709 0.33513063 0.6768253 -0.24429122 -0.08934154 -0.23733224 -0.13022529
-0.34578016 -0.22183312 -0.077855036 -0.1492428 -0.13462138 0.07318598 -0.25776607 0.11604576
0.009673868 0.14623135 0.3263334 0.10470983 0.20217118 0.04968463 0.13696846 0.40807265
-0.30932957 -0.20153745 -0.08856555 0.19564049 0.11305449 0.6857414 0.076318055 0.15060948
0.56420237 0.20195194 0.45477724 0.13065445 0.25921252 0.39120424 -0.05985833 0.002169866
0.17064421 0.23941474 -0.14748338 -0.7110687 -0.25666696 0.13540292 0.23673052 -0.04650435
-0.21657827 0.20750402 0.30122316 -0.04632341 0.09125404 0.101191305 -0.5311716 -0.27468857
0.10766651 0.058579795 0.03588498 -0.19836119 -0.0031654693 0.13220058 0.08748729 0.090126656
-0.16427521 0.019787107 0.032936472 0.1625919 0.111185476 -0.15199983 -0.062156603 -0.04159341
0.23538636 0.23248988 -0.1412325 0.0045953845 0.148476 0.39359716 0.2970578 -0.019681264
0.14495063 0.1604981 -0.30361897 -0.16103381 0.15437485 -0.19942531 0.15191635 -0.048175953
-0.009185728 0.38723955 -0.3602253 0.009277333 -0.029134072 0.06252057 0.28967878 -0.28472328
0.07339961 -0.04445937 0.15462203 0.12384957 0.12727383 0.34743598 0.027941458 0.19682932
0.100135334 0.17784446 0.090544365 -0.055971254 -0.114322335 -0.32290658 -0.010214959 -0.103821106
-0.2429644 -0.23798935 -0.029056732 0.12887649 -0.24445264 -0.14113499 -0.090493664 -0.048936132
0.0013934524 -0.3223792 -0.23076479 -0.1727838 -0.074637815 0.120996945 0.05394351 0.25752172
0.20626691 -0.070005104 0.16806039 0.10574207 0.08024856 -0.04163518 0.0022930836 0.18946232
0.056221798 0.09657628 -0.08965126 -0.3034083 -0.1479068 0.08056768 0.082956105 -0.067380354
-0.30335048 -0.1619361 0.19041607 0.082731225 0.024178114 -0.09661891 -0.0761211 0.042243548
-0.12290866 0.1263443 -0.01184962 0.07887787 0.09756372 -0.20782831 -0.38688523 -0.27211493

gru.weight_hh_l0 f4 [300, 100]
00000000: 56cc 883d 5a98 0ebd be5a a0be c8a7 b93d
00000010: 4433 53bf fcde 7dbe a620 8c3e 6623 0fbe
00000020: 18f9 d5bc aaba 8b3d 4a7a 11bd 61de 0d3f
00000030: a187 75be a900 ffbc 7b97 923d 627d 4abe
00000040: 2981 523d 2aa8 803d 0212 973e 7669 acbe
00000050: 0ddc 643c a7c7 26bf 00bc 3c3e 31c8 463d
00000060: 484e 803e ab6e b6bd 2bf3 143e d946 803d
00000070: b989 143d 47e6 973e eadf 943e c925 e33d
00000080: d5fb a33e 818d eabd 7493 70be cb4e 8fbd
00000090: 4300 883c c566 8a3e 719a 023e 9c70 613e
000000a0: 95ed 163f eac7 a53e 884a 513e 742b 833e
000000b0: 1d07 90be 0016 803d b0d4 fe3d be28 d73d
000000c0: d3f3 f63c 0dcd 7f3e 3126 4c3c 74dc a2bd
000000d0: fd3c ce3c 7a8e 823d 9248 3cbd b62e 0dbd
000000e0: bfaa 01be 1ea9 a03e a32c 733d f0b5 5e3e
000000f0: 4067 ed3e 1753 9ebe ab1a b0be 7f60 28be
00000100: 4b12 233e f4f8 dabe 459e 8d3d c311 64be
00000110: 0e26 c4bd c853 21bf 362b acbd d1c7 3f3e
00000120: f0cb 30be 3a0b da3c 7cbc b83e 8ef9 d13d
00000130: 40ff 753e c0fd 3c3e 7106 7a3d 8a0c b03e
00000140: a968 b6bd c769 7a3d 94e7 4b3d b57b f2be
00000150: bdd4 373e ace6 b1be bdd9 043e d7ee bb3d
00000160: 1838 2f3e 5408 4b3c 0454 f83e 74a3 adbe
00000170: 5a61 db3d 3cf9 42be 8e00 10be 176a 513d
00000180: 11bf 37bd 740e c9bd b4c9 eb3c ed3f 85be
00000190: 9752 c9be 2774 a1be 2925 cfbe 3118 45be
000001a0: 5e10 973e 3dcd 8a3d 89a1 6a3e 1793 153f
000001b0: 1db3 f6bc 4d7e aabe 50be d93e c9f5 c03d
000001c0: 2757 a7be 1686 f43d 15ba c23e 25dd ce3e
000001d0: dc47 653e 2173 e83d f374 8ebe 1550 643c
000001e0: 96a3 b93c 78c0 3d3e a74e 9a3d 2dc2 a2be
000001f0: 9744 b6be 9104 09bf e767 e9be d0ee 51be
00000200: 4f96 36bd e5d4 d1be edb6 74bd 6f0f 013f
00000210: 3932 703e d393 1abe 89c0 55bd fbb0 85be
00000220: 6716 dc3d b1cd c2be e1b3 203f 4866 45be
00000230: 148d 9ebe 91a1 cfbe ae0a ddbe 88c5 98be
00000240: b82b a63d d7c5 a6bd 19bd 883e b4a3 a53d
00000250: 3732 6dbe 1e81 7c3e 4564 8a3e 53e6 03bf
00000260: dfb1 bebd ffb5 cfbd 1411 4fbe 2c70 163e
00000270: a379 d63d 74b4 bdbe 2e36 e6be 97a7 00be
00000280: 2276 15bf 57e2 f9be 86ad a0be 4756 323e
00000290: c24f 673e 2ddb e8bd 5305 91be 748e 693e
000002a0: 4d8c 0c3d ab66 afbe cabc 073d e375 a83e
000002b0: 3bfe 07be 1cf0 613e f228 143e 4b1e 343f
000002c0: 98a5 c23d dc46 18be 8123 703e e645 213e
000002d0: 0d1b 083d 8adc bcbe 9541 d5be 1a99 0a3d
000002e0: 0f5c f83d a3c3 82be e60b 08bb 7557 a23e
000002f0: 3b11 afbc f8c1 173d e778 0f3e 2d65 b13e
00000300: e231 bc3d 4e49 643e 88ef 453e 9d74 c53e
00000310: 1747 0cbf cc6f 723e 396b 9c3d 9a7e bbbe
00000320: 5d0f ddbd c835 a93d f6cc e2be 7aaf 73bd
00000330: 6f43 d1bd 6ee2 71bb 5a0e 56be a27b b13e
00000340: 1814 a6be e8eb 023d a3cb 1fbd fc96 fb3c
00000350: cef2 5c3e 93c2 1cbf 8357 d83e cebe 1fbd
00000360: b42d 94be 4b79 563e a853 3d3e 7666 26be
00000370: 9abb 06bd f3e0 7c3c fd71 01be 1b84 4ebd
00000380: 7852 b4be 82a3 113d 4074 96bd c9bd 6bbd
00000390: 3973 583d 971e 70be 6c98 02be 455b 2abd
000003a0: 9b63 9e3e bac9 52be a8ce 94bd 7b29 ff3d
000003b0: a307 a8be a746 a43e 06bf 583e c897 4cbd
000003c0: 99c9 8cbe 1818 f5bd d93a 5e3d c348 d23d
000003d0: 1947 00be 4221 9abd e3f4 e8bd ba81 863e
000003e0: 08f4 92b9 0a52 f73d 5250 043f fe69 bf3d
000003f0: c1a6 12be 8afe b8ba 3123 b1be 85de 653d
0.06679599 -0.034813263 -0.3131923 0.09065205 -0.825001 -0.24792093 0.2736866 -0.13978347
-0.026119754 0.06822713 -0.035517015 0.5541745 -0.2397752 -0.031128244 0.07157799 -0.19774392
0.051392708 0.06282075 0.29505926 -0.3367421 0.01396848 -0.65148395 0.18431091 0.04853076
0.25059724 -0.08907827 0.14545886 0.06263513 0.036264155 0.29667875 0.29077083 0.11091191
0.3202807 -0.11452771 -0.23493749 -0.069974504 0.016601687 0.27031532 0.12754227 0.22015613
0.5895627 0.32379085 0.20438588 0.2561909 -0.28130427 0.06254196 0.12442911 0.10505818
0.030145561 0.24980564 0.012460277 -0.07952204 0.025175566 0.063748315 -0.045967646 -0.034468375
-0.1266279 0.31379026 0.05936874 0.21749091 0.46367836 -0.30922768 -0.34395346 -0.1644306
0.15924947 -0.4276806 0.06914953 -0.222724 -0.09577571 -0.63018465 -0.08406679 0.18728568
-0.17265296 0.026616681 0.36081302 0.10252677 0.24023151 0.18456173 0.0610413 0.34384567
-0.08906681 0.061136033 0.049781397 -0.47360006 0.17952247 -0.347463 0.12973686 0.091764145
0.17111242 0.012392122 0.485016 -0.33913767 0.10711928 -0.19040388 -0.14062712 0.051126566
-0.04485995 -0.0981721 0.028782703 -0.26025334 -0.39320824 -0.3153393 -0.40458038 -0.1924751
0.29504675 0.06777427 0.22913183 0.58427566 -0.030114705 -0.33299485 0.4252801 0.0942188
-0.3268368 0.11939637 0.38032594 0.40403095 0.22390693 0.11350084 -0.278236 0.013935109
0.022661012 0.18530452 0.07534533 -0.3178877 -0.35599205 -0.5352259 -0.45587084 -0.20501256
-0.04457694 -0.40982738 -0.059744764 0.50414175 0.23456658 -0.15095453 -0.05218557 -0.26111588
0.107464604 -0.38047555 0.62774473 -0.19277298 -0.3096701 -0.40552953 -0.4317221 -0.29838204
0.081138074 -0.08143204 0.2670677 0.080878645 -0.23163687 0.2465863 0.27029625 -0.5152332
-0.0931127 -0.10142135 -0.20221359 0.14691228 0.10472419 -0.37051737 -0.4496321 -0.1256393
-0.5838338 -0.48805496 -0.31382388 0.17415725 0.22589019 -0.113699295 -0.28324375 0.22808248
0.03431349 -0.34258017 0.033139028 0.3290244 -0.13280575 0.2206425 0.14468744 0.70358723
0.09504241 -0.1487078 0.23451044 0.1574932 0.033228923 -0.36887008 -0.41651598 0.033837415
0.12126934 -0.25539884 -0.0020759045 0.3170735 -0.02137052 0.037050217 0.14010964 0.34647503
0.09189202 0.22293589 0.19329655 0.3856553 -0.54795974 0.2367546 0.076376386 -0.36620027
-0.10793946 0.08262211 -0.44296998 -0.05949352 -0.1021794 -0.0036908644 -0.20903912 0.34664637
-0.32437205 0.03196326 -0.039012562 0.030711643 0.21576998 -0.61234397 0.42254266 -0.039000325
-0.2894112 0.20944707 0.18488944 -0.16250023 -0.032893755 0.015434491 -0.1264114 -0.050418954
-0.3521917 0.035556324 -0.07346392 -0.05755404 0.05284426 -0.23449169 -0.12753457 -0.041590948
0.30935368 -0.20584765 -0.07265979 0.12459084 -0.32818326 0.32085153 0.2116662 -0.049949437
-0.27497557 -0.11967486 0.05425534 0.102677844 -0.12527122 -0.07525875 -0.113748334 0.2627085
-0.00028029107 0.120761946 0.5168506 0.09346388 -0.14321424 -0.0014113944 -0.3459716 0.056120414

gru.bias_ih_l0 f4 [300]
00000000: 5475 6abe 226a 6abc a6cb 8d3e d7ff 4dbc
00000010: 7490 a8be 54ce 76bd 165c 61be 82f9 1b3d
00000020: 573b 87bd 5fb2 23be 317f 3dbe 1d14 2fbe
00000030: 0f70 1cbe 7deb a9bc 2467 92be 7c74 ebbd
00000040: 232f 99be cd65 51bd 9785 b0bd 8d56 87bd
00000050: b5bd 13be 76ab 05be 3637 c3bd 57fe d1bd
00000060: a4ec a0be ddd0 433e 96fb 50be dc47 69be
00000070: 444d e5bd bd7e 9b3d 53f4 93bd afce 61be
00000080: dbd1 4dbe 1cd8 58be bc09 b4bc 6e10 55be
00000090: d535 bb3d 8010 c63e a569 b2bd ee42 193e
000000a0: d6a7 18be 2566 71be 851d 98be 4c3b df3c
000000b0: 51f2 1d3d 5a25 00be 5b4d ff3c 5fd1 313e
000000c0: 7e1b a43c 8f53 d8bd f4a6 55bd c266 afbd
000000d0: 8261 c3bc 1b92 6cbe 54f5 b2be 07df 26bc
000000e0: 8617 5abe 450d 9cbe 4638 8fbd 06fa 80be
000000f0: e222 38be 385a 8bbe ed1f c83e 4e8e 823d
00000100: 56be 043c 1a24 03be c43e 00be 69a8 9e3c
00000110: 4803 03be fa86 c9bd df6e 0abe ff81 f13e
00000120: ed62 e3bd 7b5a 46be d3e6 ed3b 8db2 2abd
00000130: c0ad 05be 4bb6 95be 8834 3d3c ca9d 28be
00000140: d6b9 0dbe 4de4 04be 3890 16be 2e01 1bbe
00000150: 38c2 e439 2fcf 04be c8dc bd3b 1a21 49be
00000160: cfbc 07be 19ce fabd 20c9 10bd 7709 7cbe
00000170: 0d68 ff3c 3acb a2bd 2b33 1fbe cc2d 6abc
00000180: 377e 76be c0d9 9dbd 50b5 13be e152 6dbe
00000190: 9626 a13e 781b 473e 50c4 04bb b7e2 583e
000001a0: a4c2 683e d103 15be eaed 8a3e be8b c23e
000001b0: d037 2c3e 42ff e83d 4439 b23e c3a0 353e
000001c0: 17fc d63e 6ef6 8a3e e3ee 6e3e 9e20 b63e
000001d0: 1eec db3e d1a1 963e 85c7 8a3e ca2c 753e
000001e0: ebbf a53e 7238 853d 276e ac3e acfc 313e
000001f0: e688 073e 567c fe3c d938 1b3e 7010 963e
00000200: 0ffe 893e 18d4 483c da4d a63c e13b 15be
00000210: 66af e53e 9cef a73e 611f 58be fc45 453e
00000220: 7267 f93e b070 a4bd 4faa 0d3e fce9 113f
00000230: 76d2 ddb9 6d45 023e 677c 643e dbdd 423e
00000240: 70c8 563e eafc 153c ea3b de3e 1b20 c73d
00000250: 12ce 473e dcde 163d 470b 353e 82fb 793e
00000260: ad60 8b3e d9a1 393e 304a 8e3e ba66 073e
00000270: 7e27 933c c747 a03e 8547 863d 09a2 a03e
00000280: 8f00 a73e 5fdd df3e c2a4 c7be 2f35 fa3e
00000290: 2d4b 093e 3596 2f3e d09f 5ebc 9992 b83e
000002a0: bd2a 7a3e b76f aa3d ba3e 643e e8bd c9be
000002b0: e3e6 f6bd e720 953e d91c 683e 98ca aa3e
000002c0: 1ad9 0d3e ba00 4e3e 9f8c 703e 8bb9 c33e
000002d0: 2d2a a13e 9d16 9cbd 18ce 503d 837a db3e
000002e0: 32a8 e83e 93ab 963e 7005 8c3e 3e38 a73e
000002f0: a1be ad3e ac11 4b3d 0ec2 fd3e ddb7 1e3d
00000300: c665 f73d 4d97 573e 5685 aa3b 7634 553e
00000310: d848 223d 735d 663d b7ff a03e 4eb0 cb3e
00000320: 584a 0abe 76b0 463d c44d ae3e 83bb f9bd
00000330: 0431 f13c 0d68 633e 59e9 cd3d 799d 973e
00000340: 3ef0 073e b514 39be 6af8 45be 4528 0ebe
00000350: a619 aabd 494c 373c 9bf6 bebd c0b2 dfbd
00000360: 9085 e83d fa67 953e a11c 1bbd dc4c bd3e
00000370: 4e59 25bd 9463 633d ce44 61be 7e9e 4dbc
00000380: 177b eebd 5bb1 d63e 0edd 913b 1789 6b3e
00000390: 2d98 ecbc a19a e9be 2509 003e a1ff 443e
000003a0: a96f dbbd 9d6c 4d3b 1d6e 593c d743 3cbe
000003b0: 9cb5 77be df7a 60be 0646 0bbd c9bd 3d3e
000003c0: bda2 afbd c268 bf3d d0d1 ebbd d161 a5bc
000003d0: 1fa0 3dbe 8899 69bc 60a6 483d 402e cd3e
000003e0: 7e8b 883d 19da 31bc e808 38be f052 d8ba
000003f0: 1bf4 21be e9dd 4dbe 353e de3c d839 8cbd
-0.2289632 -0.014307531 0.27694434 -0.012573204 -0.3292271 -0.060255364 -0.22007784 0.038079746
-0.06603115 -0.15986012 -0.18505551 -0.17097516 -0.15277122 -0.020742172 -0.28594315 -0.11496827
-0.29918775 -0.051122475 -0.0861923 -0.06608305 -0.14427836 -0.13053688 -0.09532015 -0.102535896
-0.31430542 0.19122644 -0.20408472 -0.22781318 -0.11196378 0.07592533 -0.072243355 -0.220515
-0.20099585 -0.21176189 -0.021977298 -0.20807049 0.09141127 0.38684464 -0.08711556 0.14966938
-0.14907774 -0.23574121 -0.29710022 0.027249955 0.03856117 -0.12514248 0.031164816 0.17365025
0.02003264 -0.105628125 -0.052161172 -0.08564521 -0.023850206 -0.2310261 -0.34952796 -0.01018501
-0.21298036 -0.30478874 -0.06993155 -0.25190753 -0.17982057 -0.2721727 0.39086857 0.06374799
0.00810202 -0.1280674 -0.12523943 0.019367414 -0.1279422 -0.09840198 -0.13518856 0.47169492
-0.11102853 -0.19370453 0.0072601824 -0.041674186 -0.13054562 -0.2924064 0.011548169 -0.16466442
-0.13840422 -0.12977715 -0.14703453 -0.15137169 0.00043632253 -0.1296966 0.0057941414 -0.19641533
-0.13255619 -0.12246341 -0.035348058 -0.24612986 0.031177545 -0.07948919 -0.15546863 -0.014293145
-0.24071585 -0.07707548 -0.14424634 -0.23176147 0.3147475 0.19444072 -0.0020258613 0.21180235
0.227305 -0.14552237 0.2713464 0.3799724 0.16818166 0.113768116 0.34809315 0.17737107
0.41989204 0.27141136 0.23333316 0.3557176 0.4295358 0.2942033 0.27105346 0.23942867
0.32372984 0.06504907 0.3367779 0.17381543 0.13235816 0.031065147 0.15158404 0.29309416
0.26951644 0.012257598 0.020300794 -0.14573623 0.4486038 0.32799995 -0.2110572 0.19264978
0.48711735 -0.08029306 0.13834499 0.56997657 -0.0004230921 0.12721796 0.2231308 0.19029944
0.20974898 0.009154538 0.43405086 0.097229205 0.19512203 0.03683363 0.17680083 0.24412349
0.27222195 0.18128146 0.27790976 0.13222781 0.017963167 0.31304762 0.0655661 0.31373623
0.32617614 0.4372358 -0.38992888 0.488687 0.13407584 0.17147143 -0.013587907 0.36049345
0.24430366 0.08322089 0.22289553 -0.394027 -0.12055757 0.29126665 0.22667255 0.33357692
0.13852349 0.20117465 0.23491143 0.38227496 0.3147749 -0.07621501 0.050977796 0.42866907
0.45440823 0.29427776 0.27347898 0.32660097 0.339345 0.0495774 0.49562114 0.038749564
0.120799586 0.2105381 0.005203883 0.20820794 0.03962025 0.056241464 0.31445095 0.39782947
-0.13504922 0.04850813 0.34043705 -0.12193968 0.029442318 0.22207661 0.10054273 0.2961233
0.13275239 -0.18074305 -0.19333044 -0.13882549 -0.08305673 0.011187621 -0.0932438 -0.10922766
0.113536 0.2918089 -0.0378691 0.36972702 -0.04036837 0.055514887 -0.21998903 -0.0125499945
-0.11644571 0.41932186 0.0044514006 0.23001514 -0.028881157 -0.45625785 0.12503488 0.1923814
-0.10714657 0.0031345256 0.013270882 -0.18385254 -0.24190372 -0.21921872 -0.034002326 0.18529429
-0.08575962 0.09346153 -0.11514628 -0.020188244 -0.18518113 -0.014257796 0.048986793 0.40074348
0.06667231 -0.010855221 -0.17972147 -0.001650421 -0.15815775 -0.20104183 0.027129272 -0.0684697

gru.bias_hh_l0 f4 [300]
00000000: 4370 58be 88d9 f0bc 1832 8d3e 38a2 b83b
00000010: bd41 a1be ee15 abbd 607d 53be b9e5 733d
00000020: 782f c2bd 9581 fbbd 39d9 33be f658 32be
00000030: c082 19be 0c32 6bbc 050d 9dbe 180a aebd
00000040: 84ec 87be 2c29 6dbd 0ae9 c3bd f185 68bd
00000050: 34d3 f7bd a057 0fbe 97c2 6dbd bf3b d5bd
00000060: 9af3 a7be e68d 2f3e 8c16 57be cd2b 5ebe
00000070: f6b6 1dbe 48f9 a03d 6c79 9abd a42c 4cbe
00000080: 06c0 65be 5449 60be 2d1f 74bd 7870 52be
00000090: 17f1 b83d b489 c83e 408a cbbd 435d 133e
000000a0: ebd2 0fbe 2a31 76be 2277 95be 7b27 c33c
000000b0: d779 3d3c b73c 14be 3a78 a23c 366f 283e
000000c0: 9666 f33c 2e51 b1bd 8613 65bd bd71 8abd
000000d0: 9049 2abd d74b 4bbe d20a c6be 4513 03bd
000000e0: a0f7 7bbe 61f8 9ebe f254 97bd 1ae9 8cbe
000000f0: fa47 29be e59e 90be 0f5e cc3e cfb8 5d3d
00000100: 15ac e4bc 5f94 02be 0f4f c6bd dc47 3b3d
00000110: 2d33 ccbd 2d85 d3bd 7b7a d1bd 6ff3 f13e
00000120: c725 11be 5cd3 72be d4f2 72ba c96c 22bd
00000130: 0acd e9bd e318 86be 7767 e9bc b262 31be
00000140: 4054 1abe 2915 e7bd 1304 02be 0ea5 36be
00000150: f5f2 363c c635 16be 44ee 84bc 894f 5cbe
00000160: 4ae4 0dbe 1363 17be 4b9d fcbc 02af 57be
00000170: b35f d53c 6e8b 82bd c7d4 14be 1d09 ccbc
00000180: d081 80be a4ff 1ebd dad9 22be 7401 64be
00000190: 4d46 9b3e 32fe 203e e0a0 a0bb 00c8 303e
000001a0: 60c2 6d3e f415 15be 65ef 853e dbd6 c23e
000001b0: 76d1 293e e986 fb3d 3c5a aa3e e735 543e
000001c0: f14c ca3e d49e 893e e7f5 823e a7e4 b53e
000001d0: a9d6 cd3e 6ccc a23e f00b 9a3e cd3e 833e
000001e0: 8e47 b13e cfcc 3f3d 0e9a 9d3e a613 503e
000001f0: 9ad8 0c3e 8ee1 123d 3feb 243e 5b60 9c3e
00000200: 1b18 8b3e 815f 44bc 4462 583d d571 0ebe
00000210: a609 e33e c672 9b3e 2fe9 5abe 88dc 623e
00000220: 466a f93e a2cc bbbd ddf6 023e 6033 143f
00000230: d1b1 09bd 358f 0c3e d018 5f3e 3f85 523e
00000240: c43b 433e 4eb5 d13c f744 d23e 4c18 d43d
00000250: bc8f 573e 1959 e73c c54a 563e c6e4 863e
00000260: 5f60 843e c936 643e 4fe4 9f3e 98b9 f63d
00000270: fbcd 863a fb7a a43e 383a ef3c be18 a63e
00000280: cb36 b63e fecc da3e c511 ccbe c3f2 f73e
00000290: b7b6 043e 3776 1c3e 285a 7dbc 9867 b53e
000002a0: 4468 493e 6011 323d 8297 643e 6f0c d7be
000002b0: 1435 e0bd 67f4 973e d9d2 743e 0d60 b03e
000002c0: 5ee8 0a3e 0505 563e 1f7a 7d3e 5567 bc3e
000002d0: 41ea a63e 229f 85bd 0698 3c3d c87a da3e
000002e0: 13a0 ea3e ebd4 8d3e 56a8 843e 4ceb b53e
000002f0: 57d5 9e3e d3ed 9e3d bd62 f83e fb57 023d
00000300: d9bf 0d3e 581c 5d3e d319 c13c 7df7 703e
00000310: 2cca 133d eb4e 793d 03cd a43e 26fc bf3e
00000320: 688d d3bd ff2e 1b3e 8a56 923e 848d bdbd
00000330: 6866 07bc 2d83 473e 7853 8fbd 5bb6 ae3e
00000340: 85ec 973e c0e1 24be 493c 19be 2610 8ebe
00000350: 9682 72be 8ded bf3d 1a3e b8bd b604 67be
00000360: 06f3 863d 24c6 193e 3fdb e63d b83e 903e
00000370: f8a3 1e3e 2e03 2d3e ca6e 85be 91a2 513d
00000380: 6adf 00be 9908 083f 14a8 643e f576 7cbd
00000390: feba a8bb 956b cfbe ca63 83bd 5330 0dbd
000003a0: 43ec ddbd 5fff 3b3e b645 b8bb fe57 55be
000003b0: ff47 11be 04ef efbe 7c38 cabd 49d5 343e
000003c0: 2a21 f7bd f796 283e 897e 92bc ea17 1bbe
000003d0: 4c87 87be 7c50 69bd f96d 493d df79 df3e
000003e0: d6bc d83d 786f 8b3d 531e 7bbe 9265 8f3e
000003f0: 23be 42be 9b47 a33b 15c4 eebd bd76 0fbe
-0.21136574 -0.029400602 0.2757728 0.0056345724 -0.31495467 -0.08353792 -0.20653296 0.059545252
-0.0948171 -0.12280575 -0.17563333 -0.17416748 -0.14991283 -0.014355194 -0.30673996 -0.08498019
-0.26547635 -0.057900593 -0.09565933 -0.05676836 -0.12100831 -0.1399827 -0.058046903 -0.10411786
-0.3280304 0.17143974 -0.21004695 -0.21696396 -0.15401825 0.078600466 -0.07542691 -0.19938904
-0.22436532 -0.21902972 -0.059600044 -0.20550716 0.09030359 0.3916756 -0.099384785 0.14391045
-0.14045303 -0.24042192 -0.29192454 0.023822537 0.011564693 -0.14476286 0.01983272 0.16448674
0.029712003 -0.08658062 -0.055926822 -0.06759975 -0.04157406 -0.1985315 -0.3868013 -0.0320008
-0.2460618 -0.31048873 -0.07389249 -0.27521592 -0.16531363 -0.28246227 0.3991551 0.054131325
-0.027914086 -0.12751912 -0.09683048 0.045722827 -0.099706985 -0.10328136 -0.102284394 0.47256038
-0.14174567 -0.2371344 -0.00092677516 -0.039654527 -0.11416061 -0.26190862 -0.028491719 -0.17322806
-0.15071201 -0.11283333 -0.12696867 -0.17836401 0.011166324 -0.1466895 -0.016226895 -0.21514715
-0.13856617 -0.14783888 -0.030836722 -0.21062854 0.02604661 -0.0637425 -0.14534293 -0.02490669
-0.2509904 -0.038818017 -0.15903416 -0.2226618 0.30327073 0.15721968 -0.0049019903 0.17263794
0.2321868 -0.14559156 0.26159206 0.38054547 0.1658381 0.122815914 0.33271968 0.20723687
0.39511827 0.2687899 0.25578234 0.3552601 0.40202835 0.31796587 0.30087233 0.2563385
0.34624904 0.04682618 0.30781597 0.20319995 0.13754502 0.035859637 0.16105364 0.30542263
0.2716683 -0.0119856605 0.05282809 -0.13910611 0.443433 0.30361003 -0.21378015 0.22154438
0.48713893 -0.0916989 0.12789483 0.5789089 -0.033616845 0.13726504 0.21786809 0.20558642
0.19065768 0.025599148 0.4106824 0.10356197 0.21050924 0.028240727 0.2092696 0.26346415
0.25854775 0.22286524 0.31228873 0.12047118 0.0010284776 0.32125077 0.029202566 0.32440752
0.3558868 0.42734522 -0.39857307 0.484274 0.12960325 0.1527947 -0.015463389 0.35430598
0.1966868 0.0434736 0.2232342 -0.42001674 -0.10947624 0.29678652 0.23908557 0.3444828
0.13565204 0.20900352 0.24753617 0.36797586 0.32600597 -0.06524493 0.04604342 0.426718
0.45825252 0.27701506 0.2590968 0.3553108 0.3102214 0.07760205 0.4851283 0.031822186
0.13842715 0.21592844 0.023571884 0.2353191 0.036081478 0.060866278 0.32187662 0.37497061
-0.103297055 0.15154646 0.2858165 -0.092555076 -0.008264162 0.19483633 -0.06998342 0.341235
0.29672638 -0.16101742 -0.14964403 -0.27746695 -0.23682627 0.09371481 -0.0899622 -0.22560391
0.06589322 0.15016991 0.112722866 0.2817285 0.15492237 0.16895744 -0.26061088 0.051180426
-0.12585226 0.5313812 0.22329742 -0.061636884 -0.0051492443 -0.40511766 -0.06415518 -0.034469914
-0.10836079 0.18359135 -0.0056235446 -0.20834348 -0.1418762 -0.46862042 -0.09874055 0.17659487
-0.120668724 0.16463839 -0.017882602 -0.15145841 -0.2647041 -0.05696152 0.049177144 0.43647668
0.105828926 0.0680837 -0.24523287 0.2800718 -0.19017844 0.0049829013 -0.116584934 -0.14010139

dense_output.0.weight f4 [100, 100]
00000000: 8e62 febd e2fd b8bb d88f 89bb 06cd 12bd
00000010: 2e46 dc3c 68f9 a13d a7c5 873d 1e89 76bd
00000020: 7bfc ce3c a227 3a3c 4a91 e8bb 9e77 73bc
00000030: 3bca 5e3d f582 30bd 9663 1bbc 43fa 46bd
00000040: ef17 86bb 70a3 133d b5e7 2abd e155 083d
00000050: fb7a 52be 3fcd 18bc cbd9 343d 2faf d73c
00000060: a50f a43d e95e 9dbd f9e2 063c 7d57 9ebd
00000070: 2142 18bc 020e bf3c ccf4 b9bd c9cc 83bd
00000080: ab49 733d cec1 60bc fae2 103e 8609 d0bd
00000090: f144 12be 573e b0bd 9e77 e2bd 5ed7 f73d
000000a0: 5681 9c3c 259a 0bbe 37da 343c 3be5 d03d
000000b0: 40a3 8ebd 59ef 663c 517f 93bc 46d3 653c
000000c0: c961 07be 28cb ce3d 88cc c53d 83dc 2c3d
000000d0: 84a6 283e f7d2 dabd 1466 8d3d 5212 e43c
000000e0: 884f a1bd 52d3 a93d 4d96 d73d 9cc3 403c
000000f0: aa7c d13d 5d4e 603d 21ec abbc 74fa 84bd
00000100: 7c99 8d3a 83f1 adbd 1960 a83d da3e 9fbc
00000110: 440d cc3d 2732 3a3d 0b54 7e3d 7aca b13a
00000120: 7f73 9f3d 04dc 5e3d c3cd a93d 1f72 47bd
00000130: 32b8 7a3d ec86 72bd 0d91 813d 9901 f33d
00000140: 729e aabd 5c81 883b be41 47bb 2d9f d5bb
00000150: 5a4d 89bb 77e1 a5bc d903 24be b7d8 573c
00000160: 39e8 05be d7c3 02bd 33af a63c 0648 ae3c
00000170: 8e56 20bd eac6 ddbb a603 18bc e779 c43c
00000180: 49cd 823d 8ecb 573d 7982 5f3d 3777 28be
00000190: 550c 2fbd 443f 813d 426b 923c 488a 5fbd
000001a0: 6e35 aebd cd35 023e 6242 c23c 7da5 e7bd
000001b0: bd66 c73d ea81 1a3d 973a cc3d 5c0f 953d
000001c0: a97a 983d fe35 23bd 2bc9 aa3c 9007 92bd
000001d0: 4984 2f3d 3475 843c 8fae 8bbd 23e9 523d
000001e0: ffda 16be 424b 033b a17c 013d 65a6 143c
000001f0: 5942 2d3d 6acf 55bc 1159 4bbd 2da9 88bd
00000200: 5a74 98bd ef9a 183c 6607 413c a70b 703c
00000210: 0982 a43d 91ab 0d3c 5481 2a3d 03eb c5bd
00000220: 29ed 89be 44ec 3ebd bca1 6cbd 4068 9bbb
00000230: f779 49bd 131f 24bd 2ce1 133d fa77 a93c
00000240: 69e2 e83c fffd c3bd 03cd b43d ad8c 3e3e
00000250: 0bbb 8e3c 724e a73d 6e3e 0cbd 6135 833d
00000260: ab50 3a3e f34c e5bd 2b43 9c3d e1d2 913c
00000270: c0e9 a9bd 7d22 ce3d a0d7 28bd 9f3e 00be
00000280: ffec a7bc ad3c 5a3d 123e 033d b4af 33be
00000290: 994c dfbb 3070 a1bd 3ebb 623c c27e 1c3c
000002a0: ce6e d13d 548f e63a 51f2 3abd 44d1 9d3b
000002b0: affa b43d 9fc1 13bd bdc0 9b3d 6503 27be
000002c0: 0693 823c 4985 9e3b c355 eb3d 17c8 623d
000002d0: 1b0d 09bc 6dae a73c 532a 253d 179a 87bd
000002e0: ca79 c2bd 3ebb 13bd 6687 c3bd f119 843c
000002f0: 3301 2dbd a5ff 0ebb 652e 8ebb ff27 a5bd
00000300: 1a82 193d 9c23 023d ca61 cd3b ad5d 3a3c
00000310: b29f 963c 03e6 533c 0a38 43bd b013 a53c
00000320: bd5d 43bd 8823 62bc 6a0c 67bd dbc4 8dbc
00000330: 5a44 263d 6d24 183d 7c97 923d 06e0 7cbd
00000340: 73db 533c e943 cd3b 5a15 9c3c ad30 993d
00000350: fd9b cc3c 2d1c dcbc 72b6 7bbc 3ca9 73bd
00000360: 2f99 003c a699 77bc 91db 6b3b f1b3 0dbd
00000370: d86c 01be 931c 793c 1f5a cf3c 8ec8 31bd
00000380: bacc 75bd fea1 90bc 9c64 aebb cae4 12bd
00000390: 6327 acbc b485 b53c 38bb 3fbd db54 22bc
000003a0: 65e8 e23c 8428 21bd ef44 ab3c a84b d1bb
000003b0: ee92 f0bd e4c8 ab3b 78e5 ccbc 44ac 41bc
000003c0: 14f0 c7bc 0f6d 9cbb 6468 85bb 6153 25bb
000003d0: daa0 d73b aff0 9c3d 6b9b 8b3c d3b5 a2bc
000003e0: 4426 8fbc e657 873c 0952 013d 1c56 71bc
000003f0: 9897 0f3e a24d 563d 001c 2dbc 4a85 103d
-0.124211416 -0.0056454996 -0.0041980557 -0.035840057 0.026888933 0.079088986 0.06629496 -0.06018936
0.025266876 0.011361988 -0.007097398 -0.014860062 0.05439208 -0.04309364 -0.009484192 -0.048578512
-0.0040922086 0.036044538 -0.04172488 0.033285026 -0.20554726 -0.009326278 0.044153016 0.026328651
0.080107965 -0.07684118 0.008232825 -0.07731531 -0.00929311 0.02332211 -0.090798944 -0.06435544
0.059396427 -0.013718082 0.14149085 -0.101580665 -0.14284112 -0.086056404 -0.110579714 0.12101625
0.01910464 -0.1363302 0.011038355 0.10199972 -0.06964731 0.014095151 -0.018005045 0.014027422
-0.13220896 0.10097343 0.09658152 0.042202484 0.1646977 -0.106847696 0.069042355 0.027840767
-0.078764975 0.08292259 0.105267145 0.011765387 0.10228856 0.054762233 -0.020986618 -0.06493083
0.0010803188 -0.0849333 0.08221454 -0.01943915 0.09963468 0.045457985 0.06209187 0.0013564371
0.07785701 0.054409042 0.08291199 -0.04869282 0.06121082 -0.059210703 0.06326494 0.11865539
-0.08331002 0.0041658115 -0.0030404176 -0.0065192194 -0.004190129 -0.020249112 -0.16017093 0.013174227
-0.13076867 -0.03192505 0.020347213 0.021274578 -0.039145045 -0.006768097 -0.009278214 0.023983909
0.06386811 0.05268436 0.054567788 -0.16451727 -0.04273637 0.06310895 0.01787341 -0.054575235
-0.08506285 0.12715836 0.023713294 -0.11310861 0.09736393 0.037721552 0.099721126 0.0727832
0.074452706 -0.039846413 0.020847877 -0.07130349 0.042850766 0.016169168 -0.06820404 0.051491868
-0.14731978 0.002003387 0.031612996 0.009072875 0.042299602 -0.01304994 -0.049645487 -0.06672893
-0.07444067 0.009314283 0.011781549 0.014651216 0.08032615 0.008646862 0.041627243 -0.096639656
-0.2693875 -0.04661204 -0.05777143 -0.004742652 -0.04918858 -0.040068697 0.036103413 0.020687092
0.028428273 -0.0956993 0.088281654 0.18608351 0.017423173 0.08169259 -0.034239225 0.064066656
0.18194835 -0.111963175 0.07629999 0.01780075 -0.082965374 0.10065172 -0.04122126 -0.12523888
-0.02049875 0.05328052 0.032041617 -0.17547494 -0.006814551 -0.07882726 0.013838587 0.009551706
0.102262124 0.0017590323 -0.045641247 0.004816206 0.088368766 -0.036073323 0.07605121 -0.16309889
0.015939247 0.004837666 0.11490967 0.0553666 -0.008364941 0.020468915 0.040323567 -0.06621187
-0.09495886 -0.03606724 -0.095473096 0.016125651 -0.04223747 -0.0021819856 -0.0043390268 -0.08064269
0.03747759 0.03177224 0.006267761 0.011374873 0.018386696 0.012933257 -0.047660865 0.02015099
-0.047696818 -0.013802417 -0.056408323 -0.017305782 0.04059253 0.037144113 0.071577996 -0.061737083
0.012930739 0.006264199 0.01905315 0.07479987 0.024976725 -0.026868904 -0.015363323 -0.059487566
0.007849022 -0.015112316 0.0035989026 -0.034595434 -0.12639177 0.0152045665 0.025311528 -0.043404154
-0.060009696 -0.017655369 -0.005322052 -0.03586272 -0.021014875 0.022158481 -0.046809405 -0.009907926
0.027698705 -0.03934528 0.020906894 -0.0063871928 -0.117467746 0.005242454 -0.025011763 -0.0118208565
-0.02440647 -0.004773743 -0.004071282 -0.00252267 0.0065804543 0.07663094 0.017041883 -0.019862091
-0.017474301 0.016521405 0.031572375 -0.014730003 0.14022672 0.05232013 -0.010565758 0.035283364

dense_output.0.bias f4 [100]
00000000: 3fc6 52be ab49 3abe ca09 02be b496 98be
00000010: b808 99bd 1c10 42bd e1be 09be 6964 87be
00000020: 8a46 bbbe 1348 85be fc59 8ebe d315 3bbd
00000030: 0cc1 e2bd d9f4 74be c565 6bbe bf40 27be
00000040: 00a3 57be 24e8 ffbd d9de 33be 0790 b0be
00000050: cd99 4ebe 4577 49be 1926 7fbd a547 77be
00000060: f256 1dbe 5668 d0bd 07a0 bebe 3f90 84be
00000070: eaee ffbd 47c6 4abe f8d7 3abe 04fc 85be
00000080: 4fc3 9dbd 8023 d6bd 084f 1fbe 7a3d eb3d
00000090: 0ddb 3dbe 93db dfbd b15f acbd 76bb 14be
000000a0: b6c2 6ebe 2353 18be 6e42 9cbe d0eb 04be
000000b0: 4a83 45be 65d0 44be 88a4 38be c2e7 2dbe
000000c0: a0eb 53be dbba 29be c839 a0be 50db 4cbe
000000d0: e407 58be 2f0c 2ebe dfe4 82be 18ba 85be
000000e0: c337 5ebe 03e4 5ebe cefe ac3e 476e 1dbe
000000f0: cfe6 f4bd dca0 aabd 83df b3bd b462 11be
00000100: 020e 3bbe bb65 73bd f02f 1abe 9da2 89be
00000110: 8cdb 12be 1513 afbd e88c 0abe 7f25 92bd
00000120: ee1a bdbe 2710 95bd 4499 bebd 32fe 45be
00000130: f3ab eebd e35f 74bd 171f 5abe bcb8 15be
00000140: 9978 1fbe 3645 fabd 4bad 983d 2523 52be
00000150: 82ff 10be ce37 2bbe bfd5 22be c5cf 16be
00000160: fe22 91be 60b9 3cbe c27e f4bd 4866 a8be
00000170: 6f01 27bd 54fe 90bd 28db 9abe 19e2 79be
00000180: c5ab 36be 69bf e2bd 39ae 50be ed44 6dbe
-0.20583437 -0.18192165 -0.12699047 -0.29802477 -0.07472366 -0.047378644 -0.13451721 -0.26443794
-0.36577255 -0.2603155 -0.27803028 -0.04567511 -0.11071977 -0.23921527 -0.22988041 -0.16333292
-0.21058273 -0.12495449 -0.17565478 -0.34484884 -0.20175858 -0.19674404 -0.062292192 -0.24148424
-0.15365198 -0.101761505 -0.37231466 -0.258913 -0.12496741 -0.198022 -0.18246448 -0.26168835
-0.07703268 -0.1045599 -0.15557492 0.11486335 -0.18540592 -0.10930552 -0.08416689 -0.14524636
-0.23316464 -0.14875464 -0.30519432 -0.1298058 -0.19288364 -0.19220121 -0.18031514 -0.1698294
-0.20695353 -0.16575186 -0.31294084 -0.20005536 -0.2109676 -0.16996835 -0.2556524 -0.2611854
-0.21700959 -0.21766667 0.3378815 -0.15374099 -0.11958086 -0.08331463 -0.08782866 -0.14197809
-0.18267062 -0.05942319 -0.15057349 -0.26881877 -0.14341563 -0.085485615 -0.13530314 -0.07136058
-0.36934608 -0.072784714 -0.09306577 -0.19335249 -0.116538905 -0.059661757 -0.21300922 -0.14621252
-0.15573348 -0.12220232 0.07454928 -0.20521219 -0.14159968 -0.16720507 -0.1590185 -0.14727695
-0.2834701 -0.1843009 -0.1193824 -0.32890534 -0.04077285 -0.07079759 -0.30245328 -0.24402656
-0.17838962 -0.11071665 -0.2037896 -0.23170824

dense_output.3.weight f4 [1, 100]
00000000: 3066 723b b495 ddbc 30a0 e6bb 5da1 46bd
00000010: e92c 01bc 1f86 c03b e183 923b ce1b 913c
00000020: 3680 073e 1a59 923c c6b1 4abc 62e3 97bd
00000030: b8c7 85bb 9cd7 933b ec17 c13c 1b5f d5bb
00000040: 3869 cfbb 5cba 1abc 6360 443c a191 ba3d
00000050: 059d b43b 2948 87bc 8259 993d ec34 3b3c
00000060: 61fa f2ba 4723 22bc 7ef0 58bc c356 ebbb
00000070: 6652 953c d673 163c 99bd 8dbb be9f b2bc
00000080: c103 3d3c 0330 5bbb 45d1 4dbc 9a23 403d
00000090: 88ce 7c3b 3576 70bb a219 67bc a846 7d3d
000000a0: 9b1b 983c 0c2f f13b 56f2 aa3d a11f 7abc
000000b0: 64fe d33b c28a 7f3c 9c19 38bc bb67 c13c
000000c0: a72e 4abc c7eb 9b3c 80f4 8abd 1627 c9bb
000000d0: 2a5e a33c 06ad b13c a0ff 6b3c 2d76 f839
000000e0: 732b c83c 41ca a8bb df1c ae3d a036 59bb
000000f0: e39d 0c3a e55d 7239 161e aebc dc8f ab3a
00000100: 0a90 aa3b 4c14 4dbb 0b7e c6bb 4339 07bd
00000110: 6471 f63b a2c4 24bc 7b12 1cbb 14b7 e33b
00000120: 1a92 7bbd ccc0 0d3c 3dc7 923d c638 1fbb
00000130: 4c03 d7bb 31ce 20bb 5634 4abc edfb 9d3a
00000140: 466e 083b c9e9 ae3c 319a 6b3d bb00 b1bc
00000150: 5eb5 6a3b 3a71 a03c a07e 87bc 7b73 1f3a
00000160: 3f94 1c3d 98f2 213c 108e 90bc 8faf 3a3a
00000170: 886d 083c f1a6 5c3c d7fe cfbb 91bb 2c3c
00000180: 60e4 673c d6c1 8d3b d1c1 b53b 560d 0a3c
0.0036987178 -0.027048923 -0.007038139 -0.04849373 -0.007884243 0.0058753635 0.0044712876 0.017713454
0.13232502 0.017864753 -0.012371486 -0.07416417 -0.004082646 0.0045117866 0.023570977 -0.0065115816
-0.0063296817 -0.009443846 0.011985871 0.09109808 0.0055118822 -0.0165139 0.074877754 0.011426192
-0.0018537753 -0.009896106 -0.013240932 -0.0071819737 0.018227767 0.009182891 -0.0043255803 -0.021804687
0.0115365395 -0.0033445365 -0.012562101 0.046908952 0.003857525 -0.003669155 -0.014105232 0.06183496
0.01856785 0.0073603448 0.08347003 -0.01526633 0.0064695347 0.015597047 -0.0112365745 0.023609033
-0.012340224 0.019033326 -0.06784916 -0.0061386926 0.019942362 0.02168895 0.0144042075 0.00047390294
0.02443478 -0.0051510637 0.085016005 -0.0033144131 0.0005364103 0.00023113897 -0.02125458 0.0013089138
0.005205159 -0.0031292615 -0.006057506 -0.033013593 0.0075208414 -0.010056647 -0.0023814726 0.006949315
-0.06141863 0.008651923 0.07166908 -0.0024295314 -0.0065616723 -0.0024536962 -0.012341579 0.0012053229
0.0020817681 0.021351712 0.057520095 -0.021606794 0.003581367 0.01958524 -0.016539872 0.00060825766
0.038227316 0.009884499 -0.017645866 0.0007121497 0.008326896 0.013467536 -0.006347518 0.010542766
0.01415357 0.0043260856 0.0055467864 0.008426031

exp_avg f4 [4, 1, 3, 3, 3]
00000000: 6822 f7ba 85b0 2aba a9b1 2dba c156 46ba
00000010: 2fb4 2139 e51e 00ba e012 b0b9 242f 6939
00000020: 505c d7b9 2c86 f1ba 3760 02ba 117f 6cba
00000030: a1bb 21ba 94b9 8539 0967 46ba 6bfb 46b9
00000040: 6237 9739 bab8 26ba 6838 e3ba 9cd0 e4b9
00000050: c55c 9fba d6ab 06ba 2950 4a39 6fa9 85ba
00000060: 407e 12b9 8571 0139 f286 60ba 0a9e 9aba
00000070: 79f4 3dbb 85c6 93bb 9d0c 05bb 4953 61bb
00000080: 617a 80bb f589 12bb 3741 30bb 0828 31bb
00000090: 0768 dcba 8d7d 70bb 3774 a2bb a9f2 1abb
000000a0: 48cb 7bbb 5a70 89bb 160d 23bb f624 40bb
000000b0: a574 36bb 9a1d fdba c600 88bb 4cce 9ebb
000000c0: 0fca 2dbb 45b7 85bb 675a 86bb f364 37bb
000000d0: 50f8 44bb c8b1 36bb 2376 c3bb 2d6e a9bb
000000e0: c9c5 abbb a01b 52bb b2db 40bb 9338 1ebb
000000f0: 74ac 36bb df9e 50bb bfd7 eaba d94a c9bb
00000100: d769 a9bb 4063 b5bb 72ec 5fbb 00f7 4cbb
00000110: e3f7 2bbb 1c6a 38bb bcf2 5fbb 60f4 ffba
00000120: b31a cfbb 0599 a7bb 282a bfbb 42d6 72bb
00000130: f58d 52bb 74d1 3dbb bed1 41bb 4c78 68bb
00000140: 9d76 12bb bcfa 18bc 50dc fbbb bf3d 6fbb
00000150: b377 2ebc 61a9 f1bb 3e7f 76bb f531 1fbc
00000160: d934 ccbb becf 81bb 696a 19bc 7b2c f2bb
00000170: 28be 75bb 7e94 2ebc 64ca e4bb 6129 6ebb
00000180: 7ed7 23bc f18d c4bb 746d 7cbb 4a91 17bc
00000190: f200 e5bb 0105 79bb a562 2abc 03a2 d1bb
000001a0: 5a38 5ebb 98a2 22bc 1200 b9bb 5823 76bb
-0.0018854858 -0.0006511289 -0.00066258997 -0.0007566028 0.0001542128 -0.0004887416 -0.000335834 0.00022238173
-0.00041076774 -0.0018426827 -0.00049734436 -0.000902162 -0.00061696215 0.00025506003 -0.0007568454 -0.00018976412
0.00028842228 -0.0006359924 -0.0017335536 -0.00043642975 -0.0012158385 -0.00051373 0.00019294083 -0.001019759
-0.00013970677 0.00012344688 -0.00085650303 -0.0011796367 -0.0028984828 -0.0045097494 -0.0020301708 -0.0034381917
-0.0039208387 -0.002236006 -0.002689434 -0.0027031917 -0.001681567 -0.0036695928 -0.0049577015 -0.0023643172
-0.0038420726 -0.0041943016 -0.0024879626 -0.0029318905 -0.0027840522 -0.001931119 -0.004150483 -0.00484637
-0.0026518141 -0.0040806853 -0.0041001323 -0.0027983754 -0.0030055232 -0.0027876962 -0.0059650107 -0.0051706047
-0.0052420837 -0.0032059923 -0.0029427824 -0.0024142608 -0.0027873786 -0.0031832976 -0.001791708 -0.0061429557
-0.005170088 -0.005535513 -0.0034168032 -0.0031275153 -0.0026240281 -0.0028139418 -0.003417178 -0.0019527785
-0.0063203215 -0.005114677 -0.005833883 -0.0037053977 -0.003212807 -0.0028963955 -0.002957448 -0.0035472093
-0.002234853 -0.0093371235 -0.0076861754 -0.003650531 -0.010648656 -0.007374928 -0.0037612463 -0.0097165005
-0.006231886 -0.0039615324 -0.009363749 -0.0073905564 -0.0037497375 -0.0106555205 -0.0069821347 -0.0036340582
-0.010000108 -0.005998366 -0.0038517388 -0.009250948 -0.006988638 -0.0037997367 -0.010399495 -0.006397487
-0.00339081 -0.009926461 -0.0056457603 -0.0037557688

exp_avg_sq f4 [4, 1, 3, 3, 3]
00000000: dc9b 4838 957b 3338 cd4b 4e38 1eed e037
00000010: 5ca5 d637 1d65 1638 887c 8438 a730 8138
00000020: 2e6b 9938 5108 4838 5778 3538 0f6f 5738
00000030: 4625 d137 9d1b d137 415f 1a38 2fb4 8138
00000040: 1700 8038 9603 9d38 6410 4738 5876 3938
00000050: 0575 6138 787a cc37 c944 d537 e161 2338
00000060: 4e9c 7c38 b63d 7f38 fe0f a038 867c 4838
00000070: 45c4 af38 d0a5 d738 56fd 4f38 49fe 9538
00000080: f0d7 9e38 ed7c 3b38 ddcf 6038 95bc 6b38
00000090: 9e83 4d38 924e bb38 ec11 db38 0c4e 5238
000000a0: 33f6 9a38 24b4 9f38 f970 3c38 b63d 6338
000000b0: 0b8b 6b38 6d88 5838 39bc c238 6f75 db38
000000c0: 3bae 5638 c20b 9e38 b2b8 a138 7101 3e38
000000d0: 0b7d 6438 760b 6e38 6cb8 0839 3142 0939
000000e0: fedb 0039 3f90 0e39 ac2c 0939 57cb f838
000000f0: 937f 1839 ddcf 1339 b95b 0439 a423 1439
00000100: 9b0a 0e39 532b 0439 be4a 1739 86f3 0a39
00000110: 13f5 fa38 cc8e 2039 3920 1539 8d4b 0539
00000120: 4d38 1d39 a9d3 1039 e645 0639 a4e1 1c39
00000130: cb89 0b39 e994 fc38 c4a7 2439 2ca9 1439
00000140: 25d8 0539 9785 cb38 70c7 a038 0a82 7f38
00000150: 54d0 f238 ad2e ac38 63d5 5138 d944 db38
00000160: 4efd ad38 17b1 6d38 bfe5 cf38 6816 9f38
00000170: 93b0 8238 3db5 fb38 98c3 a838 4a80 4f38
00000180: 830f e538 b42f af38 7f64 6b38 0576 ce38
00000190: 59c8 9b38 7916 8338 93d6 f938 d03e a138
000001a0: 1aa9 4d38 9484 e638 7d70 a938 2fbc 6638
4.782887e-05 4.279202e-05 4.9184822e-05 2.6813297e-05 2.558779e-05 3.5856956e-05 6.317446e-05 6.1602615e-05
7.315572e-05 4.769146e-05 4.3265838e-05 5.1363426e-05 2.4932098e-05 2.49276e-05 3.6805173e-05 6.184761e-05
6.103532e-05 7.487011e-05 4.7460562e-05 4.4217653e-05 5.3753163e-05 2.4375724e-05 2.542361e-05 3.8953385e-05
6.0227052e-05 6.085421e-05 7.632373e-05 4.7799687e-05 8.381208e-05 0.00010282884 4.9588583e-05 7.152238e-05
7.5742486e-05 4.470062e-05 5.359935e-05 5.6203997e-05 4.8998387e-05 8.93149e-05 0.00010446072 5.014059e-05
7.3891504e-05 7.6152646e-05 4.4927907e-05 5.417849e-05 5.615786e-05 5.162547e-05 9.2857e-05 0.000104646075
5.118384e-05 7.536217e-05 7.7114804e-05 4.5300872e-05 5.447589e-05 5.6754296e-05 0.00013038673 0.00013089996
0.00012288985 0.00013595911 0.0001308198 0.000118634365 0.00014543375 0.00014096448 0.0001262267 0.00014127657
0.00013546126 0.0001260464 0.00014428326 0.00013251425 0.000119665776 0.00015311985 0.00014221751 0.00012712013
0.0001499366 0.0001381176 0.00012805275 0.00014961377 0.00013307405 0.00012044033 0.00015702756 0.00014177401
0.00012764389 9.704677e-05 7.666543e-05 6.0917846e-05 0.000115782634 8.210293e-05 5.0028215e-05 0.00010455558
8.2964645e-05 5.667013e-05 9.913323e-05 7.585884e-05 6.2317726e-05 0.00012002371 8.0472964e-05 4.9472124e-05
0.0001092246 8.353536e-05 5.612196e-05 9.844828e-05 7.4282936e-05 6.2507526e-05 0.00011913213 7.688778e-05
4.9033297e-05 0.00010991949 8.0795005e-05 5.5011533e-05

exp_avg f4 [4]
00000000: 91ab 0ebb 7047 55bc 91e3 25bc 11cb 97bc
-0.0021769742 -0.01301752 -0.010125057 -0.018529447

exp_avg_sq f4 [4]
00000000: b2a3 213b f8f8 dc39 cc5b 703a 0f6e 2d3a
0.002466422 0.00042147166 0.0009168952 0.0006615826
