models/mvsec/indoor_flying1/indoor_flying1_multipixel_even_model.pth (torch, 872366 bytes, 30 tensors)

conv3d.0.weight f4 [4, 1, 3, 3, 3]
0	0xbc0e7015	-0.008693715
1	0xbd4534ce	-0.04814606
2	0xbdcfeb01	-0.10152245
3	0xbcbe359e	-0.023218926
4	0xbcf495de	-0.029856618
5	0xbe9a731d	-0.3016595
6	0x3caafe15	0.020873109
7	0x3e3b4a8a	0.18290153
8	0xbe43fac7	-0.19138633
9	0x3e50dee0	0.2039752
10	0x3db5703d	0.088592984
11	0x3e6961e6	0.22791252
12	0xbdec0491	-0.115243085
13	0xbe82330d	-0.25429574
14	0xbe0f6784	-0.14004332
15	0xbd06a4e2	-0.03287209
16	0x3c40546f	0.011738881
17	0xbca9cb61	-0.020726861
18	0x3e7bebd7	0.24601685
19	0x3dda51a1	0.10660101
20	0x3ee7a50a	0.45243102
21	0x3d44cf1c	0.048049077
22	0xbe08f36e	-0.13374111
23	0x3e92514f	0.2857766
24	0xbdf830a6	-0.12118654
25	0xbe085160	-0.13312292
26	0x3e3c72fd	0.1840324
27	0xbe950e2f	-0.29112384
28	0xbe747d65	-0.23875959
29	0xbe88b8a9	-0.26703385
30	0xbe5ed82a	-0.21762148
31	0xbe3e1ef5	-0.18566497
32	0xbe88aa66	-0.26692504
33	0xbe395fa5	-0.18102892
34	0xbe535b72	-0.20640352
35	0xbea30b1f	-0.31844422
36	0x3d9d5e1b	0.07683965
37	0x3d68316b	0.056687754
38	0x3cba45f8	0.022738442
39	0x3dac4aa9	0.08412678
40	0x3d444964	0.047921553
41	0x3db667db	0.089065276
42	0x3df195a0	0.11796117
43	0x3ddf1d03	0.108942054
44	0x3dd718e0	0.105027914
45	0x3ebf860d	0.3740696
46	0x3e326c04	0.17424017
47	0x3e9fe65e	0.31230444
48	0x3e715850	0.23568845
49	0x3e05f7bc	0.13082784
50	0x3e07ad7c	0.13249773
51	0x3e7156d8	0.23568285
52	0x3df5b843	0.11998036
53	0x3eb6ee92	0.3572889
54	0xbd8599ab	-0.065234505
55	0xbdced7ab	-0.10099729
56	0x3dca4524	0.09876469
57	0xbe65417c	-0.22388262
58	0x3cc6ccee	0.02426764
59	0x3e446133	0.19177704
60	0x3e86e631	0.26347497
61	0x3d6fb94c	0.058526322
62	0xbe3b29d2	-0.18277672
63	0xbe5d8e96	-0.21636423
64	0x3d91a5f0	0.07111728
65	0x3e2ba6e6	0.16762885
66	0xbec51ec4	-0.38500035
67	0x3e4d6ccb	0.20061032
68	0x3ecfbcfe	0.40573877
69	0x3dd18d82	0.102320686
70	0x3df9ff33	0.122068785
71	0xbdcdbaad	-0.10045371
72	0xbe82b8e3	-0.25531682
73	0x3e069c3e	0.13145539
74	0x3e01f9c5	0.12692936
75	0xbf082677	-0.5318369
76	0x3dfb28b8	0.12263626
77	0x3e3f72bb	0.1869611
78	0xbd1477f8	-0.036247224
79	0xbd9a660a	-0.07538994
80	0xbddb08fd	-0.10695074
81	0xbd69a272	-0.057039686
82	0xbd1e6c5d	-0.038677562
83	0xbda131cd	-0.07870827
84	0xbdad4d53	-0.08462014
85	0xbcae7575	-0.021296242
86	0x3d4ecde9	0.05048934
87	0x3d337f40	0.043822527
88	0xbd00d712	-0.031455107
89	0xbd421ebb	-0.047392588
90	0x3ceac9ca	0.028660674
91	0xbda2cb8b	-0.07948979
92	0xbc1ad2ba	-0.009449655
93	0x3c30e74b	0.010797332
94	0xbd5b3ee9	-0.053526793
95	0x3d8d5f48	0.06902939
96	0xbd4afb58	-0.049556106
97	0xbd3d162e	-0.04616373
98	0xbd583e03	-0.052793514
99	0x3cffb16c	0.031212531
100	0xbc9a96c4	-0.018870719
101	0xbdad0f54	-0.08450189
102	0x3a8a5578	0.0010554036
103	0x3c019ebe	0.007911382
104	0xbd2f2b25	-0.042765755
105	0x3d92baba	0.071645215
106	0xbd1bb7bf	-0.03801703
107	0xbd90fc09	-0.07079322

conv3d.0.bias f4 [4]
0	0xbe287450	-0.1645062
1	0xbb4df596	-0.0031426898
2	0xbda18d04	-0.07888225
3	0xbda6eb9c	-0.08150408

gru.weight_ih_l0 f4 [300, 100]
0	0xbe26dc4b	-0.16294973
1	0x3e92e6fb	0.2869185
2	0x3e810a04	0.25202954
3	0x3dccc1d4	0.09997907
4	0x3e14e726	0.14541301
5	0xbd65be8d	-0.056089927
6	0x3e426a80	0.18985939
7	0x3de6ad56	0.1126353
8	0xbcd5c9f1	-0.02609727
9	0xbd02a30f	-0.031893786
10	0xbe82b0df	-0.25525567
11	0x3d7e4a9a	0.062082864
12	0xbb037b1f	-0.00200624
13	0x3c4d72be	0.012539564
14	0x3e582cde	0.21110865
15	0x3cac9b53	0.021070158
16	0x3da1527b	0.0787706
17	0x3d5efce5	0.054440398
18	0x3e704cdc	0.2346682
19	0x3e97ba7d	0.29634467
20	0x3d296ba5	0.041362423
21	0xbbd87a0a	-0.006606345
22	0xbd67e234	-0.05661221
23	0x3ea4b984	0.32172787
24	0x3ec5b570	0.38614988
25	0x3dc28eea	0.09499915
26	0x3ddcbdf3	0.107784174
27	0x3cfedd13	0.031111276
28	0x3e4efd23	0.20213751
29	0x3eaa58ae	0.33270782
30	0x3e4cf975	0.20017035
31	0x3dfa3684	0.12217429
32	0x3dd8e253	0.10590043
33	0x3e07c9bc	0.1326055
34	0x3e91b9ce	0.2846207
35	0x3e36cc51	0.17851378
36	0x3e46a389	0.19398321
37	0x3cd7c764	0.026340194
38	0x3e210994	0.1572631
39	0x3e8399c3	0.25703248
40	0x3e86bd42	0.26316267
41	0x3e6ca0da	0.23108235
42	0x3d8fcc52	0.07021393
43	0x3dce57ec	0.100753635
44	0x3ea184c2	0.315466
45	0x3eca6aae	0.39534515
46	0x3e9ae4b7	0.3025262
47	0x3e39e7f9	0.18154897
48	0x3d4a045b	0.04932056
49	0x3e33ebc2	0.17570403
50	0xbe3ecbef	-0.18632482
51	0x3ccc2519	0.024920033
52	0xbe11a36b	-0.14222495
53	0xbe8b6c5f	-0.27231118
54	0xbea74428	-0.32669187
55	0xbdd1bb96	-0.10240857
56	0x3d21d527	0.03950992
57	0x3e59d2c6	0.2127181
58	0x3c9fa49d	0.019487673
59	0xbea310f3	-0.3184887
60	0x3dba7ad6	0.0910546
61	0x3d1c1af9	0.03811166
62	0x3e0029f8	0.1251601
63	0xbead1eba	-0.33812505
64	0xbea91c3c	-0.33029354
65	0x3e64b2a6	0.22333774
66	0x3da87f60	0.0822742
67	0x3a1b2542	0.00059183326
68	0xbe67b3fd	-0.22627254
69	0xbe96eb19	-0.2947624
70	0x3e8aef96	0.27135915
71	0x3b842d17	0.0040336954
72	0xbeba1c5a	-0.36349756
73	0xbe53810f	-0.206547
74	0xbddb2b08	-0.10701567
75	0xbc3b4e7c	-0.011432286
76	0x3bccac7b	0.006246147
77	0x3cb69cdf	0.022291599
78	0xbd08c430	-0.033390224
79	0xbd2fce6c	-0.04292147
80	0xbd12d45f	-0.035847064
81	0xbd0e2c7f	-0.034710404
82	0x3d1f65d8	0.038915485
83	0x3b2f1a32	0.0026718494
84	0xbd204d64	-0.039136305
85	0xbcfb5e5c	-0.030684642
86	0xbbca5a07	-0.006175283
87	0xbce4e57f	-0.027941464
88	0x3902da00	0.00012478977
89	0x3d1fddec	0.03903
90	0xbc4825db	-0.012216057
91	0x3cd65437	0.026163204
92	0x3c2e8eca	0.010654161
93	0x3d15d6c6	0.036581777
94	0x3c303032	0.010753678
95	0xbcbeb61c	-0.023280196
96	0xbc95eecd	-0.018302346
97	0xbd2d8f35	-0.0423729
98	0xbbb143fc	-0.0054097157
99	0xb98ebef9	-0.00027226636
100	0x3ede28c2	0.4339047
101	0xbce62dd2	-0.02809802
102	0xbd8aec04	-0.06783298
103	0x3c6514fc	0.013982054
104	0x3e2e3991	0.17014147
105	0x3f2d63ca	0.6773039
106	0x3ea2f50e	0.31827587
107	0x3e4d86fc	0.20071024
108	0x3ed0729c	0.4071244
109	0x3ea5ce72	0.32384068
110	0x3dc23eb8	0.09484619
111	0x3db9dcb0	0.09075296
112	0x3d3f85dc	0.046758518
113	0x3ea43966	0.32075042
114	0x3e9e9d2c	0.30979288
115	0xbdd5a41a	-0.104316905
116	0xbe2b7aa6	-0.16746005
117	0xbdf6fc7f	-0.120598786
118	0x3dac8b41	0.08424998
119	0x3db279cb	0.087146364
120	0x3e9def30	0.30846548
121	0x3d0381b1	0.032106105
122	0x3dc7df65	0.09759406
123	0x3d73fc16	0.05956658
124	0x3e2cb2a9	0.16865028
125	0x3d8e0436	0.06934397
126	0xbdc968c1	-0.09834433
127	0xbb8ea276	-0.004352863
128	0x3a192000	0.0005841255
129	0x3e24a6a7	0.16079198
130	0xbce590a1	-0.028023066
131	0xbdc45277	-0.095860414
132	0xbd7117be	-0.058860533
133	0xbcfdd863	-0.03098697
134	0x3d7bfafc	0.061518654
135	0x3cb4c60c	0.022067092
136	0x3b0b2987	0.002123447
137	0x3c886dc1	0.016653897
138	0xbc88a488	-0.016680017
139	0x3c7c848c	0.015412461
140	0xbd94f875	-0.07273952
141	0xbd9fb9d9	-0.077991195
142	0xbceecd6e	-0.02915069
143	0xbd1aa73f	-0.037757155
144	0x3d5408b1	0.0517661
145	0x3d8059f9	0.06267161
146	0xbd864c2f	-0.065574996
147	0xbdb85aaf	-0.090016715
148	0xbddd1fd5	-0.10797087
149	0x3e02be74	0.12767965
150	0xbe9b4614	-0.30326903
151	0xbea54304	-0.3227769
152	0xbe92cdc1	-0.28672603
153	0xbeab43ee	-0.33450264
154	0x3e23ef3e	0.16009232
155	0xbe2859d3	-0.16440515
156	0xbe903a16	-0.28169316
157	0xbe234054	-0.15942508
158	0xbd125529	-0.035725746
159	0x3e24b5be	0.16084954
160	0xbdaff043	-0.08590748
161	0xbea77a6f	-0.32710597
162	0xbea9d640	-0.33171272
163	0x3d8009ee	0.06251894
164	0x3e8360d7	0.2565982
165	0xbd015e86	-0.031584285
166	0xbed68b7d	-0.41903296
167	0xbead512c	-0.33850992
168	0x3d3230da	0.04350362
169	0x3e70f7b5	0.23531993
170	0xbea6ed9a	-0.3260315
171	0xbeab3cd5	-0.3344485
172	0xbd33d621	-0.04390538
173	0x3e3fcfeb	0.18731658
174	0x3c926432	0.017870042
175	0xbd14f04c	-0.036361977
176	0x39c23e42	0.0003704895
177	0xbd290409	-0.041263614
178	0x3cec9ed5	0.02888433
179	0x3d0ccf89	0.03437761
180	0xbc11381f	-0.008863478
181	0xbd30618e	-0.043061785
182	0xbd00f5cb	-0.031484406
183	0x3ca9ad9b	0.020712664
184	0x3a4c62b1	0.00077966886
185	0xbbf40e4c	-0.0074479934
186	0xbca772e8	-0.020440534
187	0xbd047c48	-0.032345086
188	0x3d182b6a	0.037150778
189	0x3ab060ca	0.001345658
190	0x3b960aa5	0.0045789056
191	0xbcb3c586	-0.021944772
192	0xbd1356f0	-0.035971582
193	0x3c819028	0.01581581
194	0x3c8dc9f4	0.017308213
195	0x3cfc7ad4	0.030820288
196	0xbcff7926	-0.031185698
197	0xbd202797	-0.039100256
198	0x3d0b12fc	0.03395365
199	0xbcccc90e	-0.024998214
200	0x3dc8028f	0.09766113
201	0x3dc87cac	0.09789404
202	0xbdf0ecc0	-0.117639065
203	0xbe80166b	-0.25017104
204	0xbf117061	-0.568121
205	0x3ebe1615	0.37126222
206	0x3efcc39c	0.49367988
207	0xbd9b069d	-0.07569621
208	0xbd1bb0f7	-0.038010564
209	0x3c970091	0.018432887
210	0xbdd33e8f	-0.103146665
211	0x3e9d6dc8	0.3074782
212	0xbe1b9047	-0.15191756
213	0x3d98e6fc	0.07465932
214	0x3ae54e66	0.0017494678
215	0xbe591ecb	-0.21203153
216	0xbbd82055	-0.006595651
217	0xbe879d5e	-0.2648725
218	0xbe21dda0	-0.158072
219	0xbd70208a	-0.05862478
220	0xbe3e0ea9	-0.1856028
221	0xbd0e9a47	-0.0348151
222	0xbe3ae44a	-0.18251148
223	0xbe8f84a6	-0.2803089
224	0xbd705d17	-0.058682527
225	0x3e19227d	0.14954562
226	0x3d3f39a8	0.046685845
227	0xbe2a0f86	-0.16607484
228	0xbea1cdb7	-0.3160226
229	0xbe87edbe	-0.2654857
230	0x3df53c94	0.11974445
231	0xbc4e8855	-0.012605746
232	0xbe421e2d	-0.18956824
233	0xbe5be275	-0.21473105
234	0xbdc34260	-0.095341444
235	0xbe781be9	-0.24229397
236	0xbde7eb2d	-0.11324153
237	0xbe55ece0	-0.20891142
238	0xbd6f8baa	-0.058482803
239	0xbc55b707	-0.013044125
240	0xbec638b6	-0.38715142
241	0xbe0eb515	-0.13936265
242	0xbd86e73b	-0.065870725
243	0x3d32f7ef	0.04369348
244	0x3e15d7b0	0.1463306
245	0xbf09be1d	-0.53805715
246	0xbe9430bb	-0.28943428
247	0xbdb1aea1	-0.08675886
248	0x3d8bb11b	0.068208896
249	0x3e8b8598	0.2725036
250	0x3ef649b0	0.48103094
251	0x3e31a194	0.17346793
252	0xbdd36aaa	-0.10323079
253	0xbdca7c9c	-0.098870486
254	0x3e5608cc	0.20901793
255	0x3d653a52	0.05596382

gru.weight_hh_l0 f4 [300, 100]
0	0x3e5ae83a	0.2137765
1	0xbe265664	-0.16243893
2	0xbd83563e	-0.06412934
3	0x3d29b2aa	0.041430153
4	0x3e5a80d5	0.21338208
5	0x3e7467f1	0.23867775
6	0xbe9c59ba	-0.30537206
7	0x3d256e37	0.040388312
8	0x3d26f88b	0.040764373
9	0x3ef35841	0.4752827
10	0xbd5aa246	-0.053377412
11	0x3d844a96	0.06459539
12	0xbc86a59b	-0.016436389
13	0x3abf772d	0.0014607661
14	0x3de14193	0.109988354
15	0x3e7a7c86	0.24461564
16	0x3e02dc45	0.12779339
17	0xbe0e15eb	-0.13875549
18	0x3d926a1d	0.07149146
19	0x3d2ed0c3	0.04267956
20	0x3c73d3af	0.014882012
21	0x3eb4f125	0.3534023
22	0xbcac687f	-0.021045921
23	0xbd4b3f52	-0.049620934
24	0xbf17107d	-0.59009534
25	0x3e0dfa61	0.13865043
26	0xbdc76271	-0.09735573
27	0x3d639b59	0.055568073
28	0xbe2168c4	-0.15762621
29	0x3d794e2f	0.060865577
30	0xbd3ed34c	-0.046588227
31	0xbdedf3ba	-0.11618753
32	0x3e3bd951	0.18344618
33	0xbc860013	-0.016357457
34	0xbee69796	-0.45037526
35	0x3d9d96cb	0.07694777
36	0xbde84f2c	-0.11343226
37	0xbe72a626	-0.23696193
38	0xbeef0653	-0.46684512
39	0x3d9f659e	0.07783054
40	0xbe6ad393	-0.22932272
41	0xbe68fbe4	-0.22752339
42	0x3d1efaae	0.038813286
43	0xbe22d917	-0.15903126
44	0x3e68885b	0.22708265
45	0x3c95ee48	0.018302098
46	0xbe953294	-0.2914015
47	0xbcef13b7	-0.029184205
48	0xbd2223ff	-0.03958511
49	0xbe16c947	-0.14725219
50	0x389e4132	7.546171e-05
51	0xbd8901f2	-0.06689824
52	0x3eb5b724	0.35491288
53	0x3e78f348	0.24311554
54	0xbddc518d	-0.10757742
55	0x3d7f7b25	0.0623733
56	0x3d8c7b26	0.06859426
57	0x3e762d29	0.24040665
58	0xbd9aa44a	-0.07550867
59	0xbe2a8442	-0.16652015
60	0x3e3c2bea	0.18376127
61	0x3e9f30ef	0.3109202
62	0x3d8cab00	0.06868553
63	0xbc439203	-0.011936667
64	0x3e965b1d	0.2936639
65	0xbe26a589	-0.16274084
66	0x3e791610	0.24324822
67	0x3eb59ad3	0.35469684
68	0x3dfbf5e2	0.12302758
69	0x3cae79ea	0.021298368
70	0x3dacd71b	0.084394656
71	0xbd406c26	-0.04697814
72	0x3c9aa4f2	0.01887748
73	0xbdeff372	-0.117163554
74	0xbe95119c	-0.29114997
75	0xbb2b47b7	-0.0026135275
76	0xbe4e4c2f	-0.20146249
77	0x3e527ee8	0.20556223
78	0x3eb3f935	0.35151067
79	0x3d9357fa	0.071945146
80	0xbea6e15a	-0.32593805
81	0xbe1d4b21	-0.1536069
82	0x3e89a2e7	0.26882097
83	0xbea02b97	-0.31283256
84	0x3e298391	0.16554095
85	0x3e1d18e6	0.15341529
86	0xbe2e5ef3	-0.17028408
87	0xbf040a24	-0.51577973
88	0xbe8bccc0	-0.2730465
89	0xbceeca3e	-0.029149171
90	0x3e8e42c8	0.27785325
91	0xbe3797b2	-0.17928961
92	0x3e70c540	0.23512745
93	0x3e1e27e7	0.15444909
94	0xbdd43ba3	-0.10362937
95	0x3df2cdbd	0.11855648
96	0xbbda8d16	-0.006669651
97	0x3cd61d85	0.026137123
98	0x3d88cdca	0.06679876
99	0xbf2dd685	-0.67905456
100	0x3e1b9506	0.15193567
101	0xbdb79b7a	-0.08965202
102	0xbe8fd79c	-0.28094184
103	0xbcae8f2c	-0.021308504
104	0xbd3b4e72	-0.04572911
105	0xbcf14146	-0.02945007
106	0xbc9691b3	-0.018380022
107	0xbd346a82	-0.044046886
108	0xbe9a7044	-0.30163777
109	0xbdd38783	-0.10328581
110	0xbe0a8d3b	-0.13530438
111	0x3ef5ad93	0.4798399
112	0xbdb07e89	-0.08617885
113	0xbe6290c4	-0.22125536
114	0xbda5bef2	-0.080930606
115	0xbd44a7ce	-0.048011594
116	0x3e7c9c8e	0.24669096
117	0xbc4600d7	-0.012085161
118	0x3dcdfe12	0.10058226
119	0x3e3a2b6f	0.18180631
120	0xbd223233	-0.039598655
121	0x3ebc4ade	0.3677587
122	0xbe764141	-0.2404833
123	0x3e07e7bd	0.13271995
124	0xbe2be2a5	-0.16785677
125	0xbdaf1e17	-0.08550661
126	0x3e1db56c	0.15401238
127	0x3ea0e808	0.31427026
128	0x3e1a2c9f	0.15056084
129	0x3e109049	0.1411754
130	0xbe47a7d6	-0.19497618
131	0x3cb6f58e	0.022333886
132	0x3e70268b	0.23452203
133	0xbe3a56ae	-0.18197128
134	0xbdeec584	-0.11658767
135	0xbe46b24c	-0.19403952
136	0xbc7c6e97	-0.015407226
137	0x3e5913d2	0.21198967
138	0x3e521141	0.20514394
139	0x3db95213	0.090488575
140	0xbf10bd54	-0.5653889
141	0x3e8bd9b8	0.27314544
142	0x3dde1a89	0.10844905
143	0x3c946d2e	0.018118467
144	0xbf06e1f6	-0.5268854
145	0x3c93eedd	0.018058235
146	0x3e9d09ad	0.30671445
147	0x3e1b4cf7	0.15166079
148	0xbe9e022c	-0.30861032
149	0xbeef6629	-0.4675763
150	0xbdff2975	-0.12459079
151	0xbe29340f	-0.16523765
152	0xbd12b0af	-0.03581303
153	0xbeab38fa	-0.33441907
154	0x3d2bcfd7	0.04194626
155	0xbe8749d4	-0.26423514
156	0x3ccbb35b	0.024865797
157	0x3dbc7bfb	0.09203335
158	0x3c0b095b	0.008486117
159	0x3e3bc1ee	0.18335697
160	0xbcafe126	-0.021469664
161	0xbeb2ec8e	-0.34946102
162	0xbec32e3d	-0.38121215
163	0xbce1973e	-0.027537938
164	0x3cda221c	0.026627593
165	0xbd519118	-0.051163763
166	0xbe39c76e	-0.18142483
167	0x3ed35c34	0.41281283
168	0xbe9e676f	-0.3093829
169	0xbe17649b	-0.14784472
170	0xbd584704	-0.0528021
171	0x3e6d8c3d	0.23198028
172	0x3e35c4a9	0.17750801
173	0xbd3cd66a	-0.04610292
174	0x3db1d363	0.08682897
175	0xbe8631fe	-0.26210016
176	0xbe978675	-0.2959477
177	0x3e2cbb08	0.16868222
178	0xbdf65834	-0.12028542
179	0x3ea3a44b	0.31961283
180	0x3e1489dc	0.14505714
181	0xbcd741e2	-0.026276533
182	0x3e646696	0.22304758
183	0x3e988f3f	0.29796788
184	0xbe1b6007	-0.1517335
185	0x3e874119	0.26416853
186	0xbbc5b0f3	-0.006033057
187	0x3e5f7d0a	0.21825042
188	0xbdfcf8d7	-0.1235215
189	0xbe325d81	-0.17418481
190	0xbe6cc79f	-0.23123024
191	0xbdc2194b	-0.094774805
192	0x3ce02c32	0.027364824
193	0x3d2dfba2	0.042476304
194	0x3e397a41	0.18113042
195	0xbc980592	-0.018557344
196	0x3e8455f9	0.25846842
197	0xbbdc3cd3	-0.006721118
198	0xbbbcd570	-0.0057627484
199	0x3ea6223f	0.32448003
200	0xbf170793	-0.5899593
201	0xbdd1d56f	-0.10245787
202	0x3e120bab	0.14262263
203	0xbdd07722	-0.10178973
204	0xbd842e2d	-0.0645412
205	0xbd941a6c	-0.07231602
206	0x3ec4d794	0.38445723
207	0x3ddf3fe6	0.109008595
208	0x3d92c68d	0.07166777
209	0x3d63ed3b	0.055646162
210	0x3e29dbef	0.16587804
211	0x3bb27cf9	0.005447027
212	0xbe750843	-0.23928933
213	0xbdf24c29	-0.11830933
214	0xbdb356f0	-0.087568164
215	0xbe13c20c	-0.14429492
216	0xbe7b4a11	-0.24539973
217	0x3dee1e2d	0.11626849
218	0xbe0920cd	-0.13391419
219	0xbcdd6100	-0.027023792
220	0x3e27c06e	0.16382
221	0x3f0a2553	0.539632
222	0xbe99c907	-0.30036184
223	0xbd9aa0ac	-0.07550177
224	0xbea95d90	-0.33079195
225	0x3ec96a8e	0.39339107
226	0x3d09f466	0.033680342
227	0x3eb18829	0.34674194
228	0x3e038414	0.12843353
229	0xbe395e03	-0.18102269
230	0x3e69ca14	0.22830993
231	0x3e125118	0.14288747
232	0xbd30539a	-0.04304848
233	0x3f00bda9	0.502894
234	0x3eb8c13d	0.3608493
235	0xbe7f9b32	-0.24961546
236	0x3da0c4c6	0.078500316
237	0xbe7acb12	-0.24491528
238	0xbe072e7f	-0.1320133
239	0x3e7a3b76	0.24436745
240	0xbeaf9285	-0.34291473
241	0x3e269b42	0.16270164
242	0xbd8ec5a3	-0.0697129
243	0xbf220c9d	-0.63300496
244	0x3e0e1532	0.13875273
245	0xbea3147f	-0.31851575
246	0x3ea1455f	0.31498238
247	0xbe240658	-0.16018045
248	0xbb6ee6d7	-0.003645351
249	0x3e704137	0.23462377
250	0xbf1dab4d	-0.6158951
251	0xbec2d857	-0.3805568
252	0x3e4c6287	0.1995946
253	0xbe4fafe5	-0.20281942
254	0xbdbf7ac0	-0.093495846
255	0x3eb2bcf0	0.34909773

gru.bias_ih_l0 f4 [300]
0	0xbd601fc7	-0.054717805
1	0xbd1d5be5	-0.038417716
2	0xbe90c7a8	-0.28277326
3	0xbe1ad3c2	-0.15119842
4	0xbe5b58ae	-0.21420547
5	0x3e6c4eb0	0.23076892
6	0xbe3c6dbf	-0.1840124
7	0x3d5de150	0.054169953
8	0xbdb59f25	-0.08868245
9	0x3d961d2f	0.07329785
10	0xbe8db1f7	-0.2767484
11	0xbe83f4d4	-0.25772727
12	0x3e0442e9	0.12916149
13	0xbe3d2afd	-0.1847343
14	0xbec0b201	-0.37635806
15	0xbe01b9e0	-0.12668562
16	0xbe5a2e3b	-0.21306698
17	0xbe1914c2	-0.14949325
18	0xbdaa3c71	-0.083123095
19	0xbe01ada2	-0.12663892
20	0x3c54112f	0.01294355
21	0xbd7be2de	-0.061495654
22	0xbe34511b	-0.17609064
23	0xbe299289	-0.16559805
24	0x3ed7b815	0.4213263
25	0x3df3a742	0.11897136
26	0x3b5aa6b8	0.0033363532
27	0x3da7f483	0.08200934
28	0xbdadc34b	-0.08484515
29	0xbc21bdbb	-0.009871895
30	0xbcba9ab7	-0.022778852
31	0x3cef15e0	0.029185236
32	0x3d910df3	0.07082739
33	0xbe930b37	-0.28719494
34	0xbe5bd3e1	-0.21467544
35	0x3db24828	0.08705169
36	0x3dffcfd4	0.12490812
37	0xbd397499	-0.04527721
38	0xbe3bbfcd	-0.18334885
39	0xbe977648	-0.2958243
40	0x3e246619	0.16054572
41	0xbe5b86fd	-0.21438213
42	0xbe64a106	-0.2232705
43	0x3d8148f6	0.06312744
44	0xbe423296	-0.1896461
45	0xbe373d63	-0.17894511
46	0xbde124e0	-0.109933615
47	0xbe063fb1	-0.13110234
48	0xbe4b0dea	-0.19829527
49	0xbe711b7f	-0.23545645
50	0xbd9e9e5f	-0.07745051
51	0x3b74ec9a	0.003737247
52	0xbd2b5158	-0.041825622
53	0x3c46eb10	0.012141004
54	0xbdf6f8b6	-0.120591566
55	0xbe466fd2	-0.19378594
56	0xbe0281e4	-0.12744862
57	0xbdd59511	-0.10428823
58	0xbd889165	-0.06668357
59	0xbd61ac00	-0.055095673
60	0xbe7f10fc	-0.24908823
61	0x3ce9de2b	0.02854832
62	0xbd012562	-0.03152979
63	0x3e1fdf51	0.15612532
64	0x3d15ac60	0.036541343
65	0x3beeab74	0.0072836224
66	0xbd388dbb	-0.04505704
67	0xbe7d3948	-0.24728882
68	0x3e19b0a4	0.1500879
69	0x3cbb6d4c	0.022879265
70	0x3db5fd0c	0.088861555
71	0xbe495791	-0.1966231
72	0xbe7bbaa0	-0.2458291
73	0xbe4393bb	-0.19099323
74	0xbd9f12a3	-0.077672265
75	0xbe8ceeb8	-0.27525878
76	0xbe6153d6	-0.22004637
77	0xbea4317b	-0.32069
78	0xbe441a41	-0.1915064
79	0xbde1789b	-0.11009332
80	0x3d345cfd	0.044033993
81	0xbe71ea4e	-0.23624536
82	0x3e119bb8	0.14219558
83	0xbe874767	-0.26421663
84	0xbe08e66c	-0.13369149
85	0xbe83dab8	-0.25752807
86	0xbe099517	-0.1343578
87	0xbb717bb4	-0.0036847414
88	0xbc6dac8e	-0.014506472
89	0xbec1c59f	-0.37846085
90	0x3db70db4	0.089381605
91	0xbe0cbea0	-0.13744593
92	0xbddf90fa	-0.10916324
93	0x3cfd3d62	0.030913059
94	0xbd7b6000	-0.06137085
95	0x3df1612f	0.117861144
96	0x3d48e7e6	0.04904928
97	0xbe5a969c	-0.21346515
98	0xbde29c82	-0.11065008
99	0xbdd3f6a1	-0.10349775
100	0x3f1d68e5	0.6148818
101	0x3e29f941	0.16598989
102	0x3e198819	0.14993323
103	0x3ef9fc72	0.48825413
104	0x3e806bc4	0.2508222
105	0x3eb2c40b	0.34915194
106	0x3e76efb8	0.24114883
107	0x3e85a8ab	0.26105246
108	0x3dd27abe	0.102773175
109	0x3e0c0255	0.13672765
110	0x3e0bf246	0.13666639
111	0x3dd56a5f	0.10420679
112	0x3e872f7f	0.26403424
113	0x3df428a7	0.11921816
114	0x3de69958	0.11259717
115	0x3e9c00d6	0.30469388
116	0x3d2f12eb	0.04274265
117	0x3e91faae	0.28511566
118	0x3e92acf6	0.28647584
119	0x3c7753c3	0.015095654
120	0x3e38cdbc	0.18047231
121	0x3e109015	0.14117463
122	0x3e04c135	0.12964328
123	0x3e7a0b7e	0.24418446
124	0xbcc5dcad	-0.024153078
125	0x3e4036f5	0.18770964
126	0xbc362c07	-0.011118895
127	0x3db42a9c	0.087971896
128	0x3e8db51b	0.27677235
129	0xbe09bbe1	-0.13450576
130	0x3deacc0b	0.11464699
131	0x3ede6adf	0.4344091
132	0x3e96fb69	0.29488686
133	0x3d3cbec8	0.04608038
134	0x3e2276f4	0.1586569
135	0x3e532075	0.2061785
136	0xbdc24ce0	-0.09487319
137	0x3e2991af	0.1655948
138	0xbd7634d2	-0.060108967
139	0x3d95f847	0.07322746
140	0xbd49611a	-0.04916487
141	0x3da63ad4	0.08116689
142	0x3e933c8b	0.28757128
143	0x3eba2c2b	0.36361822
144	0x3c96edd0	0.018423945
145	0x3e25f5cf	0.1620705
146	0x3d583b67	0.052791025
147	0x3d08cab3	0.033396434
148	0x3eaa62de	0.33278555
149	0x3cf7f2f2	0.030267213
150	0x3e5d0c68	0.21586764
151	0xbe8dc858	-0.27691913
152	0x3df6631d	0.12030623
153	0x3c3e0055	0.011596759
154	0x3e2d3ba7	0.16917287
155	0x3e6872ee	0.22700092
156	0x3d98d1c4	0.074618846
157	0x3dffa5b3	0.124827765
158	0x3dd814ff	0.1055088
159	0xbccdc895	-0.025120059
160	0x3e156764	0.14590222
161	0x3e95dacb	0.29268488
162	0x3eb7d0c0	0.3590145
163	0x3ec21307	0.37905142
164	0x3e2ef64f	0.17086147
165	0x3e40394d	0.18771859
166	0x3e09a604	0.13442236
167	0xbd546314	-0.0518523
168	0x3e08915c	0.133367
169	0x3ec7ac0a	0.38998443
170	0x3e5b0400	0.21388245
171	0x3e6f8d10	0.23393655
172	0x3e2aaf4d	0.16668434
173	0x3ec7c579	0.39017847
174	0xbd990f5a	-0.07473631
175	0x3b94627b	0.0045283413
176	0x3da08774	0.07838336
177	0x3e806afb	0.2508162
178	0x3e14bd4e	0.14525339
179	0x3ee76190	0.45191622
180	0x3ec11a02	0.37715155
181	0x3d342e4c	0.043989465
182	0x3d835c74	0.064141184
183	0x3e46da11	0.19419123
184	0x3e8d2bd4	0.275725
185	0x3caae530	0.020861238
186	0x3e48fe54	0.19628268
187	0xbd4bb018	-0.049728483
188	0x3e793e01	0.24340059
189	0x3e7594a0	0.23982477
190	0x3e4fdf89	0.20300116
191	0x3e29567d	0.16536899
192	0x3d2612de	0.040545337
193	0x3b9b0858	0.0047312193
194	0x3e79a97d	0.24381061
195	0x3e6e497d	0.23270221
196	0x3d937141	0.07199336
197	0x3e956ad7	0.29183075
198	0x3e91b388	0.28457284
199	0x3eba40d3	0.36377582
200	0xbe5ebd29	-0.21751846
201	0x3cfbb537	0.030726058
202	0x3a899270	0.0010495912
203	0xbe2aa7c6	-0.16665563
204	0xbdda7b9d	-0.106681086
205	0xbe1754af	-0.14778398
206	0x3e353927	0.17697583
207	0xbe03d71e	-0.1287503
208	0x3c3139bd	0.010816989
209	0xbe2e9b8b	-0.17051522
210	0xbda37202	-0.0798073
211	0x3e09dff2	0.13464335
212	0x3cb3ff02	0.021972183
213	0xbdcf1b6f	-0.101126544
214	0x3e60acbf	0.21940897
215	0xbd3ff728	-0.046866566
216	0x3ce98de3	0.02851004
217	0x3de93687	0.113873534
218	0x3e0ecfbc	0.13946432
219	0x3e7e939c	0.24860996
220	0xbd760bfe	-0.06007003
221	0xbe95736c	-0.29189622
222	0x3e85e124	0.2614833
223	0x3d18e1d2	0.037324734
224	0x3e5a8385	0.21339233
225	0xbeb1159b	-0.34586796
226	0xbd7f8845	-0.062385816
227	0xbdb78f53	-0.08962884
228	0x3d14a79b	0.036292654
229	0x3eaabf55	0.333491
230	0xbcb7fb34	-0.02245865
231	0xbdeccce1	-0.11562515
232	0xbdabef8a	-0.08395298
233	0xbe34b4a0	-0.17647028
234	0x3e5eb28f	0.21747802
235	0x3c24434e	0.010025812
236	0xbebb57b5	-0.36590353
237	0x3e0c1654	0.13680393
238	0xbd1e802b	-0.03869645
239	0xbc8e8608	-0.017397895
240	0x3e9e53c5	0.30923286
241	0x3e18c217	0.1491779
242	0xbdfabb73	-0.12242784
243	0x3e8aec36	0.2713334
244	0x3b8db3ce	0.004324413
245	0xbe7d0ea2	-0.24712613
246	0xbe45c891	-0.19314791
247	0x3e81610b	0.2526935
248	0x3d6fca20	0.05854237
249	0xbc8eba7d	-0.017422909
250	0x3e5bb434	0.21455461
251	0x3cbf38c6	0.023342501
252	0xbdb7ccf5	-0.08974639
253	0x3d722816	0.05912026
254	0x3b6e0a14	0.0036321925
255	0x3d23404a	0.039856233

gru.bias_hh_l0 f4 [300]
0	0xbc0d0622	-0.008607419
1	0xbd997f11	-0.07494939
2	0xbe94cea5	-0.29063907
3	0xbdfff269	-0.12497408
4	0xbe299c21	-0.16563465
5	0x3e4bcb26	0.19901714
6	0xbe56610b	-0.20935456
7	0x3d2443e8	0.040103823
8	0xbd9725e4	-0.07380274
9	0x3de3a06b	0.11114582
10	0xbeb1036f	-0.34572932
11	0xbe58c6d1	-0.21169592
12	0x3e400265	0.18750913
13	0xbe313983	-0.17307095
14	0xbed4f11c	-0.41590202
15	0xbe42e7a0	-0.1903367
16	0xbe71278a	-0.23550239
17	0xbe4765dd	-0.19472452
18	0xbda19421	-0.078895815
19	0xbe15cb06	-0.14628229
20	0xbc0c3c08	-0.008559234
21	0xbd04bf58	-0.032409042
22	0xbe0b9391	-0.13630511
23	0xbe22bb9a	-0.15891877
24	0x3ec4c59e	0.3843202
25	0x3df681f9	0.12036509
26	0xbd455009	-0.04817203
27	0x3cf18344	0.029481538
28	0xbc36039a	-0.011109257
29	0xbd56a537	-0.052403655
30	0x3d395700	0.045248985
31	0x3d3afd72	0.04565186
32	0x3d1285e1	0.035772208
33	0xbe8bd548	-0.27311158
34	0xbe39d3c8	-0.18147194
35	0x3e2b94db	0.16756003
36	0x3d705186	0.058671497
37	0x3be02c74	0.0068412367
38	0xbe6ea71b	-0.23305933
39	0xbe880d5b	-0.2657269
40	0x3e378b4c	0.17924231
41	0xbe381434	-0.17976457
42	0xbe6bb382	-0.23017696
43	0x3dc3fecc	0.09570083
44	0xbe696375	-0.22791846
45	0xbe32ab55	-0.1744817
46	0xbdd98eea	-0.10622962
47	0xbe4071aa	-0.1879336
48	0xbe896247	-0.26832792
49	0xbe8c1e3f	-0.27366826
50	0xbd501d69	-0.050809298
51	0xbd2fed28	-0.04295078
52	0xbcc2a43c	-0.023759954
53	0xbc9966f7	-0.018725855
54	0xbdcb53bb	-0.0992808
55	0xbe34713a	-0.17621318
56	0xbd8bd73b	-0.06828161
57	0xbe2e4b21	-0.17020847
58	0xbdbdd6f7	-0.09269517
59	0xbd4f43f9	-0.050601933
60	0xbe709f2f	-0.23498224
61	0x3d2d3782	0.042289265
62	0xbcee779f	-0.029109774
63	0x3e1eef8c	0.15521067
64	0x3bbd885b	0.005784077
65	0x3b45de8c	0.0030192463
66	0xbd805241	-0.06265689
67	0xbe39951d	-0.18123288
68	0x3db0de91	0.08636201
69	0xbc8eaa61	-0.017415227
70	0x3d9e278f	0.07722389
71	0xbe2864d9	-0.1644472
72	0xbe71042d	-0.23536749
73	0xbe2d527e	-0.16926
74	0xbe024c43	-0.12724404
75	0xbe7207eb	-0.23635833
76	0xbe4f16cc	-0.2022354
77	0xbeb28c8d	-0.34872857
78	0xbe040713	-0.12893324
79	0xbd7f8783	-0.062385093
80	0x3d449c0b	0.048000377
81	0xbe457205	-0.19281776
82	0x3e08a843	0.13345437
83	0xbe8da2c5	-0.27663246
84	0xbe380805	-0.17971809
85	0xbe8ff522	-0.2811671
86	0xbe047183	-0.12933926
87	0xbc5d402a	-0.013504067
88	0xbd383556	-0.04497274
89	0xbeb52f89	-0.3538783
90	0x3d5b6300	0.05356121
91	0xbe1e3cea	-0.15452924
92	0xbda91ca8	-0.08257419
93	0x3d7b74e0	0.061390758
94	0xbd20bd54	-0.039243057
95	0x3e32332f	0.17402337
96	0x3c1829bc	0.009287294
97	0xbe400594	-0.18752128
98	0xbdf11aa2	-0.11772658
99	0xbdc7d777	-0.097578935
100	0x3f192937	0.59828514
101	0x3e1a861b	0.1509022
102	0x3dcc18ee	0.099656925
103	0x3efc930c	0.49330938
104	0x3e7f8b82	0.24955562
105	0x3eb21db3	0.34788284
106	0x3e3fe157	0.18738304
107	0x3e642801	0.22280885
108	0x3dd15eb7	0.102231435
109	0x3dd7a65f	0.1052978
110	0x3dfc848b	0.12329968
111	0x3e100f75	0.14068396
112	0x3ea22e54	0.3167597
113	0x3e14f804	0.14547735
114	0x3dddfc40	0.108391285
115	0x3e8cd142	0.275034
116	0x3d47c628	0.04877296
117	0x3e76ce4a	0.2410213
118	0x3ea29c0d	0.31759682
119	0x3c191183	0.009342554
120	0x3e23fb75	0.16013892
121	0x3e2e396a	0.17014089
122	0x3db0cdca	0.08633001
123	0x3e6a563b	0.22884457
124	0xbce82ff3	-0.028343176
125	0x3e89a8c7	0.2688658
126	0xbc52b8ba	-0.012861425
127	0x3cdaab25	0.026692936
128	0x3e9185a9	0.28422287
129	0xbe05eda8	-0.1307894
130	0x3e01b698	0.1266731
131	0x3ed3e298	0.41383815
132	0x3e6f6766	0.23379287
133	0x3c9f139a	0.019418526
134	0x3e308944	0.17239863
135	0x3e4e050d	0.20119114
136	0xbd33b12d	-0.04387014
137	0x3e319378	0.17341411
138	0x3a6b70c8	0.0008981344
139	0x3dd7b2b6	0.10532133
140	0xbd5a6444	-0.053318277
141	0x3d792818	0.060829252
142	0x3e9a22e1	0.30104735
143	0x3eb4e90e	0.35334057
144	0x3d1dd0de	0.03852927
145	0x3e405b49	0.18784823
146	0x3d81e9b7	0.06343406
147	0x3d765f41	0.060149435
148	0x3eb40905	0.3516313
149	0x3d37c381	0.04486418
150	0x3e45583a	0.19271937
151	0xbea98aac	-0.3311361
152	0x3df04ca7	0.1173337
153	0xbc068062	-0.00820932
154	0x3e6bb2ac	0.23017377
155	0x3e5e56e6	0.21712837
156	0x3e00d891	0.12582614
157	0x3e0e2e68	0.1388489
158	0x3e1b71ae	0.15180084
159	0xbd4e0648	-0.05029896
160	0x3e2e4685	0.17019089
161	0x3ea8c194	0.32960188
162	0x3eca8550	0.39554834
163	0x3ebecb91	0.37264684
164	0x3e48bcbf	0.19603251
165	0x3e305280	0.17218971
166	0x3e5d3126	0.2160078
167	0xbd4dd45d	-0.050251354
168	0x3dae417d	0.08508585
169	0x3eb85434	0.36001742
170	0x3e8264eb	0.2546762
171	0x3e5391ae	0.20661041
172	0x3e1ad0bb	0.15118687
173	0x3ed9f054	0.42566168
174	0xbd8c4bb4	-0.06850377
175	0xbd552d24	-0.052045003
176	0x3c969527	0.018381668
177	0x3e8ab6fd	0.27092734
178	0x3e4ae265	0.19812925
179	0x3eca5c72	0.39523655
180	0x3eab0bf7	0.33407566
181	0x3db688e0	0.089128256
182	0x3d8ab413	0.06772628
183	0x3e81ff7e	0.25390238
184	0x3eae1a6e	0.3400454
185	0x3d063a6b	0.032770555
186	0x3e345258	0.17609537
187	0x3c064390	0.008194819
188	0x3e95acbe	0.29233354
189	0x3e5c0b32	0.21488646
190	0x3e658395	0.22413476
191	0x3e0c8e94	0.13726264
192	0x3da6d7aa	0.081466034
193	0xbd3acab4	-0.04560347
194	0x3e400677	0.18752466
195	0x3e6e2896	0.2325767
196	0x3d7dab29	0.06193081
197	0x3e6acbff	0.22929381
198	0x3e8b81f6	0.2724759
199	0x3e9db7de	0.30804342
200	0xbe51e9a1	-0.20499279
201	0xbd942534	-0.072336584
202	0xbd36234d	-0.04446726
203	0xbe88594a	-0.26630622
204	0xbe0799c0	-0.13242245
205	0xbd96a5b6	-0.073558256
206	0x3e9c5e7d	0.3054084
207	0xbdf2106d	-0.11819539
208	0xbe40d55f	-0.18831395
209	0xbec42d2b	-0.3831571
210	0x3cb31106	0.021858703
211	0x3da2db92	0.07952036
212	0x3cd57da6	0.02606089
213	0xbcb324dc	-0.021868162
214	0x3d961a95	0.07329289
215	0x3d00c90c	0.031441733
216	0x3d7b3e54	0.061338738
217	0x3e670429	0.2256018
218	0xbd75b6d2	-0.059988804
219	0xbcee235b	-0.029069593
220	0x3c80c66e	0.015719619
221	0xbe932e34	-0.28746188
222	0x3e7a915e	0.24469516
223	0x3dad0e0e	0.08449946
224	0x3f05fb54	0.5233662
225	0xbf177b9a	-0.59172976
226	0xbd857e68	-0.06518251
227	0xbe01ac47	-0.12663375
228	0xbe117aec	-0.14207047
229	0x3ec1089c	0.3770188
230	0x3e52aef1	0.20574547
231	0xbe487742	-0.19576743
232	0x3cb38879	0.021915661
233	0x3d047a6c	0.032343313
234	0x3d92ef9a	0.071746066
235	0xbcf155bc	-0.029459827
236	0xbe94191f	-0.28925416
237	0x3dc91b98	0.09819716
238	0x3e02146d	0.12703104
239	0xbd8ad97a	-0.067797616
240	0x3e890327	0.26760218
241	0x3e09d945	0.13461788
242	0x3c7db8c5	0.015485947
243	0x3e8e4e56	0.2779414
244	0xbd8c4979	-0.06849951
245	0xbd9a8680	-0.07545185
246	0x3b8dd256	0.0043280525
247	0x3c764594	0.015031237
248	0x3e12cc4a	0.14335743
249	0xbe15f846	-0.1464549
250	0x3e771437	0.24128805
251	0x3dac24b9	0.08405442
252	0xbe90aa32	-0.2825485
253	0x3e2b2ba4	0.16715866
254	0x3d82f32c	0.063940376
255	0x3d8b39db	0.067981444

dense_output.0.weight f4 [100, 100]
0	0x3ca2abd9	0.019857334
1	0x3d0d7295	0.034533102
2	0xbb631c80	-0.0034654438
3	0x3ba74315	0.0051044323
4	0xbaefc5be	-0.0018293185
5	0xbd3858ea	-0.04500667
6	0x3d837374	0.06418505
7	0x3d749f55	0.059722263
8	0x3c94f09f	0.018181143
9	0xbc65b680	-0.014020562
10	0xbd0937b9	-0.033500407
11	0x3d99a5cd	0.07502327
12	0xbd15339b	-0.036426168
13	0xbc8ef5c6	-0.017451178
14	0xbc84f926	-0.016232084
15	0x3cd8e148	0.02647461
16	0x3d177e3c	0.03698562
17	0xb9f7cfa8	-0.00047266227
18	0x3d924d33	0.07143631
19	0xbcdc2c84	-0.026876695
20	0xbca7f08a	-0.02050044
21	0xbb9ed438	-0.004847076
22	0x3d4cb865	0.04998054
23	0x3da70187	0.08154588
24	0x3d0334f0	0.032032907
25	0x3ce0b1c3	0.027428513
26	0xb91565ff	-0.00014247744
27	0x3ca0936a	0.019601543
28	0x3c12bcaa	0.008956114
29	0xbca47cc3	-0.020079022
30	0xbc608757	-0.0137041425
31	0x3d286d43	0.041119825
32	0x3c1c6aff	0.009546994
33	0x3d1ee5d0	0.038793385
34	0xbbf27d83	-0.007400216
35	0x3d4c4ada	0.04987607
36	0x3c72dc83	0.014823082
37	0x3b311438	0.0027020108
38	0x3d2e2232	0.04251308
39	0xbb321d69	-0.0027178174
40	0x3cb926d2	0.022601519
41	0xbd65399a	-0.055963136
42	0xbd3379ef	-0.043817457
43	0xbd14b4b9	-0.036305163
44	0xbd24781b	-0.040153604
45	0xbbf8167d	-0.00757104
46	0x3d5fb06d	0.054611612
47	0x3c084706	0.008317715
48	0x3c91f2c8	0.017815962
49	0x3b5f04b6	0.0034029908
50	0xbd8a7474	-0.06760493
51	0x3c14fb35	0.009093096
52	0x3d64e305	0.055880565
53	0xbc473479	-0.012158507
54	0x3cdf9b15	0.027295629
55	0xbc59691b	-0.013269688
56	0x3d588cd3	0.052868675
57	0xbcc109b4	-0.023564197
58	0x3d7326d4	0.0593632
59	0x3c217bd2	0.009856181
60	0xbc3bfb01	-0.011473418
61	0xbd1f2d8c	-0.038861796
62	0xbd20719f	-0.039170858
63	0x3d6548df	0.0559777
64	0xbbc480aa	-0.0059967833
65	0x3ce2e33a	0.02769624
66	0x3bb022f1	0.005375259
67	0xbd0b0c8f	-0.033947524
68	0xbd0851e2	-0.033281215
69	0x3b0f8700	0.0021900535
70	0xbc9f0356	-0.01941077
71	0xbca88e89	-0.020575779
72	0x3cff2fc8	0.031150714
73	0xbb8fc987	-0.0043880376
74	0xbda9f0c7	-0.08297878
75	0x3ceeff45	0.029174456
76	0x3bf9e34d	0.0076259733
77	0x3c860666	0.016360473
78	0xbbb3d8eb	-0.005488505
79	0x3bfcafb2	0.007711374
80	0xbbc77d12	-0.0060879076
81	0x3d134b10	0.035960257
82	0xbd02a6e5	-0.031897444
83	0x3cd3688a	0.025806684
84	0xbc84f9c7	-0.016232384
85	0xbd9ea31d	-0.07745955
86	0x3c8012bc	0.015633933
87	0x3c235100	0.009968042
88	0x3cff5b18	0.031171367
89	0x3b15b6a8	0.0022844467
90	0xbd9023e7	-0.07038098
91	0x3cb1db94	0.021711148
92	0xbc8929d0	-0.01674357
93	0x39befa2a	0.0003642601
94	0xbd0914fd	-0.03346728
95	0xbd89507c	-0.06704804
96	0x3c9c792d	0.01910075
97	0xbc7e84ae	-0.015534563
98	0x3bdfd83f	0.0068311985
99	0x3d1cfda9	0.038327847
100	0xbd6158dc	-0.055016384
101	0xbb523fa2	-0.0032081385
102	0x3d1c3533	0.038136672
103	0xbdf9c4f5	-0.1219577
104	0xbbd27836	-0.0064230217
105	0xbd659a6b	-0.056055468
106	0x3d80f45e	0.06296609
107	0x3d016bbe	0.03159689
108	0x3ca57bdf	0.020200668
109	0xbc91b2e6	-0.0177855
110	0xbd618075	-0.055054147
111	0x3d2d83be	0.042361967
112	0xbe173e7e	-0.14769933
113	0xbd294830	-0.04132861
114	0xbce13969	-0.027493196
115	0x3bcddc9e	0.006282403
116	0x3d8f9f04	0.07012752
117	0x3dedb60e	0.1160699
118	0xbd3fde29	-0.046842728
119	0x3d3b809d	0.045776952
120	0xbd398d09	-0.045300517
121	0x3c4af469	0.0123873735
122	0x3db6f894	0.08934131
123	0xbdb43d8c	-0.08800802
124	0x3cb936f6	0.022609215
125	0x3d2b8f3f	0.041884657
126	0xbd26894f	-0.04065829
127	0xbce3b223	-0.027794903
128	0x3e28ad5d	0.16472383
129	0xbe01ff43	-0.12695031
130	0xbcfdb39d	-0.030969435
131	0x3dd6a791	0.104811795
132	0xbdd6ec47	-0.10494285
133	0xbb3b4287	-0.002857359
134	0x3d46416e	0.048402242
135	0x3cb0f600	0.021601677
136	0xbd513afd	-0.051081646
137	0xbce3811e	-0.027771529
138	0x3afe206e	0.0019388327
139	0x3bc73a08	0.006079916
140	0x3d3bf90c	0.045891806
141	0x3d22873b	0.039679747
142	0xbcf9f636	-0.03051291
143	0x3d764747	0.06012657
144	0xbd5bdb73	-0.05367608
145	0xbb432fd3	-0.0029783144
146	0xbd6614dc	-0.056172237
147	0xbd8672ee	-0.0656489
148	0x3b70dbfb	0.0036752212
149	0xbd78bbf0	-0.060726106
150	0x3bc26d75	0.0059334585
151	0x3c219f99	0.009864711
152	0x3d5930d6	0.05302509
153	0xbd99f870	-0.07518089
154	0x3d2c97b5	0.042136867
155	0x3dbc0a8e	0.09181701
156	0xbc153a50	-0.009108141
157	0xbc186c23	-0.009303126
158	0x3d5d745b	0.054066043
159	0xbd5a766b	-0.05333559
160	0xbde99f96	-0.11407392
161	0xbda56b7e	-0.08077143
162	0xbdc6195a	-0.09672804
163	0x3dd1833a	0.102301076
164	0xbd4843f0	-0.048892915
165	0xbda9887e	-0.08277987
166	0xbd443304	-0.047900215
167	0xbd859e9a	-0.065243915
168	0xbd8dd4a2	-0.06925322
169	0xbd1cc3bb	-0.0382726
170	0x3c60e827	0.013727224
171	0x3b876597	0.0041319835
172	0x3d8badd7	0.06820267
173	0x3cdbb899	0.026821421
174	0xbc4c1bfa	-0.012457842
175	0xbc109d34	-0.008826543
176	0x3d0c7297	0.03428897
177	0x3da71069	0.08157427
178	0xbd18f9ff	-0.03734779
179	0x3d4c04ac	0.049809143
180	0x3d13e3b1	0.036105815
181	0x3d432146	0.047639154
182	0xbc676061	-0.0141221
183	0xbc3081d7	-0.010773144
184	0xbc4a5bec	-0.012351017
185	0x3d885675	0.06657115
186	0xbd95ca8c	-0.073140234
187	0xbe01e3a5	-0.12684496
188	0x3b36a8c9	0.00278716
189	0xbcd028f4	-0.025410153
190	0xbdc725ad	-0.09723983
191	0x3d20f672	0.03929753
192	0xbd4e9539	-0.05043528
193	0x3bcd30a0	0.0062619
194	0xbd87d321	-0.066320665
195	0xbdcd2e70	-0.10018623
196	0xbce11d0d	-0.027479673
197	0xbb857482	-0.0040727267
198	0x3c0bcc63	0.008532616
199	0x3d4436d1	0.04790384
200	0xbd8101bb	-0.06299158
201	0xbb5b68e0	-0.0033479258
202	0xbd2bdb4c	-0.041957185
203	0xbc816a20	-0.015797675
204	0xbc2c244a	-0.010506699
205	0xbc83ece6	-0.016104173
206	0x39de380c	0.00042384898
207	0x3c08d8bd	0.008352456
208	0x3c36b68f	0.011151924
209	0x3c96e953	0.018421805
210	0xbcc74f1e	-0.024329718
211	0xbc8605b4	-0.016360141
212	0xbdba4a54	-0.09096208
213	0xbd864494	-0.06556049
214	0xbcb95621	-0.022624077
215	0xbbee1aa7	-0.007266361
216	0xbc4016a2	-0.011724146
217	0x3cc09828	0.023510054
218	0x3d102032	0.035186954
219	0xbd2b6a62	-0.0418495
220	0xbabd897a	-0.0014460527
221	0x3d3f19a9	0.04665533
222	0x3abdfa2e	0.0014494115
223	0x3d74764d	0.059683133
224	0x3d465fd3	0.04843123
225	0x3daf86e2	0.08570649
226	0xbc983b3c	-0.018582933
227	0x3c319fb5	0.0108413
228	0x3d4b69db	0.0496615
229	0x3c94dc9a	0.018171597
230	0xbc1b2cae	-0.009471102
231	0x3da056f8	0.07829088
232	0xba724864	-0.00092423544
233	0x3ccd3dee	0.025053944
234	0xbd59d3b5	-0.053180415
235	0x3d8d6237	0.069034986
236	0xbd2b9c32	-0.041897006
237	0x3ce18067	0.027527047
238	0xbc9cb69c	-0.019130044
239	0xbbf07405	-0.0073380494
240	0xbd2e5304	-0.04255964
241	0xbd464fc9	-0.048415933
242	0xbd11b990	-0.035577357
243	0xbba7b2f9	-0.0051177708
244	0xbc1d4800	-0.009599686
245	0x3c659af4	0.0140139945
246	0xbc2cdb4f	-0.010550334
247	0xbd1cffa7	-0.038329747
248	0xbd4ab53d	-0.04948925
249	0xbd37f157	-0.044907894
250	0xbd3006c1	-0.04297519
251	0x3d3f9b89	0.04677919
252	0xbc6bf3b9	-0.01440137
253	0xbd10a893	-0.035317015
254	0x3d4365c4	0.047704473
255	0x3d84fb79	0.06493277

dense_output.0.bias f4 [100]
0	0xbdd9029e	-0.10596202
1	0xbdaecbd2	-0.085349694
2	0xbdeae3b7	-0.114692144
3	0xbe3658e9	-0.17807354
4	0xbc05d4e6	-0.008168435
5	0xbe2df05c	-0.16986221
6	0xbdca8eb7	-0.09890502
7	0xbdedd7b0	-0.11613405
8	0xbe2f4485	-0.17115982
9	0xbdb7ebea	-0.08980544
10	0xbcb3f2af	-0.021966306
11	0x3dc323e1	0.09528328
12	0xbda7d3e1	-0.081947096
13	0xbd9bdff5	-0.07611076
14	0xbdd75938	-0.10515064
15	0x3e90403f	0.28174016
16	0xbdf68ad3	-0.12038197
17	0xbd684d96	-0.056714617
18	0xbe4fd30d	-0.20295353
19	0xbdc1c1e6	-0.09460811
20	0xbd8ee0cf	-0.069764726
21	0xbd9c91be	-0.076449856
22	0xbd440d1d	-0.04786407
23	0xbd5a35f3	-0.053274106
24	0xbdd972fe	-0.10617636
25	0xbdadabf0	-0.0848006
26	0xbcd194a8	-0.02558358
27	0xbde110fe	-0.10989569
28	0xbdf5d911	-0.12004293
29	0xbdf19bf8	-0.11797327
30	0xbdcb0750	-0.09913504
31	0xbe3f8c1f	-0.18705796
32	0xbdde3607	-0.10850149
33	0xbdda823f	-0.10669374
34	0xbd9ebe82	-0.0775118
35	0xbd55b646	-0.052175783
36	0xbe448528	-0.1919142
37	0xbc56b657	-0.013104997
38	0xbdedebfe	-0.116172776
39	0xbe0f474c	-0.13992041
40	0xbdc257ef	-0.09489428
41	0xbe151c8d	-0.14561673
42	0xbe0dea5a	-0.1385893
43	0xbe4fb9bb	-0.20285694
44	0xbd37fc20	-0.04491818
45	0xbdbf0f14	-0.09329048
46	0x3e787a17	0.24265324
47	0xbda86bbc	-0.08223674
48	0xbe11b46d	-0.14228983
49	0xbcd96a28	-0.026539877
50	0xbe19cdc6	-0.15019903
51	0xbc9f0cd5	-0.019415298
52	0xbdb5abdb	-0.088706695
53	0xbdb2475f	-0.08705019
54	0xbdf51894	-0.119675785
55	0xbdcb2f50	-0.099211335
56	0xbdda78c6	-0.10667567
57	0xbddda713	-0.108228825
58	0xbda6a3d6	-0.08136718
59	0xbe057473	-0.13032703
60	0x3b864a0b	0.004098182
61	0xbda1d587	-0.07902055
62	0xbe99c8ec	-0.30036104
63	0xbdd996df	-0.106244795
64	0xbe1f5947	-0.155614
65	0xbda4e850	-0.080521226
66	0xbe113009	-0.1417848
67	0xbd8f903a	-0.07009931
68	0xbd96e692	-0.073681965
69	0xbe2589ab	-0.16165797
70	0xbdd767a4	-0.10517815
71	0xbe387da6	-0.18016681
72	0xbda19417	-0.07889574
73	0xbde0cc81	-0.10976506
74	0xbe397406	-0.18110666
75	0xbd9b9123	-0.07596042
76	0xbd8de7c2	-0.0692897
77	0xbd4535ee	-0.048147134
78	0xbde96537	-0.11396258
79	0xbd99e9c1	-0.07515288
80	0xbd62d6de	-0.055380695
81	0xbe00f47e	-0.12593266
82	0xbdffc9ce	-0.12489663
83	0xbe0cb7cb	-0.13741986
84	0xbdb68381	-0.08911801
85	0xbd693850	-0.05693847
86	0xbe1c9c37	-0.15293966
87	0xbe1fa6eb	-0.15591018
88	0xbcc225b8	-0.023699626
89	0xbdb5800f	-0.08862316
90	0xbdd47e37	-0.10375636
91	0xbdbcd349	-0.09219987
92	0xbddeeab8	-0.10884613
93	0xbdaffcd3	-0.08593144
94	0xbda171c4	-0.07883027
95	0xbdd004d2	-0.101571694
96	0xbe063415	-0.13105805
97	0xbdc8be59	-0.09801931
98	0xbe2bd527	-0.1678053
99	0xbdc2a6cf	-0.095044725

dense_output.3.weight f4 [9, 100]
0	0x3d511542	0.051045664
1	0x3c071a23	0.008245978
2	0x3d02cd27	0.03193393
3	0xbc9ddaac	-0.01926931
4	0xbbba95fa	-0.005694148
5	0x3c5d2a67	0.013498879
6	0x3cde3b51	0.027127894
7	0xbc81bf2f	-0.015838234
8	0x3c93747c	0.01799988
9	0xbd435d1c	-0.047696218
10	0x3ab49e2e	0.0013780051
11	0x3cb92254	0.022599377
12	0x3c4b018e	0.012390507
13	0x3beffec9	0.007324074
14	0xbbc07aab	-0.005873998
15	0x3dcd4766	0.10023384
16	0xbc3d7e7a	-0.011565799
17	0xbca19e7a	-0.019728888
18	0x3ceca22b	0.028885921
19	0x3d84870b	0.0647107
20	0xbc619c9f	-0.013770252
21	0x3c920917	0.0178266
22	0xbbd1d42b	-0.006403466
23	0x3dc325d1	0.09528697
24	0xbd17671b	-0.036963563
25	0xbc3f0cd4	-0.011660773
26	0x3d09fb22	0.033686765
27	0x3c26db3a	0.010184104
28	0xbd14927d	-0.036272515
29	0xbcf103c7	-0.029420746
30	0x3d0769fe	0.033060066
31	0xbd13a5c8	-0.036046773
32	0x3c9a7865	0.018856237
33	0x3a7810d3	0.0009462956
34	0xbd0f2d1e	-0.034955136
35	0x3c995700	0.018718243
36	0xbbeb2f9c	-0.0071773063
37	0x3ca6251f	0.020281373
38	0xbbdeca0c	-0.006798988
39	0xbca0483a	-0.01956569
40	0xbc42d4a2	-0.011891516
41	0x39a65995	0.0003172873
42	0x3d43bd84	0.047788158
43	0x3db9a8b4	0.09065381
44	0xbb123b0a	-0.0022313022
45	0xbc22d8b1	-0.009939359
46	0x3d9931e1	0.07480217
47	0x3d1b86ec	0.03797047
48	0xbc9d49e2	-0.01920027
49	0x3c737b47	0.014860935
50	0x3d855f5c	0.06512329
51	0x3d90f877	0.07078641
52	0xbcc57f62	-0.024108592
53	0x3b9e2af0	0.004826896
54	0xbcdf70fc	-0.027275555
55	0x3d0a5cbc	0.033779845
56	0xbcc5e78e	-0.024158265
57	0xbc3d47a8	-0.011552729
58	0x3af797c5	0.0018889835
59	0x3b9374a3	0.004499988
60	0xbc7125f4	-0.014718521
61	0x3dbefbf0	0.09325397
62	0xbe08af28	-0.13348067
63	0xbafe26bc	-0.0019390206
64	0xbbd0e840	-0.0063753426
65	0xbc468cda	-0.012118543
66	0xbbd1f4e2	-0.006407366
67	0xbb8ad581	-0.0042368774
68	0xbc24f942	-0.010069193
69	0xbc43fbf5	-0.011961927
70	0xbc91ddaf	-0.017805902
71	0x3ca0c99f	0.01962739
72	0x3c2f612c	0.01070432
73	0x3c40935a	0.011753881
74	0x3bcb0d68	0.0061966665
75	0x3c27f5ef	0.010251506
76	0x3c66e89e	0.014093546
77	0xbc3b2c89	-0.011424192
78	0x3ce57b1b	0.028012803
79	0x3c0acf4b	0.008472274
80	0x3cc53aaa	0.024075825
81	0xbd58f35b	-0.052966457
82	0x3d2020d3	0.039093804
83	0xbd9ca26b	-0.07648166
84	0xbcd3d8de	-0.025860246
85	0xbc8f01eb	-0.01745697
86	0xbc10a75b	-0.008828963
87	0x3ca9100c	0.020637535
88	0x3c2fecd8	0.01073762
89	0xbcf64bb9	-0.030065404
90	0xbc85474b	-0.016269347
91	0x3aa9d53c	0.0012957226
92	0x3b61ce71	0.0034455324
93	0xbae1fc3a	-0.0017241307
94	0xbc215f6e	-0.009849412
95	0xbbeca9df	-0.0072223986
96	0xbcb20461	-0.021730604
97	0x3cda0099	0.026611613
98	0x3b804755	0.0039147534
99	0x3ce58aac	0.028020225
100	0x3c0419db	0.008062805
101	0x3c754625	0.014970337
102	0xbcbe8022	-0.023254458
103	0xbd411e18	-0.04714784
104	0xbb8da96f	-0.0043231766
105	0x3c9ffc35	0.019529441
106	0x3c72694d	0.0147956135
107	0xbc504f16	-0.012714168
108	0x3c4087ae	0.011751099
109	0xba949582	-0.0011336061
110	0xbd1c155e	-0.038106315
111	0x3cb84973	0.02249596
112	0x3c9f7d91	0.019469054
113	0xbc8330eb	-0.016014537
114	0xbcb15489	-0.021646755
115	0x3dd0de90	0.101987004
116	0xbb661cca	-0.0035112374
117	0xba575d07	-0.0008215461
118	0xbc250089	-0.010070928
119	0x3c4b2e68	0.012401201
120	0xbb3f7554	-0.002921422
121	0x3ce57a83	0.02801252
122	0xbc7d93ae	-0.015477104
123	0x3dbf32ca	0.09335859
124	0xbcabbc8c	-0.02096393
125	0x3c6cd8cc	0.014455985
126	0x3d0b50b3	0.034012508
127	0x3bde9d62	0.006793664
128	0xbb287c1c	-0.002570874
129	0xbd957895	-0.0729839
130	0x3cb7586e	0.022381034
131	0xbd1ab9b1	-0.037774745
132	0x3d1a44d8	0.03766331
133	0x3bc19770	0.0059079453
134	0x3b54a4a2	0.0032446762
135	0x3d09741c	0.033557996
136	0xbbf8fc0a	-0.007598405
137	0x3cb9685a	0.022632767
138	0x3d074581	0.03302527
139	0x3cb25ad1	0.02177182
140	0xbc632847	-0.013864583
141	0xbc03d2bd	-0.008045849
142	0x3d06ae5f	0.032881137
143	0x3ddee9bc	0.10884425
144	0x3c7cc8ae	0.015428705
145	0xbcff55c8	-0.031168833
146	0x3d92b290	0.07162964
147	0x3d1b5aeb	0.037928503
148	0xbc178a3b	-0.009249265
149	0x3c7ea3ba	0.015541965
150	0x3d8e0048	0.069336474
151	0x3d8befb0	0.06832826
152	0x3c974285	0.018464336
153	0x3cfc17ae	0.03077301
154	0xbd0e9971	-0.034814302
155	0xbb860b78	-0.0040907227
156	0xbc960bbf	-0.018316148
157	0x3d315217	0.043291178
158	0xbc16e70c	-0.009210359
159	0xbcac2256	-0.021012466
160	0xbc5a410a	-0.013321171
161	0x3dc6d186	0.09707932
162	0xbe10854e	-0.14113352
163	0x3c968abf	0.018376706
164	0xbc358bee	-0.011080725
165	0x3bac3ad3	0.005256036
166	0xbc903084	-0.017601259
167	0xbcf93dd5	-0.030424992
168	0x3c0ffdcd	0.008788538
169	0xbd0b4caf	-0.034008678
170	0x3c518d01	0.012789966
171	0xbce3cab8	-0.027806625
172	0xbc853b9a	-0.016263772
173	0x3cb854fd	0.022501463
174	0x3ba7708b	0.0051098517
175	0xbcfa898b	-0.030583164
176	0x3d14887b	0.03626297
177	0x3b30ce96	0.0026978604
178	0x3c7ad0f5	0.015308608
179	0xbbe1168f	-0.0068691443
180	0xbbdacc89	-0.0066772145
181	0xbd37d7de	-0.0448836
182	0x3cbc2e8f	0.02297142
183	0xbd69c8f6	-0.057076417
184	0xbccc1c79	-0.02491592
185	0xba56e501	-0.00081975764
186	0xbc4faa06	-0.012674814
187	0x3cde0c41	0.027105452
188	0x3b3c9675	0.0028776203
189	0xbc51d9d4	-0.012808282
190	0x3d0e7176	0.034776174
191	0xbccb6bba	-0.024831641
192	0xbc91a717	-0.01777987
193	0x3cd25a81	0.025677921
194	0xbcdec9d8	-0.027195856
195	0xbbf06073	-0.0073357164
196	0x3b85fb3b	0.004088787
197	0xbcea5dc7	-0.02860917
198	0x3cb3fd1c	0.021971278
199	0x3c85e2aa	0.016343433
200	0x3ccac888	0.024753824
201	0x3ca3b26f	0.019982545
202	0x3d4d0c45	0.05006053
203	0x3d29cff1	0.041458074
204	0xbb9d77d2	-0.0048055435
205	0x3c2cf432	0.010556268
206	0x3d10a962	0.035317786
207	0xbc408736	-0.011750987
208	0xbb90723a	-0.004408148
209	0xbbf13309	-0.00736082
210	0x3c067df4	0.0082087405
211	0x3cab3828	0.0209008
212	0x3ce3c45f	0.027803598
213	0x3b11f446	0.0022270842
214	0xbc80fcc7	-0.015745534
215	0x3dd33fdb	0.10314914
216	0x3c7827e5	0.01514623
217	0xbb6e074f	-0.0036320274
218	0xbd540cb7	-0.05176994
219	0x3cfd78ae	0.030941334
220	0x3c613f58	0.0137480125
221	0x3cfecec6	0.031104457
222	0xbd74ff8e	-0.05981403
223	0x3dbd8fc4	0.09255937
224	0xbbfbd12a	-0.0076848464
225	0xbc8730e8	-0.016502813
226	0x3ca914f6	0.020639878
227	0x3bd41323	0.006472008
228	0x3b95b0c0	0.0045681894
229	0xbd911a10	-0.07085049
230	0xbb3b13da	-0.0028545768
231	0xbd756a42	-0.05991579
232	0x3d023ba6	0.031795166
233	0xbc3b355b	-0.011426295
234	0x3bd9c144	0.0066453535
235	0x3d4075c5	0.046987314
236	0xbc882f30	-0.016624063
237	0x3cd003ce	0.02539244
238	0x3cea15ce	0.02857485
239	0x3c90895e	0.017643627
240	0xbd0193fd	-0.031635273
241	0xbb7f65fe	-0.0038970704
242	0x3c73ab50	0.014872387
243	0x3dcd456e	0.10023008
244	0x3ced9a7d	0.02900433
245	0xbc9f857a	-0.019472826
246	0x3d8ebdd2	0.06969799
247	0x3d03e331	0.03219909
248	0xbc4edaf2	-0.012625443
249	0x3ce01b57	0.027356787
250	0x3d8db7e7	0.06919842
251	0x3d87cc6d	0.06630788
252	0x3cc4b912	0.02401403
253	0x3d06d1ef	0.032915052
254	0xbcdccaea	-0.026952226
255	0x3be2e312	0.0069240415

dense_output.3.bias f4 [9]
0	0x3bacb6a3	0.0052707954
1	0x3b96c6dc	0.0046013426
2	0x3b7a7709	0.0038217923
3	0x3b0317ee	0.0020003277
4	0x3ace478c	0.0015737875
5	0x3ac951d1	0.0015359466
6	0x3a8418fd	0.0010078248
7	0xb96d724d	-0.00022644662
8	0xb992ec44	-0.00028023322

exp_avg f4 [4, 1, 3, 3, 3]
0	0x39991674	0.00029199163
1	0xb8cc57ea	-9.743853e-05
2	0xb860924c	-5.354201e-05
3	0x3a39e907	0.0007091914
4	0x389b1791	7.3953655e-05
5	0x39e01124	0.0004273738
6	0x3a74cf67	0.00093387667
7	0x39986e8c	0.00029074063
8	0x3a383dcd	0.0007028252
9	0x39de3a06	0.0004238637
10	0x38e36418	0.000108428474
11	0xb8937252	-7.0308e-05
12	0x3a60e5bb	0.00085791544
13	0x3996b123	0.00028742207
14	0x39db5285	0.00041832417
15	0x3a81c8a4	0.0009901715
16	0x39b2b7a5	0.00034087632
17	0x3a26219f	0.00063374074
18	0x39d68701	0.00040917846
19	0x3978b5b4	0.00023718813
20	0xb9455ec3	-0.00018822686
21	0x3a74b87e	0.0009335353
22	0x39c6b022	0.00037896732
23	0x39ac18d9	0.0003282491
24	0x3a80d472	0.0009828939
25	0x39c4812c	0.00037480274
26	0x3a067de6	0.00051304547
27	0x3a7a8f47	0.0009558093
28	0x3a1c4739	0.0005961541
29	0x3ad24747	0.0016042971
30	0xb9616197	-0.00021494027
31	0xbaa2cb5e	-0.0012420227
32	0xba13124f	-0.0005610333
33	0xb81c5b3d	-3.727827e-05
34	0xb9fb0b8f	-0.00047883063
35	0x39746c51	0.00023310004
36	0x3a992e8d	0.0011686847
37	0x3a730571	0.0009270525
38	0x3ad5ab00	0.0016301572
39	0x38e20fc6	0.00010779458
40	0xba8cb715	-0.0010735715
41	0xba30edc4	-0.0006749297
42	0x396b611c	0.00022447522
43	0xb97d68b5	-0.00024166967
44	0x3998741a	0.00029078202
45	0x3aad6b06	0.0013230748
46	0x3a96cfe7	0.0011506052
47	0x3abb4090	0.0014286209
48	0x39e1219f	0.00042940394
49	0xba5d8510	-0.0008450309
50	0xba6cc523	-0.0009032061
51	0x3a01af38	0.0004947069
52	0x388db767	6.757565e-05
53	0x39773eed	0.00023579197
54	0xbab89cd9	-0.001408483
55	0xbaf9aba3	-0.0019048344
56	0xbb26dc14	-0.0025460767
57	0xbaa966ad	-0.0012924277
58	0xbb0dd5dc	-0.0021642363
59	0xbb20e46a	-0.0024550208
60	0xba7e96ec	-0.000971182
61	0xbaffab3a	-0.0019505986
62	0xbb0e84ff	-0.0021746752
63	0xbabbed4c	-0.0014337688
64	0xbaf6ffc6	-0.0018844537
65	0xbb2c6e85	-0.0026310992
66	0xba9bf6e2	-0.0011899138
67	0xbb0e8349	-0.0021745733
68	0xbb29a91f	-0.0025888158
69	0xba5f239a	-0.000851208
70	0xbb0029a9	-0.0019556081
71	0xbb0f8e6b	-0.0021904956
72	0xbab761a0	-0.0013990887
73	0xbafe22f9	-0.0019389085
74	0xbb30df30	-0.00269885
75	0xba96bb4c	-0.0011499911
76	0xbb152677	-0.0022758523
77	0xbb3268db	-0.0027223143
78	0xba4632ec	-0.00075606885
79	0xbb03e314	-0.0020124363
80	0xbb125627	-0.0022329183
81	0x00000000	0.0
82	0x00000000	0.0
83	0x00000000	0.0
84	0x00000000	0.0
85	0x00000000	0.0
86	0x00000004	6e-45
87	0x00000000	0.0
88	0x00000000	0.0
89	0x00000004	6e-45
90	0x00000000	0.0
91	0x00000000	0.0
92	0x00000000	0.0
93	0x00000000	0.0
94	0x00000000	0.0
95	0x00000004	6e-45
96	0x00000000	0.0
97	0x00000000	0.0
98	0x00000004	6e-45
99	0x00000000	0.0
100	0x00000000	0.0
101	0x00000000	0.0
102	0x00000000	0.0
103	0x00000000	0.0
104	0x00000004	6e-45
105	0x00000000	0.0
106	0x00000000	0.0
107	0x00000004	6e-45
