models/mvsec/indoor_flying1/indoor_flying1_stereo_odd_model.pth (torch, 862658 bytes, 27 tensors)

conv3d.0.weight f4 [4, 1, 3, 3, 3]
-0.053009585 -0.025926014 -0.061681323 0.34663144 0.39172348 0.30423284 0.002348903 -0.057649493
-0.019755961 -0.17955823 -0.15288073 -0.1709917 0.15330103 0.1706511 0.20922336 -0.025559438
0.02511084 0.063804105 -0.2814224 -0.1906994 -0.1616162 -0.18559156 -0.21935955 -0.110430546
0.009603458 -0.014333574 0.050955668 -0.30348387 -0.30271125 -0.3309849 -0.17999552 -0.24434343
-0.25949886 -0.24946074 -0.26656553 -0.33644062 0.027967121 0.04492712 0.06333031 -0.005137321
0.027611502 0.01156052 0.06451302 0.03211744 0.083824396 0.31883025 0.2834215 0.40289655
0.2782312 0.11647516 0.16395241 0.39893064 0.24224678 0.34976313 0.13101903 -0.08468117
-0.05819981 -0.013689405 -0.20455213 0.25746676 0.2711623 0.035180856 -0.040849846 0.08270101
-0.14531131 0.12330976 -0.29444945 -0.1884634 0.45375523 0.12477488 -0.14971064 0.0061007286
0.0030630722 -0.0023661074 0.07001009 -0.38749635 -0.21001539 0.3610167 -0.105106734 -0.15837716
0.10935337 0.08930496 0.07204332 -0.12808974 -0.10838347 -0.019089337 0.124676935 -0.07075074
-0.1272101 -0.025150673 0.39982685 -0.011554977 -0.3810799 0.042542595 -0.07962478 -0.084949434
-0.041743428 -0.104507774 0.025070263 0.50255215 0.021501977 -0.29150698 0.088687144 -0.12779407
-0.050211243 0.028688762 0.0096412385 0.1964922
00000000: 9420 59bd cb62 d4bc 8ea5 7cbd ad79 b13e
00000010: fb8f c83e 68c4 9b3e 0ef0 193b e021 6cbd
00000020: 41d7 a1bc 1dde 37be c48c 1cbe 7318 2fbe
00000030: f2fa 1c3e 29bf 2e3e a63e 563e 0762 d1bc
00000040: 40b5 cd3c baab 823d 9916 90be b446 43be
00000050: b87e 25be b70b 3ebe ca9f 60be 6929 e2bd
00000060: d357 1d3c 5ed7 6abc e4b6 503d 3d62 9bbe
00000070: f8fc 9abe da76 a9be bf50 38be 2a35 7abe
00000080: 09dd 84be a372 7fbe 477b 88be f241 acbe
00000090: 4e1b e53c 8005 383d 52b3 813d f956 a8bb
000000a0: 8431 e23c 5668 3d3c 671f 843d 948d 033d
000000b0: 20ac ab3d b83d a33e 9f1c 913e 7548 ce3e
000000c0: 5274 8e3e 878a ee3d 24e3 273e a340 cc3e
000000d0: 8a0f 783e 2714 b33e da29 063e 526d adbd
000000e0: ed62 6ebd 8749 60bc 1d76 51be afd2 833e
000000f0: c9d5 8a3e cd19 103d 2b52 27bd 265f a93d
00000100: 7dcc 14be d489 fc3d 14c2 96be 8dfc 40be
00000110: 9b52 e83e f989 ff3d bf4d 19be 9fe8 c73b
00000120: d3bd 483b b210 1bbb 7361 8f3d ec65 c6be
00000130: 460e 57be 2ed7 b83e 3342 d7bd 9f2d 22be
00000140: a9f4 df3d 85e5 b63d 738b 933d f529 03be
00000150: 27f8 ddbd 3e61 9cbc 9f56 ff3d c4e5 90bd
00000160: 5d43 02be c908 cebc 1bb6 cc3e 1651 3dbc
00000170: e81c c3be 2541 2e3d 5112 a3bd f8f9 adbd
00000180: 28fb 2abd 2c08 d6bd 2760 cd3c 42a7 003f
00000190: ea24 b03c 6740 95be 9ba1 b53d 73dc 02be
000001a0: 4eaa 4dbd b204 eb3c 49f6 1d3c 4035 493e

conv3d.0.bias f4 [4]
0.019675884 0.007655772 -0.08399137 -0.05416995
00000000: 522f a13c 45dd fa3b ab03 acbd 4fe1 5dbd

gru.weight_ih_l0 f4 [300, 100]
-0.21812885 -0.22827516 -0.34304503 -0.43328393 -0.46721584 0.29489514 0.14755754 0.057176873
-0.2585352 -0.48600903 0.012335246 -0.093192436 -0.018114546 -0.15981297 -0.5402613 0.27669898
0.15696444 0.24291593 0.18034324 -0.12562627 0.33662364 0.007910712 0.1783862 0.34211183
0.29240116 -0.22139399 -0.29201517 -0.15260516 -0.06442542 0.20535743 -0.27873912 -0.4966594
-0.4447921 -0.41960987 -0.14895158 -0.1631213 -0.33178288 -0.3497795 -0.33787668 -0.068001784
0.039287 -0.3276977 -0.3622267 -0.3407018 -0.12608835 0.23232058 -0.21777882 -0.22441536
-0.08211091 -0.058134932 -0.26659054 -0.26626128 -0.28775445 -0.2708002 -0.545402 -0.19527568
-0.35786486 -0.5612422 -0.53757864 -0.22214103 -0.23661172 -0.32236382 -0.72707665 -0.2797457
-0.01929018 -0.20840093 -0.23647058 -0.5101968 -0.672843 -0.32424274 -0.37086573 -0.08822614
-0.34629261 -0.53173554 -0.31941447 -0.638194 -0.6815885 -0.77281404 -0.6358433 -0.78980553
-0.39961717 -0.20602839 -0.20172918 -0.3643405 -0.59074426 -0.35317367 -0.18306598 -0.22937864
-0.2768892 -0.52739763 -0.030996216 0.30485597 0.15317777 0.069340855 -0.22176199 0.10407014
0.09221975 -0.046216927 0.17752899 -0.06574238 -0.06264745 -0.0141579695 0.30585358 0.29035375
0.19201525 -0.10633291 -0.040707916 0.0713107 0.0017185486 0.014066055 -0.12989078 -0.11218895
-0.07569036 -0.011883471 -0.07010051 0.5815027 0.22232637 0.17705669 0.06760448 -0.24089465
0.41296184 0.21055871 0.24177894 0.14283104 -0.13087097 -0.03710013 -0.35062355 -0.488594
-0.5389579 -0.7086672 0.124669686 -0.10010164 -0.11833825 -0.2546585 -0.27486584 0.34530988
0.08601139 0.11499274 -0.19093743 -0.5063557 0.23872995 0.026592005 0.11488961 -0.051692776
-0.24722776 0.100528225 -0.14436705 -0.06025527 -0.12943819 -0.252023 -0.2965681 -0.06543569
0.3037194 -0.5292105 -0.97469383 -0.21814592 -0.25111055 0.32738185 -0.78431624 -0.98352957
0.06225011 -0.23151731 -0.37095127 -0.3698952 -0.24005592 -0.018779075 -0.1779656 -0.50608975
-0.42397368 -0.2483431 -0.20146157 -0.2045306 -0.53609645 -1.1461099 -1.0353606 0.19047481
-0.017609524 0.1695276 -0.46393678 -0.28106558 -0.04407795 0.005897587 0.0059959996 -0.2507958
-0.033958286 -0.3818257 -0.09072525 0.019437507 -0.18171318 0.30782405 0.19928874 0.43399626
0.1135199 -0.19372363 0.092042245 0.25855702 0.24750462 0.3709144 0.15784371 0.28642207
0.15845534 -0.17023687 -0.16201302 0.10735777 0.20060048 0.08423161 -0.08361897 -0.15674545
-0.111455366 -0.059752006 0.26764384 0.10639169 0.1253797 0.10617823 0.07154374 -0.1675937
-0.33210167 -0.21257834 -0.28833675 -0.1769074 -0.21472742 -0.49956086 -0.4287748 -0.34557942
0.011894213 -0.12590079 0.05230042 0.24190652 0.3306292 0.57869095 -0.18045452 0.026557641
0.10629113 0.1854333 0.39102328 -0.25030154 -0.039573297 -0.028917365 0.013853545 0.2579114
-0.35668963 -0.09562173 -0.08478394 0.022924023 0.29339072 -0.58578473 -0.28739703 -0.12076812
-0.085667096 0.10357749 0.59028804 0.10579314 0.060228117 0.56373304 0.19632003 0.41613054
00000000: 2b5d 5fbe f7c0 69be 99a3 afbe 64d7 ddbe
00000010: ea36 efbe 7ffc 963e 5319 173e 4c32 6a3d
00000020: ba5e 84be 2dd6 f8be c619 4a3c addb bebd
00000030: f564 94bc 03a6 23be 914e 0abf 7dab 8d3e
00000040: 49bb 203e f4be 783e e6ab 383e 2ca4 00be
00000050: ef59 ac3e ee9b 013c dfaa 363e 4829 af3e
00000060: 9bb5 953e 1bb5 62be 0383 95be 8744 1cbe
00000070: 79f1 83bd 3849 523e e5b6 8ebe 244a febe
00000080: cabb e3be 1bd7 d6be c386 18be 4509 27be
00000090: 72df a9be 4c16 b3be 2cfe acbe 8544 8bbd
000000a0: 68eb 203d fec7 a7be c775 b9be 7770 aebe
000000b0: 4e1d 01be 72e5 6d3e 6901 5fbe 24cd 65be
000000c0: c429 a8bd e51e 6ebd 8e7e 88be 6653 88be
000000d0: 8d54 93be 53a6 8abe 779f 0bbf 59f6 47be
000000e0: 103a b7be 92ad 0fbf c19e 09bf f078 63be
000000f0: 584a 72be df0c a5be b221 3abf d43a 8fbe
00000100: 7106 9ebc 0e67 55be 5825 72be 429c 02bf
00000110: 703f 2cbf 2503 a6be 1de2 bdbe e8af b4bd
00000120: 444d b1be d21f 08bf 4b8a a3be af60 23bf
00000130: 957c 2ebf 24d7 45bf a0c6 22bf b230 4abf
00000140: 9f9a ccbe 1bf9 52be 1892 4ebe d78a babe
00000150: 043b 17bf 2ed3 b4be a675 3bbe 3ce2 6abe
00000160: 6cc4 8dbe 8803 07bf c7eb fdbc 1516 9c3e
00000170: a2da 1c3e 9402 8e3d 9315 63be ba22 d53d
00000180: b5dd bc3d f64d 3dbd 29ca 353e f1a3 86bd
00000190: 4e4d 80bd d4f6 67bc d798 9c3e 3fa9 943e
000001a0: a59f 443e 12c5 d9bd 58bd 26bd 580b 923d
000001b0: ec40 e13a 5075 663c 1702 05be 52c3 e5bd
000001c0: 8c03 9bbd e4b2 42bc db90 8fbd 5cdd 143f
000001d0: 86a9 633e 594e 353e 3874 8a3d 16ad 76be
000001e0: bc6f d33e b49c 573e e694 773e 4d42 123e
000001f0: 0a03 06be 4ef6 17bd ee84 b3be fe28 fabe
00000200: 25f9 09bf 376b 35bf d252 ff3d 1702 cdbd
00000210: 535b f2bd 9962 82be 37bb 8cbe 75cc b03e
00000220: bd26 b03d 5081 eb3d 1a85 43be 87a0 01bf
00000230: a075 743e 7ad7 d93c 3e4b eb3d cebb 53bd
00000240: 4629 7dbe bee1 cd3d f5d4 13be 3bce 76bd
00000250: 728b 04be 2909 81be c6d7 97be 2603 86bd
00000260: 1c81 9b3e 577a 07bf 8985 79bf a561 5fbe
00000270: 9091 80be 989e a73e f3c8 48bf 98c8 7bbf
00000280: f9f9 7e3d e012 6dbe 53ed bdbe e762 bdbe
00000290: 38d1 75be 93d6 99bc 9d3c 36be 198f 01bf
000002a0: 1413 d9be a74d 7ebe f14b 4ebe 7870 51be
000002b0: 9e3d 09bf bbb3 92bf b286 84bf d40b 433e
000002c0: d941 90bc a598 2d3e 1f89 edbe d4e7 8fbe
000002d0: 158b 34bd 8c40 c13b 177a c43b 4f68 80be
000002e0: d817 0bbd a87e c3be 29ce b9bd 683b 9f3c
000002f0: 0513 3abe 1d9b 9d3e 5912 4c3e c234 de3e
00000300: 1f7d e83d 7d5f 46be a580 bc3d 9661 843e
00000310: da71 7d3e 7ee8 bd3e c8a1 213e eaa5 923e
00000320: 1e42 223e 9352 2ebe bee6 25be 64de db3d
00000330: 366a 4d3e 9f81 ac3d 6c40 abbd e181 20be
00000340: b642 e4bd 85be 74bd 9d08 893e e3e3 d93d
00000350: 8963 003e f973 d93d 8685 923d af9d 2bbe
00000360: 3b09 aabe 23ae 59be e0a0 93be 3727 35be
00000370: 81e1 5bbe 71c6 ffbe 5f88 dbbe c9ef b0be
00000380: f2df 423c 23ec 00be f738 563d 58b6 773e
00000390: 3b48 a93e 1725 143f 12c9 38be 698f d93c
000003a0: 2aaf d93d 3ae2 3d3e 3434 c83e 8627 80be
000003b0: 9c17 22bd 1ce4 ecbc fbf9 623c f70c 843e
000003c0: 06a0 b6be 53d5 c3bd 34a3 adbd 29cb bb3c
000003d0: 4f37 963e fdf5 15bf b425 93be 4755 f7bd
000003e0: 3b72 afbd 6f20 d43d 1e1d 173f 13aa d83d
000003f0: c2b1 763d cf50 103f 1e08 493e 100f d53e

gru.weight_hh_l0 f4 [300, 100]
-0.4764889 -0.5187833 -0.33268237 -0.34748498 -0.20265156 -0.28919846 -0.16503698 0.40610242
-0.30233976 -0.10869712 0.4253533 0.037716437 -0.010411871 -0.09129518 -0.20368533 0.028352635
0.06744616 -0.16537233 -0.3495447 0.5927891 -0.060279578 -0.4363528 0.07241737 -0.1187527
-0.103006236 -0.4409585 -0.31580013 -0.03335877 -0.004738899 -0.059415333 -0.07399374 -0.6887886
0.17659132 0.11804069 -0.15292817 0.121048085 0.2538847 -0.21820983 0.09416652 -0.18906441
-0.011358937 0.021633364 0.4676545 -0.24116927 0.24714223 -0.2699924 -0.11555165 0.07673667
-0.20651193 -0.03344563 0.4152738 0.10909472 -0.1399685 -0.016297685 0.048822846 -0.1744207
-0.29215407 0.1654758 0.03472025 0.04329856 -0.06532854 -0.049410205 -0.08072466 -0.29088777
-0.10294279 -0.11189249 0.24199988 0.17598593 0.64990616 0.023880042 -0.10929261 -0.007532046
-0.037732247 -0.25324944 0.09436524 -0.1946312 0.7134873 0.08853533 0.0716485 0.028424954
-0.008778785 -0.10272034 -0.08192956 0.09286586 -0.001524638 -0.17930222 0.016119814 -0.032335002
0.060967177 -0.00013738211 0.06832615 0.29182854 0.08753114 0.15243804 -0.083541244 0.1005849
-0.1526204 0.1495483 -0.09207961 -0.2603372 0.11363944 -0.43839118 -0.53655 -0.16091731
-0.22952083 0.5916245 -0.45253953 0.13454048 -0.39804453 -0.3684146 0.61403215 -0.30526352
-0.3311688 0.49308118 -0.30717006 -0.21381357 0.12080731 0.019724647 -0.15188505 -0.05151318
0.09572002 -0.35545748 -0.30764383 -0.12242733 -0.4599645 -0.46183634 0.08025439 -0.22908585
0.022767115 -0.27655062 0.6871289 0.08736426 0.35699293 -0.09483726 0.14386074 -0.12713027
-0.15439524 -0.3384166 -0.76857466 -0.45918489 0.08351626 0.50915664 -0.26995444 -0.191861
0.009948061 -0.29608372 -0.06684522 -0.05278889 0.19253968 0.10544478 0.12612481 -0.3975246
-0.13881375 -0.2949064 -0.2034763 -0.14780715 -0.0980407 -0.45602575 -0.03265388 -0.23521769
-0.42920068 -0.65339386 0.07197456 0.47384378 -0.27217165 0.38692945 -0.07486228 -0.048819903
0.20521966 0.1885285 -0.037284166 0.12044412 0.32326436 0.12117258 -0.071385905 -0.22798397
-0.063978486 -0.25590277 -0.2444488 -0.44478086 -0.47133532 -0.15305294 0.20494501 0.1815579
-0.0369469 -0.071744904 -0.10877924 -0.07399622 0.25123325 -0.44589844 0.14292878 0.31880027
-0.5418053 0.19196737 -0.10909414 -0.108811244 0.03044905 -0.09979056 0.27253735 -0.20623274
-0.11643829 0.014075954 0.3607276 0.019526102 -0.23173031 0.3148809 0.12002296 0.060481943
-0.037112303 -0.027533263 -0.22259337 0.26929572 0.19690968 -0.039166845 0.09808035 -0.07461424
0.17898437 0.024411745 0.52129143 0.0065326425 0.011793718 0.16526762 -0.06595268 0.11166925
0.47627977 -0.77110434 -0.14285697 -0.0410301 0.07369511 0.004298779 -0.008370148 0.20295197
-0.10623352 0.016830944 -0.100348726 0.009582997 0.0059121023 -0.009107249 -0.020092655 0.15866831
-0.23949005 0.008739165 -0.18959792 -0.22050129 -0.1606367 0.15060578 -0.0658805 -0.17894232
0.019531732 -0.0050743567 -0.08081853 0.6575962 0.1532235 0.20515196 0.2077971 0.1280843
00000000: 5af6 f3be fbce 04bf 5855 aabe 8de9 b1be
00000010: e483 4fbe d211 94be 74ff 28be a8ec cf3e
00000020: 47cc 9abe 989c debd e8c7 d93e 8d7c 1a3d
00000030: 8d96 2abc f8f8 babd e392 50be c943 e83c
00000040: 3621 8a3d 5d57 29be 86f7 b2be 07c1 173f
00000050: b8e7 76bd a269 dfbe 8f4f 943d 9e34 f3bd
00000060: eff4 d2bd 50c5 e1be 8eb0 a1be 35a3 08bd
00000070: c448 9bbb 7e5d 73bd 088a 97bd 7354 30bf
00000080: 5bd4 343e 51bf f13d 3499 1cbe 0fe8 f73d
00000090: 2dfd 813e 6672 5fbe 60da c03d 1a9a 41be
000000a0: d61a 3abc 7438 b13c 6970 ef3e 14f5 76be
000000b0: da12 7d3e 723c 8abe 58a6 ecbd 1e28 9d3d
000000c0: dd77 53be 49fe 08bd c49e d43e 0d6d df3d
000000d0: e753 0fbe b982 85bc 77fa 473d 579b 32be
000000e0: 3895 95be 7d72 293e d236 0e3d d559 313d
000000f0: f8ca 85bd 5b62 4abd f852 a5bd 3eef 94be
00000100: abd3 d2bd e427 e5bd d1ce 773e a835 343e
00000110: 4060 263f 14a0 c33c ced4 dfbd 62cf f6bb
00000120: 218d 1abd e9a9 81be 9042 c13d 674d 47be
00000130: 1ba7 363f 0352 b53d 73bc 923d 73db e83c
00000140: e5d4 0fbc 0b5f d2bd afca a7bd 7530 be3d
00000150: 5dd6 c7ba 009b 37be b30d 843c b571 04bd
00000160: b8b8 793d 3b0e 10b9 95ee 8b3d 8d6a 953e
00000170: 8743 b33d b818 1c3e ac17 abbd 75ff cd3d
00000180: 8648 1cbe 3123 193e 3c94 bcbd eb4a 85be
00000190: cbbb e83d cf74 e0be 575b 09bf 82c7 24be
000001a0: 8207 6bbe b474 173f 43b3 e7be fbc4 093e
000001b0: 7ecc cbbe d7a0 bcbe 3631 1d3f 804b 9cbe
000001c0: f58e a9be 2375 fc3e 6545 9dbe f2f1 5abe
000001d0: d369 f73d 9595 a13c c187 1bbe 7cff 52bd
000001e0: dc08 c43d 86fe b5be 7e83 9dbe 2ebb fabd
000001f0: 7880 ebbe d075 ecbe 6a5c a43d 7b95 6abe
00000200: 1a82 ba3c 0b98 8dbe aee7 2f3f 08ec b23d
00000210: c7c7 b63e 0a3a c2bd 3b50 133e 702e 02be
00000220: c919 1ebe f144 adbe 4fc1 44bf 481a ebbe
00000230: 930a ab3d 1758 023f 7837 8abe 3677 44be
00000240: 31fd 223c 4998 97be 26e6 88bd 2a39 58bd
00000250: 1f29 453e 6ff3 d73d dd26 013e 5888 cbbe
00000260: 3125 0ebe f9fd 96be 175c 50be c25a 17be
00000270: 90c9 c8bd 357c e9be 13c0 05bd e8dc 70be
00000280: 31c0 dbbe d244 27bf 6667 933d a79b f23e
00000290: 155a 8bbe 9e1b c63e 6551 99bd 61f7 47bd
000002a0: 1a25 523e 9d0d 413e 48b7 18bd 68ab f63d
000002b0: e882 a53e 5429 f83d c632 92bd a174 69be
000002c0: 2707 83bd b005 83be c950 7abe 51ba e3be
000002d0: dd52 f1be e9b9 1cbe 1bdd 513e 50ea 393e
000002e0: a255 17bd feee 92bd a6c7 debd 558b 97bd
000002f0: a5a1 803e cd4c e4be ec5b 123e ca39 a33e
00000300: c1b3 0abf 1893 443e c06c dfbd 6ed8 debd
00000310: 4970 f93c fe5e ccbd 048a 8b3e ad2e 53be
00000320: 3377 eebd d59e 663c 4ab1 b83e 34f5 9f3c
00000330: b64a 6dbe 1238 a13e 99ce f53d eabb 773d
00000340: 1203 18bd 708d e1bc 84ef 63be 21e1 893e
00000350: b1a2 493e 6a6d 20bd 5ade c83d 5acf 98bd
00000360: ae47 373e 24fb c73c 5b73 053f c70f d63b
00000370: 703a 413c ea3b 293e 3312 87bd d9b2 e43d
00000380: f1da f33e 1867 45bf 1949 12be 2e0f 28bd
00000390: 76ed 963d c6dc 8c3b f222 09bc a4d2 4f3e
000003a0: f690 d9bd 0ce1 893c a283 cdbd 0102 1d3c
000003b0: 4fba c13b 9236 15bc 5a99 a4bc f279 223e
000003c0: e13c 75be b72e 0f3c f525 42be 17cb 61be
000003d0: f27d 24be 6738 1a3e 5bec 86bd a83c 37be
000003e0: 0301 a03c ca46 a6bb 2f84 a5bd 3958 283f
000003f0: 9fe6 1c3e 5b13 523e c3c8 543e 8828 033e

gru.bias_ih_l0 f4 [300]
0.02018957 -0.1239222 -0.21642679 -0.23561236 -0.070877805 -0.090520896 -0.046528876 -0.06508274
0.1769872 -0.15662518 0.06065218 -0.18323103 -0.11665421 -0.1418492 -0.020195482 -0.14417379
0.09838863 -0.21183863 0.030841291 -0.022440927 -0.28656462 -0.20304699 -0.18533207 -0.12722418
-0.042076387 0.09368051 -0.17468041 -0.17207536 -0.1906621 -0.076956816 -0.12002161 -0.3681823
0.04935519 -0.14570326 -0.20238738 -0.27169868 -0.3467637 -0.16092165 -0.021625623 -0.16678621
-0.11877518 0.09532279 0.2535304 -0.0012149188 -0.04249903 -0.104061246 -0.2360146 -0.15092514
-0.14431973 -0.17784911 -0.22471493 -0.18847191 -0.1660625 -0.25887334 -0.2551975 -0.19073129
-0.053882327 -0.261979 0.056036483 -0.19428287 -0.3865824 0.003252306 -0.11442906 -0.17330907
-0.06989354 -0.05585074 -0.16961463 -0.1603428 -0.13856901 -0.22455163 0.107585624 -0.16543165
-0.046442844 -0.0698043 -0.00014978678 0.04221339 0.14003885 0.017166518 -0.028841924 -0.24432665
0.0616407 -0.08722976 -0.21516983 -0.19388527 -0.11990973 -0.4178777 -0.19830886 -0.1631023
-0.09158247 -0.13817495 0.049382243 -0.0546989 -0.12600043 -0.09367904 -0.03311387 -0.03835533
-0.18047056 -0.14122368 -0.13196187 -0.20219584 0.08060487 0.059339717 0.42990252 0.13990875
0.3893415 0.18776259 0.39926058 0.13726248 -0.12618506 0.18700796 0.37014624 0.37917545
0.40458193 0.3153425 0.17785883 0.18872873 0.57124794 0.11688099 -0.08606221 0.28591803
0.51253164 0.110201016 0.38240838 0.14573078 0.3868947 -0.25951132 0.22761323 0.20715632
0.27225673 0.1664171 0.37453747 0.12171387 0.37853375 0.11697453 0.3313075 0.2668057
0.17811157 0.51907605 0.27385023 0.24639934 0.07815696 0.2531686 -0.10270862 0.22181745
0.29712993 0.3134757 0.14247924 0.24371612 0.02018844 0.42026016 0.19114564 0.4130816
0.3452108 0.1508998 0.39466557 0.14114913 0.25347856 0.30754155 0.30337065 0.2314348
0.25764364 0.21225856 -0.028667847 0.17641182 0.0069645867 0.29268777 0.031368244 -0.067252904
0.06060451 0.025210226 0.40484405 0.28372076 0.34671262 0.008105562 0.50026137 0.18058152
-0.032139435 0.24624553 0.37416914 0.3996167 0.18403636 0.47387472 -0.05985945 0.37791544
0.08664409 0.2079206 0.04226086 0.21753848 0.337615 0.37431678 0.38182127 0.36584634
0.4104727 0.010607057 0.3862589 0.19319922 0.25574425 -0.0017343462 0.41149104 0.3649248
0.44477764 -0.07447696 -0.065528154 -0.05797086 0.024478935 0.17140563 -0.018714856 -0.08083714
0.25071698 0.030366777 -0.015378405 -0.15081844 0.066128515 0.12994823 0.036411073 0.05161502
-0.10421785 0.21394627 0.32120198 -0.28687075 0.26533642 -0.14633429 0.023477696 -0.0033558551
-0.1181044 -0.13750248 0.10919469 -0.08544871 -0.06378201 0.05652959 0.14798541 0.06102104
-0.049632724 -0.17007327 0.13957497 -0.14932138 0.027743995 0.20546412 -0.029064007 0.11911409
-0.20484462 -0.13756867 -0.23177896 0.23206551 0.2515277 0.093834765 -0.009322108 -0.15716743
0.34885332 0.011348314 -0.18739633 -0.06842414 0.053957548 -0.100820445 -0.13906041 0.42326155
00000000: 9964 a53c ecca fdbd fc9e 5dbe 5e44 71be
00000010: 6228 91bd 0563 b9bd 1095 3ebd 194a 85bd
00000020: 223c 353e 5a62 20be 6c6e 783d eaa0 3bbe
00000030: 67e8 eebd eb40 11be ff70 a5bc 4ba2 13be
00000040: fa7f c93d 3aec 58be e0a6 fc3c 09d6 b7bc
00000050: 99b8 92be 8deb 4fbe b1c7 3dbe 0e47 02be
00000060: 4a58 2cbd 91db bf3d 6cdf 32be 8634 30be
00000070: ed3c 43be 899b 9dbd e4cd f5bd 6482 bcbe
00000080: ab28 4a3d 3c33 15be a33e 4fbe 171c 8bbe
00000090: 038b b1be a5c8 24be 3828 b1bc 01ca 2abe
000000a0: 6740 f3bd 9838 c33d bdce 813e e93d 9fba
000000b0: 7613 2ebd 101e d5bd d0ad 71be 1f8c 1abe
000000c0: 8dc8 13be 141e 36be ac1b 66be c8fe 40be
000000d0: 4a0c 2abe 0c8b 84be 3fa9 82be 104f 43be
000000e0: b7b3 5cbd 1d22 86be 8386 653d 17f2 46be
000000f0: 21ee c5be a424 553b c859 eabd ef77 31be
00000100: 5824 8fbd bfc3 64bd 75af 2dbe e730 24be
00000110: 09e5 0dbe ddf0 65be da55 dc3d ea66 29be
00000120: da3a 3ebd 8ff5 8ebd 1510 1db9 f3e7 2c3d
00000130: 5866 0f3e cca0 8c3c e645 ecbc c430 7abe
00000140: f57a 7c3d 84a5 b2bd 7b55 5cbe dc89 46be
00000150: 3c93 f5bd 11f4 d5be 7a11 4bbe 4a04 27be
00000160: 978f bbbd bc7d 0dbe 0945 4a3d f40b 60bd
00000170: 4206 01be ccda bfbd 69a2 07bd 7a1a 1dbd
00000180: 46cd 38be f19c 10be 0321 07be 6d0c 4fbe
00000190: 2b14 a53d 340e 733d 2f1c dc3e 3d44 0f3e
000001a0: c557 c73e d644 403e e26b cc3e 898e 0c3e
000001b0: a836 01be 047f 3f3e cf83 bd3e 4923 c23e
000001c0: 5d25 cf3e 9274 a13e a020 363e 1b42 413e
000001d0: 4e3d 123f 4d5f ef3d 6241 b0bd d963 923e
000001e0: 4635 033f 12b1 e13d 08cb c33e 733a 153e
000001f0: 1017 c63e abde 84be 7113 693e c920 543e
00000200: 3c65 8b3e 3f69 2a3e 60c3 bf3e 1f45 f93d
00000210: 2dcf c13e 5890 ef3d 23a1 a93e c29a 883e
00000220: e162 363e 2be2 043f 1936 8c3e 1c50 7c3e
00000230: c210 a03d 519f 813e e658 d2bd 1d24 633e
00000240: 6a21 983e e37f a03e 14e6 113e b890 793e
00000250: 3a62 a53c 572c d73e afbb 433e 6e7f d33e
00000260: 78bf b03e 7a85 1a3e 9b11 ca3e 6689 103e
00000270: f1c7 813e 1676 9d3e 6653 9b3e 3ffd 6c3e
00000280: dee9 833e 4f5a 593e d5d8 eabc 4da5 343e
00000290: 3037 e43b 2cdb 953e fd7b 003d e4bb 89bd
000002a0: 6f3c 783d ad85 ce3c b847 cf3e d943 913e
000002b0: 5184 b13e 31cd 043c 2111 003f 5dea 383e
000002c0: a4a4 03bd ca27 7c3e 1993 bf3e 8f9a cc3e
000002d0: 0774 3c3e b59f f23e 2f2f 75bd 227e c13e
000002e0: 7572 b13d 23e9 543e b919 2d3d 68c2 5e3e
000002f0: e0db ac3e 73a6 bf3e 147e c33e 3650 bb3e
00000300: 7a29 d23e 39c9 2d3c bac3 c53e 04d6 453e
00000310: e9f0 823e 0053 e3ba f4ae d23e 6cd7 ba3e
00000320: e5b9 e33e 6087 98bd a033 86bd da72 6dbd
00000330: 0c88 c83c f584 2f3e e64f 99bc f18d a5bd
00000340: fa5d 803e bfc3 f83c b5f5 7bbc 2670 1abe
00000350: 636e 873d 2611 053e c723 153d 456a 533d
00000360: 2b70 d5bd bb14 5b3e 9674 a43e b9e0 92be
00000370: 2dda 873e a8d8 15be 4c54 c03c e8ed 5bbb
00000380: b8e0 f1bd 73cd 0cbe 77a1 df3d bcff aebd
00000390: 24a0 82bd 928b 673d 7d89 173e 33f1 793d
000003a0: af4b 4bbd b027 2ebe beec 0e3e b4e7 18be
000003b0: 6047 e33c 3065 523e a417 eebc 17f2 f33d
000003c0: cac2 51be cdde 0cbe 7757 6dbe 95a2 6d3e
000003d0: 3dc8 803e 712c c03d c1bb 18bc 80f0 20be
000003e0: e79c b23e 47ee 393c d3e4 3fbe f521 8cbd
000003f0: 9702 5d3d f37a cebd da65 0ebe bdb5 d83e

gru.bias_hh_l0 f4 [300]
0.041331388 -0.09339317 -0.2138168 -0.22801253 -0.06823294 -0.07880445 -0.017736163 -0.046702325
0.17278007 -0.17530334 0.07145196 -0.20209461 -0.114989445 -0.18796502 -0.03784976 -0.15421264
0.08616225 -0.21763878 0.046706192 0.016634382 -0.2944926 -0.18541305 -0.16536841 -0.12297163
-0.05432395 0.05925413 -0.15770541 -0.14515944 -0.21120344 -0.11493914 -0.13371375 -0.35767207
0.04431964 -0.13127871 -0.23406631 -0.24650724 -0.32250887 -0.18535952 -0.027138222 -0.15236978
-0.13838264 0.08326549 0.25859526 0.012501949 -0.08697308 -0.081107676 -0.26612207 -0.18000026
-0.13634118 -0.17225038 -0.25436977 -0.1718367 -0.12052373 -0.27967128 -0.28332892 -0.1931773
-0.076800585 -0.23434477 0.01209272 -0.15400028 -0.36757085 -0.04523944 -0.110360056 -0.20238566
-0.09720712 -0.04981322 -0.17165668 -0.18851365 -0.09610676 -0.21753213 0.11028353 -0.15306652
-0.056127314 -0.091613874 0.03168315 0.03905797 0.15271546 0.03374319 -0.030007578 -0.24531619
0.059436154 -0.1176444 -0.24310054 -0.19696161 -0.09906302 -0.454382 -0.20825265 -0.16331406
-0.09911428 -0.14050788 0.09788057 -0.046536382 -0.14086322 -0.11785894 -0.059000693 -0.077253155
-0.17754477 -0.12615569 -0.09759407 -0.16167496 0.07932986 0.047370672 0.3831371 0.17239152
0.42911282 0.15815023 0.38810572 0.17421249 -0.12720695 0.18760021 0.3577595 0.36211035
0.37864277 0.32173288 0.18141967 0.21571304 0.52312285 0.14157607 -0.0758644 0.33298457
0.4778582 0.1037605 0.3761014 0.12860565 0.40588123 -0.28682056 0.22714147 0.21347502
0.2989948 0.16806914 0.38600248 0.10915153 0.39434937 0.1172707 0.38246128 0.27107722
0.15007892 0.51118463 0.2690023 0.22779623 0.09645459 0.23072566 -0.08199 0.23575546
0.29199278 0.31449613 0.16543648 0.2147463 -0.0064066234 0.43113178 0.16032912 0.40369013
0.32078227 0.14891098 0.37978843 0.13435818 0.21925361 0.31532153 0.29458374 0.24390952
0.27206162 0.23427193 -0.030047989 0.21780849 -0.015787406 0.28358844 0.0320252 -0.087874025
0.06342636 0.0039292187 0.37115142 0.2766903 0.36249763 -0.025074782 0.50936687 0.17312363
-0.016900789 0.21500139 0.38263312 0.44120586 0.14563583 0.47411484 -0.059715606 0.3366505
0.12590088 0.2123941 0.03425576 0.24220638 0.29193738 0.35462987 0.4013045 0.3644249
0.43709722 0.021819204 0.36363217 0.20871262 0.26763475 -0.008955439 0.3787015 0.346488
0.18522254 -0.030400276 -0.07171734 -0.18474354 0.1483269 0.37747025 -0.005934506 -0.0632155
0.4972896 0.056506045 0.011435779 -0.25092933 0.19466048 0.020998808 0.27772427 0.29408094
-0.29723814 0.0545258 0.29836145 -0.41495824 0.15009835 0.08205306 0.046129692 0.03284693
-0.22138707 -0.045037214 0.15677352 -0.063592054 0.10003342 0.33706117 0.20983873 0.13175872
-0.04841228 -0.2261964 0.24396962 -0.22846748 0.041140933 0.24718472 0.065652676 0.06788268
-0.0145334415 -0.046969905 -0.57303053 0.2563545 0.4492128 0.045000337 -0.10676408 -0.3093357
0.33841193 0.056822445 -0.14530095 0.0032744843 0.08740986 0.09390152 0.018907536 0.20498496
00000000: 1a4b 293d eb44 bfbd cbf2 5abe 1e7c 69be
00000010: b6bd 8bbd 3a64 a1bd 6e4b 91bc f04a 3fbd
00000020: 42ed 303e b882 33be 6855 923d e4f1 4ebe
00000030: 967f ebbd e779 40be 5a08 1bbd ebe9 1dbe
00000040: d575 b03d b3dc 5ebe fe4e 3f3d d444 883c
00000050: bcc7 96be ebdc 3dbe 5656 29be 8dd8 fbbd
00000060: ca82 5ebd 75b4 723d 877d 21be ada4 14be
00000070: b745 58be 3665 ebbd 42ec 08be cb20 b7be
00000080: 8388 353d ed6d 06be 14af 6fbe 656c 7cbe
00000090: e21f a5be e3ce 3dbe fa50 debc d306 1cbe
000000a0: 2eb4 0dbe 1987 aa3d 9966 843e fad4 4c3c
000000b0: f11e b2bd c81b a6bd 2741 88be fd51 38be
000000c0: 069d 0bbe 6762 30be c13c 82be f6f5 2fbe
000000d0: 25d5 f6bd 1331 8fbe 7d10 91be 45d0 45be
000000e0: a049 9dbd 13f8 6fbe 8b20 463c 40b2 1dbe
000000f0: 3f32 bcbe fe4c 39bd 7404 e2bd 303e 4fbe
00000100: 8714 c7bd f208 4cbd c5c6 2fbe b909 41be
00000110: 9fd3 c4bd bec0 5ebe 55dc e13d 78bd 1cbe
00000120: c1e5 65bd 0ea0 bbbd 31c6 013d 40fb 1f3d
00000130: 7161 1c3e 4d36 0a3d 74d2 f5bc 2b34 7bbe
00000140: 5373 733d 8cef f0bd 59ef 78be 4eb0 49be
00000150: 8de1 cabd c2a4 e8be 2f40 55be cd3b 27be
00000160: 6dfc cabd 4ce1 0fbe 9c75 c83d ef9c 3ebd
00000170: 733e 10be 0760 f1bd b6aa 71bd e736 9ebd
00000180: 4cce 35be f52e 01be 66df c7bd 1f8e 25be
00000190: b277 a23d c007 423d 8c2a c43e 6787 303e
000001a0: adb4 db3e 22f2 213e cbb5 c63e c264 323e
000001b0: 8a42 02be 451a 403e 412c b73e 8766 b93e
000001c0: 77dd c13e 2cba a43e 14c6 393e e1e3 5c3e
000001d0: 61eb 053f 51f9 103e cb5e 9bbd f47c aa3e
000001e0: d4a9 f43e 6380 d43d 5d90 c03e 33b1 033e
000001f0: aacf cf3e 25da 92be c697 683e 3299 5a3e
00000200: d915 993e 511a 2c3e 1ea2 c53e d68a df3d
00000210: 29e8 c93e 9f2b f03d f7d1 c33e a2ca 8a3e
00000220: 4aae 193e ffdc 023f abba 893e 6a43 693e
00000230: fc89 c53d 5943 6c3e 60ea a7bd e169 713e
00000240: 1480 953e a305 a13e 2e68 293e 74e6 5b3e
00000250: a7ee d1bb 4ebd dc3e 512d 243e 79b0 ce3e
00000260: 933d a43e 1f7c 183e a173 c23e 3195 093e
00000270: 0584 603e d371 a13e aed3 963e 6bc3 793e
00000280: a94b 8b3e fbe4 6f3e 3327 f6bc 3009 5f3e
00000290: 9754 81bc 8132 913e db2c 033d 4cf7 b3bd
000002a0: aee5 813d adc0 803b 8f07 be3e 5aaa 8d3e
000002b0: 4a99 b93e a169 cdbc de65 023f 5247 313e
000002c0: 8673 8abc 5329 5c3e 7de8 c33e bce5 e13e
000002d0: 8f21 153e 2ebf f23e 5a98 74bd 745d ac3e
000002e0: 29ec 003e d77d 593e c54f 0c3d f304 783e
000002f0: d178 953e 0c92 b53e c977 cd3e e795 ba3e
00000300: 35cb df3e 30be b23c ff2d ba3e c3b8 553e
00000310: 6c07 893e d5b9 12bc 2ae5 c13e e066 b13e
00000320: faaa 3d3e 000a f9bc 8ae0 92bd 692d 3dbe
00000330: 02e3 173e c843 c13e 3f76 c2bb 2177 81bd
00000340: be9c fe3e e272 673d 225d 3b3c cf79 80be
00000350: 1455 473e b105 ac3c e031 8e3e c791 963e
00000360: 992f 98be 7256 5f3d d5c2 983e 6875 d4be
00000370: 62b3 193e 6f0b a83d 7df2 3c3d 818a 063d
00000380: 4bb3 62be f178 38bd 3d89 203e 8d3c 82bd
00000390: 52de cc3d 4893 ac3e f7df 563e c2eb 063e
000003a0: f44b 46bd 07a0 67be 2cd3 793e 61f3 69be
000003b0: 6583 283d fe1d 7d3e e974 863d 1306 8b3d
000003c0: ac1d 6ebc 8463 40bd 21b2 12bf e640 833e
000003d0: 38ff e53e 4652 383d 20a7 dabd 4061 9ebe
000003e0: 5444 ad3e a7be 683d c6c9 14be bb98 563b
000003f0: f103 b33d 714f c03d fae3 9a3c 94e7 513e

dense_output.0.weight f4 [100, 100]
-0.045910716 -0.20702036 0.13074449 0.13823463 0.3538759 -0.008444155 -0.051773496 0.13650006
-0.37734696 -0.06931913 -0.2820171 0.025602903 -0.09533992 0.31015652 -0.2254118 -0.18431094
0.23824114 -0.3383137 0.21296011 -0.10675358 0.33874878 0.046711095 -0.14858687 -0.18544108
0.050492354 0.0088032475 0.10797885 -0.18533961 0.11568127 -0.13017009 -0.044374693 -0.20968121
-0.3217355 0.23013896 0.021963492 -0.031669617 -0.17663412 0.12901142 0.019746881 -0.13815734
-0.11292049 0.05913736 0.20186122 -0.03442936 -0.1713963 -0.3436687 0.092894055 0.10461449
-0.2807184 -0.042390827 0.042571895 0.027012827 -0.025552038 0.029864537 -0.13694413 0.021433413
0.04978014 -0.22480424 0.19333301 0.026440298 -0.20610827 -0.09159004 0.0043276134 0.22287735
0.31384066 0.041003708 -0.054232527 -0.027307976 -0.034319866 -0.05568358 0.4703029 0.013440928
-0.19849864 -0.006550452 -0.3003672 -0.10483612 -0.0082623605 -0.2049229 -0.25225434 0.19051237
-0.15274067 0.17570047 0.042494904 0.11808969 0.20536856 0.047615875 -0.173518 0.23440138
0.033834875 0.15470426 0.04799619 0.3533518 0.12561479 -0.19165662 0.22202738 -0.29819518
0.002300638 0.012092923 -0.06152858 -0.20448914 0.06097251 0.006685683 0.039282914 -0.095280685
0.08592595 -0.0107745705 0.08309919 -0.013925082 0.019965662 0.011402914 0.013822332 0.013472557
-0.037781432 0.104809515 -0.011401651 -0.16474046 0.20427288 -0.06363326 -0.03190462 -0.07982439
-0.04170507 0.04006499 0.022956904 0.059480745 0.011659149 -0.010509313 -0.028098488 0.10272469
-0.0148397265 -0.06004772 -0.0076985387 -0.01319814 -0.12475625 0.071229175 0.016947947 0.108362444
-0.006608854 0.052664477 0.14305033 -0.09486345 -0.04572698 0.04506903 -0.12365031 -0.05294042
-0.033102803 -0.027527604 0.08565801 0.15181626 -0.074792765 0.020514853 0.038747314 0.055227768
0.092209816 -0.0035349943 -0.023409877 -0.05675074 -0.0856584 -0.009272565 0.13604727 -0.024088154
0.0932924 -0.059039906 -0.10152205 -0.011185293 -0.023038378 -0.02991436 0.10186932 -0.014719991
0.0103020435 -0.12629229 0.10844826 -0.0029071178 -0.034560304 0.031403087 -0.057260018 -0.11703348
-0.011377386 0.04371312 -0.07641095 0.03358422 -0.044202574 0.10430124 0.011295556 0.058677543
-0.089945525 -0.055688974 -0.04439226 0.009180046 0.05757458 0.057828512 0.029112421 -0.013132191
-0.06834203 0.008232192 0.057451732 -0.02459102 0.04062277 -0.0106283855 -0.08673255 0.2176784
0.08694333 -0.2391927 0.011793553 0.11753126 -0.07390832 0.07922933 0.0033770278 0.04904479
0.1585184 0.05203342 0.1654171 -0.060354907 -0.094043694 0.2949567 -0.08691055 -0.19043136
0.2657494 0.08194342 -0.20837419 -0.05469755 0.036284138 0.014806756 0.06555785 0.102541715
0.15900601 0.0032725143 -0.17908727 -0.0755274 0.024350636 -0.016918462 -0.13017279 0.0091713015
-0.11069201 -0.14693268 0.13142999 0.118791275 0.14545335 0.025359698 0.19804059 -0.27311605
0.13549484 0.09357215 -0.114227384 0.16982137 -0.1441326 -0.26651332 0.2255547 0.10546745
0.0016167078 -0.027185189 -0.06280166 0.06625783 -0.009577336 0.12801448 -0.124212235 -0.19277638
00000000: e00c 3cbd 25fd 53be e2e1 053e 618d 0d3e
00000010: 392f b53e 5a59 0abc 7210 54bd acc6 0b3e
00000020: 9f33 c1be 30f7 8dbd 8c64 90be 2ebd d13c
00000030: 9341 c3bd d6cc 9e3e 5ad2 66be 02bc 3cbe
00000040: 7cf5 733e 7437 adbe 3712 5a3e 9fa1 dabd
00000050: 7b70 ad3e 2254 3f3d 2827 18be 44e4 3dbe
00000060: 12d1 4e3d 7f3b 103c 0424 dd3d abc9 3dbe
00000070: 4dea ec3d 4f4b 05be 3dc2 35bd acb6 56be
00000080: 84ba a4be 8ca9 6b3e c8ec b33c 00b8 01bd
00000090: 93df 34be 921b 043e 36c4 a13c 1e79 0dbe
000000a0: dc42 e7bd 043a 723d b5b4 4e3e cd05 0dbd
000000b0: 8382 2fbe 58f5 afbe 3d3f be3d 1f40 d63d
000000c0: 52ba 8fbe 01a2 2dbd de5f 2e3d 014a dd3c
000000d0: 8252 d1bc 79a6 f43c 153b 0cbe 2095 af3c
000000e0: 43e6 4b3d 1533 66be 17f9 453e 5399 d83c
000000f0: 0c0e 53be 8f93 bbbd a7ce 8d3b f639 643e
00000100: b9af a03e 81f3 273d ed22 5ebd fab4 dfbc
00000110: fd92 0cbd 7714 64bd 8bcb f03e 5737 5c3c
00000120: 3a43 4bbe 2da5 d6bb bbc9 99be 52b4 d6bd
00000130: da5e 07bc 4fd7 51be 7b27 81be ad15 433e
00000140: 0d68 1cbe d3ea 333e 230f 2e3d 02d9 f13d
00000150: 234c 523e dd08 433d b4ae 31be ea06 703e
00000160: 7096 0a3d cb6a 1e3e a797 443d 87ea b43e
00000170: 2aa1 003e a241 44be 255b 633e 0aad 98be
00000180: 4dc6 163b 6521 463c 6405 7cbd 9a65 51be
00000190: 50be 793d 9313 db3b 1fe7 203d 8522 c3bd
000001a0: f2f9 af3d d387 30bc e82f aa3d 0726 64bc
000001b0: 078f a33c 4ad3 3a3c 1077 623c 00bc 5c3c
000001c0: b4c0 1abd 5fa6 d63d fecd 3abc b9b1 28be
000001d0: e92c 513e 2852 82bd 6bae 02bd f87a a3bd
000001e0: efd2 2abd 301b 243d 1e10 bc3c 15a2 733d
000001f0: 0406 3f3c 412f 2cbc cd2e e6bc 5361 d23d
00000200: 5322 73bc 99f4 75bd 0644 fcbb 033d 58bc
00000210: 3480 ffbd 9ae0 913d 6cd6 8a3c 21ed dd3d
00000220: 168f d8bb b5b6 573d c97b 123e c547 c2bd
00000230: 374c 3bbd 4e9a 383d 603c fdbd 0ed8 58bd
00000240: ce96 07bd 9281 e1bc 776d af3d b975 1b3e
00000250: f32c 99bd c40e a83c 81b5 1e3d 8336 623d
00000260: 80d8 bc3d 5dab 67bb 12c6 bfbc 7773 68bd
00000270: ac6d afbd f5eb 17bc fa4f 0b3e 8554 c5bc
00000280: 1610 bf3d d4d3 71bd cbea cfbd 8542 37bc
00000290: fbba bcbc f60e f5bc dda0 d03d 1e2c 71bc
000002a0: e7c9 283c c452 01be 1f1a de3d 5885 3ebb
000002b0: 1b8f 0dbd 86a0 003d 7b89 6abd 40af efbd
000002c0: 3768 3abc 870c 333d 587d 9cbd 9b8f 093d
000002d0: c20d 35bd e39b d53d ff10 393c dd57 703d
000002e0: 5c35 b8bd 1f1a 64bd a9d4 35bd e767 163c
000002f0: 53d3 6b3d 97dd 6c3d 2c7d ee3c 6728 57bc
00000300: e8f6 8bbd 51e0 063c 8252 6b3d 1b73 c9bc
00000310: 1064 263d ae22 2ebc d6a0 b1bd 16e7 5e3e
00000320: 580f b23d eeee 74be bf39 413c 3bb4 f03d
00000330: 3f5d 97bd fd42 a23d 2051 5d3b 31e3 483d
00000340: a652 223e ff20 553d 1a63 293e b536 77bd
00000350: fb99 c0bd 9104 973e 29fe b1bd 7000 43be
00000360: 4e10 883e f4d1 a73d 0b60 55be 8a0a 60bd
00000370: ad9e 143d 0998 723c 3243 863d 6401 d23d
00000380: 79d2 223e ae77 563b a762 37be 1cae 9abd
00000390: fc7a c73c 9698 8abc 044c 05be 3a43 163c
000003a0: 7eb2 e2bd 8575 16be 9595 063e d748 f33d
000003b0: b9f1 143e 24bf cf3c 27cb 4a3e ded5 8bbe
000003c0: 29bf 0a3e c1a2 bf3d 0cf0 e9bd a7e5 2d3e
000003d0: 7f97 13be 6f74 88be d0f7 663e 52ff d73d
000003e0: b6e7 d33a 79b3 debc 289e 80bd 2fb2 873d
000003f0: 42ea 1cbc 3a16 033e fc62 febd 2c67 45be

dense_output.0.bias f4 [100]
-0.2743864 -0.18706688 -0.18807985 -0.18651152 -0.17946975 -0.18373229 -0.30071384 -0.09798746
-0.1556319 -0.033107694 -0.12436689 -0.14545344 0.3368065 -0.09400624 -0.14802872 -0.09231003
-0.35698605 -0.068415284 -0.0847626 -0.12095756 -0.08563592 -0.03774163 -0.057397664 -0.288238
0.0793934 -0.055368565 -0.1004263 -0.15724787 -0.053003084 -0.18712837 -0.16317526 -0.058587447
-0.05288843 -0.1941311 -0.091424905 -0.047330454 -0.13537191 -0.268438 -0.2111723 -0.08523826
-0.088523 -0.09936114 -0.09908955 -0.21067043 -0.19052212 -0.18291135 -0.17847769 -0.2175189
-0.23410386 -0.114332505 -0.085850306 -0.11955512 -0.1115291 -0.1700157 0.19847968 -0.11582901
-0.1237631 -0.37807372 -0.21904275 -0.13744846 -0.09529726 -0.021131339 -0.21133962 -0.10539209
-0.18418576 -0.050789773 -0.29945123 -0.20027043 -0.11733454 -0.2143592 -0.0901096 -0.18542482
0.044792823 -0.19732898 -0.15737519 -0.22662753 -0.063247785 -0.09919654 -0.117930256 -0.20389779
-0.08985787 -0.18527353 -0.30993676 -0.09446211 -0.03697838 -0.09964439 -0.07007596 -0.10264196
-0.098348975 -0.09023179 -0.13328697 -0.102320544 -0.11999265 -0.085114375 -0.03826819 -0.06516328
-0.04645194 -0.1831266 -0.08370059 -0.09834021
00000000: 607c 8cbe 768e 3fbe 0198 40be e0fc 3ebe
00000010: ebc6 37be 5124 3cbe 2af7 99be a6ad c8bd
00000020: f85d 1fbe ef9b 07bd 11b4 febd bff1 14be
00000030: e771 ac3e 5886 c0bd d794 17be 0a0d bdbd
00000040: e0c6 b6be 501d 8cbd 0498 adbd 99b8 f7bd
00000050: e361 afbd f896 1abd d019 6bbd ee93 93be
00000060: 0299 a23d 26ca 62bd 4eac cdbd 9605 21be
00000070: c319 59bd 949e 3fbe 6a17 27be 64f9 6fbd
00000080: 8aa1 58bd 4eca 46be fb3c bbbd 94dd 41bd
00000090: ef9e 0abe b570 89be 8d3d 58be 6691 aebd
000000a0: 8c4b b5bd da7d cbbd 76ef cabd fdb9 57be
000000b0: 3b18 43be 1d4d 3bbe dbc2 36be 46bd 5ebe
000000c0: ecb8 6fbe 2927 eabd 49d2 afbd 51d9 f4bd
000000d0: 5e69 e4bd 9818 2ebe 423e 4b3e c337 edbd
000000e0: 8277 fdbd e192 c1be be4c 60be 4abf 0cbe
000000f0: 362b c3bd a11b adbc 6a69 58be cfd7 d7bd
00000100: 319b 3cbe f008 50bd ac51 99be b113 4dbe
00000110: 174d f0bd fa80 5bbe 628b b8bd 01e0 3dbe
00000120: ae78 373d 9c10 4abe f626 21be 0c11 68be
00000130: 0e88 81bd 8e27 cbbd 6b85 f1bd 95ca 50be
00000140: 6707 b8bd 58b8 3dbe 08b0 9ebe 5a75 c1bd
00000150: a476 17bd 5c12 ccbd fc83 8fbd f335 d2bd
00000160: 306b c9bd 72cb b8bd 617c 08be 6f8d d1bd
00000170: b5be f5bd 7250 aebd 1bbf 1cbd 5374 85bd
00000180: 6444 3ebd 8a85 3bbe 376b abbd 9866 c9bd

dense_output.3.weight f4 [1, 100]
-0.012662127 0.01130191 -0.04579551 0.023474248 -0.014354446 -0.025121087 -0.034237597 -0.021152718
-0.023951061 0.08026693 -0.0014230529 -0.017435294 0.10587666 0.0052203042 0.019165238 0.00025727367
-0.19680305 -0.0029855645 -0.0055020354 0.0071370527 -0.0023837856 -0.0032492804 0.009003205 -0.16475484
0.075726986 -0.009928991 0.0020036472 -0.005944589 0.0069818576 0.013252576 0.0043714615 -0.011113693
-0.0021911154 0.00723432 0.008025102 -0.01199549 -0.006819688 -0.037617154 -0.031242553 0.01176818
0.0156047065 0.021409042 -0.015000398 0.01906258 0.0047237813 -0.0033742916 -0.0027059554 -0.09212704
0.05261764 -0.0076748813 -0.0074948664 -0.024292141 -0.010526173 -0.016725034 0.03106287 0.0117132515
0.024450151 0.0030474751 0.09618552 -0.009172885 0.012783416 -0.06601085 -0.028294541 -0.020703856
0.00757045 -0.0017982766 -0.017102163 -0.007578951 0.007251607 -0.010355263 0.003332265 -0.045270946
0.031757426 -0.03865291 -0.0076757376 0.013184715 -0.001890466 -0.012491725 0.0043124366 0.0071578473
0.0009998606 0.06461813 -0.01995311 0.0023343894 0.0008480207 0.009600639 0.0076170494 -0.015735447
0.057338722 -0.004584802 -0.0023445892 0.0011323958 0.015963938 0.010201951 0.051493563 -0.010589916
-0.00912107 0.045680508 -0.0070760855 -0.014502163
00000000: cf74 4fbc a52b 393c 1394 3bbd 114d c03c
00000010: e92e 6bbc bdca cdbc b93c 0cbd 7748 adbc
00000020: 0435 c4bc fd62 a43d bb85 baba 76d4 8ebc
00000030: ddd5 d83d 160f ab3b 6b00 9d3c b0e2 8639
00000040: bd86 49be 76a9 43bb 6b4a b4bb f0dd e93b
00000050: 4939 1cbb e1f1 54bb 2e82 133c 7eb5 28be
00000060: c016 9b3d 35ad 22bc 9f4f 033b d4ca c2bb
00000070: 11c8 e43b 5521 593c 7a3e 8f3b 3516 36bc
00000080: d198 0fbb e00d ed3b b87b 033c bb88 44bc
00000090: b077 dfbb 7214 1abd 62f0 ffbc 53cf 403c
000000a0: e2aa 7f3c 0462 af3c 3bc4 75bc 2129 9c3c
000000b0: f3c9 9a3b 3823 5dbb 6656 31bb 1aad bcbd
000000c0: 9885 573d 927d fbbb 7f97 f5bb 5000 c7bc
000000d0: f875 2cbc f002 89bc 8f77 fe3c f0e8 3f3c
000000e0: af4b c83c 26b8 473b eafc c43d de49 16bc
000000f0: 8871 513c b230 87bd f4c9 e7bc 229b a9bc
00000100: 8a11 f83b 26b4 ebba d619 8cbc d958 f8bb
00000110: e39e ed3b 1fa9 29bc 2162 5a3b 076e 39bd
00000120: 1314 023d 8452 1ebd c184 fbbb b404 583c
00000130: 83c9 f7ba 18aa 4cbc 574f 8d3b 608c ea3b
00000140: c10d 833a 8356 843d b474 a3bc 8efc 183b
00000150: b54d 5e3a 004c 1d3c 7198 f93b a0e7 80bc
00000160: 02dc 6a3d 1b3c 96bb aea7 19bb e66c 943a
00000170: cec6 823c 1526 273c eaea 523d 5481 2dbc
00000180: 8a70 15bc 7c1b 3b3d 82de e7bb 7b9a 6dbc

exp_avg f4 [4, 1, 3, 3, 3]
0.00033283661 0.0004403433 0.0007466665 0.00026094296 0.0006656611 0.0015103858 0.0015023462 0.0020684137
0.0026790826 0.00045069258 0.0007251621 0.0009580862 0.00030591083 0.0009060128 0.0016789999 0.0012616735
0.001952914 0.002559405 0.0005657725 0.00092389795 0.0010392983 0.00042966972 0.0011862612 0.001849639
0.0010967006 0.0018404401 0.002326037 -0.0034524857 -0.0041743615 -0.0063770665 -0.0062984815 -0.0065007415
-0.008709238 -0.0067976178 -0.0064349654 -0.008163693 -0.003488096 -0.003964459 -0.006389709 -0.0062095057
-0.0063401 -0.008930934 -0.006781611 -0.006536669 -0.008329656 -0.0036466634 -0.003894516 -0.006254007
-0.0063718385 -0.0063880957 -0.008882785 -0.0071114437 -0.006960746 -0.008447162 -0.0013273521 -0.0015565173
-0.0011247424 -0.0011660698 -0.001550305 -0.0012989697 -0.0014427018 -0.0014274598 -0.0012501697 -0.0012572422
-0.0014693451 -0.00097038865 -0.0012434163 -0.0014760622 -0.0013049969 -0.0014771331 -0.0013680584 -0.0013233202
-0.0011937041 -0.0013346734 -0.00083409343 -0.0013752155 -0.0014515264 -0.001233671 -0.001707645 -0.0013943438
-0.0013512416 0.0022307201 0.0014565218 0.0007485156 0.0034431568 0.002509315 0.001680487 0.0032033005
0.0025574644 0.0016692643 0.002168406 0.0013463736 0.00068659225 0.0035891568 0.0026692627 0.0018973225
0.0036384964 0.0026981062 0.0019821436 0.0017875102 0.0010506219 0.00036063726 0.0035024406 0.0024644553
0.0017674025 0.0036541147 0.0026889148 0.0019639097
00000000: 9380 ae39 e1dd e639 f1bb 433a 2ccf 8839
00000010: c37f 2e3a 23f8 c53a 60ea c43a 398e 073b
00000020: 8c93 2f3b ef4a ec39 ce18 3e3a 1428 7b3a
00000030: a862 a039 7d81 6d3a e311 dc3a bd5e a53a
00000040: ecf8 ff3a b1bb 273b 5a50 143a be31 723a
00000050: 1039 883a 4b45 e139 527c 9b3a 966f f23a
00000060: 2abf 8f3a ec3a f13a 6d70 183b 1943 62bb
00000070: 15c9 88bb b6f6 d0bb 7e63 cebb 2c04 d5bb
00000080: 31b1 0ebc 8dbe debb 67dc d2bb 03c1 05bc
00000090: 8a98 64bb 4be8 81bb c460 d1bb 1c79 cbbb
000000a0: 9dc0 cfbb 0d53 12bc 4738 debb 8e31 d6bb
000000b0: 1c79 08bc dcfc 6ebb 233b 7fbb 6aee ccbb
000000c0: dbca d0bb 3b53 d1bb 1a89 11bc 1d07 e9bb
000000d0: f816 e4bb f765 0abc 8cfa adba 0e04 ccba
000000e0: 186c 93ba cfd6 98ba 9b33 cbba 3142 aaba
000000f0: 0a19 bdba 9a19 bbba bcdc a3ba 0cca a4ba
00000100: 0a97 c0ba ae61 7eba 21fa a2ba 6e78 c1ba
00000110: 6e0c abba 5d9c c1ba 6c50 b3ba 4273 adba
00000120: 1076 9cba 35f0 aeba 10a7 5aba 9340 b4ba
00000130: 2541 beba 21b3 a1ba 0fd3 dfba 6ac2 b6ba
00000140: 251c b1ba 4631 123b c3e8 be3a 0838 443a
00000150: 96a6 613b 5273 243b c943 dc3a 77ee 513b
00000160: 229b 273b 37cb da3a d11b 0e3b cd78 b03a
00000170: 6dfc 333a 0f38 6b3b ccee 2e3b 94af f83a
00000180: d773 6e3b b6d2 303b dae6 013b e44a ea3a
00000190: 05b5 893a ea13 bd39 3489 653b b382 213b
000001a0: 30a8 e73a df79 6f3b 8138 303b f0b4 003b

exp_avg_sq f4 [4, 1, 3, 3, 3]
6.5846056e-05 4.3508513e-05 4.42413e-05 0.00011338977 9.0668684e-05 8.7180626e-05 0.00012542795 0.00010376629
0.00010088914 5.77227e-05 4.0658237e-05 4.3019005e-05 0.00010405112 8.672031e-05 8.55634e-05 0.00011889096
0.00010212148 0.00010123578 5.174538e-05 3.924218e-05 4.2747422e-05 9.523444e-05 8.2850886e-05 8.317708e-05
0.00011261136 0.00010049438 0.00010108789 0.00016208891 0.0001640504 0.00018113997 0.00016312266 0.0001640085
0.00018434567 0.00018415425 0.00016985075 0.00018790289 0.00015155855 0.00016014688 0.00017814897 0.00015699242
0.00016045435 0.00018155632 0.00017984012 0.0001671203 0.00018720241 0.00014747269 0.00015813488 0.00017527334
0.00015281708 0.0001589996 0.0001786621 0.00017518234 0.000165531 0.00018609849 5.5079818e-05 6.588762e-05
0.000104156614 4.4118544e-05 5.720876e-05 0.00011098859 5.624956e-05 6.234216e-05 9.753302e-05 5.524107e-05
6.848881e-05 0.00010846814 4.2944626e-05 5.906063e-05 0.000116554365 5.540195e-05 6.307416e-05 0.00010136896
5.54997e-05 7.167694e-05 0.00011070675 4.2852997e-05 6.263488e-05 0.00011884334 5.4485226e-05 6.494202e-05
0.000104163846 0.0001093349 7.068751e-05 4.0483672e-05 8.712823e-05 5.7113022e-05 3.957538e-05 7.090952e-05
5.047638e-05 4.097916e-05 0.00010782232 6.654886e-05 3.8615093e-05 8.52072e-05 5.3978027e-05 3.790431e-05
6.952525e-05 4.8742095e-05 4.0783747e-05 0.000106818894 6.442582e-05 3.874697e-05 8.462664e-05 5.2443458e-05
3.754448e-05 6.903646e-05 4.824102e-05 4.1216583e-05
00000000: d516 8a38 e97c 3638 bc8f 3938 abcb ed38
00000010: 6125 be38 bed4 b638 4f85 0339 1a9d d938
00000020: 7294 d338 471b 7238 7388 2a38 4e6f 3438
00000030: 0536 da38 9ddd b538 8070 b338 1955 f938
00000040: 0d2a d638 8c4e d438 2e09 5938 f897 2438
00000050: b24b 3338 9ab8 c738 3bc0 ad38 5b6f ae38
00000060: c329 ec38 82c0 d238 26ff d338 69f6 2939
00000070: f204 2c39 64f0 3d39 e80b 2b39 b2f9 2b39
00000080: ea4c 4139 8819 4139 f719 3239 cc07 4539
00000090: b0eb 1e39 1aed 2739 80cd 3a39 559e 2439
000000a0: a33f 2839 2760 3e39 7793 3c39 043d 2f39
000000b0: c44b 4439 e6a2 1a39 02d1 2539 94c9 3739
000000c0: 863d 2039 21b9 2639 3e57 3b39 27b1 3739
000000d0: 6492 2d39 6f23 4339 8105 6738 262d 8a38
000000e0: a86e da38 ed0b 3938 70f3 6f38 8cc2 e838
000000f0: 81ed 6b38 b1bd 8238 a48a cc38 a6b2 6738
00000100: a6a1 8f38 6479 e338 711f 3438 deb7 7738
00000110: a66e f438 645f 6838 af46 8438 0c96 d438
00000120: 59c8 6838 4451 9638 3c2b e838 0ebd 3338
00000130: d85a 8338 883b f938 1187 6438 7b31 8838
00000140: 8a72 da38 ba4a e538 113e 9438 03cd 2938
00000150: 9db8 b638 a48c 6f38 befd 2538 42b5 9438
00000160: 9ab6 5338 0ae1 2b38 ab1e e238 2690 8b38
00000170: a4f6 2138 44b1 b238 7766 6238 71fb 1e38
00000180: 16ce 9138 6d70 4c38 370f 2b38 f503 e038
00000190: 591c 8738 3e84 2238 9579 b138 bcf6 5b38
000001a0: 1479 1d38 abc7 9038 6756 4a38 f8df 2c38

exp_avg f4 [4]
0.0044612004 -0.008565195 -0.0041214977 0.0022747647
00000000: 432f 923b 0855 0cbc a10d 87bb 3814 153b

exp_avg_sq f4 [4]
0.0008148923 0.0017417666 0.00051324343 0.00044006118
00000000: 7f9e 553a fd4b e43a 2f8b 063a 03b8 e639
