models/mvsec/indoor_flying1/indoor_flying1_multipixel_odd_model.pth (torch, 872278 bytes, 30 tensors)

conv3d.0.weight f4 [4, 1, 3, 3, 3]
000000 3d 80 5f 3e 23 58 e4 3d 11 ea 36 be ee ad 02 3d
       0.21826263 0.11149623 -0.17862727 0.031904154
000010 6a 06 1f be 69 23 cd 3d fd 7c 58 be 35 3d cf bd
       -0.1552979 0.100165196 -0.21141429 -0.10119096
000020 1c c9 40 3d 4d 0e aa 3e c4 35 46 bc 11 9f b9 be
       0.047066793 0.33214036 -0.01209778 -0.3625417
000030 42 cd 12 3d 57 9a 09 bd 5f 5d fc bb 6b 36 66 bc
       0.03584028 -0.033594456 -0.0077015604 -0.01405106
000040 6b b8 cf bd dd 75 a4 3d 2b fc b3 3e 64 fc 03 be
       -0.10142597 0.08030293 0.35153326 -0.12889248
000050 02 64 89 be b9 47 90 3d 96 23 50 bc b5 ce 2a bd
       -0.26834112 0.0704493 -0.012703797 -0.041701037
000060 81 8b e2 3d f9 fb f8 3d 4f 5b 8e bd ee 5e 94 bd
       0.110617645 0.12157435 -0.069510095 -0.07244669
000070 bb 08 ec bd f3 25 99 bd 65 ce 29 3d 29 d6 64 3e
       -0.11525103 -0.07477941 0.0414566 0.2234732
000080 5d c5 96 3e c8 6e d8 bd 1e 1c 19 be 77 95 32 be
       0.2944745 -0.10568005 -0.14952132 -0.17439829
000090 58 25 87 be 42 40 53 be 36 9a ea bd c5 db d4 3c
       -0.2639568 -0.20629981 -0.11455195 0.0259837
0000a0 4f cd 53 3e 67 e9 0e 3d 46 59 c7 3d 16 88 af bd
       0.20683788 0.03489056 0.097338244 -0.08570878
0000b0 d7 a6 2f 3e a8 5f 8b bc e3 de 11 be fc af 38 be
       0.17153488 -0.017013386 -0.14245181 -0.18035883
0000c0 3c 53 d9 3d 92 07 8a 3d de 8b 08 be 23 ff 15 3e
       0.10611579 0.06739725 -0.13334605 0.14648108
0000d0 92 ee 1e 3e 3e 2e 73 3e b4 fe 0c 3e ae 27 7e 3e
       0.15520695 0.23748109 0.13769037 0.24819824
0000e0 5a 89 69 3e a1 60 6e 3e e6 cf f2 3d df 1b 21 3e
       0.22806302 0.23279049 0.1185606 0.15733288
0000f0 bb 39 fa 3d 61 20 76 3e bf 61 66 3e 17 99 13 3d
       0.122180425 0.24035789 0.22498225 0.03603467
000100 fc 99 ed bc aa 81 36 3b e9 6e 8e bd 02 7c b1 3d
       -0.02900409 0.0027848282 -0.06954748 0.08666231
000110 da d4 ab 3d bb 19 13 3d d0 ab 96 bd 40 b2 09 3d
       0.083902076 0.03591321 -0.073569894 0.033617258
000120 c3 2c 65 be 98 21 6d be be 03 81 be 27 3a 3b be
       -0.22380356 -0.23157346 -0.25198168 -0.18283902
000130 12 c5 58 be f9 d5 64 be 63 4d 8a be 26 33 2e be
       -0.21168926 -0.22347249 -0.27012166 -0.17011699
000140 24 dd 88 be 60 21 c2 bd 27 e8 84 bd 5b 5b 06 bd
       -0.26731217 -0.09479022 -0.06489592 -0.032801967
000150 79 98 07 bd b8 71 02 be b5 ee a0 bd 99 07 81 be
       -0.033104394 -0.12738693 -0.0785803 -0.2520111
000160 ba 94 32 3d ba 4a 54 3e 9f d5 6d 3d e1 8c 33 3d
       0.043598868 0.20731631 0.058065053 0.043835524
000170 18 bb 31 3d 8b 6e 69 bc e6 22 3b bd c9 75 4f 3e
       0.043391317 -0.014247547 -0.04568758 0.20259775
000180 55 fe d4 bd f0 d6 bc bd 1d 66 98 3e 12 0e b8 3d
       -0.104000725 -0.092206836 0.29765406 0.08987059
000190 0a c0 bb bd d7 61 25 3e ea 5c cb bd c1 02 23 be
       -0.09167488 0.16150604 -0.09929831 -0.1591902
0001a0 51 41 90 3d a2 3f a0 be c2 1a 6c bc 48 43 9f 3e
       0.07043708 -0.31298548 -0.014410676 0.3110602

conv3d.0.bias f4 [4]
000000 3d e3 69 bd 33 02 ee bd e6 d5 44 3e 4a f6 b7 bd
       -0.057101477 -0.11621513 0.19222221 -0.08982523

gru.weight_ih_l0 f4 [300, 100]
000000 44 6e e1 bd f2 38 d4 bd ac 8a 9c 3c 2b bb 08 3e
       -0.110073596 -0.10362424 0.019109093 0.13352649
000010 32 00 3b 3e b3 34 20 bd 7b ef ec 3c 65 51 52 3e
       0.18261793 -0.039112758 0.028922787 0.20538862
000020 d4 04 a9 3d 2b 10 26 3e ec 36 8b 3d b3 7d c6 3d
       0.08252874 0.16217105 0.06797585 0.09691944
000030 2b 40 22 3d 61 b2 36 bd 36 51 12 3e 86 48 85 3e
       0.039611977 -0.04460371 0.14288792 0.26031893
000040 7c e7 b8 3d 85 8c 64 3d d9 03 1d be ca e7 20 3e
       0.09028527 0.055798072 -0.15333499 0.1571342
000050 27 d8 92 3e 76 0a 06 3e d8 57 ce bd 21 d5 9f be
       0.28680536 0.13089928 -0.100753486 -0.31217292
000060 d1 50 2b 3e a8 6a 9a bd bf ff b8 bc 93 87 99 3d
       0.16730048 -0.07539874 -0.022582887 0.07496562
000070 42 ea 82 3d cc c8 3a 3e ca bb 4b be ea a5 c1 bd
       0.063923374 0.1824066 -0.19895855 -0.09455474
000080 94 2b 17 3e c9 29 4b 3e 75 fe b1 3e 76 22 a3 bc
       0.14762717 0.19840159 0.34764448 -0.019913893
000090 ee 30 0a 3d 74 da eb bb 2d 1f 42 3d c5 30 46 3e
       0.03373807 -0.0071976725 0.047393013 0.19354542
0000a0 ba ee b1 be be 48 3f be b3 9b 07 be 80 a2 e0 bd
       -0.34752446 -0.18680093 -0.13242988 -0.109684944
0000b0 25 63 7b 3d fa d9 4f be eb 79 2f bd 27 d4 01 bb
       0.06137385 -0.20297995 -0.04284088 -0.001981029
0000c0 fb c8 14 be 9d e0 01 3d 22 09 3b 3d 4f c8 25 3c
       -0.14529793 0.03170835 0.045663007 0.010118558
0000d0 9c 46 1a 3d 91 05 96 3d 59 af a7 3d 59 1e c0 3d
       0.037664995 0.073252805 0.08187742 0.09380788
0000e0 ad c2 45 3d a7 4d 1a bd cc 8c be 3d e1 2a 92 ba
       0.04828136 -0.03767171 0.093041986 -0.0011151695
0000f0 56 40 73 3d c8 56 ec 3c a7 03 97 3d d9 a9 83 bc
       0.059387527 0.028849974 0.073737435 -0.0160722
000100 92 40 97 3c d4 b3 42 3d cf 8c ff 3c 8b fe 52 3d
       0.018463407 0.04753478 0.031195072 0.051512282
000110 8e 5a 9f 3d 7b 6f 4c bd fb 9a d3 3c 18 a1 b7 3d
       0.07780944 -0.049911004 0.025830736 0.08966273
000120 fd 1c 87 3b a5 63 a1 bd f7 d9 d9 bc c1 22 9d 3b
       0.0041233287 -0.07880334 -0.026593192 0.0047954028
000130 16 26 5c 3d 6a e3 77 3c 73 b3 5e 3d d5 df 90 3d
       0.05374726 0.015129903 0.054370355 0.070739426
000140 5b 9c 03 bc 44 89 78 3c 85 64 e3 3d ff 73 a8 3d
       -0.0080328835 0.015169445 0.11103157 0.082252495
000150 76 ed f8 bc 7a c3 22 be 28 bd d8 3c 50 b9 3c 3e
       -0.030386668 -0.15894881 0.026457384 0.18430066
000160 6a cc 51 3e 02 cf e0 3c 4a 09 23 ba ec 79 00 3d
       0.20488134 0.027442459 -0.0006219341 0.031366274
000170 43 b1 dd 3d 0f 9c 84 3e b2 4a b7 3d ef ed 6c bd
       0.108248256 0.25900313 0.08949794 -0.0578441
000180 90 0e 20 be 6a 9b f4 3d c4 c9 0a bc f8 ac 14 be
       -0.15630555 0.119437054 -0.008470956 -0.14519107
000190 fe 15 9f 3e 8e c7 9c 3e 60 d3 2d 3e e9 13 67 3e
       0.31071466 0.30620998 0.16975164 0.22566189
0001a0 06 87 80 be 73 4f 28 3f 12 1d 14 3f a8 6f 38 3d
       -0.25103015 0.6574623 0.5785686 0.04502836
0001b0 be 85 6f 3c d3 fe 41 be e5 82 c9 3e 70 34 09 3f
       0.014619289 -0.18944864 0.39357677 0.5359564
0001c0 6c 5f 88 bd 48 ba 74 be 19 a5 d6 be bd e2 9b 3d
       -0.06658825 -0.23899186 -0.41922835 0.07611606
0001d0 d6 d4 e9 bd d4 41 dc be a1 6f 14 bf 63 33 f8 be
       -0.11417548 -0.43018973 -0.5798283 -0.48476705
0001e0 24 c7 b7 3d 0b a9 f2 bd ea e6 d7 be 1f 34 28 bf
       0.0897353 -0.11848649 -0.4216836 -0.6570453
0001f0 7e 42 83 be 10 53 30 3d ee ba 54 be 51 d9 08 be
       -0.25636667 0.043047965 -0.20774433 -0.1336415
000200 8c 2c fa 3d ba db 04 3e 5c b5 c1 bd e7 8d 13 be
       0.12215528 0.12974444 -0.0945842 -0.144096
000210 4f 2a 01 bd 0f f6 85 3e 25 9d a4 3e bc d7 19 be
       -0.03153449 0.2616429 0.32151142 -0.15023702
000220 04 b1 b2 3d 08 fa e4 3d 8e 44 ec 3e ad de 15 3f
       0.08725169 0.11180502 0.46146053 0.585429
000230 4b 2d 54 be 5e b1 26 3e 91 1e 24 3e 6b 17 ae 3e
       -0.20720403 0.16278598 0.16027285 0.34002241
000240 11 b1 01 3f 05 fe e6 bd ea 9f 95 3e e7 16 d9 3e
       0.50660807 -0.11278919 0.29223567 0.42400286
000250 6e 7b c2 3e b8 66 37 3f 64 79 ca bd a8 3a c7 3d
       0.37984794 0.7164111 -0.09886435 0.09727985
000260 02 c7 35 3d f8 94 a5 3d 1e 10 fb bd cb 83 2a 3c
       0.04437924 0.08085054 -0.122589335 0.010407398
000270 62 80 f0 3d bf 64 f3 bc 74 95 1e 3e 01 93 99 bc
       0.11743237 -0.029711125 0.154867 -0.018746855
000280 48 09 97 bd be 03 80 3d a6 09 a2 3d 3d 6f 0b 3e
       -0.07374817 0.06250714 0.079119965 0.13616653
000290 b6 fb 58 bd ec 66 83 bc 5c 9c 69 3d b7 06 a4 3d
       -0.052974425 -0.016040288 0.05703388 0.08009093
0002a0 56 73 de 3d 53 30 e4 3c 12 4d d4 bc a3 37 d5 3c
       0.10861842 0.027855074 -0.025915656 0.026027506
0002b0 06 f6 95 3d f6 41 d2 3d d4 de 95 bc cd 66 c3 bd
       0.07322316 0.10266487 -0.01829473 -0.09541092
0002c0 47 5f 21 3e 0d c7 85 bd b5 3d 13 3e ff cf 4a 3d
       0.15759002 -0.065321065 0.14379008 0.049514767
0002d0 a7 6e e6 be 46 cc b6 3d 49 8c 97 3e 6a f9 4e 3e
       -0.45006296 0.08925681 0.29599217 0.20212331
0002e0 e4 5f 6f bc ac 05 d6 be 6a 5d 2f 3e 18 d6 0b 3f
       -0.014610264 -0.41801202 0.17125478 0.54623556
0002f0 3a e1 eb 3e c1 41 47 3d ee 07 8a be f0 61 6d 3e
       0.46070272 0.048646692 -0.26959175 0.23181891
000300 14 70 1d 3f f3 1a 51 3f 7f 7b 45 3e 4b 81 3f be
       0.6149914 0.81681746 0.19285391 -0.18701665
000310 fa 70 95 3e a5 bc c4 3e 5e f2 09 3f 66 15 09 3e
       0.29187757 0.38425174 0.5388545 0.13387069
000320 20 bf 0a bd 69 b2 79 bc f0 b9 84 3d e5 d7 34 be
       -0.033873677 -0.01524029 0.06480777 -0.17660482
000330 67 b8 28 3e ea 86 a7 3d 55 fc a3 3d c1 c0 38 ba
       0.16476594 0.0818003 0.08007113 -0.00070477655
000340 fb 06 c4 bc 4f 28 c8 3d c3 b8 c1 3b a1 99 6c 3e
       -0.02392911 0.09773313 0.005911918 0.2310548
000350 72 18 de 3d 8f 8e 1b bd e4 0d 9f 3d de 4a 3d be
       0.10844506 -0.03797775 0.07766321 -0.18485591
000360 2d ab 04 3e f7 6a 34 3e d5 32 b8 3d 70 af 71 3e
       0.12955923 0.17618929 0.089940704 0.2360208
000370 4d d0 37 3d 8c 03 c5 3b 20 7c bd 3d 98 0f 0a 3e
       0.044876385 0.0060123857 0.092521906 0.13482511
000380 70 c8 15 3e 1c 05 ce 3e 4a 6c 22 3e 2d 3a 4e 3d
       0.14627242 0.40238273 0.15861621 0.05034845
000390 83 ec 7b 3e 93 b2 a5 3e f7 54 a8 3e 43 17 47 3e
       0.24601941 0.32362804 0.32877323 0.19442467
0003a0 e4 dc 2f 3e 2e 8c 4c 3e b3 fb 3e 3e bf 1d a3 3c
       0.17174107 0.1997535 0.18650703 0.019911645
0003b0 97 f2 f9 3d 5e 85 62 3e 61 1b af 3e e4 e2 f6 3e
       0.122044735 0.22121188 0.34200576 0.4821998
0003c0 29 9a 0e 3d 12 65 23 bd 89 65 f6 bd 0e df 8d 3d
       0.034814987 -0.03989131 -0.12031085 0.0692731
0003d0 dd df 63 3e 12 1f 0a 3f 1c 57 b0 3e 85 38 03 3f
       0.22253366 0.5395366 0.3444146 0.51258117
0003e0 5f 4e b8 3e 90 e4 27 3e 1d b9 9c 3d 94 19 f7 3b
       0.35997292 0.16395783 0.07652495 0.007540891
0003f0 ad af 0f be a9 36 cc bd 3e 01 81 3d c4 2e 11 3e
       -0.14031859 -0.09971363 0.06299065 0.14177996

gru.weight_hh_l0 f4 [300, 100]
000000 96 1b 60 3d 1e 90 46 3e e9 f8 2d be c5 02 eb 3d
       0.054713808 0.19390914 -0.16989483 0.114751376
000010 9a 3f 12 3c 18 c6 89 3e 04 a7 99 be d5 09 0e 3e
       0.008926297 0.26908946 -0.30010235 0.13870938
000020 8a 27 b0 bd 3e dc 8f 3c 91 72 d3 bd f1 9d 7c be
       -0.086012915 0.017561074 -0.10324586 -0.24669625
000030 5b a1 be 3d 35 4d 98 3d 89 a5 6f bd 84 c4 99 3b
       0.0930812 0.07436601 -0.058507476 0.004692616
000040 c0 33 cd 3d 40 70 70 38 a4 0b 40 be 63 85 e3 3e
       0.10019636 5.7325e-05 -0.1875444 0.44437703
000050 25 ba 44 bd 15 ad 50 3e 6e 67 74 be ab 75 c4 bd
       -0.048029084 0.20378526 -0.2386758 -0.09592756
000060 67 3c 5d be 4a 91 16 be 0c 2b b7 3c bf e5 1d 3e
       -0.21605073 -0.14703861 0.022359394 0.15419672
000070 f7 78 0a 3e d5 36 95 3d ca b6 40 be 1b eb 39 3d
       0.13522707 0.07285849 -0.18819728 0.04539023
000080 93 b5 9a be 4a b9 47 3e dd a1 cd 3c 5f 97 17 3c
       -0.30216655 0.19504276 0.025101596 0.009252398
000090 dc da 04 3e 24 f0 0e 3e f3 fb f6 3d a9 8b e1 bc
       0.12974113 0.13958794 0.12059774 -0.027532415
0000a0 31 38 51 3e 03 06 ba bc 6f 51 89 3d b0 58 80 be
       0.20431592 -0.022707945 0.06704985 -0.25067663
0000b0 19 b4 28 be 92 ff ca 3d 70 95 85 bc 22 ac 88 3e
       -0.16474952 0.099120274 -0.016306609 0.26693827
0000c0 06 83 c3 bd df 01 26 3e 23 e2 2c be b6 1b e8 3d
       -0.09546475 0.16211651 -0.1688314 0.113334104
0000d0 df 82 57 3e c0 a4 8c 3e a7 47 8d 3d 87 8d 0b 3e
       0.21046017 0.27469444 0.06898432 0.13628207
0000e0 05 0a 81 3e 47 69 d3 3e 0d a7 23 be 1f ad bf bd
       0.25202957 0.41291258 -0.15981694 -0.09359192
0000f0 81 aa 18 be 43 78 55 bd 41 54 85 3e 25 c7 f4 3e
       -0.14908792 -0.052116644 0.26040843 0.47808185
000100 aa 2c 6d be b0 00 38 3e 76 d8 38 3e 33 d2 28 be
       -0.23161569 0.17969012 0.18051323 -0.16486435
000110 5c 88 51 be 77 a1 75 3c 04 d9 4d be 71 03 52 be
       -0.20462173 0.0149921095 -0.20102316 -0.20509125
000120 56 21 53 be 15 ca 46 bc 8d b8 b4 be 20 a0 24 3e
       -0.20618185 -0.012133141 -0.3529705 0.16076708
000130 43 7e bf 3d 41 09 22 3e ba d1 47 be ad e4 41 3e
       0.093502544 0.15823843 -0.19513598 0.18934889
000140 1c 7e 08 bd 8e b5 cb bb 00 c2 f0 3d aa 6a 45 be
       -0.033323392 -0.0062167114 0.117557526 -0.1927897
000150 5c 1d 31 bb 6c a4 d5 3c 3a 69 9f 3e f2 2d 79 3d
       -0.0027025556 0.026079379 0.3113497 0.060834832
000160 55 1c 84 3d 0c 4d 17 be 43 1b c0 be 1d d9 7e 3d
       0.064507164 -0.14775485 -0.375208 0.062218774
000170 c2 46 46 bc 32 3b 3c be ba 54 cb 3c 44 10 09 bf
       -0.012101831 -0.18381956 0.024820674 -0.53540444
000180 2d 37 35 bd 6a b8 d4 3d 51 5e 9c 3e 73 ae e1 bd
       -0.044242073 0.10386737 0.30540708 -0.11019602
000190 f2 ad 29 3e 62 e7 48 3e 99 75 d6 3d a2 17 66 bd
       0.16570261 0.19619516 0.10471649 -0.05617488
0001a0 c4 ac 64 bc 5d 66 df bd ed 15 a5 bd 5b 6c 0b 3e
       -0.013957206 -0.10908196 -0.08060823 0.13615553
0001b0 b4 a0 30 3e 2a d3 42 3c 2e 28 ba 3e 36 26 35 3e
       0.17248803 0.011891166 0.3635878 0.17690358
0001c0 d7 6c 06 3e 97 de 88 be 74 54 03 3e dc 89 0f bd
       0.13127457 -0.26732323 0.12825185 -0.035043582
0001d0 79 a2 3a bd 02 b2 8b be 77 fa 38 3e 97 e4 4c be
       -0.045565102 -0.27284247 0.18064295 -0.20009075
0001e0 72 91 75 bc d4 0e b0 bc c8 37 71 be 85 f0 fe bd
       -0.01498829 -0.021491446 -0.23556435 -0.12448219
0001f0 d1 48 09 bc b2 5f 12 bc 64 bf 01 bd 39 39 36 3e
       -0.008379177 -0.008933948 -0.031676665 0.17795266
000200 27 db 1d bf 01 c3 18 bf 70 13 ea be fa 5d be 3e
       -0.61662525 -0.5967255 -0.45717955 0.37181073
000210 6f 64 87 3e af 82 59 be a6 11 5a be 6f a8 cf 3d
       0.26443812 -0.21241258 -0.21295795 0.10139548
000220 1d 0b b0 3b 66 a6 2e bc ce bf 21 bd ba 62 5e bc
       0.0053724186 -0.01065979 -0.03948956 -0.013573343
000230 30 c9 1d 3e 2c ee 91 be 31 8b d1 3d 01 3e 3e bd
       0.15408778 -0.28502023 0.10231627 -0.04644585
000240 13 f7 62 3e b4 76 5a 3e 8c 8e e9 3b f7 1e 1a be
       0.22164564 0.21334344 0.0071275886 -0.15050875
000250 a4 52 6b be 13 cf d3 be 5e 7f 36 be 49 8e 42 be
       -0.22980744 -0.41368923 -0.17822024 -0.1899959
000260 ff f9 9e be a7 d5 6d 3e 17 70 55 3e 4c 71 23 3d
       -0.31050107 0.23226033 0.2084354 0.03990297
000270 2f 7e 3a 3e 06 31 13 be e3 74 e3 3b 32 da 75 3e
       0.18212198 -0.1437417 0.006941424 0.24009016
000280 1f b8 f9 3c 7e 12 b7 3d ea 2f 53 3e c2 9a 69 bd
       0.030483304 0.08939074 0.20623747 -0.057032354
000290 06 a8 d7 3d 33 d7 3e 3e bd f7 3f 3b 8b 75 af 3d
       0.10530095 0.1863678 0.002929195 0.085673414
0002a0 66 28 af bd 1f e9 80 3c 21 b9 e1 bd 4a 04 1f be
       -0.08552627 0.01573616 -0.11021639 -0.1552898
0002b0 21 af e5 3b 1c f8 14 3c d2 b7 73 3c 43 0f 9f bd
       0.0070094024 0.009092357 0.014875369 -0.07766583
0002c0 6f 82 9f be e4 a7 b9 3e a5 3a 01 bd 58 75 95 3d
       -0.311542 0.36260903 -0.03155007 0.07297772
0002d0 d5 e5 05 bf b0 d0 3b 3e d1 b0 5c be ae a9 d8 3c
       -0.5230382 0.18341327 -0.21551825 0.026448097
0002e0 ce 25 af bd e1 b8 95 3b 3d 2c 6e bc da 65 ef 3d
       -0.085521325 0.0045691584 -0.014536914 0.116893485
0002f0 23 8a ae bb 3e ec cf bc 71 cb 76 3e 84 7d cf bd
       -0.005326526 -0.025381204 0.24101044 -0.10131362
000300 3a 7a d4 3d 02 e7 ca 3d 44 50 b4 3c 16 d9 cd 3d
       0.10374875 0.099073425 0.02201093 0.100511715
000310 ac 14 72 be 48 02 c7 3c f4 16 68 be c2 07 78 3d
       -0.23640698 0.02429308 -0.22665006 0.060554273
000320 7a d0 e4 bc e0 d9 c8 bc eb 9a 85 3e 3a 95 d1 bd
       -0.02793144 -0.024517953 0.26094756 -0.10233541
000330 43 03 1e 3d 2f 5a 9f bd 6b 1c ff 3d bb 0a c3 3c
       0.03857733 -0.07780873 0.12456592 0.023808828
000340 81 ea 62 3d b7 9c 1e 3e 99 db 52 3c 5f 16 2b 3d
       0.05539942 0.1548947 0.012869739 0.04176938
000350 21 1f 2f be 17 c5 91 3c 53 af 62 3d 84 68 05 be
       -0.17101718 0.017794175 0.055342983 -0.13028151
000360 3b 96 a5 bd c0 68 d1 bc dc c3 a8 3e ba 25 6c be
       -0.08085295 -0.025562644 0.3296193 -0.23061267
000370 4c 67 3e ba 0f ae 23 be 66 d7 fa bd f3 32 f4 bd
       -0.0007263317 -0.15984367 -0.12248115 -0.1192378
000380 a1 a1 18 3e e4 b8 7a 3e 16 70 a2 bd 62 81 4a bd
       0.14905407 0.24484593 -0.07931535 -0.049439795
000390 0b 04 0f 3d 1d fc b4 bd 58 30 4a 3e 52 e2 44 be
       0.034915965 -0.08837149 0.19745004 -0.1922696
0003a0 b9 e0 8f 3d f4 4e c4 be da 3a c7 be 2d 6c 86 3d
       0.07025284 -0.38341486 -0.38912088 0.06563602
0003b0 f0 95 ca bd f4 47 52 3e 44 8f 77 be 5f 01 8a 3b
       -0.098918796 0.2053526 -0.24175745 0.004211589
0003c0 e0 5d 0c be 83 28 1b be ce 0d eb 3e 72 97 2d 3e
       -0.13707685 -0.15152173 0.4590897 0.16952303
0003d0 f3 39 ba bd 4e 0d ee 3d 27 dd a8 be 51 69 68 3e
       -0.09093084 0.116236314 -0.32981226 0.22696425
0003e0 d0 82 80 be f4 3d cd bd 27 ce 56 3d b4 c4 82 3d
       -0.25099802 -0.10021582 0.052442696 0.063851744
0003f0 15 16 36 3e ef d2 8b 3d 8f ab 90 be 72 c5 bd 3d
       0.17781861 0.06827342 -0.2825589 0.09266175

gru.bias_ih_l0 f4 [300]
000000 a4 73 36 3d 02 b4 29 be 93 5b ce 3c f6 32 6d ba
       0.044543877 -0.16572574 0.02519015 -0.0009048426
000010 4c c9 c8 bd 1b a4 da bd d1 9d b8 bd 90 6b 92 bc
       -0.09804019 -0.10675832 -0.09014476 -0.017873555
000020 2c 77 b6 bd 90 00 dd bd 0b c5 c9 3b 57 95 5c bd
       -0.08909449 -0.10791123 0.0061575226 -0.05385336
000030 32 64 6a be 45 9c a7 bb 6f 7a 81 be 46 4f 6b bd
       -0.22889784 -0.0051150643 -0.25288722 -0.057448648
000040 aa ae 9d 3d 7d 6f 80 3e 2f 90 ff 3d 25 66 15 bb
       0.0769933 0.2508506 0.12478673 -0.0022796479
000050 83 ba 9b bc 7f 26 49 be e8 cb a0 3d fc c1 50 be
       -0.019009834 -0.19643591 0.07851392 -0.20386499
000060 17 bd 53 be da d1 d6 3d 5d 10 5d bc d1 dd 74 bd
       -0.20677601 0.10489245 -0.013492671 -0.059781853
000070 c1 f5 10 be eb 10 72 3e 66 06 a8 3e e2 c1 d9 bd
       -0.14156248 0.23639266 0.32817382 -0.10632683
000080 19 77 81 be 23 b7 bb 3d cf c3 2e be 94 3f 89 3d
       -0.25286177 0.0916579 -0.17066883 0.0670158
000090 e3 1b cc bd b0 75 f9 bd b7 2f d2 3c 9d 4e e6 bc
       -0.099662565 -0.1218065 0.025657518 -0.028113658
0000a0 4b b5 8c be be 5e fb bd 2c fa 08 bd fb ed ac bd
       -0.27482066 -0.1227393 -0.033441707 -0.08443829
0000b0 97 cb b0 bd ce ea 33 be 7f b1 67 be 92 a6 d7 bc
       -0.08632582 -0.1757004 -0.22626303 -0.026324544
0000c0 e5 68 0b be 22 52 d7 3c 55 69 54 bd 9f b7 01 bb
       -0.13614233 0.026284281 -0.051858265 -0.0019793285
0000d0 79 08 1b bd fd 02 1c be f8 d0 2a be 4a c0 c1 3b
       -0.037849877 -0.15235515 -0.16681278 0.005912815
0000e0 fb b0 c1 bd 96 d7 79 3e d2 61 64 3d 1b f7 da bd
       -0.094575845 0.24398646 0.05575735 -0.10691663
0000f0 c9 f1 2c be 9e 85 94 3d 14 8f fb bd 50 5b 06 3e
       -0.16889109 0.07252048 -0.12283149 0.1312077
000100 c2 59 44 bd f4 66 00 be 79 31 6c 3d 66 c9 80 3d
       -0.047937162 -0.12539274 0.05766437 0.06288414
000110 98 0c 47 be c9 3f 87 be 5a 5d 59 3e d0 98 15 be
       -0.19438398 -0.26415852 0.21227017 -0.14609075
000120 db f4 f8 bd 8d ed ea bd 2a 65 ca bc cb d4 8d be
       -0.121560775 -0.114710905 -0.024706442 -0.2770141
000130 5f 3c 09 be d6 24 15 3d 92 e5 6c bd 1e e8 0b 3d
       -0.13401936 0.036412083 -0.057836123 0.03415691
000140 e4 83 c9 3d 83 23 11 be 37 b6 3e be 06 47 d2 bc
       0.09839609 -0.14173703 -0.18624197 -0.025668632
000150 ce 6c 6e bd 16 4f 95 bd 06 a2 97 3d 0f 50 ff bd
       -0.058209233 -0.07290475 0.074039504 -0.12466442
000160 cc 2f 0d bd e6 ae 7e be d2 c3 d7 39 6c a6 14 3d
       -0.03446941 -0.24871406 0.00041153893 0.036291525
000170 21 a3 76 be 01 6b e9 bd c4 d7 fd 3d bf 3e 8b 3c
       -0.24085666 -0.113973625 0.1239467 0.016997693
000180 9d a9 41 bd 33 7e d4 bd a0 f4 f0 bd 58 c7 cb bd
       -0.047280896 -0.10375633 -0.117654085 -0.09950131
000190 1f 88 a5 3e 28 90 77 3e ef d0 21 3e c3 d5 c6 3d
       0.32330415 0.24176085 0.15802358 0.097087406
0001a0 96 22 36 3e fb e2 b6 3d 83 20 6f 3e b5 08 8c 3e
       0.17786631 0.08930012 0.23352246 0.27350393
0001b0 3e ef 6b 3e 51 6c 62 3d d5 56 98 3e 8e 9f 54 3e
       0.23040482 0.05527908 0.29753748 0.2076399
0001c0 c1 5c 85 3e fb 85 2e 3e 45 ee 06 3d 67 63 29 3d
       0.26047328 0.17043297 0.032942075 0.041354563
0001d0 be 2b cc 3e 36 39 95 be 8d ea cd bd 2d 08 81 3e
       0.39877123 -0.2914521 -0.10054503 0.2520155
0001e0 fa 46 ab 3d cf 0e e6 3d 40 f3 49 3d 2b 89 3c 3d
       0.08363147 0.11233293 0.049304247 0.04602925
0001f0 42 5e 34 3e 1d e3 3a 3e 54 b9 c7 3e ab 0a 53 3e
       0.17614082 0.182507 0.39008582 0.20609538
000200 80 40 59 3e 80 e7 fb be 16 4b 05 bf 70 cd 60 be
       0.21216011 -0.49200058 -0.520677 -0.21953368
000210 7d c1 2e 3e 66 10 56 bd ad 65 08 3e 8d 7f d3 3e
       0.17065997 -0.052261733 0.13320036 0.4130825
000220 4c 51 36 3e 4c eb 22 3e 2c e2 1c be 71 03 29 3e
       0.1780445 0.15910071 -0.15320653 0.16505219
000230 d1 6d 2b 3e 7c f4 80 3e 40 6c 07 be 2e ad af bd
       0.1674111 0.25186527 -0.13224888 -0.08577953
000240 69 7c 46 3e 03 e8 47 3e bf 27 3f 3e c3 08 5c 3e
       0.19383396 0.19522099 0.18667506 0.21487717
000250 ac 7b 17 3e d4 2f 97 3e 55 7e c1 3d 21 8c 47 3e
       0.14793271 0.29528677 0.09447924 0.19487049
000260 8d e5 4f 3d f7 47 b6 3e 5a 4a 3f bd fe 6e 47 3d
       0.050756026 0.3560178 -0.046701767 0.048689835
000270 7b be 19 3e c9 7d 4d 3e b3 83 80 3e 4a a3 91 3e
       0.15014069 0.20067514 0.2510048 0.28444892
000280 06 f0 99 3e ec 31 60 bb 22 34 6a 3e f4 64 17 3e
       0.30065936 -0.0034209443 0.2287145 0.14784604
000290 99 cb 58 3e 90 48 49 3e c7 3a ea 3c 09 e2 90 3e
       0.21171416 0.19656587 0.02859248 0.2829745
0002a0 a9 c3 4a 3e f3 38 6e 3d 9b f6 06 3d 96 42 87 3e
       0.19801201 0.05815978 0.032950025 0.2641799
0002b0 39 2b 82 3e 83 ed 00 be 8f 95 2b 3b 4a db 93 3e
       0.254236 -0.12590604 0.0026181673 0.28878242
0002c0 8a 0a 76 bd f7 a2 0c be 57 05 63 3e 44 6b 25 3e
       -0.060068645 -0.13734041 0.22170006 0.161542
0002d0 fb 81 98 3e 89 66 90 3e 2a a9 5b 3d 5b 52 4b 3e
       0.29786667 0.28203228 0.053628124 0.19855635
0002e0 33 9c 79 bd 6b d1 96 bd f2 b4 f7 3d 9f 9d 11 3e
       -0.06093998 -0.07364162 0.120950595 0.14220284
0002f0 77 df d6 bc 39 9d 94 3e fe af a3 3c 1a 67 15 3e
       -0.026229603 0.290262 0.01998138 0.14590111
000300 df 3b 93 3e fc 0d 1b 3e 81 31 e4 bd 98 da e4 3d
       0.28756616 0.15142053 -0.111422546 0.11174506
000310 bd 56 0d 3e 50 d3 83 3e 50 da b3 3e 36 87 02 3e
       0.1380262 0.25747156 0.35127497 0.12746891
000320 33 0d e9 3b ee e9 90 3d dc 71 5c 3e 17 c0 86 3e
       0.007112169 0.070758685 0.21527809 0.26318428
000330 47 e3 86 3e fb 19 0a be 32 67 b7 3e c3 08 95 bd
       0.26345274 -0.13486473 0.3582092 -0.07277062
000340 7a 8e f6 bc 52 fb 22 3e 32 4d 0a be 8d 21 04 bc
       -0.030097235 0.15916184 -0.1350601 -0.00806464
000350 38 ca 80 3d 96 b2 af 3d 64 7c ab 3d 2d 7f e0 3b
       0.0628857 0.085789844 0.08373335 0.006851098
000360 03 98 91 3d a9 bc a9 3e 84 48 b1 be fc bd 17 3d
       0.07109072 0.3315175 -0.34625638 0.037046418
000370 2c 8f 22 3e b6 70 9f 3c 5b f7 ec 3d 78 6a 07 bd
       0.15874928 0.019462924 0.11570617 -0.03306052
000380 3a 9c 92 3d 29 6b c3 3e 95 8c 21 be d3 c2 cc 3d
       0.07158704 0.38167694 -0.15776284 0.09998097
000390 74 54 58 bc c9 13 ea 3e 38 93 bb 3e 21 7e a3 3c
       -0.013203729 0.4571822 0.36635756 0.019957604
0003a0 1b 2f 34 bd 3d 99 6a 3e d3 07 18 be 9e 8d aa bd
       -0.043990236 0.22910018 -0.14846735 -0.083277926
0003b0 1e 4d 4e bd b3 82 b3 bd 81 ad bd 3d f6 3e cf bd
       -0.050366513 -0.08765163 0.09261609 -0.10119431
0003c0 e3 1d 03 bd 80 73 83 bd dd 9c a2 bd 07 43 6a be
       -0.032010924 -0.06418514 -0.079400755 -0.22877131
0003d0 49 34 08 3e 64 d6 86 bb 46 95 1d 3d bd 26 f6 3c
       0.13301195 -0.004114913 0.038472436 0.030047769
0003e0 30 58 1c 3e e3 10 fd 3d e5 82 fd 3d c7 7a c2 bc
       0.15268016 0.123567365 0.12378482 -0.023740185
0003f0 1b cb b7 3e 40 99 d8 3d c2 fb 81 3e 66 54 17 bd
       0.35897145 0.10576105 0.25387388 -0.036945723

gru.bias_hh_l0 f4 [300]
000000 67 85 da 3d 53 25 03 be dc 25 99 bc 00 be 80 3d
       0.10669976 -0.12807207 -0.01869481 0.062862396
000010 c8 79 41 be 08 ef 9c bd 61 25 e3 bd 11 41 81 bd
       -0.18894112 -0.07662779 -0.11091114 -0.063112386
000020 d6 e9 33 be 48 4e 36 be 1a 6f 51 3d 8d 6a e8 bd
       -0.1756967 -0.178033 0.051131345 -0.11348448
000030 e9 f9 18 be 7d 6c 6c bd d7 41 69 be 11 04 f6 bd
       -0.14939083 -0.05772065 -0.22779022 -0.12012494
000040 a5 2f d9 3d 54 fe 20 3e 20 60 ae 3d 83 1d 35 bb
       0.106047906 0.15722018 0.08514428 -0.0027635999
000050 1f 0d 61 3d 1c 5c 5c be 01 21 31 3e c4 38 35 be
       0.054944154 -0.21519512 0.17297746 -0.17697436
000060 a9 06 1a be d3 be a2 3d c8 c8 18 bd 5c 4b 0a bd
       -0.15041603 0.07946553 -0.037300855 -0.033763275
000070 8b 66 ec bd f7 2b 7f 3e e2 d3 97 3e b7 7c cc bd
       -0.11542996 0.24919115 0.2965384 -0.09984725
000080 cb 40 81 be 9d 15 47 3e 61 65 18 be ae 1c 18 3e
       -0.25244746 0.19441839 -0.14882423 0.1485469
000090 08 28 3a be d5 20 bf bd 4b 91 5e 3d 04 ae 78 3d
       -0.18179333 -0.09332434 0.05433778 0.06071283
0000a0 a9 38 5d be 15 ed 4a be ab c1 4d 3c 17 a4 22 bd
       -0.21603645 -0.19817002 0.012558381 -0.03970727
0000b0 20 a8 63 bc 71 c0 79 be 07 39 8e be ee b1 02 be
       -0.013895065 -0.24389817 -0.27777883 -0.12763187
0000c0 be fb 27 be 89 93 47 bd 5a c6 4d bd dd 74 e7 bc
       -0.16404626 -0.048724685 -0.05023799 -0.028253967
0000d0 b3 a1 38 bd 78 6f 26 be 17 a1 a8 bd 31 98 9c bd
       -0.045076083 -0.1625346 -0.082338504 -0.07646216
0000e0 6e b7 9b bd 9e 2c 78 3e a4 7b a7 3d 12 1e 25 be
       -0.07603346 0.2423577 0.081778795 -0.16124752
0000f0 90 84 87 bd 84 e3 f4 bc 7b ba 46 be 8e ad e4 3d
       -0.06617081 -0.029893644 -0.19407074 0.111659154
000100 5c 1b 37 bd d1 f4 38 be 01 0a 85 3d 59 10 1e bd
       -0.044703826 -0.1806214 0.06496049 -0.03858981
000110 bf c8 6e be b2 2f 4d be 51 53 30 3e 3f 95 26 be
       -0.23318766 -0.20037726 0.17219283 -0.1626787
000120 34 37 ce bd 8c 25 ee bd f9 3f a6 bc 01 07 8e be
       -0.10069123 -0.11628255 -0.020294176 -0.2773972
000130 65 df de bd cf f1 0a bd 70 5b 15 be 11 fd b0 3c
       -0.10882453 -0.033922013 -0.14585662 0.021605046
000140 d7 72 fc 3d 4d f4 ef bd 93 49 69 be c7 f2 0c bd
       0.123265915 -0.117165186 -0.22781973 -0.034411218
000150 fd 5a 57 bd a8 71 06 be f7 0c b6 ba e1 68 24 be
       -0.052577008 -0.13129294 -0.0013889362 -0.16055633
000160 35 21 2a bd b7 df 31 be ca 75 be bd 19 18 80 3d
       -0.041535575 -0.17370497 -0.0929981 0.06254596
000170 07 63 41 be 2c c3 e7 bd c8 80 e5 3c c2 b9 c8 bd
       -0.18885432 -0.11316523 0.02801551 -0.098010555
000180 0c 8e ea bd c7 a5 2d bd f2 ee d1 bd 8e 8f 13 be
       -0.114528745 -0.042394426 -0.10250653 -0.1441023
000190 92 65 c4 3e 25 74 8d 3e bf 17 f7 3d 47 21 7e 3d
       0.38358742 0.27627674 0.12065076 0.062043454
0001a0 3d 58 43 3e a5 fa 33 3d 01 3f 6e 3e ec 8a 9b 3e
       0.19076629 0.043940205 0.23266222 0.30379426
0001b0 7f 42 2e 3e dd c2 6e bc d6 8b 93 3e 87 37 47 3e
       0.17017554 -0.014572826 0.28817624 0.19454776
0001c0 d6 94 65 3e 5a 2b 58 3e fd ef aa 3d 65 53 f4 3d
       0.22420058 0.21110287 0.083465554 0.11929969
0001d0 bd 91 a1 3e 8b 88 92 be 76 60 61 bc 40 57 76 3e
       0.31556502 -0.286198 -0.013755908 0.2405672
0001e0 f2 6d 08 3e 8b 7d f6 3d 74 49 2a 3d 71 08 50 3d
       0.13323191 0.12035664 0.041573957 0.0507893
0001f0 1b 22 63 3e 5f fc 0d 3e af 05 eb 3e 00 ab 50 3e
       0.22180979 0.13865803 0.45902774 0.20377731
000200 a9 fc 75 3e f5 7f 03 bf 20 16 ec be d5 12 64 be
       0.24022163 -0.5136712 -0.4611063 -0.22272809
000210 48 52 0d 3e c6 36 49 3d a7 ab 16 3e 10 ba ad 3e
       0.13800919 0.0491245 0.14713918 0.33931017
000220 4c 8a 19 3e 17 4c 42 3e 75 05 25 be 00 a2 63 3e
       0.14994162 0.18974338 -0.16115363 0.22229767
000230 3c d9 4f 3e 37 fd 50 3e 1d 3c 29 be 45 3e 12 3d
       0.20297712 0.20409094 -0.16526838 0.035703916
000240 e8 ba 73 3e f6 a9 83 3e 2c fb 0a 3e d1 10 83 3e
       0.23801768 0.25715607 0.13572377 0.25598767
000250 71 79 56 3e 9f 6e 8f 3e 00 72 85 3d 65 63 16 3e
       0.20944764 0.28014085 0.065158844 0.14686354
000260 a9 e2 38 3d a0 2c 82 3e 7b 14 4e bd 56 92 e9 39
       0.045138035 0.2542467 -0.0503125 0.00044550252
000270 d5 66 c1 3d 50 03 3f 3e 05 85 91 3e e5 ca 77 3e
       0.09443442 0.18653607 0.28421798 0.24198492
000280 83 b4 4c 3e 72 b4 af 3d 4c 5e 47 3e a8 23 29 3e
       0.19990735 0.08579339 0.19469565 0.16517508
000290 84 83 33 3e 9c a2 72 3e 05 a1 8c 3d 17 bb 89 3e
       0.17530638 0.23694843 0.068666495 0.2690055
0002a0 d9 9f 0e 3e 0b 3a 2f 3e 82 71 44 3d 1f 04 93 3e
       0.13928165 0.17111985 0.047959812 0.28714082
0002b0 b2 b0 5e 3e e8 42 41 be ae ed a9 bd 14 7c a5 3e
       0.21747091 -0.18873179 -0.08297287 0.32321227
0002c0 bb 99 b4 bd dd a1 5f bd c7 64 83 3e 40 d8 99 3d
       -0.08818384 -0.054597724 0.25662825 0.075119495
0002d0 1b e1 aa 3e 16 77 a8 3e 3e 02 14 3e 9d ab 29 3e
       0.33374867 0.32903355 0.1445398 0.16569372
0002e0 e5 00 62 bd 7b c6 62 bd 88 5e 5c 3d 9c 03 29 3e
       -0.055176634 -0.055365067 0.05380109 0.16505283
0002f0 c3 90 d1 ba 5d 47 8a 3e 1a 09 fc bb 04 95 43 3e
       -0.0015988577 0.2700757 -0.0076915147 0.19099814
000300 c7 28 51 3e 4d 61 5c 3e 34 42 d8 bd d1 bb 25 3e
       0.20425712 0.21521492 -0.10559502 0.16184928
000310 87 c3 00 3e 9f f2 2b 3e fc 9e ac 3e d2 5a 62 3e
       0.12574588 0.16791771 0.33715045 0.22104958
000320 47 e0 c2 3d 0d 57 94 3d 37 3e 60 3e 19 0c ba 3e
       0.09515434 0.07243166 0.21898733 0.36337355
000330 b7 61 37 3e 4b 22 be 3a f0 91 a0 3c 95 09 27 bd
       0.17908369 0.001450607 0.019600838 -0.040780623
000340 48 dc 03 be 39 6d 26 3e 8e 14 3f be 6e 0d ae bd
       -0.12877 0.16252603 -0.18660185 -0.08498655
000350 db 72 c3 3d 55 ab 08 3e 86 76 8f bd 04 40 e8 bb
       0.09543391 0.13346608 -0.070050284 -0.0070877094
000360 1f e0 17 3e 3f 2d 33 3e e3 b5 97 be 8a 80 d4 3d
       0.14831589 0.17497729 -0.29630956 0.103760794
000370 29 63 d0 3d 87 1f 91 bd 8d 81 d2 3d 1c db c9 3d
       0.10175163 -0.070860915 0.10278616 0.09856245
000380 a0 19 16 3e 6f c8 79 3e 55 aa 17 be 03 c9 04 3d
       0.14658213 0.24392866 -0.1481107 0.032418262
000390 98 c1 96 bd 40 7e d6 3e 22 6f a5 3e 58 73 2f 3d
       -0.07361144 0.41893196 0.3231135 0.04283461
0003a0 c3 b6 35 be 81 d6 c8 3e b8 91 85 be 6c e2 cc bd
       -0.177455 0.39226153 -0.26087737 -0.10004124
0003b0 b5 c5 0d bc 60 14 3f 3c 0a d2 2f 3e 56 af 3e bd
       -0.008653094 0.011662573 0.17169967 -0.046553932
0003c0 00 51 d9 3d 8b 9a 0c be 1b 74 fd bd 74 4e fe bd
       0.10611153 -0.13730828 -0.12375661 -0.124173075
0003d0 6f 35 20 bd f8 5c 2a 3e 57 6a 24 3d 79 36 21 3d
       -0.03911346 0.16637027 0.040140476 0.03935859
0003e0 5f 5c c5 3d ea a3 e4 3d 3d 27 9e 3d 6c f5 f6 3c
       0.09636759 0.111640766 0.07722328 0.030146323
0003f0 6e d1 4b 3e 33 1a c7 3d 45 87 1d 3e c0 3b da 3c
       0.1990411 0.09721794 0.15383632 0.02663982

dense_output.0.weight f4 [100, 100]
000000 da 10 e8 bd 93 75 f4 bc 7b b9 b6 3d f8 2f 0e 3b
       -0.11331339 -0.02984122 0.08922096 0.0021696072
000010 61 d3 27 3b f2 6b de 3c e8 17 76 3d 9b 43 01 3d
       0.002560817 0.027151082 0.060081393 0.031558614
000020 81 1d cb 3d dc 69 42 3d 4c ad ac bc de 0e 38 3d
       0.09917737 0.047464237 -0.021078728 0.044936053
000030 de e1 32 3a da 13 e1 bc 76 e4 4b 3d 82 54 5e 3d
       0.0006823818 -0.027475286 0.049778424 0.05427981
000040 fc 25 d9 bd db 23 b6 bc ed 5f 1b 3c d4 b4 0f 3d
       -0.10602948 -0.022233894 0.00948332 0.03508456
000050 de 89 05 bc 9f 32 00 3d 34 17 e4 bc 78 ee e3 bc
       -0.008150546 0.031298276 -0.027843095 -0.027823672
000060 42 75 85 3d eb 9e a7 bc 99 e7 11 bd 91 75 7e bb
       0.06516506 -0.02046152 -0.03562126 -0.00388274
000070 a0 35 bf bd 36 76 08 3e 42 31 96 3d 82 9e b8 bc
       -0.093364 0.13326344 0.07333614 -0.02253652
000080 5f fa c4 3d 86 2a 56 3c c1 c1 bd ba 23 ca 46 bd
       0.09618067 0.013071662 -0.0014477299 -0.048532616
000090 8a 1f a3 bc fd a4 d8 bb a4 93 49 3d 2d a9 c2 3c
       -0.0199125 -0.006611465 0.049213067 0.02376231
0000a0 a3 6a bd bd d7 7e 7e 3c 5a b1 97 bd 50 a0 9a 3d
       -0.09248855 0.015533171 -0.07406874 0.075501084
0000b0 76 a5 5b 3d 59 f0 71 bc a3 85 70 bb 28 1e be bd
       0.053624593 -0.014766776 -0.0036700747 -0.092830956
0000c0 55 60 4a bd 54 58 92 bc 0e 45 7d bc a7 dd e9 b8
       -0.049408276 -0.017864384 -0.015458358 -0.00011151592
0000d0 59 6e 22 bd f3 00 c3 3c 4f 4f d3 bd c6 5d a2 3c
       -0.039656017 0.023804164 -0.10317861 0.019820105
0000e0 39 22 77 bc 6b 0b df 3c ae b4 a6 bc 75 bb 13 3d
       -0.015083843 0.027227124 -0.020349827 0.036067445
0000f0 f1 a9 19 3b 61 f3 cb 3d f3 5d a1 3d de c1 93 bc
       0.002344724 0.0995853 0.078792475 -0.018036779
000100 3a c0 23 bd 8a ca 9f 3c d3 67 18 bd ae 52 f5 3c
       -0.039978243 0.019505758 -0.03720839 0.029946651
000110 c8 3b 46 3d b5 dd 57 3d 53 7c 34 bd fd 45 1d 3d
       0.048396856 0.05270167 -0.044063877 0.038396824
000120 2f 0d 67 3d f7 a8 38 3d cc 3d 3d bc 64 ac 6a bd
       0.056409057 0.045083012 -0.011550378 -0.05729331
000130 47 82 91 3d 2a b8 c2 3b 5e d2 82 bd ee 25 cb bc
       0.071049266 0.005942364 -0.063877806 -0.02479836
000140 20 a5 93 bd 0b e3 99 bd a9 45 e4 3c f1 f0 82 bd
       -0.072092295 -0.07514008 0.027865248 -0.06393612
000150 56 b6 16 3d 2b 2f 97 bc 5f 6b b3 3d 9b 7d 01 bd
       0.036794983 -0.018455109 0.08760714 -0.031613927
000160 2d de 57 3c 9f 43 12 bc a9 6d e7 bc f9 b9 82 bc
       0.013175529 -0.008927255 -0.028250532 -0.01595782
000170 51 86 48 3d 55 34 4a bc 89 e1 11 bd 8d 55 b1 3d
       0.04895622 -0.0123415785 -0.035615478 0.08658896
000180 35 fa 73 3c 6c c4 85 bd 49 2a a3 bc b5 26 24 3d
       0.014891197 -0.06531605 -0.019917624 0.040075976
000190 ef 3b d2 3d af 60 8c bd 96 6f ab bc 51 42 2b 3c
       0.10265338 -0.068543784 -0.020927232 0.010452823
0001a0 38 01 5a 3d 89 d6 53 3d 27 e8 13 bc 77 72 50 3d
       0.05322382 0.05171827 -0.009027517 0.050890412
0001b0 69 f8 1c bd 37 d2 b4 bc 7b 5b 31 bd 05 8c 22 3d
       -0.03832284 -0.022072894 -0.043300133 0.039684314
0001c0 dc 16 b6 3d 70 cb 4a 3d 34 67 39 3c fa bf 9a bd
       0.08891079 0.04951042 0.011316109 -0.07556148
0001d0 16 f6 6f 3e 8c 31 d2 bb 7a 80 ff bb 0a 8d 1f 3c
       0.23433718 -0.006414598 -0.007797298 0.009738216
0001e0 b3 fd 7d bc b7 3d 07 3c be d8 4a 3c b0 20 bc 3c
       -0.015502381 0.00825446 0.012380777 0.022964805
0001f0 ea 52 9b bc 46 2e 62 3c c7 e3 af 39 e1 f5 5c bc
       -0.018960435 0.013804978 0.00033548308 -0.0134863565
000200 37 e4 c4 3c 8b d9 05 bd d7 5f f1 bb 39 0e 43 bc
       0.024034603 -0.03267817 -0.0073661613 -0.011905246
000210 f4 7a f1 bc 2a 99 22 3d a1 3c 96 3c 90 d3 20 bd
       -0.029477574 0.03969685 0.018339457 -0.03926426
000220 82 2c 0a 3d 41 e8 20 3d 70 ff b2 bc 7a 1c 3b be
       0.033733852 0.039283995 -0.021850318 -0.18272582
000230 e8 cc 58 bd 98 e0 7f bd fb 92 b6 bc 99 47 21 bd
       -0.05292979 -0.06247005 -0.022286883 -0.03937492
000240 a6 b2 3c 3d a8 43 ae 38 3a 57 92 bc c8 dc 0c 3d
       0.04606881 8.3095685e-05 -0.017863858 0.03439024
000250 d3 5c ad 3c 1f 3c 26 3d 34 11 29 3c 88 6d 5b 3e
       0.021162426 0.04058468 0.010319043 0.21428502
000260 e4 c4 0a bd 7d 33 80 3c 36 1d 63 bc 44 9b 67 bc
       -0.033879176 0.015649552 -0.013861945 -0.014136139
000270 71 2e 81 bc 66 e3 87 3d 2c 91 6c bc f0 a6 f4 bc
       -0.015769215 0.0663517 -0.014438909 -0.029864758
000280 10 84 71 bd f6 0e 29 be 6c 8d fc bc 42 61 e1 3d
       -0.058963835 -0.16509613 -0.030829154 0.110048786
000290 0f 56 28 3a bf 2a 78 3c 0f b8 9a bc 81 eb 3a be
       0.0006421515 0.01514691 -0.018886594 -0.182539
0002a0 53 2b 31 bd 58 bf 8c 3c 20 f1 97 3b 1d 65 8c 3d
       -0.043254208 0.017181084 0.0046368986 0.06855223
0002b0 3b b9 10 3b dc 4f af bc 54 8e 47 3d 26 d5 ec 3b
       0.0022083062 -0.021400385 0.04871972 0.0072275577
0002c0 10 a4 8c b8 88 94 8f bd a1 9c 99 bc 59 11 90 bc
       -6.706279e-05 -0.07010752 -0.018751444 -0.017586397
0002d0 63 ef 05 3c 27 50 ad 3c 35 24 d1 bc 34 c7 9f bc
       0.00817475 0.021156384 -0.02552996 -0.019504167
0002e0 36 d9 97 3c 83 74 37 3d 0f 8d b9 bb 1e 0a 95 bc
       0.018536191 0.04478885 -0.0056625674 -0.0181933
0002f0 53 7e 72 bd 38 f8 d9 3c 42 a9 4a 3b 40 42 58 3c
       -0.059202503 0.026607618 0.003092364 0.013199389
000300 ba de dd 3b 61 7a 92 3c 4f 96 a7 bc 38 7d d4 bd
       0.006770936 0.01788062 -0.020457415 -0.10375446
000310 bc 73 39 3d 77 70 c2 3d 1e 34 e9 3c 76 14 aa bb
       0.04527639 0.09494107 0.028467234 -0.0051904274
000320 23 27 b8 bd a3 43 21 bd 61 bf aa 3c df 85 aa bd
       -0.0899184 -0.039371144 0.02084321 -0.08326315
000330 30 cc 19 bd c2 29 ca bd 13 8d 65 3d d0 58 41 3c
       -0.037548244 -0.09871246 0.056042742 0.01180096
000340 05 c0 74 3d f9 a6 f4 bc 54 38 1a bd 59 1e 9b 3c
       0.059753437 -0.029864775 -0.037651375 0.01893537
000350 95 6f 1d bd 60 6e ae bd b5 f3 4c 3c 16 da dc 3c
       -0.03843649 -0.08517146 0.012509276 0.02695946
000360 b5 91 ba bd 85 3f 11 39 b3 3d d1 3d fb 09 12 bd
       -0.09109823 0.0001385194 0.10216846 -0.03565405
000370 a2 c9 d3 3b c6 a2 a6 3d f4 63 2b bd 69 61 89 bd
       0.0064632455 0.08136515 -0.04184337 -0.06708033
000380 4f 5a 61 3c 64 49 80 bc c6 03 97 bd b5 97 9b 3d
       0.013754441 -0.015659995 -0.073737666 0.07597295
000390 5d 34 0e bd 13 1b 2e bd ca 8c 3e 3c 47 21 94 bd
       -0.034717906 -0.04250629 0.011630246 -0.0723291
0003a0 52 76 81 3d 08 e4 81 3b 31 73 d1 3c d8 99 10 bd
       0.06321396 0.003963951 0.025567623 -0.035302967
0003b0 f8 fa d3 bc 42 8d 06 bd 4d 16 95 3d 34 93 99 3c
       -0.025876507 -0.032849558 0.07279644 0.01874695
0003c0 b7 c8 dd bd 99 e8 9d 3d 98 4a 22 bd 8a 83 68 3d
       -0.10829299 0.0771038 -0.03962192 0.05676607
0003d0 52 46 7d 3d 50 81 81 bd f8 b3 05 bd a2 ca f0 bc
       0.06183464 -0.063234925 -0.032642335 -0.029393498
0003e0 0b 91 c7 bd 26 af ae bd 1a 26 80 3d 86 10 55 bd
       -0.097444616 -0.08529501 0.06257267 -0.05201771
0003f0 f8 26 3a 3c 12 dc 83 bb 81 54 f9 bd 3f 8b 15 3d
       0.01136183 -0.004024037 -0.12174321 0.03650975

dense_output.0.bias f4 [100]
000000 c4 f5 2f bd 45 cd 65 3e 29 66 8c bd 5c 03 9b bd
       -0.04295899 0.22441585 -0.06855423 -0.07569
000010 87 5d 3e be 54 39 f0 3d 67 c7 0a be 49 eb 20 be
       -0.18590365 0.117296845 -0.13552628 -0.15714754
000020 d3 19 12 be 5c 77 37 be f0 a8 ed bd 14 6e da bd
       -0.14267664 -0.17916626 -0.11604488 -0.10665527
000030 dc 9f 28 be dc 38 a9 bd 04 43 4b be c2 fe 39 be
       -0.16467232 -0.08262798 -0.19849783 -0.18163589
000040 dc 75 a3 bd 42 a8 17 be c0 12 9e bd c9 06 eb bd
       -0.07981464 -0.14810279 -0.0771842 -0.114759035
000050 d1 e4 4a be 52 c5 15 bd 00 6f c5 bd ce e1 21 be
       -0.19813849 -0.036565132 -0.09640312 -0.15808794
000060 7a bb 75 be 17 9f 30 be 66 68 02 be 3e d9 2c be
       -0.23997298 -0.17248188 -0.12735137 -0.16879746
000070 51 53 41 be a6 96 c5 bd 69 94 49 be 1a 09 3e be
       -0.18879439 -0.096478745 -0.1968552 -0.1855816
000080 e6 24 ef bd 73 05 58 be e3 50 3d be 70 76 03 be
       -0.1167696 -0.21095829 -0.18487887 -0.12838149
000090 93 01 16 be 72 85 67 be c6 d3 1d be 51 46 04 be
       -0.14649038 -0.22609499 -0.15412816 -0.12917449
0000a0 54 7a 15 be d5 b2 f8 bd ba d7 5c be 01 89 e2 bd
       -0.14597446 -0.121434845 -0.21566668 -0.11061288
0000b0 53 64 a4 3d 52 ab bc bd 87 ff 2d be 8d 10 c5 bd
       0.08026948 -0.09212364 -0.16992007 -0.096222974
0000c0 8b a7 06 be 47 13 c0 bd 2c ae b5 bd 04 9f fa bd
       -0.1314985 -0.09378677 -0.08871111 -0.12237361
0000d0 38 bf ee bd 94 37 9e bd e7 2f 32 be c3 2f 73 3e
       -0.11657566 -0.077254444 -0.17401086 0.23748688
0000e0 ba 16 78 bd 0e 79 03 be 8b b4 46 bc b5 91 05 be
       -0.06056855 -0.12839147 -0.012128006 -0.13043864
0000f0 c6 d8 83 be f0 9a 09 be 42 26 4c be 5b eb f4 bd
       -0.25751323 -0.1343801 -0.19936469 -0.11958953
000100 30 d8 7b bd 11 64 e0 3c ef 39 a7 be 86 a0 66 3c
       -0.06148547 0.027391465 -0.32661387 0.014076358
000110 22 ee dc bd a5 04 fe 3c 35 f9 25 be 21 4c c5 bd
       -0.10787608 0.031008074 -0.16208346 -0.09633661
000120 3e f1 ff 3d 21 8b 66 be 00 4f 45 bd 3c b9 4a be
       0.12497185 -0.22514011 -0.048171043 -0.19797224
000130 a7 fc 89 bd da ff 0a be de af c1 bd f8 b0 ce 3a
       -0.06737643 -0.13574162 -0.09457372 0.0015769294
000140 66 0a 6c be 6d 20 22 be 2b e2 1b bd b9 aa 86 be
       -0.23050842 -0.15832682 -0.038057487 -0.26302126
000150 28 f4 92 3d 69 24 ba bc 01 53 bd bd ca 58 1a be
       0.07175475 -0.02272244 -0.09244347 -0.15072933
000160 72 66 08 be 12 f0 3b ba 58 d4 fa 3d b6 e9 09 be
       -0.1332033 -0.0007169257 0.122475326 -0.1346806
000170 48 03 40 be 9f ca 47 be 34 12 59 bb 82 2d 08 be
       -0.18751252 -0.19510888 -0.0033122422 -0.1329861
000180 0e 69 85 bd e1 58 1c be e2 cd 0e be 55 1e 5a 3d
       -0.06514178 -0.1526828 -0.13945726 0.053251583

dense_output.3.weight f4 [9, 100]
000000 3a c5 b9 3c 20 9f 2f 3d b6 61 12 bc a5 11 f7 3c
       0.022677053 0.042876363 -0.008934429 0.03015978
000010 f3 91 a8 3c 09 45 6d 3d 1e 6c af bc 1d c0 ef 3b
       0.020577407 0.057927165 -0.021413859 0.007316603
000020 39 5c b3 bd 06 e3 46 3c 5f d6 bd 3c 88 d5 f5 3c
       -0.087578245 0.012139088 0.02317351 0.030009046
000030 0f 30 11 ba 81 8f 0e 3c b4 00 81 3c f5 27 07 bd
       -0.00055384723 0.008701206 0.015747406 -0.03299709
000040 60 b6 13 bd cd 45 84 3b c9 26 b7 bc 19 a3 c7 bc
       -0.0360626 0.004036641 -0.022357361 -0.024369763
000050 af f9 73 bc 2c 1e 9d 3d 5f b1 87 bd c0 4b 8c 3c
       -0.014891072 0.076717705 -0.06625628 0.017125964
000060 7a 55 57 bd 9f e7 e9 3c f5 0f 91 bc f7 6f 4d 3c
       -0.05257175 0.028552828 -0.017707804 0.0125389015
000070 e8 bc 63 3d af 29 07 bb 1d 0a c4 3a ed de 00 3d
       0.055600077 -0.002062421 0.0014956627 0.0314626
000080 04 bb 4b bc c9 31 61 bd e7 7b 5c bc 83 cd fd 3b
       -0.012434725 -0.05497912 -0.013457275 0.007745446
000090 6e ce 9c 3c e6 16 e9 3d 7b 15 8d 3b 35 bd 6c bc
       0.019141402 0.11381321 0.004305539 -0.014449407
0000a0 8a ad 7d bd 14 d3 70 bc 83 2a 09 3c 8a ce bc 3c
       -0.061933078 -0.014698762 0.008371952 0.023047704
0000b0 1d 1d 4d 3d d2 3f 9b 3a 55 78 db 3b 8d 13 73 bc
       0.050076593 0.0011844581 0.0066976943 -0.014836204
0000c0 bd 67 38 3c 6a 34 b7 3c c5 9d d8 bb 16 f6 d1 b6
       0.011255202 0.02236386 -0.0066106045 -6.2573336e-06
0000d0 9d cb 3e bc 39 4a 0a ba dc ad 9f 3b f3 50 98 3d
       -0.011645225 -0.0005275342 0.0048730206 0.07437315
0000e0 b1 f8 72 3c d9 1b ce 3c 0e 36 8d bc 10 12 dd bc
       0.0148298 0.025159763 -0.01723769 -0.026986152
0000f0 4d 31 85 bc 46 b0 1c 3c 79 92 cf bd 90 9a 9f 3c
       -0.01625886 0.009563511 -0.10135359 0.01948288
000100 21 a3 52 bd 6f 54 db 3c ad cb 8c bd 84 43 2a 3d
       -0.051425103 0.02677366 -0.068747856 0.041568294
000110 e1 2c b6 bc 0f fe 43 3d 5d d4 8f 3c c0 f3 4c 3c
       -0.022238197 0.04784971 0.017557317 0.012509286
000120 69 30 e3 3c 81 07 27 3c 4b 8d 2e 3c c4 8f 01 bd
       0.027733045 0.01019466 0.010653804 -0.031631246
000130 88 d3 e9 bb 31 7e ca 3c 48 50 d5 bc 7f 0a f1 3c
       -0.007135812 0.024718376 -0.026039258 0.02942395
000140 13 50 58 bd 15 ef 92 bb a2 e9 50 bc 2d 7f 47 bc
       -0.05281074 -0.004484067 -0.012751015 -0.012176317
000150 f4 ac c9 3c 63 79 b2 3d 91 1c a2 bb 21 36 15 bd
       0.024618603 0.08714559 -0.004947253 -0.036428574
000160 79 30 9d 3d 97 3b c4 3d 01 16 b2 3c 3b 89 40 3d
       0.07675261 0.09581678 0.021739008 0.047005873
000170 d4 bd f3 3c 42 b9 f2 3c bb dd 09 bc 85 5f 96 3b
       0.029753603 0.029629353 -0.008414681 0.0045890235
000180 88 57 eb bc a5 fc 85 bc 54 ba e4 3c ba ad 92 bd
       -0.028728262 -0.016355822 0.02792088 -0.07162042
000190 8b 44 49 3c 32 e4 37 3d 33 49 54 38 42 dc f3 bb
       0.012284408 0.04489536 5.061291e-05 -0.0074420283
0001a0 66 5f af bc 08 88 74 3d 21 d2 e9 3b 28 1c 83 bc
       -0.021407794 0.059700042 0.007135645 -0.016004637
0001b0 71 d5 97 bd 1d 41 95 bd 08 71 c4 3c 39 35 b9 3b
       -0.074137576 -0.0728781 0.023979679 0.0056520966
0001c0 84 a0 ed 3c 0a 43 07 bd ac be 03 bc fb 71 c6 bc
       0.029007204 -0.033022918 -0.008041065 -0.024224272
0001d0 67 a3 9c bc 4a eb bb 3c db b0 75 bd df 26 19 bd
       -0.019120885 0.022939343 -0.059983116 -0.037390586
0001e0 2f b5 3a bc e8 a3 a4 3d d0 e0 74 bd c3 fe 05 bc
       -0.011395737 0.08039075 -0.05978471 -0.008178416
0001f0 2f a5 5c bd b2 6c 0d 3d 04 e6 b5 bc 73 6e 9e bc
       -0.05386847 0.034527488 -0.022204407 -0.019339776
000200 42 3c 52 3d 59 cf 52 bd 83 96 63 ba 07 32 43 3c
       0.051326998 -0.051467273 -0.0008681791 0.011913783
000210 cf ff 3c bd 3b 3b 69 bd b9 fc 19 3c de bf 94 bc
       -0.046142396 -0.056941252 0.009398633 -0.018157896
000220 76 00 88 3c f2 6e bb 3d 49 88 f1 bc 7f 81 c4 bc
       0.016601782 0.091520205 -0.029483931 -0.02398753
000230 07 2e 7a bd 84 55 88 3c 24 11 1e 3c 7a 60 01 3c
       -0.06107905 0.01664234 0.009647641 0.007896537
000240 45 cf 45 3d e8 e6 42 3d 54 63 3c bb df 4b bd bc
       0.04829337 0.04758349 -0.0028745728 -0.023107467
000250 d0 e9 c7 3b ff c9 bc 3c 09 65 8c bc a6 24 53 bc
       0.0061008707 0.023045538 -0.017138021 -0.012887156
000260 a7 4f 5f bc 35 ae 74 3c 86 c8 ed 3b 61 df 8f 3d
       -0.01362983 0.014934112 0.0072565703 0.07025028
000270 4c 01 5a 3d c7 54 8d 3b e0 59 94 bc 90 fe 77 bc
       0.053223893 0.0043130848 -0.018109262 -0.015136376
000280 93 40 41 3d 40 64 af bb 44 22 c3 bd b1 f1 7e bc
       0.047180723 -0.005352527 -0.0952802 -0.015560553
000290 19 e4 28 bd ef 87 c4 3c f9 69 56 bd b4 ba 2a 3d
       -0.041233156 0.0239906 -0.052347157 0.04168196
0002a0 54 f3 f8 3b 01 a0 4b 3d ef 77 d7 b9 97 2e 4f 3d
       0.0075973663 0.04971314 -0.00041097353 0.05058154
0002b0 be 18 f8 3c db 61 33 3c 07 aa 87 3d e0 1a 32 bd
       0.030285235 0.0109486235 0.06624227 -0.04348266
0002c0 4f 36 01 3d 69 f5 b1 bc 0b 43 e0 3c 9a 58 a6 3c
       0.031545933 -0.021723466 0.027375719 0.02030592
0002d0 7c ba c6 bd a4 ad 71 3c 3c 5d 04 3c 1b 82 d2 3c
       -0.09703538 0.014750872 0.008078869 0.025696805
0002e0 47 f8 b6 3c ef b8 d0 3d 2b 23 e9 bc c1 d9 d6 bc
       0.022335185 0.10191523 -0.028459152 -0.02622688
0002f0 3f eb 9d 3d b9 34 be 3d 5c 15 cf 3c 21 78 8e 3c
       0.07710885 0.092874 0.02527874 0.017391266
000300 f8 38 cd 3c bf e5 51 3d b6 bd 7e 3b c2 db 2a bd
       0.025051579 0.051244494 0.00388704 -0.041713484
000310 16 9b 15 bb 44 e6 d7 bc 71 21 42 3d 9d 2d 92 bd
       -0.0022828034 -0.026354916 0.047395173 -0.07137606
000320 56 0f 17 3c fa 0b 55 3d 98 22 c1 3b 39 ca 2c bc
       0.009219965 0.052013375 0.0058940165 -0.0105462605
000330 e5 86 05 bd 60 89 78 3d 56 70 39 3c 5b 01 02 bc
       -0.03259935 0.060677886 0.011318287 -0.0079348935
000340 2c ca aa bd c6 ec 12 bc c4 5a cd 3b a2 de 88 3d
       -0.083393425 -0.008967584 0.0062669236 0.06683089
000350 f5 84 bd 3c 34 9f e6 bc ff b1 61 39 4f a7 f7 3c
       0.023134688 -0.028152086 0.00021523981 0.030231146
000360 ba 29 18 bb 75 30 83 3d 4f a1 95 bc a9 96 8c bc
       -0.002321823 0.06405727 -0.018265394 -0.017161684
000370 b1 ce 1e bc 2c 51 aa 3d 56 66 b2 3b 0e 2a 99 bc
       -0.009692834 0.083162636 0.0054443283 -0.018696811
000380 69 c7 61 bd 5a 6a 71 3d 15 4b 45 bd 80 e8 87 bd
       -0.055121813 0.058939315 -0.048167307 -0.06636143
000390 d6 13 4e 3b 6b 24 60 bc 18 c4 2a bb 42 80 45 3c
       0.0031444929 -0.013680558 -0.0026056822 0.012054505
0003a0 be 71 bb bc e7 bf 81 bd 80 71 64 bb 5c c4 44 bc
       -0.022881385 -0.063354306 -0.003485769 -0.012009706
0003b0 f5 e4 8a 3c e7 0a af 3d ae 40 5b bc 05 a7 76 bc
       0.016954878 0.08547001 -0.01338212 -0.015054469
0003c0 87 01 a3 bd 9a 9f 80 3d 5e 58 1a 3d 00 71 a6 b8
       -0.07959276 0.062804416 0.03768193 -7.936545e-05
0003d0 bf 01 3c 3d 28 72 4b bc c4 d9 7c bc 75 e4 af ba
       0.045900103 -0.012417354 -0.015432779 -0.0013419526
0003e0 ac c9 5d bc f6 10 b1 3c e4 4c 75 bc 54 e2 17 bc
       -0.013536852 0.021614533 -0.014971945 -0.009270269
0003f0 63 5b 05 3d 61 e8 68 3c 67 20 33 3d 3f f4 88 3d
       0.032557856 0.01421556 0.043732073 0.06687211

dense_output.3.bias f4 [9]
000000 0f ee 0d 3e b8 51 0d 3e 44 89 09 3e 15 99 0a 3e
       0.13860343 0.13800704 0.13431269 0.13534959
000010 4f d3 07 3e 57 27 07 3e 20 66 06 3e c8 ab 05 3e
       0.13264202 0.131986 0.13124895 0.1305381
000020 8f a3 02 3e
       0.12757705
