models/mvsec/indoor_flying1/indoor_flying1_stereo_even_model.pth (torch, 862766 bytes, 27 tensors)

conv3d.0.weight f4 [4, 1, 3, 3, 3]
00000000: 772e fabb 7311 bd3c 14ce 95bc 7b21 42be
00000010: 37aa 56be c4ca 78be bede 15be b733 ce3c
00000020: b400 00bd 9b4b 8c3e c06a 133e 1a38 423e
00000030: e8c0 193d 7d17 85bd 8563 37be d930 afbd
00000040: 7286 5abc 0fca ee3b 759b 713e 27e3 0b3e
00000050: 35b3 7d3e 486a ba3d a0cf afbd 34f5 753d
00000060: fc14 08be e7c9 01be 45e6 da3c 06a4 dabd
00000070: fedd 33be 1843 363e 18de 313e 7104 7abd
00000080: 3a19 553d 6334 423e 13a1 943d c054 03be
00000090: 3725 9dbe bb54 14be e419 ba3e 7328 4abe
000000a0: de71 3bbc 44e3 573e cb09 4f3d 2c79 6c3d
000000b0: 076f e6bd b593 94be 6738 8e3d 605c 863e
000000c0: efc5 aabe ef3a 9dbd df77 633e 3483 4f3c
000000d0: 990d 58bd 4764 f9bc 5088 71bd 028a 0c3d
000000e0: 0302 643d efb8 1fbd b9e7 b63c 85f4 66bd
000000f0: 57ee 7d3e 0012 0d3d 34fb 91be e496 dbbd
00000100: a6e4 133e e22e 2abd 902a 383d c363 77bc
00000110: 156f 74bd 48cb df3e d595 b9bd 0fab c5be
00000120: f33a 23bd f232 963d 5581 7dbd f17d 303d
00000130: cb7c 1e3c fa29 55bc 97bb be3e 5f3d 10be
00000140: 2459 85be 3190 a5be 0374 75be df09 8bbe
00000150: f309 1fbe e346 4cbe 0155 7dbe 4fd2 3cbe
00000160: b0bd 7ebe d632 b3be 31e2 b03d 7844 27bd
00000170: 05dc 80bc 66ae 3a3d ad79 c6ba 092e 793c
00000180: 64f4 0d3d d93c 6f3d 75bc db3d 1f88 c53e
00000190: 16ef 8f3e 4c99 b73e cd3e 5f3e cc4f 203e
000001a0: 8921 4b3e 1e00 903e a20f 543e 4a83 c33e
-0.0076349336 0.02307961 -0.018286742 -0.18958084 -0.2096337 -0.24296099 -0.1463575 0.025171144
-0.03125067 0.27401432 0.1439619 0.18966714 0.037537485 -0.06498621 -0.17909057 -0.08554239
-0.013337718 0.007287271 0.23594458 0.1366087 0.24775393 0.09102303 -0.08584523 0.060048297
-0.13289255 -0.12674676 0.02672113 -0.10675816 -0.17565152 0.17799032 0.17369878 -0.061039392
0.05202601 0.18965296 0.07257285 -0.12825298 -0.30692455 -0.14485447 0.36347878 -0.19741993
-0.011440722 0.21082789 0.05054645 0.057732746 -0.112516455 -0.29018942 0.06944352 0.26242352
-0.33354136 -0.07677256 0.22213696 0.012665559 -0.052747343 -0.030443324 -0.05896789 0.034311302
0.05566598 -0.038994726 0.02232729 -0.056385536 0.2479795 0.034440994 -0.28511965 -0.107221395
0.14442691 -0.041548617 0.044962466 -0.015099469 -0.05967625 0.4370978 -0.09061781 -0.3860707
-0.03985114 0.07333936 -0.06189092 0.043088857 0.009673308 -0.013010496 0.37252495 -0.14085911
-0.2604457 -0.32336572 -0.23970036 -0.2715597 -0.15531139 -0.19948916 -0.24739458 -0.18439601
-0.24877048 -0.34999722 0.086368926 -0.04083678 -0.015729913 0.045576476 -0.0015142463 0.01520873
0.034656897 0.05840764 0.10729305 0.38580415 0.28112096 0.35859144 0.218013 0.1565544
0.19837011 0.2812509 0.20709088 0.38186103

conv3d.0.bias f4 [4]
00000000: dec4 f0bd 0d94 a5bd 5c86 4cbd 00b6 5cbb
-0.117562994 -0.08084879 -0.049932823 -0.0033677816

gru.weight_ih_l0 f4 [300, 100]
00000000: de77 c93e c755 fa3e 8105 3e3f 198e eb3e
00000010: ec9e bf3e 9589 953e 2504 643e 8cd2 433e
00000020: 7a19 b53e c8b5 db3e 3044 3b3e e995 fbbd
00000030: ab1b a1be 9c18 0abe aff8 ee3d b5e1 863e
00000040: 357f 603d 5290 1a3e 18e8 313e 5d86 163e
00000050: 76bd debd eb72 47be ba81 b4be f5c5 d0be
00000060: 7c96 a2be 53eb 4d3d 17b3 4dbe 5ee8 f73d
00000070: a07a 753c bc7a f1bc 395b 53be b1e5 6fbe
00000080: 179c cdbd bad1 4e3d f36d cb3e 90fc b33b
00000090: e979 92bc 813d 593e 2dd9 be3d 2205 d83e
000000a0: dc77 19be f90c 76be d055 91bc b9ec f93e
000000b0: 800c 353f 9e87 be3c 66e5 bbbd 335e 603d
000000c0: 9bd5 bd3e 03e2 373f 2a20 063f a18e 093e
000000d0: bf47 1ebe 5349 aebe 32f4 b43c 6edb ec3e
000000e0: dfe9 6dbd 5cda 48be 08a7 81be b17d 8ebe
000000f0: 7838 363f 1fba 853e ba24 b63e 8795 a93d
00000100: 4919 29be ca74 383f bd04 633e 5b6e 383e
00000110: 8cad c1bd 5025 ec3d 99af ed3e 7513 9f3e
00000120: 59d9 5bbe c82b 31be 43f0 2c3d a3c1 d03d
00000130: 2fea f8bd f85b a3be ea23 96bc 21e8 8b3d
00000140: f450 bdbc acff 93ba 52cc 22be 7498 a03d
00000150: 22b1 863d dbd8 05be b9d7 00be e406 2ebe
00000160: 5026 8bbc bfa9 a33c 6239 bc3c 1587 9e3c
00000170: 8cd9 943c eead ce3d 696c 4a3d 6629 0a3d
00000180: 401d f1bc 789d e8bc a12c cc3d 2ba9 293e
00000190: 777d df3e 216a 523f c472 303f 4a4e ea3e
000001a0: f9e1 8c3e 6543 353e ba42 913e ee3d ad3e
000001b0: f494 1a3e 39e4 2fbd 8d35 2c3e 3a88 af3d
000001c0: 0c94 3bbd 756a a1be 1acf e1be 856f 6fbe
000001d0: 6ee0 7abe e2a5 2abe 5979 63be 1cc6 a3be
000001e0: 10f9 f6bd 5fae 56be 7060 83be 93ce 53be
000001f0: b9ec d0bc e10b a43e 9fd1 643e 7be8 4f3e
00000200: 6094 513e cc10 5c3e 0e91 573d 27ee 08be
00000210: e7ef 93be 8673 8b3e 6957 c03e 32ca 763d
00000220: 3aeb 8c3d 9479 c3bd 9afb d93e 2f2f 2d3e
00000230: 64c4 ce3d 05a8 fc3d 1d2c ec3d b65e ce3e
00000240: 4b25 c7bc 950f d3bc b594 9fbd b4dd 053e
00000250: a27a 773e 4791 05be efa3 0d3f ccfd a7bc
00000260: 49f6 703c 7456 72bd 480c e5bd 420e 1d3f
00000270: 91fc e7bc cfde 00be f9cc cbbd 2bb3 71be
00000280: 5853 103e 50c9 3bbd 7261 ee3d 6192 fbbd
00000290: 8d4f a6be 7b88 3d3d feda c5bc 4e0b 38bd
000002a0: d34b 7fbb dd16 18be 241f 04be 5ec1 54be
000002b0: bb08 4b3d 7ea2 413e 8715 d2bd afbe 56be
000002c0: 577e 81bd 79fb ce3c fa15 bfbb de08 b73d
000002d0: e24b 5cbe 5a20 1fbe efb5 d3bc 6dd5 ccbc
000002e0: d6f0 603d 9038 27be 97c2 66bd 503a 2ebb
000002f0: af69 c93d e16d 373e f509 01be 24d5 b1bb
00000300: 1935 153e ad16 4c3e d027 9d3e dda3 d43a
00000310: 99dc 143e c91f 8e3e a924 c23e c09a da3e
00000320: 8f48 f93e 13be d63e c452 943e 3d35 e53e
00000330: 2d58 0d3f 6ee0 893e a7c2 8d3e 87d9 413e
00000340: d3a0 533e 5bf3 cd3e 709c 5bbc 5cd5 6c3e
00000350: 3b77 853e ff05 963e 2732 cc3e 8fb0 b9bd
00000360: 83bc 2e3d 659b 373e dc2a c03e 691d 0c3f
00000370: 0efd 913e 08ec 6a3e e223 373e 646c 953e
00000380: b077 c93e 6c07 373e 141a 173e fa29 0ebe
00000390: 0b26 143d ffa1 8e3e a98d 8e3e 7f96 1c3e
000003a0: caec ccbd c86b 8abc e24a d23e 3424 913e
000003b0: 352d 053e 9845 3abe 66aa 3a3d e6e4 9e3e
000003c0: 7782 493d fc29 da3d b048 5abe d4bd c73c
000003d0: 83ba 073e ee99 353e 3479 903e 75ed b2bd
000003e0: 4db5 4c3e d9e1 933e 1d0c 603e 551c 0bbb
000003f0: d58a a03d c72f 3f3e 3f36 533d 28bf d2bd
0.39349264 0.48893568 0.7422715 0.4600685 0.37425935 0.2920653 0.22267206 0.19123286
0.35371 0.42912126 0.1828773 -0.122844525 -0.3146642 -0.1348595 0.116685264 0.26344076
0.054808814 0.15094116 0.17373693 0.14699693 -0.108759806 -0.19477431 -0.35255224 -0.4077603
-0.31755435 0.05027325 -0.20087849 0.121048674 0.014982849 -0.02947747 -0.20640267 -0.23427464
-0.100395374 0.05049298 0.39732322 0.0054927543 -0.017880397 0.21214868 0.09318767 0.42191416
-0.14987129 -0.24028386 -0.017741114 0.48813418 0.707222 0.023258027 -0.09174614 0.054777335
0.3707703 0.7182924 0.5239283 0.13433315 -0.15457056 -0.34040317 0.022089098 0.46261162
-0.058084365 -0.19614547 -0.25322747 -0.2783027 0.71179914 0.26118562 0.35574895 0.08280473
-0.16513552 0.72053206 0.22169776 0.18010847 -0.094569296 0.11530554 0.46423033 0.31069532
-0.2146963 -0.17301857 0.04222132 0.10193183 -0.12154042 -0.31906104 -0.018327672 0.068313845
-0.02310989 -0.0011291406 -0.15898255 0.07841578 0.06576754 -0.13071005 -0.12582292 -0.16994816
-0.016986042 0.019978402 0.022976581 0.019351522 0.01817014 0.10091768 0.049419794 0.033730887
-0.029432893 -0.0283954 0.0996945 0.16568439 0.4365041 0.8219319 0.6892512 0.45762855
0.27516153 0.1770149 0.2837122 0.3383631 0.15095884 -0.04294226 0.16817303 0.08570905
-0.045795485 -0.31526533 -0.44103318 -0.23382385 -0.24499676 -0.16664842 -0.22214259 -0.31987083
-0.12059224 -0.20964955 -0.25659513 -0.2068427 -0.025503503 0.32040313 0.22345589 0.20303528
0.20466757 0.21490782 0.05262857 -0.13372098 -0.28893968 0.27236575 0.3756669 0.060251422
0.068808034 -0.095446736 0.4257477 0.1691253 0.10096052 0.12336735 0.115318514 0.40306634
-0.024309775 -0.025764266 -0.077920355 0.13072854 0.24167874 -0.130437 0.5532827 -0.020506762
0.014707156 -0.05916448 -0.11183983 0.6134988 -0.028318675 -0.12584995 -0.09951205 -0.23603503
0.14094293 -0.045846283 0.1163968 -0.12283779 -0.32482567 0.046272736 -0.024152275 -0.044932656
-0.0038955107 -0.14852472 -0.12902504 -0.20776889 0.049568873 0.18909642 -0.10258012 -0.20971178
-0.063229255 0.025266396 -0.005831477 0.08937238 -0.21513322 -0.15539685 -0.025843589 -0.025004113
0.05491718 -0.1633017 -0.05633792 -0.002658505 0.09834611 0.17913009 -0.12601455 -0.0054270197
0.14571036 0.19930525 0.30694437 0.0016223151 0.14537276 0.27758625 0.37918594 0.4269619
0.4868817 0.4194189 0.28969395 0.4476718 0.5521267 0.2692904 0.2768757 0.18930636
0.20666818 0.40224728 -0.013403997 0.23128265 0.26067528 0.2930145 0.39882013 -0.09066879
0.042660248 0.17930372 0.375327 0.54732376 0.28513378 0.22941601 0.17884782 0.29184258
0.39349127 0.17873925 0.14756042 -0.138832 0.036169093 0.27857968 0.27842453 0.15291785
-0.100061014 -0.016897097 0.41072756 0.28347933 0.13005526 -0.1819061 0.04557266 0.3103401
0.049196687 0.10652539 -0.2131679 0.02438251 0.13254742 0.17734501 0.2821747 -0.087366976
0.19991036 0.28883246 0.21879621 -0.0021226604 0.0783898 0.1867057 0.051565405 -0.102903664

gru.weight_hh_l0 f4 [300, 100]
00000000: d72a 393e bdf6 03bf e1c5 093e a23d a9bc
00000010: b122 723e 8642 243f b398 6bbe 8900 55be
00000020: 5681 89be fa96 a9bc 4528 e0be a17e 783e
00000030: e120 723e c02e d43d 3774 24be 70fe 1f3e
00000040: 4dc6 593d e45e 893e ecea c3bc 5df4 893e
00000050: 2972 f63d 5181 6f3d efed 9d3e 1d06 7cbc
00000060: 264a 673e 3030 b13c d8ea 5fbe 4533 0e3e
00000070: 549a 11be 9c64 213e b32b cc3d edbb a53e
00000080: 6d59 b7be 8cc1 92be d3db c33e 3deb 733d
00000090: b1ab debd 68b2 dabc 4f25 843e 561a d53e
000000a0: 9136 91be 63b6 dc3e 3339 fb3d 2bbb b2be
000000b0: 9fed d3bd d99c 1cbd 27bc 1e3e 9a17 84be
000000c0: 1e06 d83d d9b0 813e 6c8c ee3d 1aa0 afbd
000000d0: db69 523d 9675 1fbe c993 f23d ae8c 80be
000000e0: b5df 983c 1903 ca3e 4cf1 d8be b3d1 55be
000000f0: 647c 08be 1716 00bf 75c3 a23d df7f aa3d
00000100: a4ac 34bd 973b 933d 702f 72bd 0dab a3be
00000110: 2f2e 233e 88cf df3d dc5b 78bd 5305 95bd
00000120: b49a c33d 6408 7cbd 49a1 383f 5b6a aabd
00000130: 67b2 f13d bb49 09bf 014f 6c3e 59a8 86bc
00000140: 7d5a a9be 12e0 8abd f68a 433e 3020 c1bd
00000150: dad0 76bd f4c5 d3be 6826 a7bd 900c 0f3e
00000160: 90d7 603d bc58 8c3e cd71 9e3e d6e0 a23e
00000170: 0bd8 263e 8823 94be d85e c3be 483a c33d
00000180: 461d 613c ccd9 f63e b4da 493d b382 973e
00000190: cb69 883c e08c c03d 1343 413d 3444 883e
000001a0: 7d17 99be d6f1 6abc fb1f 68be 5c0c cc3c
000001b0: bb25 95bd 661a e93e be04 c5be d4f0 11bd
000001c0: 2dfd d7bd b09d 9a3d 80b9 43be e457 583c
000001d0: e8b2 823c 8603 d6bc 8e60 3c3c 5f53 b63c
000001e0: 9c51 03bd 69a6 97be 015e 053e f11d a53e
000001f0: 66d0 4f3e a2cf 8b3c a144 cc3d 8446 733c
00000200: fcf5 afbd 39f0 8bbe cc15 5bbe a6a9 e6bc
00000210: 6a67 493d 3130 c53e b91c 573d 8c11 cebe
00000220: f5c9 dfbe 151f 253e 7dbd a3bd 0d56 a23d
00000230: 189a 0a3e 0f16 3b3e aeef 51be b75c fd3d
00000240: da9e ac3e e187 8bbe 3355 013f 4fd4 853d
00000250: 2904 3dbe 4fc3 77bd d72b 623c 9e23 88be
00000260: 9efc 89bd 7628 a53e 8bd2 44bd 7ea2 5ebd
00000270: 89da 4dbd b189 97bd ea9a be3e 7974 1bbb
00000280: 9891 e33b efae 263d 414b 463d 838c af3d
00000290: 1611 833d 5af4 ecbd 10c6 c23e ac03 123d
000002a0: 845b e8ba 68c9 32be dbe6 43be f95d 183d
000002b0: fed2 a4bd f0a8 a8bd b58c fd3d fabb b3bd
000002c0: f147 a43e a566 4bbe 2cad 733e a09f a33d
000002d0: dcb9 813d c6fe debe b7b4 f83e d1ad 083e
000002e0: 5132 503e 8f97 f2be a118 c0be 9d2f 86bd
000002f0: 357b c13e 381c 943e 4ff5 e33d 83ad a2be
00000300: ba07 5cbe 734b c5be db56 73be 2833 89be
00000310: 8bdc 093e 7664 703e cf7a ae3e 12da 20be
00000320: 906c 84be d1d6 1cbd 440a 46be 4862 ef3e
00000330: 5fe5 9abd 0d5c 563d bdb4 2b3e 71c6 493e
00000340: d27e 693e 4714 dd3d 4a72 8dbe 5755 a6be
00000350: 8ef3 4f3c d55e 703e 1e74 c33e 9b1f 36bf
00000360: 3bda 92bd 6e17 5dbd 6c46 3cbe de55 03be
00000370: eeeb 133e cced 903d ecc1 94be 3fb6 bb3e
00000380: abd3 b33e a3fc 443e 61f8 813e f475 e8be
00000390: 1dbc 033c 0a03 2b3e 475f 773e c71d 20be
000003a0: c9dc f23e 04e2 313e 6d6b 49be 5288 af3d
000003b0: eb8e a0be 01da ce3e 23c8 723d 9e0b c2be
000003c0: 4ddb 0a3d 7195 5abe 6085 bbbd 609a 513e
000003d0: 33d0 ad3e 8eb7 693e 7caa 63bd 2731 473f
000003e0: b5b4 5e3e 56f5 31bd c364 89be 2bbe 683c
000003f0: 1b3c 383e e789 d0be c47e 4abe 5bd9 d9bd
0.18082748 -0.5154837 0.13454391 -0.020659272 0.23646046 0.64164007 -0.23007469 -0.20800985
-0.26856488 -0.020701874 -0.43780723 0.24267055 0.23645355 0.10360479 -0.16059957 0.15624404
0.05316763 0.26830208 -0.02391573 0.26944247 0.12033493 0.058472935 0.3084559 -0.015382317
0.22586879 0.021629423 -0.2186693 0.13886745 -0.14219028 0.15761036 0.099692725 0.32369938
-0.35810414 -0.2866329 0.3825365 0.059550513 -0.10872591 -0.026696399 0.25809714 0.41621655
-0.28361943 0.431079 0.12266769 -0.34908423 -0.10348057 -0.03823552 0.15501462 -0.25799257
0.10548042 0.25330237 0.11647877 -0.08575459 0.051370483 -0.15572199 0.11844594 -0.2510733
0.01866136 0.39455488 -0.42371595 -0.20880775 -0.13328701 -0.50033706 0.07947437 0.08325171
-0.044109955 0.071891 -0.05912727 -0.3196644 0.15935586 0.10928255 -0.06063448 -0.07276406
0.09550992 -0.06153144 0.721211 -0.08321067 0.11801606 -0.5362813 0.23077013 -0.016437696
-0.3307685 -0.06781019 0.19095978 -0.094299674 -0.06025777 -0.41361964 -0.08161622 0.13969636
0.054893076 0.2741145 0.30946198 0.3181216 0.16293351 -0.28933358 -0.38158298 0.09532601
0.0137398895 0.4821304 0.049280837 0.29591903 0.016652009 0.0940187 0.047183108 0.26614535
-0.29900733 -0.014339885 -0.2266845 0.024908237 -0.07282587 0.45527953 -0.3848018 -0.035630062
-0.10546336 0.07549608 -0.19113731 0.0132045485 0.01595445 -0.026124727 0.01149763 0.022256551
-0.03206025 -0.29619148 0.13024141 0.32249406 0.20294341 0.01706678 0.099740274 0.014848355
-0.0859184 -0.27331713 -0.21395034 -0.028157067 0.04917089 0.3851333 0.052517626 -0.40247762
-0.43708768 0.16125138 -0.079951264 0.07926569 0.13535345 0.18270133 -0.20501587 0.123711996
0.33714944 -0.27252105 0.5052063 0.06534635 -0.18458618 -0.060488995 0.013804398 -0.26589674
-0.06737636 0.32257432 -0.048052352 -0.054354183 -0.05025724 -0.073993094 0.37227565 -0.0023720546
0.0069448464 0.040694173 0.04841161 0.08571722 0.06399743 -0.11570044 0.38041735 0.035648033
-0.0017727469 -0.17459643 -0.19131033 0.037198994 -0.08048056 -0.08235347 0.12380353 -0.08776088
0.32086137 -0.19863375 0.23796529 0.079894304 0.06334278 -0.43553752 0.48575374 0.13347556
0.20331694 -0.47381255 -0.3751879 -0.0655205 0.37789312 0.2892778 0.11130773 -0.31773004
-0.21487322 -0.38534126 -0.23763601 -0.26796842 0.13463037 0.23475823 0.3407807 -0.15708187
-0.25864077 -0.038290802 -0.19339854 0.4675467 -0.0756328 0.05233388 0.16768165 0.19704606
0.22802284 0.10794883 -0.27626258 -0.32486984 0.012692345 0.23473676 0.38174528 -0.71141976
-0.071705304 -0.053977422 -0.18386239 -0.12825724 0.14445469 0.07076606 -0.290542 0.3666248
0.35122427 0.19236998 0.2538481 -0.4540249 0.008040455 0.16700378 0.24157439 -0.15636359
0.4743407 0.17371374 -0.19669886 0.08570923 -0.31359038 0.404007 0.059272896 -0.37899488
0.033900548 -0.2134607 -0.09156299 0.20469046 0.33947906 0.22823927 -0.05558251 0.77809376
0.21748622 -0.04344686 -0.26834688 0.014205496 0.17991678 -0.4073021 -0.1977492 -0.106371604

gru.bias_ih_l0 f4 [300]
00000000: ea36 92be 31b8 15be 4111 403c e60f 61be
00000010: f522 66be 0a1f 4cbe 7091 79bd aee3 96bd
00000020: ab52 9abd 8e22 e3bd edd6 dfbd df7c a5be
00000030: d469 6d3d 9f4b a9be cf34 5abe 2455 8d3b
00000040: a10e 8ebe 35b1 13bd 7fdf 08bf cf9d 1dbe
00000050: 0eec 61be a48c 61be b5e2 84be ef01 09be
00000060: 9021 22be 80d6 ddbe c80c 29be ee61 66be
00000070: 94c3 05bc 67f0 31be 38a4 a7be 32e1 97bd
00000080: 6b0b b0bd a4d0 58be 6906 6ebe 4d98 d83d
00000090: 24db 90be e7d1 373c c942 5abe 0d2d 67be
000000a0: 02cc a0bd 6a16 15be 3d9f a6be 49fd c2be
000000b0: 60e0 18be f31a 86be 7a3d 76be 402a 2cbe
000000c0: 90c5 183e da95 5dbe 3f43 89be 52ce a2bd
000000d0: edc1 9cbd 3779 cabd 1ffc 2bbd 436b 9d3b
000000e0: a0f9 a2b9 3875 4bbe ac35 13be 8c8f 87be
000000f0: d663 c0bd 9b57 a4be b0a3 69be 0b6b adbe
00000100: 4b7b 94bd 6cde 1ebe 511b a63d c9e1 93bd
00000110: 7405 b6be 8c81 a8be 2d7c 58be e11e 6b3d
00000120: 7f19 1ebe 25dc a5be a456 c93d bfbc 95be
00000130: 5c24 86be 1763 e7bd 0371 0cbe d059 15bd
00000140: f874 b6be 4800 003e 4796 1d3d 665e 83be
00000150: e33d 05be a3a2 983e 9265 5a3e daa1 263d
00000160: 8a59 08be 72af 85be 55dd c73d 675e bfbe
00000170: a616 5ebe 3a42 71bc 8c5b c3bd b379 6fbb
00000180: a9ce 5cbd ebd6 85be add9 1d3e 8b85 56be
00000190: 1225 863e bac4 123f 82e9 693e 3269 c43e
000001a0: 21d1 a03e 79ce 223e 200b 82bc 5149 743e
000001b0: 7cd4 843e 2794 603e a485 803e 626f c03e
000001c0: 9413 d93e 5689 4e3e 31c4 133f bd3e bb3e
000001d0: 28c7 0a3e 96dc 843e 54f8 c7bb 47b6 7c3e
000001e0: 4b14 6c3e 8224 953e 7677 343e 7f1d b93e
000001f0: ea9f 9e3e cf55 793e d464 5f3e f0b0 003e
00000200: 1665 a63e fc29 e23d 5b69 023f ccb8 edbc
00000210: 8401 c93e 210c 613e 17fb ab3e f9ba 2d3e
00000220: 6b67 053e 5372 b93e d2d4 8d3e 025c 903e
00000230: 1e4f 913e 7e81 c33e 47f2 933e a86b 963e
00000240: 5ef0 bb3e f4c5 c13e 3f47 2c3e 7bf3 8a3e
00000250: fc85 8f3e 9d8f c93e d82f 9e3e 612a e23e
00000260: d501 59bd 6249 c13e b0ee 94bc 3307 3fbd
00000270: ebcb e23d 4449 893e 6ad9 363e 526f ec3d
00000280: 8db2 043f 4119 023f d8d8 633e cf6c ba3e
00000290: 93d7 4cbe 6e3f 843c 059b b83e f4fb a73e
000002a0: 6784 a43e 45d6 a23e 9691 ae3e 26f0 aa3e
000002b0: 924d a43e 90e7 8d3e a64f ee3d cb51 283e
000002c0: 6468 283e d715 3e3e 2993 8f3e a675 3e3e
000002d0: 9a42 a23e de72 9e3e 2dd9 ce3e 923c f83e
000002e0: 1813 273e c5ee 8dbe bad1 69bb f4c4 933e
000002f0: 207f af3e d364 423e d609 113f f6b2 443e
00000300: 89aa 873e bdac ee3d f6c1 8f3e 1912 bb3e
00000310: d640 573e 73ad 7d3e 2a0e d93c 0aea 883e
00000320: f590 49bd 10dd 4c3e 4625 d0bd ec5f 4a3d
00000330: 512a f0bc 6547 07be 2f35 fcbc 28ff aa3d
00000340: 686b 863d 8caf 3fbd 7f5a 93bd 6b3b ef3d
00000350: 9ea3 273d 1df9 e2bd b522 573e 4bee 4ebe
00000360: 9abc edbc 7c41 80bd 7942 f63d 8d0b 063d
00000370: adfe e9bd 02e6 05be 27fa abbd f664 d4bc
00000380: c54a cbbc bdac 603d c87d 79be aaac e6bd
00000390: 06a9 ccbc 67a9 02bd 1e2e f8bd 115e 3fbe
000003a0: 8a0a 51bd 2512 6b3e ff8f 153e fa8e 9c3e
000003b0: 4713 033e eb23 da3d 099c 9e3e fb54 ccbc
000003c0: 6ded 02be 82b8 ec3d f790 b83d 4666 af3d
000003d0: babc dd3c 6b53 f1bd b26a 5cbd 390d cb3d
000003e0: c518 6c3e ca3e 62bd 1056 f93d 6591 0bbc
000003f0: eb5d 1b3e e3b1 29be 476a 3abe eeaa 09be
-0.2855752 -0.14621045 0.011722864 -0.21978721 -0.22474273 -0.19933715 -0.060929716 -0.07367645
-0.07535299 -0.11090575 -0.10929666 -0.32321832 0.057962254 -0.33065507 -0.21309207 0.004313128
-0.27745536 -0.03605767 -0.5346603 -0.1539223 -0.22062704 -0.22026306 -0.25954214 -0.13379644
-0.15833116 -0.43327713 -0.16508782 -0.22498295 -0.008164305 -0.17376862 -0.32742476 -0.074159995
-0.08595928 -0.2117334 -0.23244633 0.10575924 -0.2829219 0.011219478 -0.21314539 -0.2257578
-0.078514114 -0.14559332 -0.32543364 -0.38083866 -0.14929342 -0.26192436 -0.24046889 -0.16812992
0.14919114 -0.21639195 -0.26809117 -0.07949509 -0.07654176 -0.09886401 -0.04198849 0.0048040464
-0.00031085033 -0.19868934 -0.14375943 -0.26476705 -0.09394042 -0.32098088 -0.22816348 -0.3387073
-0.07250079 -0.15514535 0.08110679 -0.072207995 -0.35551035 -0.32911336 -0.2114112 0.057402495
-0.15439413 -0.3239452 0.098309785 -0.29245564 -0.26199615 -0.11298197 -0.13714986 -0.036462605
-0.35636115 0.12500107 0.038473394 -0.25657958 -0.13011889 0.29811582 0.21327808 0.040681697
-0.13315406 -0.26110417 0.097590126 -0.3737671 -0.21688327 -0.014725262 -0.095389456 -0.0036541044
-0.053908024 -0.26140532 0.15415068 -0.2094938 0.26200157 0.5733143 0.22842982 0.38361508
0.31409553 0.15899076 -0.015874445 0.23856093 0.25943363 0.21931516 0.2510196 0.37584978
0.4239775 0.20169577 0.5772124 0.36571303 0.13552535 0.25949544 -0.006102601 0.24678908
0.23054616 0.29129416 0.17623696 0.36155316 0.3098138 0.2434914 0.21815807 0.12567496
0.32498997 0.11043164 0.5094201 -0.029018782 0.3925897 0.21977283 0.33590004 0.16965856
0.13027732 0.36220035 0.27701432 0.28195196 0.28380674 0.38184732 0.2889578 0.2937901
0.36706823 0.3784634 0.16824053 0.27138886 0.2803191 0.3936738 0.30895877 0.44172958
-0.052980263 0.377513 -0.018180221 -0.046637725 0.110740505 0.2681371 0.17856374 0.1154467
0.51834947 0.50819784 0.22250688 0.3641114 -0.2000411 0.016143527 0.3605577 0.32809412
0.32132265 0.318041 0.34095448 0.33386344 0.3209043 0.2771573 0.116362855 0.16437452
0.16446072 0.18563019 0.28041962 0.18599567 0.31691438 0.30947012 0.40400067 0.4848371
0.16315877 -0.2772123 -0.0035677985 0.288612 0.34276676 0.18983774 0.56655633 0.19208893
0.26497295 0.11654041 0.28077668 0.36537245 0.21020827 0.24773197 0.026496012 0.26741058
-0.049210507 0.20006204 -0.10163359 0.049407884 -0.029317053 -0.13210829 -0.030787079 0.083494484
0.06563455 -0.046798274 -0.07194995 0.11681255 0.040927522 -0.11082671 0.21009333 -0.20208089
-0.029020596 -0.0626249 0.120243974 0.03272586 -0.11425529 -0.13076022 -0.08397322 -0.025927048
-0.024815926 0.054852236 -0.24364388 -0.11263402 -0.02498294 -0.031899836 -0.12118171 -0.18688227
-0.05103544 0.2295614 0.14605711 0.30577832 0.12800322 0.10651382 0.3097842 -0.024942866
-0.12785883 0.115586296 0.09012025 0.08564429 0.02706753 -0.11783489 -0.05381269 0.099146314
0.23056324 -0.05523566 0.12174618 -0.0085185515 0.15172546 -0.16571765 -0.18204604 -0.13444111

gru.bias_hh_l0 f4 [300]
00000000: b3f2 8cbe 5354 26be fcbf 783d 15d8 92be
00000010: dc39 66be eec0 5bbe 5649 86bd 29e2 60bd
00000020: d434 d6bd a74e a1bd 2b0a abbd 6bc3 a6be
00000030: 6977 ce3d e181 b8be f4c5 55be 3a10 20bd
00000040: 9136 88be 3530 49bc 108d 02bf 26b9 42be
00000050: 41e5 45be 46ed 57be 5977 62be a295 3bbe
00000060: f92f 1ebe c198 cebe d785 43be 1840 81be
00000070: 3b2e 6ebd 0d7d 33be bf41 c9be 9ac7 9dbd
00000080: 6cac aabd 9f0a 69be e130 8bbe 56ab e43d
00000090: 2bc2 a0be 4bbe 9b3c c3a5 52be 98be 89be
000000a0: c5e2 b8bd 97b7 2abe ebbc b5be a51e ddbe
000000b0: 6acf f0bd 8b89 8fbe 2736 8fbe 2ee9 01be
000000c0: e215 463e 9d02 54be 1da1 a0be 3dd7 cbbd
000000d0: c9ac a1bd 888a a7bd 0abc 9ebd e28d eb3b
000000e0: 599a 28bc e129 7dbe 6123 e8bd 37ab 97be
000000f0: c7b9 02be 05ba adbe b4ec 66be 8b2d 9bbe
00000100: 180f 8fbd 9129 36be 6df3 bf3d cfcd b8bd
00000110: 76e0 aebe c6d7 a5be a3df 46be 1206 573d
00000120: 7789 2cbe f083 98be 8b53 cc3d 76d0 9abe
00000130: 2ded 75be e97c f8bd ad1f 35be 9ca4 acbd
00000140: 7a8e b3be c9cf cf3d d206 cd3c d60d 72be
00000150: 7c7c 0ebe a730 8e3e 3104 593e 35c2 8e3c
00000160: 66a1 05be 467b a6be 039c 743d 7a06 c0be
00000170: dfe6 17be 9684 30bc 155d 68bd a387 c73c
00000180: 5642 1fbd 7dfc 95be 212c 1c3e bd53 33be
00000190: 36bd 883e 481a 0f3f 73d2 563e 6e02 bd3e
000001a0: 1a34 a83e 10df 3d3e 86f3 cabc 9c8c 493e
000001b0: f68f 793e 5d0e 713e fabe 8f3e adfa b53e
000001c0: b7c0 db3e 8e18 5f3e d5a8 183f 9154 bd3e
000001d0: 21de 153e 8aa1 623e bb2f b93c d0cd 793e
000001e0: d20f 5a3e fd2f 963e 980a 173e b945 c03e
000001f0: 7d17 b33e f427 793e fcfd 4c3e f1d2 1b3e
00000200: 11e8 993e d9bf 133e d152 fe3e b02c 6dbc
00000210: d4a7 ce3e ccc2 473e 5553 ad3e f67c 5f3e
00000220: 763c 0d3e 393d 963e d7b9 993e b098 8e3e
00000230: e87b 883e 3c17 ae3e 019e 893e 8712 993e
00000240: 6354 bd3e 04e5 bc3e e28b 3c3e 4d5f 783e
00000250: 682d 783e b513 c43e c206 9c3e b8bf e23e
00000260: 0995 9cbd 1134 c33e 3d35 e3bc cb56 c7bd
00000270: 8a44 fc3d a604 9a3e 926e 363e f0bc 9c3d
00000280: daa6 003f ff71 f03e ea8d 693e 2bef c73e
00000290: 61cd 50be d30e 8f3c 0730 b63e 7bcf 933e
000002a0: 8c36 c23e ce91 b13e 95f6 c03e 536e ab3e
000002b0: 0ed8 a53e 7c21 733e 7d28 bf3d 68d4 113e
000002c0: 961b 363e 6cf9 3d3e f4ef 923e 156a 483e
000002d0: 0bf4 a73e 99c0 a83e 73cf de3e a123 fc3e
000002e0: a9ef 083e 23ab a2be dccc 6fbd a752 623e
000002f0: 4aba a73e 45e6 753e 7c75 103f 13dc 2a3e
00000300: 6568 853e 53b5 c33d 3828 8d3e e6a2 ac3e
00000310: d4ce 813e 35c2 803e 09a8 a43d 818b 913e
00000320: 154e 94bd 0558 903e f17b 7dbe 8e0b 9f3c
00000330: 64b1 733e 990f cbbd ce4c 763c e5fb f23c
00000340: a11c 503e 2abb ce3c f7c1 bebd 18bd 1b3d
00000350: 0823 3ebd 4716 113e 8cfa 873e 8fbe 1abe
00000360: 2743 a1bc 3f7e d0bd ed5a 2bbd 5aba d23d
00000370: 6731 04be b048 41be c0a6 56be 5ec3 a13d
00000380: 7dc0 a3bd 8009 f6bd fbc2 9fbd 9435 23bd
00000390: 5d1b 1cbd 548a 503e dca0 ffbd 25c0 0ebe
000003a0: 1d8e c23b 4e24 723e db11 c33d cb5f 973e
000003b0: 71d0 f83d a089 de3d 6e9e 463e 7b96 10bd
000003c0: 7f73 ecbd 1546 453d bf75 a13d 0b1d e73d
000003d0: 8c12 263e f967 96bc bc01 0abe bb74 7d3e
000003e0: 5bca b53e 9c7d 1ebe 7836 603c 31eb 75bd
000003f0: ee12 7c3e 909b 44be c250 efbc 7179 2b3c
-0.27528915 -0.16243105 0.060729966 -0.28680483 -0.22483009 -0.21460316 -0.065569565 -0.054903183
-0.10459295 -0.0787633 -0.08351549 -0.32570967 0.100813694 -0.3603659 -0.20876294 -0.039077975
-0.2660413 -0.01227956 -0.50996494 -0.19015941 -0.19325735 -0.21086606 -0.2211584 -0.18318799
-0.15447988 -0.40350917 -0.19094025 -0.25244212 -0.058149558 -0.17528172 -0.39307973 -0.077040866
-0.08333668 -0.22757958 -0.2718573 0.11165492 -0.31398138 0.019011637 -0.20571046 -0.26903224
-0.09027628 -0.16671596 -0.35495695 -0.43187442 -0.11758311 -0.28034624 -0.27971002 -0.12686607
0.19344285 -0.20704122 -0.3137292 -0.09953163 -0.07894284 -0.081807196 -0.07750709 0.0071885446
-0.010290706 -0.24723007 -0.11334873 -0.29622814 -0.12766181 -0.33930984 -0.22551233 -0.30308184
-0.06985301 -0.17789294 0.09372602 -0.0902363 -0.34155625 -0.32391185 -0.19421248 0.052496023
-0.16849314 -0.2978816 0.09976872 -0.30237168 -0.24016257 -0.121332 -0.17687865 -0.08429834
-0.35069638 0.10147054 0.025027666 -0.2363809 -0.13914675 0.27771494 0.21193005 0.01742659
-0.1304985 -0.32515925 0.059719097 -0.3750494 -0.14834164 -0.010773798 -0.056729395 0.024356669
-0.038881622 -0.29294196 0.15251209 -0.17512412 0.26706856 0.55899477 0.20978718 0.36915916
0.3285225 0.18542123 -0.024774324 0.19682544 0.24371323 0.23540635 0.2807539 0.35542813
0.42920467 0.2178671 0.5963262 0.36978582 0.14635517 0.22131935 0.022605767 0.24394917
0.21295097 0.29333487 0.14750135 0.37553194 0.34978858 0.24331647 0.20018762 0.15217187
0.30059865 0.14428653 0.4967256 -0.014475986 0.40362418 0.19507903 0.3385264 0.21825013
0.13792595 0.29343584 0.30024597 0.27850866 0.26657033 0.340021 0.2687836 0.29896948
0.36978444 0.36893475 0.18412736 0.24255104 0.24236071 0.38296285 0.30473906 0.44286895
-0.07645614 0.3812566 -0.027735347 -0.09733351 0.1231776 0.3008167 0.17815617 0.076532245
0.50254595 0.46961972 0.22808042 0.39049658 -0.20390846 0.017463123 0.35583517 0.28869233
0.3793224 0.34681553 0.37688127 0.33482608 0.323914 0.23743242 0.093338944 0.14241183
0.1778396 0.18552178 0.28698695 0.19571717 0.32803378 0.3295944 0.43517646 0.49245933
0.13372673 -0.31771192 -0.05854498 0.22101842 0.32759315 0.24013622 0.56429267 0.16685514
0.2605621 0.09556069 0.27569747 0.33718032 0.2535311 0.25148168 0.08039863 0.28426746
-0.072414555 0.28192154 -0.24754311 0.01941469 0.23798138 -0.099150844 0.01503296 0.029661128
0.20323421 0.025235731 -0.093143396 0.03802213 -0.046420127 0.14168654 0.2655834 -0.15111755
-0.019685341 -0.101803295 -0.04183476 0.1028945 -0.1290947 -0.18875384 -0.20962048 0.078985915
-0.079956986 -0.12013531 -0.078008614 -0.039846018 -0.038112033 0.20365268 -0.12481853 -0.13940485
0.0059373514 0.23646662 0.0952489 0.29565272 0.12149132 0.10866094 0.19396374 -0.03529976
-0.11545467 0.04816254 0.078837864 0.112848364 0.16218013 -0.018360125 -0.13477224 0.2475156
0.35505947 -0.15477604 0.013684861 -0.06003875 0.24616596 -0.19199967 -0.029213313 0.010465966

dense_output.0.weight f4 [100, 100]
00000000: 8791 163e 9ee0 0a3b faeb 86bd 9de4 75be
00000010: e477 febd a20d 873d d2ad c23d f0f0 993d
00000020: 7704 49be cff6 cc3d e479 81be 0808 3a3e
00000030: 7fb6 4f3d cd4a 153e 0b46 bf3e 6c02 14bc
00000040: a744 9dbd edb4 d43d dbd9 10be d9b8 26be
00000050: 609a b33d 1b15 a9bd cce2 163d ce94 efbb
00000060: dc81 b539 b46e 4cbd 914f 823d 060b 503e
00000070: 1d06 d8bd a972 813e d66a 5e3e 3825 3d3e
00000080: ff53 4abc 267e 713e 583e 1f3e d9da eabd
00000090: b48f a73d 16ca 19be 6933 84bd fcce 133e
000000a0: af97 893c e4cd 4c3e 90ff 90bd 9cd6 76be
000000b0: 6843 cf3d 4ab0 b03d e03c 76be 01c2 e6bb
000000c0: 6969 a1be fb6d c73d 46b0 3abd 8a5e f93d
000000d0: bd0b 7bbe da68 bf3b 9da9 26be bcbf 303d
000000e0: aa40 713e e8f3 713d a071 9abd e9a3 bfbd
000000f0: be84 a4bc 768e d0bc d02c e4bc a98d 593e
00000100: f9b7 56be 9fa5 98be 29ac bd3d 7483 83be
00000110: 9432 283e 87e2 4abd 0754 c8bd afad f5be
00000120: 9bbb 703d f538 73bd 9b2b 833e ae5b 2ebe
00000130: 0d2d 6d3d 8530 c73d 9251 28be 663a 12be
00000140: 1769 8bbd e1c0 14be b1bd 8a3d d43f acbb
00000150: 9773 163e 9be6 a6be 0224 b83e 722a bebd
00000160: f56f 863d 1a58 3abd 1c2e 133e b94c f4bd
00000170: 88c4 d5bc fbcb 94be ea72 7ebe e7f5 d1bc
00000180: 5dc8 a83c 79b5 7b3e b0f0 633e 9de0 b3bd
00000190: 82fb 4ebd e05e 54bd b188 9a3d 8cc1 8dbd
000001a0: 403b 99bd 94eb 2a3d cc77 353d 3c5b 9d3d
000001b0: 59e7 e1bd 4de2 023e 70cc 0c3c ede3 ba3d
000001c0: 8200 083d dcb7 44bd ca63 0fbd f141 1c3e
000001d0: 7d94 693c 12b4 12bc 049c 703c d90b a7bd
000001e0: 7a10 423c 142b 1a3e c799 153d 6122 13bc
000001f0: fc62 233d 81f5 89bd cd78 71bc 90e9 503e
00000200: c218 d63d f50e 7b3b c2f5 c63d 589d 05bd
00000210: 8342 2fbd a37e a9bd 2fe8 9bbd 469a 633d
00000220: ab2e 503c 2fa2 80bd 98ca a4bd 77b0 193e
00000230: c510 453d 5f78 323d b4f8 25bd d68a 1dbd
00000240: c597 d3bd 38f6 3ebd bcde febb 8977 90bd
00000250: d1e1 763c 08fd 1c3e 6e15 72bd d08b d3bb
00000260: 268e 683b d0e0 e13b 76d9 a4bd 0bf9 95bc
00000270: a593 163e 903b 043c 4adc a5bd 00fb 8ebc
00000280: 8c99 76bc 979d e0bd 5f2e 9fba 44e1 aebd
00000290: 2182 c9bc a05a aabd f878 81bd 56fb 583d
000002a0: 3b00 043c 5980 b7bc 5c5c d8bd 2236 b6bd
000002b0: 0a16 64bd 728e fd3d bb84 da3d f941 d6bd
000002c0: 07f4 193c ffbb ecbb 7a9c 5a3d bc8c 95bc
000002d0: 81c3 04bd fb11 ccbd 334b c73d 9fea 8abc
000002e0: 54d3 2a3d 01a3 9a3d 993a 02be fd19 b5bc
000002f0: 42ff b43c 164e 2e3d edfd 423e c9d8 143b
00000300: 9c0e f03c 7a7c 7dbd 8a67 03be 44a4 3dbd
00000310: 2a2c d33d f644 f53b e01e cb3d a7e9 073c
00000320: 3898 f03c 8cc6 b3bc 4802 093e 8458 383d
00000330: d555 cf3b 12b1 f23d 22a5 d93c 1970 173e
00000340: 5be2 c6bd b3e6 e73d 8cf3 313e 06ce d23d
00000350: b98c be3d 2fc1 c5bd f0d9 86bd b080 623e
00000360: 650e b63d 93ec 743c 2e82 a83d 281b 92bd
00000370: 6aaa 0bbc cb97 013e d0f4 1fbd 9f18 083e
00000380: aa13 903d bfb5 95bd 410a 1fbe 75bf e5bd
00000390: 3983 7a3c 6e12 8d3d d24a f63d 14d5 63bc
000003a0: 82e9 ef3d 8ba5 d13d 211c a63c ffbf 50bd
000003b0: 6354 f23c ca6b 29be ecf8 42bc cc87 843e
000003c0: fd60 383e fbde eb3d fba1 9abd ecbe bfbd
000003d0: 9a6a dabd 3145 56bd 382d 5f3d 6a98 19be
000003e0: 6bc6 7e3d d040 263e d53b 20bc ba3f da3d
000003f0: b74f b0bd fb39 f23c e25a 12be e6eb 17bc
0.14703952 0.0021191011 -0.06587978 -0.2401299 -0.12425211 0.06594397 0.0950581 0.07516658
-0.1963061 0.100080125 -0.25288308 0.18167126 0.05071115 0.14579315 0.37358126 -0.009033781
-0.0767911 0.10386071 -0.14145605 -0.16281451 0.08769679 -0.08255979 0.036837384 -0.00731144
0.00034619763 -0.049910262 0.06362832 0.20316705 -0.10548041 0.2528279 0.21720442 0.18471229
-0.012349128 0.23583278 0.15551126 -0.11467523 0.08181706 -0.15018496 -0.06455118 0.14434427
0.016795961 0.20000416 -0.07079995 -0.24105304 0.101202786 0.086273745 -0.2404666 -0.00704217
-0.31525734 0.09737774 -0.045578264 0.12176235 -0.24516197 0.0058413567 -0.1627564 0.043151602
0.23559824 0.059070498 -0.075412035 -0.09357435 -0.020082828 -0.025458556 -0.0278534 0.21245445
-0.20968617 -0.2981386 0.092613526 -0.25686228 0.16425544 -0.04953244 -0.09781652 -0.47984073
0.058772665 -0.05938049 0.25619206 -0.1702716 0.057904292 0.09726051 -0.16437367 -0.1428009
-0.06807154 -0.14526702 0.06774462 -0.0052566323 0.14692532 -0.32597813 0.35964972 -0.092854396
0.06564323 -0.045494176 0.14373058 -0.11928696 -0.02609469 -0.29061875 -0.24848524 -0.02562995
0.020603353 0.24580945 0.22259784 -0.08783076 -0.050532825 -0.051848292 0.07545603 -0.06921682
-0.07482004 0.04172857 0.0443037 0.07683417 -0.11030454 0.1278164 0.008593664 0.09125505
0.03320361 -0.048026904 -0.035007276 0.1525953 0.014256594 -0.008954065 0.0146856345 -0.08156557
0.011844749 0.15055496 0.036523607 -0.008980365 0.03988932 -0.06736279 -0.014738274 0.20401597
0.10453941 0.0038308476 0.09714843 -0.032620758 -0.04278804 -0.08276107 -0.07612645 0.05556705
0.012706439 -0.06280934 -0.08046454 0.15008722 0.048111696 0.043571826 -0.040520385 -0.038462482
-0.10331682 -0.04662153 -0.007778017 -0.070540495 0.015068487 0.15330899 -0.05910247 -0.006455876
0.0035485118 0.006893255 -0.0804929 -0.01830723 0.1470476 0.008070841 -0.080986574 -0.01745367
-0.015051257 -0.10967558 -0.0012144557 -0.0853906 -0.024598183 -0.083180666 -0.06321901 0.052974068
0.008056696 -0.022400068 -0.10564491 -0.08897044 -0.05568508 0.12380685 0.106698476 -0.10461802
0.00939656 -0.0072245593 0.053371884 -0.018255584 -0.03241301 -0.09964367 0.0973114 -0.01695758
0.041705444 0.07550622 -0.12717666 -0.022107119 0.022094373 0.042554937 0.19042177 0.0022712222
0.029303841 -0.06188629 -0.12832466 -0.046299234 0.10311158 0.0074850274 0.09917998 0.008295453
0.029369459 -0.02194526 0.13379776 0.04500629 0.0063273706 0.1185018 0.026568 0.14788856
-0.09711143 0.11323299 0.17378062 0.10293202 0.093041845 -0.096559875 -0.06584537 0.22119403
0.08889464 0.014948982 0.08227955 -0.07134086 -0.008524517 0.1265556 -0.03905183 0.13290642
0.070350006 -0.07310056 -0.15531255 -0.11218158 0.015290075 0.06888281 0.120259896 -0.013905782
0.1171446 0.10236653 0.020277085 -0.05096435 0.029581254 -0.16545025 -0.011900168 0.25884855
0.18005748 0.115171395 -0.075504266 -0.09362587 -0.10664864 -0.05231208 0.054486483 -0.14999548
0.062200945 0.16235662 -0.00977989 0.10656686 -0.086089544 0.029568663 -0.14292482 -0.009272551

dense_output.0.bias f4 [100]
00000000: e84c 07be dcf5 62be 6ce1 97be 883b 4dbe
00000010: fe5a 36bd 62a6 fe3d a412 05be 5d60 20be
00000020: 3c85 20be 8f09 9abe c2ab 6cbe f52d 45be
00000030: 445c 00be 19a4 57be 34dd 98be 629a 99bd
00000040: 219c 28be ff99 42be 38a1 2fbe 1973 19be
00000050: 5e0e 59be 0c45 6cbd 04f5 c1be 971d a9be
00000060: ea0e 49be 7dc9 94be 64d7 9abe 875f c2bc
00000070: 9808 50be 0f6d 63be 2e22 41be c6bf 11be
00000080: 794f 17be 3e39 80be 53ae b6bc d661 3fbe
00000090: 9ef9 19be 8cb3 27be 1106 14be b6ed f0bd
000000a0: 106b 0dbe f39d c3bd 4820 36be deef 2bbe
000000b0: aaed 7fbe 0394 03be b220 52be e80f 17be
000000c0: 5849 a5be 30fa 6dbe daef b4bd f32b 85be
000000d0: e4d8 88be 2519 bfbe db8c 9abe 1684 4ebe
000000e0: 8eb4 6fbe 71ea cebd 2c1c 91be 6997 66be
000000f0: ad6b cfbe 8780 6fbe d7f5 d4bd 31a9 ccbe
00000100: 650b 88be 48dd 63be eb65 16be fba1 aebe
00000110: f9f1 2cbe e1f3 b1be aae0 d3bd 8453 32be
00000120: 303d 3dbe 76b9 abbd 8846 74be f401 29be
00000130: a5c6 92be 361d 25be b623 05be 01c6 36be
00000140: bedd 1ebe 4c32 9bbe 2ab9 49be ded1 34be
00000150: ec16 b33e f3c8 f4bd bc15 12bd 368d 63be
00000160: 78c4 26be f0a0 2fbe 2e16 6dbe 42b0 50be
00000170: 5109 b1be f803 29be dfd7 47be f161 9bbe
00000180: 686f 5fbe 22bb 7ebe 0bfe 91be 1e29 20be
-0.13212931 -0.221641 -0.2966417 -0.2004224 -0.04452037 0.12434079 -0.12995392 -0.1566176
-0.15675825 -0.30085418 -0.23112395 -0.19255812 -0.12535197 -0.21058692 -0.29856265 -0.07500149
-0.16465808 -0.19004057 -0.17151344 -0.14985313 -0.21196887 -0.057683036 -0.37882245 -0.33030388
-0.19634596 -0.29059973 -0.30242455 -0.023727192 -0.20315778 -0.22209571 -0.18860695 -0.14233312
-0.1477641 -0.25043672 -0.022299921 -0.18689665 -0.15036628 -0.16377085 -0.14455439 -0.1176409
-0.13810372 -0.09551611 -0.17785752 -0.16790721 -0.24993005 -0.1284943 -0.20520285 -0.14752162
-0.3228252 -0.2323997 -0.088348106 -0.26010093 -0.26727974 -0.3732387 -0.3018559 -0.20167574
-0.2340872 -0.1010331 -0.28341806 -0.22518696 -0.40511838 -0.23388873 -0.10398453 -0.39972833
-0.26571193 -0.22252381 -0.14687316 -0.34107956 -0.1688918 -0.34756377 -0.10345586 -0.17414671
-0.18480372 -0.08384983 -0.2385503 -0.16504651 -0.2866718 -0.16124424 -0.13001904 -0.1784897
-0.15514275 -0.3031181 -0.1969954 -0.17658183 0.34978426 -0.119523905 -0.03566526 -0.22221836
-0.16285884 -0.17151237 -0.23152992 -0.20379737 -0.3457742 -0.1650542 -0.19515942 -0.3034816
-0.21819842 -0.24876073 -0.28514132 -0.15640685

dense_output.3.weight f4 [1, 100]
00000000: a6f8 4f3d bada a13b 60b5 a3bb 4d0c e0bc
00000010: 246b 803d 1607 283d a08e cf3b 9507 7b3d
00000020: de09 fdbb 2a13 353d 9e9d 533c fb2b aabc
00000030: 32af 41bc 61cb 8c3c 879d 9fbc 7019 573c
00000040: 4846 083c ea43 0abb 954a b4bb 0e60 48bc
00000050: c725 74bb 1f30 453b 150c 043c 52a4 2cbd
00000060: 016a f53c fe8a d8bc 07f1 4f3c 4e79 a4bd
00000070: 374b aabb d065 ab3b aba1 873c 0d05 10bc
00000080: 09b8 e0bb b3eb eb3b 9f1a 963c 5c91 993b
00000090: 5c16 8abc b9a3 c8bb d251 903c a8a0 783b
000000a0: cb4a dfbb 9592 fe3b cd64 e5bc 5b0a 2d3a
000000b0: 6324 733b c119 19bc be05 d43c 7ff3 e9bc
000000c0: 81b6 0c3c 1a1a 25bc 2f7a 093b df85 553d
000000d0: 6c44 b13b f35c 293d 9bf5 0b3d 2a5e 793d
000000e0: e3ea 6cbb ba37 a1bb 2aaf 5abc 6168 82ba
000000f0: d44c 1fbe 57bd 773c b9dc 00bc 2945 5bbe
00000100: a989 01bd 4f32 2cbb e587 98bb e38f 7ebb
00000110: aec0 003c f0db a2bd 0c69 923d 08d3 913a
00000120: 371e 75bc de95 b43a 303d 58bb 8ffa eebc
00000130: 28a6 a8bb 45a2 98bb 2b40 9cbb f979 b6bc
00000140: 1773 473c b3be a4bd 2724 f4bb 5c3c cabb
00000150: 59f3 c63d eacb c63b a349 493d 15e1 36bc
00000160: ca58 80bc d863 a33b dcc7 6fbb 4051 bfbb
00000170: b71e 8bbd fca8 983b c7b6 303a 97b4 a7bb
00000180: ef1f 003c d068 d8bc 4124 08bc 34d0 33bc
0.05077424 0.0049394043 -0.004995987 -0.027349615 0.062704355 0.041022383 0.006334141 0.061286528
-0.0077221235 0.04420773 0.012915997 -0.020772925 -0.011821555 0.017186822 -0.019484295 0.013128623
0.008317538 -0.002109761 -0.005502055 -0.0122299325 -0.0037253962 0.0030088497 0.008059521 -0.042148896
0.029957773 -0.026433464 0.012691743 -0.080309495 -0.0051969546 0.005230643 0.016556581 -0.008790267
-0.006857876 0.0071997284 0.01832324 0.0046865176 -0.016856365 -0.006123033 0.01761714 0.0037937555
-0.006814336 0.007768939 -0.028002167 0.00066009694 0.0037100546 -0.009344519 0.025881644 -0.02855849
0.008588434 -0.010077024 0.0020977368 0.052129623 0.005409768 0.04134841 0.034169775 0.060880817
-0.0036150746 -0.004919973 -0.013347426 -0.000994932 -0.15556651 0.015120826 -0.007865124 -0.21413101
-0.031625424 -0.0026275103 -0.0046548718 -0.0038843087 0.007858438 -0.07952106 0.07148942 0.0011125514
-0.014960817 0.0013777574 -0.0032995455 -0.02917221 -0.0051467605 -0.004658016 -0.0047683916 -0.022274958
0.012173436 -0.080441855 -0.0074505988 -0.006171746 0.09714384 0.006066789 0.04914249 -0.011162062
-0.015667338 0.0049862675 -0.0036587631 -0.005838543 -0.06792968 0.0046588164 0.0006741103 -0.0051179635
0.007820114 -0.026417166 -0.008309425 -0.010974932

exp_avg f4 [4, 1, 3, 3, 3]
00000000: 160f 33ba 82d5 ccb9 5784 fcb8 5582 07ba
00000010: fe02 05ba 472b f538 a0e6 13ba c4ef 95b9
00000020: 2002 3239 114b 49ba 771d 8eb9 af41 2eb9
00000030: 4fda 22ba 6036 e1b9 b13c 4439 76c6 32ba
00000040: ad2a beb9 1c39 1839 56c4 36ba 5c03 25b8
00000050: 0b09 9ab8 69ba 0bba e699 38b9 5e6b c539
00000060: f688 22ba 756b 9cb9 e951 8639 4e5f 803a
00000070: dede d03a 3f90 103b b684 be39 9a40 433a
00000080: 7a3b b53a f4e4 12b9 7d12 a639 673e 1a3a
00000090: 1af0 9f3a c65b 013b fc74 1b3b 93ab 173a
000000a0: 5d97 833a 6911 be3a 8180 9fb8 99df 093a
000000b0: 6818 e439 8af1 c03a 926c 183b b3a5 243b
000000c0: 47eb 483a 7ff8 9d3a 142b c03a 55ee f038
000000d0: 0c5d 273a 7c0b 9a39 27bc f13a 94a0 233b
000000e0: 3dcb 093b d782 483b a6b5 683b 407d 233b
000000f0: 1598 813b 7dec 7e3b 0ea0 263b 7794 f93a
00000100: 89bb 153b 6f68 f73a c34a 433b 8853 4b3b
00000110: 0b19 163b 7ba1 7b3b e85c 643b 242c 213b
00000120: d8b2 043b 8964 063b 77c4 e83a f36d 3c3b
00000130: 8771 363b 1749 143b b7b7 6f3b c392 513b
00000140: 4ece 203b 317d 83bb db24 33bb fda7 d0ba
00000150: 8eba 07bb 4d02 c7ba 366e 58ba ab28 9bba
00000160: 7871 9dba 8c88 17ba 2415 90bb 9b56 1cbb
00000170: 2243 bcba 5ea4 13bb 8ca7 8dba b7ed c7b9
00000180: d098 adba d42f 76ba 42bd 90b9 8474 89bb
00000190: 2c12 e3ba 220b 9fba d546 0dbb dd25 11ba
000001a0: 8b51 4535 272d bdba 371e 3fba c83c 3fb9
-0.0006830556 -0.00039068988 -0.000120409466 -0.00051692623 -0.0005073993 0.000116905714 -0.0005641971 -0.00028598134
0.00016976194 -0.0007678727 -0.00027106304 -0.00016618402 -0.000621234 -0.00042955857 0.00018714626 -0.0006819734
-0.0003627142 0.00014517125 -0.00069720054 -3.9342194e-05 -7.3449766e-05 -0.00053302065 -0.00017604939 0.00037654763
-0.00062002183 -0.000298347 0.000256195 0.0009794028 0.001593556 0.0022058634 0.000363385 0.0007448286
0.001382693 -0.00014008937 0.00031675762 0.00058839325 0.0012202293 0.001973854 0.0023720851 0.00057857594
0.0010039617 0.0014501038 -7.6056465e-05 0.0005259454 0.00043505733 0.0014720422 0.0023258072 0.0025123178
0.00076644536 0.0012052207 0.0014661276 0.000114884846 0.00063844095 0.00029381725 0.0018442915 0.0024967538
0.002102568 0.0030595565 0.0035508662 0.002494648 0.003954897 0.0038898282 0.002542499 0.0019041438
0.0022847375 0.0018875728 0.00297992 0.003102513 0.002290311 0.003839581 0.0034845416 0.002459296
0.00202482 0.00205067 0.0017758746 0.0028752058 0.0027838664 0.0022626573 0.0036578008 0.0031978346
0.002453703 -0.0040127267 -0.00273352 -0.0015919205 -0.002071056 -0.0015183181 -0.0008256169 -0.0011837682
-0.0012011966 -0.000578054 -0.0043970514 -0.0023855332 -0.0014363269 -0.002252839 -0.0010807379 -0.0003813335
-0.0013244394 -0.0009391282 -0.00027606828 -0.004194798 -0.0017324141 -0.0012134055 -0.0021557112 -0.0005536953
7.350688e-07 -0.0014433012 -0.0007290574 -0.00018237822

exp_avg_sq f4 [4, 1, 3, 3, 3]
00000000: f4d2 9e38 efd7 9538 928c 8a38 111f 5338
00000010: 050e 3638 9571 3338 29af 1338 ce7b 0e38
00000020: 068b 1938 d993 9838 f16e 8c38 6693 8238
00000030: 37b6 4338 0106 2538 7134 2838 aa74 0438
00000040: 5a96 fd37 6d8c 0d38 4734 9a38 f580 8d38
00000050: db21 8438 65da 4538 a9be 2738 ad84 2f38
00000060: 0080 0438 fcb4 fd37 2061 1138 0fdf c237
00000070: a6e6 1838 9ebe 8b38 6f30 0338 93be 3938
00000080: 1a34 8f38 ad58 4538 5995 5a38 dda6 7e38
00000090: 7402 c037 e75f 2038 4a70 9138 0613 0038
000000a0: 03f0 3e38 7356 9438 0729 4538 f17b 5d38
000000b0: bea6 8138 2e31 c437 bf30 2c38 8ecb 9438
000000c0: 7b36 ff37 1688 4638 4c7b 9738 0231 4338
000000d0: 5b74 5f38 c7f8 8338 127d 8138 f58e 6438
000000e0: b398 2938 e580 9538 fdfe 5c38 16f3 0838
000000f0: 8fc3 aa38 b34d 5638 5968 e037 a2f5 8038
00000100: 9a67 6038 fdfc 2438 3d3b 9538 6318 5438
00000110: 587e 0538 4c34 ab38 4851 4838 cab2 d637
00000120: 4172 8038 3581 5b38 7320 2238 d154 9338
00000130: fbcd 4b38 8f9a 0438 1502 a738 ca12 3d38
00000140: 1a79 d537 3b8d 2039 69bb 1f39 d454 2b39
00000150: e73d 1139 5df8 1139 2b60 1c39 a8e8 0439
00000160: 6bc8 0739 506a 1339 21a6 1d39 d5d8 1c39
00000170: 2804 2839 4ac1 1039 3ba9 1139 3400 1c39
00000180: 284f 0439 8447 0739 933c 1239 a2bf 1839
00000190: 9f7e 1839 c56f 2139 ab63 0f39 a1d0 1039
000001a0: 8abe 1839 802b 0339 1c5c 0639 b385 0e39
7.57332e-05 7.1450944e-05 6.606536e-05 5.0335253e-05 4.3405238e-05 4.2782707e-05 3.521066e-05 3.397074e-05
3.660752e-05 7.2754636e-05 6.696385e-05 6.226338e-05 4.6661324e-05 3.9344657e-05 4.010316e-05 3.1579904e-05
3.0229963e-05 3.37478e-05 7.35303e-05 6.747424e-05 6.3005566e-05 4.7171856e-05 3.999347e-05 4.1846815e-05
3.159046e-05 3.0244228e-05 3.466115e-05 2.3230472e-05 3.6454432e-05 6.663542e-05 3.127794e-05 4.4284923e-05
6.828476e-05 4.7051046e-05 5.211434e-05 6.0713723e-05 2.2889326e-05 3.823629e-05 6.935054e-05 3.0535295e-05
4.552306e-05 7.073292e-05 4.700667e-05 5.2805935e-05 6.1822575e-05 2.3387922e-05 4.1053394e-05 7.095105e-05
3.0423738e-05 4.733362e-05 7.223207e-05 4.6537265e-05 5.3275708e-05 6.292905e-05 6.1744955e-05 5.4492575e-05
4.0434952e-05 7.128882e-05 5.2689564e-05 3.2651318e-05 8.142657e-05 5.109394e-05 2.6751472e-05 6.149268e-05
5.350225e-05 3.933626e-05 7.115908e-05 5.056745e-05 3.1827338e-05 8.1636565e-05 4.7759415e-05 2.5594043e-05
6.124797e-05 5.2334002e-05 3.865403e-05 7.0253045e-05 4.8590806e-05 3.1615196e-05 7.963568e-05 4.507861e-05
2.5447971e-05 0.00015311402 0.00015233237 0.00016339432 0.00013851338 0.000139208 0.00014913145 0.00012675172
0.00012949265 0.00014058617 0.00015034575 0.00014958096 0.00016023277 0.00013804916 0.00013891321 0.00014877395
0.00012617989 0.00012901245 0.0001394621 0.00014567238 0.0001454302 0.00015395794 0.00013674672 0.0001381063
0.00014566831 0.00012509339 0.00012813549 0.00013591982

exp_avg f4 [4]
00000000: ab39 113a 6cb7 ae3a 467c da3b 8157 0fbc
0.0005539904 0.001332981 0.0066676466 -0.00874889

exp_avg_sq f4 [4]
00000000: c436 a439 9e88 b739 bf63 c039 6002 b13a
0.0003132132 0.00035006268 0.0003669541 0.0013504736
