models/dsec/dsec_half1/dsec_half1_stereo_even_model.pth (torch, 864463 bytes, 27 tensors)

conv3d.0.weight f4 [4, 1, 3, 3, 3]
0	0x3d3379b4	0.043817237
1	0xbdc521ce	-0.09625588
2	0xbdc2ed54	-0.09517923
3	0x3e4e85ce	0.2016823
4	0x3d577bee	0.052608423
5	0x3e212026	0.1573492
6	0xbd09f30b	-0.03367905
7	0xbe2d1bbd	-0.16905113
8	0xbe158c7f	-0.14604376
9	0x3d186bec	0.037212297
10	0xbd0fa5cf	-0.035070237
11	0xbd2336d3	-0.039847206
12	0x3de512ca	0.11185224
13	0xbd612a28	-0.054971844
14	0x3e3e081c	0.18557781
15	0xbdb13699	-0.08652992
16	0x3d837d5f	0.06420397
17	0x3e550a5d	0.20804735
18	0xbe41e8b2	-0.18936422
19	0x3ed5c5ea	0.4175256
20	0xbea9abb4	-0.33138812
21	0xbdbad35c	-0.09122345
22	0x3e157324	0.14594704
23	0xbea0ba1a	-0.31391984
24	0xbea9bcb4	-0.33151782
25	0x3e7d9932	0.2476547
26	0x3d81c20f	0.06335842
27	0xbe92098e	-0.28522915
28	0xbe0c71c7	-0.13715278
29	0xbd3b0aa0	-0.04566443
30	0xbd2b47b0	-0.041816413
31	0xbdf4cbf5	-0.11952964
32	0xbd2d7c85	-0.04235508
33	0xbe5c3194	-0.21503288
34	0xbd4b5417	-0.04964074
35	0xbe8052a2	-0.25063044
36	0x3e0c7885	0.1371785
37	0x3dd06d98	0.10177153
38	0xbd82952d	-0.06376109
39	0x3cfcff8c	0.030883573
40	0xbd15be10	-0.03655821
41	0xbdf2164e	-0.118206605
42	0x3d2c7edc	0.04211317
43	0x3d29417e	0.041322224
44	0x3e17e810	0.14834619
45	0x3e8fc6c0	0.28081322
46	0x3d1617d0	0.036643803
47	0x3e9f9ef8	0.3117597
48	0x3e942df6	0.28941315
49	0x3e2ea46f	0.17054914
50	0x3d8311d2	0.06399883
51	0x3e2e7457	0.17036568
52	0x3e476151	0.19470717
53	0x3e450af9	0.19242467
54	0x3cc1efdb	0.023673942
55	0xbd04deb6	-0.032438956
56	0xbd7219ec	-0.059106752
57	0x3de5d7cb	0.112228
58	0xbdeb4e84	-0.11489585
59	0x3dfce80e	0.123489484
60	0xbdc8a1af	-0.09796464
61	0xbd73dad3	-0.05953486
62	0x3cddc45c	0.02707117
63	0x3e4d3ae5	0.20041998
64	0xbebd4f31	-0.3697448
65	0x3e99a1be	0.30006212
66	0x3e389569	0.18025745
67	0xbe69ea0c	-0.22843188
68	0xbc2d5c4f	-0.01058109
69	0x3e0b6f96	0.13616785
70	0xbdbc22dd	-0.09186337
71	0x3d6f0b54	0.058360413
72	0xbea34a9d	-0.31892863
73	0xbeae1acf	-0.34004828
74	0x3e9a6610	0.30155993
75	0xbd789bff	-0.060695644
76	0xbe281973	-0.16415958
77	0x3e55de47	0.20885573
78	0x3d6bce96	0.057570063
79	0xbdaa01ad	-0.08301101
80	0x3e07e576	0.13271126
81	0x3d96fb83	0.07372191
82	0xb9c3b505	-0.00037328168
83	0x3e432bd2	0.19059685
84	0xbc872ae8	-0.016499951
85	0xbe5aa18b	-0.21350686
86	0xbe86b8a7	-0.26312754
87	0x3d6f8fe7	0.058486845
88	0x3d89bcc0	0.06725454
89	0xbd857e55	-0.065182365
90	0x3cf1a151	0.029495867
91	0x3c1bd518	0.009511255
92	0x3dc907c7	0.098159365
93	0x3e14a8fa	0.14517584
94	0xbe74f916	-0.23923144
95	0x3e494555	0.19655354
96	0x3eb7fbe3	0.35934362
97	0xbe2bfe89	-0.16796316
98	0x3e412ec2	0.18865493
99	0x3e738518	0.2378124
100	0x3de86f33	0.113493346
101	0xbde963bc	-0.11395976
102	0x3bd9e700	0.006649852
103	0xbe248fad	-0.16070433
104	0xbe44b400	-0.1920929
105	0xbd6dbfd5	-0.058044273
106	0xbe8f8486	-0.28030795
107	0x3c90d6b4	0.017680503

conv3d.0.bias f4 [4]
0	0xbae62fc3	-0.0017561842
1	0xb9c293e0	-0.0003711274
2	0x3c8f36d9	0.017482208
3	0xbc020500	-0.007935762

gru.weight_ih_l0 f4 [300, 100]
0	0x3e08520c	0.13312548
1	0x3e24a418	0.16078222
2	0x3ea44a57	0.32087967
3	0x3dc89a2a	0.097950295
4	0x3eaeb98c	0.34125936
5	0xbd66a397	-0.056308355
6	0x3dbfa5ba	0.09357782
7	0x3e236383	0.1595593
8	0x3e37dceb	0.17955367
9	0x3e453b36	0.19260868
10	0x3d84c298	0.06482428
11	0x3dedd3bc	0.11612651
12	0x3e0e115e	0.13873813
13	0x3d692848	0.05692318
14	0x3e843963	0.25825033
15	0xbd1a597f	-0.037683006
16	0x3df47011	0.119354375
17	0x3e0dd184	0.13849455
18	0x3e112642	0.1417475
19	0x3e9891ab	0.29798636
20	0xbd358f63	-0.044326197
21	0x3dd976bb	0.10618349
22	0x3e61be1e	0.2204518
23	0x3e50afaf	0.20379518
24	0x3e4507e5	0.19241293
25	0xbd99be2c	-0.075069755
26	0xbe2e1c24	-0.17002922
27	0xbe36e800	-0.17861938
28	0xbd55d2e7	-0.052203085
29	0xbd8dcc3f	-0.069237225
30	0xbe7f659f	-0.24941109
31	0xbe36047e	-0.17775151
32	0xbe81f4ac	-0.25381982
33	0xbe416a86	-0.18888292
34	0xbe65b3eb	-0.22431915
35	0xbe26738f	-0.1625502
36	0xbea26952	-0.31720978
37	0xbe6ef2f8	-0.23334873
38	0xbe4ef97c	-0.20212358
39	0xbeafe48a	-0.3435405
40	0xbe86823e	-0.26271242
41	0xbe8d5971	-0.276073
42	0xbea6960b	-0.3253635
43	0xbe57ac2b	-0.2106177
44	0xbebd1163	-0.36927328
45	0xbe2f4ba0	-0.17118692
46	0xbe13ec4d	-0.1444561
47	0xbe56d700	-0.20980453
48	0xbe3f32c6	-0.18671712
49	0xbe6b393b	-0.2297105
50	0xbd5a7332	-0.053332515
51	0xbb0fef67	-0.0021962763
52	0x3c87a06d	0.01655599
53	0x3cf114e7	0.029428912
54	0x3e8270d2	0.254767
55	0xbde14624	-0.109997064
56	0xbd664d42	-0.056226023
57	0xbdfbd53d	-0.12296531
58	0xbd4cc2b5	-0.049990375
59	0x3e0cc3e3	0.137466
60	0xbcd17a1d	-0.025570923
61	0x3ca6ac5d	0.020345861
62	0xbcfebe6d	-0.031096661
63	0x3d27566b	0.0408539
64	0x3e7de7ec	0.24795502
65	0xbd02714c	-0.03184633
66	0x3d20c46c	0.039249822
67	0x3d3fb9ac	0.04680793
68	0x3dbfe653	0.09370103
69	0x3e9e3554	0.3090006
70	0xbdd6ba21	-0.1048472
71	0x3da88b68	0.08229715
72	0xbcd29872	-0.025707457
73	0xbd810158	-0.062990844
74	0x3e8fb568	0.2806809
75	0xbd23d672	-0.039999433
76	0x3c6acbdf	0.014330833
77	0x3e00975e	0.12557742
78	0xbd6be4bc	-0.057591185
79	0x3d42c574	0.047551587
80	0xbe131e6a	-0.14367071
81	0x3de23e1e	0.11047004
82	0x3e3acf21	0.18243076
83	0x3dbdcae8	0.09267217
84	0x3dc148c6	0.094377086
85	0xbde8f9fe	-0.11375807
86	0xbc6124db	-0.013741697
87	0x3ddca68c	0.10773954
88	0x3d937cf4	0.07201567
89	0xbba1b94c	-0.004935419
90	0x3c9a6e57	0.018851442
91	0x3c756162	0.014976831
92	0xbd965979	-0.07341284
93	0xbda435fd	-0.0801811
94	0xbd112400	-0.035434723
95	0x3ded5343	0.115881465
96	0x3d02a531	0.03189582
97	0xbdc9462a	-0.09827836
98	0xbdd2f51f	-0.103006594
99	0xbdc2d224	-0.095127374
100	0x3ea8914c	0.32923353
101	0x3ece9a49	0.40352085
102	0x3dce6f7f	0.1007986
103	0x3eb18535	0.3467194
104	0x3d9d02a0	0.07666516
105	0x3e8720f2	0.26392323
106	0x3f0ab448	0.5418134
107	0x3ec160ea	0.37769252
108	0x3edf077e	0.43560404
109	0x3e926171	0.28589967
110	0x3d851f96	0.06500165
111	0x3e33ac15	0.17546113
112	0x3e1faeed	0.15594073
113	0x3e9fba4a	0.31196815
114	0x3ec4cfae	0.38439697
115	0x3ca11a29	0.019665794
116	0x3be813ec	0.007082453
117	0xbcf1fff2	-0.02954099
118	0x3e88dc0c	0.26730382
119	0x3f086349	0.532765
120	0x3e01c90b	0.12674348
121	0xbd18c6ba	-0.037298895
122	0xbdf584dd	-0.11988232
123	0x3d87af10	0.066251874
124	0x3e85b110	0.2611165
125	0x3e389941	0.18027212
126	0x3d30c671	0.043158
127	0x3cd45c28	0.02592285
128	0x3d1be75b	0.038062435
129	0xbe047e22	-0.12938741
130	0xbcce2127	-0.025162293
131	0x3d0d0722	0.03443063
132	0x3d5f207d	0.054474343
133	0x3e1ad501	0.15120317
134	0xbdcc1c53	-0.0996634
135	0xbdc55b7d	-0.09636591
136	0x3d508129	0.050904427
137	0x3e18369f	0.14864586
138	0x3d3ed8b7	0.046593394
139	0xbcf79ed9	-0.030227112
140	0xbdef0d1f	-0.116724245
141	0x3c49e679	0.012323015
142	0x3c80d9e6	0.015728902
143	0x3c6ef804	0.014585499
144	0x3c662d8e	0.014048947
145	0xbe628193	-0.22119741
146	0xbe0ac6d1	-0.13552405
147	0xbde0a09b	-0.10968133
148	0xbdb6b112	-0.08920492
149	0xbe05d009	-0.1306764
150	0xbe109a13	-0.14121275
151	0xbda7395e	-0.08165239
152	0x3d2466d2	0.04013712
153	0xbc965527	-0.01835115
154	0xbe628df7	-0.22124468
155	0xbcf31f74	-0.029678084
156	0xbc77b730	-0.015119359
157	0x3da5f93e	0.0810418
158	0xbdc65e7e	-0.09685992
159	0xbe4aa3dc	-0.1978907
160	0x3d2b7a9e	0.041864984
161	0x3d99fac9	0.075185366
162	0x3d289790	0.041160166
163	0xbe7255eb	-0.23665588
164	0xbea0eef8	-0.3143232
165	0x3d939957	0.07206982
166	0xbd1f0cd7	-0.038830604
167	0x3d4eba07	0.05047038
168	0xbe8afbff	-0.27145383
169	0xbe812a23	-0.2522746
170	0x3dbd925a	0.0925643
171	0xbe00d1e9	-0.12580074
172	0x3d26b1f0	0.04069704
173	0xbe299f95	-0.16564782
174	0xbe9a8713	-0.30181178
175	0x3e45fc2c	0.19334477
176	0x3e19d91e	0.1502423
177	0x3de5c4cb	0.11219176
178	0x3de0a83b	0.109695874
179	0x3d793c46	0.060848497
180	0x394658ce	0.00018915834
181	0x3dd61073	0.10452356
182	0xbcb77941	-0.022396686
183	0x3e0177c4	0.12643343
184	0x3e323882	0.17404369
185	0xbc8a9d7b	-0.016920796
186	0xbcf373d7	-0.029718323
187	0x3de8faed	0.11375985
188	0x3d717c29	0.0589563
189	0x3e70131a	0.23444787
190	0xbd2d6615	-0.04233368
191	0xbce55480	-0.027994394
192	0x3d6d1d18	0.057889074
193	0xbd0e644c	-0.03476362
194	0x3e105eee	0.14098713
195	0x3b0687b5	0.0020527665
196	0xbe5264ca	-0.2054626
197	0x3bb1d9d6	0.0054275794
198	0xbdf21da5	-0.118220605
199	0xbe1e2713	-0.15444593
200	0x3dee1f66	0.116270825
201	0xbb6e11d5	-0.0036326547
202	0xbe8e6a71	-0.27815583
203	0xbe9ae756	-0.3025462
204	0xbe8c8fb9	-0.27453402
205	0x3d7128c5	0.05887677
206	0x3ddb3030	0.107025504
207	0xbd84a777	-0.06477254
208	0xbd307660	-0.04308164
209	0xbd9bcf97	-0.07607954
210	0x3e4e345e	0.20137164
211	0x3e524cbc	0.20537084
212	0x3ea77f3e	0.32714266
213	0x3e563d93	0.20921926
214	0x3e744b32	0.2385681
215	0xbe23a942	-0.15982535
216	0x3b85c866	0.0040827272
217	0x3e452ebc	0.19256109
218	0x3e09f2d4	0.13471538
219	0x3ebd4756	0.36968488
220	0xbe46f28b	-0.1942846
221	0xbd200f6e	-0.039077215
222	0xbd71de9e	-0.059050195
223	0x3da330a9	0.079682656
224	0x3e98c56a	0.29838115
225	0xba3a8bb7	-0.0007116156
226	0xbde7de9c	-0.11321756
227	0xbe81471c	-0.25249565
228	0xbe614994	-0.22000724
229	0xbc13172d	-0.0089776935
230	0xbdef77ba	-0.11692758
231	0xbe7168c2	-0.23575118
232	0xbe49487a	-0.19656554
233	0xbe5946ea	-0.21218458
234	0xbe69c3fe	-0.22828671
235	0xbe45c2a2	-0.19312528
236	0xbe347da0	-0.17626047
237	0xbe8f2988	-0.27961373
238	0xbe8bbf86	-0.27294558
239	0xbeab077c	-0.33404148
240	0xbe3b78b1	-0.18307759
241	0xbe3e46fb	-0.18581764
242	0xbebfc17c	-0.37452304
243	0xbe958669	-0.2920411
244	0xbe9830d2	-0.29724747
245	0xbe148957	-0.14505516
246	0xbec44af8	-0.38338447
247	0xbeda9b7f	-0.4269676
248	0xbeb5e970	-0.3552966
249	0xbe30c25d	-0.17261644
250	0xbe922753	-0.28545627
251	0xbe83ca38	-0.25740218
252	0xbd99a5c6	-0.07502322
253	0x3d024fab	0.03181426
254	0xbca409f3	-0.020024275
255	0xbe97ec15	-0.29672304

gru.weight_hh_l0 f4 [300, 100]
0	0x3e12cca9	0.14335884
1	0xbce3922d	-0.027779663
2	0x3e9ae17d	0.3025016
3	0xbe3695ac	-0.17830533
4	0xbe03981d	-0.12850995
5	0xbcf0d06b	-0.029396256
6	0x3e2db140	0.16962147
7	0xbe166427	-0.14686643
8	0xbd95a3ce	-0.07306634
9	0x3d9723a6	0.07379846
10	0xbae5ee55	-0.0017542342
11	0xbc9bc25c	-0.019013576
12	0xbe8df0ea	-0.27722865
13	0xbeb566fa	-0.35430127
14	0x3eef7326	0.4676754
15	0xbd7af324	-0.061267033
16	0xbdfc6d10	-0.123254895
17	0x3dbbb025	0.09164456
18	0xbcb7f845	-0.022457251
19	0xbb928b93	-0.004472205
20	0x3e0462ac	0.12928265
21	0x3d33a684	0.043859974
22	0x3de68e70	0.112576365
23	0xbda60d3b	-0.08107992
24	0x3c864679	0.016391026
25	0x3edc030b	0.42971072
26	0xbe6ec58f	-0.2331755
27	0x3dddba72	0.10826577
28	0xbc02d579	-0.007985466
29	0xbd322ba6	-0.043498658
30	0x3c223fc1	0.009902895
31	0x3d52888c	0.051399752
32	0x3bed2a3b	0.0072377003
33	0xbd2246d0	-0.039618313
34	0xbdae3348	-0.08505875
35	0xbc176d22	-0.009242328
36	0xbdad1f56	-0.084532425
37	0x3e906140	0.28199196
38	0x3d0376fe	0.0320959
39	0x3eabc9c8	0.33552384
40	0x3de1deee	0.110288486
41	0xbd605f10	-0.05477816
42	0x3d2d4d2b	0.04230992
43	0x3e1b8b7a	0.15189925
44	0x3e1f47e5	0.1555477
45	0x3d58569c	0.052816972
46	0xbca37465	-0.019952962
47	0x3daa34cb	0.08310851
48	0xbd63c65c	-0.055609092
49	0x3d9fb9cb	0.07799109
50	0xbd8b271d	-0.0679457
51	0xbe1da546	-0.15395078
52	0xbd088b3a	-0.0333359
53	0x3d95b9ea	0.07310851
54	0x3dfbb7fc	0.122909516
55	0xbdc10a65	-0.09425811
56	0x3deb007c	0.11474702
57	0x3d1d6217	0.038423624
58	0xbe1ceea8	-0.15325415
59	0x3dcb7f0a	0.0993634
60	0x3db9a592	0.09064783
61	0x3dbc02df	0.09180235
62	0xbd8ea017	-0.069641285
63	0x3c564329	0.013077536
64	0xbc07bf90	-0.008285418
65	0x3cb384a8	0.021913841
66	0xbb8485df	-0.004044279
67	0xbd9e50a1	-0.077302225
68	0xbd45f49f	-0.048328992
69	0x3c8280ff	0.01593065
70	0x3e4f48ca	0.2024261
71	0x3ee1fd78	0.44138694
72	0x3d493a30	0.049127758
73	0xbe519402	-0.20466617
74	0x3d490126	0.04907336
75	0xbe0046c4	-0.12526995
76	0x3dec6db7	0.11544364
77	0x3ddb3609	0.10703666
78	0x3e5cf6f4	0.2157858
79	0xbd89d30f	-0.06729709
80	0x3d941861	0.072312124
81	0x3d50f1fa	0.051012017
82	0x3ceba98f	0.028767375
83	0x3de701bf	0.1127963
84	0xbd40f13d	-0.047105063
85	0xbe98edb1	-0.29868844
86	0xbdc91c51	-0.09819854
87	0xbe711d5b	-0.23546354
88	0xbd23af79	-0.039962266
89	0x3d4097a8	0.04701963
90	0x3d2bbe7c	0.041929707
91	0xbc495048	-0.012287207
92	0x3d86d8e5	0.06584338
93	0xbd1491f4	-0.036272004
94	0x3c87fd54	0.016600288
95	0xbdec2cd2	-0.11531986
96	0x3da18c33	0.07888069
97	0xbdcaf21f	-0.09909462
98	0xbe2e2647	-0.17006789
99	0x3da493e4	0.080360204
100	0x3e37f1b2	0.17963293
101	0x3d9bffa8	0.07617122
102	0xbd336d20	-0.04380524
103	0xbe1d4f23	-0.1536222
104	0xbe2c93f6	-0.16853318
105	0x3cfdc67a	0.03097843
106	0xbe8841bc	-0.2661265
107	0xbe1fc9aa	-0.15604272
108	0xbda37178	-0.07980627
109	0x3d872c28	0.06600219
110	0x3e514335	0.20435794
111	0x3c895b48	0.01676716
112	0xbe86b721	-0.2631159
113	0xbb29119c	-0.002579785
114	0x3e2d80c1	0.16943647
115	0xbdd13041	-0.10214282
116	0x3e19a59b	0.1500458
117	0x3d24efb4	0.04026766
118	0x3ca244c5	0.019808182
119	0xbe0fa6d8	-0.1402849
120	0x3dcf4edf	0.10122465
121	0xbe4e2cbd	-0.20134254
122	0x3c459278	0.012058847
123	0x3d3edd55	0.046597797
124	0xbe74bb9d	-0.23899694
125	0xbdedf4f8	-0.1161899
126	0x3de62545	0.11237577
127	0xbe02f58d	-0.12788983
128	0x3dd9e09b	0.10638543
129	0x3d2c919f	0.042131063
130	0xbd7b2e56	-0.061323486
131	0x3e51a727	0.2047392
132	0x3d432364	0.047641173
133	0x3e52646e	0.20546123
134	0x3df67d20	0.120355844
135	0x3ca3b0f8	0.019981846
136	0xbd245f33	-0.04012985
137	0x3e12068c	0.1426031
138	0xbca55d44	-0.020186074
139	0x3eb9f640	0.36320686
140	0xbd4246e7	-0.0474309
141	0xb91e8ec0	-0.00015121233
142	0x3e07348e	0.13203642
143	0x3d29da28	0.041467816
144	0xbd76f17e	-0.0602889
145	0x3cad6d21	0.0211702
146	0xba89c276	-0.0010510224
147	0x3d9cb959	0.0765254
148	0x3e05f5b6	0.13082013
149	0x3e35825b	0.17725508
150	0x3d5acc51	0.053417508
151	0x3dfec7eb	0.12440475
152	0xbe387e7b	-0.18016998
153	0xbdced202	-0.100986496
154	0x3c15d5a7	0.009145177
155	0x3d5526e1	0.05203903
156	0xbdadc02a	-0.08483918
157	0x3d361d40	0.04446149
158	0xbe27437c	-0.16334337
159	0x3e3774d6	0.17915663
160	0xbdecc80e	-0.11561595
161	0x3daaae96	0.08334081
162	0xbdf946c7	-0.12171703
163	0x3ce0ca1f	0.027440129
164	0x3e93f9f8	0.2890165
165	0xbdc42bfc	-0.09578702
166	0x3a9afeb2	0.0011825173
167	0xbe0d9682	-0.13826945
168	0x3cdcd65d	0.026957685
169	0x3dc94c7d	0.09829042
170	0x3d4ac65d	0.04950558
171	0x3db678f4	0.08909789
172	0xbc771942	-0.0150817055
173	0xbed7f2dd	-0.42177477
174	0x3e5ada83	0.21372418
175	0x3df638d5	0.120225586
176	0xbe5b6d28	-0.21428359
177	0xbdfe1a08	-0.12407309
178	0x3e8d4f5e	0.27599615
179	0x3de87274	0.11349955
180	0x3d9f7374	0.07785693
181	0x3d94eb40	0.07271433
182	0xbd78372e	-0.0605995
183	0xbd66c74e	-0.056342416
184	0xbc3bfaaa	-0.011473337
185	0xbcc6c3d9	-0.02426331
186	0xbcf4f3b9	-0.029901372
187	0xbe8de73d	-0.27715483
188	0xbccc482e	-0.024936762
189	0x3cca6158	0.02470462
190	0x3c0b91cc	0.008518647
191	0xbc58d6fd	-0.013234851
192	0xbb7f5e5a	-0.003896615
193	0x3d3ff5ba	0.046865202
194	0xbd30c89b	-0.043160062
195	0xbd3eda20	-0.04659474
196	0x3dedd7ed	0.1161345
197	0x3dc55122	0.096346155
198	0xbb7a1776	-0.0038160956
199	0xbb84095f	-0.0040294374
200	0x3e1f71cc	0.15570754
201	0x3e1251bc	0.14288992
202	0x3dcf0e1e	0.101101145
203	0xbd165dfd	-0.036710728
204	0xbef9def5	-0.48802915
205	0xbccd19f4	-0.02503679
206	0xbd0b83b2	-0.03406114
207	0x3cfba690	0.030719072
208	0xbe2014ab	-0.15632884
209	0xbd8ed2e9	-0.06973822
210	0x3e2d697a	0.16934767
211	0x3d7e400e	0.062072806
212	0xbec1cf47	-0.37853453
213	0xbe6cd64a	-0.2312862
214	0x3e1d818f	0.15381454
215	0xbe35612e	-0.17712852
216	0xbe251152	-0.16119888
217	0x3dd8d889	0.10588176
218	0xbd8f267c	-0.06989762
219	0xbe512c21	-0.2042699
220	0x3e418647	0.18898879
221	0xb9303a38	-0.00016806356
222	0x3d3b9fac	0.04580657
223	0xbd805988	-0.06267077
224	0xbe4e8268	-0.20166934
225	0x3e5faea2	0.21843961
226	0xbd5ac575	-0.053410966
227	0xbdd1ebea	-0.10250075
228	0xbdd77c74	-0.105217844
229	0x3e1c7644	0.1527949
230	0x3d7e0e22	0.062025197
231	0x3e052b4b	0.13004796
232	0x3e931786	0.28728884
233	0x3ea013d0	0.31265116
234	0xbda77156	-0.08175914
235	0x3c8719ea	0.016491849
236	0xbe4a1615	-0.19734986
237	0x3e11098c	0.14163798
238	0x3d219197	0.039445486
239	0x3e85823a	0.26075917
240	0xbdff4b79	-0.12465567
241	0x3da05d2b	0.078302704
242	0x3e2a17af	0.16610597
243	0x3e805254	0.2506281
244	0xbd09fb04	-0.033686653
245	0x3db4b008	0.08822638
246	0x3e37453b	0.17897503
247	0xbe1ba82f	-0.15200876
248	0xbafae3ac	-0.0019141338
249	0x3dec403a	0.11535688
250	0x3cc0d9d1	0.023541363
251	0x3dacbdd6	0.08434646
252	0xbe5961c8	-0.21228707
253	0x3ea0ef77	0.31432697
254	0x3dde7b22	0.108633295
255	0xbd216db5	-0.039411265

gru.bias_ih_l0 f4 [300]
0	0xbe2ccdb0	-0.16875339
1	0xbe135adb	-0.14390127
2	0xbd40e9e9	-0.047098074
3	0x3dbf8e5b	0.09353324
4	0xbe0fe866	-0.14053497
5	0x3da33ea3	0.079709314
6	0x3d4e138b	0.050311606
7	0x3e37b870	0.17941451
8	0xbde478dd	-0.11155865
9	0xbd56640e	-0.052341513
10	0xbcced93c	-0.02525007
11	0xbd6cecd2	-0.057843037
12	0x3df66f6d	0.120329715
13	0x3dd4e7fc	0.1039581
14	0xbd30f3a8	-0.04320112
15	0xbd902ee5	-0.070401944
16	0xbd94ae6f	-0.07259833
17	0xbe4f665b	-0.2025389
18	0xbdb297b0	-0.08720338
19	0x3bfbc8af	0.0076838355
20	0x3b2ff51a	0.0026848973
21	0xbe1b270b	-0.15151612
22	0xbe19ca09	-0.15018477
23	0x3d14d955	0.036340076
24	0x3d260a3e	0.04053711
25	0x3daa8831	0.08326758
26	0xbdebd310	-0.11514866
27	0xbd8726a5	-0.06599168
28	0x3dfc3ffc	0.123168916
29	0x3b5cd524	0.0033696378
30	0xbd1b6f8d	-0.03794818
31	0xbd5535f6	-0.052053414
32	0xbcac9df0	-0.021071404
33	0xbcca69f9	-0.024708735
34	0xbd8d5778	-0.06901449
35	0xbe2488ee	-0.1606786
36	0xbd21bade	-0.03948485
37	0x3be8a989	0.0071002883
38	0xbe3ea6f4	-0.18618375
39	0xbcf7dfa6	-0.030258011
40	0xbd229b0a	-0.039698638
41	0xbe15cad2	-0.14628151
42	0xba82b707	-0.0009972759
43	0xbcc215e6	-0.023692083
44	0x3d01eea0	0.03172171
45	0xbdb241e6	-0.087039754
46	0xbd8cc032	-0.06872596
47	0xbda71531	-0.08158339
48	0xbd8999c4	-0.067187816
49	0xbd1a8d86	-0.037732624
50	0xbd31888a	-0.043343104
51	0x3d9ae28b	0.07562741
52	0x3dd66896	0.10469167
53	0xbd91700f	-0.071014516
54	0xbdd23813	-0.102646016
55	0xbdcdf013	-0.10055556
56	0xbc8d0294	-0.017213143
57	0xbd82b3f0	-0.063819766
58	0xbea07e89	-0.3134654
59	0xbdc7ead9	-0.097615905
60	0x3d595106	0.053055786
61	0xbdcf09c3	-0.10109284
62	0xbd14c8c2	-0.03632427
63	0x3d91452f	0.07093274
64	0xbdedaf73	-0.1160573
65	0xbdd4d67f	-0.103924744
66	0x3d2538ca	0.04033736
67	0xbe25b26c	-0.16181344
68	0x3d641851	0.055687252
69	0xbdf6ff01	-0.12060357
70	0xbdf85b15	-0.121267475
71	0xbdd807b9	-0.10548348
72	0xbce42d62	-0.027853671
73	0x3aa1843e	0.0012322736
74	0xbd79d256	-0.060991608
75	0xbd576f62	-0.052596457
76	0x3dda97c0	0.10673475
77	0xbe040c97	-0.12895428
78	0xbdbfd086	-0.093659446
79	0xbd37adbb	-0.044843417
80	0xbd9de569	-0.07709772
81	0x3d2ea177	0.042634454
82	0xbe6bbb32	-0.23020628
83	0xbd4b98fa	-0.049706437
84	0x3ddb2095	0.10699574
85	0xbdcb6d8f	-0.09933006
86	0x3c3396bb	0.01096123
87	0xbe075e93	-0.13219671
88	0xbdbed7e3	-0.09318521
89	0xbe303301	-0.17206956
90	0x3d2ed5aa	0.042684235
91	0x3d21d9b9	0.039514277
92	0xbd0191b5	-0.031633098
93	0xbcf3dcc2	-0.029768351
94	0xbe0f5e0b	-0.14000718
95	0xbcab7b20	-0.020932734
96	0xbd88f3f8	-0.06687158
97	0x3dae3dbf	0.08507871
98	0x3d5fe339	0.054660056
99	0xbdc98ab3	-0.09840908
100	0x3d21dbe3	0.03951634
101	0xbd4cd1d5	-0.0500048
102	0xbe320272	-0.17383745
103	0x3e46f9d4	0.1943124
104	0x3dd5cad8	0.1043908
105	0x3e6c7fcf	0.2309563
106	0x3e5360c6	0.20642385
107	0xbe404b82	-0.18778804
108	0x3d22b362	0.039721854
109	0x3e29c2e1	0.16578247
110	0x3ed67a2f	0.41890094
111	0x3d5dde7c	0.054167256
112	0xbdc48894	-0.09596363
113	0xbd815caf	-0.06316506
114	0x3cfccfc7	0.030860795
115	0xbb6d9426	-0.0036251633
116	0x3e338d85	0.17534454
117	0x3d91510a	0.07095535
118	0x3e25fb26	0.16209087
119	0xbc6275d4	-0.013822038
120	0xbe0100f3	-0.12598018
121	0xbe6663bf	-0.22498988
122	0xbbe86303	-0.0070918812
123	0x3d87dd58	0.06634015
124	0x3d822525	0.06354741
125	0x3c0128e8	0.007883288
126	0x3d866839	0.06562848
127	0x3e5e67b9	0.21719255
128	0xbd82d1e9	-0.063876934
129	0x3dafcce5	0.085840024
130	0x3d89b73d	0.06724403
131	0x3da3e8cb	0.08003386
132	0x3e12c94a	0.14334598
133	0x3e5e0a89	0.21683706
134	0x3e2b9483	0.16755871
135	0x3e243ccf	0.16038822
136	0x3db48782	0.088149086
137	0x3e100dc8	0.14067757
138	0xbdd30e97	-0.10305517
139	0xbca09a1b	-0.019604733
140	0x3db98965	0.09059409
141	0xbe20f796	-0.15719447
142	0x3d979317	0.07401102
143	0x3da7c27e	0.08191393
144	0x3e969c34	0.2941605
145	0x3e3f2526	0.18666515
146	0xbc7f9b82	-0.015601041
147	0x3dea97a2	0.11454703
148	0x3e4be1bc	0.1991033
149	0x3cb49427	0.0220433
150	0xbdba6c48	-0.09102684
151	0xbd11535e	-0.035479896
152	0xbddfc319	-0.10925884
153	0x3dee410a	0.11633499
154	0x3d88a647	0.0667234
155	0x3c023338	0.007946782
156	0x3e81fa2b	0.25386176
157	0xbbf4e2ab	-0.00747331
158	0x3e2b65ee	0.16738102
159	0x3d14f3cc	0.036365315
160	0xbddc963c	-0.107708424
161	0xbd8758c1	-0.06608725
162	0x3a70a664	0.00091800676
163	0x3d2010bd	0.039078463
164	0x3e23a49d	0.15980764
165	0x3d9c250b	0.07624253
166	0xbe39e233	-0.18152694
167	0x3dabac52	0.08382477
168	0xbe6a282f	-0.22866891
169	0x3d88a629	0.066723175
170	0xbbc711ea	-0.0060751336
171	0x3dc71425	0.09720639
172	0x3e1031eb	0.14081542
173	0xbcf6ae84	-0.030112512
174	0xbe5bd015	-0.21466096
175	0xbd69b4f8	-0.05705735
176	0x3d63e223	0.055635583
177	0x3da39794	0.079878956
178	0x3e2fb07c	0.17157167
179	0x3dfd9ebf	0.12383794
180	0x3e88f717	0.26751015
181	0x3df621c7	0.12018161
182	0x3d5e6a0d	0.054300357
183	0xbdf41952	-0.11918892
184	0x3de5d243	0.11221745
185	0x3dbf9438	0.09354442
186	0x3dde6f17	0.108610325
187	0xbe84d3ae	-0.2594275
188	0xbdbb652c	-0.091501564
189	0x3e7e5f9d	0.24841161
190	0x3ec2b9d2	0.38032395
191	0x3defcf6d	0.11709485
192	0x3e0812e6	0.13288459
193	0x3d653d89	0.055966888
194	0x3d799894	0.060936525
195	0x3e778ba2	0.2417436
196	0x3d65f52e	0.056142025
197	0x3ead79a5	0.3388187
198	0x3e304e56	0.17217383
199	0x3e9ac30f	0.30226943
200	0xbde34911	-0.11097921
201	0xbdc5c07c	-0.09655854
202	0x3c383554	0.011243183
203	0xbdfe5f7e	-0.124205574
204	0x3d4cf280	0.050035954
205	0xbd78fc30	-0.06078738
206	0x3c859b2c	0.016309343
207	0x3e2d52ee	0.16926166
208	0x3d7373e8	0.05943671
209	0xbe0f91bf	-0.14020441
210	0xbc583ace	-0.013197614
211	0xbd7c518d	-0.06160121
212	0x3dfd7dea	0.12377532
213	0x38ed77f9	0.00011323387
214	0xbdfea764	-0.12434271
215	0x3d9a025c	0.07519981
216	0x3d407a63	0.046991717
217	0x3cd2620d	0.02568152
218	0x3d153081	0.03642321
219	0x3da8a25a	0.08234091
220	0x3d9bcf54	0.07607904
221	0x3d424a2f	0.04743403
222	0x3d8706aa	0.06593068
223	0xbd885b60	-0.066580534
224	0xbd4a1651	-0.04933769
225	0xbda35d8d	-0.07976828
226	0xbce81e58	-0.028334782
227	0xbd820118	-0.06347865
228	0xbdbd23b3	-0.09235325
229	0xbdcb4ab0	-0.09926355
230	0x3df7ead7	0.12105339
231	0xbe08b330	-0.13349605
232	0x3d0a034b	0.033694547
233	0xbe087825	-0.13327082
234	0x3cd9279f	0.02650815
235	0xbceb1623	-0.028697079
236	0x3b76e07c	0.0037670424
237	0xbd6bacc2	-0.0575378
238	0xbc68a7b4	-0.01420014
239	0xbe2671bb	-0.16254322
240	0xbe22a72c	-0.15884084
241	0x3cd29cea	0.025709588
242	0xbdff4e1f	-0.12466072
243	0xbbfc5054	-0.0077000055
244	0xbdb4f2f2	-0.08835401
245	0x3ce63080	0.028099298
246	0xbd2fa2d1	-0.042879883
247	0x3c930484	0.01794649
248	0xbdf65b42	-0.12029125
249	0xbe1898a4	-0.14901978
250	0xbd950e39	-0.072781034
251	0xbd2fabbb	-0.042888384
252	0x3cc29022	0.023750369
253	0x3deceb4b	0.11568316
254	0xbc20b115	-0.009807845
255	0xbdbdf248	-0.09274727

gru.bias_hh_l0 f4 [300]
0	0xbe1b8703	-0.15188222
1	0xbd6be4c2	-0.057591207
2	0xbddfdf57	-0.109312706
3	0x3d9de171	0.07709015
4	0xbdc3f2f2	-0.095678225
5	0x3c1a11a2	0.009403618
6	0x3d6b0e13	0.05738647
7	0x3e33def8	0.17565525
8	0xbdab17bc	-0.08354136
9	0xbe510bc0	-0.20414639
10	0x3dbac406	0.0911942
11	0xbd4e30d3	-0.05033953
12	0x3e023d36	0.12718663
13	0x3df14b11	0.11781896
14	0xbd1c347e	-0.038135998
15	0xbbd16aef	-0.0063909213
16	0xbda5d928	-0.0809806
17	0xbe27932f	-0.1636474
18	0xbc6018f4	-0.013677824
19	0x3ccf303e	0.025291558
20	0xbd832cdd	-0.06405041
21	0xbddfaff5	-0.10922233
22	0xbda354a6	-0.0797513
23	0x3d8dbcb0	0.06920755
24	0xbce27176	-0.027641993
25	0x3de57b6b	0.11205181
26	0xbe4ec470	-0.20192122
27	0x3bd99b37	0.0066408175
28	0x3e27b818	0.1637882
29	0xbdc3632f	-0.09540402
30	0xbdcfbccc	-0.10143432
31	0xbdcfed2d	-0.101526596
32	0x3c9a1df8	0.018813118
33	0x3cfd6f79	0.030936943
34	0xbdaa4713	-0.083143376
35	0xbdf8b792	-0.12144388
36	0x3d41b35a	0.047290184
37	0x3d8371fd	0.06418226
38	0xbd1498c8	-0.036278516
39	0xbcbd4cbb	-0.023107877
40	0xbdfb218b	-0.12262257
41	0xbd815547	-0.063150935
42	0x3c3c921a	0.011509443
43	0xbe2eed2f	-0.17082666
44	0xbd0fa96a	-0.035073675
45	0xbd0fd706	-0.03511717
46	0xbde431b4	-0.111422926
47	0x3d36b599	0.04460678
48	0xbe05f6ba	-0.130824
49	0xbdc90ef2	-0.09817304
50	0xbd4112df	-0.047137138
51	0xbdcc8f6e	-0.099882945
52	0x3d8e017f	0.06933879
53	0xbde14ebf	-0.11001348
54	0xbdfc1ff7	-0.12310784
55	0xbe1e20a6	-0.15442142
56	0xbc9b1ac5	-0.018933663
57	0xbe1eeb3f	-0.15519427
58	0xbe9ddb93	-0.30831584
59	0xbd898759	-0.06715269
60	0xbd00259c	-0.031285867
61	0xbddecb2a	-0.10878594
62	0xbded2fd4	-0.11581388
63	0xbc506596	-0.0127195325
64	0xbd0bbf19	-0.03411779
65	0xbcaadea4	-0.020858116
66	0xbc4d361c	-0.012525108
67	0xbd805494	-0.06266132
68	0x3dd19116	0.10232751
69	0xbdac776f	-0.08421218
70	0xbc8f4b92	-0.01749209
71	0xbd806a7c	-0.0627031
72	0x3db19908	0.086717665
73	0x3d930e96	0.071805164
74	0x3adb2156	0.0016718309
75	0xbdbbf071	-0.0917672
76	0x3daf44f9	0.08558077
77	0xbe44253e	-0.19154832
78	0xbd571e69	-0.052519236
79	0xbdb9efa3	-0.0907891
80	0xbe04f11c	-0.12982601
81	0x3d7950fc	0.06086825
82	0xbe589923	-0.21152167
83	0xbe21d187	-0.15802585
84	0x3df73cfd	0.120721795
85	0xbe36fc27	-0.17869626
86	0xbc9a6b76	-0.01885007
87	0xbe07ce04	-0.13262182
88	0xbcd4d110	-0.025978595
89	0xbdab5bd9	-0.08367128
90	0xbac87b66	-0.0015295565
91	0xbcd7251b	-0.02626281
92	0x3d34034f	0.043948468
93	0xbda6d288	-0.081456244
94	0x3b303f37	0.0026893148
95	0x3c6012d0	0.01367636
96	0xbd12caab	-0.03583781
97	0xbcc9c412	-0.024629626
98	0xbdf1a04a	-0.11798151
99	0xbc88b645	-0.016688475
100	0x3da17768	0.07884103
101	0xbc480203	-0.012207511
102	0xbdda19da	-0.10649462
103	0x3db17e13	0.08666625
104	0x3dc3a410	0.09552777
105	0x3e44bbd0	0.1921227
106	0x3e806bed	0.2508234
107	0xbdf149e4	-0.11781672
108	0x3e1ee3e2	0.15516618
109	0x3e1c88c5	0.15286548
110	0x3ebc1e8e	0.3674206
111	0x3d8e32ad	0.069432594
112	0xbdf1cc12	-0.118065014
113	0xbdc17238	-0.094456136
114	0xbcc9a7d0	-0.024616152
115	0x3ba42189	0.0050088805
116	0x3e446f3e	0.1918306
117	0x3b8bd60c	0.0042674597
118	0x3e8093ac	0.25112665
119	0xbc74e2c4	-0.014946643
120	0xbdf3d1d0	-0.11905253
121	0xbe2dbd92	-0.16966847
122	0x3bc1ce5e	0.0059144935
123	0x3d8d2eda	0.06893702
124	0xbd8b4e64	-0.06802061
125	0x3bc8d777	0.006129201
126	0xbd069adc	-0.03286253
127	0x3e37ee0f	0.17961906
128	0xbcf85a7d	-0.030316586
129	0xbd51e6c9	-0.051245485
130	0x3d1378e8	0.036003977
131	0x3d8c2f22	0.06844927
132	0x3e251957	0.16122948
133	0x3e59b020	0.21258593
134	0x3e154f5c	0.14581054
135	0x3e5d563a	0.21614924
136	0x3e37d2c4	0.17951494
137	0x3ccf77e0	0.025325716
138	0xbe307ece	-0.17235872
139	0xb8e8ab45	-0.000110945235
140	0x3dfcd4b9	0.12345261
141	0xbcf49134	-0.029854394
142	0x3d1cb996	0.038262926
143	0x3d88be0f	0.06676876
144	0x3e994131	0.2993255
145	0x3e7227ca	0.23647991
146	0x3d8fb9ad	0.07017837
147	0x3e2ed8eb	0.17074935
148	0x3dd72477	0.10505002
149	0xbe13e0b1	-0.14441182
150	0xbd11359a	-0.03545151
151	0x3ddc7780	0.1076498
152	0xbda5d9d8	-0.08098191
153	0x3d913f27	0.070921235
154	0x3dc41355	0.09574
155	0x3d20fa69	0.03930131
156	0x3e18d9fb	0.14926903
157	0xbda7d96b	-0.08195766
158	0x3dbb7547	0.09153228
159	0x3ceac779	0.02865957
160	0xbdb1d03e	-0.08682297
161	0xbdcef16f	-0.101046436
162	0xbc3c5b66	-0.0114964
163	0x3e13cbf5	0.14433272
164	0x3dbe4a90	0.092915654
165	0x3e4493d2	0.19197014
166	0xbe2e9668	-0.17049563
167	0x3de23706	0.11045651
168	0xbe36e305	-0.17860039
169	0x3dae799c	0.08519289
170	0xbcdb73c0	-0.026788592
171	0x3d232ad5	0.03983577
172	0x3d9b0814	0.075699
173	0xbe1ba2c9	-0.15198816
174	0xbdb164a3	-0.08661773
175	0x3d29050b	0.041264575
176	0x3c512a7f	0.0127664795
177	0xbc3d95be	-0.011571346
178	0x3d54d017	0.051956262
179	0x3e806ae1	0.25081542
180	0x3dea6e27	0.11446791
181	0x3d756c42	0.059917696
182	0x3be3b95f	0.006949588
183	0xbd9e6879	-0.0773477
184	0xbcf8630e	-0.03032067
185	0x3dff77a8	0.124739945
186	0x3d4c7303	0.04991437
187	0xbe905b12	-0.2819448
188	0xbd7229bc	-0.059121832
189	0x3e197dda	0.14989415
190	0x3ede6a96	0.43440694
191	0x3e0bc601	0.13649751
192	0x3e97376e	0.29534477
193	0xbd9d323c	-0.07675597
194	0x3cd5ffb4	0.026122905
195	0x3e8eb03f	0.2786884
196	0x3e22a46a	0.15883031
197	0x3e903633	0.2816635
198	0x3d8c927a	0.06863876
199	0x3e74f625	0.23922022
200	0x3d0890ec	0.033341333
201	0xbdb21880	-0.08696079
202	0xbcdfd307	-0.027322305
203	0xbdc51b9a	-0.09624405
204	0xbb0c5d7a	-0.002141802
205	0x3c2a9499	0.010411405
206	0x3db9c09d	0.09069941
207	0x3d9a1bf1	0.07524861
208	0x3d4f1144	0.050553575
209	0xbd4f914d	-0.05067568
210	0x3cf19725	0.029491017
211	0xbdeaa67a	-0.11457534
212	0x3d72dc1e	0.05929195
213	0x3dc6e610	0.0971185
214	0xbe0483e2	-0.12940934
215	0x3e497628	0.1967398
216	0x3ca304c3	0.019899732
217	0xbc80449c	-0.015657715
218	0x3e030422	0.12794545
219	0xb9d733e3	-0.00041046654
220	0xbaef475f	-0.0018255523
221	0x3e084d7b	0.13310806
222	0x3dd1e28c	0.102482885
223	0xbb419d0b	-0.0029543068
224	0xbd89148c	-0.06693372
225	0xbe025f97	-0.12731777
226	0x3d872744	0.06599286
227	0xbb6c0a5a	-0.0036016912
228	0x3dad09e8	0.08449155
229	0xbdaeffe1	-0.08544899
230	0x3cee2582	0.02907062
231	0x3d29110b	0.04127602
232	0xbd3766a7	-0.04477563
233	0xbcef77d4	-0.029231943
234	0x3d938b4f	0.072043054
235	0xbd8ea898	-0.069657505
236	0x3cee21a0	0.029068768
237	0xbcdccd67	-0.026953412
238	0x3d4a6fce	0.04942303
239	0xbe0a4180	-0.13501549
240	0xbdecb022	-0.11557032
241	0x3b6012be	0.0034190859
242	0xbe2697e5	-0.1626888
243	0xbba8ff4a	-0.005157386
244	0xbd02a350	-0.03189403
245	0xbd8ef2e8	-0.069799244
246	0x3c10fe9f	0.008849769
247	0xbc77fb5d	-0.015135613
248	0xbdcc4e61	-0.09975887
249	0xbbd6a0fe	-0.0065499535
250	0xbe16a844	-0.14712626
251	0x3d48b91d	0.049004663
252	0x3dfd31e7	0.12363034
253	0x3d52d2be	0.05147051
254	0xbd5281ba	-0.05139325
255	0xbd6dbb6c	-0.058040068

dense_output.0.weight f4 [100, 100]
0	0x3d959e41	0.07305575
1	0x3d39eac9	0.045389924
2	0x3ce4cbf0	0.027929276
3	0x3d91be58	0.07116383
4	0x3d6a61f5	0.057222325
5	0x3c1651c2	0.009174766
6	0x3b28d13a	0.0025759474
7	0xbdb409fb	-0.08790966
8	0xbb1b70c0	-0.0023718327
9	0xbd195e17	-0.037443247
10	0xbd2ed567	-0.042683985
11	0x3dff3bf1	0.12462605
12	0xbc8f4b6e	-0.017492022
13	0x3d7d2cd0	0.061810315
14	0x3c40f071	0.011776076
15	0x3c3646e3	0.011125299
16	0x3d04713c	0.03233455
17	0x3c5e9f26	0.013587749
18	0xbde1c3f0	-0.110237
19	0xbcb59635	-0.02216635
20	0xbd95c806	-0.07313542
21	0x3d2e4808	0.042549163
22	0x3d2d8f5b	0.042373043
23	0xbd855c6e	-0.0651177
24	0x3cc60f00	0.024177074
25	0x3cde3b7f	0.02712798
26	0x3da31a79	0.07964034
27	0x3cc9ac04	0.024618156
28	0xbd9add35	-0.07561723
29	0x3dacc6ef	0.08436381
30	0x3d264db1	0.040601436
31	0x3daa4f82	0.08315946
32	0x3ddd7876	0.10813992
33	0x3dc40364	0.09570959
34	0xbda47aac	-0.0803121
35	0xbd1f2fc6	-0.03886392
36	0xbd6d0677	-0.057867493
37	0x3c0b8fac	0.008518141
38	0xbd9c4c18	-0.07631701
39	0x3b0128c6	0.001970814
40	0x3c8ea54a	0.0174128
41	0x3db70640	0.08936739
42	0xbd624093	-0.055237364
43	0x3d9ae93d	0.07564018
44	0x3d973ee2	0.07385041
45	0x3c21702c	0.009853404
46	0xbd145e84	-0.03622295
47	0x3d81e232	0.063419715
48	0x3d2a85e5	0.041631598
49	0xbdbca9b8	-0.09212059
50	0xbd9b05fa	-0.07569499
51	0xbd66b6c9	-0.05632666
52	0x3c8f9d5b	0.017531088
53	0x3baaf51d	0.005217208
54	0x3dc1317b	0.09433266
55	0xbd03f255	-0.032213528
56	0xbd337827	-0.043815758
57	0xbd53493c	-0.051583514
58	0xbd8225dd	-0.06354878
59	0xbd4e33a5	-0.05034222
60	0xbbbd1829	-0.0057707024
61	0xbda02651	-0.07819808
62	0xbbf2e6fc	-0.0074127894
63	0xbd8168fb	-0.063188516
64	0x3d6aeb8d	0.057353545
65	0xbded078e	-0.115737066
66	0xbdcc0698	-0.09962195
67	0x3d01ab09	0.031657252
68	0x3d36cdcd	0.04462986
69	0x3d37e9af	0.044900592
70	0x3d0c5c23	0.034267556
71	0x3ccf1467	0.025278283
72	0x3cf9de03	0.030501371
73	0x3dec3c95	0.115349926
74	0xbd9080f0	-0.07055843
75	0xbcf4886c	-0.029850207
76	0xbbae1b66	-0.0053133247
77	0xbdecd5b3	-0.115641974
78	0x3d547a42	0.051874407
79	0x3d892825	0.0669711
80	0xbcd1e886	-0.025623571
81	0xbc230ed5	-0.009952267
82	0xbd88886f	-0.06666648
83	0x3d4ccccc	0.049999997
84	0xbdb7dfa5	-0.08978204
85	0xbd69fe9f	-0.05712759
86	0xbdfe2440	-0.12409258
87	0x3ddac74b	0.10682543
88	0x3da257a3	0.07926872
89	0x3e053001	0.13006593
90	0xbc0a2627	-0.008431948
91	0xbcfd7644	-0.030940183
92	0xbbc58eac	-0.0060289707
93	0x3a098e0c	0.0005247302
94	0x3c9fae90	0.019492418
95	0xbd5b6f10	-0.053572714
96	0x3da87990	0.08226311
97	0x3d04a4e6	0.032383822
98	0xbb1c3794	-0.0023836838
99	0xbd854777	-0.065077715
100	0x3dc03a2a	0.09386094
101	0xbd1f8634	-0.038946345
102	0x3d0cd56e	0.03438323
103	0xbdcbee61	-0.099575765
104	0x3d79c026	0.060974263
105	0x3d7d2077	0.06179854
106	0xbcafc3c7	-0.021455659
107	0xbd4c9941	-0.04995084
108	0x3dcc2ce1	0.099694975
109	0xbd887648	-0.06663185
110	0x3d88819c	0.06665346
111	0xbdf2db5b	-0.11858245
112	0xbbfdc7b1	-0.0077447523
113	0xbc7c19ba	-0.015386993
114	0x3cddfa55	0.027096907
115	0x3ce899be	0.028393622
116	0xbc498dd6	-0.012301883
117	0x3daa24d0	0.08307803
118	0x3d1befd6	0.038070522
119	0x3de059f8	0.1095466
120	0x3da97a80	0.08275318
121	0xbdc2aac4	-0.09505227
122	0xbd817baf	-0.06322419
123	0xbe02eaf2	-0.12784937
124	0xbad9b3a4	-0.0016609323
125	0x3d9b4241	0.07580996
126	0xbd39d79d	-0.04537164
127	0x3d6f2e10	0.058393538
128	0xbdf9cb0a	-0.1219693
129	0xbdfae46d	-0.122506
130	0x3d81f801	0.06346131
131	0x3ca84200	0.020539284
132	0xbd80c067	-0.06286698
133	0xbc036100	-0.008018732
134	0xbd97773d	-0.0739579
135	0xbdbf61f6	-0.093448564
136	0x3cf65a0e	0.030072238
137	0x3c300e7f	0.010745644
138	0xbc8595d0	-0.016306788
139	0x3d265c47	0.040615346
140	0xbd2ff470	-0.042957723
141	0xbd4ac7bf	-0.0495069
142	0x3d41b3b9	0.047290538
143	0xbd661917	-0.05617627
144	0xbcf06db5	-0.029349187
145	0xbcf6e373	-0.030137753
146	0xbccb0f92	-0.024787698
147	0xbd2115d8	-0.039327472
148	0xbd88a508	-0.06672102
149	0x3cbb32fc	0.02285146
150	0xbca824ef	-0.020525424
151	0x3c9ee684	0.019397028
152	0xbd2139d7	-0.0393618
153	0xbdc44475	-0.0958337
154	0xbd10f7f2	-0.03539271
155	0xbd12cfc8	-0.035842687
156	0xbde8f906	-0.113756225
157	0x3dc363b4	0.09540501
158	0x379b9c63	1.8550263e-05
159	0xbbee547e	-0.007273256
160	0x3dc634f1	0.096780665
161	0x3cd5129f	0.026009856
162	0xbda8546e	-0.08219229
163	0x3e0ee913	0.13956098
164	0x3d9629f4	0.07332221
165	0xbcbc4a08	-0.02298452
166	0xbcd75a38	-0.026288137
167	0xbd753e2f	-0.059873756
168	0xbd92522c	-0.07144579
169	0x3cab4430	0.020906538
170	0x3dad0d89	0.08449847
171	0x3d62a480	0.05533266
172	0xbe051b32	-0.12998655
173	0x3d30e844	0.043190256
174	0x3d3686a2	0.04456199
175	0xbd2f5bd8	-0.0428122
176	0xbcde2bd9	-0.027120518
177	0xbccfac3f	-0.025350688
178	0xbd8b93a5	-0.0681527
179	0xbd138be1	-0.03602207
180	0xbd79a668	-0.060949713
181	0x3d8deae2	0.06929566
182	0xbc06de6f	-0.008231743
183	0x3c79d1f3	0.01524781
184	0x3e13f0ce	0.14447328
185	0x3c212494	0.009835381
186	0x3d20ca27	0.039255287
187	0xbd751fbf	-0.05984473
188	0xbdeb9453	-0.115029
189	0x3d23b83d	0.039970625
190	0xbc8bbe54	-0.017058529
191	0x3e10638c	0.14100474
192	0x3c718dc2	0.01474327
193	0xbd556458	-0.05209765
194	0x3d80b968	0.062853634
195	0x3d72eb32	0.05930633
196	0xbc5b3824	-0.013380084
197	0x3cf927c6	0.030414473
198	0x3d6738fa	0.05645082
199	0xbc66a7fa	-0.014078135
200	0x3dbe8116	0.09301965
201	0xbca4e648	-0.020129338
202	0x3c5e048f	0.013550892
203	0x3d91a0ee	0.07110773
204	0x3da08932	0.07838668
205	0xbbb175c2	-0.005415649
206	0xbd4266f7	-0.047461476
207	0xbe11b8f4	-0.1423071
208	0x3d9ece7b	0.07754227
209	0xbbf3f5dc	-0.00744508
210	0x3d887fdd	0.06665013
211	0xbb27116f	-0.002549257
212	0xbdf235d7	-0.118266754
213	0xbde97067	-0.11398392
214	0x3d8807a4	0.06642082
215	0xbda68808	-0.08131415
216	0xbcee2bfb	-0.029073706
217	0x3cacd2ac	0.02109655
218	0x3d9d1bf0	0.07671344
219	0x3c9b027c	0.018922083
220	0x3d8a814b	0.06762942
221	0x3c54d57f	0.012990355
222	0x3dd94807	0.10609441
223	0xbda1b3d9	-0.07895631
224	0x3b5b7d8c	0.003349158
225	0x3b1b3df0	0.002368804
226	0x3cf39b16	0.029737037
227	0x3d23f3a4	0.040027276
228	0xbd2d25e3	-0.04227246
229	0x3ce99fc7	0.02851857
230	0x3d3e9396	0.046527468
231	0x3d0bf6e0	0.034170985
232	0xbcc97428	-0.02459152
233	0xbda76aad	-0.08174644
234	0x3d01f34a	0.03172616
235	0x3d8e7105	0.069551505
236	0x3d0ebb8a	0.03484682
237	0x3d35a20a	0.044343986
238	0xbdc985b8	-0.09839958
239	0x3e0e632d	0.1390502
240	0xbdc8a678	-0.097973764
241	0xbd92f326	-0.07175283
242	0xbda2260a	-0.079174116
243	0xbdd120bb	-0.10211321
244	0xbd14ab39	-0.036296103
245	0x3d23f695	0.04003008
246	0xbc1b8126	-0.009491241
247	0xbdb20f19	-0.08694286
248	0x3c9e2fa2	0.019309822
249	0x3d86f7eb	0.06590255
250	0x3de0e954	0.10982004
251	0x3ce3c418	0.027803466
252	0x3d3df48f	0.046375807
253	0x3d8fd1cb	0.07022437
254	0xbd8ab3c4	-0.06772569
255	0xbda379f8	-0.07982248

dense_output.0.bias f4 [100]
0	0xbe18be5e	-0.1491637
1	0x3d46f950	0.048577607
2	0x3bcece22	0.006311194
3	0xbd808732	-0.062757865
4	0xbe03259f	-0.1280732
5	0xbca5fcd4	-0.02026216
6	0xbd43f590	-0.04784161
7	0xbd1a4ac4	-0.03766896
8	0xbe3af227	-0.18256436
9	0xbc1c6389	-0.009545215
10	0xbcaf7931	-0.021420093
11	0xbd068aa9	-0.03284708
12	0x3e1a8a7b	0.15091889
13	0x3cd4b084	0.025963075
14	0xbe8203de	-0.25393575
15	0xbd3d5d6a	-0.046231665
16	0x3b9f042c	0.0048527922
17	0x3d9df2ae	0.07712303
18	0xbd48fc4b	-0.04906873
19	0xbcfdaee1	-0.030967178
20	0xbdef854c	-0.11695346
21	0xbdbe17b0	-0.09281862
22	0xbd0fef76	-0.035140477
23	0x3cf70da6	0.030157875
24	0xbbc1ff4c	-0.0059203263
25	0xbe6a578e	-0.22884962
26	0x3d8144c2	0.06311943
27	0x3dfa46ae	0.12220512
28	0xbdb262db	-0.087102614
29	0x3e18e685	0.14931686
30	0x3d9e2839	0.077225156
31	0xbca8bcc5	-0.020597825
32	0xbbe4dde7	-0.0069844606
33	0x3e098dc7	0.1343299
34	0xbe1a0152	-0.15039566
35	0xbe1a76ca	-0.15084377
36	0xbe03f744	-0.12887293
37	0x3c7b2c8c	0.015330445
38	0xbe47cca7	-0.19511662
39	0x3cb9545c	0.022623233
40	0x3e1c8b00	0.152874
41	0x3c53ed0a	0.0129349325
42	0xbd0f54ea	-0.03499309
43	0xbd4d5e83	-0.05013896
44	0xbcf62125	-0.030045101
45	0x3e0732f8	0.13203037
46	0xbcce9697	-0.025218291
47	0xbe4fa52e	-0.20277855
48	0xbde03c21	-0.10948969
49	0xbe294dd9	-0.16533603
50	0x3da9a5c7	0.08283573
51	0x3c02a614	0.007974166
52	0xbe04b6dc	-0.1296038
53	0x3e2f411f	0.17114685
54	0xbdb7fd42	-0.08983852
55	0xbdbd1c82	-0.09233953
56	0xbd5b4ba6	-0.05353894
57	0xbe14f389	-0.14546026
58	0xbc828db3	-0.015936708
59	0xbc830510	-0.015993625
60	0xbcfbcb25	-0.030736515
61	0x3c80367e	0.015650984
62	0xbce77bd4	-0.028257288
63	0xbd8cc965	-0.068743505
64	0x3d9b17a9	0.07572872
65	0x3d6fb615	0.058523256
66	0xbd31e0f7	-0.043427434
67	0xbd9ae844	-0.075638324
68	0xbda9b971	-0.08287323
69	0xbe0f44cb	-0.13991086
70	0x3dc08670	0.09400642
71	0x3de20d24	0.110376626
72	0xbe03576f	-0.12826322
73	0x3d3a747b	0.04552124
74	0xbcf83fea	-0.030303914
75	0x3c2cd5cd	0.010549021
76	0xbca8a628	-0.020587042
77	0x3caf0288	0.021363512
78	0x3d236262	0.039888747
79	0xbe589927	-0.21152173
80	0xbc990398	-0.018678471
81	0xbd726b05	-0.059184093
82	0xbd915c26	-0.07097654
83	0xbd1b31f9	-0.037889455
84	0xbd853d71	-0.0650586
85	0xbd932f3b	-0.07186743
86	0x3e338bdc	0.17533821
87	0xbe02a888	-0.12759602
88	0xbd075c97	-0.033047285
89	0xbd162429	-0.03665558
90	0x3ce62593	0.028094089
91	0xbe11a6b9	-0.14223756
92	0xbbcea104	-0.0063058157
93	0x3d91ef52	0.07125725
94	0xbd9f9a02	-0.077930465
95	0x3e2161de	0.1575999
96	0x3e1e0d80	0.15434837
97	0x3c8b3770	0.016994208
98	0xbca4c21c	-0.02011209
99	0x3d943ff1	0.07238758

dense_output.3.weight f4 [1, 100]
0	0x3c767234	0.015041877
1	0x3d8ac2b4	0.06775418
2	0x3c1ed944	0.009695355
3	0x3dcce93a	0.10005422
4	0xbcb7cadb	-0.022435596
5	0x3b4e2694	0.00314561
6	0x3b700ba5	0.0036628034
7	0x3cf084ee	0.02936026
8	0xbdc6c9e7	-0.097064786
9	0xbba2a2e7	-0.004963267
10	0x3b6a9912	0.0035796803
11	0x3e2354e9	0.1595036
12	0x3d30c2b2	0.043154426
13	0xbd48fbd8	-0.049068302
14	0xbdde60ca	-0.10858305
15	0x3b3ba036	0.0028629429
16	0xb94b9d72	-0.00019418242
17	0x3d82cffc	0.06387326
18	0xbbf4aea2	-0.007467107
19	0x3dbeebb0	0.093222976
20	0xbbbd00d5	-0.0057679215
21	0xbc64e641	-0.013970912
22	0xbc8cde78	-0.017195925
23	0x3d855bb7	0.06511634
24	0x3d2316b7	0.039816584
25	0xbe25403c	-0.16137785
26	0x3d8111d9	0.06302232
27	0x3c8c7c17	0.017149014
28	0xbbd6bd1d	-0.006553306
29	0x3c33846d	0.010956866
30	0xbcbae8ec	-0.022816144
31	0x3c06520e	0.008198274
32	0x3bab705d	0.0052319006
33	0x3d22f553	0.03978474
34	0x3b544351	0.0032388757
35	0xbc501638	-0.01270061
36	0x3aa96ee0	0.001292672
37	0x3c57e99b	0.0131782545
38	0xbdca4edb	-0.09878322
39	0xbc7674a3	-0.015042457
40	0x3d7284b5	0.05920859
41	0x3c03ee2f	0.008052393
42	0xbd04f6ec	-0.032462046
43	0x3b62464a	0.0034526759
44	0x3bb959fe	0.00565648
45	0x3d0d4af5	0.034495313
46	0xbc9b3b28	-0.018949106
47	0xbd32712b	-0.043564957
48	0x3b4b2f37	0.0031003484
49	0xbd5cd790	-0.053916514
50	0x3c36c1bf	0.011154591
51	0x384b0b53	4.8409518e-05
52	0x3c77e81a	0.015131021
53	0x3cc11186	0.023567926
54	0xbc3a6d71	-0.011378632
55	0x39a980b8	0.00032330095
56	0x3d070ece	0.032973103
57	0x3bc16d2f	0.0059029083
58	0x3a079105	0.0005171451
59	0x3bb4047a	0.0054936977
60	0x3a2db576	0.0006626466
61	0xbbd743ca	-0.0065693604
62	0x3d3f40ac	0.046692535
63	0xb9f4c419	-0.0004668541
64	0x3d90087c	0.07032868
65	0x3c9b759a	0.018976975
66	0x3cded6d8	0.027202055
67	0xbcb32b2f	-0.021871177
68	0xbb8420ea	-0.004032244
69	0x3bdbd427	0.00670864
70	0x3cd3adf3	0.025839781
71	0x3ce8c7fe	0.028415676
72	0x3cb5a49a	0.022173215
73	0x3e0e4dff	0.1389694
74	0x3c087b53	0.008330184
75	0x3d1f9dc7	0.038968828
76	0x3e040647	0.1289302
77	0x3d4e17bd	0.050315607
78	0x3d3e0b91	0.04639775
79	0xbdeae3d0	-0.11469233
80	0xba92d757	-0.0011203092
81	0x3b7cf20a	0.0038596415
82	0x3d2fcf2c	0.042922184
83	0x3ce203bf	0.027589677
84	0x3d9510f1	0.07278622
85	0x3a6564a0	0.0008750651
86	0x3d92e8af	0.07173287
87	0x3bebde1c	0.0071981084
88	0xbd635bae	-0.055507354
89	0xbbf6fb47	-0.007537279
90	0x3db08cb6	0.086205885
91	0x3bf121dd	0.007358773
92	0xbd15eac0	-0.03660083
93	0x3d5db567	0.054128077
94	0x3c66047a	0.014039153
95	0x3d587f3d	0.05285572
96	0x3c88dada	0.016705919
97	0x3e0f3b21	0.139874
98	0xba0d0d45	-0.00053807005
99	0x3bf674d6	0.007521252

exp_avg f4 [4, 1, 3, 3, 3]
0	0xbbc46463	-0.0059934123
1	0xbbb5c18e	-0.005546755
2	0xbba72c0d	-0.005101687
3	0xbbba2bd2	-0.0056814933
4	0xbba31a9a	-0.0049775364
5	0xbbb370ec	-0.005476108
6	0xbbcdcd30	-0.006280564
7	0xbbc0ee2b	-0.005887767
8	0xbbc949be	-0.006142824
9	0xbbde37a1	-0.006781534
10	0xbbb2e4f1	-0.005459421
11	0xbbeaed49	-0.0071694
12	0xbbbfbb64	-0.005851196
13	0xbbaf5b65	-0.0053514712
14	0xbbfb82af	-0.007675491
15	0xbbdaa811	-0.006672867
16	0xbbbfa3ca	-0.0058483826
17	0xbc070674	-0.008241285
18	0xbb988dff	-0.004655599
19	0xbbbc35c0	-0.005743712
20	0xbba39542	-0.004992158
21	0xbb8481cc	-0.0040437933
22	0xbbbd8773	-0.005783969
23	0xbbbf7859	-0.005843204
24	0xbba77792	-0.0051106894
25	0xbbcc9aee	-0.006244055
26	0xbbddb7c8	-0.006766293
27	0xbafb3883	-0.0019166622
28	0xba8f87b6	-0.0010950479
29	0xba102cf2	-0.00054998614
30	0xbb13430b	-0.002247038
31	0xbaa80676	-0.0012819308
32	0xb9990639	-0.0002918707
33	0xbb0b5f25	-0.0021266427
34	0xba4ee2b7	-0.00078920595
35	0x3a3e2e3d	0.0007254815
36	0xbb17b590	-0.0023148991
37	0xbaa56e13	-0.0012621306
38	0xba90865b	-0.0011026369
39	0xbb277009	-0.0025548956
40	0xbac474b0	-0.0014988389
41	0xba2e6d5d	-0.00066538696
42	0xbb162700	-0.002291143
43	0xba0350c2	-0.0005009287
44	0x3a1a09fc	0.00058761216
45	0xbb284393	-0.0025675043
46	0xbac67821	-0.0015142002
47	0xbad61d0a	-0.0016335559
48	0xbb2d7b31	-0.0026471133
49	0xbabed343	-0.001455881
50	0xbaa33dfd	-0.0012454387
51	0xbb068ba1	-0.0020530003
52	0xb9bd7792	-0.00036137976
53	0x39c32009	0.00037217166
54	0xbb5a61b7	-0.0033322403
55	0xbafc110e	-0.0019231157
56	0xba4c85e1	-0.0007801932
57	0xbb58ea3c	-0.00330986
58	0xbaf85c54	-0.0018948414
59	0xbac8ab10	-0.001530977
60	0xbb737416	-0.003714805
61	0xbb359202	-0.0027705436
62	0xbb3f7557	-0.0029214227
63	0xbb4454ec	-0.0029957844
64	0xbb110419	-0.0022127687
65	0xbb4e3a1c	-0.0031467741
66	0xbb5047af	-0.0031781008
67	0xbb0b3d79	-0.0021246357
68	0xbb59f538	-0.0033257734
69	0xbb5d8863	-0.0033803217
70	0xbb3f5ca4	-0.0029199505
71	0xbb7c4a74	-0.0038496526
72	0xbaf9cc32	-0.0019058047
73	0xbb1f9b19	-0.002435392
74	0xbb5e1794	-0.0033888565
75	0xbb07eea1	-0.00207416
76	0xbb22baa7	-0.0024830492
77	0xbb69299c	-0.003557778
78	0xbb2a1143	-0.002595023
79	0xbb32a127	-0.0027256699
80	0xbb7ae85d	-0.0038285472
81	0xba2a4c1c	-0.00064963265
82	0x3a4101a5	0.0007362611
83	0xb8737f11	-5.8054055e-05
84	0xbab773c3	-0.0013996292
85	0xb84a2fe1	-4.8205144e-05
86	0xba987b31	-0.0011633394
87	0xbaf785b8	-0.0018884456
88	0xbab18e7c	-0.0013546492
89	0xbb14b7a3	-0.0022692464
90	0x39eb1b5c	0.00044843077
91	0x3a03c83d	0.0005027091
92	0xba3452bc	-0.00068787835
93	0xba02a8c6	-0.00049842556
94	0xb9b989cf	-0.00035388625
95	0xbafaf8d3	-0.0019147642
96	0xbab22deb	-0.0013594007
97	0xbad73688	-0.001641945
98	0xbb2a389d	-0.0025973686
99	0x3b059e8a	0.0020388686
100	0x3a25b490	0.00063211564
101	0x3a32b6a7	0.00068173785
102	0x3a28dace	0.0006441296
103	0xb9defd2a	-0.00042531762
104	0xba391f6f	-0.0007061874
105	0xba43df53	-0.00074719376
106	0xbabc248b	-0.0014354152
107	0xbadb9367	-0.0016752303

exp_avg_sq f4 [4, 1, 3, 3, 3]
0	0x39c2ac27	0.00037130827
1	0x39ae6c01	0.00033268335
2	0x3985f2fd	0.00025548777
3	0x39e5db7e	0.00043841818
4	0x39df310c	0.00042570417
5	0x39c47308	0.00037469738
6	0x39794fe5	0.00023776254
7	0x398fbec7	0.00027417226
8	0x39b24568	0.00034002517
9	0x39d1c8e0	0.0004001325
10	0x39bdd374	0.00036206434
11	0x398c18a4	0.0002672124
12	0x39df6392	0.0004260806
13	0x39ec4095	0.00045061545
14	0x39d026b1	0.0003970168
15	0x3967608f	0.00022065848
16	0x39aff479	0.00033560747
17	0x39e293b5	0.0004321613
18	0x39d5ba3a	0.00040765275
19	0x39bce545	0.00036028973
20	0x396ea0ea	0.00022757394
21	0x39dbe1c4	0.00041939144
22	0x39ef696c	0.00045664178
23	0x39b84375	0.00035145474
24	0x3979209b	0.00023758637
25	0x39cf1d37	0.00039503883
26	0x39e01045	0.0004273673
27	0x38e04b08	0.00010695128
28	0x38e11aac	0.00010733804
29	0x38fa6e20	0.00011941441
30	0x38d4b185	0.00010142013
31	0x38c5070a	9.395003e-05
32	0x38d9cf81	0.00010386017
33	0x38ca3280	9.641517e-05
34	0x38ba44e3	8.882002e-05
35	0x38c9f0a8	9.6292526e-05
36	0x38f1f39b	0.000115371506
37	0x38f698b7	0.000117586394
38	0x390d8e33	0.00013499781
39	0x38e1d6a3	0.00010768815
40	0x38d6e284	0.00010246507
41	0x38f29606	0.00011567403
42	0x38d841d7	0.00010311946
43	0x38c93012	9.593381e-05
44	0x38da1e08	0.00010400644
45	0x38e65369	0.00010982791
46	0x38e45ca1	0.00010889141
47	0x39008a9a	0.00012258664
48	0x38d2b149	0.00010046602
49	0x38c37cfd	9.3216055e-05
50	0x38cd939e	9.8026576e-05
51	0x38ccd2b5	9.766725e-05
52	0x38b1ae63	8.4725e-05
53	0x38b5885a	8.65615e-05
54	0x39323d26	0.00016998182
55	0x38f12616	0.000114988696
56	0x39441aec	0.00018702046
57	0x394caec7	0.00019520066
58	0x391edb83	0.00015149829
59	0x396f00a0	0.00022793049
60	0x398f7e4a	0.00027369178
61	0x39833891	0.00025028412
62	0x39a7cf97	0.0003200739
63	0x3901e422	0.00012387385
64	0x38cbc048	9.7156095e-05
65	0x396f7bbc	0.00022838911
66	0x3927d844	0.00016006926
67	0x39135b2d	0.00014052978
68	0x398cd7bf	0.00026863624
69	0x39857736	0.00025456556
70	0x398038b8	0.0002445632
71	0x39b97530	0.0003537326
72	0x38cb9093	9.706723e-05
73	0x390a4e21	0.00013189811
74	0x3996861c	0.0002871015
75	0x39150ff6	0.00014215693
76	0x39385ecb	0.0001758292
77	0x39ae44e6	0.000332392
78	0x398167d8	0.00024682167
79	0x39905f76	0.00027536944
80	0x39d4115f	0.00040448733
81	0x39b53c0c	0.0003456775
82	0x399245bc	0.00027899246
83	0x39706e84	0.00022929354
84	0x395c1591	0.00020988869
85	0x39053610	0.00012704008
86	0x38bd3662	9.022352e-05
87	0x392b5bc3	0.00016342015
88	0x38c76392	9.507606e-05
89	0x388cb1f5	6.708867e-05
90	0x39d37192	0.00040329673
91	0x39af852f	0.0003347783
92	0x3993b8b9	0.00028175654
93	0x396e4528	0.00022723211
94	0x391821c1	0.00014508424
95	0x3903fd7e	0.00012587567
96	0x393eb74e	0.00018188098
97	0x38de4734	0.000105990475
98	0x38c962fc	9.602864e-05
99	0x39cc79cd	0.0003900066
100	0x39a0e0e7	0.00030685143
101	0x39845736	0.0002524198
102	0x39531dd0	0.00020133634
103	0x3908f1b0	0.00013060006
104	0x38fdb7e4	0.000120982324
105	0x3927bbe0	0.0001599635
106	0x38cccad9	9.765261e-05
107	0x38caff2d	9.679641e-05

exp_avg f4 [4]
0	0xbc7b7625	-0.015347992
1	0xbb269446	-0.0025417968
2	0xbcaf55d9	-0.02140324
3	0xbb893a85	-0.0041878843

exp_avg_sq f4 [4]
0	0x3bc9f66f	0.0061634104
1	0x3af918d9	0.0019004598
2	0x3d06c9b4	0.032907203
3	0x3b88ed9b	0.0041787154
