models/dsec/dsec_half1/dsec_half1_monocular_even_model.pth (torch, 864463 bytes, 27 tensors)

conv3d.0.weight f4 [4, 1, 3, 3, 3]
0	0xbcf5987d	-0.029979939
1	0x3bf7112c	0.007539889
2	0x3cb5b5d9	0.022181438
3	0xbcc3c47b	-0.0238974
4	0xbd1cae08	-0.038251907
5	0x3d8df3c3	0.069312595
6	0xbd6373a2	-0.055530198
7	0xbe0d7168	-0.13812792
8	0x3d8bae9c	0.068204135
9	0x3e03a85b	0.12857191
10	0x3e09ef7b	0.13470261
11	0xbdbd0a1b	-0.09230443
12	0x3de23b1c	0.110464305
13	0x3c994859	0.018711256
14	0xbd528281	-0.05139399
15	0xbd5a8a62	-0.05335463
16	0x3df92693	0.121655606
17	0x3d5ba8f8	0.053627938
18	0xbd9672c2	-0.07346107
19	0xbdc7f412	-0.097633496
20	0x3e4faa16	0.20279726
21	0xbd248626	-0.040166996
22	0x3de458c4	0.11149743
23	0x3e7e6483	0.2484303
24	0xbd810ec8	-0.063016474
25	0x3cbfcf81	0.023414375
26	0x3e1ae156	0.15125021
27	0x3d15c987	0.036569145
28	0xbc8250a5	-0.015907595
29	0x3d5cfa33	0.053949546
30	0x3cc9e599	0.024645614
31	0x3e7a2cb6	0.24431118
32	0x3e137556	0.14400229
33	0xbd3707a2	-0.044685014
34	0x3d706464	0.05868949
35	0x3ddf755a	0.10911055
36	0x3d337b4b	0.043818753
37	0xbe5e6155	-0.21716817
38	0xbdc76c34	-0.09737435
39	0x3d8ddf85	0.069273986
40	0xbe571d41	-0.21007253
41	0xbebaa2f3	-0.36452445
42	0xbe471cad	-0.19444533
43	0x3c721f66	0.014777994
44	0x3e2604db	0.1621279
45	0x3e5daf29	0.2164885
46	0xbdeba673	-0.11506357
47	0x3e7486ac	0.23879498
48	0x3e249b87	0.16074954
49	0xbecff555	-0.4061686
50	0xbef7b0d7	-0.48377106
51	0xbe617fe9	-0.2202145
52	0x3d4be360	0.04977739
53	0x3e75dae4	0.24009281
54	0x3da20649	0.07911355
55	0x3dc47719	0.095930286
56	0xbdf2f935	-0.11863939
57	0xbd85e99e	-0.065386996
58	0xbb3efeda	-0.0029143603
59	0xbd7d3e1f	-0.06182682
60	0xbd4d2600	-0.050085068
61	0x3dccc8cb	0.09999236
62	0x3da6c4aa	0.081429794
63	0xbe38d05b	-0.18048231
64	0x3dec6625	0.1154292
65	0xbe864cec	-0.26230562
66	0x3c7b5b00	0.01534152
67	0x3da5a74f	0.08088552
68	0x3d4a1c7e	0.04934358
69	0xbdc95fa0	-0.09832692
70	0x3d7c778c	0.061637446
71	0xbe44b444	-0.19209391
72	0xbe93b287	-0.28847143
73	0x3ec3561d	0.38151637
74	0xbdafd915	-0.08586327
75	0xbe0c3ff3	-0.1369627
76	0x3ee514ad	0.44742337
77	0xbdb52d14	-0.088464886
78	0xbe16223b	-0.14661495
79	0x3e507e56	0.20360693
80	0xbdfcc4c7	-0.1234222
81	0xbc9dc5fb	-0.019259444
82	0xbd6cf55e	-0.057851188
83	0x3e8af883	0.27142724
84	0x3c60a151	0.013710336
85	0xbd4fcf72	-0.050734945
86	0xbdae8b89	-0.08522708
87	0xbd8a8434	-0.06763497
88	0x3e096102	0.13415912
89	0x3da6a296	0.081364796
90	0xbda3626a	-0.07977755
91	0xbe2dfcd9	-0.16990985
92	0x3ceca2c6	0.02888621
93	0x3dd389e9	0.10329039
94	0xbd7aae9d	-0.06120168
95	0xbe0fc230	-0.1403892
96	0x3e65fa31	0.22458722
97	0x3e3e0079	0.18554868
98	0x3cadd96f	0.021221844
99	0x3d9fb4e6	0.077981755
100	0xbe2822f3	-0.16419582
101	0xbe42b945	-0.19015987
102	0x3e46db70	0.19419646
103	0xbd68fe67	-0.056883242
104	0xbe52e36e	-0.2059457
105	0x3e380b6d	0.17973109
106	0x3e95f2e6	0.2928688
107	0xbe87893f	-0.26471898

conv3d.0.bias f4 [4]
0	0xbc8c2be0	-0.017110765
1	0x3d3c7ad9	0.046015594
2	0x3c79c2ea	0.015244225
3	0xbdfa56df	-0.122236006

gru.weight_ih_l0 f4 [300, 100]
0	0xbd63f616	-0.055654608
1	0x3a65613c	0.0008750146
2	0x3dfe73d0	0.12424433
3	0x3cc2fc98	0.023802087
4	0x3c9afe2e	0.01892003
5	0xbd76e21f	-0.06027424
6	0x3e0628f8	0.13101566
7	0x3e1328ef	0.14371084
8	0x3c9a1a88	0.01881148
9	0x3d8fad6b	0.07015499
10	0x3c5f2adc	0.013621058
11	0x3e09cdd7	0.13457428
12	0x3d6a43c7	0.057193544
13	0x3e378b78	0.17924297
14	0x3d1dc630	0.038519084
15	0x3deabf88	0.11462313
16	0x3dfcff65	0.123534
17	0x3e38ce82	0.18047526
18	0x3e87f0bc	0.26550853
19	0x3d85cac5	0.06532816
20	0x3d46bcee	0.04852002
21	0x3dee85e3	0.116466306
22	0x3dbe18ac	0.092820495
23	0x3e7c30e1	0.24628021
24	0x3df98fb2	0.12185611
25	0xbda627b0	-0.081130385
26	0xbdb01e6c	-0.085995525
27	0xbe1baf72	-0.15203646
28	0xbe61adb4	-0.22038919
29	0xbe28f226	-0.16498622
30	0xbdc6ac25	-0.09700803
31	0xbe1add68	-0.15123522
32	0xbea705dd	-0.3262166
33	0xbee50d09	-0.44736508
34	0xbeccc91d	-0.39997187
35	0xbd0bd29e	-0.034136407
36	0xbedea467	-0.43484804
37	0xbe0f5d20	-0.14000368
38	0xbdd72591	-0.10505212
39	0xbd97f764	-0.07420233
40	0xbe561db1	-0.20909764
41	0xbec69ba4	-0.3879062
42	0xbe0dfa44	-0.13865
43	0xbd22d6e5	-0.03975572
44	0xbda40a35	-0.08009759
45	0xbe3f385b	-0.18673842
46	0xbe5a125e	-0.21296069
47	0xbd7c46a2	-0.0615908
48	0x3cb927ce	0.022601988
49	0x3c18a536	0.009316733
50	0x3d69803c	0.05700706
51	0x3d963972	0.073351756
52	0x3eb3b6ba	0.35100347
53	0x3e7089e7	0.23490106
54	0x3e9a3a88	0.3012278
55	0xbdca7e5b	-0.09887382
56	0xbd3445c8	-0.04401186
57	0x3e724905	0.23660667
58	0x3e0604cd	0.13087769
59	0x3de06f9d	0.109587885
60	0xbe30bfdb	-0.17260687
61	0xbe5027b0	-0.2032764
62	0xbcd36a86	-0.02580763
63	0xbb23b7cc	-0.0024981378
64	0xbdfd5381	-0.12369443
65	0xbb0242ec	-0.0019876314
66	0xbe36fb69	-0.17869343
67	0xbdc02aaa	-0.093831375
68	0x3e029401	0.12751772
69	0x3c581f54	0.013191063
70	0x3df540ed	0.11975274
71	0xbd8b49c1	-0.06801177
72	0xbe8c5d2d	-0.27414837
73	0x3e71458b	0.23561685
74	0x3dc0096e	0.093767986
75	0x3e115e5b	0.1419615
76	0x3e90b43a	0.28262502
77	0x3d7733bc	0.060352072
78	0xbd2fde4b	-0.042936604
79	0xbc9401e2	-0.018067304
80	0x3cc28a6f	0.02374765
81	0xbd561316	-0.052264296
82	0xbe30ca18	-0.17264593
83	0xbe4da55c	-0.20082611
84	0x3d6237b7	0.055228915
85	0x3ea91d7a	0.330303
86	0x3e797670	0.24361587
87	0x3b7fa171	0.0039006139
88	0x3d892544	0.06696561
89	0x3e7a31a3	0.24432997
90	0x3e012d33	0.12614898
91	0x3e3479ab	0.17624538
92	0xbe2618da	-0.16220418
93	0xbe3e8bfb	-0.18608086
94	0x3e0b7971	0.13620545
95	0xbe111108	-0.14166653
96	0xbe1b06e3	-0.15139346
97	0xbea8b6ca	-0.32951957
98	0xbefd917c	-0.49525058
99	0xbed4783e	-0.41497988
100	0x3e0269b7	0.1273564
101	0x3e224919	0.15848197
102	0x3dd853f2	0.10562886
103	0xbdf2daa1	-0.118581064
104	0xbe399d26	-0.18126354
105	0xbdc58424	-0.096443444
106	0xbd48d0b3	-0.049027156
107	0x3b1df2ae	0.0024100947
108	0x3c9972ac	0.018731438
109	0xbc434d46	-0.011920279
110	0xbdc8ab96	-0.097983524
111	0xbc9036a9	-0.017604189
112	0x3dc1a3f1	0.094550975
113	0x3dbb6c43	0.09151509
114	0x3d927767	0.071516804
115	0xbd6054df	-0.05476844
116	0xbd9a0385	-0.075202025
117	0x3d8dc8c5	0.069230594
118	0x3cba558c	0.02274587
119	0x3a2aea4f	0.00065199
120	0xbd4c5fcc	-0.049896047
121	0xbdf3b697	-0.119000606
122	0xbb45a22e	-0.003015648
123	0x3e2920a6	0.1651636
124	0x3d212149	0.039338384
125	0xbdc685cb	-0.09693488
126	0xbeff391f	-0.49848267
127	0xbe3a1afc	-0.18174356
128	0xbe0406ca	-0.12893215
129	0x3e32613d	0.17419906
130	0xbe9c5d36	-0.30539864
131	0xbed8d043	-0.4234639
132	0xbecbfb33	-0.39840087
133	0xbe14109e	-0.14459464
134	0x3dfb073c	0.12257239
135	0xbe8af09e	-0.271367
136	0xbed317af	-0.41229007
137	0xbed618de	-0.41815847
138	0xbedba0b0	-0.42896032
139	0x3d918c49	0.071068354
140	0xbdaca9d9	-0.08430833
141	0xbe4ff1e7	-0.20307122
142	0xbeb628a4	-0.3557788
143	0xbe62f59c	-0.22164005
144	0xbe15d192	-0.14630726
145	0x3dbe2366	0.092840955
146	0xbdee00ba	-0.11621232
147	0xbeaa680c	-0.33282506
148	0xbd8ded49	-0.06930024
149	0xbe099783	-0.13436703
150	0x3d8b7038	0.068085134
151	0x3db16c67	0.08663254
152	0x3e34bd9b	0.17650454
153	0x3ea85946	0.3288061
154	0x3e59188f	0.21200775
155	0x3e33c760	0.17556524
156	0x3d9f2df9	0.077724405
157	0x3cbbb8d9	0.02291529
158	0x3e61f408	0.22065747
159	0x3e731644	0.23738962
160	0x3de7c113	0.11316123
161	0xbad76556	-0.0016433399
162	0xbdab9b45	-0.08379225
163	0x3e4994ea	0.19685712
164	0x3d8faa52	0.07014908
165	0x3dd81de0	0.10552573
166	0x3c2f159e	0.010686306
167	0xbd582947	-0.05277374
168	0x3d311f77	0.043242898
169	0x3de04c8e	0.10952102
170	0x3e55b92d	0.2087142
171	0xbd60c2f6	-0.05487343
172	0x3aabbbba	0.0013102212
173	0x3dbab7e4	0.091171056
174	0x3d810f32	0.063017264
175	0xbe4a56d8	-0.19759691
176	0xbe37492d	-0.17899008
177	0xbd44d6c8	-0.048056394
178	0x3d17ae35	0.03703137
179	0x3e9859b6	0.29755944
180	0x3dc9ff77	0.09863179
181	0xbe0c1e0e	-0.1368334
182	0xbe401047	-0.1875621
183	0xbe7106d6	-0.23537764
184	0xbe41f657	-0.18941627
185	0x3d3307ce	0.043708615
186	0xbe7ef0fc	-0.24896616
187	0xbdf9d0f4	-0.12198058
188	0xbe97ac94	-0.29623854
189	0xbd757348	-0.059924394
190	0xbd4b90e0	-0.04969871
191	0xbe881a6c	-0.26582658
192	0xbe82f980	-0.25580978
193	0xbe0c2523	-0.13686042
194	0xbd997903	-0.07493784
195	0x3dab4668	0.08363038
196	0xbdcdb492	-0.10044207
197	0xbea2d9b9	-0.31806734
198	0xbe2a5dcb	-0.16637342
199	0x3d4cb6d1	0.049979035
200	0xbe299e86	-0.16564378
201	0xbe96d31f	-0.29457948
202	0xbdf03d12	-0.11730398
203	0xbd9aafd6	-0.07553069
204	0xbe81aeae	-0.25328583
205	0xbdf89b85	-0.12139038
206	0xbdfa2d46	-0.122156665
207	0xbd36beac	-0.044615433
208	0x3e07193c	0.1319322
209	0x3cb9fd3c	0.02270376
210	0xbe2a5709	-0.16634764
211	0xbdf51644	-0.119671375
212	0x3da395e0	0.07987571
213	0x3e2592bf	0.1616926
214	0xbdb230a8	-0.08700687
215	0xbe13dae8	-0.14438975
216	0xbde92646	-0.11384253
217	0xbba41364	-0.0050071944
218	0xbce4c0b1	-0.027923914
219	0xbddc198f	-0.107470624
220	0xbe1bc27f	-0.15210913
221	0xbe04faad	-0.1298625
222	0xbd476193	-0.04867704
223	0xbe5be730	-0.2147491
224	0xbe77ccf5	-0.24199279
225	0xbe54cfab	-0.20782344
226	0xbd93e05b	-0.07220527
227	0xbdca08b5	-0.09864942
228	0xbd3f94d6	-0.0467728
229	0xbe0bf93b	-0.13669293
230	0x3dbe602a	0.092956856
231	0x3daff555	0.08591715
232	0x3d0d622e	0.03451746
233	0xbe40c2b1	-0.18824269
234	0xbea52d54	-0.32261145
235	0xbe153930	-0.14572597
236	0xbdde440b	-0.10852822
237	0xbe4e5614	-0.20150024
238	0xbe615651	-0.22005583
239	0xbf13a9e3	-0.576811
240	0xbeba5bf1	-0.3639827
241	0xbe9893c6	-0.29800242
242	0xbe5c5e43	-0.21520333
243	0xbe500d8f	-0.20317672
244	0xbe831050	-0.25598383
245	0xbe8fa494	-0.2805525
246	0xbd0101da	-0.031495906
247	0xbe8828f2	-0.2659374
248	0xbeb29058	-0.3487575
249	0xbe8dcf9a	-0.2769745
250	0xbee064b3	-0.43826827
251	0xbf2bf61e	-0.6717242
252	0xbf0d467f	-0.55185694
253	0xbf1db9c6	-0.6161159
254	0xbf187187	-0.5954823
255	0xbec501e0	-0.38477993

gru.weight_hh_l0 f4 [300, 100]
0	0x3e2f2750	0.1710484
1	0x3bc3e07d	0.005977689
2	0x3e80a065	0.2512237
3	0xbe45abbf	-0.19303797
4	0x3e28fc77	0.16502558
5	0x3e5e3306	0.21699151
6	0xbd6ac341	-0.057315115
7	0xbece675e	-0.40313238
8	0xbdfeb2c2	-0.12436439
9	0x3e5cd4d2	0.2156556
10	0x3df26c77	0.11837094
11	0xbf007fb1	-0.5019484
12	0xbe3d264b	-0.18471639
13	0xbdae9fd6	-0.0852658
14	0xbe4dc058	-0.20092905
15	0xbe8b0bb4	-0.27157366
16	0x3deeaaf6	0.11653702
17	0xbcd7bf09	-0.02633621
18	0x3e13f49b	0.14448778
19	0xbe0f84ac	-0.14015454
20	0xbdb7aa42	-0.08968021
21	0x3e97587a	0.2955969
22	0x3c3ae353	0.011406737
23	0xbddec111	-0.10876668
24	0xbde9c131	-0.114138015
25	0x3e51c6ce	0.20485994
26	0xbec0581b	-0.3756722
27	0x3df4dd53	0.11956277
28	0xbe070ff1	-0.13189675
29	0xbc6e84e6	-0.014558053
30	0xbca6e316	-0.020371955
31	0x3e0def96	0.13860926
32	0xbd13c9d0	-0.036081135
33	0x3d77ab96	0.06046637
34	0xbd9241ef	-0.07141482
35	0x3d86a304	0.065740615
36	0xbe895e99	-0.26829985
37	0xbc4734bc	-0.012158569
38	0xbed655bb	-0.41862282
39	0xbe7b017b	-0.24512284
40	0x3e882286	0.2658884
41	0xbd17f110	-0.03709513
42	0x3c312392	0.010811703
43	0x3cb27907	0.021786226
44	0x3e37817c	0.17920488
45	0x3ca4265a	0.020037819
46	0x3e3d9449	0.18513598
47	0xbe76c29d	-0.24097677
48	0x3d31a37e	0.04336881
49	0x3ddcd773	0.10783281
50	0xbea31ab4	-0.3185631
51	0x3daf76af	0.08567559
52	0x3ab6b035	0.0013938012
53	0x3ec7b41a	0.39004594
54	0xbca703bf	-0.020387528
55	0xbddc26fb	-0.107496224
56	0x3e01be43	0.12670235
57	0x3d171378	0.0368838
58	0xbe607b1a	-0.2192196
59	0x3d37c1e4	0.044862643
60	0x3d9e66a3	0.0773442
61	0xbd8202a3	-0.06348159
62	0x3de063c3	0.10956528
63	0xbe1acc29	-0.15116943
64	0x3e6cf59e	0.2314057
65	0x3c80e5bd	0.015734548
66	0xbe2d8504	-0.16945273
67	0xbd3fd74e	-0.04683619
68	0x3da48669	0.08033449
69	0x3e8d1b71	0.2756
70	0xbda46ad0	-0.08028185
71	0xbe0f7b1b	-0.14011805
72	0x3defee3e	0.11715363
73	0x3d1e21e4	0.03860654
74	0x3ccb469e	0.024813946
75	0xbe560144	-0.2089892
76	0xbe1ca7d1	-0.15298392
77	0x3e5ad7a5	0.21371324
78	0x3c6dc97a	0.014513368
79	0x3ebb2b6d	0.3655657
80	0xbe2e1284	-0.1699925
81	0x3df315c2	0.11869384
82	0xbe30afb5	-0.17254527
83	0xbd9dc7c5	-0.07704119
84	0x3d0ceda4	0.03440632
85	0xbc1f5d09	-0.009726771
86	0xbe918701	-0.28423312
87	0xbdaeb173	-0.085299395
88	0xbb4acdbe	-0.0030945386
89	0xbd822ce3	-0.06356218
90	0x3e6f4d06	0.23369226
91	0x3dda49af	0.10658585
92	0x3e851702	0.25994116
93	0x3e191add	0.14951654
94	0xbd8e60a6	-0.06952028
95	0x3e71e2b2	0.23621634
96	0xbe408fef	-0.18804906
97	0x3e5193b4	0.204665
98	0xbe5a7f17	-0.21337543
99	0x3e1f6362	0.15565255
100	0x3e2940e1	0.16528656
101	0x3e218457	0.1577314
102	0x3e81760b	0.25285372
103	0xbe3ca67d	-0.18422885
104	0x3e5df99a	0.21677247
105	0x3dfa6a20	0.12227273
106	0x3dfb181f	0.1226046
107	0xbda671c0	-0.08127165
108	0xbe16ff88	-0.14745915
109	0x3e23da3d	0.1600122
110	0x3d7cb33b	0.061694365
111	0xbe8b3a30	-0.2719283
112	0xbe5acbd6	-0.2136682
113	0xbd9b2527	-0.075754456
114	0xbe8893b6	-0.26675195
115	0xbcaf0486	-0.021364462
116	0xbe2db846	-0.16964826
117	0xbe51f5fc	-0.20503992
118	0xbdc91c09	-0.098198004
119	0xbd6beee2	-0.057600863
120	0x3e257aec	0.16160172
121	0x3e61180d	0.21981831
122	0xbe112026	-0.1417242
123	0x3d9cab8c	0.076499075
124	0xbe3d8c16	-0.1851047
125	0xbbf7650d	-0.007549888
126	0x3c73e6cc	0.014886569
127	0x3d2ba074	0.041901067
128	0xbd594d30	-0.053052127
129	0xbdd00281	-0.101567276
130	0xbcedea06	-0.029042255
131	0x3daedd79	0.08538336
132	0x3ed2e78c	0.4119228
133	0x3d35c03d	0.044372786
134	0xbe07c6ae	-0.13259384
135	0x3dc15ffb	0.09442135
136	0x3e5356a5	0.20638521
137	0x3d264caf	0.040600475
138	0xbddd02ca	-0.107915476
139	0x3dd41dfa	0.1035728
140	0x3bfe879a	0.00776763
141	0x3e295bee	0.16538975
142	0xbe430941	-0.19046499
143	0xbd2cf449	-0.042225156
144	0x3d931f0c	0.07183656
145	0x3b8ad3d0	0.004236676
146	0x3e16e404	0.14735419
147	0xbe234594	-0.1594451
148	0xbde90272	-0.113774195
149	0xbdad43ef	-0.08460223
150	0xbe843048	-0.25818086
151	0x3ed0ed0d	0.40805855
152	0x3c84c17a	0.016205538
153	0x3ed2808d	0.411137
154	0x3e85438c	0.26028097
155	0xbe343841	-0.17599584
156	0xbd14871f	-0.036261674
157	0x3e0a16da	0.1348528
158	0xbd52b2c5	-0.05144002
159	0xbda5237d	-0.080634095
160	0xbd2610c3	-0.04054333
161	0xbdc9938d	-0.09842596
162	0xbdd76a8c	-0.10518369
163	0xbe027328	-0.12739241
164	0x3e644146	0.22290525
165	0xbe76d1b0	-0.24103427
166	0xbe1c4b3d	-0.15263076
167	0x3d449ce2	0.048001178
168	0x3db621a6	0.08893137
169	0x3e6b90a4	0.23004395
170	0xbd2ec74a	-0.042670526
171	0xbd181ff9	-0.037139867
172	0x3dd65c8e	0.10466872
173	0x3e0ac115	0.13550217
174	0x3d73254b	0.059361737
175	0xbe620a46	-0.22074232
176	0xbdfad71a	-0.122480586
177	0x3e85d1ed	0.26136723
178	0x3db531f5	0.08847419
179	0x3e128e86	0.14312181
180	0xbe12b8b9	-0.14328279
181	0x3d8fc806	0.07020573
182	0x3c3a55f6	0.011373034
183	0xbdcbf029	-0.09957916
184	0x3dabcb1a	0.08388348
185	0xbe4b1465	-0.19831999
186	0xbe3ef3ea	-0.18647733
187	0x3d5a8448	0.05334881
188	0xbc874c06	-0.016515743
189	0x3d9c33d2	0.076270714
190	0xbda02bdc	-0.078208655
191	0x3e403efc	0.18774027
192	0x3dc08672	0.094006434
193	0x3e09fe81	0.13475992
194	0xbe590aee	-0.21195576
195	0x3cffb4bb	0.031214109
196	0x3dc3eb07	0.09566312
197	0xbc8a833e	-0.016908284
198	0xbe9e95a0	-0.3097353
199	0x3e32bfef	0.1745603
200	0x3d98bbdc	0.07457706
201	0xbe262a62	-0.16227105
202	0x3dbda801	0.0926056
203	0xbe857186	-0.26063174
204	0x3dfaf775	0.1225423
205	0xbd918998	-0.07106322
206	0x3d9ecfea	0.077545
207	0x3dfbfc5f	0.12303995
208	0xbd086ec5	-0.033308763
209	0xbca2b45e	-0.019861396
210	0x3d93254a	0.07184847
211	0x3d926d3c	0.07149741
212	0xbd64b790	-0.05583912
213	0x3d356a97	0.044291105
214	0xbe2d0a47	-0.16898452
215	0xbdbc38ff	-0.09190559
216	0xbc788112	-0.0151674915
217	0xbd1a91d0	-0.037736714
218	0xbe15a33e	-0.14613053
219	0x3cc993d2	0.024606619
220	0xbe1cf231	-0.15326764
221	0xbdc5c416	-0.09656541
222	0xbe58f9fc	-0.21189111
223	0x3d616076	0.055023633
224	0xbdc940b3	-0.098267935
225	0x3e04b86d	0.12960978
226	0x3e8ed0eb	0.27893767
227	0xbe20749b	-0.15669481
228	0xbdefa3aa	-0.11701138
229	0xbd6ab099	-0.057297323
230	0xbdb3c5be	-0.08777951
231	0x3e8f2a36	0.27961892
232	0x3df0bcf2	0.117547885
233	0x3ce658e6	0.028118562
234	0x3db8234f	0.089911096
235	0xbd235bec	-0.039882585
236	0x3dc6bf37	0.0970444
237	0x3e4dd96a	0.20102468
238	0x3e09341f	0.13398789
239	0xbe504c80	-0.20341682
240	0xbdc2e89b	-0.09517022
241	0x3cef6175	0.029221276
242	0xbbf8cd90	-0.0075928643
243	0x3d9b434e	0.07581197
244	0xbd0b5fab	-0.034026783
245	0xbdffaa90	-0.12483704
246	0x3d0cc367	0.034366038
247	0x3df0b87c	0.117539376
248	0xbc4b58fd	-0.012411353
249	0xbd026fcd	-0.031844903
250	0xbda7eba7	-0.08199244
251	0x3e59bddd	0.21263833
252	0x3e07e548	0.13271058
253	0x3db3a9ef	0.08772647
254	0x3de4799b	0.11156007
255	0x3dac3670	0.08408821

gru.bias_ih_l0 f4 [300]
0	0xbd6ae5f7	-0.057348218
1	0xbe4cd570	-0.20003295
2	0xbe35fd64	-0.17772442
3	0xbe3f5b03	-0.18687062
4	0x3d16948a	0.03676275
5	0xbdeeeab3	-0.11665859
6	0x3d5c44ac	0.053776428
7	0xbdf13e10	-0.117794156
8	0xbe098ceb	-0.13432662
9	0xbde47c89	-0.11156566
10	0x3dfecd1d	0.12441466
11	0x3db06c9c	0.086144656
12	0xbe329f97	-0.17443691
13	0xbb1a799c	-0.002357102
14	0xbceea12a	-0.029129583
15	0xbda204b0	-0.0791105
16	0x3d05fa56	0.032709442
17	0xbdbd82ea	-0.092534855
18	0xbd6f1571	-0.058370057
19	0x3dabd9e4	0.08391169
20	0xbbb8237a	-0.0056194635
21	0xbc6e99b3	-0.014563012
22	0x3d0a2c0c	0.033733413
23	0xbe035e5b	-0.12828963
24	0x3ca2220a	0.019791622
25	0xbe49bb5b	-0.19700377
26	0xbdd6aca7	-0.104821496
27	0x3ca95bc4	0.02067364
28	0xbe0a5133	-0.13507538
29	0xbdc14534	-0.094370276
30	0x3c7c6e64	0.015407179
31	0x3db2871e	0.08717178
32	0xbe865177	-0.26234028
33	0x3c969c89	0.018385189
34	0x3d5f47a5	0.054511685
35	0xbe608a53	-0.21927767
36	0xbdb255cb	-0.0870777
37	0x3d0d3f42	0.034484155
38	0xbe122f1e	-0.14275786
39	0x3ca34098	0.019928262
40	0x3cda2816	0.026630443
41	0xbd876139	-0.066103406
42	0x3ce4aa3c	0.027913205
43	0xbe1fc207	-0.1560136
44	0xbe44c73a	-0.19216624
45	0xbe6bd8ad	-0.23031874
46	0xbe33f581	-0.17574121
47	0xbd11843b	-0.035526495
48	0xbe2b50d9	-0.1673006
49	0xbd00ce1e	-0.03144657
50	0x3e007272	0.12543657
51	0x3c0ee8e1	0.008722515
52	0xbe3de9ce	-0.1854622
53	0x398e7f8f	0.0002717939
54	0xbd1805ae	-0.03711479
55	0xbe480d97	-0.19536434
56	0xbd917ac9	-0.071034975
57	0xbd148116	-0.03625592
58	0xbe1270d6	-0.14300856
59	0xbd9b2b9e	-0.07576679
60	0xbddae740	-0.10688639
61	0xbd222b71	-0.03959221
62	0xbc60387e	-0.013685344
63	0xbd3cd7d3	-0.046104264
64	0x3c69a4c2	0.014260473
65	0xbd433935	-0.04766198
66	0xbdff4c9e	-0.124657854
67	0xbe1c23ef	-0.15248083
68	0xbde1fcf9	-0.11034579
69	0xbe79767e	-0.24361607
70	0xbe3a99b5	-0.18222697
71	0xbe040e94	-0.12896186
72	0xb99c32ff	-0.00029792634
73	0xbbad7755	-0.0052937665
74	0x3d4491a8	0.04799047
75	0x3d82370f	0.06358158
76	0xbe56d95c	-0.20981354
77	0xbe41c001	-0.189209
78	0xbd93ae8c	-0.072110265
79	0x3de61089	0.112336226
80	0xbe7ae74f	-0.245023
81	0xbd367ac2	-0.044550665
82	0xbe173c47	-0.14769088
83	0xbdb23537	-0.08701556
84	0xbd0542f2	-0.032534547
85	0xbe34e183	-0.17664151
86	0x3da66d19	0.081262775
87	0xbe95f32c	-0.29287088
88	0xbddff0b6	-0.10934584
89	0xbcf7dbfe	-0.030256268
90	0xbe621b50	-0.22080731
91	0xbcfaaf2d	-0.030601108
92	0xbda823c2	-0.08209945
93	0xbe0af7c7	-0.13571082
94	0xbdf6c646	-0.120495364
95	0xbccc239a	-0.02491932
96	0xbde430d1	-0.111421235
97	0xbde5ef4e	-0.11227284
98	0x3da048ac	0.07826361
99	0xbd5335bd	-0.05156492
100	0x3ddb140b	0.10697182
101	0xbdcfb6de	-0.10142301
102	0xbce49a93	-0.027905738
103	0x3d88b8dc	0.06675884
104	0x3d003ead	0.031309772
105	0xbe4bed76	-0.19914803
106	0x3c2506c9	0.0100724185
107	0x3bc0ddd5	0.0058858194
108	0x3eb93a56	0.3617732
109	0x3e179e79	0.14806546
110	0xbe483174	-0.19550115
111	0xbe956bad	-0.29183713
112	0x3dbb9662	0.091595426
113	0x3e886506	0.26639575
114	0xbeb72731	-0.35772088
115	0xbe712835	-0.23550494
116	0x3e6a4c4a	0.22880664
117	0x3e724bf2	0.23661783
118	0x3e8b497a	0.27204496
119	0xbde2e236	-0.110783026
120	0x3eac940f	0.3370671
121	0x3eaa2efc	0.3323897
122	0x3d0e3d73	0.03472657
123	0x3e48c250	0.19605374
124	0xbbef08a3	-0.0072947307
125	0x3df14f71	0.1178273
126	0x3bdf99cc	0.006823754
127	0x3c452d72	0.012034761
128	0x3cfb99b7	0.030712945
129	0x3dec2129	0.11529762
130	0xbcab63f1	-0.02092168
131	0x3e137605	0.1440049
132	0x3e585ff2	0.2113035
133	0xbbe7bf90	-0.0070723966
134	0x3dc2d884	0.09513953
135	0x3ea38d5c	0.31943786
136	0xbc23107a	-0.009952659
137	0x3dadd75b	0.084883414
138	0xbc273d65	-0.010207509
139	0xbd64a36b	-0.05581991
140	0xbdd4b72b	-0.10386499
141	0x3cf32794	0.029681958
142	0x3ee09a7b	0.4386786
143	0x3da0b019	0.07846088
144	0xbe78fd49	-0.2431537
145	0x3db210e2	0.086946264
146	0x3d9cb21a	0.07651158
147	0x3bd0731a	0.0063613774
148	0x3e154e48	0.14580643
149	0xbef2160b	-0.47282442
150	0xbec24d12	-0.37949425
151	0x3e202fd9	0.15643252
152	0x3e98ca36	0.29841775
153	0x3dfec251	0.12439407
154	0x3d920bb8	0.071311414
155	0xbeab5ce2	-0.334693
156	0x3e7e5352	0.24836472
157	0xbe3496aa	-0.17635599
158	0x3d5f356d	0.05449431
159	0x3df57dd8	0.119868934
160	0x3e24bc11	0.16087367
161	0x3df58e67	0.11990052
162	0xbd93f1db	-0.07223865
163	0xbdcc1b2d	-0.09966121
164	0xbe36f6a5	-0.17867525
165	0x3cb28ca0	0.02179557
166	0x3dd22173	0.10260286
167	0x3e827f6f	0.2548785
168	0x3dab4cfc	0.08364293
169	0x3e00b2e0	0.12568235
170	0xbe1b8585	-0.15187652
171	0xbe3ec5e2	-0.18630174
172	0x3e37a864	0.1793533
173	0x3e798b9b	0.24369662
174	0x3ed8a950	0.42316675
175	0xbe6bbdd7	-0.23021637
176	0xba80d3e0	-0.0009828769
177	0x3e4a889a	0.19778672
178	0x3d9c1d74	0.07622805
179	0xbe1efe3b	-0.15526669
180	0x3daa518e	0.083163366
181	0x3e1c27ee	0.15249607
182	0xbec7b109	-0.39002255
183	0x3e01befe	0.12670514
184	0xbe361ed7	-0.17785202
185	0x3e7c849b	0.2465996
186	0xbbc3f2b7	-0.0059798616
187	0xbe702ed0	-0.23455358
188	0x3e8f06c6	0.27934855
189	0x3eab3e60	0.33446026
190	0x3df9ff0a	0.12206848
191	0x3d0a1d95	0.033719618
192	0xbe66e98b	-0.22550027
193	0x3e26226d	0.1622407
194	0x3b928d1d	0.0044723884
195	0xbeb873c1	-0.36025813
196	0xbe16b1b2	-0.14716223
197	0xbe5a0bb1	-0.21293522
198	0xbd85c795	-0.06532208
199	0xbe212c09	-0.15739454
200	0x3e0e6bb3	0.13908271
201	0xbe06f45b	-0.13179152
202	0xbe39a51b	-0.18129389
203	0x3e0a75ac	0.13521451
204	0xbde82ab0	-0.11336267
205	0xbd6878cf	-0.056755837
206	0x3ca85000	0.02054596
207	0x3c2281d8	0.0099186525
208	0x3e42ecb7	0.19035612
209	0x3d862e94	0.06551853
210	0xbd9f3a18	-0.077747524
211	0x3d44ce3f	0.048048254
212	0x3e4907f2	0.19631937
213	0x3d01e0f5	0.031708676
214	0x3e4243b5	0.1897114
215	0x3e59e4b4	0.2127865
216	0x3e3e4d89	0.18584265
217	0x3e8033e6	0.25039595
218	0x3e1cb352	0.1530278
219	0xbb5856ef	-0.00330108
220	0xbdcdbfb8	-0.10046333
221	0x3ddeb1c9	0.108737536
222	0x3ccb719d	0.024834448
223	0xbdc394bb	-0.095498525
224	0x3e426362	0.18983224
225	0xbd54bece	-0.051939778
226	0xbce878a1	-0.028377833
227	0xbe5a9cd7	-0.21348892
228	0x3e315bf8	0.1732024
229	0x3dc8c186	0.09802537
230	0x3df1fbf5	0.11815635
231	0xbd83671c	-0.06416151
232	0xbc8b84b4	-0.017031051
233	0xbd9f6635	-0.07783166
234	0x3d9b1abe	0.0757346
235	0xbd350e28	-0.044202954
236	0xbc6f8224	-0.01461843
237	0xbca9a976	-0.020710688
238	0xbd08c78b	-0.033393424
239	0x3cefb547	0.029261244
240	0xbe03358c	-0.12813395
241	0xbe1995e9	-0.14998592
242	0xbdde1686	-0.1084414
243	0x3cc46036	0.023971658
244	0xbe2ffcec	-0.17186326
245	0x3ca55783	0.02018333
246	0xbdd36aa7	-0.10323077
247	0xbde6773e	-0.112532124
248	0xbdba17cc	-0.0908657
249	0x3d970327	0.07373648
250	0x3e0c1eb8	0.13683593
251	0xbdc2eb4d	-0.09517536
252	0xbcc73826	-0.024318766
253	0xbdf41091	-0.11917222
254	0xbe43dfe6	-0.19128379
255	0x3dedc613	0.11610045

gru.bias_hh_l0 f4 [300]
0	0xbcc94f8b	-0.024574062
1	0xbe800033	-0.25000152
2	0xbdfb93c3	-0.12284043
3	0xbe33fd54	-0.17577106
4	0x3c8a60f4	0.016891934
5	0xbe0e4f53	-0.13897447
6	0xbdba4bf1	-0.09096516
7	0xbe0ef0c7	-0.13959037
8	0xbdbd459d	-0.09241793
9	0xbda56dcc	-0.08077583
10	0x3d6a9560	0.05727136
11	0x3e18b0e2	0.14911225
12	0xbe85ae73	-0.26109657
13	0xbd9c548a	-0.07633312
14	0x3dd69370	0.1047734
15	0xbd9ace41	-0.07558871
16	0x3b897ab9	0.004195538
17	0xbd871187	-0.0659514
18	0x3d2795fb	0.040914517
19	0x3ddffc5d	0.10936806
20	0xbde349c7	-0.11098056
21	0xbde956b9	-0.11393494
22	0xbc88e4a3	-0.016710585
23	0xbd89ce4b	-0.067288004
24	0xbc344d67	-0.011004782
25	0xbdf4beec	-0.11950478
26	0xbe4d8a81	-0.20072366
27	0x3cf48e15	0.029852906
28	0xbdea8f53	-0.11453118
29	0xbe198de5	-0.14995535
30	0xbd77b2e5	-0.06047334
31	0x3dc2cae3	0.09511354
32	0xbe7199a8	-0.23593771
33	0x3d8dbd61	0.06920887
34	0xbc50c1ce	-0.012741519
35	0xbdf351d2	-0.1188084
36	0xbd6be724	-0.05759348
37	0x3bd30f96	0.006441067
38	0xbe0d7743	-0.13815026
39	0xbdd2c64a	-0.10291727
40	0xbd3f8ca4	-0.046764985
41	0xbdb2df1e	-0.087339625
42	0x3d046b52	0.03232891
43	0xbe488e7c	-0.19585603
44	0xbd7d0ce6	-0.06177988
45	0xbe7f9436	-0.24958882
46	0xbde6cb5b	-0.11269256
47	0xbd3c32a9	-0.04594675
48	0xbdaefebc	-0.085446805
49	0x3d993abf	0.07481908
50	0x3d5a6879	0.05332229
51	0x3dcbd77c	0.0995321
52	0xbe2a917a	-0.16657057
53	0x3ca3e7aa	0.020007927
54	0xbdd5e425	-0.10443906
55	0xbde0e03a	-0.10980268
56	0x3c350b20	0.011050016
57	0xbd4fd78d	-0.050742675
58	0xbe5f077d	-0.217802
59	0xbd50f4f9	-0.051014874
60	0xbdf5609e	-0.11981319
61	0x3d6ea831	0.05826587
62	0xbcbdcd74	-0.023169257
63	0xbdc18b66	-0.09450416
64	0xbd81bf4f	-0.06335317
65	0xbe00530b	-0.12531678
66	0xbc7de46f	-0.015496357
67	0xbdaba85d	-0.08381722
68	0x3c0f9bab	0.0087651415
69	0xbdd28fa0	-0.102813005
70	0xbe5d02ea	-0.21583143
71	0xbe068f1f	-0.13140534
72	0xbd2910fb	-0.04127596
73	0xbd11fd0c	-0.035641715
74	0x3be10def	0.006868116
75	0x3d9e3c0e	0.07726298
76	0xbe44e7bd	-0.19229026
77	0xbe899af4	-0.26876032
78	0xbd1fe932	-0.03904075
79	0x3deb3fab	0.11486753
80	0xbe72b23d	-0.23700805
81	0xbcb03270	-0.021508425
82	0xbddc1b62	-0.1074741
83	0xbe31c2d9	-0.17359485
84	0xbd12ad3a	-0.035809733
85	0xbe840215	-0.25782838
86	0x3dfcc78d	0.12342749
87	0xbe21b541	-0.15791799
88	0xbcb3d47b	-0.021951905
89	0x3da4245a	0.08014746
90	0xbe34a358	-0.17640436
91	0xbd4ec39c	-0.050479516
92	0x3c675226	0.014118707
93	0xbd8f9285	-0.07010368
94	0xbb67ca14	-0.003536825
95	0xbd426ec7	-0.047468927
96	0xbd891114	-0.066927105
97	0xbe0506a9	-0.12990822
98	0xbcda5936	-0.026653867
99	0xbde700e7	-0.11279469
100	0x3e07da3a	0.1326684
101	0xbdefbaa6	-0.11705522
102	0xbd8b3622	-0.067974344
103	0x3d015103	0.0315714
104	0x3d9a0517	0.07520502
105	0xbdf77c8d	-0.12084303
106	0x3da5a609	0.08088309
107	0xbd8d0349	-0.06885392
108	0x3eae8505	0.3408586
109	0x3d81d804	0.0634003
110	0xbe3d5b7a	-0.18491927
111	0xbea37554	-0.31925452
112	0x3d88f928	0.06688148
113	0x3eb9692b	0.3621305
114	0xbeb2b218	-0.349015
115	0xbe7e9b6f	-0.2486398
116	0x3e1e698f	0.15469955
117	0x3ddb1004	0.10696414
118	0x3e35d75d	0.17757936
119	0xbd29fea7	-0.04150262
120	0x3e53582f	0.20639108
121	0x3e8d4ef1	0.2759929
122	0x3d48cfdf	0.049026366
123	0x3e14fd1c	0.14549679
124	0x3d179c4b	0.037014287
125	0x3e496034	0.19665605
126	0x3db138a9	0.08653385
127	0x3c62aa4e	0.013834549
128	0x3d8f55ba	0.06998773
129	0x3dab12fe	0.08353232
130	0x3d8dfcb9	0.06932969
131	0x3e188cef	0.14897512
132	0x3debfd84	0.11522964
133	0xbe12868b	-0.14309137
134	0x3ce3e8ab	0.027820906
135	0x3ee2f7f6	0.44329804
136	0xbd168b80	-0.03675413
137	0x3df4d8fa	0.119554475
138	0x3d01d11b	0.03169356
139	0xbdb8dff6	-0.09027092
140	0xbe0ee8c7	-0.13955985
141	0x3d418668	0.04724732
142	0x3ed320e7	0.4123604
143	0x3db0ebdc	0.086387366
144	0xbe87fdbe	-0.26560777
145	0x3d437b01	0.047724728
146	0x3e4e3ad5	0.2013963
147	0x3d8949fe	0.06703566
148	0x3e32a631	0.1744621
149	0xbef83955	-0.4848124
150	0xbf0129a7	-0.5045418
151	0x3e2e4de2	0.17021897
152	0x3e8331bc	0.25623882
153	0x3d999537	0.074991636
154	0x3dbb5323	0.091467164
155	0xbeca32b7	-0.39491817
156	0x3e8d0356	0.27541608
157	0xbe389139	-0.18024148
158	0x3da866ee	0.08222757
159	0x3de922be	0.1138358
160	0x3db44549	0.088022776
161	0xbbfd198c	-0.0077239927
162	0xbd3e111c	-0.046403036
163	0xbd9e6516	-0.07734124
164	0xbdf6178f	-0.12016212
165	0x3d3f3237	0.046678748
166	0x3e502199	0.20325316
167	0x3ea6bf06	0.32567614
168	0x3da9ea05	0.08296589
169	0x3e0f06f1	0.13967492
170	0xbe223d3d	-0.15843673
171	0xbe568966	-0.20950851
172	0x3dc820cd	0.09771881
173	0x3ead68c3	0.3386899
174	0x3ea66aea	0.32503444
175	0xbe521b24	-0.20518166
176	0xbc729aba	-0.0148073975
177	0x3dbbf826	0.0917819
178	0xbcddcc48	-0.027074948
179	0xbe3f495b	-0.18680327
180	0x3d205ec5	0.03915288
181	0xba450cb7	-0.0007516848
182	0xbec73bfe	-0.38912958
183	0x3e1f0fa0	0.15533304
184	0xbe78ea7b	-0.24308197
185	0x3e2c12fd	0.16804118
186	0xbd4ae9b5	-0.049539287
187	0xbe4d46d8	-0.20046556
188	0x3ead1d23	0.33811292
189	0x3eb3d661	0.35124496
190	0x3d740126	0.059571408
191	0x3d3218e9	0.043480787
192	0xbe414496	-0.1887382
193	0x3e5d90de	0.21637294
194	0xbcce66a7	-0.025195433
195	0xbeb6a998	-0.35676265
196	0xbd8f88eb	-0.07008537
197	0xbe6d9ed6	-0.23205122
198	0xbd3826fe	-0.04495906
199	0xbdbe7d69	-0.09301264
200	0x3d9af716	0.07566659
201	0xbdfadfb6	-0.12249701
202	0xbdf81059	-0.12112493
203	0x3dfb7cc8	0.122796595
204	0xbc656756	-0.014001688
205	0x3d0db98e	0.034600787
206	0xbd5a89a9	-0.05335394
207	0x3da712cb	0.08157881
208	0x3e06b66d	0.13155527
209	0x3daa6e39	0.083218046
210	0x3d456de8	0.048200518
211	0xbcace907	-0.02110721
212	0x3d804bc5	0.06264452
213	0x3dc03211	0.093845494
214	0xbd802a26	-0.06258039
215	0x3dab7995	0.08372799
216	0x3d4096d3	0.047018837
217	0x3e2098c0	0.1568327
218	0x3d857885	0.06517128
219	0x3b2c5db8	0.0026300978
220	0xbe09440a	-0.13404861
221	0x3d6172fa	0.05504129
222	0xbcd02f2a	-0.025413115
223	0x3d0a7763	0.033805262
224	0x3e1c9851	0.15292479
225	0xbd6e9a76	-0.058252774
226	0xbdef1efb	-0.11675831
227	0xbe076add	-0.13224359
228	0x3dc3ea1c	0.09566137
229	0x3d7c1f5d	0.061553348
230	0x3e01b2ac	0.12665814
231	0xbbe09cd0	-0.006854631
232	0x3b92ee02	0.004483939
233	0xbe1baa8d	-0.15201779
234	0xbd719692	-0.058981486
235	0xbe083efe	-0.1330528
236	0x3dfc5dcd	0.123225786
237	0xbe017bca	-0.12644878
238	0xbcef5add	-0.029218132
239	0x3df1d029	0.118072815
240	0xbcdbd3e2	-0.026834432
241	0xbd3a8fef	-0.045547422
242	0xbdd9d45a	-0.10636206
243	0xbd0a3cbf	-0.03374934
244	0xbe2bbdcf	-0.16771625
245	0x3e04d0d2	0.12970284
246	0xbe06aff1	-0.13153054
247	0xbdf40c50	-0.11916411
248	0xbe14ff46	-0.14550504
249	0xbc7ed647	-0.015554017
250	0x3e1f4996	0.15555415
251	0xbdddfe6d	-0.108395435
252	0xbd21aade	-0.039469592
253	0xbe1d7927	-0.15378247
254	0xbe540572	-0.20705202
255	0x3dcdc75b	0.1004779

dense_output.0.weight f4 [100, 100]
0	0x3db1fcc7	0.086907916
1	0x3d05efcd	0.032699395
2	0xbd8a65b6	-0.06757681
3	0x3da934b8	0.082620084
4	0x3d00e826	0.031471394
5	0x3cd34d95	0.02579383
6	0x3d9b5df6	0.07586281
7	0x3e00013e	0.12500474
8	0x3cb56bea	0.022146184
9	0xbd8ac7c7	-0.06776386
10	0xbcf05e4e	-0.029341843
11	0x3d24a55e	0.04019677
12	0x3af26a9d	0.0018494908
13	0x3d4049e4	0.046945468
14	0x3d44c6b3	0.048041057
15	0x3d4a5ebc	0.049406752
16	0x3d920bbd	0.07131145
17	0xbd9b3005	-0.075775184
18	0xbdb165e7	-0.086620145
19	0x3dcc2223	0.099674486
20	0x3e0c966d	0.13729258
21	0x3cab74fc	0.020929806
22	0xbd1a6286	-0.037691616
23	0xbd3380c4	-0.043823972
24	0x3c736a12	0.014856832
25	0x3d753b8f	0.059871253
26	0x3e0b051b	0.13576166
27	0x3d7a783b	0.061149817
28	0xbda195d3	-0.07889905
29	0xbdadc384	-0.08484557
30	0x3c804ce2	0.01566166
31	0x3e49244e	0.19642755
32	0x3b7b57f9	0.0038351996
33	0x3e39f1f2	0.18158701
34	0xbd8e1c96	-0.06939046
35	0xbcb7c105	-0.022430906
36	0x3dd89d57	0.10576885
37	0x3e44ad21	0.19206668
38	0x3bc12d61	0.005895302
39	0x3d8dd29b	0.069249354
40	0x3dc75b74	0.0973424
41	0x3d472baa	0.048625626
42	0xbdb0bf0a	-0.08630188
43	0x3d9e8136	0.07739489
44	0xbc812e49	-0.01576914
45	0x3ca74f07	0.020423425
46	0x3d95da60	0.07317042
47	0xbd6006a0	-0.054693818
48	0xbd43ca88	-0.04780057
49	0x3cd72a7b	0.026265373
50	0xbd2adca4	-0.041714326
51	0xbd8e628e	-0.069523916
52	0x3a9e2d66	0.0012067973
53	0xb88eba1d	-6.805754e-05
54	0x3c033143	0.00800735
55	0xbd5c2761	-0.053748492
56	0xbd1bba74	-0.038019612
57	0x3e11b8f9	0.14230718
58	0xbd3cd9e8	-0.04610625
59	0x3d9dc0c1	0.077027805
60	0xbcdef37e	-0.027215715
61	0xbd52886c	-0.051399633
62	0xbdf84332	-0.121221915
63	0xbdbb1efd	-0.0913677
64	0xbe808c7b	-0.25107178
65	0xbd557ae7	-0.052119162
66	0xbd2abca9	-0.041683827
67	0x3da11298	0.078648746
68	0xbc5d43f7	-0.013504974
69	0xbe2f34de	-0.17110011
70	0xbd387d0a	-0.04504112
71	0x3df47819	0.11936969
72	0xbc7dbfbe	-0.015487609
73	0x3c5ae0fd	0.013359305
74	0xbdb2e0d1	-0.087342866
75	0xbd5d67a1	-0.054053906
76	0xbbafe53d	-0.0053679035
77	0xbdad3c55	-0.08458773
78	0xbd84cca9	-0.06484348
79	0xbdb7a408	-0.08966833
80	0x3dc366a5	0.09541062
81	0x3cdb39f4	0.026761033
82	0x3bb363b0	0.00547453
83	0xbd23fcd6	-0.040036045
84	0x3ca5689c	0.020191483
85	0x3b507d3e	0.0031812931
86	0xbdec5adb	-0.11540767
87	0xbb8c3f6f	-0.004280023
88	0x3d83b62a	0.064312294
89	0x39dfc9fb	0.00042684362
90	0xbe22d3d1	-0.15901114
91	0x3c3a75df	0.011380642
92	0xbdf48b33	-0.11940613
93	0xbcd2d273	-0.025735116
94	0xbddca016	-0.107727215
95	0xbd982433	-0.074287795
96	0x3dea2edc	0.11434719
97	0xbe12d426	-0.1433874
98	0xbd0ecee0	-0.03486526
99	0x3dac8c19	0.08425159
100	0x3dd15c45	0.10222677
101	0xbe377f56	-0.17919669
102	0xbd898dfc	-0.067165345
103	0xbd6e8d9a	-0.05824051
104	0x3e25fa9e	0.16208884
105	0xbe0283ae	-0.12745544
106	0x3dfea7b2	0.12434329
107	0xbe0b4966	-0.13602218
108	0x3ebc8d30	0.36826468
109	0xbd55e475	-0.052219827
110	0xbe5cb55a	-0.21553555
111	0xbd393bd5	-0.045223076
112	0xbde1058f	-0.10987388
113	0x3e4214e6	0.18953285
114	0x3dbe9716	0.09306161
115	0x3e70a71f	0.23501252
116	0xbdecf386	-0.11569886
117	0xbe30b467	-0.17256318
118	0xbcf87146	-0.03032745
119	0xbe3c87b7	-0.18411146
120	0xbe3701e1	-0.1787181
121	0xbce3acb1	-0.027792307
122	0xbe47a905	-0.1949807
123	0x3d72fc7b	0.059322815
124	0x3d24b8f5	0.04021545
125	0x3de845d0	0.11341441
126	0x3d3a699a	0.045510866
127	0x3e1cef97	0.15325771
128	0x3d04e9b0	0.032449424
129	0x3ca8ce89	0.020606296
130	0xbe2d803d	-0.1694345
131	0x3e6ba454	0.23011905
132	0xbc48cc7b	-0.012255783
133	0x3d3ecde7	0.046583083
134	0xbe58e0a4	-0.21179444
135	0x3e2fc92c	0.17166585
136	0xbe6751d5	-0.2258981
137	0xbd37d729	-0.044882927
138	0xbce44050	-0.027862698
139	0xbe6555f3	-0.22396068
140	0xbda9330d	-0.0826169
141	0xbc5d5c6b	-0.013510804
142	0xbca0ee9c	-0.019645028
143	0x3bb2ff58	0.0054625683
144	0xbb9d6b73	-0.0048040687
145	0xbda06582	-0.07831861
146	0x3c947cf5	0.01812599
147	0xbd6c5c18	-0.057705015
148	0xbe7ec103	-0.24878316
149	0xbdd15d87	-0.10222917
150	0x3d6203f2	0.055179544
151	0xbd952efb	-0.072843514
152	0xbe3efc8b	-0.18651025
153	0xbdb87a05	-0.090076484
154	0x3c841336	0.016122442
155	0xbdc61db9	-0.09673638
156	0x3e435ed2	0.1907914
157	0xbd133997	-0.035943594
158	0x3d872956	0.06599681
159	0x3d156634	0.03647442
160	0x3c16bf37	0.009200863
161	0xbd74be99	-0.05975208
162	0xbe36d0ea	-0.17853132
163	0xbbb61c2e	-0.0055575585
164	0x3c5955c9	0.013265082
165	0x3d07256d	0.032994676
166	0xbe094976	-0.1340693
167	0x3dc55ea2	0.096371904
168	0x3e1c4234	0.1525963
169	0x3de22712	0.11042608
170	0xbd979cc0	-0.074029446
171	0x3df4b89c	0.11949274
172	0xbbd8a08b	-0.006610935
173	0x3d037092	0.032089777
174	0x3e1260ab	0.14294688
175	0xbd9c526d	-0.07632909
176	0xbe17a391	-0.1480849
177	0xbe26a000	-0.16271973
178	0xbd33fb7c	-0.043941006
179	0xbd14eeb2	-0.03636045
180	0x3d9a8cef	0.07546412
181	0x3e18cf56	0.14922842
182	0x3e13e954	0.14444476
183	0xbcc382ab	-0.023866018
184	0x3c8bbc56	0.017057579
185	0xbd3a458c	-0.04547648
186	0x3dff0a8a	0.12453182
187	0xbdbb0cf3	-0.09133329
188	0x3e68ec02	0.2274628
189	0x3ebf3840	0.37347603
190	0xbdc4e0ba	-0.09613176
191	0xbda82f56	-0.082121536
192	0xbe56ae63	-0.20964961
193	0xbcc59bd8	-0.024122164
194	0xbd83e3fe	-0.064399704
195	0x3dffe9c4	0.12495759
196	0x3cf03f9e	0.02932721
197	0xbd72a6d7	-0.059241142
198	0xbd740fbe	-0.059585325
199	0x3cb75d52	0.022383366
200	0x3d204ced	0.039135862
201	0x3e071a34	0.1319359
202	0x3d19c13d	0.037537802
203	0x3d8b6547	0.068064265
204	0x3d90cd36	0.07070391
205	0x3d4ef1a6	0.050523423
206	0x3dc3ba16	0.095569775
207	0xbe10d5d4	-0.14144069
208	0x3d9e3862	0.07725598
209	0x3e845e0a	0.25852996
210	0xbadb8f8e	-0.0016751157
211	0xbe1ffd5c	-0.15623993
212	0x3d9c4049	0.07629449
213	0xbd16f771	-0.036857072
214	0xbd58897a	-0.052865483
215	0xbdf0fa03	-0.11766436
216	0xbd46915c	-0.04847847
217	0x3dbd2d5e	0.09237169
218	0xbdf83255	-0.12118975
219	0x3da632ad	0.081151344
220	0x3ddf9bda	0.10918398
221	0x3dc3c5ed	0.09559236
222	0xbd63bff6	-0.05560299
223	0xbc878551	-0.016543062
224	0xbc551f68	-0.013007976
225	0x3e505c52	0.20347717
226	0x3cac3236	0.021020036
227	0xbda81b8c	-0.08208379
228	0xbde9b906	-0.114122435
229	0x3daf322a	0.0855449
230	0xbe3884c5	-0.18019398
231	0xbd910d9d	-0.07082675
232	0x3c06078e	0.008180512
233	0x3a679c65	0.0008835255
234	0xbcf610b4	-0.030037262
235	0xbe68cfc5	-0.22735508
236	0x3d5467b3	0.051856708
237	0x3c97e4de	0.01854175
238	0x3d590301	0.05298138
239	0x3cfe27d2	0.031024847
240	0x3e4b0a86	0.19828233
241	0x3de25aaf	0.11052453
242	0xbeaaadc0	-0.33335686
243	0x3e59f8c7	0.21286307
244	0xbd7f7287	-0.06236508
245	0xbd383f14	-0.04498203
246	0xbcbb3875	-0.02285407
247	0xbce38e6c	-0.027777873
248	0xbe0fcb54	-0.14042407
249	0x3e18e707	0.1493188
250	0xbc9d7136	-0.019219022
251	0xbce33a73	-0.027737832
252	0x3b9d859e	0.004807188
253	0x3e447019	0.19183387
254	0x3d5502b0	0.052004516
255	0xbe35fcd5	-0.17772229

dense_output.0.bias f4 [100]
0	0xbe6aa5c6	-0.229148
1	0xbdfa97a3	-0.12235954
2	0xbd6b6441	-0.057468656
3	0x3cb3db25	0.021955082
4	0xbd34f6ae	-0.044180565
5	0xbcf7d479	-0.030252682
6	0xbe21f764	-0.15817028
7	0xbe319a02	-0.17343906
8	0xbe2c568c	-0.1682989
9	0xbd8bbada	-0.068227485
10	0xbdb64ccf	-0.08901369
11	0xbcd6741c	-0.026178412
12	0x3dec206f	0.11529624
13	0xbdbafcf2	-0.09130277
14	0xbe0a62ff	-0.13514327
15	0x3e0261d3	0.1273263
16	0xbe107c18	-0.14109838
17	0xbc45518b	-0.012043367
18	0xbdbe2607	-0.09284597
19	0xbe28d074	-0.16485769
20	0xbe43cbd9	-0.1912073
21	0xbe0031b8	-0.12518966
22	0x3e299ff3	0.16564922
23	0xbd23b39c	-0.03996621
24	0xbdcc014b	-0.09961184
25	0xbe819c37	-0.25314495
26	0xbe5b4614	-0.21413451
27	0xbe4d2373	-0.20033054
28	0x3d1f3e32	0.038877673
29	0x3e40a315	0.18812211
30	0xbe2bb1e1	-0.16767074
31	0xbe212e04	-0.1574021
32	0x3dbd8d53	0.09255471
33	0xbdfd9b14	-0.123830944
34	0x3ccc70c1	0.024956109
35	0x3e446807	0.19180308
36	0xbe389383	-0.18025021
37	0xbdb71b71	-0.08940781
38	0xbdc9299c	-0.098223895
39	0xbd84e296	-0.0648853
40	0xbd257551	-0.040395085
41	0xbda4cd55	-0.080469765
42	0xbde422e8	-0.1113947
43	0xbda9b37d	-0.08286188
44	0x3d13d9be	0.036096327
45	0x3c9e5ee7	0.019332362
46	0xbdf04b29	-0.11733086
47	0xbe216589	-0.15761389
48	0xbdc5cac8	-0.09657818
49	0xbdc04083	-0.09387305
50	0x3cc34017	0.023834271
51	0xbdeb67da	-0.114944175
52	0xbe09e7dc	-0.13467354
53	0xbdc10d84	-0.09426406
54	0xbe6d7b80	-0.23191643
55	0xbe10f3c7	-0.14155494
56	0xbd2181eb	-0.03943054
57	0xbda885ea	-0.08228667
58	0xbdd29b94	-0.102835804
59	0xbe35e06c	-0.17761391
60	0xbde20197	-0.110354595
61	0xbe1198d3	-0.14218454
62	0xbe3d7fce	-0.18505785
63	0xbe8289d4	-0.2549578
64	0x3c48c9b6	0.012255123
65	0xbd8d8b6a	-0.06911357
66	0xbcb4a268	-0.022050098
67	0xbe3b5434	-0.1829384
68	0x3d3745e3	0.044744384
69	0x3de06ab1	0.1095785
70	0xbd7e0d62	-0.06202448
71	0xbe070c50	-0.1318829
72	0xbcf21092	-0.029548917
73	0xbd799345	-0.060931463
74	0xbdcdad9c	-0.10042879
75	0x3d0394fa	0.032124497
76	0xbddc37e0	-0.10752845
77	0x3cf47713	0.029841935
78	0xbe136d41	-0.14397146
79	0xbd004470	-0.031315267
80	0xbdc93a69	-0.09825594
81	0x3d9b9282	0.075963035
82	0xbd08f0a0	-0.033432603
83	0xbe1250a6	-0.14288577
84	0xbdb60c35	-0.08889047
85	0x3e21fa83	0.15818219
86	0xbbd41489	-0.0064721745
87	0xbd4947ba	-0.04914067
88	0x3c64d9ca	0.013967941
89	0xbe362036	-0.17785725
90	0x3c89d44c	0.016824864
91	0xbe0d5ca4	-0.13804871
92	0xbe0a85f6	-0.13527665
93	0x3e340b0f	0.17582344
94	0xbe47b4bf	-0.19502543
95	0x3e07b1d0	0.13251424
96	0xbd8b48bc	-0.06800982
97	0xbc30675f	-0.010766833
98	0xbdddac10	-0.10823834
99	0xbd87c723	-0.06629779

dense_output.3.weight f4 [1, 100]
0	0xb95432a4	-0.0002023676
1	0x3dfa2545	0.1221414
2	0x3c4f121e	0.012638597
3	0x3d4221e2	0.047395594
4	0xba31cfd9	-0.0006782986
5	0x3b3c7945	0.0028758806
6	0xba929ab1	-0.0011185018
7	0xbb73da05	-0.0037208807
8	0xbb2c5be5	-0.002629989
9	0xbc162e87	-0.009166366
10	0x3d3be392	0.045871325
11	0x3c9cbc23	0.01913268
12	0x3d431925	0.0476314
13	0xba875366	-0.0010324537
14	0xbc8aa48a	-0.016924161
15	0x3cdb8ef9	0.026801573
16	0xbb045191	-0.002019022
17	0x3cb595a5	0.022166083
18	0x3b1c1531	0.0023816342
19	0x3b75ec74	0.003752497
20	0xbd113170	-0.035447538
21	0xbc83f71d	-0.016109044
22	0x3ca439ee	0.020047154
23	0xbd4e620a	-0.050386466
24	0xbc62bc3b	-0.013838823
25	0x3c864fb6	0.016395431
26	0xbd8c3b01	-0.068471916
27	0xbe131674	-0.14364034
28	0x3d00ce3d	0.031446684
29	0x3d45e179	0.04831073
30	0xba26ce12	-0.00063631043
31	0xb9e8d6e8	-0.00044410606
32	0x3d83f473	0.06443109
33	0x3bb24e39	0.005441454
34	0xbd522fde	-0.05131518
35	0x3db9a205	0.09064106
36	0xbc9391e0	-0.018013895
37	0x3b6cf451	0.0036156366
38	0x3d0cbf7a	0.034362294
39	0xbd7b6b97	-0.061381903
40	0x3c2e0085	0.010620241
41	0x3c764fff	0.015033721
42	0xbb4d08b6	-0.003128571
43	0x3c642fc9	0.0139274085
44	0x3d21f0cb	0.03953628
45	0xbd086980	-0.033303738
46	0x3cc17d7d	0.023619408
47	0xbc375b73	-0.011191237
48	0x3c4c75ad	0.012479228
49	0x3caa663b	0.0208007
50	0xbccc1803	-0.024913793
51	0x3b37ab55	0.0028025706
52	0xbcc77f31	-0.024352642
53	0x3e0658c7	0.13119803
54	0xbc1830dc	-0.009288993
55	0xbbf5a568	-0.0074965246
56	0x3c3330d1	0.010936932
57	0xbcbb321d	-0.022851044
58	0x3d4f1e92	0.050566263
59	0x3c2f52a4	0.010700855
60	0x3cc2d98d	0.023785377
61	0x3b73f6a9	0.0037225878
62	0xbcafa7bb	-0.021442285
63	0xbd15e412	-0.036594458
64	0x3d2ccb13	0.042185854
65	0x3b7704c2	0.0037692045
66	0x3d940db1	0.07229174
67	0xbdbcd83a	-0.092209294
68	0x3c57f1cb	0.0131802065
69	0x3bd3b5e7	0.0064608934
70	0xbd289711	-0.041159693
71	0xbc9a790d	-0.01885655
72	0xbd63f696	-0.055655085
73	0x3afeeb03	0.0019448701
74	0x3b224b87	0.0024764256
75	0x3b9f710c	0.004865771
76	0xbc01b7cf	-0.007917359
77	0x3ca91239	0.020638572
78	0x3a1244e7	0.0005579725
79	0xbd5f4e57	-0.05451807
80	0x3ce1ef3a	0.027579892
81	0x3d82ad2e	0.06380688
82	0xbdc632d5	-0.09677664
83	0xbbc92a0b	-0.006139045
84	0x3c970945	0.018437037
85	0x3cdf12a9	0.027230578
86	0xbc9d9333	-0.01923523
87	0x3abf55ca	0.0014597711
88	0x3d09b0e1	0.03361595
89	0xbd09a4d0	-0.033604443
90	0x3d3e347d	0.046436775
91	0xbd851f68	-0.06500131
92	0x3af74016	0.0018863704
93	0x3cdafa70	0.026730746
94	0xbc76f58a	-0.0150731895
95	0x3d5b9e2f	0.053617653
96	0xba81101a	-0.0009846718
97	0xbd1a82e5	-0.037722487
98	0xbc336839	-0.010950142
99	0x3c2fd38e	0.010731591

exp_avg f4 [4, 1, 3, 3, 3]
0	0xbb0a1040	-0.0021066815
1	0xbb9d33ba	-0.004797426
2	0xbbb2de81	-0.0054586534
3	0xbb2c83e9	-0.0026323742
4	0xbbaaa59b	-0.00520773
5	0xbbc39d13	-0.0059696524
6	0xbb5a7419	-0.003333336
7	0xbbbabc6d	-0.0056987316
8	0xbbc04324	-0.005867379
9	0xbb09b024	-0.002100953
10	0xbb993afd	-0.0046762214
11	0xbbb4f72d	-0.0055226297
12	0xbb2f195d	-0.0026717999
13	0xbba3e48f	-0.0050016115
14	0xbbc3c423	-0.005974309
15	0xbb652c13	-0.0034968897
16	0xbbb2d292	-0.005457231
17	0xbbbdb329	-0.00578918
18	0xbb0e890a	-0.0021749162
19	0xbb8f3c97	-0.0043712365
20	0xbbafcec7	-0.005365226
21	0xbb372248	-0.0027944017
22	0xbb996803	-0.0046815886
23	0xbbbb8659	-0.0057228026
24	0xbb6c676a	-0.0036072382
25	0xbba71249	-0.0050986153
26	0xbbb40daf	-0.0054947953
27	0xb887b4de	-6.470991e-05
28	0xb9cfa06d	-0.00039601643
29	0xbb0e8ccd	-0.0021751404
30	0x3a01d212	0.00049522624
31	0x37f213cd	2.8857869e-05
32	0xba882030	-0.0010385569
33	0x3afb4225	0.0019169493
34	0x3a89d479	0.0010515592
35	0x39e1052f	0.00042919206
36	0xba50c026	-0.00079632027
37	0xba93ff65	-0.0011291323
38	0xbb2c5265	-0.0026294228
39	0xb90b7495	-0.00013299503
40	0xb9f9253d	-0.00047520726
41	0xbaaf7f2f	-0.0013389344
42	0x3ad20a7f	0.0016024857
43	0x3a0d5494	0.0005391326
44	0xb995296b	-0.00028450353
45	0xba9f6a6d	-0.0012162455
46	0xbb085692	-0.0020803553
47	0xbb327bd8	-0.002723446
48	0xb9964127	-0.00028658772
49	0xba859c5b	-0.0010193692
50	0xbacb9ffc	-0.001553535
51	0x3ad257a5	0.0016047849
52	0x3946e723	0.00018968857
53	0xba4e7e44	-0.00078770914
54	0x38f9b273	0.00011906484
55	0x3b025197	0.0019885057
56	0x39b7dacb	0.00035067493
57	0x3a613feb	0.00085925934
58	0x3b343e1f	0.0027502847
59	0x3a9f234c	0.0012141257
60	0x3afd9e96	0.001934963
61	0x3b3de28e	0.0028974148
62	0xb823f148	-3.908694e-05
63	0x3a81a7de	0.0009891947
64	0x3aa8540c	0.0012842431
65	0x38b44fa9	8.597907e-05
66	0x3aeb5c8b	0.0017956657
67	0x3b08fbac	0.0020901961
68	0x3a828039	0.0009956426
69	0x3b2ff627	0.00268496
70	0x3b04ff4e	0.0020293775
71	0xb9a1e60f	-0.0003087972
72	0x3b04a598	0.0020240303
73	0x3a829edf	0.000996556
74	0x397759a6	0.00023589152
75	0x3b3a72ee	0.002844985
76	0x3aedc392	0.001813995
77	0x3ab30e51	0.0013660883
78	0x3b54c30b	0.0032464887
79	0x3aaabe36	0.0013026658
80	0x38da55a9	0.000104110055
81	0x3ab3ad10	0.0013708193
82	0x3a89c01f	0.0010509527
83	0xb9fbacf4	-0.0004800331
84	0x3a822ee2	0.0009932185
85	0x3a6a5579	0.0008939128
86	0xba21768f	-0.0006159329
87	0x3ae59677	0.0017516155
88	0x3abe9a87	0.0014541902
89	0x38467cda	4.7323156e-05
90	0x3aa18386	0.0012322522
91	0x3a6930b6	0.0008895503
92	0xba1fa373	-0.00060897245
93	0x3a4479ff	0.00074949855
94	0x3a019d21	0.00049443735
95	0xba603678	-0.00085530384
96	0x3ac5de34	0.0015096129
97	0x3a826857	0.0009949309
98	0xb91a6f4e	-0.00014728049
99	0x3a921773	0.0011145904
100	0x3a0eb0a3	0.0005443191
101	0xba1a53e9	-0.00058871374
102	0x3a3344d0	0.0006838562
103	0x38dd9d58	0.00010567409
104	0xba58a288	-0.0008263965
105	0x3ab2b01c	0.0013632807
106	0x3a40c6b9	0.0007353831
107	0xb79e6454	-1.8881787e-05

exp_avg_sq f4 [4, 1, 3, 3, 3]
0	0x389e36b2	7.544215e-05
1	0x389b3b73	7.402049e-05
2	0x38aa46ce	8.11942e-05
3	0x388f066e	6.819969e-05
4	0x3888c608	6.5218715e-05
5	0x38a3d5e2	7.8122845e-05
6	0x388b6ce5	6.64832e-05
7	0x3882342a	6.2085994e-05
8	0x38a03917	7.640028e-05
9	0x389f6adb	7.601614e-05
10	0x38a2ab83	7.7567085e-05
11	0x38afa473	8.375281e-05
12	0x38918297	6.938463e-05
13	0x388d824d	6.747674e-05
14	0x38a7f488	8.008728e-05
15	0x388ec4bb	6.8077316e-05
16	0x388456be	6.3104075e-05
17	0x38a4312a	7.829287e-05
18	0x389eb67c	7.5680175e-05
19	0x38a3625c	7.7907665e-05
20	0x38ae722c	8.318233e-05
21	0x38923b41	6.9728594e-05
22	0x388dd036	6.762186e-05
23	0x38a69c4d	7.94461e-05
24	0x388fe194	6.8607886e-05
25	0x3883ec6a	6.290602e-05
26	0x38a43ebf	7.831817e-05
27	0x392cff94	0.00016498409
28	0x38a52fcd	7.876717e-05
29	0x38a7878e	7.9884296e-05
30	0x38e1fbc3	0.0001077573
31	0x3840f56b	4.600493e-05
32	0x3872c45e	5.7880177e-05
33	0x38c42261	9.352412e-05
34	0x38b2a442	8.518297e-05
35	0x390c900e	0.00013405105
36	0x392679f7	0.00015876429
37	0x388bd11b	6.6669854e-05
38	0x388fd704	6.858821e-05
39	0x38d2d009	0.0001005233
40	0x3810285a	3.4369856e-05
41	0x3835205f	4.318391e-05
42	0x38b343c5	8.548008e-05
43	0x389c69b6	7.45835e-05
44	0x38f32842	0.000115946415
45	0x39235986	0.00015578241
46	0x38820c61	6.201189e-05
47	0x3884e5b4	6.337036e-05
48	0x38cbde3a	9.721187e-05
49	0x37f39949	2.9039236e-05
50	0x3814345c	3.5334713e-05
51	0x38af9929	8.3731786e-05
52	0x38909c67	6.895587e-05
53	0x38d68f36	0.0001023099
54	0x3a1c6fbc	0.00059675775
55	0x3a438289	0.0007458111
56	0x3a0f258d	0.00054606126
57	0x3a24aaf5	0.0006281578
58	0x3a59ff4a	0.0008315934
59	0x3a2894b1	0.0006430848
60	0x3a0c686a	0.0005356135
61	0x3a3a461d	0.00071057846
62	0x3a17ab69	0.0005785735
63	0x3a15e7e1	0.00057184516
64	0x3a4c2868	0.00077880034
65	0x3a136bf1	0.00056236895
66	0x3a21aa6f	0.0006167059
67	0x3a647a3b	0.00087157235
68	0x3a2e2b07	0.0006643985
69	0x3a09e8f5	0.00052608486
70	0x3a3ff762	0.00073229347
71	0x3a1a3da3	0.00058838184
72	0x3a1189fb	0.0005551872
73	0x3a4b0407	0.00077444356
74	0x3a185e04	0.0005812349
75	0x3a1f7654	0.0006083001
76	0x3a63ed41	0.00086947164
77	0x3a324268	0.00068000564
78	0x3a0916d5	0.00052295375
79	0x3a3d2c3d	0.000721637
80	0x3a1da430	0.00060135406
81	0x389afb93	7.3901516e-05
82	0x384b5603	4.8479076e-05
83	0x37ff3464	3.0422765e-05
84	0x38d22128	0.00010019756
85	0x388f755d	6.840632e-05
86	0x382d541b	4.1324744e-05
87	0x39065846	0.0001281212
88	0x38ced53f	9.862566e-05
89	0x38848844	6.319632e-05
90	0x38a034a4	7.6391996e-05
91	0x384bada4	4.8560687e-05
92	0x37f49aae	2.9159095e-05
93	0x38d4b844	0.0001014327
94	0x388cdb57	6.7165754e-05
95	0x3824e3c3	3.9312767e-05
96	0x390783d6	0.00012923716
97	0x38cd6539	9.794016e-05
98	0x38806335	6.1219944e-05
99	0x38a4939b	7.847623e-05
100	0x384ef207	4.9339633e-05
101	0x37f25589	2.8888478e-05
102	0x38d63769	0.00010214636
103	0x388c69df	6.69544e-05
104	0x3822dd1a	3.8829727e-05
105	0x39068439	0.00012828493
106	0x38ca2f11	9.6408774e-05
107	0x387c4a08	6.015043e-05

exp_avg f4 [4]
0	0xbc47ba93	-0.012190479
1	0xbc6d0d92	-0.014468567
2	0xbcb847a1	-0.022495093
3	0x3b23a658	0.0024970975

exp_avg_sq f4 [4]
0	0x3a7ddcba	0.0009684075
1	0x3c1fead7	0.00976058
2	0x3d239169	0.039933596
3	0x39eff470	0.00045767752
