models/dsec/dsec_half1/dsec_half1_monocular_odd_model.pth (torch, 864253 bytes, 27 tensors)

conv3d.0.weight f4 [4, 1, 3, 3, 3]
0.049200837 -0.1600125 0.08995375 -0.03166395 -0.03450755 -0.119570434 0.025515622 -0.028624987
0.07114195 0.02087779 0.092587106 -0.15631683 -0.08131438 0.070607856 0.056633756 -0.036340736
0.085132696 -0.08377205 0.24064629 -0.11532574 0.10946948 0.14903416 0.17075847 -0.045722634
0.21408369 -0.10352142 0.092267856 0.05119662 0.003051474 0.14004795 0.13457537 -0.15319924
0.15580593 -0.15014489 0.0060848594 -0.031583037 -0.14572096 0.040134065 -0.09337688 0.14683011
-0.21795313 0.10412346 0.08734718 -0.045935765 0.12192665 0.16414516 -0.13436225 0.23442912
-0.032170963 -0.0026088902 0.06295909 0.05041233 0.030674474 -0.111388415 0.041425202 -0.098976545
0.042365994 0.047869712 -0.24386804 -0.104233205 0.091456436 0.28103614 0.38795036 -0.097454034
0.13965097 0.1299964 0.19599323 -0.5944371 -0.32719263 -0.13055803 -0.27827457 0.065354265
0.10514417 0.1344933 -0.048603904 0.014749764 -0.533914 -0.33058858 -0.035193827 -0.38309726
-0.08886641 0.096667886 0.0028378977 -0.08333064 -0.074217014 -0.028018348 0.16225323 -0.052770473
-0.043439772 -0.028830668 0.12388148 -0.22814219 0.2269752 0.20960483 -0.2756818 -0.11938368
0.008566394 0.11665568 0.17373782 -0.05333792 -0.18069161 0.24052502 0.17954598 -0.26043278
-0.07008403 0.17962053 -0.26490834 -0.030948251
00000000: d186 493d 51da 23be ac39 b83d 0fb2 01bd
00000010: ca57 0dbd 58e1 f4bd 2306 d13c f37e eabc
00000020: dfb2 913d e607 ab3c 4f9e bd3d 8511 20be
00000030: 2788 a6bd da9a 903d ccf8 673d 06da 14bd
00000040: 0d5a ae3d ae90 abbd fb6b 763e e72f ecbd
00000050: 8931 e03d 699c 183e 4fdb 2e3e a847 3bbd
00000060: c138 5b3e 0a03 d4bd eef6 bc3d 8cb3 513d
00000070: 3dfb 473b bb68 0f3e 20ce 093e 43e0 1cbe
00000080: 978b 1f3e 95bf 19be 8063 c73b 375d 01bd
00000090: e037 15be 9e63 243d 613c bfbd a25a 163e
000000a0: 1b2f 5fbe ae3e d53d 14e3 b23d 2427 3cbd
000000b0: aeb4 f93d ab15 283e 4296 09be 300e 703e
000000c0: b3c5 03bd eaf9 2abb b2f0 803d 297d 4e3d
000000d0: 0949 fb3c 9c1f e4bd 79ad 293d 37b4 cabd
000000e0: f787 2d3d 0813 443d 8bb8 79be 3878 d5bd
000000f0: 834d bb3d f8e3 8f3e 6ea1 c63e fb95 c7bd
00000100: aa00 0f3e c71d 053e 73b2 483e 082d 18bf
00000110: cb85 a7be 01b1 05be 017a 8ebe 75d8 853d
00000120: d455 d73d 9db8 093e e314 47bd ffa8 713c
00000130: 97ae 08bf e842 a9be 6727 10bd 5325 c4be
00000140: 98ff b5bd d0f9 c53d 06fc 393b 41a9 aabd
00000150: 17ff 97bd bc86 e5bc b625 263e da25 58bd
00000160: e7ed 31bd 4b2e ecbc 93b5 fd3d 1b9e 69be
00000170: 306c 683e a6a2 563e 2a26 8dbe 6e7f f4bd
00000180: 105a 0c3c 2ce9 ee3d 54e8 313e dd78 5abd
00000190: 3907 39be 314c 763e e7da 373e 7257 85be
000001a0: 3788 8fbd 72ee 373e 11a2 87be 3087 fdbc

conv3d.0.bias f4 [4]
-0.01070781 0.006928179 0.06425677 -0.016774159
00000000: cf6f 2fbc c705 e33b 0e99 833d f669 89bc

gru.weight_ih_l0 f4 [300, 100]
-0.022128692 0.02503585 0.08075729 -0.16644849 -0.06442097 0.012150491 -0.015062138 -0.09427783
-0.041279435 -0.14809878 0.031704664 0.08820746 -0.113452375 -0.21141276 -0.06886684 0.029010268
-0.08359727 -0.22727323 -0.24568826 -0.19216059 0.09038127 -0.10934913 -0.13431233 -0.264032
-0.3136532 -0.0008023308 -0.12895255 0.049312476 0.00998604 0.037098467 0.06622692 -0.068482876
0.06130634 0.065264456 0.041279223 0.06822452 -0.011047957 0.06827823 0.07115471 0.13896264
-0.044171307 -0.17012548 -0.16816895 0.07752075 0.08807305 -0.21425208 -0.102421835 -0.10995564
0.033914424 0.03679399 0.099938594 -0.28100467 -0.25217307 -0.14031771 -0.12935555 0.107365474
-0.015933892 -0.100009 -0.14577152 -0.03147318 0.16635276 -0.044064917 0.10994033 0.068066396
-0.02319041 0.196152 -0.009692215 0.04593641 -0.03362815 -0.18224147 0.2270236 -0.00087171805
-0.15014341 -0.06122564 -0.33910793 0.13146916 0.08945167 0.04512602 0.16319783 0.04832416
0.12129789 0.033529017 0.09441876 0.12123879 0.014202028 0.20544405 0.22607343 0.19767262
0.28650588 0.13359362 0.17856719 0.10283421 0.21276404 0.23972669 -0.022996 0.024494644
-0.1111858 -0.047535192 0.12922613 -0.08152871 -0.1830992 -0.19320114 -0.21894534 -0.29644856
-0.3184536 -0.22220446 -0.08951892 -0.24684437 -0.21264608 -0.20147869 -0.20341142 -0.12320505
-0.103026256 -0.06646468 -0.13941813 -0.07962246 -0.06378856 -0.11003241 -0.118856885 -0.008948861
-0.1271765 -0.11713002 -0.20486127 -0.17602327 -0.15420982 -0.19007954 -0.2390123 -0.20512392
-0.20580204 -0.15280928 -0.28497335 -0.2704289 -0.19487819 -0.16741252 -0.12746617 -0.19875924
-0.16386226 -0.24958944 -0.06445031 -0.26895604 -0.15540071 -0.1350019 -0.13284144 -0.043379962
-0.21580319 -0.17699504 -0.2617964 -0.09241533 -0.012636551 -0.15689126 0.10325321 0.112775125
0.27494478 0.13433976 0.14814055 -0.060636472 0.06797716 0.21894297 0.029423919 0.012351337
-0.11602307 -0.077734515 0.015436464 0.02503284 0.09418028 -0.035978094 0.13691077 0.25354555
0.24449769 0.20385973 0.19565454 0.37732917 0.3163785 0.2761669 0.161777 -0.0027491713
0.19134213 -0.031092903 -0.08130215 -0.048824713 -0.10086973 0.1055473 0.08149358 -0.032207746
-0.008269075 -0.13633516 -0.06731894 0.0692638 0.022380665 0.08625218 -0.12592274 -0.057852585
0.18134215 0.15767601 -0.02027406 -0.053606823 0.068796255 0.14506516 0.21682039 -0.0075353445
0.19500904 0.031455316 0.13698156 0.0745398 -0.089199886 0.22598617 0.12458631 0.043863356
0.0035510496 0.052604824 0.14285465 0.036498547 0.010320003 -0.09163917 -0.13057837 0.10660773
-0.0076990495 -0.11841819 -0.13581485 -0.07403886 0.13234182 -0.008913572 -0.04691945 -0.1959313
-0.09293668 0.1015605 0.24384955 0.0865693 -0.025641413 -0.10840778 0.119652174 0.21186547
0.13693939 0.016207954 -0.07233405 0.09423307 0.088603325 0.007030507 0.0942819 -0.08345867
0.0695581 0.011500889 0.052209754 -0.12386688 -0.038784575 -0.027735403 -0.15634313 -0.10041233
-0.0064674993 -0.055742964 -0.34106514 -0.1687492 -0.112299584 0.051027775 -0.18834284 -0.23321395
00000000: 3b47 b5bc fc17 cd3c 1464 a53d 7971 2abe
00000010: 24ef 83bd da12 473c 30c7 76bc bc14 c1bd
00000020: a014 29bd 35a7 17be c0dc 013d 1da6 b43d
00000030: b859 e8bd 967c 58be 0f0a 8dbd f1a6 ed3c
00000040: 0c35 abbd 50ba 68be b495 7bbe bfc5 44be
00000050: d119 b93d 70f2 dfbd 2c89 09be 342f 87be
00000060: 2797 a0be 8253 52ba 230c 04be e1fb 493d
00000070: 7d9c 233c 90f4 173d fba1 873d c040 8cbd
00000080: 5b1c 7b3d 5fa9 853d 6714 293d 4cb9 8b3d
00000090: 7e02 35bc 75d5 8b3d 90b9 913d 394c 0e3e
000000a0: f9ec 34bd 6035 2ebe 7b34 2cbe 33c3 9e3d
000000b0: a55f b43d e664 5bbe 8ac2 d1bd 6c30 e1bd
000000c0: dae9 0a3d 4bb5 163d 9bac cc3d d8df 8fbe
000000d0: d41c 81be 72af 0fbe c875 04be 6ee2 db3d
000000e0: cb87 82bc 85d1 ccbd 2145 15be 05ea 00bd
000000f0: 6158 2a3e 6a7d 34bd 6528 e13d 6566 8b3d
00000100: d1f9 bdbc 12dc 483e 19cc 1ebc d127 3c3d
00000110: acbd 09bd 829d 3abe e078 683e 0284 64ba
00000120: 32bf 19be bdc7 7abd 8e9f adbe da9f 063e
00000130: 7032 b73d 10d6 383d 551d 273e 8eef 453d
00000140: 076b f83d b955 093d 9f5e c13d 0b4c f83d
00000150: 9faf 683c ed5f 523e cb7f 673e b16a 4a3e
00000160: e6b0 923e c4cc 083e 51da 363e be9a d23d
00000170: d1de 593e ea7a 753e 1b62 bcbc fea8 c83c
00000180: 61b5 e3bd 43b4 42bd db53 043e 86f8 a6bd
00000190: 5b7e 3bbe 85d6 45be 3533 60be 1bc8 97be
000001a0: 5a0c a3be 9189 63be b255 b7bd c5c4 7cbe
000001b0: e5bf 59be 6e50 4ebe 154b 50be ee52 fcbd
000001c0: 6eff d2bd a21e 88bd a0c3 0ebe 1a11 a3bd
000001d0: 94a3 82bd ac58 e1bd 3d6b f3bd 3e9e 12bc
000001e0: 8e3a 02be dde1 efbd 27c7 51be 723f 34be
000001f0: 2ee9 1dbe 36a4 42be a4bf 74be 010c 52be
00000200: c5bd 52be 097a 1cbe 07e8 91be a875 8abe
00000210: 268e 47be 306e 2bbe 7e86 02be 8b87 4bbe
00000220: 82cb 27be 6094 7fbe 86fe 83bd 9bb4 89be
00000230: 5d21 1fbe f03d 0abe 9607 08be 30af 31bd
00000240: 83fb 5cbe 303e 35be 2e0a 86be 4044 bdbd
00000250: 8909 4fbc 1aa8 20be 6b76 d33d a5f6 e63d
00000260: 90c5 8c3e 5d90 093e 28b2 173e f35d 78bd
00000270: 9c37 8b3d 9632 603e 6e0a f13c 435d 4a3c
00000280: 819d edbd 4633 9fbd 39e9 7c3c ac11 cd3c
00000290: 97e1 c03d c45d 13bd 5632 0c3e b9d0 813e
000002a0: 9a5d 7a3e 9bc0 503e aa59 483e 4a31 c13e
000002b0: 5dfc a13e bf65 8d3e dfa8 253e 712b 34bb
000002c0: 31ef 433e 8bb6 febc be81 a6bd 6cfc 47bd
000002d0: ca94 cebd 2f29 d83d 1be6 a63d 45ec 03bd
000002e0: 047b 07bc 729b 0bbe 83de 89bd 2eda 8d3d
000002f0: a857 b73c fca4 b03d e4f1 00be d5f6 6cbd
00000300: c2b1 393e d275 213e c915 a6bc d492 5bbd
00000310: 0de5 8c3d f68b 143e 2a06 5e3e 0deb f6bb
00000320: 73b0 473e 4ad7 003d e544 0c3e 53a8 983d
00000330: 6eae b6bd eb68 673e 1b27 ff3d 10aa 333d
00000340: bab8 683b 2878 573d 7d48 123e 807f 153d
00000350: 3b15 293c 51ad bbbd 56b6 05be 2755 da3d
00000360: 4f48 fcbb 3c85 f2bd 0c13 0bbe b0a1 97bd
00000370: 9d84 073e 3b0a 12bc 9c2e 40bd 37a2 48be
00000380: 9655 bebd f4fe cf3d b2b3 793e 3f4b b13d
00000390: f10d d2bc e604 debd 330c f53d 43f3 583e
000003a0: d739 0c3e 8bc6 843c e023 94bd 45fd c03d
000003b0: a975 b53d 2b60 e63b de16 c13d 61ec aabd
000003c0: 7a74 8e3d 3a6e 3c3c e5d9 553d ebad fdbd
000003d0: 93dc 1ebd 5b35 e3bc 6a18 20be fba4 cdbd
000003e0: 51ed d3bb bc52 64bd 17a0 aebe 97cc 2cbe
000003f0: 53fd e5bd 8002 513d f2dc 40be a3cf 6ebe

gru.weight_hh_l0 f4 [300, 100]
-0.16805886 -0.07477726 0.05248666 -0.029875845 0.111917615 0.3110345 0.11034186 0.0395762
0.17426921 -0.038749505 -0.0883923 0.0114080915 -0.02921243 -0.22117777 0.09081419 0.1793593
0.2453871 -0.20107429 -0.12326644 -0.2714358 -0.025698196 -0.17161442 -0.07315777 0.06251903
-0.0053896294 0.008822283 0.07223379 -0.09802092 0.021908348 0.11879904 0.025287343 -0.10296287
0.2877753 0.016611468 -0.079577655 -0.3728546 0.14057985 -0.24530631 -0.07760865 -0.15910442
0.007163394 -0.32356682 0.09269659 -0.07205173 0.0016482308 -0.32485136 -0.21112426 0.28949445
-0.08054491 -0.3081911 -0.07761108 -0.16500936 0.11918458 -0.019688766 0.2653953 -0.18089935
-0.18106055 0.08337474 0.1290076 -0.09181209 0.07004785 -0.02360793 -0.113600954 -0.0381574
0.17364858 0.0005323309 -0.15665162 0.086651 -0.043988094 0.037817724 0.30129492 -0.28304666
-0.09554201 0.06700282 0.17781278 -0.08472163 -0.22527437 -0.03137687 -0.37166107 -0.14434871
0.023963967 -0.044174515 -0.09824182 -0.069428906 -0.15240864 -0.08091809 0.011586391 0.4076717
0.0014257126 -0.059836015 -0.121292524 0.04783828 -0.077657804 -0.1269013 0.22574042 -0.10499973
0.033415787 -0.22186089 0.3350829 -0.27639526 0.08573443 -0.11701875 0.021336844 -0.13228187
0.08216484 0.0165899 -0.031835802 -0.25925297 0.14502405 -0.121935345 0.05402123 0.25379986
0.16067739 0.063479215 0.026731731 -0.01259688 0.062367905 -0.023439564 0.05415811 -0.013183386
-0.040794596 0.06415131 -0.038347673 -0.003743837 0.01476841 -0.34023023 -0.16677466 0.057068568
0.07470079 -0.19284938 -0.18702061 -0.07722743 0.06423346 0.18586716 0.07379116 -0.025306001
0.01775945 0.07188408 0.15735647 -0.012030152 0.10643973 0.084833525 -0.061934184 0.108495384
0.0046196557 -0.13715939 0.050494958 -0.038674314 0.09659864 0.10900478 -0.036152408 0.063527934
-0.21566284 -0.069293655 0.051800486 0.14468853 -0.0036656056 -0.051472034 -0.089540824 0.039933994
-0.10721213 -0.106859624 0.08110622 0.1463542 -0.22082835 -0.16254435 0.2155575 -0.07051983
0.23859183 0.025381267 -0.027666263 0.014241548 0.06377778 -0.083369285 0.056798816 -0.015890101
0.15429498 0.044859856 -0.097812474 0.08247589 -0.060979266 0.10394297 0.083539605 -0.0123338895
0.033341497 0.15659025 0.08661575 0.07994419 -0.18538582 -0.12985115 0.13903402 -0.034091603
0.102392115 0.121743925 0.2210336 0.11524661 0.019141737 0.0755067 -0.1184072 -0.0720094
-0.044481453 0.113077946 -0.105913214 0.17665985 0.1583727 0.082365 0.031549558 -0.04319959
0.14287855 0.03131162 -0.16021666 -0.28948072 0.027687341 -0.28827235 -0.021146562 0.10078214
-0.08012486 -0.14031863 -0.068326265 -0.10956835 0.121598594 -0.042251546 0.0025492932 0.20981921
-0.003964459 0.023165269 -0.103055805 -0.14696394 -0.08273037 0.16400295 0.14507706 -0.09526333
0.21673915 0.010519757 -0.011143731 -0.019325806 0.057316292 -0.16836298 0.02108886 -0.10705867
-0.19671021 -0.19876496 0.081382714 -0.004181112 0.05638332 0.08287593 -0.0682118 0.11341098
-0.04011711 -0.20770922 -0.16908503 -0.23618393 0.07865392 0.063204534 -0.115516 -0.24048562
00000000: 9f17 2cbe d224 99bd 41fc 563d 30be f4bc
00000010: 1035 e53d ea3f 9f3e eafa e13d a71a 223d
00000020: a173 323e cdb7 1ebd 0607 b5bd 01e9 3a3c
00000030: e84e efbc 6d7c 62be cafc b93d f7a9 373e
00000040: c246 7b3e 6be6 4dbe 1e73 fcbd a2f9 8abe
00000050: 0685 d2bc b1bb 2fbe bed3 95bd fa09 803d
00000060: 7d9b b0bb 568b 103c 4fef 933d 31bf c8bd
00000070: 2379 b33c e94c f33d 6727 cf3c 32de d2bd
00000080: 4957 933e c614 883c 9cf9 a2bd cce6 bebe
00000090: 2af4 0f3e 9431 7bbe 49f1 9ebd 45ec 22be
000000a0: e7ba ea3b 8daa a5be b6d7 bd3d db8f 93bd
000000b0: 7309 d83a eb52 a6be f530 58be 9e38 943e
000000c0: bbf4 a4bd 39cb 9dbe 8ff2 9ebd 37f8 28be
000000d0: 0c17 f43d 564a a1bc e5e1 873e ae3d 39be
000000e0: f067 39be 60c0 aa3d 911a 043e fa07 bcbd
000000f0: 3f75 8f3d 6b65 c1bc 9ea7 e8bd ef4a 1cbd
00000100: efd0 313e 1f8c 0b3a 4869 20be 1476 b13d
00000110: dc2c 34bd c2e6 1a3d 5443 9a3e 7eeb 90be
00000120: 88ab c3bd c638 893d 8e14 363e 8982 adbd
00000130: 53ae 66be 0885 00bd 5c4a bebe 26d0 13be
00000140: 1550 c43c 56f0 34bd 0233 c9bd be30 8ebd
00000150: 0311 1cbe 62b8 a5bd d9d4 3d3c 58ba d03e
00000160: fade ba3a 9c16 75bd 3768 f8bd 13f2 433d
00000170: 0e0b 9fbd 6af2 01be 7f28 673e 190a d7bd
00000180: fede 083d 802f 63be fc8f ab3e ae83 8dbe
00000190: 8895 af3d 87a7 efbd 9bca ae3c e674 07be
000001a0: 0a46 a83d 8be7 873c 4266 02bd cebc 84be
000001b0: 2f81 143e 3db9 f9bd 5e45 5d3d 0ef2 813e
000001c0: 9d88 243e 6401 823d 81fc da3c 2563 4ebc
000001d0: 7d75 7f3d 5404 c0bc e5d4 5d3d 21ff 57bc
000001e0: 3c18 27bd c361 833d 7312 1dbd 295b 75bb
000001f0: 33f7 713c a832 aebe fac6 2abe bbc0 693d
00000200: bafc 983d 4f7a 45be 5582 3fbe 6a29 9ebd
00000210: d58c 833d f653 3e3e d21f 973d 884e cfbc
00000220: 447c 913c f637 933d 0e22 213e 1d1a 45bc
00000230: 13fd d93d 33bd ad3d b3ae 7dbd d432 de3d
00000240: 7b60 973b 8373 0cbe cdd3 4e3d f568 1ebd
00000250: 82d5 c53d e63d df3d 8c14 14bd ef1a 823d
00000260: b8d6 5cbe d5e9 8dbd bf2c 543d 3b29 143e
00000270: a83a 70bb 57d4 52bd 2e61 b7bd d491 233d
00000280: 0992 dbbd 38d9 dabd 051b a63d e0dd 153e
00000290: d420 62be 0772 26be 1bbb 5c3e b36c 90bd
000002a0: 6b51 743e 60ec cf3c 5ca4 e2bc 6255 693c
000002b0: ed9d 823d 84bd aabd e0a5 683d f52b 82bc
000002c0: 81ff 1d3e f8be 373d e851 c8bd 1fe9 a83d
000002d0: 65c5 79bd 0de0 d43d d016 ab3d 1514 4abc
000002e0: 1891 083d 3259 203e 9963 b13d c8b9 a33d
000002f0: c8d5 3dbe b3f7 04be ef5e 0e3e a3a3 0bbd
00000300: f5b2 d13d e154 f93d a256 623e 6a06 ec3d
00000310: 22cf 9c3c 42a3 9a3d 797f f2bd aa79 93bd
00000320: 2f32 36bd 6995 e73d 07e9 d8bd 52e6 343e
00000330: 742c 223e fbae a83d 1c3a 013d 0ef2 30bd
00000340: c14e 123e 9d40 003d d60f 24be d136 94be
00000350: 90d0 e23c 6f98 93be 8e3b adbc de66 ce3d
00000360: 8118 a4bd b0af 0fbe a4ee 8bbd 5f65 e0bd
00000370: af08 f93d f50f 2dbd 0b12 273b d9da 563e
00000380: 4be8 81bb 17c5 bd3c ec0e d3bd b77d 16be
00000390: 8a6e a9bd 64f0 273e 158f 143e 6c19 c3bd
000003a0: def0 5d3e 0f5b 2c3c 3294 36bc 2751 9ebc
000003b0: 7dc4 6a3d 5867 2cbe 8cc2 ac3c 9341 dbbd
000003c0: 676e 49be 0b89 4bbe fbab a63d b601 89bb
000003d0: 32f2 663d dbba a93d a1b2 8bbd 0444 e83d
000003e0: d751 24bd bab1 54be a024 2dbe 33da 71be
000003f0: 4e15 a13d 6171 813d a793 ecbd dd41 76be

gru.bias_ih_l0 f4 [300]
0.030285506 0.06570603 -0.039540913 -0.012384346 -0.19280598 -0.14242205 -0.0157505 0.06790875
0.020014048 -0.051513042 -0.006486243 0.11165755 -0.17886958 0.01622714 -0.055009298 -0.053153902
-0.13667764 -0.08372543 -0.12601866 -0.08531128 -0.137977 0.056361392 -0.061117396 0.018082863
-0.05712992 -0.030776685 0.038890034 0.032243453 -0.025085164 -0.05563108 0.08825689 0.02327219
0.050831296 -0.04062123 -0.0380808 0.07879469 -0.106730156 -0.04663211 -0.023164192 0.012411567
-0.19057849 -0.019771615 0.055208743 -0.12690632 -0.036533568 -0.028793314 -0.12826891 -0.15373422
-0.10735389 -0.057790317 0.019104118 -0.035669655 0.04093428 -0.120469905 -0.06271957 -0.150849
-0.05045298 -0.14070871 0.010462869 -0.06909353 0.012459082 -0.08664947 -0.12030326 -0.0790896
-0.054062538 -0.008100722 -0.20853026 -0.02332773 0.051272307 -0.062767215 0.14436376 -0.16344653
-0.04823048 0.00013140234 -0.053789027 -0.05342816 -0.041274562 0.13521756 0.015617714 -0.07660842
0.029885257 0.048808597 -0.10098086 -0.136956 0.052909233 -0.009195153 -0.02709852 -0.050537117
-0.03116052 -0.13176894 -0.036270298 -0.035243854 -0.045428526 -0.10386387 -0.022846693 0.06130755
-0.12073745 0.035050772 0.031027028 0.03529354 -0.08591453 0.045982547 0.07281172 0.26050335
-0.039991196 -0.0025061022 0.18651831 -0.046041813 -0.10689134 0.08558877 -0.10741271 0.031410195
0.024598522 0.13422035 0.28052315 0.16431451 -0.054752298 -0.02575362 -0.02152998 -0.16287129
-0.050131418 0.17062014 -0.10327133 0.14726266 0.1325783 0.22109981 0.04602964 0.1811218
0.19768901 0.097005494 0.31657916 0.2837047 -0.15887989 -0.05589598 0.2132846 0.34018958
-0.27059323 -0.16685893 0.10778456 0.15519874 -0.09223968 -0.17659418 0.089288235 -0.20090677
0.07710038 0.014843891 0.0487607 -0.24065807 0.035177995 -0.2525889 -0.05190121 0.15883006
-0.014844537 0.24276662 0.07994694 0.003639667 -0.031140164 0.082723245 -0.08999815 0.0372413
0.07624809 -0.1290773 -0.11286839 0.27351967 -0.42460376 0.19758019 -0.30305365 0.024311049
0.24522948 0.050702855 -0.34603292 -0.3146777 -0.023454066 0.36266902 0.0017692313 0.11985156
-0.36578202 0.24433096 -0.10181817 0.23222029 0.03640162 0.06506771 0.17592023 0.15659745
0.098987624 0.08190934 -0.019527609 -0.20272714 0.17488135 -0.08312904 -0.08848004 0.12600583
0.1603079 0.21769528 0.133919 -0.03469549 0.06832336 0.027389133 -0.41806996 0.0066450755
0.03310526 -0.070881896 0.030107329 -0.038090546 0.009874462 -0.0703802 -0.054931294 -0.016296234
-0.012091033 -0.04594572 0.08044958 0.088053256 0.0200098 0.11487972 -0.07135361 -0.10549795
-0.03177806 0.114514984 0.05322087 0.08403055 -0.038960576 0.076455705 0.06675659 -0.043198705
0.067645095 -0.105240665 0.13691063 0.10279738 -0.028166382 0.016894052 -0.065694384 0.040383015
-0.13341989 -0.04960507 -0.10940413 0.040558398 -0.025816608 0.12406134 0.13945355 0.099267915
0.009939545 0.11134391 -0.078337245 -0.015250217 -0.044221062 -0.0769694 0.029849999 -0.03950369
0.015434924 -0.021665698 0.1293633 0.07720612 -0.047921322 -0.0998544 0.03214048 0.015201308
00000000: 4f19 f83c e290 863d a7f5 21bd b6e7 4abc
00000010: ee6e 45be 16d7 11be 3107 81bc be13 8b3d
00000020: 80f4 a33c 57ff 52bd 8d8a d4bb b7ac e43d
00000030: 9629 37be c7ee 843c 6e51 61bd e8b7 59bd
00000040: 39f5 0bbe 3d78 abbd 090b 01be aeb7 aebd
00000050: d849 0dbe 34db 663d 3c56 7abd 8322 943c
00000060: 1001 6abd 631f fcbc 284b 1f3d b611 043d
00000070: 677f cdbc 6add 63bd 07c0 b43d 52a5 be3c
00000080: 7a34 503d 7262 26bd 9dfa 1bbd 1c5f a13d
00000090: 5795 dabd 5001 3fbd d5c2 bdbc e359 4b3c
000000a0: 0227 43be 15f8 a1bc 9022 623d bbf3 01be
000000b0: 39a4 15bd f5df ebbc ed58 03be 816c 1dbe
000000c0: 5bdc dbbd 8ab5 6cbd 3d80 9c3c 581a 12bd
000000d0: b4aa 273d edb8 f6bd 1e73 80bd 2978 1abe
000000e0: c9a7 4ebd f215 10be 746c 2b3c e980 8dbd
000000f0: 2d21 4c3c 4775 b1bd 8e61 f6bd baf9 a1bd
00000100: ae70 5dbd e4b8 04bc f588 55be cc19 bfbc
00000110: e902 523d 198c 80bd 18d4 133e 875e 27be
00000120: 538d 45bd 0cc9 0939 e251 5cbd 7cd7 5abd
00000130: 840f 29bd 7976 0a3e 71e1 7f3c e0e4 9cbd
00000140: edd1 f43c 86eb 473d 0ecf cebd 323e 0cbe
00000150: 5ab7 583d 44a7 16bc b7fd ddbc 0200 4fbd
00000160: 5944 ffbc 70ee 06be 2a90 14bd dc5b 10bd
00000170: 4313 3abd 95b6 d4bd fd28 bbbc a01d 7b3d
00000180: 3245 f7bd 6691 0f3d 652c fe3c f68f 103d
00000190: f5f3 afbd 3258 3c3d 501e 953d b260 853e
000001a0: cfcd 23bd 6b3d 24bb a8fe 3e3e 5796 3cbd
000001b0: d9e9 dabd 2a49 af3d 32fb dbbd faa7 003d
000001c0: d782 c93c 0f71 093e bba0 8f3e 1042 283e
000001d0: f243 60bd 41f9 d2bc a45f b0bc bbc7 26be
000001e0: 9a56 4dbd 0cb7 2e3e eb7f d3bd 06cc 163e
000001f0: 9bc2 073e fd67 623e 9389 3c3d fe77 393e
00000200: fd6e 4a3e d1aa c63d aa16 a23e be41 913e
00000210: 69b1 22be 2ff3 64bd 4767 5a3e 542d ae3e
00000220: 328b 8abe 11dd 2abe 27be dc3d 6bec 1e3e
00000230: 28e8 bcbd 1bd5 34be c0dc b63d 81ba 4dbe
00000240: cee6 9d3d cb33 733c 4db9 473d 126f 76be
00000250: cd16 103d 5553 81be 5d96 54bd 59a4 223e
00000260: 8036 73bc d097 783e 39bb a33d 7b87 6e3b
00000270: a819 ffbc ce6a a93d f350 b8bd 558a 183d
00000280: f527 9c3d d72c 04be 8b27 e7bd c50a 8c3e
00000290: aa65 d9be 7652 4a3e d929 9bbe f727 c73c
000002a0: 701d 7b3e ccad 4f3d 3a2b b1be 6f1d a1be
000002b0: be22 c0bc c1af b93e 8de5 e73a bc74 f53d
000002c0: c847 bbbe e531 7a3e 0b86 d0bd 28cb 6d3e
000002d0: dd19 153d 3842 853d 6f24 343e 155b 203e
000002e0: 06ba ca3d 16c0 a73d 5df8 9fbc b497 4fbe
000002f0: 1914 333e 8f3f aabd 0635 b5bd ac07 013e
00000300: c127 243e 83eb 5e3e 1022 093e dc1c 0ebd
00000310: 1eed 8b3d 2d5f e03c 440d d6be efbe d93b
00000320: 6299 073d 872a 91bd a5a3 f63c d504 1cbd
00000330: 7fc8 213c 7f23 90bd a3ff 60bd ae7f 85bc
00000340: 7819 46bc 9431 3cbd c0c2 a43d 4455 b43d
00000350: 98eb a33c 0f46 eb3d d721 92bd 4f0f d8bd
00000360: b629 02bd d586 ea3d 21fe 593d 3618 ac3d
00000370: 2095 1fbd cf94 9c3d aeb7 883d 20f1 30bd
00000380: 8389 8a3d 6b88 d7bd 4d32 0c3e 6f87 d23d
00000390: 2fbd e6bc 6565 8a3c c78a 86bd a968 253d
000003a0: 399f 08be b02e 4bbd 460f e0bd 9020 263d
000003b0: 5a7d d3bc df13 fe3d e9cc 0e3e fa4c cb3d
000003c0: 79d9 223c 4708 e43d 476f a0bd 0cdc 79bc
000003d0: 2521 35bd 22a2 9dbd fc87 f43c 9fce 21bd
000003e0: c3e2 7c3c 437c b1bc d077 043e 3e1e 9e3d
000003f0: 2649 44bd 7780 ccbd bca5 033d e80e 793c

gru.bias_hh_l0 f4 [300]
0.0013605258 0.00544449 -0.09215342 -0.10441524 -0.091001146 -0.014326197 -0.047918066 0.032065492
0.01818132 -0.13691756 -0.044961054 -0.05170187 -0.17499025 0.027514275 -0.11316984 -0.05329434
-0.19731513 -0.07117855 -0.018723758 -0.03668063 -0.102722235 -0.020995034 -0.15241133 -0.07457056
-0.17739487 -0.036257904 0.07729608 0.0067491187 0.048701968 0.057538584 -0.024220582 0.012972493
0.04323971 0.035186306 -0.086333744 0.07152869 -0.016059654 -0.060209822 -0.05169722 -0.06306237
-0.12273769 -0.0026370639 -0.005969977 -0.11112589 -0.08658105 -0.084962465 -0.041247997 -0.10683431
0.016706415 -0.11771773 -0.06366735 0.057159256 -0.10944509 -0.03146677 -0.15931673 0.012496287
-0.03915453 -0.07838018 -0.07959229 -0.021903643 -0.13946949 -0.13163339 -0.018840834 0.017515995
0.03388612 -0.060863994 -0.09550043 -0.07769028 0.033146434 0.005035831 0.017505005 -0.09772783
0.024701219 0.027685555 -0.010569762 -0.08474364 -0.0030079002 0.16105811 0.049653754 0.035281934
0.038188994 -0.020892646 0.0055313213 -0.1606625 0.0021206313 -0.078434944 -0.012921077 -0.08265571
0.026078595 -0.13644311 -0.07550316 -0.08438956 -0.03664497 -0.13560796 0.15016614 0.042704746
-0.09281066 0.14193952 -0.03987162 -0.006374946 -0.17890164 0.12253503 0.068974964 0.15247369
-0.017646993 -0.07840035 0.20984666 -0.0876027 -0.08891268 0.11983479 -0.107192636 0.06463045
-0.049961045 0.0046752705 0.16493198 0.11399377 -0.059372216 -0.15570551 0.09482878 -0.22546805
0.046953373 0.033549536 -0.095430344 0.043284312 0.1839509 0.23908037 0.024282945 0.11898065
0.30632192 0.13188484 0.29447505 0.3422217 -0.2098764 -0.04592783 0.20069553 0.29275125
-0.32656327 -0.21354984 0.17138933 0.03916183 -0.07037803 -0.13828735 0.09885637 -0.14714101
0.14507212 -0.09778173 -0.007661473 -0.27560392 0.04973476 -0.17522192 -0.013617773 0.08491258
0.01861672 0.30754375 0.09700455 -0.042353377 -0.14181823 0.17438088 0.06973343 -0.0044748937
0.030571254 -0.09674257 -0.03929423 0.17988043 -0.3297352 0.1480787 -0.22787131 -0.03392587
0.29550278 0.11551682 -0.27929983 -0.21842326 0.05944261 0.2605745 -0.011852893 0.19104426
-0.19366263 0.11428694 -0.08048006 0.223902 0.07990919 -0.047707476 0.18447451 0.06930547
0.2127585 0.053610053 -0.0041431664 -0.09268613 -0.0037699915 -0.0073333057 -0.032146275 0.06814044
0.14329726 0.14132325 0.11089696 -0.05582773 0.060298078 0.08665828 -0.28135878 -0.0617035
0.0030774588 -0.043811634 -0.074039355 -0.02492854 0.11479053 -0.1020589 -0.124170385 0.07437671
-0.13394998 -0.1311948 0.16309065 0.11284035 -0.039067205 0.13396618 -0.12859778 -0.05491689
0.07614916 -0.07583847 -0.06166739 0.05154376 -0.035304002 0.13240942 0.047986653 -0.09192295
0.070347756 -0.13845558 0.11194505 -0.06401733 0.09406599 -0.02824642 -0.08816413 0.05729971
-0.15030877 0.04503295 -0.12136839 0.01781457 0.012698754 0.03938254 0.0999983 0.11541326
0.009367427 0.018672239 0.023936 0.10899024 -0.01604076 -0.013930953 0.10647657 0.048931662
0.04319754 0.07996187 -0.038846854 0.08280334 0.03278751 -0.034708213 -0.07756213 -0.009108242
00000000: ac53 b23a b167 b23b efba bcbd a8d7 d5bd
00000010: cf5e babd 6db8 6abc bc45 44bd 1b57 033d
00000020: fef0 943c 1e34 0cbe 1529 38bd 57c5 53bd
00000030: a530 33be 9e65 e13c 97c5 e7bd 2a4b 5abd
00000040: fa0c 4abe 0fc6 91bd 9162 99bc 6e3e 16bd
00000050: 0960 d2bd c7fd abbc b711 1cbe 73b8 98bd
00000060: 00a7 35be 2b83 14bd 684d 9e3d b627 dd3b
00000070: b77b 473d 94ad 6b3d 3e6a c6bc 948a 543c
00000080: 1f1c 313d 841f 103d bfcf b0bd a27d 923d
00000090: 898f 83bc 939e 76bd 77c0 53bd d826 81bd
000000a0: e65d fbbd 97d2 2cbb cc9f c3bb f895 e3bd
000000b0: 6851 b1bd cd00 aebd a9f3 28bd f2cb dabd
000000c0: e4db 883c fe15 f1bd 0764 82bd d31f 6a3d
000000d0: bf24 e0bd 4de3 00bd ed23 23be 3abd 4c3c
000000e0: 8060 20bd ca85 a0bd 4801 a3bd 456f b3bc
000000f0: 17d1 0ebe e7ca 06be 1858 9abc b47d 8f3c
00000100: 2ccc 0a3d 864c 79bd bb95 c3bd 151c 9fbd
00000110: 8ec4 073d 9d03 a53b a866 8f3c 8725 c8bd
00000120: 365a ca3c d1cc e23c cc2c 2dbc 138e adbd
00000130: 3120 45bb 6bec 243e bc61 4b3d ca83 103d
00000140: 106c 1c3d 0e27 abbc 1640 b53b b684 24be
00000150: 4afa 0a3b 80a2 a0bd edb2 53bc 6647 a9bd
00000160: c7a2 d53c beb7 0bbe 67a1 9abd 6fd4 acbd
00000170: 0919 16bd d0dc 0abe 27c5 193e 2ceb 2e3d
00000180: 8413 bebd 9858 113e 6c50 23bd ece4 d0bb
00000190: fe31 37be a5f3 fa3d bf42 8d3d 1022 1c3e
000001a0: 6d90 90bc 5d90 a0bd 0be2 563e 0b69 b3bd
000001b0: da17 b6bd f16b f53d d087 dbbd f85c 843d
000001c0: f4a3 4cbd 0333 993b eee3 283e 9175 e93d
000001d0: 4830 73bd 4471 1fbe 9735 c23d 19e1 66be
000001e0: 2e52 403d 3d6b 093d fc70 c3bd e44a 313d
000001f0: a05d 3c3e 7cd1 743e 07ed c63c 21ac f33d
00000200: 3ad6 9c3e d20c 073e 6fc5 963e af37 af3e
00000210: d7e9 56be d21e 3cbd 2183 4d3e 7ee3 953e
00000220: 4d33 a7be cfac 5abe af80 2f3e 2868 203d
00000230: 5b22 90bd 339b 0dbe 3575 ca3d 22ac 16be
00000240: c98d 143e ca41 c8bd 180d fbbb f51b 8dbe
00000250: adb6 4b3d 606d 33be 141d 5fbc a6e6 ad3d
00000260: 1782 983c 6076 9d3e 52aa c63d bc7a 2dbd
00000270: cc38 11be e790 323e 67d0 8e3d 21a2 92bb
00000280: 9170 fa3c f820 c6bd fdf2 20bd 9332 383e
00000290: 0dd3 a8be f1a1 173e 1957 69be daf5 0abd
000002a0: 244c 973e 1594 ec3d 6300 8fbe 59aa 5fbe
000002b0: 187a 733d 056a 853e a332 42bc 1ba1 433e
000002c0: 7f4f 46be 450f ea3d bbd2 a4bd 9146 653e
000002d0: 6ea7 a33d ea68 43bd e3e6 3c3e 07f0 8d3d
000002e0: 5ddd 593e 3796 5b3d 66c3 87bb 3ad2 bdbd
000002f0: f611 77bb 3a4c f0bb d0ab 03bd 378d 8b3d
00000300: 84bc 123e 0bb7 103e f21d e33d 9eab 64bd
00000310: 1efb 763d e579 b13d 420e 90be cfbc 7cbd
00000320: 31af 493b d473 33bd f2a1 97bd f036 ccbc
00000330: 4c17 eb3d 4204 d1bd 0b4d febd d152 983d
00000340: 2f2a 09be ee57 06be 3c01 273e d718 e73d
00000350: ef04 20bd 6e2e 093e 23af 03be 88f0 60bd
00000360: 17f4 9b3d 3351 9bbd f296 7cbd 8d1f 533d
00000370: ee9a 10bd 5696 073e a78d 443d 1a42 bcbd
00000380: 7c12 903d 4dc7 0dbe 7243 e53d 851b 83bd
00000390: aba5 c03d 0965 e7bc 658f b4bd 1ab3 6a3d
000003a0: 8bea 19be 7874 383d fe8f f8bd dcef 913c
000003b0: 6f0e 503c 964f 213d e9cb cc3d ca5d ec3d
000003c0: d679 193c 86f6 983c 6e15 c43c 4636 df3d
000003d0: e967 83bc a73e 64bc 6310 da3d 916c 483d
000003e0: e7ef 303d 0dc3 a33d e11d 1fbd cc94 a93d
000003f0: 324c 063d 332a 0ebd e5d8 9ebd bc3a 15bc

dense_output.0.weight f4 [100, 100]
-0.046683703 -0.09521104 0.076920085 0.027289473 -0.013907012 -0.07085805 -0.031746425 0.03960895
-0.07292752 0.045655012 -0.004236843 -0.016137071 0.041027706 0.07613725 -0.04514301 -0.079640396
-0.0140362205 0.045762368 0.10374056 -0.056078803 -0.061222333 -0.08352022 0.024266781 0.05587525
0.0929527 0.05489528 0.00940527 0.02664806 -0.03658638 -0.0800766 0.040442206 -0.073951356
0.043958515 0.042302012 -0.10658778 -0.05985415 -0.09474935 0.055424508 0.05971751 0.01367432
0.07058845 0.01661933 0.055232804 0.032581817 -0.008816197 0.032323625 0.038590558 0.03579386
0.030921202 -0.06736978 0.106038675 -0.08960001 -0.07483162 0.01688233 0.007876926 0.015163708
0.06671924 0.1127001 -0.06562135 -0.07362986 0.075909756 -0.019434476 -0.09618864 -0.028324582
-0.008783201 -0.047986787 -0.098650336 -0.060811646 -0.0011104735 0.041781392 0.014290371 -0.089526586
-0.11618958 0.0968717 0.055992126 0.030342305 -0.03773798 -0.0020515567 0.019004008 0.08528325
0.052147847 -0.011837035 -0.06383745 -0.05475945 0.06090337 0.0040897056 -0.10392694 0.08514636
0.06948393 -0.07053573 -0.08215766 0.12605977 0.0010885337 0.078764126 0.07341166 -0.039236985
-0.008956566 0.04098367 -0.06325327 -0.0816269 -0.0020367089 -0.047891695 -0.073181555 -0.030853076
0.0112424465 -0.0018122988 0.07689032 0.014391725 0.08618678 0.042151015 -0.003575734 0.16090095
-0.020525437 0.07404508 -0.02761223 -0.03681982 -0.03866948 -0.0659532 -0.07004406 0.008617239
0.051021017 -0.07273092 -0.0143312 0.050785027 0.07049045 -0.0362484 0.11119185 -0.00043160073
0.0428518 0.019536003 -0.00083924364 -0.0023434432 -0.0049929973 -0.10404981 -0.04485797 0.0832764
-0.105688944 -0.1708741 0.031471066 -0.04345019 0.019763853 0.0734707 0.08841364 -0.10190418
-0.07930437 -0.07218688 -0.14204516 -0.0036495628 -0.13643321 -0.075232476 -0.016177015 -0.06465848
0.06545662 -0.021623375 0.03809223 -0.020224074 -0.11029239 0.040427394 0.061130915 -0.00253739
0.02557508 -0.080657996 -0.08339029 0.0135788955 -0.0046123466 0.06827283 -0.1185031 -0.021579554
0.104601964 0.024394218 0.047271937 -0.06164222 -0.05569123 -0.10078183 0.044611488 0.035516948
-0.059689358 0.0048716264 -0.014024245 0.04552285 -0.009240073 -0.0855388 -0.025436861 -0.05857971
0.03566501 -0.03292109 0.1039265 0.052464854 0.054062877 -0.019290464 0.06723896 0.010794759
0.08871908 -0.043560553 0.03924596 -0.032744892 -0.028315937 -0.0166043 0.031681456 -0.08574912
-0.09199097 0.084501706 -0.01711182 -0.08929495 -0.07213015 -0.06993557 -0.090064146 0.07338807
0.021597682 0.053795762 -0.043981124 0.02435341 0.082820095 -0.03493062 -0.13219829 -0.0049923626
0.039088666 -0.06905937 -0.07484944 -0.06859904 0.08094346 -0.014824804 -0.09781574 -0.051519565
-0.013131437 -0.119138956 0.034667384 0.07046585 0.06625071 -0.03673948 -0.036925968 -0.12957387
0.012009216 0.053672023 0.061938364 -0.0443021 -0.07417846 0.02641368 0.03460744 -0.0044677793
-0.03495991 -0.08653435 -0.025422048 -0.0048937486 -0.055056132 -0.050628383 -0.03156498 -0.10494722
0.011105401 0.09802035 -0.10478032 0.03603815 -0.10407048 -0.051329188 -0.06378284 0.021960549
00000000: 6937 3fbd 01fe c2bd 4788 9d3d 2c8e df3c
00000010: 3cda 63bc 061e 91bd 8a08 02bd ff3c 223d
00000020: 065b 95bd c000 3b3d 37d5 8abb e431 84bc
00000030: ab0c 283d d9ed 9b3d e0e7 38bd 811a a3bd
00000040: 2df8 65bc 5271 3b3d ee75 d43d e3b2 65bd
00000050: 45c4 7abd a60c abbd 21cb c63c 72dd 643d
00000060: fc5d be3d e0d9 603d 9018 1a3c 084d da3c
00000070: 9adb 15bd 33ff a3bd baa6 253d cf73 97bd
00000080: d80d 343d e044 2d3d b24a dabd a029 75bd
00000090: f20b c2bd cf04 633d 599a 743d 410a 603c
000000a0: ad90 903d 4325 883c cb3b 623d 8374 053d
000000b0: cf71 10bc c765 043d 2211 1e3d 959c 123d
000000c0: 764e fd3c 2bf9 89bd ce2a d93d 3680 b7bd
000000d0: 5241 99bd d04c 8a3c 390e 013c 3371 783c
000000e0: 19a4 883d 4fcf e63d 7d64 86bd 41cb 96bd
000000f0: 9376 9b3d 0d35 9fbc 8dfe c4bd f408 e8bc
00000100: 6ae7 0fbc cb8d 44bd 3009 cabd a215 79bd
00000110: 4f8d 91ba f722 2b3d 2922 6a3c b759 b7bd
00000120: cdf4 edbd ab64 c63d 0058 653d 6d90 f83c
00000130: 2493 1abd 6973 06bb 4bae 9b3c fca8 ae3d
00000140: fb98 553d 20f0 41bc 36bd 82bd 724b 60bd
00000150: d075 793d f002 863b a6d7 d4bd 3761 ae3d
00000160: 974d 8e3d 0975 90bd 4642 a8bd d015 013e
00000170: 21ad 8e3a 164f a13d da58 963d f6b6 20bd
00000180: 90be 12bc 7ede 273d ee8a 81bd 012c a7bd
00000190: 4e7a 05bb 152a 44bd 36e0 95bd 97bf fcbc
000001a0: 3d32 383c a88a edba ac78 9d3d 45cb 6b3c
000001b0: b282 b03d 8ba6 2c3d dd56 6abb 38c3 243e
000001c0: f624 a8bc f2a4 973d 0b33 e2bc 61d0 16bd
000001d0: e363 1ebd 7912 87bd 4373 8fbd 522f 0d3c
000001e0: 6afb 503d f3f3 94bd 69cd 6abc f603 503d
000001f0: 4c5d 903d 3479 14bd 8db8 e33d 7848 e2b9
00000200: 5e85 2f3d f809 a03c b000 5cba 7494 19bb
00000210: 4c9c a3bb 1118 d5bd febc 37bd d18c aa3d
00000220: 7273 d8bd 9ff9 2ebe cee7 003d d4f8 31bd
00000230: cee7 a13c ce77 963d 3612 b53d 24b3 d0bd
00000240: 546a a2bd b7d6 93bd 4974 11be 812d 6fbb
00000250: 26b5 0bbe 7c13 9abd a985 84bc aa6b 84bd
00000260: 1f0e 863d 8123 b1bc 9906 1c3d f5ac a5bc
00000270: fae0 e1bd 3297 253d 6964 7a3d 574a 26bb
00000280: d582 d13c 0530 a5bd 87c8 aabd 047a 5e3c
00000290: 2b23 97bb a0d2 8b3d c1b1 f2bd 9bc7 b0bc
000002a0: 8e39 d63d 62d6 c73c 38a0 413d 8d7c 7cbd
000002b0: 7d1c 64bd b466 cebd 89ba 363d 387a 113d
000002c0: d47c 74bd 2aa2 9f3b f2c5 65bc 2b76 3a3d
000002d0: ad63 17bc f72e afbd f760 d0bc 47f1 6fbd
000002e0: 7915 123d 44d8 06bd 6bd7 d43d 63e5 563d
000002f0: 0971 5d3d 0907 9ebc 94b4 893d 80dc 303c
00000300: 59b2 b53d 8d6c 32bd 5fc0 203d 821f 06bd
00000310: d3f6 e7bc be05 88bc 6ac4 013d 3c9d afbd
00000320: c365 bcbd 3b0f ad3d 162e 8cbc 45e0 b6bd
00000330: f9b8 93bd 613a 8fbd 8d73 b8bd 7c4c 963d
00000340: 9fed b03c f258 5c3d 8d25 34bd cd80 c73c
00000350: 959d a93d 6913 0fbd fd5e 07be f996 a3bb
00000360: 701b 203d 006f 8dbd aa4a 99bd a77d 8cbd
00000370: afc5 a53d bce3 72bc 9e53 c8bd 2e06 53bd
00000380: 3d25 57bc 20ff f3bd 63ff 0d3d 6650 903d
00000390: 74ae 873d 237c 16bd af3f 17bd 03af 04be
000003a0: 4dc2 443c 32d7 5b3d 15b3 7d3d 1e76 35bd
000003b0: e0ea 97bd 8061 d83c 88c0 0d3d 7366 92bb
000003c0: 1f32 0fbd ec38 b1bd e641 d0bc bd5b a0bb
000003d0: 8a82 61bd b55f 4fbd 484a 01bd 91ee d6bd
000003e0: 6ef3 353c e5be c83d 1097 d6bd bd9c 133d
000003f0: e722 d5bd 8e3e 52bd 94a0 82bd 9ce6 b33c

dense_output.0.bias f4 [100]
0.078925356 -0.013404929 -0.0066586607 0.04095657 -0.061291542 0.00960065 -0.13840286 0.04059358
0.12022499 -0.026225595 -0.032077104 0.0021051564 0.047252905 -0.13335167 -0.010664294 -0.043583732
-0.11325782 -0.07039399 -0.13629946 0.12839107 -0.12007895 -0.062239505 0.10235376 -0.1130384
-0.0246746 -0.008206482 -0.08852342 -0.07939245 -0.004662182 -0.10771243 0.10493863 0.08612637
0.010118356 0.088641204 0.12790932 0.06626612 0.07854812 -0.031201456 0.08911328 0.023681482
-0.11971196 -0.06629242 -0.1176961 -0.15912078 -0.15931416 0.15946582 -0.10970778 0.15225554
-0.0065041715 -0.10179543 -0.019933186 -0.0808785 0.024759814 0.093000434 -0.08176457 -0.07779252
0.0044028466 0.05902402 -0.06154498 0.11635453 -0.03333147 0.027233018 -0.057142798 0.08194043
-0.10450106 0.052638378 -0.1457014 -0.11581181 -0.033129383 -0.07399544 -0.023477703 -0.06606626
0.08045109 -0.036734276 0.13072643 -0.06963111 0.026428578 -0.056452278 -0.14503558 -0.15689994
-0.030726379 -0.10950273 0.05421445 -0.009827503 -0.07183079 -0.05278969 -0.056356363 0.07403054
0.020104183 0.044986762 -0.041083023 -0.04790486 0.030162422 0.05709615 0.15704398 -0.13513362
-0.07750177 0.15696529 -0.039043725 -0.12433737
00000000: 9ea3 a13d 59a0 5bbc e530 dabb 14c2 273d
00000010: d70c 7bbd 0b4c 1d3c 7bb9 0dbe 7445 263d
00000020: 8538 f63d 0fd7 d6bc 4863 03bd aaf6 093b
00000030: 438c 413d 578d 08be 4ab9 2ebc db84 32bd
00000040: b7f3 e7bd b92a 90bd 1692 0bbe f378 033e
00000050: f4eb f5bd daee 7ebd d99e d13d ad80 e7bd
00000060: 6322 cabc 7b74 06bc c44b b5bd 8298 a2bd
00000070: 38c5 98bb 5698 dcbd 10ea d63d 0663 b03d
00000080: 76c7 253c 8589 b53d a9fa 023e 88b6 873d
00000090: d6dd a03d 329a ffbc 0681 b63d abff c13c
000000a0: 8b2b f5bd 52c4 87bd a70a f1bd 8ff0 22be
000000b0: 4023 23be 024b 233e 79ae e0bd e0e8 1b3e
000000c0: f220 d5bb 1f7a d0bd ec4a a3bc a1a3 a5bd
000000d0: 18d5 ca3c 0377 be3d 2f74 a7bd af51 9fbd
000000e0: c145 903b 2cc3 713d 9716 7cbd 494b ee3d
000000f0: 9486 08bd c717 df3c 910e 6abd 62d0 a73d
00000100: a704 d6bd 579b 573d bf32 15be be2e edbd
00000110: adb2 07bd ec8a 97bd 5054 c0bc bf4d 87bd
00000120: 8bc3 a43d ae76 16bd 26dd 053e c19a 8ebd
00000130: bf80 d83c 813a 67bd 3584 14be 61aa 20be
00000140: e3b5 fbbc f842 e0bd f90f 5e3d 8903 21bc
00000150: 051c 93bd 013a 58bd eed5 66bd 539d 973d
00000160: 87b1 a43c 0a44 383d ac46 28bd e337 44bd
00000170: 2f17 f73c a7dd 693d 23d0 203e 7860 0abe
00000180: 3fb9 9ebd 82bb 203e 50ec 1fbd 97a4 febd

dense_output.3.weight f4 [1, 100]
0.0125468895 0.075927824 0.01302063 -0.0012225662 -0.002500087 0.060328837 -0.13481258 -0.034664877
0.03795004 -0.061698467 0.007834 -0.0993342 0.0023435492 -0.031885162 -0.11775671 -0.0032769602
-0.0072867298 0.07849773 0.016659858 0.03517839 -0.013368991 -0.008869455 0.008517213 -0.02908145
0.023527224 -0.0014992008 0.0034618927 -0.0066616056 0.046942256 0.07665966 0.08605506 0.0079754535
-0.017335732 0.060296685 0.07592768 -0.03251672 0.06317839 0.0012653617 0.010980587 0.035495084
0.079502426 0.0012624444 0.0059419074 -0.08075592 -0.10679658 0.07081683 -0.030072795 0.023108821
0.074443966 0.0029065283 0.0121451905 -0.0043135346 0.04288326 0.00039610025 -0.0016365878 -0.060202383
0.01290186 -0.058901966 0.005537479 0.033595193 0.003130945 0.0146354325 0.11297611 0.06344435
0.011456326 0.02787171 -0.017834326 0.07869396 0.057464708 -0.009509767 0.028414011 -0.012749039
0.043489173 -0.010815814 0.07673403 0.0055649495 -0.023858724 -0.0057980334 -0.009884459 -0.027727447
0.043763757 0.005489822 0.044315096 0.063524 -0.044385567 -0.032661777 0.08759781 0.02297435
-0.0027619489 0.007877255 -0.013437546 0.0589112 0.084295265 0.021046625 0.07689074 -0.006596921
-0.0012630321 0.044885714 -0.023577206 0.013648055
00000000: 7891 4d3c 0c80 9b3d 7b54 553c 843e a0ba
00000010: 80d8 23bb 5f1b 773d 4f0c 0abe c2fc 0dbd
00000020: 8071 1b3d 88b7 7cbd 2d5a 003c bb6f cbbd
00000030: 3b96 193b 049a 02bd 6e2a f1bd 45c2 56bb
00000040: 85c5 eebb 6bc3 a03d 417a 883c 3717 103d
00000050: 9d09 5bbc 3151 11bc c88b 0b3c 393c eebc
00000060: 2abc c03c d580 c4ba ece0 623b 9949 dabb
00000070: 8646 403d bdff 9c3d a33d b03d 7aab 023c
00000080: aa03 8ebc a8f9 763d f97f 9b3d 4130 05bd
00000090: ac63 813d 7eda a53a ece7 333c 4b63 113d
000000a0: 2bd2 a23d 9b78 a53a 55b4 c23b 5c63 a5bd
000000b0: 2ab8 dabd 6a08 913d 395b f6bc b64e bd3c
000000c0: 1476 983d 747b 3e3b 9ffc 463c 8d58 8dbb
000000d0: 5ba6 2f3d adab cf39 c682 d6ba c696 76bd
000000e0: 5362 533c 3043 71bd be73 b53b 1d9b 093d
000000f0: 8a30 4d3b 74c9 6f3c 0560 e73d 1def 813d
00000100: 50b3 3b3c 3653 e43c 4b19 92bc 4d2a a13d
00000110: 1d60 6b3d dbce 1bbc 80c4 e83c 58e1 50bc
00000120: b421 323d d034 31bc bb26 9d3d 2e5a b63b
00000130: 5f73 c3bc 6efd bdbb 6df2 21bc ac24 e3bc
00000140: a041 333d f7e3 b33b bf83 353d df18 823d
00000150: a4cd 35bd 5bc8 05bd 7b66 b33d b434 bc3c
00000160: d001 35bb 9a0f 013c 2729 5cbc df4c 713d
00000170: ffa2 ac3d f969 ac3c e478 9d3d fc2a d8bb
00000180: 538c a5ba 15da 373d fc24 c1bc 179c 5f3c

exp_avg f4 [4, 1, 3, 3, 3]
-0.0036302356 -0.0051761074 -0.003017902 -0.0032920535 -0.0055824006 -0.0037863164 -0.00055663724 -0.0040278714
-0.002641657 -0.0035679676 -0.005179723 -0.0035049787 -0.0030783378 -0.005872226 -0.004499083 -0.00022155922
-0.0040596253 -0.0029258204 -0.0034869795 -0.0049373237 -0.0035641955 -0.002762353 -0.0056162216 -0.0046750302
0.0002215648 -0.0036765318 -0.0030094117 0.0017266967 -0.0018239693 -0.0022643642 0.0005157571 -0.0040473533
-0.0046774214 0.0029046794 -0.0020601258 -0.003737323 0.0014278147 -0.0018808272 -0.0018076211 0.00012910536
-0.0041083875 -0.0047663394 0.0022935737 -0.0019374866 -0.0036173407 0.0007424914 -0.0020586096 -0.0009187387
-0.0005415589 -0.004143638 -0.003991752 0.0013854525 -0.0018649943 -0.0027581218 0.00054261304 0.0006415939
0.001319752 -0.00035880093 -0.0002179756 0.00068888586 -0.00061454374 -0.00085874443 -0.0005028462 0.00043753313
0.0008343302 0.0011371339 -7.422546e-05 9.704613e-05 0.0006627922 -3.1037158e-05 -0.0002406536 -0.00017932641
0.00037061019 0.0009323344 0.0008647318 0.00014688609 0.00012821853 0.00039975744 0.0003909393 0.00019647351
0.0001561209 -0.006993133 -0.009477623 -0.011103436 -0.0020387182 -0.0074804937 -0.009454066 -0.0015553243
-0.006693999 -0.007961059 -0.00852762 -0.008592879 -0.012351493 -0.0032449495 -0.005437367 -0.009729656
-0.0019931418 -0.0053321794 -0.008923486 -0.00979884 -0.0078082667 -0.013588776 -0.00506311 -0.0045391438
-0.010210188 -0.0033223238 -0.0038061824 -0.009033313
00000000: 3fe9 6dbb 569c a9bb fec7 45bb 7ebf 57bb
00000010: 92ec b6bb d923 78bb 4beb 11ba 3cfc 83bb
00000020: a61f 2dbb 90d4 69bb aaba a9bb c9b3 65bb
00000030: f0bd 49bb cd6b c0bb 0b6d 93bb 5a52 68b9
00000040: 9b06 85bb 1fbf 3fbb cf85 64bb 46c9 a1bb
00000050: 4795 69bb 9808 35bb 4808 b8bb ff30 99bb
00000060: d953 6839 f8f1 70bb 8d39 45bb 5452 e23a
00000070: 4112 efba ba65 14bb e033 073a a99f 84bb
00000080: 0e45 99bb 6f5c 3e3b 2d03 07bb e0ed 74bb
00000090: 8325 bb3a 1786 f6ba b3ed ecba 7560 0739
000000a0: a79f 86bb f42e 9cbb c84f 163b 43f3 fdba
000000b0: e810 6dbb c1a3 423a bde9 06bb 83d7 70ba
000000c0: 67f7 0dba 5bc7 87bb 3ecd 82bb 1298 b53a
000000d0: d372 f4ba 9bc1 34bb 253e 0e3a a330 283a
000000e0: 87fb ac3a 721d bcb9 6190 64b9 5996 343a
000000f0: 5519 21ba 5d1d 61ba 70d1 03ba b464 e539
00000100: f4b6 5a3a e20b 953a 7ea9 9bb8 3f85 cb38
00000110: 3bbf 2d3a e52d 02b8 f557 7cb9 9109 3cb9
00000120: 754e c239 e767 743a 2baf 623a 6f05 1a39
00000130: 6672 0639 8996 d139 fcf6 cc39 7504 4e39
00000140: 63b4 2339 a726 e5bb 0848 1bbc 30eb 35bc
00000150: 049c 05bb ee1e f5bb 3ae5 1abc 06dc cbba
00000160: 5559 dbbb 1a6f 02bc 6eb7 0bbc 26c9 0cbc
00000170: eb5d 4abc 38a9 54bb f12b b2bb 2369 1fbc
00000180: 5f9f 02bb 90b9 aebb d033 12bc 508b 20bc
00000190: 7ddc ffbb 75a3 5ebc 72e8 a5bb 19bd 94bb
000001a0: a248 27bc 58bb 59bb 2571 79bb 7600 14bc

exp_avg_sq f4 [4, 1, 3, 3, 3]
0.00015995635 0.00012827241 0.0001186906 0.000104198814 0.00011266245 0.00012339253 0.0001150434 0.0001268276
0.00013132255 0.00014323677 0.00012417969 0.00012684336 9.506622e-05 0.00011478023 0.0001323327 0.00012163049
0.00013216282 0.00013728785 0.000125936 0.00011732228 0.00013394645 9.181419e-05 0.00011785583 0.00013930174
0.00012851179 0.00013398983 0.00013871005 0.00018174037 0.000120994424 0.000113858834 0.00012624892 9.4202755e-05
0.00011010459 0.00010007965 8.7919914e-05 0.00010902604 0.00017703576 0.00011002345 0.00011673818 0.000117332565
8.730659e-05 0.00011160205 0.00010548971 8.871513e-05 0.00010904638 0.00016717211 0.00010090994 0.00011729077
0.000107895874 8.6199856e-05 0.00011228281 0.00010976874 9.25986e-05 0.00010508603 0.00024156175 0.0001226883
0.000102606056 0.0001229679 2.0274822e-05 2.5466661e-05 7.3785704e-05 2.2748034e-05 6.078955e-05 0.00019923448
9.198168e-05 7.242639e-05 8.620809e-05 9.354116e-06 1.1841141e-05 5.2430965e-05 1.4135392e-05 3.916544e-05
0.00016181654 7.245293e-05 5.5312674e-05 6.367603e-05 6.256171e-06 7.442703e-06 4.309868e-05 1.1516204e-05
2.8732371e-05 0.0036569077 0.002713517 0.0032116107 0.0031367384 0.0019200185 0.0023394795 0.003027483
0.002249189 0.002608288 0.0035651464 0.002584387 0.0030680576 0.0030229753 0.0018017946 0.0021305038
0.0029671926 0.0022015134 0.0024509619 0.0035215279 0.0025924665 0.0029580775 0.0029888924 0.00183262
0.00203675 0.0030037973 0.002248634 0.0023902303
00000000: f5b9 2739 dd80 0639 88e9 f838 5085 da38
00000010: 3145 ec38 ee62 0139 7443 f138 06fd 0439
00000020: a1b3 0939 d431 1639 3b36 0239 4101 0539
00000030: 4a5e c738 2bb6 f038 cac2 0a39 df13 ff38
00000040: 3095 0a39 edf4 0f39 b00d 0439 eb0a f638
00000050: fa73 0c39 5e8c c038 5e29 f738 8711 1239
00000060: 1fc1 0639 9f7f 0c39 b272 1139 8f91 3e39
00000070: 63be fd38 7fc7 ee38 b061 0439 b88e c538
00000080: f4e7 e638 dae1 d138 a561 b838 e9a4 e438
00000090: ada2 3939 64bc e638 55d1 f438 7110 f638
000000a0: 5e18 b738 e50b ea38 5b3a dd38 930c ba38
000000b0: d4af e438 ec4a 2f39 9d9f d338 01fa f538
000000c0: 2846 e238 32c6 b438 6079 eb38 a533 e638
000000d0: 7f31 c238 a261 dc38 bd4b 7d39 e4a5 0039
000000e0: 352e d738 f2f0 0039 d913 aa37 3da1 d537
000000f0: 66bd 9a38 08d3 be37 48f8 7e38 99e9 5039
00000100: 4ae6 c038 9fe3 9738 9eca b438 9fef 1c37
00000110: 50a9 4637 52e9 5b38 0c27 6d37 9245 2438
00000120: 4cad 2939 dff1 9738 88ff 6738 cf89 8538
00000130: 1aec d136 55bc f936 dbc4 3438 b835 4137
00000140: 4c06 f137 bba8 6f3b 43d5 313b e379 523b
00000150: bd91 4d3b 21a9 fb3a f451 193b bc68 463b
00000160: 2167 133b d0ef 2a3b 3ba5 693b d25e 293b
00000170: 7711 493b 1c1d 463b 322a ec3a ec9f 0b3b
00000180: 3b75 423b 4447 103b 51a0 203b 6fc9 663b
00000190: 5fe6 293b 4edc 413b 4be1 433b 8634 f03a
000001a0: ff7a 053b 5bdb 443b d15d 133b 69a5 1c3b

exp_avg f4 [4]
-0.0031345736 -0.0039858334 0.008327716 -0.005685915
00000000: 6b6d 4dbb 989b 82bb f970 083c e950 babb

exp_avg_sq f4 [4]
0.0008715998 0.0010674578 0.008927288 0.043989025
00000000: 137c 643a f1e9 8b3a c343 123c d62d 343d
