models/dsec/dsec_half1/dsec_half1_multipixel_odd_model.pth (torch, 874086 bytes, 30 tensors)

conv3d.0.weight f4 [4, 1, 3, 3, 3]
00000000: 3cd5 d4bd f4e8 f33b 713d 9b3d 3ffa b2bc
00000010: 84e6 a7bd 1c7d a73d 44c3 d7bd ac69 f5bd
00000020: 3cb9 f03d cb66 d4bd a9eb 43be 975f c73d
00000030: 9031 98bd 39ba a8bd 0641 a13b 78dd e23d
00000040: c567 623e f6a5 85be 8215 5f3e 2460 d3be
00000050: ab5f 5e3e ad94 6d3e 3b0b 70be 4506 7f3e
00000060: 48bd d03e 94f6 86be ef6b 86bd f0d1 20be
00000070: e6b1 cd3d 8b53 75bd 03ec 5cbe df00 e9bd
00000080: c4b8 0bbe 35c4 82bd db96 953d e8e4 30bd
00000090: 578e 9f3e 9f93 873e 4355 4cbe 328b 033e
000000a0: 4a97 993e d171 78bd 28dd b43d 9fd4 ab3e
000000b0: 81ad a1bc d4b7 333e 6b7b d43d 2594 2bbe
000000c0: 3e68 debd de0e b4bd 2a0b fbbe 66de 773c
000000d0: 9fdd 71bd bc0e c23b 8c83 1a3d 5c18 0ebd
000000e0: 853c 60be b8ae 5f3c 7f4a 103c 9f0c 1cbe
000000f0: 5733 2a3d 43ed 0ebe a2c0 c8be 3701 ac3e
00000100: f4e3 05bd b292 133e 60c3 b23e 7d3e 34bd
00000110: 7bde 993e 9ad9 443d c5e9 a5be 83db dbbd
00000120: 1c71 aebd 795b b4bd 7899 7e3e e8ba d0bd
00000130: b510 6ebe 0573 c33e 98f8 46be 5df7 31bf
00000140: 5afa ddbd 5175 ebbd 82bd 6abe 6ab5 6fbe
00000150: 41f5 97bd 6006 92be f212 29be 4cbf 1e3b
00000160: e728 d4bd 03e1 30be 0599 f83d 49d1 9f3b
00000170: 6f80 15bd 5911 343d 88ed d63d a96e 433d
00000180: 6af4 33be 2fa4 533d 6007 763d 4e42 293e
00000190: bb2f 8f3e 0e74 8f3e b2a0 983e e151 3d3e
000001a0: 03d4 a23e dd27 993e 870e 5f3e b348 653e
-0.10392234 0.0074435417 0.075800784 -0.021847842 -0.08198264 0.081781596 -0.10535291 -0.11983046
0.11754081 -0.10371169 -0.19132866 0.09735029 -0.07431328 -0.08238644 0.0049210815 0.11077398
0.22109897 -0.2610318 0.21785548 -0.41284287 0.21716182 0.23201247 -0.23441784 0.24904735
0.4076941 -0.2636 -0.065635554 -0.15705085 0.10043697 -0.059894126 -0.21574406 -0.11377119
-0.13644701 -0.0638508 0.07304164 -0.043187052 0.31163284 0.26479813 -0.199544 0.12846068
0.29998237 -0.06065542 0.08831245 0.33560655 -0.019736053 0.17550594 0.103751026 -0.16755731
-0.10859726 -0.08791898 -0.49031955 0.0151287075 -0.059049245 0.0059221666 0.03772311 -0.0346912
-0.21898086 0.013652496 0.008806824 -0.1523919 0.041552868 -0.13957696 -0.39209467 0.33594677
-0.032688096 0.14411429 0.34914684 -0.044004906 0.30052552 0.048059084 -0.32404914 -0.10735228
-0.08517668 -0.088065095 0.24863231 -0.101918995 -0.2324856 0.3817369 -0.19430768 -0.6951807
-0.108387664 -0.11496986 -0.22923854 -0.23409048 -0.07419825 -0.2852049 -0.16511133 0.0024222909
-0.10359364 -0.17273335 0.12138561 0.0048772437 -0.036499437 0.043961857 0.10494524 0.047712956
-0.17573705 0.05167025 0.060065627 0.165292 0.27966103 0.2801823 0.298101 0.18488266
0.31802377 0.29913226 0.21782885 0.22391014

conv3d.0.bias f4 [4]
00000000: f837 77bc 76d9 4dbc 9eec 543d 1ce9 8eb9
-0.015089028 -0.012564054 0.05198347 -0.0002725803

gru.weight_ih_l0 f4 [300, 100]
00000000: 87ff abbe 3775 0bbe 63f8 01be 3388 3bbe
00000010: d617 c1be 9f10 d1be c53c 9bbe 0968 8dbe
00000020: 9cc3 85be a7a1 39be bbf8 c6be 709d 93be
00000030: 58fb 9abe cdd5 03bf c30d e9be cc0e febe
00000040: 537d c0be f2b3 dfbe 7167 e5be c3eb 4cbf
00000050: 2387 36bf 349c 19bf b45f a6be 6a3b 9fbe
00000060: 8d65 5dbf 6c07 023e 70d2 003e ede8 973e
00000070: 0e14 95bd 5703 cebe c95a 0b3d 64d9 b23d
00000080: d162 ba3e 8901 d13d 819c 75be ea7e 01bc
00000090: fbd6 f5bc 1b33 323e c9be 02be f17e c5be
000000a0: 6398 0bbe aa9e 0fbe d799 ef3d 0b8f 36be
000000b0: 73b2 79be 97bf 123c c6b8 653d d295 fb3d
000000c0: 7348 ddbd b570 b3be 8c5e cebe c952 debe
000000d0: 5466 b6be ba9c 513d 8a6b 73bd 73f1 52be
000000e0: 8362 92be 070d 89be f15c 3d3d 9edd 79be
000000f0: 33eb cdbd b68d df3c 9077 03be a098 b5bd
00000100: 9f72 03be 2152 333e 3600 3e3e cbe7 843e
00000110: 6cbd 733e 9505 533e 139f 73bc 72bd e1bc
00000120: 5fa3 3e3d 295e c83d 2028 abbc c186 a83d
00000130: e030 0d3d 11cc abbd 71f5 22be 4feb 8fbe
00000140: 59cf 433e e5b6 a03e 81bb 0f3e cf5e bb3d
00000150: f08d e1bd 708d 983e 4300 6a3e f20c 443e
00000160: 2226 823e 191c e63d c135 1a3e ffc4 333e
00000170: a46c 46bc 4983 1e3e c446 113e 573b 0f3e
00000180: 63b5 8c3d 65ea 1dbe 44f7 87bd ef33 fcbd
00000190: 350d 29be 938a d1bd 0244 a8be 8cd3 e1be
000001a0: 3d1e 85be ca56 9bbd 2c31 89bc 331d 14be
000001b0: df69 2bbf b34e d5be 04bc 88be 2212 bdbd
000001c0: 1556 81be 39b3 3abf 894f e0be 07e8 00bf
000001d0: c8f6 93be 4462 eebe 8828 27bf b224 e0be
000001e0: cb17 0dbf 872d f9be 58a9 06bf a5c8 15bf
000001f0: f57c 1dbf e5ea bebd ffc0 67be 5376 32be
00000200: 8b4e b9bc f18e fdbd d0b9 923d 18e7 b23d
00000210: 4132 953d 4656 aebc 30c4 943d 4f47 b23d
00000220: 6a9b e73d 2769 9b3c c0ee 46be db9f 513d
00000230: 1ad9 9d3e 9749 fd3d 37a5 b53d aed5 29be
00000240: cc81 96bd 08af 69bd 1acb 103d 7806 01be
00000250: 0f37 c8bd b4f6 d1bd db5a d4bc 1253 833c
00000260: 2b92 9f3d a682 86bc 02f8 47bd d4cb ab3b
00000270: 027b edba 5acc 9a3e 400c 103e 6dab 3ebc
00000280: 47e0 b33d 4a9c 37bd c305 253d 996c 6d3d
00000290: 7622 193d 7048 433d ffb9 c4bc b966 d1bd
000002a0: ed28 dabc 9f6d f73c a140 e13d d5af 1a3b
000002b0: 844c e03d 503d a4bd 7f10 5b3d 49a5 823e
000002c0: 9502 b33e d356 6f3e 7024 9a3e e138 433e
000002d0: 7296 803e c5b8 813e 13ea 3f3e 733a b73d
000002e0: 9eb7 513e 3fbe 713e 9cec 103e d4b6 593e
000002f0: 6f1d 383e 3374 823e dab1 933e d951 193e
00000300: 07d1 bf3d ef3d 453e f5fb 723e 48b6 a63e
00000310: c54a a53e 772a 253e 1105 b53d 3892 a73d
00000320: 991f b4bc a7b8 353e 0317 363f 1147 1c3f
00000330: 6c82 4c3f 334e cebc 05e7 6d3e 62d8 103f
00000340: 12a4 5c3e 1524 1d3f d3a6 9c3c 0e18 82bc
00000350: a0a9 343f d515 943e a3b0 0f3f 4d84 4a3e
00000360: b430 dc3d 0b18 453f d0c7 8f3e 5262 153f
00000370: 5efe 0f3e ea96 a9bc f9af eb3e 5138 993e
00000380: 8053 073f 2e09 263e be04 963e 9512 b33e
00000390: 6629 d93e 7392 383f 6c8d 743d 3803 b13e
000003a0: be78 c73e b1bc 153f c56b 343f f4c6 6b3e
000003b0: c1eb 803e 17ff 8b3e 2c92 2c3f de23 323f
000003c0: f8b3 ef3d 8f72 d93e b1dc 983e 6c42 0f3f
000003d0: 3c7d 253f a306 893e 1554 0c3f e3dc b13e
000003e0: 8b75 0f3f b9cc 473f f7cc ba3d 524b 033e
000003f0: 5cd8 4fbc 5c55 acbe 4754 bc3d d824 ad3e
-0.3359339 -0.13618933 -0.12692408 -0.18313675 -0.37713498 -0.40832993 -0.303198 -0.27618435
-0.261258 -0.18128072 -0.3886164 -0.28831053 -0.30269885 -0.5149811 -0.45518312 -0.49620664
-0.37595615 -0.43691975 -0.44805482 -0.80047244 -0.7129995 -0.6000397 -0.3249489 -0.31100017
-0.8648308 0.12698144 0.12580276 0.29669896 -0.07279216 -0.40236923 0.034022126 0.0873287
0.36403516 0.10205371 -0.23985483 -0.007903794 -0.030009737 0.17402308 -0.12768091 -0.3857341
-0.1363235 -0.1402537 0.116992645 -0.17828004 -0.24384479 0.008956811 0.056084417 0.12284435
-0.10804834 -0.35046926 -0.4030651 -0.43422535 -0.35624945 0.051174857 -0.05942873 -0.20599918
-0.28590783 -0.26767752 0.046231214 -0.24400946 -0.10054626 0.027289253 -0.12838578 -0.088670015
-0.12836693 0.17511798 0.18554768 0.25958094 0.23802727 0.20607598 -0.014869469 -0.027556155
0.04654252 0.097835846 -0.020893157 0.08228827 0.03447044 -0.08388532 -0.15913941 -0.28109214
0.19122066 0.31389537 0.14036371 0.09148943 -0.110134006 0.29795408 0.22851662 0.19145563
0.25419718 0.11235828 0.15059568 0.17555617 -0.012110863 0.15479769 0.14187151 0.1398748
0.06870534 -0.15421446 -0.06638959 -0.12314593 -0.16508944 -0.10231509 -0.32864386 -0.4410671
-0.25999632 -0.07584913 -0.01674708 -0.14464264 -0.6695842 -0.41661605 -0.26705945 -0.09231974
-0.25260988 -0.7292972 -0.4381068 -0.50354046 -0.28899217 -0.46559346 -0.6529622 -0.43777996
-0.5511443 -0.48667547 -0.5260215 -0.58509284 -0.61518794 -0.09322146 -0.22632216 -0.1742795
-0.02262046 -0.123807795 0.07164347 0.08735484 0.07284976 -0.021281373 0.07263982 0.08705007
0.1130894 0.018971039 -0.19427013 0.05117784 0.30829698 0.12367552 0.08869403 -0.16585419
-0.073489755 -0.05705169 0.035349943 -0.12600124 -0.097761266 -0.10252133 -0.02592223 0.016030822
0.07791551 -0.01641972 -0.048820503 0.005242804 -0.0018118324 0.30234033 0.14067173 -0.011637551
0.08783012 -0.044826783 0.040288698 0.057964895 0.03738638 0.047676504 -0.024014471 -0.10224671
-0.026630843 0.030203639 0.10998655 0.002360334 0.10952094 -0.08019507 0.05348253 0.25516728
0.34962907 0.23372965 0.30105925 0.19064666 0.2511478 0.2533628 0.18741636 0.08946695
0.204802 0.2360773 0.1415276 0.2126115 0.17979978 0.25479278 0.28846627 0.14972629
0.09366041 0.19261907 0.23728926 0.32560945 0.32283607 0.1612948 0.08838857 0.08182186
-0.021987723 0.1774622 0.71128863 0.6104594 0.7988651 -0.025183773 0.23232658 0.56580174
0.21546963 0.6138318 0.019122517 -0.01588061 0.7057133 0.28922907 0.561289 0.19777031
0.10751477 0.7698981 0.28082132 0.5835315 0.14061877 -0.020701844 0.46032694 0.29925779
0.52861786 0.1621444 0.29300493 0.34975114 0.42414397 0.72098464 0.059705183 0.34572768
0.38959306 0.58491045 0.70476943 0.23025113 0.25179866 0.27343056 0.6741054 0.6958598
0.11704248 0.42470214 0.29855874 0.55960727 0.6464422 0.26762876 0.548158 0.34738836
0.5603873 0.78046757 0.09121125 0.12821701 -0.012685861 -0.33658874 0.09195762 0.33817172

gru.weight_hh_l0 f4 [300, 100]
00000000: a92d 39be 3291 943d 57e7 79be ac70 71be
00000010: ffff 08be c6f1 38be 1f39 393e b784 7dbd
00000020: 6d16 9dbd 23ce 0bbd 4cd3 893c cb6b a23e
00000030: b4d2 683e ad17 2fbe e773 53be 1f62 a53e
00000040: 97b6 ec3c aaf1 88bc 5037 403d 9629 6a3e
00000050: 34b5 81be 00a5 853c ce60 8cbd 77ea 29be
00000060: 755b 8bbd 886b eabe 51fe ca3d 3c5b 803e
00000070: c33a f43d 2efb 093e bcbb c83d 042b 89bd
00000080: 79d9 503e 5f31 fe3d 283d 103e b668 4f3e
00000090: 220d c53e 7d78 2abe 9f4c 083e 9c12 a63d
000000a0: d30c 543e db22 22be 1e7a 10bc a552 a3be
000000b0: 27f8 4cbb b6fd bd3e 24b2 b73d bc87 cebe
000000c0: 79a9 563e 0181 ec3d 88aa 34bd cae6 84bd
000000d0: 705b 153d d290 c3be dac5 6ebe 1d7e 9a3b
000000e0: e93b 4ebc 40bb 2abe 5af7 2bbd 52a4 8abd
000000f0: fa40 e3be e332 2a3e 6cbf 503e fb35 3dbd
00000100: 67c7 02be 3a6d f33d 7aec f7bc 1aed 21be
00000110: ba45 55bc 629e 0b3e df46 d93d 8e1e 99be
00000120: b803 6fbe 707f e4be 1c0b 0cbe 7b42 c1bd
00000130: 1c1b 3b3d b175 023e 569f 16be 2860 b83d
00000140: fcef e23d b06a 9a3d 4d1c 89bd f1c8 88bd
00000150: af03 2dbe d799 c6bb 8948 d9bd 1a5d cfbe
00000160: f147 e9bd a3d9 d83d 0127 3dbe 2e17 9e3e
00000170: 563e 2d3e 5cb0 aebe 5ff7 0a3e 46be 1b3d
00000180: 8a6a 8e3e 2128 88bc 8ffc f0bc ccae 01bd
00000190: 7ba5 f7bd 8a7e 053e 7737 f5be 5961 39be
000001a0: 18bf 1ebe 6aa7 5ebe bf16 323e 3abc 3a3e
000001b0: 604b 283d fa54 aabd 8394 a13e 3079 fcbd
000001c0: 7c7d 473e 6ad5 0a3e 0dab 0dbe b803 0b3e
000001d0: 502d 053d a4de b43d 2111 e43c c251 383e
000001e0: 70f2 98bd 6422 11be 15d6 ca3e b4ab 9dbe
000001f0: 10bb 963e 12ed 51be b7e9 e43d 77b4 753e
00000200: 0584 803e d285 bd3e f930 a6bc 4d58 2ebd
00000210: 369a ce3e 8248 c93d 6843 ca3d ad04 263d
00000220: 5e1f bf3e 205f 903d 4265 683e 94a5 e939
00000230: f41e 863e 1fd4 84be ecf6 d03d 5f20 223e
00000240: 0d02 bcbb c9b9 0a3e 96b2 0e3b d502 dcbc
00000250: 2703 b53d d84c 5b3e 1cf9 76be fe82 a53e
00000260: bf2e cd3d becb 82be e195 1ebe 7a54 e5bd
00000270: 530d a8bd d767 54be 25ac c4bd 3b7d 4ebe
00000280: f26a cdbd 3975 ac3e 513f 35be 71ce d93c
00000290: fdb7 1f3e fd69 113e 099f 0bbe cb3b 8a3d
000002a0: 8163 5f3e eeac 3a3d 3cd0 8fbe 4880 53be
000002b0: 0ed1 60be e911 9abe 4116 ccbd d19f f0bd
000002c0: b500 cdbb f80a cfbd deb9 593a 4434 9c3e
000002d0: 3ae4 3f3e 16d8 d23e cd99 bebd f6f3 46bd
000002e0: fb7d 94bd d7dc 5a3e 18ef 563e 72aa 82be
000002f0: 6c37 a1bb f89e 183e 2be5 56bd 3fb4 b3bb
00000300: 8786 67be 48b3 4ebe 0cec 143e ed7e 3b3d
00000310: 59dd e63e 490d 243d 7d90 21be d559 1dbe
00000320: d08f 6dbb 903b 4bbe f9c5 9b3e 90eb ac3d
00000330: e0a9 ee3d dbec c33d 872d 033e 5962 89bd
00000340: 4f11 ecbe 723a f33d 57b0 96be ad66 a03e
00000350: 20cd 49be 32de 53be f223 ad3e 06bb ebbe
00000360: e665 12be d83d b73d b2c4 92bd bc0a aebd
00000370: 3705 ab3e 5964 82be 77e9 35be 200d 4bbe
00000380: 29ab 52be 65d5 113e 4b77 a2be bb13 b23e
00000390: 5944 27be e71d 653d b9e6 c43d f189 59be
000003a0: 9190 a7be 61e9 8e3e 2fb4 90be fa39 a2bd
000003b0: 7ecd 16be 12ac 87bd 88b6 a63e 593e fb3c
000003c0: 664f 18be d538 613e 3232 933d b0af 25bd
000003d0: 3311 513d f14a c0be d8d7 20bc 890c 0e3e
000003e0: bc3e 8abd 726a c03d 474a ad3e 5bbd a5be
000003f0: 6e53 2c3e 6727 08bc 2560 863d 5574 70bd
-0.18083824 0.07254256 -0.24404655 -0.23578137 -0.13378905 -0.18060979 0.18088196 -0.061894145
-0.07670293 -0.034132134 0.016824387 0.31722865 0.22736627 -0.17098875 -0.20649682 0.32301423
0.02889566 -0.016716797 0.04692775 0.22867426 -0.2533356 0.01631403 -0.068544015 -0.16593347
-0.068045534 -0.45785165 0.09911788 0.25069606 0.119252704 0.13474724 0.098014325 -0.06697658
0.20395459 0.124117605 0.1408583 0.20254788 0.38486582 -0.16647525 0.13310479 0.08109018
0.20708017 -0.15833609 -0.0088181775 -0.3189899 -0.003127584 0.3710763 0.089695245 -0.40337932
0.20963086 0.11548043 -0.044107944 -0.06489332 0.036464155 -0.38196427 -0.23317662 0.004714741
-0.012587526 -0.16672993 -0.04198394 -0.06769623 -0.4438551 0.16620974 0.20385522 -0.046194058
-0.12771378 0.11886068 -0.030264128 -0.15813103 -0.013017112 0.13634637 0.10609221 -0.29906124
-0.23341262 -0.44628477 -0.13676113 -0.09436508 0.04568015 0.12740208 -0.1470922 0.09002715
0.1108093 0.0753988 -0.06694851 -0.066789515 -0.16895936 -0.0060608196 -0.10609538 -0.40500718
-0.11390675 0.10588386 -0.1847191 0.3087706 0.1691831 -0.34118927 0.13570927 0.038023256
0.27815658 -0.016620697 -0.029417304 -0.03166084 -0.1209211 0.13036552 -0.4789388 -0.18103541
-0.15502584 -0.21743551 0.1739149 0.18235865 0.04108751 -0.08316989 0.31558618 -0.12327802
0.19481462 0.13557974 -0.13834782 0.13575637 0.032513916 0.08831528 0.027840199 0.17999938
-0.07468116 -0.14173275 0.39616457 -0.30795062 0.29439592 -0.20500591 0.1117739 0.23994623
0.25100723 0.3701616 -0.020287024 -0.04256468 0.4035203 0.09828283 0.09876138 0.040531803
0.3732862 0.07049394 0.22694877 0.00044564588 0.2619549 -0.25943086 0.102033466 0.15832661
-0.005737549 0.13547434 0.0021773926 -0.02685682 0.08838492 0.21416032 -0.24118465 0.32326502
0.10018682 -0.25546068 -0.15486862 -0.11197753 -0.082056664 -0.20742737 -0.096031465 -0.20164959
-0.10030164 0.33683184 -0.17699935 0.026587697 0.1559753 0.14200588 -0.13634886 0.06749686
0.21815301 0.045575075 -0.28088558 -0.20654404 -0.21954748 -0.3009179 -0.09965182 -0.117492326
-0.006256188 -0.10109514 0.00083055894 0.30508626 0.18739405 0.41180485 -0.09306679 -0.048572503
-0.07250591 0.21373306 0.20989645 -0.25520664 -0.004919937 0.14904392 -0.052464645 -0.0054841335
-0.22609912 -0.20185578 0.1454317 0.045775343 0.4509075 0.040051732 -0.15777774 -0.153663
-0.003624905 -0.1984694 0.3042448 0.084433675 0.11653495 0.09566661 0.12810336 -0.067082115
-0.46106955 0.11876382 -0.29431412 0.31328335 -0.19707155 -0.2069023 0.33816487 -0.46041125
-0.14296684 0.08947343 -0.07166423 -0.08498141 0.33402416 -0.25467184 -0.17764841 -0.19829226
-0.20573105 0.1424156 -0.31731638 0.34780678 -0.16334666 0.05593672 0.09614319 -0.21244027
-0.32727483 0.2791243 -0.2826247 -0.079212144 -0.14726827 -0.06624617 0.32561135 0.030669378
-0.14874038 0.21994336 0.07187308 -0.04045075 0.051041793 -0.37557176 -0.009817086 0.1387197
-0.06750247 0.09395303 0.33845732 -0.3237103 0.16828701 -0.0083101755 0.06561307 -0.058704693

gru.bias_ih_l0 f4 [300]
00000000: 9ace bbbd 883d e9bd fb40 68be b451 053c
00000010: 09ef ecbd f06d 343d 7562 c93d 7654 8bbd
00000020: 487e 2bbe c199 83bd f391 29be 4fed 1abd
00000030: 4706 fbbd f3c2 49bd 2301 a4bc 92bd a6bb
00000040: 820a b1bd 99b9 243e 5f80 bfbd 26bc 46be
00000050: 03cb c33d d283 bebd c6f7 f73c 72f8 333d
00000060: 578f 00be e28c 87bd 7441 0ebd d350 553d
00000070: f75e 09bd 70ac 92bc f3c0 aebc 8284 203e
00000080: 8765 3cbe ef6f 123d 42ae aabd 8b35 8dbc
00000090: 79d7 c03c 36d4 a7bd 9890 ffbd 196e 57be
000000a0: 6a68 0bbd 44ee adbd a530 6ebc 0953 72bd
000000b0: 02e2 54bd 86ff 10be 63f3 9abd db94 30bd
000000c0: 47aa 41be b20c f03c 59a7 3abd 9f6f 88be
000000d0: 9c2d a9bd 2d19 8bbd 8443 56be 496c b2bd
000000e0: 1731 85bd b49a 183e 9776 563d 807e fe3d
000000f0: 83e4 663e 04ce 923c ec88 af3d 9d5f e0bd
00000100: dcb9 853a 40a9 91b9 128a 58be 7806 77bd
00000110: 6eea d9bc db5c 86bc 18bb 43bd 8dbc f8bd
00000120: 210a a4bd c927 43bd 033e 0abd 6538 463d
00000130: 8c5c 96be 4e73 05be 6adf eebc c100 9b3d
00000140: 8b56 e2bb ac17 66be d9c1 28be e339 28bd
00000150: 81fe 63be af28 883d 7191 2ebc 55f2 563b
00000160: 1ebe 453e d417 23be 2861 f4bd 2e0a d5bd
00000170: 1b5d 8f3d 2d78 dbbd 4ac6 47be 3652 0bbd
00000180: 0bc3 98bd 6b03 03be 0cc5 933c 5ab2 9d3d
00000190: ce2b 113e 99e4 123e daee 14be 4217 123e
000001a0: f615 ee3d 71d5 a23c 103f 723c 42bc f13c
000001b0: d25d e13c 457b 263e b7e8 1e3d cdf5 4e3e
000001c0: 4402 2ebe fbf7 12be 3698 34bd 6f13 c8bd
000001d0: 5b33 37bc 28a2 9f3d d7c8 163e ced4 b73d
000001e0: 3830 babd 1537 f33d 4d36 813d 4951 a6bc
000001f0: 2b54 9d39 6f54 533e 8bb7 583c a9e8 363d
00000200: 5888 ee3c b950 a6bd 85c4 55bd 6db0 1e3d
00000210: fc14 10bd 785e 5f3e 184d 1f3c 85ae b73d
00000220: 8e18 97bd 4ee2 bcbd 15e5 26be dbd9 a63d
00000230: 6ad0 593c 3db4 4f3e f74d 113e 8053 2b3d
00000240: ac53 913d b645 a03e eaa1 e53c 22f3 5f3b
00000250: 29c1 4a3e 7ca8 613e 172d d43e e7f6 93bb
00000260: f652 1a3e c526 0abe d94b c93a 18c1 4c3e
00000270: d466 b23e f225 813d 0048 893e b531 de3d
00000280: 786a b3be f180 c8bd 8827 813d 2036 b33e
00000290: 305a e83c 1568 b63d e1ba 983d bf6e 883d
000002a0: 6119 93be bf74 b73c 5e22 703e 26e2 973e
000002b0: 2a1c b1be 1125 813d 0b0e 3a3e 2b7c 163c
000002c0: 6717 d8bd 5dd5 10be 5360 a3bd 97bb 34be
000002d0: 7966 ac3d 77d8 b93d 9975 c23e 6dc9 66bd
000002e0: c8c8 353d a3e9 d63c eeca 093d 33d0 a13e
000002f0: 07db 23be a932 aebd 6032 37be 05a1 af3d
00000300: 26da 9fbd 7195 1e3e c11f 273e cfc8 a13e
00000310: 5d5b 3abd 13d1 273e 7df9 b83e 3e77 543c
00000320: 53ff 17ba 2882 983d 3e7d b1bd 13f7 d5bd
00000330: aff3 20bc cf77 a3bc 3797 d2bd 505a 143d
00000340: c5c4 f53d 6de1 30bd fe88 3c3e 07f3 00be
00000350: ab4c 88ba 673b a03d 524c b5bd dec0 c13d
00000360: 0728 753d 6ebb 02bd 3a1d 873a adf2 e53d
00000370: de8c 87bd e89e 863d c76c eb3d e546 043e
00000380: 31be 8e3c cf2e 1b3e 56cd 043d d7af ffbd
00000390: 6775 b23c 9eea 31bd d67e 12be a258 e73c
000003a0: 4eb8 9a3d 32e2 1cbe 410c 2a3e e207 023d
000003b0: c4d1 9abd 674a 8dbc 4e36 c1bd b3df a4bc
000003c0: cfaa a93d 35fe 53bb 0d92 593d 5bd4 c9b8
000003d0: fd81 0cbe 307c 98bd 525b 9bbd f4b9 393d
000003e0: a88d 25bc d072 9f3c 52ad 703d 4064 f63d
000003f0: 13ec abbd 9390 703d 9bd8 f23c 4770 213c
-0.091702655 -0.11388689 -0.22681038 0.008137155 -0.1156903 0.044050157 0.09833232 -0.06803219
-0.16747391 -0.064258106 -0.16559581 -0.03782397 -0.12257057 -0.049258184 -0.020020073 -0.0050885165
-0.08644582 0.16086425 -0.09350657 -0.1940771 0.09560206 -0.093024865 0.030269515 0.043938108
-0.1255468 -0.06618668 -0.03473039 0.052079033 -0.03353783 -0.01790449 -0.02133224 0.15675548
-0.18398105 0.03575128 -0.08334018 -0.017237445 0.023540245 -0.08194773 -0.12478751 -0.21038093
-0.034035124 -0.08492711 -0.014537965 -0.05916122 -0.05197335 -0.14159974 -0.075659536 -0.04311071
-0.18912612 0.029302929 -0.04556975 -0.2664766 -0.082606524 -0.06791911 -0.20924193 -0.0871206
-0.06503504 0.14902765 0.05235919 0.12426472 0.22548108 0.017920502 0.08571038 -0.10955737
0.0010202485 -0.00027782656 -0.2114642 -0.060308903 -0.026601043 -0.016401699 -0.04778585 -0.12145338
-0.080097444 -0.047645364 -0.033750545 0.048393626 -0.29367483 -0.13032266 -0.029159267 0.07568503
-0.0069072894 -0.22469968 -0.16480197 -0.04107083 -0.22265054 0.06648385 -0.010654793 0.003279825
0.19310805 -0.15927058 -0.119325936 -0.10402332 0.0700018 -0.10716281 -0.19509235 -0.03401395
-0.074590765 -0.12794273 0.018038295 0.077000335 0.14176866 0.14345016 -0.1454424 0.14266685
0.116252825 0.019877167 0.014785543 0.029508714 0.027510557 0.16257961 0.038796153 0.20210953
-0.16993052 -0.1435241 -0.044090472 -0.09769332 -0.011181678 0.07794601 0.14725052 0.08976136
-0.09091228 0.118757404 0.06309185 -0.020302432 0.00030008084 0.20637678 0.013227354 0.044655476
0.029117748 -0.081208654 -0.05218937 0.03874247 -0.035176262 0.2181338 0.00972297 0.08968834
-0.0737773 -0.09222852 -0.16298325 0.081470214 0.013294319 0.20283599 0.14189897 0.04182768
0.07096037 0.31303185 0.028031308 0.0034172018 0.19800247 0.22036928 0.4144065 -0.004515517
0.1507071 -0.13491352 0.0015357687 0.19995534 0.34844077 0.063060656 0.26812744 0.108493246
-0.35042167 -0.097902186 0.06306368 0.35002232 0.028363317 0.08906571 0.07457519 0.06661748
-0.287303 0.022394536 0.2345061 0.29664725 -0.345918 0.06305898 0.1816942 0.009184877
-0.10551339 -0.14143892 -0.07977357 -0.17649685 0.084179826 0.090744905 0.37980345 -0.05634444
0.044380933 0.026234454 0.033640794 0.31604156 -0.16001521 -0.085057564 -0.1789031 0.08575634
-0.078052804 0.15486695 0.16320707 0.31598517 -0.045497287 0.16388349 0.36127844 0.012967883
-0.0005798239 0.074467 -0.08666466 -0.10447516 -0.009823724 -0.01995459 -0.10282748 0.03621894
0.120004214 -0.043183733 0.18411633 -0.12592708 -0.0010398825 0.0782383 -0.088524476 0.094606146
0.059852626 -0.031917028 0.0010308393 0.11227927 -0.06618665 0.06573278 0.11495357 0.12917669
0.017424675 0.15154575 0.032422386 -0.12484711 0.021784497 -0.04343664 -0.14306197 0.028240506
0.075546846 -0.15320662 0.16606237 0.0317458 -0.07559541 -0.017247392 -0.09434186 -0.0201262
0.08284532 -0.0032347564 0.0531178 -9.623981e-05 -0.13721462 -0.07445562 -0.07585777 0.045343354
-0.010104574 0.019463927 0.05875904 0.1203084 -0.08394637 0.058731627 0.029644301 0.009853429

gru.bias_hh_l0 f4 [300]
00000000: be28 27bd 4b95 afbd 6621 90be fa47 d83c
00000010: 2e54 92bd 0051 81bd 8303 933d 17b1 613d
00000020: 8156 e2bd 6df9 1bbd f93a 563b 7716 fdbd
00000030: 5839 d6bc 71ad 023c 360a 2dbe 2458 78bd
00000040: 0277 0bbd 49f0 843d 7f33 56bd 74c5 44be
00000050: 245a 9f3d 5e6a d0bd dbc5 f93d 19f1 6b3c
00000060: 0ef8 f3bd 949b bebd 941c 61bc 0718 93bd
00000070: 53a5 90bd 43c9 7c3b a8be 01bb 636d b43d
00000080: b01d 43be a3e1 433d ed73 81bd d13b 973d
00000090: 68e1 13bd e20c 16bd 4e59 02be b41f d5bd
000000a0: 9a85 a33c 55a6 fabc 5184 92bd 8a50 20be
000000b0: 546c 32be 76a3 07be a6bf 44be 2795 99bd
000000c0: c697 f1bd 31e5 aebc 2044 3fbb 5fab 84be
000000d0: a7b0 16be 57a6 ecbd 252c e5bd 5eda f8bd
000000e0: 8cae 23bd e233 553d ff7e d53d 9280 3b3e
000000f0: 5c12 fb3d 48c3 8dbc f0cc 743d 6814 e3bc
00000100: 19b1 10bd 3938 013d c627 c9bd 4e09 a03c
00000110: e305 1dbd 9cee abbd 73ea 9cbc 99fb 4dbe
00000120: e2df aabd 2e74 28be 3830 bcbd d8f9 f83c
00000130: 38c0 67be a7b4 d6bd ab02 24be 7938 07bd
00000140: 7362 233c 9b7b 0cbe 57c9 09be 1f7b 93bd
00000150: c993 81be fc51 babd 691a 04bd f26c 1a3d
00000160: 699e e53d b0d9 79bd 3c7f 2fbd 16dc c9bd
00000170: ec60 ab3d f0f5 33bd 8565 0bbe 2a42 96bd
00000180: 652a 21be a554 a1bc 4d9d 43bd 0313 10bc
00000190: b9a0 463e ad24 363e 93c1 b7bd 4800 013e
000001a0: a936 533c 28a8 52bc 2ba5 4dbc 5ee6 b63c
000001b0: b758 af3d 1d00 823d 153b 0b3e 2038 013e
000001c0: 8873 56bd 6e8c 0fbe 5649 37bc fe7b 07be
000001d0: 6ab0 cabd 31e0 103e 298f 003e 2664 743c
000001e0: 7fdc c7bd ce86 d83d 4a03 703b 0641 223d
000001f0: cefc dabd 7a5c 6f3e 06d8 053e 26de 373e
00000200: 5e08 3fbc 1acc a6bd 76df 5d3d b5c3 1abc
00000210: 307a 87bc de71 893e b13b 873d 2915 f73d
00000220: 0135 07bd 6467 38bd 66ad 2fbd 2ec7 393d
00000230: 6abb 04be 2330 ac3e c5a8 5b3d 0be4 ba3d
00000240: f33f b33d d578 983e 0f2f 033e 1c41 2ebc
00000250: f55f 653e f6b4 683e ba69 943e 969f 34bd
00000260: 86b8 b93d af7b 40be 52a7 71bd 47aa 113e
00000270: 79e2 9a3e 0a37 8e3d 1f77 853e 67dd fe3c
00000280: 2ea8 9bbe cf87 e6bb 60f8 053e cb12 bd3e
00000290: 01a1 7c3c 19fd f23d 0dd3 f23d 7285 99bc
000002a0: a330 7fbe 450d 53bd e96c 483e 448c 4c3e
000002b0: 6ffb b5be c9d3 5f3d f4e8 133e de7b 6f3c
000002c0: 9b40 22be c928 24be 1027 08be a8b6 57be
000002d0: b323 aa3a 1007 743d 566d a13e af28 06be
000002e0: 6990 243d 596d 2fbd a4fe 37bb 8945 a03e
000002f0: 8235 a9bd 4af7 8abb 9c37 4dbe 5d17 d5bc
00000300: 14c9 703c 2ea8 843d 55ae 8f3e b571 853e
00000310: 2f2b 8cbd d585 443e 6a6c b43e 7bd7 0b3e
00000320: d5e9 37bd e2ea df3d 00df 193d d556 51be
00000330: c34d 2dbd a2b7 c23c b9f5 c9bd cb02 36be
00000340: 3624 843d c7bf 103d 5b48 353e 549e b7bd
00000350: 04c8 0d3e 449e 713d 04bf 98bd 332c e23d
00000360: 8e8f ae3d 4ee8 1abe c286 aebd 5a9f 193e
00000370: b6b5 82bd 508c 42bb d670 123e fac4 8b3d
00000380: 9b98 6a3d a319 5d3d 9f33 2f3e 32fe 16be
00000390: 576d 543d 27e7 4abd 5bea 0ebd 86eb 963d
000003a0: cbb0 c73d 206e efbd a66e 5abd c37a 123d
000003b0: 5207 3c3d 9f98 873c 9f16 a4bd 9d81 e9bc
000003c0: 3e7c 633b 5ddf 3ebd efa5 54bb fed8 2d3d
000003d0: 79cf cebd d095 79b9 9cbe 82bd c2f5 afbc
000003e0: a452 b63d 3886 543c 9ffa e1bc e482 333d
000003f0: 176b efbd 90f5 fa3d 2ec4 8abd 5f72 003e
-0.04081034 -0.08573397 -0.2815048 0.026401509 -0.07144962 -0.06314278 0.07178404 0.055100527
-0.110516556 -0.038079668 0.003268896 -0.123578005 -0.02615039 0.007975922 -0.16898426 -0.060630932
-0.03404904 0.06491143 -0.052295204 -0.19215947 0.07780865 -0.10176538 0.12195941 0.014400744
-0.11912547 -0.09307018 -0.013739724 -0.07182317 -0.07062783 0.003857211 -0.0019797478 0.08809926
-0.19054294 0.047822606 -0.06320939 0.07384456 -0.036103636 -0.03663338 -0.1272938 -0.104064375
0.019961167 -0.030596891 -0.071541436 -0.15655723 -0.17424136 -0.13245949 -0.19213733 -0.07499152
-0.117965266 -0.021349521 -0.0029184893 -0.25911996 -0.14715825 -0.11555164 -0.111900605 -0.12151025
-0.039961383 0.052051432 0.10424613 0.18310764 0.12259361 -0.017305031 0.059765756 -0.027719691
-0.035325143 0.03154776 -0.09822039 0.019535687 -0.038335692 -0.083951205 -0.019154763 -0.20115508
-0.083434835 -0.16450569 -0.091888845 0.030392572 -0.2263192 -0.104836755 -0.16016643 -0.03301284
0.009972203 -0.13719027 -0.13455711 -0.07201218 -0.25308064 -0.090976685 -0.03225175 0.037701555
0.11211855 -0.06099862 -0.04284595 -0.09856431 0.08368096 -0.043935716 -0.13612945 -0.073368385
-0.15738828 -0.019693682 -0.047757436 -0.008793595 0.19397248 0.17787428 -0.08972468 0.12597764
0.01289145 -0.012857474 -0.012551586 0.022326645 0.08561843 0.06347678 0.13596757 0.12619066
-0.052356273 -0.14018413 -0.011186918 -0.13230893 -0.098969296 0.14148022 0.12554611 0.014916455
-0.09758853 0.10572587 0.0036623054 0.039612792 -0.1069275 0.23375121 0.13070688 0.17955837
-0.01165971 -0.08144398 0.054168187 -0.009446074 -0.016537756 0.26844686 0.06603182 0.12064583
-0.033009533 -0.045020476 -0.042889975 0.04535597 -0.12962118 0.33630475 0.053627748 0.09125527
0.08752432 0.29779688 0.1281092 -0.0106356405 0.22399886 0.22725281 0.28986913 -0.044097506
0.09068398 -0.18797182 -0.05899746 0.14225112 0.3025091 0.069440916 0.26067445 0.031111432
-0.30401748 -0.0070352326 0.13083029 0.369284 0.015419246 0.11864681 0.11856661 -0.01874039
-0.24920897 -0.051526327 0.19572796 0.19975382 -0.3554339 0.054645333 0.14444333 0.014616935
-0.15844958 -0.16031183 -0.13296151 -0.21065772 0.001298061 0.059577048 0.3152873 -0.13101457
0.040176783 -0.04282889 -0.0028075362 0.3130305 -0.08262159 -0.004240905 -0.20040745 -0.026012117
0.014696378 0.0647739 0.28062692 0.26063314 -0.06844174 0.19191678 0.35238963 0.13656418
-0.044900734 0.10933472 0.037566185 -0.2044328 -0.042310487 0.023769204 -0.09861321 -0.17774503
0.06452219 0.035339143 0.17703383 -0.089657456 0.13845831 0.058988824 -0.07458308 0.110435866
0.08523475 -0.1512768 -0.08521797 0.15002194 -0.06382315 -0.0029685684 0.14300856 0.0682468
0.057274442 0.053979527 0.17109536 -0.14745405 0.051862087 -0.04953685 -0.034891468 0.07369141
0.097505175 -0.116909266 -0.05332818 0.035761606 0.04590542 0.016552268 -0.08012127 -0.028504187
0.0034711505 -0.046599735 -0.0032447537 0.042443268 -0.10098166 -0.000238023 -0.06384012 -0.021479491
0.08902481 0.012971453 -0.027585326 0.043826 -0.11690348 0.122538686 -0.067756996 0.12543629

dense_output.0.weight f4 [100, 100]
00000000: 2d58 82bd b4e4 b73c 68aa a5bc 29a7 a23d
00000010: f4dd 233d 5d14 aebd 4108 c23d c800 b43d
00000020: be50 2e3d 0f4c 2cbd 9733 83bd 4fcb c7bc
00000030: 56e8 673d 2e80 f93b 5928 fc3c da9b 8dbd
00000040: c050 db3c 8c15 f93c 40e1 9bbc 1183 9c3c
00000050: 64f2 2a3c e0a3 28bd a35f 6c3c e0cf 54bd
00000060: 908d 4d3d 991d 823d ee7d a3bd 2e35 b03d
00000070: 45e2 67bd 9db2 05bc b0ab 1a3d 6a79 35bd
00000080: f862 4cbc 3ddb ce3c 98f8 09be cd7c 05bd
00000090: a742 a4bc 3ae0 0b3d c206 0d3d aa16 0d3d
000000a0: 949e 08bc 881f 4abc 18f1 1dbd e8ce bdbd
000000b0: cbee 133d 606e e4bd 260a 983d 9000 103c
000000c0: b7f8 17bd d5cc d7bd f448 6a3d 0a77 133c
000000d0: 76dc 863b ac18 23bc 5b23 8a3c 1d6d 3e3d
000000e0: 7df1 003e c669 e43c 634e d5bd 6b5b 9abd
000000f0: 7755 4d3d 321c 963d 05b1 9f3c 987a 65bd
00000100: d333 f2bc 6f28 d23d 8a23 993c d05b 4bbd
00000110: 24eb 2e3d 827d 89bd fe40 173d 70b6 fd3d
00000120: 0fd4 c63c 736f 9e3c 9925 8fbd eb50 fcbd
00000130: 2124 8dbd fc5f 123d 61cf 8ebd 3336 95bc
00000140: 838c 863d e310 863b 05d9 ccbd d2f8 a93d
00000150: f22d c53c b010 1d3d dd52 e63c 7f9a c33b
00000160: b6c0 58bc 4d70 78bc 4d03 673d f2c4 643d
00000170: a889 0f3e 0692 0b3c b0fd 153c b333 0abe
00000180: c592 44bc 5680 59bc 1be1 92bd e677 9dbc
00000190: 37fe 83bc 5072 923c 08df 2cbd 8144 11bc
000001a0: c4e5 b9bc af27 8a3a 1809 aa3d 9108 0dbd
000001b0: 5d13 6a3d 75f6 433d dc16 f53c 2b24 f93c
000001c0: 0119 a2bd a278 4a3b 32eb 503c 323c 29bb
000001d0: 8d23 e13c 2762 b3bc 7c5a 593d 38ec 5f3a
000001e0: 3e1d 8f3c fdeb 4c3d 19fb 893d 875a 9b3c
000001f0: 0a59 b73d be09 48bd 7c4e ddbb cdc4 eebd
00000200: 7889 9e3c 01d9 f23c 80f6 ca3a b666 b6bd
00000210: cf57 7cbd 4f3d 813c 21fd 1dbd 7bf9 35bd
00000220: 0684 bf3b 8b83 88bd b7b1 133e faf7 61bd
00000230: e8b7 99bd 39e8 91bd 1448 933c e5a6 c6bc
00000240: ae13 e93b aa62 23be f391 27bd 1df5 85bc
00000250: d5f7 6bbd b021 bc3c aaeb 313c 3daa bfbd
00000260: a631 913d 2a83 2c3d 27fe 023d 0ad6 433d
00000270: 097a 603a c1b2 bbbd 8d86 18be 7121 f13c
00000280: 9696 61bc 9436 12bd c814 373d aa24 39bd
00000290: 1c66 83bc 1eff 593d 8316 7c3d 5b58 213d
000002a0: 494d 74bd 1dc4 b5bd 821a a23d 8dd7 3a3d
000002b0: ff2e ca3c 298c d53b 0732 da3b 7304 d1bd
000002c0: 337c c8bc 4f76 a1bc 38d4 153d 6405 68bd
000002d0: dc25 653d 3a82 963c c274 893d 45a6 293a
000002e0: 1038 06bd 0202 683c 1baf d23d 8a93 94bc
000002f0: 2b5b be3d b2bb e7bd 37b8 d3bc 0ff0 3bbc
00000300: f3a7 efbc a355 063d bb61 3ebd 283e c1bd
00000310: eb6b 783d 54a7 263c 15e7 343d fd94 80bd
00000320: 6935 7c3d 02f9 b6bc 3720 653d 608f 473d
00000330: cb31 57bd 7ca7 4fbd daa8 0e3e d504 b63d
00000340: 4b1e 03bd 2403 4e3d 28cc ffbd 9cef f1bd
00000350: 03e2 2f3e 7087 e6bd 98ca 8f3d e1f9 1ebd
00000360: 0b88 41bd 755b 583c b834 043e da73 febd
00000370: e626 1fbd eef0 5cbd 8018 3fbd e413 f53b
00000380: 562f 303d 1378 04bd b525 623d ffb5 173e
00000390: 3c06 3a3d 6f1f bebd c8fb e43d 6f5d 6ebd
000003a0: 1bdd 4dbd 0342 af3d afe3 4abd 0447 37bd
000003b0: 1927 edb9 9406 da3d f2d6 0a3d bf8f c43d
000003c0: 40e8 4b3a 979f 863c c0bc e5bd c9d3 64bd
000003d0: 382f ee3d f77b 8ebd af80 d33d 9b52 a53b
000003e0: f469 a6bd d04e 1fbe ba73 dc3b dfd8 ce3d
000003f0: d718 3c3b ba6f 0c3d e731 2bbe ff91 e5bc
-0.063644744 0.022447921 -0.020222858 0.079420395 0.040006593 -0.08499978 0.094742306 0.087892115
0.04255747 -0.042064723 -0.06406324 -0.024388937 0.056618057 0.007614157 0.030780958 -0.06914492
0.026771903 0.030405782 -0.019028306 0.019105466 0.010433767 -0.04117191 0.014427098 -0.051956058
0.050183833 0.063533016 -0.079830036 0.08603893 -0.05661227 -0.0081602605 0.03776139 -0.044305243
-0.012474768 0.025251025 -0.13473737 -0.032589722 -0.020051314 0.034149386 0.034430273 0.034445442
-0.008338589 -0.012336619 -0.038560003 -0.0926798 0.036116403 -0.11153865 0.07423811 0.008789197
-0.037102427 -0.105371155 0.05719848 0.009000549 0.0041156365 -0.009954613 0.016862562 0.046490777
0.1259212 0.027882468 -0.10415342 -0.07536968 0.050130334 0.073295966 0.01949359 -0.056025118
-0.029565727 0.10261618 0.018693704 -0.049648106 0.042704716 -0.06713392 0.036927216 0.12388313
0.02427104 0.019340253 -0.06989593 -0.123201214 -0.06891657 0.03573607 -0.06973148 -0.01821432
0.06569769 0.0040913685 -0.10002331 0.08299412 0.02406976 0.038345993 0.028115684 0.005969345
-0.01322954 -0.015163493 0.056399632 0.055851884 0.14017355 0.008518701 0.009154722 -0.13496284
-0.011997883 -0.013275227 -0.07171842 -0.019222211 -0.01611243 0.017876774 -0.042204887 -0.00886643
-0.022692569 0.0010540391 0.08302516 -0.034431998 0.057147373 0.04784246 0.029918127 0.030412754
-0.07914925 0.0030894657 0.012751387 -0.0025823233 0.027482772 -0.021897389 0.05306481 0.0008541974
0.017469998 0.050029743 0.06737346 0.018964065 0.0895253 -0.048837416 -0.006753741 -0.116586305
0.01935266 0.029644491 0.001548484 -0.08906309 -0.06160718 0.015776305 -0.03857148 -0.044427376
0.005844596 -0.06665715 0.14423262 -0.05516813 -0.075057805 -0.07124371 0.017978705 -0.024249503
0.0071129417 -0.15955606 -0.040910672 -0.01635223 -0.057609398 0.022965282 0.010859409 -0.09358642
0.07089548 0.042117275 0.03198066 0.047811545 0.00085631065 -0.09164954 -0.14895077 0.029434891
-0.013768813 -0.03569658 0.044697553 -0.04520098 -0.0160399 0.053221814 0.061544906 0.039390903
-0.059644017 -0.08875296 0.07915212 0.04561572 0.024680613 0.0065169525 0.0066587958 -0.10205927
-0.024473285 -0.019709734 0.03657934 -0.056645766 0.05594431 0.018372644 0.06711723 0.00064716145
-0.03276831 0.014160635 0.10287305 -0.018136758 0.09294733 -0.11315097 -0.025844676 -0.011470809
-0.02925489 0.032796513 -0.04647992 -0.094356835 0.060649794 0.01017173 0.04416569 -0.06278417
0.061574373 -0.022335533 0.055938926 0.048720717 -0.05253772 -0.050696835 0.139316 0.088876404
-0.03201131 0.050295964 -0.124901116 -0.1181328 0.1717606 -0.112563014 0.070210636 -0.03881252
-0.04724888 0.013205399 0.12910736 -0.12424441 -0.038855456 -0.053940706 -0.046654224 0.007479178
0.043013893 -0.032341074 0.05521174 0.1481552 0.0454161 -0.09283339 0.11180836 -0.058194574
-0.05025969 0.085575126 -0.049533542 -0.04474546 -0.00045233293 0.10645786 0.033896394 0.0959773
0.00077784434 0.01643352 -0.11217642 -0.055866037 0.116301 -0.06957238 0.10327279 0.0050452477
-0.08125678 -0.15557408 0.006727663 0.10099959 0.002870133 0.03428624 -0.16718255 -0.028023718

dense_output.0.bias f4 [100]
00000000: 6004 0bbe b2c4 ddbd 2f99 55bd c9a5 82bd
00000010: fec2 a3bd f1d1 0fbe 8274 643c c20f f1bd
00000020: 5082 703c 56ec 0fbe e860 77bd e06b 3a3d
00000030: 1f14 6abd f18e 753d d684 22bd a26d 7fbd
00000040: 0be0 de3c 3630 5ebd 9326 82bd efbe 3cbc
00000050: 7001 81bd ecbc 9fbd 244e 2ebe b465 a2bd
00000060: a0d1 39bd 3e69 1bbe 605e 0ebe c414 d33c
00000070: 329f 2fbe 5193 7cbd 525a a9bd 7772 1b3e
00000080: 6717 24be d6c3 18be c199 c53d 2407 06bd
00000090: 0dfe 9e3d 8e93 293d df4b f9bd 54e5 22bd
000000a0: 3c89 0abc 717d bfbd 6eae 37be eb2e 54be
000000b0: 6bf5 8f3d 4aac 5bbe dc85 84bd 21d9 163d
000000c0: cdef 3dbd 40ab 923d ff0d 6a3d f9b2 94bd
000000d0: 2097 c1bd f40e 94bd c194 1bbb 6c73 47be
000000e0: 9180 d53c 3ace 02be 52d2 eebd fc0f eabc
000000f0: 3237 b33d 349f d8bd 18ca d9bd f51a debc
00000100: 8bd0 efbd b0bd d1bd 275a 06be 007f 58bd
00000110: 8b32 d63d 61ca 90bd 426b 1dbe cd43 34be
00000120: ce09 cebd f606 a9bd 7876 21bc db2f dfbc
00000130: 331a 4dbd 5214 7abd 3844 983d cf11 023e
00000140: 087b 11be 6706 09be 244b 1abe 1cd8 3ebd
00000150: f3d0 1f3e a016 24bc aee0 cd3c 6bb3 173e
00000160: 62da 16be 6222 1ebe 2d4f 6abd a156 b8bd
00000170: 3614 78bb 2164 23be c93d 34bd 5d06 9ebd
00000180: d7fe 06bc 6f13 dd3d 0d7b 0abe b63a 16be
-0.13575888 -0.10828532 -0.05214804 -0.06379277 -0.07996176 -0.1404493 0.013943793 -0.11770584
0.014679506 -0.14054999 -0.06039515 0.045513034 -0.057148095 0.059950773 -0.039677463 -0.062360413
0.027206441 -0.054245196 -0.06355014 -0.0115201315 -0.06299102 -0.07799706 -0.17021996 -0.079295546
-0.04536593 -0.15176865 -0.13903189 0.025766738 -0.17150572 -0.06166393 -0.0826918 0.15180384
-0.16024552 -0.14918455 0.09648467 -0.032721654 0.077633 0.041400485 -0.121726744 -0.039769486
-0.008455571 -0.09350098 -0.17937633 -0.20721023 0.07029232 -0.21452442 -0.06470844 0.036828164
-0.04637127 0.071615696 0.057142254 -0.07260699 -0.09452653 -0.072294146 -0.0023739787 -0.19477624
0.026062282 -0.12773982 -0.11661209 -0.028572075 0.08750762 -0.105772406 -0.106342494 -0.027112463
-0.11709698 -0.10241258 -0.13120328 -0.05285549 0.10458859 -0.07069851 -0.15372947 -0.17603989
-0.10060464 -0.08253281 -0.009854905 -0.027244499 -0.050073814 -0.061054535 0.07434887 0.12702106
-0.14207089 -0.13381349 -0.15067726 -0.046592817 0.15607052 -0.01001516 0.02513155 0.14814536
-0.14731744 -0.15442804 -0.057204414 -0.09000898 -0.0037853844 -0.15956165 -0.044004235 -0.077160574
-0.0082394695 0.10794722 -0.13523503 -0.14670834

dense_output.3.weight f4 [9, 100]
00000000: 724a 16bb a20c 49bc 6198 ae3b 3af9 8f3c
00000010: 9ffe c0bc 843a 283c 49dd a53c f6fd 8cbc
00000020: 9c89 463c 69a9 c63b 829a 103d 17df 793c
00000030: 21d9 31bd b4ef 9c3c 129e 663d b111 41bd
00000040: c619 1ebc 8726 0dbc 5c33 ba3b 0427 013c
00000050: 27a4 083b 87b2 bf3c 33c6 0dbc 2c87 0ebd
00000060: fa73 9fbc 0e05 00bb fea4 973b 4fe4 1d3c
00000070: cc44 e0bd 2346 993d bb6b 5bbc 4d30 f63c
00000080: 3428 983d e80f 543d 61ad 523d e631 713c
00000090: 3e07 4c3d 25d1 983c 4175 053d 49b7 d83c
000000a0: 38ee 5f3c 9f9b 0a3e 468a b5bd a8e8 6abc
000000b0: dad8 63bd 0b16 50bd ab75 a6bd c3aa 5ebc
000000c0: d64e e2bc d633 24bb c943 463d 2ba0 233e
000000d0: 2633 4fbc beb4 9d3b 1450 14be 0664 7d3b
000000e0: e3e1 52bc 7776 0cbd b25d 9ebb ba27 653a
000000f0: b24c 763d 0756 343d 6d70 64bd 026f acbc
00000100: 2976 36bd 9bf4 7d3d d089 df3d 3000 a53d
00000110: cd09 183d 8d17 10bd 3905 573c 6ed3 413d
00000120: e81f 763d c257 e13c 298e a63c c266 283d
00000130: 8a08 1f3d 28db 06bc 52a5 bc3c 0347 403d
00000140: 1cd0 c9bc fe09 a5bb 87fb a1bd b2a7 543c
00000150: 414b ae3c f89f 1dbc b9f7 1cbc 7367 8f3d
00000160: 8a22 3f3d 529b 03bc edc8 bbbb 89ce 603d
00000170: ec7f 4dbc eef7 9a3c b157 c03c 3a61 053d
00000180: 60a6 d73c 3ec0 1e3d 31cb 98bb 5755 edbc
00000190: ecf6 183c 313e 903b f59d c73d aa77 6d3c
000001a0: 50c3 cabc 5a1c 20bd 195c 013c 6653 28bc
000001b0: 0162 6c3c 1ded 233c 85c1 2d3d 60c5 9f3c
000001c0: e27f cc3b 2c7b e93c f5eb 723d 9d59 23bc
000001d0: 9864 b83b bc7d 313c 5a26 2fbd 6891 91bb
000001e0: 557c c7bd 1d0e 953c 87b3 37bd c77c 5abc
000001f0: f4d2 1abd d747 4b3c 9b09 5cbc 013c 68ba
00000200: 41bb e1bd b9d9 9c3d fbf3 f93c 4195 a33d
00000210: 4172 8b3c da0a af3c 1af3 ac3c cdc8 53bc
00000220: ce29 423d d95e ab3c 1950 13bc fb48 d73c
00000230: 248c a83c 6c87 0f3e 156f b8bd 5f25 60bd
00000240: aacb 66bd 7b30 bd3c 5ae3 3e3d 7222 223b
00000250: 8c41 663a 95be 1e3d 2a00 4b3d 1bc0 1f3e
00000260: e610 0d3b 044f debb 009f 19be bf64 ed3c
00000270: 0802 2abb 26e9 c3bb 51bb 433d a6db 54bd
00000280: 51c1 3c3d 538a 3bbd 619b 88bb 6041 21bc
00000290: 0e58 d5bc 2e76 013d e2a2 073e 0c69 ef3d
000002a0: 0fdb 0d3d 9b8a 9c3b c1fa a03d ce95 273b
000002b0: 0b78 5d3c 46bb aa3d d8b1 543c afc2 af3c
000002c0: 7bd7 093d 75ad 22bc 3dad 863c 8873 303d
000002d0: 0f87 89bc f261 55bc 6bf7 59bd d436 c2bc
000002e0: 734d 363d 1e93 95bb f6d5 93bc 8dfd b43c
000002f0: c051 3e3d 1ed0 8e3c 2f24 cd3b 75bf 98bd
00000300: ed30 ba3c a6a0 a8bc f545 a43c 41e7 e13c
00000310: 9d77 143d 592b cc3b c270 c03b ec4d 1abd
00000320: 5e52 0e3d 8be2 223b 354e 98bc 4e03 273b
00000330: 67e2 833b 4b24 8cbd 0646 a43c 92fa 34bb
00000340: 2b68 be3c 9a76 823c a5ea 183d cf75 b43c
00000350: 3334 7bbc a4f5 e23c 4179 10bd 24d6 683d
00000360: 2c1c 873c d4ff ffbb d626 de3c 2981 0f3c
00000370: e99c 9bbd 3a25 1d3c 0bcc b9bc e8a4 03bd
00000380: 0504 82bd f2ff 75ba 412e 30bc 0803 323a
00000390: 8fed d8bd 375f a73d 5981 bcbb 0c0c ad3d
000003a0: 301b 143d d2cb 4bbd ea56 d3bc a286 4fbc
000003b0: 62cd 3e3d bd47 7e3c d2b5 7fbb 9990 103d
000003c0: f097 c83c fe0f 0e3e b383 abbd 9e4b f03b
000003d0: 6075 63bd 4437 123c b3b7 863d 27a4 073c
000003e0: 9d97 2d3c c16a dc3c e41f 3e3d bd93 223e
000003f0: 3480 ebba addb cdba 0d64 0abe cfd2 ab3c
-0.0022932556 -0.012271078 0.0053282236 0.017574895 -0.023558913 0.010267857 0.020247119 -0.017210942
0.01211777 0.0060626757 0.0353036 0.015250943 -0.04341996 0.019157268 0.05630309 -0.047136012
-0.0096497 -0.008615143 0.005682392 0.007882837 0.0020849796 0.023400558 -0.008653211 -0.03479688
-0.019464482 -0.0019534263 0.004627823 0.009636953 -0.10950622 0.07484081 -0.013392384 0.030052328
0.07429543 0.051772982 0.05143488 0.014721369 0.049811594 0.018654415 0.032582525 0.026454585
0.013667636 0.13535927 -0.08864264 -0.014337696 -0.055626728 -0.05080227 -0.08127912 -0.013590517
-0.027625483 -0.002505531 0.04840449 0.15979068 -0.012646472 0.004812806 -0.14483672 0.0038664355
-0.012871238 -0.034292664 -0.0048329467 0.00087415765 0.060131736 0.044027355 -0.05577128 -0.021049026
-0.04454628 0.062000852 0.109149575 0.080566764 0.03711872 -0.03517871 0.013123804 0.047320776
0.060089022 0.027507666 0.02033146 0.041113622 0.038826503 -0.008230962 0.02302805 0.046942722
-0.024635367 -0.0050365916 -0.07909303 0.012979435 0.021276118 -0.009620659 -0.009580546 0.07002153
0.0466638 -0.008032637 -0.0057307393 0.054884467 -0.012542706 0.01891705 0.023479315 0.032563426
0.026324451 0.038757555 -0.004662894 -0.028971357 0.0093362145 0.004401945 0.09746925 0.014493862
-0.024751335 -0.03908954 0.007895493 -0.01027379 0.014427663 0.010005263 0.042420883 0.019503295
0.0062408308 0.028501116 0.059307057 -0.009970096 0.005627226 0.0108332 -0.042761184 -0.0044423826
-0.09740511 0.018195206 -0.044848945 -0.013335413 -0.037798837 0.012407265 -0.0134300245 -0.0008859039
-0.11022044 0.07658715 0.030511847 0.07987452 0.017022254 0.02136748 0.021112014 -0.012926293
0.04740315 0.02091925 -0.008991265 0.026279917 0.020574637 0.14016503 -0.09005562 -0.05472314
-0.056346573 0.023094406 0.046603538 0.002473977 0.0008783571 0.038755972 0.049560703 0.15600626
0.0021524965 -0.0067843217 -0.1500206 0.028978704 -0.0025941152 -0.005978721 0.04778606 -0.051967286
0.0460828 -0.045786213 -0.0041689132 -0.009842247 -0.026042964 0.031606846 0.13245729 0.11689958
0.03463274 0.0047772652 0.078603275 0.0025571468 0.01351739 0.08336501 0.012981854 0.021455137
0.033652764 -0.009929051 0.016440028 0.04307893 -0.016788034 -0.01302384 -0.05321447 -0.023707785
0.044507455 -0.004564657 -0.01804636 0.022093559 0.04646468 0.017433222 0.006260417 -0.074583925
0.022728408 -0.020584416 0.02005289 0.02757609 0.036246885 0.0062307534 0.005872817 -0.03767197
0.03474652 0.0024854268 -0.01859198 0.0025484147 0.004024792 -0.0684286 0.020052921 -0.0027615172
0.02324303 0.015925694 0.03733315 0.022028832 -0.0153322695 0.027705021 -0.035271887 0.056844845
0.016492926 -0.0078124795 0.027118128 0.0087588215 -0.075982876 0.009591395 -0.022680303 -0.03213969
-0.06348423 -0.0009384147 -0.010753215 0.0006790613 -0.10592186 0.08172458 -0.005752724 0.084495634
0.03615874 -0.049754925 -0.02579828 -0.012666376 0.046582587 0.015520033 -0.0039018285 0.03529415
0.024486512 0.13873288 -0.08374729 0.007333233 -0.05553186 0.008924309 0.065780066 0.008278883
0.010595229 0.026906373 0.046417132 0.1587667 -0.0017967285 -0.0015705727 -0.13514729 0.020974545

dense_output.3.bias f4 [9]
00000000: fad6 f23d 648b f03d 4372 f13d f6c2 eb3d
00000010: 7545 f03d 7be4 f33d 7fff ef3d 2588 f13d
00000020: 8488 f23d
0.1185741 0.11745337 0.11789372 0.11511795 0.11731998 0.119088136 0.11718654 0.11793546
0.118424445

exp_avg f4 [4, 1, 3, 3, 3]
00000000: a3c1 1bba 5b64 f439 507c 0d3b 80da 01bb
00000010: 5b02 e7ba 9751 baba 38c5 37bb a4d4 50bb
00000020: 3c72 65bb 3d4a 3d3a 06ed cd3a ffb6 313b
00000030: d1fc 74ba 5f4b 49ba 05a7 90b9 c51d 25bb
00000040: 9814 21bb fb50 e6ba 408f 383a 511d c13a
00000050: ea8b 093b 8804 6cba a3da c3b9 a820 2aba
00000060: 633c 3ebb f816 c7ba acc2 dcba 81dd 7c3a
00000070: 15ca b637 f86b e3b9 75f3 a43a 19ec 2839
00000080: da50 ddb9 603d 3b39 cc6d 88ba 9a0d d8ba
00000090: 017a 463a 473b 81b9 daa0 9038 27f8 9c3a
000000a0: cae9 6db9 eb96 8e39 f451 0c3a fc8c 60ba
000000b0: 14f5 1bba bcb9 28ba 37b9 28ba fd63 05b9
000000c0: a406 0cba 083f 10ba 0fab b138 4a41 22ba
000000d0: 3228 53ba 469f 09ba 5b68 bdba a8c3 11ba
000000e0: 8f51 d039 2e10 cfba cc4a 5dba c18f cab8
000000f0: 8fe1 a0ba f954 e1b9 50a6 6939 9047 53ba
00000100: 0473 b738 cfe2 963a 6770 8eba 7a6f c9b9
00000110: 923d 063a 85e6 28ba eca1 0839 ae59 173a
00000120: 7b1c 35b9 f87f 183a 9fa1 d73a 4ce1 3fba
00000130: 23ab afb6 3c5f 493a 03cc d0b9 026b 4b39
00000140: 54f9 513a 3b84 173a 1d09 20ba b015 40b9
00000150: f184 7c3a fea5 1039 2f86 3339 5db9 2c3b
00000160: ccd7 b63a fefc 4c3a 995c 3039 1d52 08ba
00000170: 9a2f 7c39 4506 263a 26ea 8438 9d13 b239
00000180: 4cf0 143b 2ce3 9e3a d581 403a 5f61 f4b8
00000190: 9c30 28ba 8885 453a 04bc 8b39 8a65 deb9
000001a0: 5137 273a 6641 db3a 6763 1d3a 328c 573a
-0.0005941635 0.00046614077 0.0021588989 -0.0019814074 -0.0017624603 -0.001421499 -0.0028041136 -0.0031865025
-0.0035010716 0.000722084 0.0015710897 0.002711713 -0.0009345534 -0.00076787727 -0.0002759026 -0.0025194746
-0.0024578925 -0.0017571741 0.0007040389 0.0014733468 0.0020987936 -0.0009003361 -0.00037356195 -0.00064898515
-0.0029027693 -0.001518934 -0.0016842685 0.0009646044 2.1790192e-05 -0.00043377257 0.0012584763 0.00016109682
-0.00042212644 0.00017856574 -0.0010408699 -0.0016483546 0.00075712806 -0.00024648962 6.896416e-05 0.0011975811
-0.00022689175 0.00027196793 0.0005352788 -0.000856593 -0.00059493 -0.0006436368 -0.00064362906 -0.00012721117
-0.00053415657 -0.00055025565 8.47188e-05 -0.00061895384 -0.0008055001 -0.0005249869 -0.0014450656 -0.0005560466
0.00039733617 -0.0015797669 -0.00084416266 -9.658887e-05 -0.0012274253 -0.00042978654 0.00022282568 -0.0008059675
8.747543e-05 0.0011511686 -0.0010867239 -0.00038420764 0.0005120869 -0.00064430415 0.00013030291 0.0005773556
-0.00017272115 0.00058174087 0.0016451365 -0.00073196436 -5.2353294e-06 0.00076817325 -0.00039824852 0.00019399452
0.000800987 0.0005779897 -0.00061048736 -0.00018318626 0.0009632847 0.00013794747 0.00017120758 0.0026355602
0.001394981 0.0007819681 0.00016819163 -0.0005200224 0.00024050326 0.00063333317 6.337864e-05 0.0003396542
0.0022726236 0.0012122146 0.0007343565 -0.000116529634 -0.0006415935 0.00075348513 0.0002665223 -0.00042418792
0.0006378787 0.0016727864 0.0006003887 0.000822249

exp_avg_sq f4 [4, 1, 3, 3, 3]
00000000: ad7c 3539 9320 2f39 164f 7839 5195 8639
00000010: 29ed 6c39 68d0 8f39 1eaa ce39 9d81 aa39
00000020: 89c8 9c39 c0cc 5339 a12e 3e39 cff9 8339
00000030: 9830 9a39 ca47 8339 c7fa 9039 5c91 e539
00000040: 6d0b af39 ab72 8b39 dc11 7e39 84e3 4e39
00000050: a408 a239 496b b339 2b7d 8839 76de a139
00000060: 5270 f739 e85f a239 5c1d 8d39 3d3f 8439
00000070: 7e6d 7839 f2df 2839 e604 6f39 ee88 6139
00000080: 2487 1739 5b8e 8a39 0fc2 8939 850f 5939
00000090: 97cb 9339 8cc4 7b39 b880 1839 2919 8639
000000a0: 4be4 6339 452a 0539 2c27 9a39 04a0 8d39
000000b0: 13ca 4839 33d3 9a39 f216 6a39 08e7 0a39
000000c0: 1a46 8d39 f813 5139 8896 ee38 a6ff a139
000000d0: 68a1 8539 6aee 3839 4fef 5f38 d223 3338
000000e0: 4e6b 2938 75a4 1838 92c4 be37 915f b437
000000f0: c580 a037 b4e9 e436 ab2b ba36 6e6a 5d38
00000100: f842 3038 3661 3338 5e77 0a38 0b91 ac37
00000110: cb50 c437 877e 7b37 24d1 9736 5274 e436
00000120: 1249 4d38 63a8 2d38 65fc 3b38 4ce4 e537
00000130: 62b7 a637 433d d937 a7d6 2a37 ce40 8e36
00000140: fbcd 1d37 67d6 a738 e3de 9038 0e8e 9338
00000150: 6506 a938 1e14 8d38 60d2 8b38 b539 a838
00000160: 9001 8938 e9e5 7d38 132d b138 2545 8f38
00000170: df92 a138 4c48 af38 0187 8738 443e 9638
00000180: 94f6 a738 08a7 7938 8ac9 8638 6c28 9f38
00000190: 3f56 8a38 5230 a438 5690 9b38 16d2 8038
000001a0: c2c0 9638 af59 9238 c0b2 6738 6980 8738
0.0001730795 0.00016701435 0.00023680585 0.0002566972 0.00022595063 0.0002743036 0.0003941813 0.00032521496
0.0002990405 0.00020198803 0.00018137183 0.0002517239 0.00029409374 0.00025039754 0.00027652664 0.00043786585
0.00033387114 0.0002659758 0.00024229981 0.00019730447 0.00030905486 0.00034221474 0.000260332 0.0003087406
0.00047195196 0.00030970504 0.0002691549 0.00025224118 0.00023691912 0.00016105155 0.00022794641 0.00021508682
0.00014450826 0.00026427474 0.0002627526 0.00020700514 0.0002818971 0.00024010445 0.00014543801 0.00025577217
0.00021733453 0.00012699615 0.00029402354 0.00027012837 0.00019148765 0.00029530525 0.00022324527 0.00013246771
0.00026945845 0.00019939232 0.00011376763 0.00030898786 0.00025487994 0.00017636424 5.3390217e-05 4.2710286e-05
4.0392675e-05 3.6392787e-05 2.27413e-05 2.1502174e-05 1.913345e-05 6.822136e-06 5.5483156e-06 5.2789626e-05
4.202404e-05 4.276746e-05 3.3012933e-05 2.0571539e-05 2.3402643e-05 1.4990225e-05 4.524498e-06 6.808471e-06
4.894386e-05 4.1403237e-05 4.4819335e-05 2.7405236e-05 1.9874136e-05 2.5896943e-05 1.0182767e-05 4.239474e-06
9.405888e-06 8.003116e-05 6.907971e-05 7.035966e-05 8.059739e-05 6.727151e-05 6.667222e-05 8.021613e-05
6.53296e-05 6.053402e-05 8.4484134e-05 6.8316505e-05 7.704435e-05 8.3581166e-05 6.462448e-05 7.164155e-05
8.009109e-05 5.9521786e-05 6.4271575e-05 7.58924e-05 6.5964174e-05 7.82913e-05 7.4178606e-05 6.142647e-05
7.188461e-05 6.9785274e-05 5.5241166e-05 6.46122e-05

exp_avg f4 [4]
00000000: b377 6a3b 760d bcbb 3753 323c c36e 313c
0.0035776913 -0.0057389094 0.010884098 0.01082963

exp_avg_sq f4 [4]
00000000: d403 603c 98ef bd3b 768e 9d3b c90f 1c3b
0.013672788 0.005796384 0.0048082424 0.002381312
