models/dsec/dsec_half1/dsec_half1_multipixel_even_model.pth (torch, 874127 bytes, 30 tensors)

conv3d.0.weight f4 [4, 1, 3, 3, 3]
00000000: 7c8a 42bc 92c0 4abe 6943 22bc d61f 0bbd
00000010: 5a41 71be d965 3fbe 8ba3 d23d 4397 e3bd
00000020: ee7f 63bd 1c48 d33e 8c7b 873c edcf 763e
00000030: fe54 0e3c d08e 84be af17 2c3e 89c9 893c
00000040: ffa5 4fbe e82d 933e e5ee 0abc a3c0 453e
00000050: f2b7 a4bd e0cd e0be fa5c f4bc 62b6 c13d
00000060: 41cb 5abe bdc5 a3bb f97f d73e 0089 873e
00000070: 0662 2cbe 48ec 493e fc42 9e3c bbb6 30be
00000080: c5fb 073e 9ae4 a33d ae62 da3c b66a 5b3e
00000090: 167d 0c3e b445 35be d26a 763e 2b4d 7c3d
000000a0: 47e6 c8bb 882a bc3e 450f 48bc 6f41 1cbe
000000b0: 2ca6 a03e b386 2cbe 90d0 bbbe 1543 bdbd
000000c0: 59f3 17be 99ff e5be 3fe9 d1bd b34d 44be
000000d0: 5cc4 48be beba c7bd 0b31 1c3d b503 0dbe
000000e0: 3130 2fbe aea6 a6be 8a91 893d 3762 99bd
000000f0: e451 38be fd60 fa3c 80f0 343d 45a8 c63c
00000100: b5fd 1b3d c080 4b3e 3f5b 2b3e e6b7 69bd
00000110: 02e0 70be 5809 5f3e 14ba cb3d 202f f4bc
00000120: 786e bd3c 6130 8abe def9 a33e f9ff 2f3e
00000130: 3957 cfbe d82a 4a3e 93c8 c23e ee31 66be
00000140: 39b2 1f3d 8e50 5a3c 618e e63a f0e9 69be
00000150: d2f8 e53d a17a 9bbd 0328 68be 3337 723d
00000160: affb 36be fd20 dcbc 6fa4 e03c 6231 a23e
00000170: bb32 eb3d 8709 813e 450b b03e 17f3 01be
00000180: 421c d63d 1123 823c e7d7 953e 60bb bfba
00000190: 422a 8c3c ece9 31be 83b0 6e3d 0b1e 183e
000001a0: 636e abbe 415b 70be 4f2d 98bd 26f7 0ebe
-0.011873838 -0.19800022 -0.009903767 -0.033965908 -0.23560086 -0.18691196 0.102850996 -0.11112835
-0.055541925 0.41265953 0.016538404 0.24102755 0.008687256 -0.25890207 0.1680591 0.016819732
-0.20278166 0.2874596 -0.008479808 0.19311766 -0.08042897 -0.4390707 -0.02982949 0.09458615
-0.21366598 -0.0049979375 0.42089823 0.2647171 -0.16834268 0.1971904 0.01931905 -0.17257206
0.13279636 0.08002587 0.026658382 0.21427426 0.13719591 -0.17702371 0.24064186 0.06159703
-0.006130967 0.367512 -0.012210672 -0.15259336 0.3137678 -0.16848259 -0.36682558 -0.092413105
-0.14838924 -0.44921568 -0.10249566 -0.19170265 -0.19606155 -0.09752415 0.03813271 -0.13770945
-0.17108227 -0.32549042 0.067172125 -0.07489436 -0.17999989 0.030563826 0.04417467 0.024250159
0.03808375 0.19873333 0.16734026 -0.057060145 -0.23522952 0.21780908 0.09947601 -0.029807627
0.023123965 -0.26990035 0.3202657 0.1718749 -0.40496233 0.19742906 0.3804365 -0.22479984
0.038988326 0.01332487 0.001759004 -0.22843146 0.11229099 -0.07591749 -0.22671513 0.059134673
-0.17869447 -0.026871199 0.027422158 0.316783 0.114842854 0.2520258 0.34383598 -0.12690388
0.104546085 0.015885862 0.29266283 -0.0014627986 0.017109994 -0.1737439 0.058273803 0.1485521
-0.33482656 -0.2347231 -0.07430517 -0.13961467

conv3d.0.bias f4 [4]
00000000: 385c 0ebc c8bc d03d f329 0fbd a2e2 1ebd
-0.008688979 0.10192257 -0.034952115 -0.038790353

gru.weight_ih_l0 f4 [300, 100]
00000000: 50f6 55be c17d c1be b154 dcbe e84a a0be
00000010: b9de 24be 028e abbe c362 6dbe ed60 0dbf
00000020: ffda 0bbf 550d 87be ed63 4fbe 3ca4 c1bd
00000030: 7a2d a2be 697c 7fbe 0f41 adbd b24b 8dbd
00000040: 11f6 3cbe 6ea0 bcbe b98d b2be bf59 7bbe
00000050: c29d a03c 3895 03be 9d93 b5be 667d 8ebe
00000060: e191 66be 6870 b63d 6a10 753e a885 a03e
00000070: 84d7 523e 13b1 b23d 0997 5b3d 1c8c c33d
00000080: aeb4 7b3e 7aa3 453e 1fb7 bb3b c43c 5bbd
00000090: c5e8 4c3d b60b 3f3e ad33 9b3d 27ad fc3d
000000a0: 4217 b23c f693 f63c c30c 1e3d fc55 ad3d
000000b0: 35cf 043e 6fa2 c5bc e642 7a3d c6a5 253e
000000c0: 71ad cf3d b1dd 1f3e 5c75 983d 4f49 31be
000000d0: eb68 06be a91c 61bd 16d0 243e 991d 84ba
000000e0: 73b6 62be 30a2 6ebe 6a04 88be 5866 57be
000000f0: 8b4c 4c3e dea9 c73c b43a 84bc 5e15 e4ba
00000100: fb7c 5fbe 7017 383e 4177 eabd 9ada 03be
00000110: 30c9 9abd 3373 c3bd 87e7 6b3e 8b29 05bc
00000120: d498 84bd 426a c0bc 21f8 6cbd c96e da3e
00000130: 7ec9 783e 5c29 b63d 357c 323e dfc6 fb3e
00000140: 7d39 7c3e c2cd a03d e845 b2bd f761 a03e
00000150: 1dd5 d93e 95e3 133e 99ef 20be 23ad b6bd
00000160: f8dd 74bd 0c14 01bd 763c 673d dc3c 47be
00000170: 4629 41be 2f84 0dbe b7d0 2cbd b131 56bc
00000180: d9c0 563c 37ca f9bb fd89 7e3d 4750 043e
00000190: d4ff 0a3e 4d0f 243d 4b95 43bd 638c 673e
000001a0: cf39 ff3d c553 923d af9d c6bb b81e cf3d
000001b0: ac7a 063e d150 833d 8dce e4bd cfa3 13be
000001c0: 0c76 82bd c7fa 123e 87cc 133d bcdd 023e
000001d0: 558f abbc 9b81 143e 717d b43e 438a 883e
000001e0: 33e0 023e d6f5 d0bb 35f3 61bb baa1 c63d
000001f0: 5461 9ebc 4a43 45be b216 9abe 4049 a5be
00000200: ba18 d6bd 0d4f 75be b617 55be 7c61 9dbe
00000210: 1b49 f2be 8ca1 9dbe 8a13 a3be 3e99 9abe
00000220: 89b2 dbbe 64db f7be 6e7d b0be f683 acbe
00000230: 4266 d0be fec9 c7be 2a76 d1be e584 afbe
00000240: 3ada e5be b30f 0fbe 55e7 a4be 4786 e4be
00000250: 4ba7 a4be 1073 9bbe 02a8 523d 889b 3fbd
00000260: 6e73 13bd dca6 73bb 9915 d33e b36f 603e
00000270: 00c8 2e3d ba78 7f3e 5f95 ca3d cf4e dc3e
00000280: d4a0 78bd d170 91be f23a d5bd 1c6f 22be
00000290: ee68 87bd 131e 8dbe d166 98be 362e efbd
000002a0: 6748 d2bd 7c9c 65bb 1585 56bc f49d 82be
000002b0: 4637 443d 9d34 9fbb c03c ae3d 1a72 0fbe
000002c0: ac2c 0fbe 191b 973d f5e7 f8bb 6212 ac3d
000002d0: 3546 f2bd 2912 8dbd cd06 0ebe b98f 30be
000002e0: 90c5 b5bd 3efb f3bd 5259 8abc 9be0 02b8
000002f0: b8a4 10be a5a0 93bd 74d8 e3bd 29cf b3ba
00000300: 4011 02bd b2a5 92bd 3760 4fbe d28a 7cbe
00000310: ae02 8ebe 72df 22bd ae44 7ebd ec0c 0abe
00000320: 2129 66bd ed53 92bc c107 853d a0f4 8d3e
00000330: 1893 793e 1abc 5a3e d9e2 063e 42c9 a53d
00000340: 7efd f43d bbcf 123e 662b 803e 6d4e 48bd
00000350: 4919 993d 178b 8f3d 5335 923d 71ca 0b3e
00000360: 60ff da3d 616b 523e de53 973e 4e9f d23d
00000370: 7902 963d 2f67 49bd b099 86bc e753 2a3e
00000380: 21fe 983d cb62 8bbe c50a c5be 2072 c3be
00000390: c7f7 a2be 2a50 8cbe 3572 79be efb4 a2be
000003a0: afa7 b6be 121e c4be 6399 b5be 1cc0 9cbe
000003b0: f217 e5be e8d4 02bf df57 cbbe 05aa c8be
000003c0: 1059 abbe 76c7 e1be 7e40 b8be 9637 e5be
000003d0: 0365 bcbe 2e55 93be ffa7 adbe eb78 b5be
000003e0: 42d4 bfbe 06a4 81be 9e9c 6fbe 0d39 45be
000003f0: 9ec0 c2bd abba 2d3e 9a39 633e 8662 0bbd
-0.20894742 -0.37791255 -0.43033364 -0.3130715 -0.16100587 -0.3350678 -0.23182206 -0.5522602
-0.54631037 -0.2637736 -0.20252962 -0.09455153 -0.3167532 -0.24949802 -0.084596746 -0.06899203
-0.18453242 -0.36841148 -0.3487375 -0.24545954 0.019606475 -0.12849891 -0.35464182 -0.27830046
-0.22516586 0.089081585 0.23932043 0.31351972 0.20590025 0.087251805 0.053610835 0.09548208
0.24580643 0.19300643 0.005728617 -0.053524747 0.050026674 0.18656811 0.07578216 0.12337714
0.021739606 0.03009985 0.03858639 0.08463666 0.12969668 -0.024125306 0.061098956 0.16176519
0.10140503 0.15611912 0.074442595 -0.17313121 -0.1312596 -0.054958973 0.16095003 -0.0010079622
-0.22139911 -0.23304057 -0.26565868 -0.21035135 0.19951074 0.024372991 -0.016141273 -0.0017401387
-0.2182502 0.1797769 -0.11448527 -0.12876359 -0.07557905 -0.09543457 0.2303754 -0.00812758
-0.06474462 -0.023488168 -0.05785382 0.42662647 0.24295613 0.088946074 0.17430194 0.49175164
0.24631305 0.07851745 -0.0870474 0.3132474 0.42545405 0.14442284 -0.15716399 -0.08919742
-0.059782 -0.03151326 0.056454144 -0.1945681 -0.18863401 -0.13819955 -0.042191233 -0.013073371
0.013107502 -0.007622983 0.062143315 0.12921248 0.13574153 0.040053654 -0.0477498 0.22612147
0.12462198 0.07144884 -0.006061278 0.10113281 0.13132733 0.06411899 -0.11172209 -0.14417957
-0.06370172 0.14353476 0.036083724 0.12779897 -0.02094237 0.14502566 0.35251954 0.26667985
0.12780838 -0.006376962 -0.0034477238 0.09698816 -0.019333519 -0.1926395 -0.3009544 -0.32282448
-0.10453935 -0.23955937 -0.20809826 -0.30738437 -0.473214 -0.30787313 -0.31850845 -0.3019504
-0.4290965 -0.4840957 -0.34470695 -0.33694428 -0.40703017 -0.39021295 -0.40910465 -0.34281078
-0.44893056 -0.13970833 -0.32207742 -0.44633695 -0.32158884 -0.30361223 0.051429756 -0.046779186
-0.035998754 -0.0037178313 0.41227415 0.2191761 0.042671204 0.24948397 0.098917715 0.43028876
-0.060700253 -0.28406385 -0.104116336 -0.15862697 -0.066118106 -0.27562007 -0.29765943 -0.11678736
-0.10267716 -0.00350359 -0.013093253 -0.25511134 0.047904275 -0.004858567 0.08507681 -0.1400837
-0.13981885 0.07378215 -0.007596011 0.08401944 -0.11829797 -0.068882294 -0.13869782 -0.17242326
-0.08875573 -0.11913155 -0.016888294 -3.1203595e-05 -0.14125335 -0.07208375 -0.111252695 -0.0013718355
-0.031754732 -0.0716051 -0.20251547 -0.24662331 -0.2773642 -0.039763875 -0.062077217 -0.13481492
-0.056191567 -0.017862285 0.064956196 0.27725697 0.24372518 0.21360818 0.13172473 0.080950275
0.11962412 0.14337055 0.2503311 -0.048902918 0.07475526 0.07008951 0.07139077 0.13651444
0.1069324 0.20548774 0.29556173 0.10284291 0.0732469 -0.04917067 -0.016430706 0.16633569
0.07470346 -0.2722381 -0.3848478 -0.38173008 -0.31829664 -0.2740491 -0.24359973 -0.31778666
-0.35674807 -0.38304192 -0.35468587 -0.30615318 -0.4474483 -0.5110612 -0.39715478 -0.39192215
-0.33466387 -0.4409749 -0.35986704 -0.4476897 -0.36795816 -0.28775924 -0.33917233 -0.35443816
-0.37466627 -0.25320452 -0.23399588 -0.19260044 -0.09509395 0.1696574 0.22189942 -0.034029506

gru.weight_hh_l0 f4 [300, 100]
00000000: 4450 27be 80b4 7d3e 772c 58bc 86c5 ff3d
00000010: 3935 443d 6513 b03d c30a 853e 9473 c73d
00000020: ad82 22be d1e3 46be 296c 98be 098b 263d
00000030: ddd1 ae3d f679 c93d 45d1 623e 29ef 34bd
00000040: 558b 173e e664 57bd 4a2f 503e 5535 433e
00000050: f737 34be 1253 bc3b d678 71be 030b 17be
00000060: d0ad 85bc d8b3 91be a223 62be aa06 1ebd
00000070: d7d8 abbd d68b 983d 2816 7e3e e3cc 4fbe
00000080: af10 5e3e 84cc 5d3e 291a d1be 2b9c bc3d
00000090: 0544 80bd f125 a6bd c31f e43d b79f 94be
000000a0: b3ab 6ebe 0254 013e 4922 52be 7d03 b53d
000000b0: f7ae 8bbd ca44 da3c b98e 723e 1652 88be
000000c0: c65b eabd 512c d0bd f56c 1fbe 20b0 e7bd
000000d0: f38f f2bb 398f 89bd 502a f33d 4e0f 153e
000000e0: 271e 363d ec94 a8bd d827 36be abd6 0bbd
000000f0: b605 413e da74 f7bc 4023 36be 3f08 fabd
00000100: e685 a5bd 7923 a2be 8130 b03e e7dd 8c3e
00000110: cb0d a23d 9c4d 6abc 5ff1 a7be f878 c7be
00000120: 2b78 83be 06d5 8ebe c512 50be d90f 7cbe
00000130: bf78 193e 475c 0b3e e711 623e 751a b4bd
00000140: fa53 663d c7a7 21bd 5ddb d83d 8bc2 1e3d
00000150: 4979 2cbe 59bd d43c b77b ccbd 9844 a93d
00000160: f5f2 683c 7773 3c3e 1939 fbbd 542d 0e3d
00000170: 1358 83be 5f12 973e 03fb debd 634f 8ebd
00000180: 923d 1d3e 8ede 573c af32 c3bd 3a6e e43d
00000190: 3d4f 493d 2268 993d 0163 923d 3f17 06bb
000001a0: 40a0 9ebe 2b4c 08be e685 d8bd 8050 103e
000001b0: dbd8 5cbb 3d80 943b ef71 bb3d cb6d 753e
000001c0: 2db2 74bd 7af3 2ebe 337c ffbd 20c2 513d
000001d0: df03 153b 9d13 58be 6e9b 89be 68b5 7ebd
000001e0: 4cde fdbd 89ee 47be 24c2 59bd 9dcb b1be
000001f0: c531 2fbe a2e0 64be 72c0 303d a1ea ac3d
00000200: 2090 313e 651f 60be 2541 413d 6e17 bbbd
00000210: 929e 95be 7407 a6be c336 233e 0bee 11ba
00000220: 1c47 3bbe 15f9 183e 1c40 25be 3eaf d4bd
00000230: f148 43be 3ddb 74be 4cc3 54be ebd4 e13d
00000240: cbc3 a1be d84a 04be 4059 c2bd 50c9 36be
00000250: 2cb2 48be e203 e9bd df86 1dbe 3f26 633e
00000260: 49b7 653d 4f9a eebc cb5d 55be a293 1abd
00000270: 5b4c 9f3d e040 37be e10f 953d c6e9 1fbd
00000280: 9fa7 933d 1c04 80bb ef30 a5bd 0112 c4bd
00000290: 5ff7 80be 371b cd3c 5aba 243e f51f 7d3c
000002a0: 0280 e3bd b4c3 693e 1765 783e 6c9b 88bb
000002b0: 62e9 e73d 64e4 37bd a3dd 133d b385 3bbc
000002c0: eb9f a5be 02b0 4b3d 7e2a b93e 69a5 57be
000002d0: b99e 6bbe ad63 5cbc 36ec cf3c eb88 99be
000002e0: 2f5e 6f3d 8a09 383e e61f 5b3e d896 b93e
000002f0: 27f6 193e e29e 22bc 1c80 9abd 3d27 ac3c
00000300: 8a07 41bd 8ce3 7d3d a1a0 3f3d d80e 193e
00000310: 740e c53d a83e 063e 4a71 3e3d 831f 71ba
00000320: 2441 99bc 22b8 343e 9c24 dbbd cb83 c33d
00000330: e080 19be b9c1 35be a3ed 62bc f7bf 023e
00000340: 8b3e cf3d 6d0d 85be 1d26 da3d 84e4 b53d
00000350: 715b 2bbd a695 f93d 5779 cdbd 5310 c2bc
00000360: 379b ed3d b3ac 5dbc aed1 013e d248 86bc
00000370: 6c57 e9bb 1021 ff3d 73da ac3d 68ac 08be
00000380: 6c1d c13c 64e1 98bd ad82 02be e12a dd3c
00000390: 953d 883d f39e 343e 57e3 3c3d f54e 14be
000003a0: 11e6 e5be 4eab 39bd 09b9 61bc 3045 3fbd
000003b0: ecd3 2e3d 40fc 813d 565d 7a3d 5ecc b83d
000003c0: ac01 633c 85ae 1db5 79df cdbd f7ff 28bd
000003d0: d633 c03d fb35 b4bd 9cd9 e1bd ff87 d13d
000003e0: 3ec0 803d 6ce3 983c 56d8 913e 2eab d1bd
000003f0: fed4 98bd 473d 123c 79a5 023e 5c0d 46be
-0.16339213 0.24775887 -0.013194195 0.124888465 0.04790232 0.08597449 0.25984773 0.09738842
-0.15870161 -0.19422843 -0.2977002 0.040659938 0.08536122 0.09837715 0.22150142 -0.044173393
0.14799245 -0.05258646 0.2033054 0.19063313 -0.17599474 0.0057472074 -0.23581252 -0.14750294
-0.016318232 -0.28457522 -0.22083905 -0.038580574 -0.08390968 0.074485466 0.2481314 -0.20293002
0.21686052 0.21660048 -0.4084027 0.09209474 -0.06262974 -0.081127055 0.111388706 -0.29028103
-0.23307686 0.12629703 -0.20520891 0.08838556 -0.06820481 0.02664413 0.23687257 -0.26625127
-0.11443286 -0.10164703 -0.15568908 -0.1131289 -0.007402414 -0.06716771 0.11873305 0.1455662
0.04446235 -0.082315296 -0.17788637 -0.03414027 0.18849835 -0.030207086 -0.17786884 -0.12208604
-0.0808218 -0.31667688 0.34412006 0.27513048 0.07912787 -0.01430073 -0.3280134 -0.3895948
-0.25677618 -0.278969 -0.2031966 -0.2461542 0.14987467 0.1360942 0.22077142 -0.08794109
0.05623243 -0.039466646 0.10588715 0.03875975 -0.16843142 0.025969194 -0.09984534 0.08265036
0.014218082 0.18403421 -0.1226675 0.034711197 -0.25653133 0.29506204 -0.108877204 -0.069487356
0.15355518 0.01317562 -0.095311515 0.111538365 0.049147833 0.07490565 0.0714779 -0.0020460633
-0.30981636 -0.13310306 -0.10572414 0.14093208 -0.0033698592 0.0045318888 0.091525905 0.23967664
-0.059740234 -0.17085066 -0.12474861 0.051210523 0.0022737903 -0.21101232 -0.26876396 -0.06218472
-0.123959154 -0.19524588 -0.053163663 -0.34725657 -0.1710883 -0.22351316 0.04315228 0.084431894
0.17340136 -0.21886976 0.047181267 -0.09135328 -0.29222542 -0.3242756 0.15938859 -0.0005566782
-0.18288845 0.14938767 -0.16137737 -0.10384987 -0.19070794 -0.23911758 -0.20777625 0.11026939
-0.3159469 -0.12919176 -0.09489679 -0.17850232 -0.19599217 -0.11377694 -0.1538348 0.22182558
0.056082997 -0.029126314 -0.2083656 -0.03773845 0.077782355 -0.17895842 0.07278419 -0.039041303
0.072097056 -0.00390674 -0.08065974 -0.095737465 -0.2518873 0.025037391 0.16086712 0.015449514
-0.111084 0.22828561 0.24257313 -0.0041689184 0.11323811 -0.044895545 0.03610004 -0.011445451
-0.3234857 0.0497284 0.3616523 -0.21059193 -0.23009767 -0.013451499 0.025381189 -0.29987273
0.05843943 0.17972389 0.21398887 0.36247897 0.15035306 -0.009925576 -0.07543966 0.021014804
-0.04712633 0.061984584 0.046784047 0.14947069 0.09621897 0.13109839 0.04649476 -0.0009198116
-0.01870782 0.17648366 -0.10700342 0.09546622 -0.14990568 -0.1774968 -0.013850602 0.12768541
0.10119351 -0.25986806 0.10651801 0.088814765 -0.041835252 0.12186746 -0.10032909 -0.023689425
0.116018705 -0.013529944 0.12677643 -0.016392145 -0.007121017 0.12457478 0.084401034 -0.13347018
0.0235736 -0.07464865 -0.12745161 0.026997985 0.06652371 0.1763876 0.046115246 -0.14483245
-0.4490209 -0.045329385 -0.013777026 -0.04669684 0.042682573 0.06346941 0.06112417 0.09023355
0.013855379 -5.8741017e-07 -0.1005239 -0.041259732 0.09384887 -0.087993585 -0.11027834 0.10231017
0.06286667 0.01866313 0.28485364 -0.10237728 -0.074625 0.0089257425 0.12758435 -0.19341034

gru.bias_ih_l0 f4 [300]
00000000: d73b 0c3d 4e02 a2bd e9f2 03be 3bb0 34bd
00000010: 7f9c 53bd a702 b9bd f680 10bd c51e 6d3c
00000020: 9a3b 2e3d c146 05be 0fa6 04be 7010 f3bd
00000030: 69d5 14bd 1c56 fabc a9b1 2dbe 6ebe 1ebe
00000040: 62f2 ffbd 8164 fcbd d842 20be b094 25bc
00000050: 1a92 7bbd 9deb 6a3c 2758 a2bc 60a4 6f3c
00000060: 8fd8 fe3b 1408 a2bd acf5 edbc 3db3 e03b
00000070: 99c5 f4bd 8db0 cebb 7ac5 29bd 913f 6ebd
00000080: f873 42be 7036 f5bd 17c0 a2bd 9491 74bd
00000090: 715c 78bd f804 e63b 9d16 da3b 7a58 6d3d
000000a0: dfd1 63bd 8d52 9a3c 24c6 24be c108 91bd
000000b0: 585f b13d 69c6 55be 5da7 22bc fb64 aebd
000000c0: fcd4 f1bc de6d b3bc 3cc3 d8bb 9f13 e5bd
000000d0: 615b 11be abb8 503e 8832 e6bd 81cf 6d3d
000000e0: a7ea dcbd 1b8a 8d3c 7f90 1b3d 3d6c 58bd
000000f0: 5afe 80be 1701 3cbe ffe0 f0bd c77d 6abd
00000100: c060 12bc f4a8 3dbd de91 1c3e 15c0 11bc
00000110: 1a82 0dbe c2f3 11be f4b6 0abd 8ef2 24be
00000120: 7464 52be c73e aabd cc58 9cbd ea6e b4bd
00000130: 0553 34bd 6af0 f8bd 4063 24bd b839 7bbd
00000140: 08d2 d23d 0bef aabd e064 ddbd 1e1c 36bb
00000150: 4951 05be 9a70 68bd 947e 283e 2de7 bbbd
00000160: ec83 11be 3d75 a7bd 2cf3 61bd 314f e13b
00000170: 7daf 10be da7c 1bbd 3f20 de3d e769 77bd
00000180: ce9d 873d 3322 3b3d 9148 df3b edd8 dabd
00000190: 3319 7d3e 144c 4a3e 9e5a 733c 8871 273e
000001a0: 0267 8b3d c21e cf3d 0b3b b13d 0544 dabd
000001b0: e31c 5cbd 2dc6 9dbd 5b04 033e 66c5 21bd
000001c0: dfb4 97bb ca7a 343d 97af 6cbc b7e4 243e
000001d0: 1885 6c3d 0d08 583d 0a36 afbd dfe4 3e3d
000001e0: 453a da3c 2089 afbb f9a0 cc3c 000b 8c3d
000001f0: cd27 783e cc4f 2e3d 295a 623e 6434 1cbe
00000200: 26e1 f0bd 1f59 133d 829f c7bd f8b2 5f3e
00000210: 9f96 66bd 64fa 87be 1564 63bd 677f 3c3d
00000220: 9932 6a3e d861 313e 9494 803e fc80 6bbe
00000230: ad02 19bd bdf7 ef3c ccaf 48bd a6ce d9bb
00000240: 8811 973e dde2 e8bd 25a4 da3d 21b1 a43d
00000250: f67c 1e3e d8a9 1abd f691 183d a4b2 143e
00000260: 0f43 623d be8e dc3d 48ff 03bd 7b6f 2a3c
00000270: a695 06bd 37a9 443d 15a0 123e f5d4 083d
00000280: 8528 9d3d cebf 11be 083a 903d f68f 3d3c
00000290: 6b54 053d 2bb4 d73d 1114 853e fb15 8a3c
000002a0: 0a26 903d ac1e 5e3d be63 84bc 3c10 d1bd
000002b0: c241 aabd 10b4 b4bd 508c 5abe 4b2f 1c3e
000002c0: f1f4 1b3e eb75 003e 4160 683e 4c1a ce3d
000002d0: fe43 d93c 79b5 2cbe b87c e53d b263 b43c
000002e0: 9d8d eebd b0db ba3c 3401 093e bc5e 9c3d
000002f0: ace9 8bbd bb99 5d3c dcd4 523e ec06 57be
00000300: a823 d03d 8fb3 e5bd 976b 5cbd f9fc f43d
00000310: 6d8c 153e ac10 cf3d e202 853d 8f68 d53d
00000320: af34 ddbc b3fb 3d3d 6b41 ca3c 2c38 003e
00000330: f641 5cbd 7c10 b43d ec0b d63b b0c4 f8bd
00000340: 1902 b1bd d2ab e3bb ab80 db3d 89bd a73d
00000350: 1fd0 e03d b2a6 773d e22a 0ebd 2262 1d3e
00000360: 5ac5 38be 266c 373d af83 3cbe 0d07 00bc
00000370: a3ac 69bd 7b81 8abd 5620 b6b8 3e7e b83d
00000380: 4b83 cebc a64d acbd 3314 b13a 8a09 a83d
00000390: b227 4f3e dc56 39bd 89dd efbd b024 2abc
000003a0: 3cbc 91bc 2a08 47be 8bcd 923b 62ae 58bd
000003b0: ec20 96bd 43ce 233c 4b71 16bd 8e5c 4fbe
000003c0: be1f a4bd eb7e a8bc 88dc 063d fcb5 bf3b
000003d0: d88f cebc 7b10 b1bd 3c48 043d c3ea 6cbd
000003e0: 3c44 553d e6ec a83d c74c c0bc f22a b73d
000003f0: 5af3 1cbd d7ff 1e3d e7dd 4abd eb57 10be
0.034236755 -0.07910596 -0.12885632 -0.04411338 -0.05166292 -0.09033709 -0.035279237 0.014472668
0.04253731 -0.13015272 -0.12953971 -0.118683696 -0.036336336 -0.030558638 -0.16962303 -0.1550233
-0.12497403 -0.12323857 -0.15650499 -0.010106251 -0.06141863 0.014338401 -0.019817425 0.014626592
0.0077772806 -0.07911697 -0.02904781 0.0068573044 -0.11951751 -0.0063076676 -0.041448094 -0.05816609
-0.18989551 -0.11973274 -0.079467945 -0.059709147 -0.060635034 0.0070196353 0.0066555277 0.057945706
-0.05562007 0.018838191 -0.1609121 -0.07081748 0.086607635 -0.20876469 -0.009927598 -0.08515354
-0.029520504 -0.021902975 -0.0066150706 -0.11185383 -0.14195015 0.20382945 -0.11240107 0.05805922
-0.10786944 0.017277768 0.0379796 -0.0528376 -0.25194055 -0.1835979 -0.117616646 -0.057248857
-0.0089342 -0.046303704 0.15290019 -0.008895894 -0.13819161 -0.14253142 -0.033865884 -0.16108152
-0.20546132 -0.08312755 -0.07634124 -0.08810218 -0.044024486 -0.1215523 -0.040133715 -0.06133434
0.102939665 -0.08346375 -0.10810256 -0.0027787755 -0.13019289 -0.05674801 0.16454536 -0.09174953
-0.1421048 -0.08176658 -0.055163547 0.0068758954 -0.14129443 -0.037960865 0.10845994 -0.06040373
0.06621896 0.04568691 0.0068140705 -0.106859066 0.24716644 0.19755584 0.014853148 0.16351902
0.068067566 0.101132885 0.0865384 -0.10657505 -0.053738486 -0.07703815 0.1279463 -0.039494894
-0.004629716 0.044062413 -0.014446161 0.16102873 0.057744116 0.052742053 -0.08555229 0.046604987
0.026639113 -0.0053569227 0.024979101 0.068380356 0.24233933 0.04255657 0.22104706 -0.1525436
-0.11761694 0.035973664 -0.097472206 0.21845615 -0.056295987 -0.2655822 -0.055515368 0.046019938
0.22870864 0.1732248 0.25113356 -0.22998422 -0.037356067 0.029292936 -0.048995778 -0.006646949
0.29505563 -0.11371396 0.10675839 0.08041597 0.15477356 -0.037759632 0.037248574 0.14521271
0.055239733 0.107694134 -0.032225877 0.010402556 -0.03285756 0.04801294 0.14318879 0.033406217
0.07673744 -0.14233324 0.070423186 0.0115699675 0.03255121 0.10532411 0.25991872 0.016856184
0.070385054 0.05422847 -0.016160842 -0.102081746 -0.083133236 -0.08823407 -0.21342587 0.15252416
0.15230156 0.12544982 0.22692968 0.100636095 0.026521679 -0.16866101 0.11205429 0.022020195
-0.11648104 0.022809833 0.13379365 0.07635257 -0.06831679 0.013525422 0.20589012 -0.20998734
0.10163051 -0.11215889 -0.053813543 0.11962313 0.1460435 0.10110602 0.064946905 0.104203336
-0.02700266 0.046382617 0.024689397 0.12521428 -0.053773843 0.08792207 0.006532183 -0.1214689
-0.08642978 -0.006947973 0.10717901 0.08190448 0.10977196 0.060461707 -0.034708865 0.15369466
-0.18044034 0.044780873 -0.18409608 -0.007814181 -0.057049405 -0.06762978 -8.684459e-05 0.09008454
-0.02520909 -0.08413248 0.0013510048 0.082049444 0.20229986 -0.04524885 -0.11712176 -0.010384724
-0.017789952 -0.19436708 0.004480069 -0.05290068 -0.07330498 0.009997907 -0.03672914 -0.2025015
-0.08013867 -0.020568332 0.03292516 0.0058505516 -0.025215074 -0.086457215 0.03229545 -0.057841074
0.052067026 0.0824831 -0.02347411 0.08943738 -0.038318016 0.038818207 -0.04952803 -0.14096038

gru.bias_hh_l0 f4 [300]
00000000: a1ff 3d3c 3c41 d4bc 57a5 d8bd 739b 2dbe
00000010: ed18 06be c6ee 20be af54 aa3d 2e68 6fbd
00000020: 8565 37bd b7e4 03be 595c bebd 81ae b8bc
00000030: 1bbb 3bbd 5e8c 393d 4336 18be 9327 15be
00000040: 2ac4 78ba 16a2 3c3c cba8 13be 76c3 673d
00000050: 319a 04be dd8f 7a3d 1c22 11be 8db1 2f3c
00000060: c5d6 c439 6b67 9ebd 704e e7bd e415 1bbd
00000070: dffa 3f3c af6c c3bd 8154 53bb 50eb 36be
00000080: 0825 99bd 3a1b 9bbd 4d97 023d 8535 b6bd
00000090: 99a4 143d b240 adbd 3817 8fbd 6e57 6cbd
000000a0: 9bad 93bd 104c 89bd eeab 33be 65c2 86bd
000000b0: 1631 e43c 164a 48be f500 6bbd 043c 0e3c
000000c0: d7ee 073b 5c88 09be 7877 24be 9412 4abe
000000d0: 6f07 53be eb1c 053e f870 1cbb 0f48 aabc
000000e0: bbbe 37be c146 9fbd 9869 babc 438c 96bd
000000f0: 2d07 2dbe 9c81 42bd 242d 9dbd af23 07bd
00000100: 05da d5bd 4967 64bd ee8f bd3d 3fcd a1bb
00000110: eea7 79bd 9b8f b3bc fbe3 753d 74cc 3cbd
00000120: 6ce5 41bd d64f 27be b6f3 08be 2f08 c1bd
00000130: 3942 1abd 78ba 0ebe 0b18 43be f0c3 8abd
00000140: a102 293d e3a1 52bd c004 82bc d582 a93c
00000150: 1a53 04bd 01d0 b5bd 3efe 753d fb9b 01bc
00000160: 76e9 babd f606 63be 8cfb 7ebc 65d3 eebd
00000170: 5b9b 99bd 7895 64bd f2c4 033e 9c40 87bd
00000180: c603 c73d 7210 aebd e430 953d dd0e b9bd
00000190: 8ef1 2a3e f9d2 813e 9d4a ab3c e0fe 0f3e
000001a0: 3c73 973d 38ee fcbc 0832 933d d472 8abd
000001b0: ab1d 113d 8a91 c3bd dd7e c73d 202c 5abd
000001c0: a244 883d 00b6 64bd 14a9 00bc c18c f33d
000001d0: 6094 323e 8184 e43d 3a8b 9fbd 8b06 003e
000001e0: 37b7 91bc 024d a93c 8227 abbc a552 d63d
000001f0: 023d 9f3e 2707 f9bd ce4c be3d 153f 11be
00000200: a446 71be df04 f33d 0a3c 943c f203 0d3e
00000210: 3a94 97bd 3021 84be 0c71 f6bd c123 8c3b
00000220: 8358 8a3e 462c 1b3e 3a70 783e 1ac9 59be
00000230: 2f56 06bd 5723 c3bc 3453 b43d ae4b cebc
00000240: d4bd d13e 4b90 b0bd 85ec f13d 32cf bf3d
00000250: 5617 113e 63ae faba 320f 9a3d 13c6 213e
00000260: c825 f83b 3a62 363d a2b9 86bd 8449 863d
00000270: 3988 01be d2ea 083d a2dc c23d 64f8 adbd
00000280: 6706 9d3d 3199 3fbe e461 933c 0097 86bd
00000290: adba f33d ff57 de3d 13cf 253e a983 8a3d
000002a0: 3d9d 3bbd fb7a de3d 2cd1 b5bb 0455 70bd
000002b0: 8c27 babd e025 75bd 1332 21be 3a6e 4a3e
000002c0: 65ad ea3d babc 9c3d b2eb 6f3e 8d80 a43d
000002d0: f06b 883b a24f 21be f9e9 553e 6773 80bd
000002e0: 5c97 13bd b1f9 703d a6b4 a73b c1c7 093c
000002f0: f73f 52bd 8af5 603d ba0b 453e 6aff 56be
00000300: 7152 133e 95c5 18bd 4a28 cabd 27f4 963d
00000310: 2649 053e 5d01 8c3d 82cf 1d3e 42d3 ca3c
00000320: 1624 4dbd 69d5 ad3c 4822 59bd 06c7 093d
00000330: 196c 3dbd 33ba a23d a61f 6c3d 59e1 58bd
00000340: c894 a8bd 415e cc3d 11a7 36bd c0c5 113e
00000350: 472b e63d c9d2 cd3d 961f 003c b170 883c
00000360: 9c43 e1bd 8a10 d7bd a838 e7bd 983e 07bd
00000370: 5e7d 983d ef22 00be f98a 653d 8933 2b3e
00000380: 32a1 3b3c d58a ef3c 56dd 81bd 4b0a 6f3e
00000390: 4888 283e 7e95 05bd 7f21 ad3c 8765 513d
000003a0: 2ad5 1a3d 99d8 efbd b529 363e d416 d0bd
000003b0: 5eab 16bd ffa8 9a3b 3785 01be b702 a23d
000003c0: da3a 97bd a34f e1bd a917 8b3d 9266 663d
000003d0: d42a b1bd 004c 51bc 79b6 413b f832 1cbe
000003e0: e994 063e afa9 323e 74f5 c1bc de39 ea3d
000003f0: bef3 f13c 0002 753d 6f61 a93c 990c e3bc
0.011596591 -0.025910012 -0.10578411 -0.1695383 -0.13095446 -0.15716085 0.08316933 -0.058448963
-0.04477455 -0.12880217 -0.09294958 -0.022544147 -0.045832735 0.04529988 -0.14864449 -0.14565878
-0.000948968 0.011513254 -0.14419858 0.05658289 -0.12949444 0.061172355 -0.14173168 0.010723484
0.0003754405 -0.07734569 -0.11294258 -0.037862673 0.011717527 -0.09542214 -0.0032246413 -0.17863202
-0.07477766 -0.075735524 0.031882573 -0.08896927 0.036289785 -0.08459605 -0.069868505 -0.057700567
-0.07210847 -0.06703961 -0.17546055 -0.065800466 0.027855437 -0.19559512 -0.05737396 0.008681301
0.0020741725 -0.13430923 -0.16061199 -0.1973365 -0.20608304 0.12999313 -0.0023871046 -0.020786313
-0.17943852 -0.07777167 -0.02275543 -0.073509715 -0.16897269 -0.047486886 -0.076746255 -0.032993015
-0.104419746 -0.055762563 0.09255968 -0.0049377973 -0.060951166 -0.021919062 0.060031872 -0.04609342
-0.047337934 -0.16339049 -0.13374218 -0.09425389 -0.03766081 -0.1393832 -0.1905214 -0.06775653
0.041262273 -0.05142392 -0.015871406 0.020692268 -0.032305814 -0.08877564 0.060056917 -0.007910724
-0.091265604 -0.22170624 -0.015562903 -0.11661414 -0.07500335 -0.055806607 0.12868097 -0.0660412
0.097175166 -0.084992304 0.07284716 -0.09036038 0.16693708 0.25356272 0.020909602 0.14062071
0.07395026 -0.03087531 0.07187277 -0.06760183 0.035428684 -0.09549244 0.09740994 -0.053264737
0.06653716 -0.05583763 -0.007852811 0.11892081 0.17439413 0.111580856 -0.07790227 0.12502496
-0.017787559 0.020666603 -0.020892862 0.10464982 0.31101233 -0.12159567 0.09291993 -0.1418422
-0.23562104 0.118661635 0.018095035 0.13771036 -0.07401319 -0.2580657 -0.12033281 0.004276723
0.27020654 0.15153608 0.24261561 -0.2126812 -0.032797035 -0.023820562 0.08804932 -0.025182571
0.4096514 -0.08621272 0.11812691 0.09365691 0.14169058 -0.0019125458 0.075224295 0.15798216
0.0075728633 0.04452727 -0.065783754 0.06556991 -0.12649621 0.033427067 0.095147386 -0.084946424
0.07667237 -0.18710782 0.017991014 -0.0657177 0.1190084 0.10856628 0.16192274 0.067633934
-0.04580425 0.108633004 -0.005548617 -0.058674827 -0.09089574 -0.059850574 -0.15741758 0.1976861
0.11458854 0.07653184 0.23429754 0.080323316 0.004163258 -0.15753034 0.20890035 -0.06272011
-0.03603302 0.058831874 0.0051179705 0.008409441 -0.051330533 0.054921664 0.19242755 -0.2099587
0.14386918 -0.037297804 -0.09870966 0.07370787 0.13016185 0.068361975 0.15411189 0.024758939
-0.050083242 0.021219926 -0.05301121 0.03363707 -0.046245668 0.07945671 0.05764737 -0.052949283
-0.08231503 0.09978915 -0.04459292 0.14235592 0.11238723 0.1004997 0.007820031 0.016655298
-0.109992236 -0.105012015 -0.11290103 -0.03301868 0.07445787 -0.12513326 0.056040738 0.16718878
0.011452006 0.029241005 -0.063410446 0.2334377 0.16458237 -0.03261327 0.021134136 0.051122215
0.037800945 -0.117112346 0.17789347 -0.10160604 -0.036784522 0.004719853 -0.12648474 0.07910674
-0.07384272 -0.110015176 0.06791622 0.056250162 -0.08650747 -0.0127744675 0.0029558225 -0.15253818
0.13142742 0.17447542 -0.023676611 0.114368185 0.02953517 0.05981636 0.020676343 -0.027715968

dense_output.0.weight f4 [100, 100]
00000000: b5d0 1fbd 7f71 cbbc b0a8 aebc 3e76 81be
00000010: 9f32 f83c 8f76 2f3c 3eb0 823d b543 a53d
00000020: ef63 17bc 8056 d33d ae0e ef3d b6f4 d53d
00000030: 05f0 e33c a601 26be 1951 0d3d 6e0f f63d
00000040: efa6 e03d 39ed 4bbd 8d48 a1bd 3c37 31bd
00000050: 986a 00bd db12 9c3b 3120 83bd ba1a 7cbc
00000060: aae9 efbc e333 7a3d ec38 903d ebac a6bd
00000070: f9f3 9bbd 3152 453b 71cd b93d 49ce fe3c
00000080: 2062 763b 0069 0a3b 3a41 3fbd 516a 96bd
00000090: 12c0 8bbd d52b afbc 36c2 13be ab95 203e
000000a0: b666 babc e44f 83bd 2dd4 063e a894 07bd
000000b0: 2d46 f3bd 0765 cf3c 5687 913c c51c 323d
000000c0: 258e b8bd 4b61 d2ba 3f15 82bd 14b7 733d
000000d0: 9525 9dbd 5cbd 11be ea5e 86bc 4018 a63b
000000e0: e654 d73d 1b5d 80bd 15e3 7e3c 29da cbbd
000000f0: 4dc5 563d 501f 00bd bdfa aebc 25b9 ddbb
00000100: 49c2 53bd d61c 423d fa03 103e d701 fabc
00000110: 4ef6 c03b f704 ffbc eba3 e43d d03c b03c
00000120: 8949 f03d 4a68 fc3d 3b18 093e 875c fe3d
00000130: 7fc0 48bc 2681 21be a681 9cbd 8dd9 4dbe
00000140: 3eaa c2bd 6151 8b3d 7719 9ebd 1dc0 4abe
00000150: 148d cbbd f0a4 a93d 4037 273c f036 ab3d
00000160: 4566 ef3d 5ddc 7cbb 060b 19bd 7ba9 a9bd
00000170: 1b5b a7bb 5540 f4bc ea80 14be f725 983c
00000180: b7df cc3d 1a6a 3f3d 68d6 d0bc 9fd0 dcbd
00000190: 8dcd f63d 009f 033d d629 1c3d 8eb9 86bd
000001a0: f1e5 b73c ac06 adbc bf10 0c3d 612d 2e3d
000001b0: c7ef a93d de40 3c3d 3aad 20bc d4a4 e8bc
000001c0: 9507 bcbd b17e 0cbe b574 b63d e511 a9ba
000001d0: 0413 ca3d ca9a b2bd edee b03c bb1f b03d
000001e0: eca0 fc3d 6c12 5ebd 60a8 c2bd 1428 cb3b
000001f0: 345f 403c 80e8 cc3d f6eb 4dbd 6212 f0bc
00000200: 4102 fabd d77e dcbd 6e58 163d 7c90 0d3e
00000210: 67ee 423d 4339 3b3e cb46 62bd 4e78 e2bb
00000220: 6f79 9bbd e928 973d 32ec 39bd b88d 433e
00000230: db17 d4bb ed84 c9bd 628d abbc def7 97bc
00000240: 5f1b 04be 6653 4a3d 9fc8 6a3c 390d 503c
00000250: 9b63 c5bd 913b 6bbc b28e ae3d d527 86bc
00000260: d357 813c 6e3b c1bd a8a7 103e e5b6 c43d
00000270: bb01 f53c e12d b7bc d4f5 243d 70c7 04be
00000280: 43d5 183d 5b57 303b 64ee eebd df45 43bd
00000290: fecb 3ebd 1c0a 8e3d 05f3 e3bc 67e7 35bd
000002a0: c7dd 5f3d ac16 9e3d 919c f93c 49bc d83c
000002b0: 8e99 8d3b de98 9bbc 4bcb 763e 2f42 103e
000002c0: 35cb 48bd 7e83 8b3c 8ccb e7bd 96f8 5abe
000002d0: ca63 d8bd 63f5 093d d7f5 a5bd e292 3cbe
000002e0: 83e6 afbd 982d e1bb 7008 d03d e765 b53d
000002f0: 5821 a2bb 4485 c63d 0081 053c 34aa 1ebe
00000300: c418 4c3c 4e27 4e3d d2a6 52bd b294 3cbd
00000310: e62a 173e 7bc0 243e 94de 11bc 4a7e 90bc
00000320: 438f ce3d 2ee4 90bd 6609 95bd 0929 e23c
00000330: 0202 2abd c62b 0f3d 8451 5fbd 3a33 a13a
00000340: bbcb ddbb 8e33 233d f046 ff3c 1e82 183d
00000350: 7f5d b13c 5c41 3fbd 5227 63bb 5073 543d
00000360: d4c8 91bd 4a6e ef3c 97b8 14be 7ef8 593d
00000370: 1003 0b3d e19b c83d e88a e23c 3f4b 8fbc
00000380: fa54 44bd afce f23c 6cac cb3d 3bb9 e5bc
00000390: d685 2ebd 7905 cf3c 68ab 03bd dc4f 363d
000003a0: 9586 5d3d b662 7ebc e11d e63b 085c bd3d
000003b0: 3aa1 76bd e959 c33d 6f11 24bc 316a 88bd
000003c0: 33ce 64bc 3bf7 1f3d 616f 95bc 15d0 8fba
000003d0: 3f26 11be a3d9 803d 8d7b 143d e2f4 9dbc
000003e0: 8daa cbbd 92a2 f0bc 6340 dc3b 9c88 7abd
000003f0: d066 1dbd fbb5 96bb cc7e 05bd f1b6 13bd
-0.039017398 -0.024834393 -0.02132067 -0.25285524 0.030297576 0.010709419 0.06381272 0.08069555
-0.009240135 0.10319233 0.11672722 0.104470655 0.027824411 -0.16211566 0.03450117 0.12014662
0.1096934 -0.04978678 -0.07875166 -0.043265566 -0.031351656 0.00476299 -0.064026244 -0.0153872315
-0.029286224 0.06108464 0.07042107 -0.0813845 -0.076148935 0.0030108804 0.09072388 0.031104224
0.0037595108 0.0021119714 -0.046693064 -0.07344497 -0.06823744 -0.021383205 -0.14429554 0.15682094
-0.022754055 -0.06411722 0.13166876 -0.033100754 -0.11878619 0.025316728 0.017764729 0.043484468
-0.09011487 -0.0016050724 -0.063517086 0.05950077 -0.07673184 -0.14232391 -0.01640268 0.005068809
0.1051424 -0.062677585 0.01555707 -0.0995372 0.052434254 -0.031279862 -0.021359796 -0.0067664557
-0.051698957 0.04739078 0.14064017 -0.030518455 0.005888737 -0.031130297 0.11164077 0.021513373
0.11732776 0.12324579 0.1338815 0.12419992 -0.012252926 -0.15771922 -0.07641916 -0.2010252
-0.09505127 0.06802631 -0.07719701 -0.19799848 -0.09939018 0.082834125 0.010206044 0.08360088
0.11689428 -0.0038583495 -0.03736403 -0.08284279 -0.005107296 -0.029815832 -0.14502302 0.01857279
0.10003608 0.046732046 -0.025492862 -0.10781979 0.120509245 0.032134056 0.038125835 -0.065783605
0.022448512 -0.021121345 0.034195658 0.042523745 0.08297687 0.0459603 -0.009806925 -0.028398909
-0.09181134 -0.13720204 0.08908979 -0.001289901 0.09866908 -0.0872093 0.021598304 0.08599802
0.12335381 -0.054216787 -0.09504771 0.006199846 0.011741448 0.10005283 -0.050273858 -0.02930564
-0.12207461 -0.1076638 0.036705427 0.13824648 0.04759064 0.18283562 -0.055243295 -0.006911314
-0.07591521 0.0738085 -0.04539127 0.1909703 -0.0064725704 -0.09839807 -0.02094144 -0.01855081
-0.12901066 0.04939594 0.014330058 0.012698465 -0.09638139 -0.014357463 0.08523311 -0.016376415
0.015788948 -0.094351634 0.14126456 0.09605197 0.029908052 -0.022360744 0.040273502 -0.12966704
0.037312757 0.0026907537 -0.11666563 -0.047674056 -0.04658126 0.06935522 -0.027825842 -0.044410136
0.054654863 0.07719168 0.030470164 0.026456969 0.0043212837 -0.018993791 0.24100988 0.14087747
-0.04902192 0.017030474 -0.1131812 -0.2138389 -0.10565908 0.033681285 -0.08103531 -0.18415406
-0.085888885 -0.0068718903 0.10157859 0.08857327 -0.0049478225 0.09693387 0.008148432 -0.15494615
0.012457076 0.050330453 -0.051428623 -0.046040244 0.14762458 0.1608905 -0.008903164 -0.017638344
0.10085919 -0.07074772 -0.07277183 0.027607458 -0.04150582 0.034953855 -0.0545211 0.0012298592
-0.0067686713 0.03984409 0.031161755 0.037233464 0.021651028 -0.04669319 -0.0034660888 0.051867783
-0.07118383 0.029227395 -0.1452354 0.053215496 0.033938468 0.097953565 0.027654126 -0.017491935
-0.047932602 0.02963957 0.09944996 -0.028042426 -0.042608105 0.025271164 -0.032145888 0.044509754
0.054083426 -0.015526464 0.007022605 0.09246069 -0.06021235 0.095386334 -0.010013922 -0.066608794
-0.013965177 0.039054137 -0.018241586 -0.0010972047 -0.14174746 0.06291511 0.03625064 -0.019281808
-0.09944639 -0.029374395 0.0067215427 -0.061165437 -0.038428128 -0.0045993305 -0.032591626 -0.03606314

dense_output.0.bias f4 [100]
00000000: 51a5 713d 3084 5dbe a70a 38be ee08 14be
00000010: 05cb e7bc 48fa 5bbe ce11 57bc e494 c43d
00000020: 206c 12be 6874 16be da2e b0bd 4dcd 52be
00000030: 029b 233d bdfc febd 52ff a9bd 63b5 2a3c
00000040: 4e62 9b3d a0ee d0bd 84ab 99bd 5d3b e7bd
00000050: 8fa2 cebd ac05 47be 69a1 61be abc0 823d
00000060: 052e 0cbe f60d bbbd 1f13 07be 94ec cdbc
00000070: a46c 96bd 06a1 08be f55b 3fbd 373c d13c
00000080: b094 1e3d 53c1 073e 7641 cbbd e350 76bd
00000090: 2bbb c23d 11bf eebd 0645 b5bd d90e c43d
000000a0: 5fa0 60bd 451d fabd e1c1 a1bd 989e 0b3d
000000b0: 11da 0cbe abea b2bd 33bb 21be 6434 33be
000000c0: 8024 e83b 10c4 e03d a6fd 4dbe 986f eabd
000000d0: 9037 863d 7aa4 ca3c 1ae7 fdbc bd7d bf3c
000000e0: e5f8 d6bc 897c 48be 55c4 183e 05e4 0bbc
000000f0: 8f8d 0abe 1719 dd3d ba64 313b e9b1 f4bc
00000100: f15d ec3d 2b23 80bc 1528 97bd 7203 9abd
00000110: 6478 2fbd c0be 7d3d ba4e 97bd eeb8 06bd
00000120: df59 c7bd 41c4 24be 105b 0d3c 485f a3bd
00000130: 6bdb 37be 1b7b c6bd 7850 923d 7e99 36be
00000140: 538e 363e fbd7 83bc a8a8 5a3d 2ddf 3abe
00000150: 385b bf3d 84d9 3f3e 6efa 0abd 92e3 53bd
00000160: ea18 bc3d c9c1 afbd a18e d1bd 2e31 04be
00000170: ad6f 093c 3f56 08be 019f ccbd eebd ccbd
00000180: 87d5 3fbe 5f21 4dbe b87b c33b 0ac4 0f3e
0.05899555 -0.21632457 -0.17972814 -0.14456531 -0.02829505 -0.21482193 -0.013126804 0.09598711
-0.14299059 -0.14692843 -0.08602686 -0.20586129 0.03994275 -0.1245055 -0.083006516 0.0104192225
0.075871095 -0.10201764 -0.07503417 -0.112906195 -0.10089599 -0.19435757 -0.2203423 0.06384405
-0.1368943 -0.09133522 -0.13190888 -0.025137223 -0.0734494 -0.13342676 -0.046718556 0.025541408
0.03871602 0.13257341 -0.09924595 -0.060135733 0.09508356 -0.11657537 -0.08851056 0.095731445
-0.05484044 -0.12212614 -0.078983076 0.034086794 -0.1375506 -0.087361656 -0.15794067 -0.17500454
0.0070844293 0.10974896 -0.2011629 -0.11447066 0.065535665 0.024736632 -0.030993987 0.023375386
-0.026241729 -0.19578756 0.14918645 -0.008538251 -0.13530563 0.10795801 0.0027068094 -0.02986999
0.115413554 -0.01564177 -0.07380692 -0.075201884 -0.042839423 0.06194949 -0.07388063 -0.032891206
-0.097339384 -0.1609049 0.008627668 -0.07977158 -0.17954795 -0.09691449 0.071442544 -0.1783199
0.1782773 -0.016094198 0.0533835 -0.18249197 0.093435705 0.1873532 -0.033930235 -0.0517307
0.091844395 -0.085818835 -0.102322824 -0.12909386 0.008388442 -0.1331415 -0.09991265 -0.09997164
-0.18733798 -0.20032261 0.005965676 0.14039627

dense_output.3.weight f4 [9, 100]
00000000: f612 2c3d e6bf 2bbd d776 9fbb 42ae 57bd
00000010: 5dfd 423c 2288 39bc aa88 3c3c 5764 16bc
00000020: c933 d43a 13aa 0d3c 176c a8bc fdb0 1dba
00000030: 7cda 3d3c 880e 1d3d 6e53 34bd 867e d03c
00000040: d0e0 4e3d 24c3 373c 6762 493d c431 853c
00000050: c3ea f8bc e825 5dbc 1232 d9bd 6f78 583d
00000060: 5611 233d e33b c23b 7132 4a3c fb92 d93c
00000070: 24c2 b6bc f9a7 01bd 6506 163c 20d9 d63b
00000080: 33c4 913d 374b 2f3c 72ed 1a3c d5b9 97bb
00000090: cea3 1c3d 0e26 3a3d e5c8 1cbd 6ca0 423d
000000a0: d872 51ba 113c 413d dcde 5dbd ce99 8f3d
000000b0: b612 75bc 3d1b 7bbc 4edd a43b b4e9 b1bd
000000c0: 6cee 9b3d b7c3 1a3d e28a 86bd 4fa5 9c3b
000000d0: fcfb 5f3d a2e3 613c a7c7 03bd c356 24bd
000000e0: 8e3a 893c 7739 f4bd 5dfa 973d 78c9 0f3e
000000f0: c26f 9c3c 2c13 08bb e860 b33c 26ae b43b
00000100: 9f87 2e3d 0142 013c 7690 623a 32bb 863d
00000110: 4980 2a3d fbf2 243c d14b 27bd df5b 39bd
00000120: 273a 50bc 6da4 5dbd 1c38 b9bc 40ec 173b
00000130: ac08 75bb 53ed 803d d8b8 0e3d caf8 3cbe
00000140: c0c8 823d 50cf 47ba e5b1 663c f62f cfbc
00000150: c279 7c3d 2950 bebb 0565 7d3d 0770 3cbd
00000160: 6244 393d 0899 c3ba db57 4f3e 6114 4c3c
00000170: 6634 473d d6a5 cdbc ade8 cf3b f069 fdbc
00000180: 963d e73c 9813 983c 0a0a 54bb f8d5 c23c
00000190: d524 303d 9fc3 46bd 942f 04bc d180 3b3b
000001a0: 8909 aabc bf47 1d3c 4789 17bb f31d 6aba
000001b0: a330 123b b26a 7a3d 6542 473d e944 06bd
000001c0: 0219 c73c 1823 b83c d8b2 0c3d cd4f 083d
000001d0: 732e 7e3d 6adb ff3c d64a c53c 0c19 173d
000001e0: f7b7 323c ae86 72bc 5153 d2bd 9739 5c3d
000001f0: 1351 8bbd 7d99 8fbb da6b 28bc 0c19 69bc
00000200: 2fc0 ea3b 8770 003d aa68 1cbc e830 a7bb
00000210: 5e51 853d 6432 abbb d5ef 79bd 8706 bd3c
00000220: 67d9 503d 04c8 20bd d79d bdbc 3e1b 353d
00000230: 5c9f ebbb 1e5b 223d a166 ccbc f6f4 713d
00000240: 5523 933a adff c03c 3a91 bc3c 3190 b4bd
00000250: 28a2 9a3d b541 bc3c 38e4 95bd c054 2d3d
00000260: 19fe 373d 873d b5bb a67b 7d3c a613 1cbd
00000270: eb29 8f3c e873 6bbd 5d9c 9f3d a82e 0f3e
00000280: 85c3 983c 621d 47bc 562b e83c ed4d 04bc
00000290: 5053 323d 9b6c 96ba 71c6 833b f616 9f3d
000002a0: 8e21 4dbd 1ca6 d23c dd67 72bc b8af dcbc
000002b0: 0a26 a2bc 11f5 2f3d baed ee3b f907 dfbb
000002c0: 3c1f 153b 167e 183d 9668 ab3c f18a 3ebe
000002d0: 4f4b 793d 70d0 1f3c b6df 1f3c 7dd3 bb3b
000002e0: bea3 913c a0cd 023d 43ca 863d caf0 1fbd
000002f0: fec7 423d 89c2 d93b ae42 4b3e 8b33 ea3c
00000300: 7478 f03c fc2e 2cbd 3404 693a 085f 3b3c
00000310: a7dd b63c d13f 08bd e208 713c 2ee9 013d
00000320: cd9f 523d 34aa 46bd fd77 a5bb 1702 863b
00000330: 9f60 473d eeef dfbc 8728 e439 b315 8e3c
00000340: 1ef7 533d 76a8 353c b9df 1b3c 7f6a 6d3c
00000350: ac19 063d e291 703c 2f33 e8bc a633 ad3c
00000360: 5065 7a3d 3ddf 473c 5b0c c9bb a397 e83a
00000370: 8140 75bc 6701 acbc 5c49 bfbd c7b2 553d
00000380: d7ba 8f3d 55b6 c03b 7fc9 883a 4a93 60bb
00000390: b371 35bd 753d 01bd 0e56 f8bb c789 67bb
000003a0: fe23 8a3d 3600 ca3b b447 1ebd 2390 b13c
000003b0: d177 563d 85fa a93d 7ea3 0a3d fb23 853c
000003c0: 489e f4bc a541 14bc ab87 b6bb 0ff7 723d
000003d0: 5c1e bbbb ccb4 d93b 9dc7 903c 0bea c5bd
000003e0: 525c 9c3d 0883 113c 2f18 77bd 129f 81bc
000003f0: b47b 0637 189f 14bd 664e 97bc 642a 28bd
0.04201027 -0.041931055 -0.0048664617 -0.05265642 0.011901227 -0.0113239605 0.011507193 -0.009179196
0.001618975 0.008646506 -0.020559354 -0.0006015448 0.011587735 0.038343936 -0.044024877 0.025450956
0.050507367 0.011215959 0.04916611 0.016259082 -0.03038538 -0.013497807 -0.10605253 0.05284923
0.039811455 0.005927549 0.012341128 0.026559344 -0.02230937 -0.03165433 0.009156798 0.006556645
0.071175 0.010699085 0.009456025 -0.004630307 0.038242154 0.045446448 -0.038277525 0.04751627
-0.00079898303 0.047176424 -0.054167613 0.07011758 -0.014958074 -0.015326318 0.0050312644 -0.086871535
0.07613835 0.037784304 -0.065694585 0.0047804485 0.05468367 0.013787182 -0.032172825 -0.040121805
0.016751554 -0.11925023 0.074208 0.14041698 0.019096259 -0.002076338 0.021896794 0.005513924
0.042609807 0.007889272 0.0008642742 0.065786734 0.04162625 0.010067697 -0.04084379 -0.04525363
-0.012709177 -0.054111887 -0.022609763 0.0023181587 -0.0037389202 0.06295266 0.03484425 -0.1845428
0.06385946 -0.00076221395 0.014080499 -0.025291424 0.061639555 -0.0058078957 0.061863918 -0.046005275
0.04523123 -0.0014922926 0.20248358 0.012456031 0.048633955 -0.02510349 0.006344876 -0.030934304
0.028227609 0.01856403 -0.0032354617 0.023783669 0.043003876 -0.048526403 -0.008067984 0.0028610716
-0.0207565 0.009599625 -0.0023122595 -0.00089308544 0.0022306822 0.06113691 0.048647303 -0.03278056
0.024303917 0.022477672 0.034350246 0.03327923 0.062056016 0.031232554 0.024083536 0.03688912
0.010908118 -0.014802618 -0.102697976 0.05376586 -0.06802573 -0.004382311 -0.01027962 -0.014227163
0.0071640234 0.031357314 -0.009546438 -0.0051022656 0.0650966 -0.005224513 -0.061019737 0.023074402
0.05098858 -0.03925325 -0.023146553 0.044215433 -0.007190628 0.039637677 -0.024951281 0.059071504
0.001122574 0.023559416 0.023018468 -0.08816565 0.0755046 0.02298055 -0.0731892 0.042317152
0.04492006 -0.0055310163 0.015471375 -0.038104676 0.017476043 -0.057483584 0.07793496 0.13982642
0.018647918 -0.0121530015 0.028340977 -0.00807522 0.043536484 -0.0011476459 0.004021459 0.07768051
-0.05008083 0.025713973 -0.014795271 -0.026939258 -0.019793529 0.042958323 0.007291523 -0.0068063703
0.0022754213 0.03722962 0.020923894 -0.1860769 0.060862835 0.009754285 0.009757927 0.0057319985
0.017778274 0.03193438 0.06581547 -0.039047994 0.04755401 0.006645505 0.19849655 0.02858903
0.029354312 -0.042036995 0.0008888871 0.011436231 0.022322489 -0.033263985 0.0147115905 0.031716518
0.05142193 -0.048502162 -0.005049704 0.0040896046 0.04867613 -0.027336087 0.00043517744 0.017344331
0.05174934 0.0110875275 0.009513789 0.014490723 0.032739326 0.014683219 -0.028344719 0.021142792
0.061131775 0.01219922 -0.006135506 0.0017745387 -0.014968992 -0.020996762 -0.09340164 0.05217245
0.07018059 0.0058811107 0.0010436027 -0.0034267479 -0.044297885 -0.03155275 -0.007578618 -0.0035329924
0.06745146 0.006164576 -0.0386426 0.021675175 0.05236036 0.08299736 0.033847325 0.016252508
-0.02986063 -0.009048854 -0.005570372 0.059317645 -0.005710406 0.006643867 0.017673308 -0.09663781
0.07634796 0.008881338 -0.060325798 -0.015822921 8.015824e-06 -0.036284536 -0.01847 -0.04105605

dense_output.3.bias f4 [9]
00000000: ec92 933d cb32 983d 7676 b43d 620a a83d
00000010: 3241 903d bed4 a23d c1ae 953d 70c3 8e3d
00000020: adf9 8c3d
0.072057575 0.07431563 0.08811657 0.08205105 0.07043685 0.079507336 0.07308722 0.069708705
0.068835594

exp_avg f4 [4, 1, 3, 3, 3]
00000000: 8699 12bb 5a61 95ba 4bec d1ba 4316 27bb
00000010: 334c a4ba 19e1 05bb ba6a 5fbb 0007 13bb
00000020: 7f2a 59bb f960 baba 693b b8ba e2f4 e7ba
00000030: 1e6e e8ba d568 b1ba 8dd1 11bb b33d 37bb
00000040: b166 23bb 0408 6cbb 6fa6 6bba 9867 b2ba
00000050: c971 97ba baaf 87ba faaa b0ba ee9e d3ba
00000060: a40b 0dbb 3f46 2abb 7301 3bbb 5a6a 343b
00000070: 09e2 df3a 294c 043b dc09 293b 049f cb3a
00000080: 845b c03a fecd 283b 0984 a83a f7b6 673a
00000090: 8b03 113b 4703 043b 046f 3d3b 0bd5 013b
000000a0: fa1b d33a 9ed3 013b f79e 143b 3b8a 9b3a
000000b0: 97ad a63a c82c 123b b344 353b 5945 4d3b
000000c0: 4b50 e63a 9634 063b 9a74 103b 9d60 f23a
000000d0: 5fae be3a 8b82 c93a 9569 7639 ec54 ad3a
000000e0: dbd0 0b3a 6584 b23a 3d94 f93a de4f 203a
000000f0: da76 5c3b c655 823b 0bcf 1b3b 821b 4a3a
00000100: 1f24 8f38 d46b 39ba 3101 bf3a f5ed f839
00000110: c70a 18b9 a06c 5e3b d630 143b 34e0 963a
00000120: 19b4 1e3a 969c c039 7c5b 013a 285e a63a
00000130: af62 843a 2987 573a c03a 523b ee5c 203b
00000140: 3f87 f93a cc52 80bb f0e9 5ebb 475d 10bb
00000150: da96 48bb 9f77 0ebb 581d 96ba 9f4f 58bb
00000160: 7635 0bbb a8c3 44ba 176d 62bb 7ddc 22bb
00000170: 802d f7ba f0bb 37bb 14b7 8dba 6e00 2aba
00000180: a5ab 43bb 032a 54ba 9599 feb8 bed1 1bbb
00000190: f85d bdba f9cb b8ba 4ed4 b9ba c214 8b38
000001a0: c139 80b9 a4db 91ba 2f6b 4b39 4a3b c639
-0.002236934 -0.0011396811 -0.0016015855 -0.0025495447 -0.0012534916 -0.0020428358 -0.0034090714 -0.0022434592
-0.0033136902 -0.0014219574 -0.0014055792 -0.0017696882 -0.0017733013 -0.0013535271 -0.0022250146 -0.002796036
-0.0024933035 -0.003601552 -0.0008989339 -0.0013611196 -0.0011554296 -0.0010352053 -0.0013478689 -0.0016145387
-0.002152183 -0.0025981811 -0.00285348 0.002752921 0.0017080914 0.0020186997 0.002579323 0.0015535061
0.0014675711 0.0025757547 0.0012856732 0.00088392146 0.0022127356 0.0020143555 0.0028905282 0.0019810821
0.001610636 0.0019809972 0.0022677758 0.0011866757 0.0012716529 0.0022304524 0.0027659356 0.0031321852
0.0017571537 0.002047812 0.0022042156 0.0018491928 0.0014547816 0.0015373988 0.0002349972 0.0013224161
0.0005333551 0.0013619779 0.0019041371 0.0006115417 0.0033640177 0.00397751 0.002377453 0.00077097875
6.8254994e-05 -0.00070732576 0.0014572499 0.00047479538 -0.00014499864 0.0033939257 0.0022612116 0.001151091
0.00060540583 0.0003673776 0.00049345917 0.0012692856 0.0010100211 0.00082217396 0.0032078475 0.0024469453
0.0019037499 -0.00391612 -0.003401395 -0.0022028254 -0.0030607493 -0.002173878 -0.0011452837 -0.0033006442
-0.0021241582 -0.00075059617 -0.0034549886 -0.002485066 -0.0018858165 -0.0028035603 -0.0010812008 -0.00064850494
-0.0029856947 -0.00080934184 -0.00012140271 -0.002377614 -0.001444756 -0.0014098875 -0.0014177652 6.631903e-05
-0.00024457093 -0.001112808 0.00019399518 0.00037809677

exp_avg_sq f4 [4, 1, 3, 3, 3]
00000000: 1934 ec38 52d9 e238 2f0c 1639 13f9 5938
00000010: 9d34 5838 0ef2 c638 c424 6938 f80f 7138
00000020: a899 d238 1417 e338 0bbe eb38 09e3 2b39
00000030: 7756 4138 a180 7538 9cf4 0239 a190 5238
00000040: e825 8a38 c891 0b39 2f93 d838 190f 0439
00000050: c5d7 2f39 07d2 3f38 7fc2 a238 02b1 0d39
00000060: 36ce 5638 818f b338 2694 1939 bdf6 0939
00000070: 2751 d738 636b 0639 4b67 cc38 a8c5 a238
00000080: b15d e438 ab83 fc38 14c0 e138 abdc 0f39
00000090: 2bf3 e238 ac00 b438 9318 0939 aa8e a038
000000a0: dba5 8638 0c9c ee38 dc24 d138 1db5 c538
000000b0: ea4c 1439 7199 bc38 c2cc af38 8bd2 0e39
000000c0: e3e4 8238 f561 8738 8e6e fa38 d617 b538
000000d0: 2b0c c738 1060 1939 0ef2 2639 4f96 1c39
000000e0: d059 3739 37b0 4e39 54b8 4739 08c7 4b39
000000f0: b878 b639 522c b739 68f3 ad39 38e3 3b39
00000100: 74e4 1e39 1fd4 4d39 a07d 7039 fe01 4339
00000110: fe2b 5639 a1dd c939 075b b339 b294 a939
00000120: ac00 4939 5764 2f39 3006 7c39 9126 8039
00000130: 6684 4a39 454c 7a39 99ef d339 c382 b139
00000140: 56c5 b339 0146 6239 fd61 3c39 08fc 0e39
00000150: 7994 5239 7852 2839 f8dd f038 67fe 1439
00000160: 821b e538 bf89 ab38 f29d 5139 10a9 2d39
00000170: 6865 ff38 0bd7 4539 72a2 1a39 26b3 d138
00000180: 7716 0839 d16c d038 a22b 9a38 6b4d 4839
00000190: eaec 2239 2f61 ec38 4113 3c39 8495 1039
000001a0: 3e0d be38 18fc fc38 4430 c838 635d 8d38
0.00011263061 0.00010816999 0.00014309653 5.19688e-05 5.1547413e-05 9.486462e-05 5.558577e-05 5.747375e-05
0.00010042201 0.00010828502 0.000112410715 0.00016392408 4.6095312e-05 5.8532347e-05 0.0001248889 5.0202598e-05
6.5874134e-05 0.00013310381 0.00010327098 0.00012594125 0.00016769681 4.573355e-05 7.76099e-05 0.00013512748
5.1213625e-05 8.562115e-05 0.00014646407 0.00013157255 0.00010267115 0.0001281924 9.746718e-05 7.761578e-05
0.000108893386 0.000120408215 0.000107646134 0.00013719748 0.00010821813 8.583194e-05 0.00013074493 7.655968e-05
6.420511e-05 0.0001137779 9.972762e-05 9.427427e-05 0.00014143033 8.993119e-05 8.3827894e-05 0.00013620609
6.2415165e-05 6.4555476e-05 0.000119415214 8.635192e-05 9.491326e-05 0.00014627003 0.00015921166 0.00014933314
0.00017485698 0.00019711336 0.00019046786 0.00019433734 0.00034803688 0.000349375 0.00033178483 0.00017918355
0.0001515316 0.00019629345 0.00022934983 0.00018597391 0.00020425019 0.00038502834 0.0003420936 0.00032344979
0.00019169104 0.0001672668 0.00024034898 0.00024442797 0.00019313543 0.0002387027 0.0004042357 0.00033857496
0.00034288567 0.00021579118 0.0001796558 0.00013636064 0.00020082471 0.0001605245 0.00011485437 0.00014209152
0.00010924695 8.1795726e-05 0.00019990632 0.00016561546 0.00012178236 0.00018867494 0.000147471 9.9992656e-05
0.0001297834 9.9384815e-05 7.3514195e-05 0.00019102327 0.00015537781 0.00011271459 0.0001793625 0.00013788609
9.0623726e-05 0.000120632525 9.545733e-05 6.7407986e-05

exp_avg f4 [4]
00000000: 0bb3 a8bc 038b 2d3d 2b4c 8d3c 6347 a5bb
-0.020593187 0.0423689 0.017248234 -0.0050439104

exp_avg_sq f4 [4]
00000000: c95b a23b f776 4a3c 3365 433b 2535 9d3a
0.0049547893 0.012357465 0.0029814958 0.0011993988
