models/dsec/dsec_half1/dsec_half1_stereo_odd_model.pth (torch, 864422 bytes, 27 tensors)

conv3d.0.weight f4 [4, 1, 3, 3, 3]
00000000: 36e0 103e 1d69 4b3e 546c 97bd 568d 66be
00000010: fee1 63bc 859a ea3d 12d4 41be 3740 1f3e
00000020: 455f a3bd 8e41 323e 7b8c 4ebb 5219 753e
00000030: 308d 20bd 15e9 46be e8de a63d 2fc9 733d
00000040: fe7d d43d 66bb 9abd 7b6b 01be 6e0c 363d
00000050: 6d4d 6b3e 4ad6 68be 7bd3 59be dab9 28be
00000060: ec48 543e 28cc 14be ab6d 8cbd dd2a 8fba
00000070: 9bda 83be 175b 4ebe daff 77bd 770b e9bc
00000080: 5543 3bbc 940f 36bd 1436 5abe 6dee 24be
00000090: aed1 fb3d d6a0 22bd 194b c43c 37d5 31bd
000000a0: 2185 a43d 0c68 95bd 8e21 59bd e12f 0e3d
000000b0: 1bca 333e e8b3 d73d 5c32 3e3e 9a71 9c3e
000000c0: cdf9 923e b044 bf3c d56c e23d cff0 b13e
000000d0: 2007 153e bedd a93d e468 043e b475 63be
000000e0: 219f 963d 5945 e0bd 60de 0ebe e7d1 30bb
000000f0: 0490 ba3d 06e8 83be e2da 383e 16e0 7c3e
00000100: 86f5 34be 3583 1abd c19e 3f3e 1eb6 3e3c
00000110: db01 213d f728 a4bc 22bb df3c 3d20 ac3e
00000120: 5439 113e ce62 42be 7720 29bd da3a 29bd
00000130: 0881 86be 8455 953d 152f ecbc a6d7 76be
00000140: aeaa 913d 2ac7 8dbd 7e39 d4bd 691e 4c3d
00000150: 49ad 05be 03cb e63d 502e ebbd dc2d 22be
00000160: 3f27 183e 3201 0b3d b3fe 713e 86d4 eebd
00000170: 6815 bf3c fe75 eebd fd71 053e 7e7c 89be
00000180: 846f 8fbd 66f8 8f3e c6d2 38be 8062 163e
00000190: 2ecc c6bd a502 e33d 7d90 153e 3a7a 8bbe
000001a0: 1994 1b3e 79da 363e 4c46 273c d05a 0fbe
0.1414803 0.19864316 -0.07393709 -0.22514853 -0.013908861 0.114552535 -0.18928555 0.1555184
-0.079771556 0.1740782 -0.0031516838 0.2393544 -0.039197147 -0.19424851 0.08147985 0.059518036
0.103755936 -0.07555275 -0.12638657 0.044445448 0.22978754 -0.22737995 -0.2127208 -0.16477147
0.20730942 -0.14531004 -0.06856855 -0.0010922808 -0.2575272 -0.20151936 -0.060546733 -0.02844785
-0.011429627 -0.04444845 -0.21309692 -0.16106577 0.122958526 -0.039704166 0.02396159 -0.04341623
0.08033205 -0.07295236 -0.053010516 0.03471363 0.17557566 0.10532361 0.18573898 0.3055542
0.28706208 0.023348182 0.11055914 0.34754035 0.14553499 0.08294247 0.12930638 -0.22212869
0.0735457 -0.10950727 -0.13952017 -0.002698058 0.091095 -0.25762957 0.18052247 0.24694857
-0.17671785 -0.037722785 0.18712904 0.0116401 0.03930841 -0.020039065 0.027310912 0.33618346
0.14182025 -0.18983003 -0.041290727 -0.04131589 -0.26270318 0.072917014 -0.028831044 -0.24105701
0.07112633 -0.06922753 -0.10362528 0.04983369 -0.13054384 0.1126919 -0.11483443 -0.15837806
0.14858721 0.033936687 0.23632316 -0.116616294 0.023325637 -0.11643599 0.13031764 -0.26852793
-0.07003692 0.281192 -0.18049154 0.14686012 -0.09706913 0.11084489 0.14605899 -0.2724169
0.15193214 0.17856778 0.010209631 -0.13999486

conv3d.0.bias f4 [4]
00000000: 42be b5bc 4253 9aba 3ee7 33bc 8fd1 cfbb
-0.022185449 -0.001177408 -0.010980425 -0.00634212

gru.weight_ih_l0 f4 [300, 100]
00000000: 6e8a edbd 0e2f 5abe 079b 90be eb34 94bd
00000010: f645 30bd 0c21 6bbe 07d1 7ebe 2793 b5be
00000020: d285 71be 03f5 893a 0dc7 4cbe 8b20 81be
00000030: 069f 58be b711 aabe 9aa1 eabc 0db1 69be
00000040: f60c 1d3c 332f 16bd 0fa5 d4bd 22d7 6d3d
00000050: 1129 17be 7aa1 d3bd 7f7d 563c 5f23 55bd
00000060: ffe2 48bd 0596 c8bd 4155 62be ac93 c6bd
00000070: e55b 37be 57e8 bbbd c455 91bd 1210 f9bd
00000080: dea4 e7bb 0a5f cabc 68cd 50bd e2e8 06bd
00000090: aa1b 58bd 7ecc 03be 726d c7bd f8af babc
000000a0: 9064 173e 644b 2bbe 6c4a 39bd c4f0 2fbe
000000b0: 7f3a bebd 641c db3d 7bee dbbd 642f 8ebe
000000c0: 1b45 a0be d0c9 e7bd be8d 913e 1622 e63e
000000d0: d62b a43e c9d1 b83d 07b1 363e 10d3 723e
000000e0: 93c4 d63e a4fe bf3d b882 78bd 2568 4e3e
000000f0: 4bf2 353e 7f1d 833e 6cc7 9f3c 070c d4b9
00000100: c659 3b3e 938b 7a3d 3b55 2b3e 9648 253e
00000110: d741 033e 55bf a13e f763 e03c 4470 8c3e
00000120: 1ce2 8c3e 94b2 b13d 6505 af3e 9360 5a3d
00000130: 0219 173d 7e28 fcbc 96ff f4bc af62 003e
00000140: 40fe 073e 905b 2c3d 8deb 9b3d 491a 9c3d
00000150: d86f ff3d 9cfc 933d 8c19 053e 9635 a63d
00000160: 53a1 22bc 608f d03d 25cd 0a3e 9083 343e
00000170: ff7f 1bbd 1bdf 38bd 6099 313e f642 493e
00000180: a7d2 8a3d 7d16 8fbd bc54 bcbd 730a 103e
00000190: 9b2d d13e c59b d23e 4b7a 0b3f 801f 083f
000001a0: adb3 903e 28e5 143f edef 1d3f 7c4e 073f
000001b0: 5a1b c63e 5b5e bf3e fa9e e93e 768b c43e
000001c0: 7294 6e3e 1a25 933e d672 503e 40f6 d43e
000001d0: cb0f f03e b06f ce3e fcdd dc3d c2d6 51be
000001e0: 2c4e e33e 5b6a a03e c336 d53e 2e86 ab3d
000001f0: 4ad2 edbd cf8c 273e 8090 d03d 9351 ce3d
00000200: 959a 733e 42a3 863e 2a8e 0c3e 6253 043e
00000210: c5fe cc3d b386 643e 66be 5b3e 4f58 0e3e
00000220: 3251 dc3d 6ea3 2e3e e6b0 253e 27af 1b3e
00000230: 80be 993e 906e 9d3e 9169 853e 7f6f c33d
00000240: 64b3 123e ec07 a73e 3531 7e3e 7a4b 1c3e
00000250: 166f dd3d 18b9 8f3d 7f6f 8e3e 6ab3 823e
00000260: c122 633e 0e11 9cbd fb8c e53d 65c8 d73e
00000270: b7f4 e83e 0572 263e abd1 cdbe b9ff 61be
00000280: 213e ab3e bb03 1f3e 99b7 903d ef7d 96be
00000290: 2b3a b5bc b6e6 843e a9da 323c 2ec2 0d3e
000002a0: b9b7 7dba c8ad 703e d784 ed3d 2b1f 113e
000002b0: 34c9 733c 62a8 14bd f89a 1b3e 8ecd dfbd
000002c0: 4b28 a1be c11e 25be 4b71 313c 0de9 cc3d
000002d0: bc57 25be 71d0 75be e4e7 75be adee 77bd
000002e0: 595d 1c3e fb2e 2abe b280 a4bd 4f79 babe
000002f0: b7b9 d6bd 97a7 7f3d 9c5e 043e fb55 463c
00000300: 18d2 00be e200 51bd 18d5 943d 4698 f03b
00000310: 3f44 73bd abca 41be 65a1 a0bd 994f b9b9
00000320: 7e29 02be 61c3 1dbe 08e6 de3c 6ad4 563b
00000330: 7cad 4ebe 123d 313c 40ba 12be 092a 02be
00000340: 86ab 75bd cbdf 16be baae 66bc 5ae7 1dbe
00000350: 3eee 4ebd 502f f0bd 88fc 72be e7e4 c53c
00000360: acdd f8bd 77b3 ddbd da16 5abb 2a03 21be
00000370: d635 e23d 974c 35be c315 aabd af67 2dbe
00000380: 6d1a 5cbe 693e 77bd 2975 94bd 6e4f 2ebe
00000390: bda9 3bbe dec7 0bbe da96 00bd 2032 2dbe
000003a0: 6a90 25be d98d 4ebe b0fb 23be 31f7 9ebd
000003b0: 91a5 7dbd a31b 4dbd ea22 a3bc 841d 40be
000003c0: 87d2 403d aa07 f4bc ccf9 fdbd e9a1 c63c
000003d0: 4089 b63b 41f6 063d a8bc ee3c bfb6 e8bd
000003e0: 4788 29bd 27ee cebd 0497 18be 9604 b2bc
000003f0: fe84 b7bd 2055 86be f4fa a5bd ae4b 73be
-0.11598669 -0.21307012 -0.28243276 -0.07236656 -0.04303547 -0.22961825 -0.24884425 -0.3546383
-0.23586205 0.001052529 -0.19997807 -0.2522014 -0.21154413 -0.3321664 -0.02864151 -0.22821446
0.00958561 -0.036666106 -0.10383045 0.058066495 -0.1476176 -0.103335336 0.013091444 -0.052035686
-0.049044605 -0.09794239 -0.22102834 -0.09696135 -0.17906149 -0.09175175 -0.070964366 -0.12161268
-0.0070692142 -0.024703521 -0.05097714 -0.032936938 -0.052760758 -0.12870976 -0.09737672 -0.022788987
0.14784455 -0.16727978 -0.04523699 -0.17181689 -0.09288501 0.106987745 -0.10738846 -0.2777053
-0.31302723 -0.113177896 0.28428453 0.4494788 0.32064694 0.09024388 0.17840968 0.23713326
0.4194685 0.09374741 -0.060671538 0.20156915 0.17768209 0.2560844 0.019504271 -0.00040444752
0.18295965 0.061168265 0.16731732 0.1614097 0.12818085 0.31591287 0.027391417 0.27429402
0.27516258 0.08676639 0.34183803 0.053314757 0.036889084 -0.030781027 -0.02990703 0.12537645
0.13280582 0.04207951 0.07613287 0.07622201 0.124725044 0.07225916 0.12998027 0.081156895
-0.009926158 0.101835966 0.13554819 0.17628312 -0.037963863 -0.045134645 0.17343664 0.1965445
0.0677846 -0.06986711 -0.09195849 0.14066486 0.40855107 0.41134468 0.5448348 0.53173065
0.28262082 0.58162165 0.6169422 0.5285413 0.38692743 0.37376675 0.45629102 0.3838765
0.23298815 0.28739244 0.20356306 0.41594124 0.4688705 0.40319586 0.10784528 -0.2049208
0.44395578 0.31331143 0.41643342 0.08375202 -0.11612375 0.16362308 0.10183811 0.10074153
0.23789437 0.2629643 0.13726106 0.12922433 0.10009531 0.22317009 0.2145935 0.13900875
0.10757674 0.17054531 0.16180763 0.15203534 0.30028152 0.30748415 0.26057103 0.095427506
0.14326245 0.3262323 0.24823458 0.15263167 0.108122036 0.07017726 0.2781944 0.25527507
0.22181226 -0.076204404 0.112085305 0.42145076 0.45499203 0.16254432 -0.40199026 -0.22070207
0.33445838 0.15528767 0.070662685 -0.29392955 -0.022122463 0.25957268 0.01091639 0.13843605
-0.0009678561 0.23503792 0.11597603 0.14172046 0.0148795135 -0.036293395 0.15195835 -0.10927878
-0.31476054 -0.16125013 0.010830234 0.100053884 -0.1614675 -0.24005295 -0.2401424 -0.060530353
0.15269984 -0.16619484 -0.08032359 -0.36420676 -0.10484641 0.062415686 0.12926716 0.01210546
-0.12580144 -0.051026233 0.07267207 0.007342371 -0.059391256 -0.18924968 -0.078432836 -0.00035345255
-0.1271114 -0.15406562 0.027209297 0.0032780417 -0.20183367 0.010817783 -0.14328861 -0.12711348
-0.05997803 -0.14733808 -0.014079744 -0.15420285 -0.050520174 -0.11727774 -0.23729146 0.024157
-0.121516556 -0.10825246 -0.003327778 -0.15723863 0.11045425 -0.17704998 -0.08304932 -0.16934083
-0.21494456 -0.060362253 -0.07248909 -0.17022488 -0.18326469 -0.13650462 -0.031393863 -0.16913652
-0.16168371 -0.20171298 -0.1601398 -0.07761992 -0.061925475 -0.050075185 -0.01991411 -0.1876126
0.047075775 -0.02978881 -0.124011606 0.024247127 0.0055705607 0.03294969 0.029142693 -0.11362981
-0.04138973 -0.10104018 -0.14901358 -0.021730702 -0.08960913 -0.2623682 -0.08104506 -0.23759338

gru.weight_hh_l0 f4 [300, 100]
00000000: 6911 b43e b8ad d33e 4b41 143d 8651 ae3d
00000010: f177 28bc 8b8d 473d 3e74 89bd fe53 61be
00000020: 9c3c 5dbe 3abf 5b3e e3cb 163e b18a 4abe
00000030: cedc ccbd 5503 eabd d9a4 ca3d 6e52 0e3e
00000040: d0cd 3ebc 922f a0bc ed24 0dbd 364b 6cbe
00000050: 5cff d0bd 5838 42be b275 85be 4616 2a3e
00000060: dca5 f1bd e511 02bd f381 473c 27cb 733e
00000070: 8e55 45bd cf1e 9abd fcf9 24bc f472 3b3e
00000080: 776d 89bd 04fe 963e 24d3 6c3e de11 0dbe
00000090: 7e25 cc3d f0b8 e0bc c578 3bbe 0efa 1dbd
000000a0: 6485 c8bd bd1a 3f3d c15c 053e cc85 2b3e
000000b0: 0c5b 42be b874 983d 74b8 7ebe 247e f9bd
000000c0: 81ac 5fbd 190c e93b efb8 b2be d657 0ebe
000000d0: 3aa4 0dbd 2535 38be 0e76 3abe 9848 d9bd
000000e0: 2ea8 b3bd 11a9 b63e adbc b6bd 3c1a 83bd
000000f0: 3a6e ffbd 3eaf 843e 69b3 5e3d 50e5 193e
00000100: 7297 b33e f706 ec3c 4e4a a4bd fed4 b03e
00000110: 1234 4ebd cb94 f63c c730 0fbe 71d4 a7bd
00000120: fe93 973c b82f e13d c355 78bd 4feb 743e
00000130: 8be4 6e3d 38ab 11be e670 46be 91c1 e03d
00000140: 7baf fbbc b03b 5e3d 5ff7 053e edaa c8bc
00000150: 1042 8a3e b14a 713d 3307 8a3d c48d 4cbd
00000160: aaba 24bd b080 853c 3411 a8bd 5484 973e
00000170: c8da 69bd 5239 7fbe 5ac8 b0be 8498 d83c
00000180: c086 d9bd e0f7 bfbc 1247 14be 487c 75bd
00000190: bd6a 99be f9b6 17be 03f1 563e f310 383e
000001a0: c1c7 3f3e 435e 203e b23f 863d 6d5c ddbd
000001b0: 3d57 65be 6ea0 7bbd 73b8 a6be 3be7 aa3d
000001c0: a099 4fbe 6b7e 52be 4ef0 92be c776 d7bd
000001d0: 38cc 33bb 15e2 173e f87d 39be 6e3a 97bd
000001e0: 06ad d7bc fa52 cdbd b70d 4ebe 5d28 113e
000001f0: 5f20 7b3d e057 4c3e 9d03 aa3c 61d4 a03d
00000200: 90d9 1c3e e997 aabe f974 11be 131e abbd
00000210: 06ff e4bd c23c 92be b74f fb3d 9426 103e
00000220: c544 693c 03b5 a63d 64c6 aa3d e64a 26be
00000230: ffcd 4f3e e34f f2bd ce22 9cbd d286 8bbc
00000240: feec 803e f8ce 1d3c 45a3 c0b9 2298 153e
00000250: 6290 5a3d 176d 363e 4203 fe3c 43d8 a93d
00000260: 85aa 9cbd b15f 5e3e bdb5 4b3e a3c3 4f3d
00000270: 511d 303d 41c7 68bc 0fc5 593e 8e69 4b3e
00000280: 0b18 1d3e 51f4 2a3e 0a53 3ebe 34c0 0fbe
00000290: 0f8f 3abe a726 103c 13c5 303e 1deb 5cbd
000002a0: ad9e 13be df43 e73d df32 cebc 5009 98be
000002b0: 0910 fabd 5a7a 74bd 80ac 833d 2bcd 97bc
000002c0: 82a8 a63d f44e a1bd e25f 863e c28c b5bd
000002d0: 4163 d7bd 791b e83c f851 343d cda5 3bbe
000002e0: ea93 203e 50f4 1ebe f45f f83d 899c c6bd
000002f0: d487 82be c699 d0be 1b3c 933e a3ed 05be
00000300: e481 12be dfc7 d83e dc88 813e bed1 913d
00000310: 4c54 313d 1bb3 a53d c967 103e a731 b2bd
00000320: 3d24 39be e9b1 d53d 26f2 143e 0bdd 86bd
00000330: 008b fabd 92c9 8ebd 03f9 4dbe 4100 19be
00000340: 0174 073e 5b37 d33c 1a6d e5bd 6159 cdba
00000350: 6ced be3d 4b08 053d ce3f 363d 8078 1c3d
00000360: c6f4 603b bc8d 443e d2b2 213e 755c fb3d
00000370: 208d a1bc 5e6b ca3c 00b3 913e fe64 b6bc
00000380: 2ce3 70bd 31bc 923d 3e4c 78bd 120e 6fbd
00000390: a6da 2fbd 729e 4e3d dfe7 0fbc e232 c2bd
000003a0: 76ea 183e 8be8 de3d acbc 42be b834 e1bd
000003b0: 5570 b5bc 7f7f 1b3e 5d2b df3d cf3f 68bb
000003c0: a242 19be e876 a53c e874 a6bd 6486 533c
000003d0: a5db 15bd 365d 19be f964 883d 4deb 383e
000003e0: 35ee 3bbd a044 4bbe 5bda e23d 8263 223e
000003f0: d379 5a3d 5f1d c73d 4c8e 733e e122 5c3e
0.35169533 0.41343474 0.03619508 0.08511643 -0.0102825025 0.04871897 -0.067116246 -0.22004697
-0.21605152 0.21459666 0.14726214 -0.19779469 -0.10003053 -0.11426417 0.098947234 0.13898632
-0.011645749 -0.019553933 -0.034459043 -0.23075566 -0.10204956 -0.18966806 -0.26066357 0.16610059
-0.11799213 -0.031755347 0.012176978 0.23807965 -0.048177294 -0.075254075 -0.010069367 0.1830557
-0.06710332 0.29490674 0.23127419 -0.13776347 0.099680886 -0.027431935 -0.18307789 -0.03856855
-0.09791067 0.04665636 0.13023664 0.16750258 -0.18980044 0.07444137 -0.24875051 -0.121822625
-0.054607872 0.007112038 -0.34906718 -0.13900694 -0.034580447 -0.17989023 -0.18209097 -0.10609549
-0.08772312 0.35675862 -0.08922706 -0.06401488 -0.12472196 0.2591495 0.054370318 0.15028882
0.3507648 0.028811915 -0.08021985 0.345375 -0.050342627 0.030100247 -0.13983451 -0.08194817
0.018503185 0.1099543 -0.060628664 0.23917888 0.058323424 -0.14225471 -0.19379005 0.1097442
-0.030723324 0.05425614 0.13082646 -0.024495566 0.27003527 0.058909122 0.067396544 -0.049939886
-0.04021708 0.016296715 -0.08206406 0.29593146 -0.05709341 -0.2492421 -0.34527856 0.026439913
-0.10621405 -0.023433626 -0.14480236 -0.059932977 -0.29964247 -0.14815892 0.20990376 0.17975216
0.18728544 0.15660958 0.06555118 -0.108086444 -0.2239656 -0.061432295 -0.325626 0.08344885
-0.20273447 -0.20556037 -0.28698963 -0.10520702 -0.0027434956 0.14832337 -0.1811446 -0.073841915
-0.026327621 -0.10025592 -0.2012242 0.14175554 0.06131017 0.19955397 0.020753676 0.07853008
0.15317369 -0.33319023 -0.14204778 -0.083553456 -0.11181454 -0.2856198 0.12271064 0.14077216
0.014237587 0.08139994 0.08338621 -0.16239509 0.20293425 -0.118316434 -0.07623826 -0.01703206
0.2518081 0.009631865 -0.0003674274 0.14608815 0.05336035 0.17815052 0.031007413 0.08293202
-0.076497115 0.21716191 0.19893546 0.050723683 0.04299671 -0.014207662 0.21266578 0.19864485
0.15341203 0.16694762 -0.18586364 -0.14038163 -0.18218635 0.008798278 0.17262678 -0.05393516
-0.14415999 0.11292242 -0.025170742 -0.29694605 -0.1221009 -0.059686996 0.06429386 -0.018530449
0.08137609 -0.07876387 0.26245028 -0.08864738 -0.10516978 0.028333412 0.044023484 -0.18324967
0.15681425 -0.15522885 0.121276766 -0.096978255 -0.25494254 -0.4074232 0.28756794 -0.13078932
-0.14307362 0.4233999 0.25299728 0.07120083 0.043293282 0.08090802 0.14102091 -0.08700877
-0.1808023 0.10434324 0.14545497 -0.06585129 -0.122335434 -0.0697204 -0.20114522 -0.14941503
0.13227846 0.025783231 -0.1120245 -0.0015666896 0.093226284 0.032478612 0.044494443 0.038200855
0.0034325584 0.19194692 0.15790871 0.12273494 -0.019720614 0.0247094 0.2845688 -0.022264954
-0.058810398 0.07164801 -0.060619585 -0.058363028 -0.04293313 0.050444074 -0.00878331 -0.094823614
0.1493319 0.10884198 -0.19017285 -0.109963834 -0.02214829 0.15185355 0.10896943 -0.0035438424
-0.14966825 0.0201983 -0.08127767 0.012910459 -0.036586422 -0.14976963 0.06659884 0.1805851
-0.04588147 -0.19850397 0.11076804 0.15858272 0.053338837 0.09722399 0.2378475 0.2149768

gru.bias_ih_l0 f4 [300]
00000000: cc70 a5bc 6735 e1bd 4c89 26bc 1829 0e3e
00000010: 8ce1 03be cf26 b6bd 6980 8a3d 8a8f f8bc
00000020: 269f cabd 215b 25be 2b48 65be a975 703c
00000030: 8328 efbd 326b 9dbd 1194 fdbc adee b2bd
00000040: 07c7 46bd f985 843d 11fb 48be 0747 78bd
00000050: 2d83 21be e190 6d3d acb1 23bd a2df cd3d
00000060: 6d2e 3bbd f84a 013d 22af 6cbc d367 bd3d
00000070: b55f b4bd f9d0 40bd eff6 0ebe c674 18bd
00000080: 1f8f f13d e3d7 f5bd 8213 ccbd 411c 14be
00000090: 429a 56bd 171f 823d b8d6 323e fb5d 0cbe
000000a0: bff3 c6bd 2807 3cbe 4d10 19be 08b0 f8b9
000000b0: 128a 29be 6dee c6bd d39e 35be 4972 66bd
000000c0: d0db 12bb 8b58 b3bc 9ef7 a13b 6eb0 553d
000000d0: e72b 25be cbfc 46be c1a2 cdbc 9bd4 4a3d
000000e0: 8215 bdbd 1877 febd 864d 69bd 9baa be3d
000000f0: 7aee 38be d9f4 863d e827 643c 41a9 c83d
00000100: 880d 72bd b34c 133e fbcf c3bc 494b 20be
00000110: c6da 813d 40a3 57bc 4eda 09be c8e7 e1bd
00000120: c74d d6bd 4cb9 1d3d 243a fe3c 8df5 8dbd
00000130: 38c6 763c 82ac cf3d 1bc6 ff3c 70a9 193d
00000140: 9567 0b3c 3d30 a63d b82e 003d ee78 9b3c
00000150: 70e0 253d d9bb 90bd 5ae2 f8bd aa0b 95bb
00000160: 0db3 04bd 9d08 04bd 8809 a2bd a2aa 39bd
00000170: bdd4 d03c 2f41 07be b578 c2bd a43d d73c
00000180: f4fe b1bd 274d 823d cd3b 3bbd db10 d63d
00000190: 0bc2 273d baa4 523e 383b 70bd e902 c2bd
000001a0: 268b 31bc 986a 943d b58b c03d abcc 8a3e
000001b0: cc76 cbbd 9479 f53c 0a5f b43c 211b c53d
000001c0: 0154 70be 6684 bbbe 35f3 90bd 6dcc 5fbc
000001d0: 5c87 d8bd 47a6 3e3d 2453 20bd 0f99 773b
000001e0: 4f59 183e 458a 5fbc dddf 793e 73ef a8bd
000001f0: 17f1 8abd 5aab 803d f243 853d f559 cf3b
00000200: 5137 783d e142 abbd 49b5 0f3e d5db a53e
00000210: 42ce 6e3d 412a 5f3e 10c3 8f3d ea2e f9bc
00000220: c79c e73c 9569 203e 85e1 053d 76ca a03d
00000230: babc 933d e059 82be 6924 873d 6af4 d0bc
00000240: 29af b73d 846d 3dbe f76a 87bd 20aa b83c
00000250: 297c e93d a9af c13d 97c0 953c 787c bd3e
00000260: 5539 8fbd 56a3 a63c 8bf2 b83e 3992 0abe
00000270: 598c bfbd 532e d43c c629 2dbd f169 0bbc
00000280: dcba e03d c2d0 7b3e 2c87 bbbb 6422 513e
00000290: 5c24 17be 85ac 9b3d fc60 c3bd 478b 843e
000002a0: 6714 8d3d cc33 2b3e f833 853d c3e8 babd
000002b0: 24ab 8ebd b858 593c c482 25be d155 ba3e
000002c0: 83f5 913d 6439 3f3e 4481 12bd c73e 133e
000002d0: aa17 23bd 94f9 f6bd 8100 743e dfea 373e
000002e0: ce53 f3bc 1a87 fcbd 4324 a8bc dce8 41bd
000002f0: abaf b0bc 2544 26be f4ae df3d 6904 63be
00000300: b45e 2d3e 82c2 acbc 7975 88bd 5d28 a03d
00000310: e1f6 63bc 9b17 9e3e caa0 36be 699f 8fbd
00000320: a698 a6bc 0ac3 17bd 5de3 1bbe ffb7 783d
00000330: c44c e83b 965c 03bd e508 70bc 2653 293c
00000340: 6647 a9bd 9cb9 6abd 4829 be3d 57a2 a83d
00000350: c196 0f3d d305 0b3c 3876 023e c11e 433d
00000360: 2c58 d33d 8314 10be c817 84bd 629d ecbd
00000370: ac25 c7bd bc72 0fbd 0250 ce3d 42db 4f3d
00000380: 07a9 d83d 057e 223c eb01 343d c589 3cbb
00000390: df3a 9cbd adf2 e53d 1637 b93d 090d be3d
000003a0: 6e26 8ebd 0107 373d c2cf 503d 5233 2fbb
000003b0: f2e6 1c3e 11db 0dbe 9fee 8b3d 1559 613d
000003c0: 8357 e23d 7e28 103d 1cbe 883d 5332 d8bd
000003d0: dfd0 b2bd 0539 e53c a721 413d 0e4e eb3b
000003e0: 551d 2cbd 7cc7 2dbd 4c07 bebb 0166 933d
000003f0: 612c 36bc dc62 acbd b6c7 643d 6e17 e5bd
-0.020195387 -0.10996514 -0.01016457 0.13882864 -0.12879008 -0.08894121 0.067627735 -0.030341882
-0.098936364 -0.16148044 -0.22390811 0.01467649 -0.11677649 -0.076864615 -0.030954393 -0.0873693
-0.04852965 0.06470866 -0.19627024 -0.060614612 -0.15772696 0.057999495 -0.039964363 0.1005242
-0.045698572 0.031565636 -0.014446052 0.092483185 -0.08807317 -0.04707429 -0.13961385 -0.03722074
0.11794876 -0.12004068 -0.09964658 -0.14463903 -0.052393205 0.06353586 0.17464721 -0.13707726
-0.0971446 -0.18362105 -0.14947625 -0.000474334 -0.16556576 -0.09713445 -0.17736368 -0.056261335
-0.002240885 -0.021892807 0.0049428483 0.05217021 -0.16130029 -0.1943237 -0.025102021 0.049519163
-0.09232618 -0.12425059 -0.056958698 0.09309884 -0.18059722 0.0658967 0.01392553 0.097979076
-0.059094936 0.14384727 -0.023902884 -0.15653719 0.06340556 -0.01316148 -0.13462183 -0.11030537
-0.104640536 0.03850679 0.031033583 -0.06931601 0.0150619075 0.10140325 0.031222394 0.037515104
0.008508583 0.081146695 0.031294554 0.018978562 0.040497243 -0.07067079 -0.12152548 -0.0045485096
-0.03239732 -0.032234777 -0.07911974 -0.045328744 0.025492067 -0.1320846 -0.09495679 0.02627451
-0.086912066 0.06362372 -0.045711327 0.10452434 0.04095654 0.2057065 -0.058650225 -0.09473211
-0.010836398 0.07246894 0.09401647 0.27109274 -0.09934768 0.0299652 0.022017974 0.09624315
-0.23469545 -0.3662445 -0.07077638 -0.013659579 -0.10572693 0.046545293 -0.03914179 0.003778044
0.14877819 -0.013643806 0.24401803 -0.08248796 -0.067842655 0.06282683 0.065071 0.0063278624
0.06059963 -0.083623655 0.14033999 0.3239428 0.05830217 0.21793462 0.07019627 -0.030417878
0.028273 0.15665276 0.032685775 0.07851116 0.07213731 -0.25459194 0.065987416 -0.02550717
0.08968956 -0.18498808 -0.06612199 0.02254206 0.11400635 0.09457333 0.01828031 0.37009025
-0.06993357 0.020341557 0.36122546 -0.13532342 -0.09352941 0.025900995 -0.042276166 -0.008509145
0.109731406 0.24591354 -0.005722901 0.20423275 -0.14759964 0.07601265 -0.09539983 0.2588751
0.06888657 0.16718978 0.06504053 -0.09126427 -0.06966236 0.013265781 -0.16163164 0.36393598
0.07126906 0.18674237 -0.03576781 0.14379416 -0.03981749 -0.12059322 0.23828317 0.1796069
-0.029703047 -0.12330456 -0.020525103 -0.047341213 -0.02156814 -0.16236933 0.109220415 -0.22169651
0.16930658 -0.021088842 -0.06663031 0.07820199 -0.013913841 0.30877385 -0.17834774 -0.07012827
-0.02033646 -0.037051238 -0.15223451 0.060722347 0.0070892293 -0.03207072 -0.014650558 0.010334766
-0.08265571 -0.057305917 0.092852175 0.08234089 0.03505588 0.008485275 0.1274041 0.04763675
0.10319552 -0.14070325 -0.064498484 -0.11553456 -0.09723982 -0.03502153 0.10073854 0.05074621
0.105791144 0.009917741 0.04394714 -0.002876864 -0.07628416 0.11227927 0.0904371 0.0927983
-0.06940924 0.044684414 0.050979383 -0.002673347 0.15322474 -0.13853098 0.06832623 0.055016596
0.11051848 0.035194866 0.066768855 -0.105564736 -0.08731245 0.02798129 0.047151234 0.0071809357
-0.04202016 -0.04242657 -0.0057992097 0.0719719 -0.011118979 -0.084172934 0.05585452 -0.111861095

gru.bias_hh_l0 f4 [300]
00000000: 6188 cfbd 21f1 f5bc e46d 62bd e405 653d
00000010: 2c4d 19be fd6a 16bd b604 c33d f88c 85bd
00000020: b14f 18bd a98a 49be 45a4 19be ce6b 34bd
00000030: 3d9b 0cbd 8e26 c63c 20b6 ecbd 18a4 82bc
00000040: 4759 7abd 05ca 603d b780 c7bd e129 f83b
00000050: 0fb5 1bbe f721 083d 5c9e 333d e664 12bd
00000060: 937c b53c a4ab 673c d364 22bd 7c9e 143e
00000070: 5392 b2bd 7edf dabc 4401 3cbd bac7 52bd
00000080: 2c16 f93d 36df 9ebd 6f63 8ebd 9bd8 f1bd
00000090: e86a 17bd c839 68bd b6a9 6f3e 7632 19be
000000a0: d2a4 8bbd fb7b c6bd 8609 eebd 2a4a b5bc
000000b0: 8fd7 57be f42d a8bd 0a29 35be 3cd8 a9bd
000000c0: 1194 0dbd 2443 2cbc 2dbd 1fbb 8a26 d13d
000000d0: cb3e c3bd efde c7bd 56e0 eb3b 9234 823d
000000e0: ae0a dfbd 270e c2bd a6bd 41bd 6ecb aebc
000000f0: 6ca8 c6bd 3b8c 45bd 731b dd3c 2548 753d
00000100: efb1 313d c2fd c4bc 863b 31be 7ec9 48be
00000110: 0ea1 343d 0b31 5fbd 543a 0cbe 1b38 9dbd
00000120: bd44 fdbd 8f4e 0a3d b455 5abd 93de d3bb
00000130: 9f02 ab3d 8d76 6b3d d9d7 573d fa49 cdbd
00000140: 21a0 02be a213 1cbc 4ca2 a6bd 424c 223e
00000150: 14f8 4cbd e1db 5a3b cf1b c8bd 3203 563d
00000160: 14b6 d5bc 13e9 8abc 5712 14be 8d00 67bc
00000170: 01dd 843c f100 4bbd ece6 15bd c7f3 c2bc
00000180: 4a5f 46bb 866a b93d 4b2a 7ebc 6964 aa3d
00000190: df26 98bd 985f b43d dc13 f5bd 3712 64bc
000001a0: e56a abbc b71c ad3d 7328 f63c 97c2 4a3e
000001b0: 1a0d 12be 0429 413c 3847 563b e9d3 7b3d
000001c0: 84c7 40be 3dc3 d3be 4fd7 8bbd 0b2a 29bd
000001d0: a7c7 2dbe 1dfc af3d 6382 58bd 70de 0e3d
000001e0: 04ba c93d 14a9 9f3c 4b7b 173e ca5c 81bd
000001f0: c935 8fbc 65aa 67bd 67d9 c53d 3cd5 863d
00000200: f799 b03b c5b4 19bd 508f e43c 946b 923e
00000210: 3878 d7bb faa1 b43e da3c 8dbd 84c0 14be
00000220: 52da f23d aaf5 613d c357 5c3c 863e e63c
00000230: 2787 5cbd bd62 b4bd de8b 7cbd 2c2b 4f3d
00000240: b26b 333d 85b6 ecbd 40ce 3abd 7b83 513d
00000250: 7d6a 093e 8e98 b23d 0e22 8dbd 5ab5 f03e
00000260: b214 5dbe dc6f 8abc e8d6 b93e 60aa 2bbe
00000270: e4f3 fabc 872a 153d 7879 c63d d52d 92bd
00000280: cd2d 193e c508 143e 3189 8ebd 2553 473e
00000290: e3e0 01be 98cf a43d d11d e3bd 1d59 903e
000002a0: 826c 793d 986a 343e 199e 09bb 5f70 19be
000002b0: 59b0 47be 5c54 40bd ab5e 81bd 3830 d03e
000002c0: d919 223a 750c 6c3e 7d4e 9c3c e1b5 043d
000002d0: d002 81bd c51d d8bd 51fc 9f3e 13ab 223e
000002e0: 51cb d83d 54a9 50bd fc06 d1bb 92f2 18bd
000002f0: 8461 073e d47a e1bd ed9f 9b3d 2b83 febd
00000300: dcb9 373e d3cb cbbd d233 c9bd ec9b 163e
00000310: c83a 87bc 3926 b83e 6328 c1bd 09c4 7f3d
00000320: 1560 27bb 2f69 e0bd 2433 afbd e659 1fbd
00000330: 3793 ae3d 96cc 1cbe 187f 6f3d 330e d13d
00000340: 4456 3bbd ad3b cebd 0a6f abba f39f 5bbc
00000350: 88ad 483c d65e 133e e52d 6abc 8019 b33d
00000360: 29e1 f93c a7e9 a0bd c14a 553d e6bf ce3c
00000370: c6cb 87bd 5516 8a3d 9aac 1c3b 3a0d d9bd
00000380: ba1c 8c3a 341e a83c 32a8 dbbb c645 f5bd
00000390: 5b7b 833b 116d ed3d d8e6 fb3d 98ff c63d
000003a0: 8e6c 9e3d acaf e53d 2d52 6bbd d42b ca3c
000003b0: a3b8 0f3e 2ca6 c0bd daee e83d 8639 b53d
000003c0: 7923 423d c727 793d 4565 003e 2db1 b7bd
000003d0: 0fb0 5d3d 97d7 8e3c 3e7a 803d 8968 1bbd
000003e0: c946 17bd f52d 92bd 1b0c 1dbc de8a 22bd
000003f0: 51f4 94bd f6ce f3bd 3cba 58bd 0083 debd
-0.10133434 -0.030022206 -0.05528058 0.05591382 -0.14970845 -0.036723126 0.09522383 -0.06521028
-0.037185375 -0.19681801 -0.1500407 -0.044048123 -0.034327734 0.024188306 -0.11558175 -0.015947387
-0.061120298 0.05488016 -0.09741347 0.0075733517 -0.15205787 0.033235516 0.043852195 -0.035740755
0.022154128 0.014140043 -0.039646935 0.14513582 -0.087193154 -0.026717898 -0.045899644 -0.051460005
0.12162432 -0.07757418 -0.06952559 -0.11808892 -0.036967188 -0.05669573 0.23404583 -0.14960656
-0.06818546 -0.09691616 -0.1162291 -0.02213009 -0.21078323 -0.0821189 -0.17691436 -0.082931966
-0.034565035 -0.010514054 -0.0024374232 0.10212429 -0.09533461 -0.09759318 0.007198374 0.06357683
-0.10890709 -0.094753556 -0.047300003 -0.021337237 -0.09700093 -0.048229437 0.026990628 0.059883256
0.04338258 -0.024046782 -0.17307863 -0.19608113 0.044098906 -0.05449013 -0.13694125 -0.07676717
-0.123666264 0.033766326 -0.05330439 -0.006465742 0.08350109 0.057486106 0.052696083 -0.100238755
-0.12756397 -0.009526165 -0.081364244 0.15849403 -0.050041273 0.0033395218 -0.09770929 0.05224914
-0.026087798 -0.016956842 -0.14460121 -0.014099252 0.016218664 -0.049561445 -0.036597177 -0.023797883
-0.00302692 0.09053521 -0.015513013 0.08319933 -0.07429289 0.088072956 -0.119666785 -0.013920358
-0.020924995 0.084527425 0.030048585 0.19800793 -0.1426281 0.011789564 0.0032696258 0.06148139
-0.18826109 -0.41359892 -0.06828176 -0.04129986 -0.16970693 0.08593009 -0.05285872 0.0348801
0.09849933 0.019489802 0.14793126 -0.06316526 -0.017481701 -0.056558985 0.09660607 0.0658364
0.005389448 -0.03752591 0.027900368 0.285977 -0.0065756105 0.35279828 -0.06896372 -0.14526564
0.118580475 0.055165924 0.013448658 0.028105985 -0.05383983 -0.08807895 -0.061656825 0.05057828
0.043803878 -0.1155825 -0.04560685 0.05115078 0.13419528 0.08720504 -0.06891261 0.4701336
-0.21589926 -0.016899042 0.36296773 -0.16764212 -0.030633874 0.03641751 0.09691137 -0.07137648
0.14958878 0.1445647 -0.06959761 0.19465311 -0.12683444 0.08047408 -0.110896714 0.28192988
0.060894497 0.17618787 -0.0020998775 -0.14984272 -0.19500865 -0.04695545 -0.063168846 0.40661788
0.0006183661 0.23051627 0.019080395 0.032400016 -0.062993646 -0.10552553 0.3124719 0.15885572
0.105856545 -0.050942734 -0.0063790064 -0.037340708 0.13220793 -0.11009756 0.07598863 -0.12427362
0.17941993 -0.09950986 -0.09824337 0.14707917 -0.016507521 0.35966662 -0.09431531 0.062442813
-0.0025539447 -0.10957562 -0.08554676 -0.038904093 0.08524173 -0.15312418 0.058470815 0.102077864
-0.045736566 -0.10069976 -0.0013079357 -0.013404834 0.012248404 0.14391646 -0.014293169 0.08745098
0.030502873 -0.07857066 0.052073244 0.025237989 -0.066306636 0.06742541 0.002390659 -0.10598226
0.0010689714 0.020522214 -0.0067034 -0.11976199 0.004012508 0.115930684 0.12299889 0.097167194
0.07735549 0.112151474 -0.057451416 0.024679102 0.14035277 -0.09406695 0.11373682 0.08848862
0.04739711 0.06082895 0.12538631 -0.089693405 0.05412298 0.017436786 0.06273316 -0.03794149
-0.03693274 -0.07137672 -0.009585406 -0.039683215 -0.07273162 -0.11904709 -0.052911982 -0.1086483

dense_output.0.weight f4 [100, 100]
00000000: 80d4 203e 7d65 8c3d 23ed 7e3d 90df e43d
00000010: ee9a 433a c896 1d3e 8903 c53c 9517 9bbd
00000020: 17f3 12be d1b5 9dbd 4f4d ecbd 0ae6 64bc
00000030: cbb7 86bd 637e d5bd 7157 ebbc 5aa8 143d
00000040: bf20 31be ce4e d93e a23d 34bd 03be 4cbe
00000050: 2151 37bd b05c 34be 4a22 73bd a1cc 963d
00000060: 6e32 0ebe 5bf1 0a3e 0ae8 71be 476d 653e
00000070: fe40 a63d 192e 863c 5b6c c4bc b309 d53d
00000080: eea6 d8bd 9773 5fbd a3b7 463d 7c74 b03c
00000090: 399f 623d 77ee 0b3e 2d74 45be 644b adbc
000000a0: a1e7 24bd 6ebe 8abd 8e32 e83d 465b 17be
000000b0: 30ec 0a3d 564f 043d 6b54 10be cc4a bfbd
000000c0: 12a6 90bd 25e2 913d baa4 5bbd bd84 f23d
000000d0: 56e7 c1bd 2687 e2bd 651c 2f3e d881 bfbb
000000e0: 63d1 29bc b7a6 5a3e 6abf 9f3d 28af 8b3d
000000f0: 870e 41be a9fb 37be c863 633e b4eb 5dbc
00000100: b643 373e 272b cebd 8fc2 56bc f984 603e
00000110: 712a c9bd b597 9d3d e6a2 babd e303 a3bd
00000120: 5331 b5bd 135a 043e 65f5 243d cfc5 3bbc
00000130: fc45 6abd f6fb 12be 4372 ecbd 59ee 403d
00000140: 3358 3cbc 7084 d53d f80c 123d dbd2 88bd
00000150: 9627 233e 884e 2e3d aa15 d53c 193b fc3d
00000160: dbc6 c03d 5733 a7bd fc15 2ebd f38a c83d
00000170: 5563 0dbc 1c3f 3dbc 9816 3abe 00e5 0c3e
00000180: 4e83 3e3e df2a 1b3e 4ec2 f33d dade 0cbe
00000190: d3f9 80bd 4881 1bbc 9ced 0a3e 4699 76bc
000001a0: 30b8 ce3c 0dd5 eb3c 4be1 0a3e dddf ff3c
000001b0: 1555 b63d d4ac 113d 06b9 053e dd10 01bc
000001c0: 9d7e e43b 8681 11bd e142 183c 8f01 413d
000001d0: 6c4a 133d ead3 553d 028e d63d c036 263d
000001e0: 3a50 423d e35d 8ebc 004f 693d 8f61 0bbe
000001f0: 4380 0a3d 7f9b 48be 7a32 b13d f145 e9bd
00000200: 2136 913d 752c 1b3d 973d c8bd cb97 403c
00000210: 5a9e 9d3d d2f8 85bc 16ef 83bd b521 0c3d
00000220: 8504 d0bd 1a97 b8bd f62e aabd 2f08 503c
00000230: 50af 31bd c29f 423d ec62 0ebc 401e 86bb
00000240: 96b0 62bd 8d9d 463d 1930 b13d e4ae 65bb
00000250: d7d8 5f3d 60b2 b7bd 19a4 f43d 7b1a 0fbd
00000260: 4b0f 12bc b039 94bd c2df 57bc 1947 e53c
00000270: 6453 07bd 4ead cfbb d838 773d b5c7 dfbd
00000280: ce61 a23d eac2 b13d 382c f8bd e0fb a73d
00000290: 6910 d9bc 9713 b6bc e27b 95bc 3910 01bd
000002a0: 7862 093e c0ab c6bc 95a4 0539 a9c4 073e
000002b0: 0127 923d 964b 903d c939 b9bd 7919 ff3c
000002c0: f4e9 2fbc 0036 3e3d 0544 f5bc 0001 58bd
000002d0: 1300 493c 574c c2bb cc71 dbbd cff7 653d
000002e0: 37dc 213d c75c 4f3d f330 e0bc 125d 223d
000002f0: ebce a8bc 9aae dd3c 0536 d9bd 3b3e 1fbd
00000300: 7e45 a4bc b037 1c3e 65eb 123e 37d0 a2bd
00000310: 4c5b 00be fe29 62bd e1d6 be3d 563f d53d
00000320: 17c3 053e 7768 aebd 3d88 21be 9bfe 8c3d
00000330: 81b2 15bd 26e4 073e 5bbc 4e3d 6ce9 893c
00000340: 8a9a 7abd 8ad2 46bc 2922 13be 2616 293d
00000350: ca2e 64bd f163 b1bc 0ee6 d5bd 0354 d0bd
00000360: 5f7f 97bb 25b6 8bbd d044 6dbc b735 abbd
00000370: ef5f 29bd b356 83bd 1238 17bd ad21 303e
00000380: 6b62 14be 2b82 783b 559a abbd 7709 273e
00000390: 9e52 b1bd e7ad 0d3c 70d4 613d b7ae 433d
000003a0: 8228 9cbd a797 b43d f7db 0d3d 30f9 f9bc
000003b0: 7e69 8b3d b518 55bd b8ce b53d b33b 343d
000003c0: ec12 8c3d bce2 6bbc c33e fc3c 544e 553c
000003d0: f607 043b 1882 62bc 36d6 b7bc 4ea2 333b
000003e0: 82ee a1bd e488 393d 5795 9f3d 8c54 5f3d
000003f0: a4dd 8bbd e1d0 e43b 675e 0e3e ee2d 48bc
0.15706062 0.06855295 0.06223787 0.11175454 0.0007461746 0.1538955 0.024049537 -0.07572857
-0.14350544 -0.07700694 -0.11538183 -0.013970861 -0.065780245 -0.10424497 -0.028728219 0.036293365
-0.17297648 0.42442936 -0.04400409 -0.19994359 -0.044755105 -0.17613482 -0.059358872 0.073632486
-0.13886425 0.13568632 -0.23623672 0.22404967 0.08117865 0.016379403 -0.02397745 0.104022406
-0.10578714 -0.054553594 0.048514973 0.02153992 0.055327628 0.13665186 -0.19282599 -0.021154113
-0.04025996 -0.06774603 0.113377675 -0.14780912 0.033916652 0.032302223 -0.14094703 -0.09340438
-0.070629254 0.07123212 -0.053623892 0.11841724 -0.09467952 -0.11060934 0.17100675 -0.005844336
-0.010364863 0.21352659 0.07800181 0.06820518 -0.18853198 -0.17967094 0.22206032 -0.013544966
0.17896923 -0.100668244 -0.01310791 0.21925725 -0.09822548 0.076949514 -0.09113102 -0.07959726
-0.088472985 0.12924986 0.04027309 -0.011460735 -0.05719565 -0.14353928 -0.11545231 0.047102306
-0.011495638 0.10425651 0.0356569 -0.066808425 0.1593307 0.042555362 0.026011307 0.123159595
0.09412929 -0.08164089 -0.042501435 0.097921275 -0.00862964 -0.011550691 -0.18172681 0.13759232
0.18604776 0.15153073 0.11902295 -0.13756886 -0.0629765 -0.009491272 0.13567203 -0.015051192
0.025234312 0.028788114 0.13562505 0.031234676 0.08902947 0.035565212 0.13058862 -0.007877556
0.0069731013 -0.035523914 0.009293289 0.047120627 0.035959646 0.05220405 0.104763046 0.040579557
0.04743979 -0.017378753 0.056960106 -0.13611434 0.033813726 -0.19590567 0.08652206 -0.113902934
0.070904024 0.037884194 -0.09777372 0.01175494 0.07696219 -0.016353998 -0.064420864 0.034211833
-0.10157112 -0.09013195 -0.08309738 0.012697264 -0.04338008 0.04751564 -0.008690577 -0.0040929615
-0.055344187 0.048490096 0.08651752 -0.003504687 0.054650154 -0.08969569 0.11945362 -0.034937363
-0.008914779 -0.072375655 -0.013175907 0.027988004 -0.033038512 -0.006337798 0.060356945 -0.10926763
0.07928811 0.08679755 -0.12117809 0.08202338 -0.026497083 -0.022226138 -0.018247548 -0.03150961
0.13416469 -0.024251819 0.0001274518 0.13258614 0.07136346 0.07045667 -0.09044225 0.031140076
-0.010736931 0.046438217 -0.02993966 -0.05273533 0.012268084 -0.0059295106 -0.107150644 0.05614453
0.039516654 0.05062559 -0.02736709 0.03963954 -0.020606479 0.027060796 -0.106060065 -0.038877707
-0.020052668 0.15255618 0.14347608 -0.0794987 -0.12534827 -0.055215828 0.09318329 0.10412471
0.13062702 -0.08516019 -0.15774627 0.068845 -0.036547188 0.13270625 0.0504726 0.016834937
-0.061182536 -0.012135157 -0.143685 0.041280888 -0.055708684 -0.021654101 -0.1044427 -0.10172274
-0.004623338 -0.06821851 -0.014481738 -0.08359855 -0.041351255 -0.06413021 -0.036918707 0.17200346
-0.14490668 0.0037919383 -0.08379046 0.16312204 -0.08658336 0.008647419 0.055134237 0.047774043
-0.07624914 0.08817988 0.034633603 -0.03051433 0.068072304 -0.052025516 0.08877319 0.044002246
0.068395466 -0.014397319 0.030791646 0.013019163 0.0020146347 -0.013824962 -0.02244101 0.0027409974
-0.0790682 0.045296565 0.07792156 0.05452399 -0.06829384 0.006982908 0.13903199 -0.012217982

dense_output.0.bias f4 [100]
00000000: 4d91 7abe 900f 40bc 7ab2 703d 690d 2cbe
00000010: 5f21 11be 5883 1bbe 6f25 febd aafe 2b3d
00000020: 0981 b23d c5c8 cebd 9a0c 46bd a815 013d
00000030: c5cb 22be 62f3 0d3b 9d7d 4e3d 53d2 143e
00000040: 1509 a6bd 8a96 85bc f064 96bd f2f5 64bc
00000050: 0ed8 213e a0ab 273e c7fd f73d 0106 46be
00000060: 62ad 9abd 2a31 50bb 2444 89bd c20b 2fbe
00000070: a786 eabd 9670 22bc 04a4 8c3c 398d 123e
00000080: f1de 023d 6fa5 053d 3131 963d 89de 943d
00000090: 9c02 c4bd 3557 c13d 5c4e 2f3d 4db5 0cbe
000000a0: 3518 afbd 517a 6bbd 948c 64bd 8684 083e
000000b0: 1b9d 293c b3e4 3a3c 7197 17be ec60 13be
000000c0: 47ef fa3d f8d7 eebd d4d5 b9bd 1d8a 9bbd
000000d0: 24e4 853d 1c5e f6bc f3f0 e03d a4da d6bd
000000e0: 3f02 1abe acfb 86bd 1024 793d 6332 3e3d
000000f0: 65a3 15be ec34 4dbb 6d2e c53a c259 ebbd
00000100: 70c1 873b facc 0ebe 1886 82bb 0260 ea3c
00000110: 799f dcbd 9d7c 2d3d f1d3 28be 3a89 24be
00000120: 19a7 dc3b 2516 e4bc d7b8 a9bd be9b ffbd
00000130: 2a3a a2bd 9066 68be d179 8bbd f19e f13c
00000140: 7200 a2bd fefe 05be ccda 663d 7610 d63b
00000150: dc56 873c 5d4e f4bb ee0c 0dbe 197b 273e
00000160: 84d1 a6bb 8ec5 343d 9696 90bd e30c 2e3d
00000170: cd56 a7bd 4090 76bd 8e9c a0bd 9147 9cbd
00000180: 0c07 04bd 3383 f43c ac81 fdbd 54a2 c33c
-0.2446949 -0.01172246 0.05876396 -0.1680199 -0.14172886 -0.15186822 -0.12409484 0.041990913
0.08716018 -0.100968875 -0.04835186 0.031514794 -0.15898044 0.002165996 0.050412763 0.14533357
-0.08107201 -0.016307134 -0.07343471 -0.013974654 0.15805075 0.16374063 0.12108951 -0.19338228
-0.075526014 -0.0031767585 -0.0670245 -0.17094329 -0.11451464 -0.009914538 0.017168052 0.14311685
0.031950895 0.032628473 0.07333601 0.07269008 -0.0957081 0.094404615 0.04279934 -0.13741036
-0.08549539 -0.057489697 -0.05579813 0.13331804 0.010352398 0.011407065 -0.14803864 -0.14392442
0.1225267 -0.116622865 -0.090739876 -0.075947024 0.06537655 -0.030074172 0.109834574 -0.10490921
-0.1503992 -0.06590971 0.060825408 0.04643477 -0.14613111 -0.0031312061 0.0015043743 -0.11491729
0.0041429326 -0.1394538 -0.0039832704 0.028610233 -0.107726045 0.04235517 -0.16487099 -0.16067973
0.006733787 -0.02784259 -0.082872085 -0.12480877 -0.0792125 -0.22695374 -0.06810344 0.029494734
-0.07910241 -0.13085553 0.056361005 0.006532724 0.01652091 -0.0074556307 -0.13774464 0.16355552
-0.005090894 0.044133715 -0.07059972 0.04249276 -0.08170853 -0.06019616 -0.078423604 -0.07630838
-0.032233283 0.029847717 -0.123782486 0.023881115

dense_output.3.weight f4 [1, 100]
00000000: 8132 02be 5c78 263d 0093 a13d bab0 953c
00000010: ef30 5dbc f88f fb3b cf22 e83b 0cb5 c43c
00000020: 5fcb c83d 6211 7c3c 4329 e13a 9dae ed3b
00000030: 309a a7ba e625 7e3c 0f21 7a3b 33c3 a63d
00000040: 7b00 1a3c 5024 123b 997b 4db8 ba66 80bd
00000050: 4b39 6a3d 0206 3e3d b4cb d23d 3133 1cbc
00000060: ecc7 1fbc e0e4 363c 1390 c1bc 19c4 e83c
00000070: 1ebf 3c3c 1010 3c3c 2fbe b93c c2c3 6d3d
00000080: e78e 603d b4e1 d0bb a9d2 893d ff16 2e3d
00000090: 7bc6 583c 9514 573d 4f9a 6c3d c17e a1bc
000000a0: 8a8a 4bbb a938 dfbc 40bf a13b 623e 123d
000000b0: 1ff7 403d 2df9 f83a ba24 2abd 8cb1 c8bc
000000c0: 7708 d43c 8275 8b3a 2b5e 573a 423d 1a3c
000000d0: 17c0 9b3c 4861 28bd 4e41 323b f440 653d
000000e0: eeb5 3b3c d187 6dbc 8493 43ba 5bf4 803b
000000f0: aca6 65bb 5fb3 e83a 63d8 07bc be9a 12bc
00000100: ce1f 64bd a6be 74bc 4f3d ed3b 1f80 f83c
00000110: 4195 b83d 56ca ddbc 4f67 88bc d3b1 14bc
00000120: 7f45 8abd 34d2 ff3b a600 a6bc 0c39 bd3c
00000130: b43c 9e3c 7f33 36be 06fe 80ba 5b61 83bc
00000140: 71a2 b53c 6985 b4bc 6437 713d 0694 2cba
00000150: e047 883b cffc 29bd 965c a93c 15dc 013d
00000160: 6adb d03d 8d99 543e 3692 a6bc 0dca 863d
00000170: 1161 433d 1cab 9b3c fdfb b43c e61c fb3b
00000180: 2bdc ccbc fe0c 703b a48e 8dbc bd5d ff3c
-0.12714578 0.040642127 0.07889366 0.018272746 -0.013500436 0.0076770745 0.0070842276 0.024012111
0.09804415 0.015385004 0.0017178435 0.0072534815 -0.001278704 0.015511965 0.0038166677 0.081427
0.009399529 0.0022299476 -4.8990918e-05 -0.062695935 0.057183545 0.04639245 0.102927595 -0.009533689
-0.009752255 0.0111629665 -0.02362827 0.02841382 0.011520175 0.011478439 0.022673694 0.058048017
0.054823782 -0.006374562 0.06729633 0.0425024 0.013230915 0.052509863 0.057764348 -0.019713761
-0.0031057918 -0.027248697 0.004936129 0.035704024 0.047110673 0.0018995159 -0.04153893 -0.024498723
0.025882943 0.0010639878 0.0008215631 0.009414019 0.019012494 -0.0411084 0.002719957 0.055970147
0.01145695 -0.014497713 -0.0007460641 0.0039353794 -0.003504197 0.0017753652 -0.008291337 -0.008948026
-0.055694394 -0.014938032 0.0072399746 0.03033453 0.09012843 -0.02707402 -0.016650824 -0.0090756
-0.067515366 0.0078070406 -0.020263981 0.023098491 0.019316055 -0.17793082 -0.000984133 -0.016037634
0.022172185 -0.022036271 0.058890715 -0.00065833365 0.004158959 -0.041500863 0.020674031 0.031704027
0.101981 0.207617 -0.02033339 0.06581507 0.04769999 0.01900249 0.022092814 0.007663357
-0.025007328 0.0036628838 -0.01727993 0.031172628

exp_avg f4 [4, 1, 3, 3, 3]
00000000: 2883 0fbb 365d 0ebb 4331 e5ba d1a7 bdba
00000010: c39f 97ba 084f f5b9 29c9 2d38 937f 06b9
00000020: 099f 0837 f769 40bb 4615 e4ba 8a45 0ebb
00000030: 4729 1cbb 9ea8 65ba 7bc9 67ba b04c 88ba
00000040: 4867 68b9 cc57 73b9 8522 e8ba 57b7 06bb
00000050: a3c9 39bb 9d6d b2ba 892f 7cba fcda bdba
00000060: c5d2 3bba dc7c 45b9 ccc6 98b9 30bc baba
00000070: c4e5 c4ba b073 0fbb 08cd a1ba 4ce2 a5ba
00000080: 5153 f3ba 0720 bdba 47c8 d9ba d7c4 1ebb
00000090: cba4 0bbb 27be 3bbb 985b 73bb fcec e5ba
000000a0: 5e55 22bb 1d50 68bb 4859 e3ba 60fb 1fbb
000000b0: 66a8 69bb 4d09 0dbb cac2 4dbb ca2c 31bb
000000c0: 67fc e3ba 983d 36bb cbab 27bb c003 c9ba
000000d0: dc95 22bb 6982 22bb f729 3d3b 578c f439
000000e0: 8622 603b cb2c 403b 2c56 483a c834 4e3b
000000f0: 8a01 363b 4c23 443a bf4b 2f3b 98bc 613a
00000100: 32ad a73a 9e12 883b 59a3 ae3a f2ab c63a
00000110: a183 723b 8153 af3a eca1 a93a a9e0 453b
00000120: af0b fc3a 4c6a 263b 3a56 923b ca2d e83a
00000130: df08 193b cff3 783b 0d12 363a a6fc 003b
00000140: 7f7f 633b d3f9 c83b 265b 983b 3ea6 4d3b
00000150: e8a1 043c 05ea 1b3c f0c2 de3b 4186 d63b
00000160: a8e9 143c 7bd2 b63b b82c b43b 25d1 6a3b
00000170: 00b6 283b 870e 0c3c 0b83 0c3c 3d70 bd3b
00000180: 1c6e 013c eeb7 083c 4ab8 963b 971b 9e3b
00000190: ad5d 2d3b 9e27 663b 44d3 103c e436 ee3b
000001a0: 4048 d33b f08e 093c 841b f13b f3c2 ae3b
-0.0021898244 -0.0021723039 -0.0017485995 -0.0014469569 -0.0011567998 -0.00046788924 4.143376e-05 -0.00012826761
8.14326e-06 -0.0029360035 -0.001740136 -0.002170893 -0.0023828314 -0.00087607827 -0.00088419736 -0.0010398831
-0.0002216372 -0.00023206993 -0.0017710483 -0.0020556056 -0.0028348945 -0.001361299 -0.00096201204 -0.0014484818
-0.0007164891 -0.00018833898 -0.00029139814 -0.0014246758 -0.0015022089 -0.0021889023 -0.0012344429 -0.0012655943
-0.0018564259 -0.00144291 -0.0016615473 -0.0024226212 -0.002130794 -0.0028647275 -0.0037133452 -0.001754194
-0.002477012 -0.0035448142 -0.0017345333 -0.0024411306 -0.0035653352 -0.0021520436 -0.003139662 -0.0027034753
-0.0017393947 -0.0027807709 -0.0025584574 -0.0015336201 -0.0024808561 -0.0024796969 0.0028864124 0.00046643868
0.0034200265 0.0029323574 0.0007642235 0.0031464566 0.0027771913 0.0007482066 0.002674803 0.00086111715
0.0012792705 0.00415261 0.0013323828 0.0015157445 0.0037004726 0.0013376327 0.0012941933 0.0030193722
0.0019229556 0.0025392948 0.0044658454 0.0017713842 0.0023351235 0.0037987118 0.0006945439 0.001968184
0.0034713445 0.006133297 0.0046495376 0.0031379606 0.008095242 0.009516244 0.0067981407 0.006546766
0.009088911 0.0055792904 0.005498495 0.0035830226 0.0025743246 0.008548385 0.008576165 0.005781202
0.007899787 0.0083446335 0.0045996057 0.0048250663 0.002645354 0.0035118829 0.008839432 0.007269727
0.006447822 0.008395895 0.0073580164 0.0053332984

exp_avg_sq f4 [4, 1, 3, 3, 3]
00000000: b47d 9b39 9b2a 9d39 0226 9439 72b3 2e39
00000010: 1fe0 3a39 40b4 3e39 9d72 0039 46f4 1239
00000020: d9e6 0b39 18e8 9b39 c192 9139 45b9 9839
00000030: 653e 2e39 9900 2239 5085 3839 cb54 0c39
00000040: ddf0 f838 64c3 fb38 7d8c 8439 1ae6 8239
00000050: cbc1 9539 96c5 1139 9194 0939 a390 3139
00000060: 4578 f838 e19e be38 8c41 eb38 443c b438
00000070: 2ac0 ba38 1c9a d838 6152 a538 14c5 ad38
00000080: 013e ca38 1a16 a538 8118 aa38 10dc c238
00000090: 44ed b738 531f c638 d3a9 e538 ef8c a438
000000a0: c9cc b438 27b0 d538 3281 a138 9cc8 ae38
000000b0: 27d2 cd38 01a4 aa38 3215 b538 78b7 d438
000000c0: 589d 9638 1d41 a338 c7b0 c538 c024 9338
000000d0: ef44 9e38 7549 bb38 969b f139 863f 8e39
000000e0: db7f 8639 61c1 ea39 7d72 a639 6f3c b839
000000f0: daf7 043a 873d e839 9e3c 0c3a 4a5c ed39
00000100: 5239 8139 d2f3 8239 4fc9 ee39 97a8 a339
00000110: 5151 b639 7fc6 0a3a 5e0f f339 7ab7 123a
00000120: 87ad d139 2a2c 6e39 970f 9139 1acb e239
00000130: 53ab a039 4556 cc39 2d64 0d3a 63b6 003a
00000140: e188 213a 398a 923a 60e7 923a 755a 583a
00000150: f509 763a bff6 8a3a 8bac 2e3a e46b 8b3a
00000160: bcc4 aa3a 8f0a 613a ab88 ae3a c1ef 8e3a
00000170: 7862 493a dd47 993a 5f30 843a aa83 103a
00000180: 2766 ac3a 2218 a73a 185e 313a 5928 b63a
00000190: 7504 803a 88ae 523a 48db a53a 8846 573a
000001a0: 8949 1a3a 66c7 bd3a 916e 873a e4ff 283a
0.0002965756 0.00029977117 0.00028257078 0.00016660782 0.00017821834 0.0001818696 0.00012249728 0.00014014644
0.0001334207 0.00029736827 0.00027765895 0.00029129736 0.00016617177 0.00015449747 0.0001759727 0.00013383028
0.00011870426 0.00012005007 0.00025281674 0.0002496697 0.00028563882 0.00013901884 0.00013120683 0.00016933917
0.000118479635 9.0894995e-05 0.00011217882 8.594294e-05 8.9049645e-05 0.00010328388 7.8831574e-05 8.2859915e-05
9.64366e-05 7.87193e-05 8.110796e-05 9.291631e-05 8.770314e-05 9.44721e-05 0.00010951203 7.84638e-05
8.621213e-05 0.000101894424 7.701143e-05 8.334333e-05 9.814306e-05 8.13678e-05 8.6347005e-05 0.000101431215
7.181865e-05 7.784574e-05 9.426619e-05 7.0163514e-05 7.546867e-05 8.930537e-05 0.00046083023 0.0002713168
0.0002565373 0.00044776037 0.00031747288 0.0003514024 0.0005072333 0.0004429633 0.0005349609 0.00045272923
0.00024647504 0.00024977193 0.00045544884 0.00031215392 0.0003477433 0.00052938604 0.0004636002 0.0005596798
0.00039992874 0.00022713901 0.0002766817 0.00043257402 0.00030645225 0.00038974188 0.00053936505 0.000490999
0.0006162059 0.001118011 0.0011207871 0.0008253225 0.0009385639 0.00106021 0.0006663284 0.0010637012
0.0013028602 0.0008584642 0.0013315877 0.0010905192 0.00076822145 0.001169439 0.0010085216 0.00055127835
0.0013153002 0.0012748281 0.0006766035 0.0013897523 0.0009766953 0.00080368714 0.0012653852 0.0008212109
0.00058855914 0.0014478981 0.0010332634 0.0006446822

exp_avg f4 [4]
00000000: 58e1 c6bb 15af 34b9 a345 b13b 2c68 a13c
-0.0060693435 -0.00017231361 0.0054099127 0.019702993

exp_avg_sq f4 [4]
00000000: 05b6 253b ce9d 8c3b 20b6 203c 326b be3c
0.0025285494 0.0042912727 0.009809047 0.023244474
